{
  "nodes": [
    {
      "op": "null", 
      "name": "data", 
      "inputs": []
    }, 
    {
      "op": "Pad", 
      "name": "pad30", 
      "attrs": {
        "mode": "constant", 
        "pad_width": "(0, 0, 0, 0, 0, 0, 0, 0)"
      }, 
      "inputs": [[0, 0, 0]]
    }, 
    {
      "op": "null", 
      "name": "learned_1", 
      "attrs": {"__shape__": "(1, 1, 4, 4)"}, 
      "inputs": []
    }, 
    {
      "op": "Deconvolution", 
      "name": "deconvolution1", 
      "attrs": {
        "dilate": "(1, 1)", 
        "kernel": "(4, 4)", 
        "no_bias": "True", 
        "num_filter": "1", 
        "num_group": "1", 
        "pad": "(1, 1)", 
        "stride": "(2, 2)"
      }, 
      "inputs": [[1, 0, 0], [2, 0, 0]]
    }, 
    {
      "op": "Pad", 
      "name": "pad0", 
      "attrs": {
        "mode": "constant", 
        "pad_width": "(0, 0, 0, 0, 1, 1, 1, 1)"
      }, 
      "inputs": [[0, 0, 0]]
    }, 
    {
      "op": "null", 
      "name": "learned_0", 
      "attrs": {"__shape__": "(64, 1, 3, 3)"}, 
      "inputs": []
    }, 
    {
      "op": "Convolution", 
      "name": "convolution0", 
      "attrs": {
        "dilate": "(1, 1)", 
        "kernel": "(3, 3)", 
        "no_bias": "True", 
        "num_filter": "64", 
        "num_group": "1", 
        "stride": "(1, 1)"
      }, 
      "inputs": [[4, 0, 0], [5, 0, 0]]
    }, 
    {
      "op": "LeakyReLU", 
      "name": "leakyrelu0", 
      "attrs": {"slope": "0.20000000298023224"}, 
      "inputs": [[6, 0, 0]]
    }, 
    {
      "op": "Pad", 
      "name": "pad1", 
      "attrs": {
        "mode": "constant", 
        "pad_width": "(0, 0, 0, 0, 1, 1, 1, 1)"
      }, 
      "inputs": [[7, 0, 0]]
    }, 
    {
      "op": "null", 
      "name": "learned_4", 
      "attrs": {"__shape__": "(64, 64, 3, 3)"}, 
      "inputs": []
    }, 
    {
      "op": "Convolution", 
      "name": "convolution1", 
      "attrs": {
        "dilate": "(1, 1)", 
        "kernel": "(3, 3)", 
        "no_bias": "True", 
        "num_filter": "64", 
        "num_group": "1", 
        "stride": "(1, 1)"
      }, 
      "inputs": [[8, 0, 0], [9, 0, 0]]
    }, 
    {
      "op": "LeakyReLU", 
      "name": "leakyrelu1", 
      "attrs": {"slope": "0.20000000298023224"}, 
      "inputs": [[10, 0, 0]]
    }, 
    {
      "op": "Pad", 
      "name": "pad2", 
      "attrs": {
        "mode": "constant", 
        "pad_width": "(0, 0, 0, 0, 1, 1, 1, 1)"
      }, 
      "inputs": [[11, 0, 0]]
    }, 
    {
      "op": "null", 
      "name": "learned_5", 
      "attrs": {"__shape__": "(64, 64, 3, 3)"}, 
      "inputs": []
    }, 
    {
      "op": "Convolution", 
      "name": "convolution2", 
      "attrs": {
        "dilate": "(1, 1)", 
        "kernel": "(3, 3)", 
        "no_bias": "True", 
        "num_filter": "64", 
        "num_group": "1", 
        "stride": "(1, 1)"
      }, 
      "inputs": [[12, 0, 0], [13, 0, 0]]
    }, 
    {
      "op": "LeakyReLU", 
      "name": "leakyrelu2", 
      "attrs": {"slope": "0.20000000298023224"}, 
      "inputs": [[14, 0, 0]]
    }, 
    {
      "op": "Pad", 
      "name": "pad3", 
      "attrs": {
        "mode": "constant", 
        "pad_width": "(0, 0, 0, 0, 1, 1, 1, 1)"
      }, 
      "inputs": [[15, 0, 0]]
    }, 
    {
      "op": "null", 
      "name": "learned_6", 
      "attrs": {"__shape__": "(256, 64, 3, 3)"}, 
      "inputs": []
    }, 
    {
      "op": "Convolution", 
      "name": "convolution3", 
      "attrs": {
        "dilate": "(1, 1)", 
        "kernel": "(3, 3)", 
        "no_bias": "True", 
        "num_filter": "256", 
        "num_group": "1", 
        "stride": "(1, 1)"
      }, 
      "inputs": [[16, 0, 0], [17, 0, 0]]
    }, 
    {
      "op": "Pad", 
      "name": "pad4", 
      "attrs": {
        "mode": "constant", 
        "pad_width": "(0, 0, 0, 0, 0, 0, 0, 0)"
      }, 
      "inputs": [[18, 0, 0]]
    }, 
    {
      "op": "Pooling", 
      "name": "pooling0", 
      "attrs": {
        "global_pool": "True", 
        "kernel": "(1, 1)", 
        "pool_type": "avg"
      }, 
      "inputs": [[19, 0, 0]]
    }, 
    {
      "op": "Pad", 
      "name": "pad5", 
      "attrs": {
        "mode": "constant", 
        "pad_width": "(0, 0, 0, 0, 0, 0, 0, 0)"
      }, 
      "inputs": [[20, 0, 0]]
    }, 
    {
      "op": "null", 
      "name": "learned_8", 
      "attrs": {"__shape__": "(16, 256, 1, 1)"}, 
      "inputs": []
    }, 
    {
      "op": "Convolution", 
      "name": "convolution4", 
      "attrs": {
        "dilate": "(1, 1)", 
        "kernel": "(1, 1)", 
        "no_bias": "True", 
        "num_filter": "16", 
        "num_group": "1", 
        "stride": "(1, 1)"
      }, 
      "inputs": [[21, 0, 0], [22, 0, 0]]
    }, 
    {
      "op": "LeakyReLU", 
      "name": "leakyrelu3", 
      "attrs": {"slope": "0.20000000298023224"}, 
      "inputs": [[23, 0, 0]]
    }, 
    {
      "op": "Pad", 
      "name": "pad6", 
      "attrs": {
        "mode": "constant", 
        "pad_width": "(0, 0, 0, 0, 0, 0, 0, 0)"
      }, 
      "inputs": [[24, 0, 0]]
    }, 
    {
      "op": "null", 
      "name": "learned_9", 
      "attrs": {"__shape__": "(256, 16, 1, 1)"}, 
      "inputs": []
    }, 
    {
      "op": "Convolution", 
      "name": "convolution5", 
      "attrs": {
        "dilate": "(1, 1)", 
        "kernel": "(1, 1)", 
        "no_bias": "True", 
        "num_filter": "256", 
        "num_group": "1", 
        "stride": "(1, 1)"
      }, 
      "inputs": [[25, 0, 0], [26, 0, 0]]
    }, 
    {
      "op": "sigmoid", 
      "name": "sigmoid0", 
      "inputs": [[27, 0, 0]]
    }, 
    {
      "op": "Reshape", 
      "name": "reshape0", 
      "attrs": {"shape": "(1, -1, 1, 1)"}, 
      "inputs": [[28, 0, 0]]
    }, 
    {
      "op": "broadcast_mul", 
      "name": "broadcast_mul0", 
      "inputs": [[18, 0, 0], [29, 0, 0]]
    }, 
    {
      "op": "Pad", 
      "name": "pad7", 
      "attrs": {
        "mode": "constant", 
        "pad_width": "(0, 0, 0, 0, 0, 0, 0, 0)"
      }, 
      "inputs": [[30, 0, 0]]
    }, 
    {
      "op": "null", 
      "name": "learned_7", 
      "attrs": {"__shape__": "(64, 256, 1, 1)"}, 
      "inputs": []
    }, 
    {
      "op": "Convolution", 
      "name": "convolution6", 
      "attrs": {
        "dilate": "(1, 1)", 
        "kernel": "(1, 1)", 
        "no_bias": "True", 
        "num_filter": "64", 
        "num_group": "1", 
        "stride": "(1, 1)"
      }, 
      "inputs": [[31, 0, 0], [32, 0, 0]]
    }, 
    {
      "op": "LeakyReLU", 
      "name": "leakyrelu4", 
      "attrs": {"slope": "0.20000000298023224"}, 
      "inputs": [[33, 0, 0]]
    }, 
    {
      "op": "broadcast_add", 
      "name": "broadcast_add0", 
      "inputs": [[7, 0, 0], [34, 0, 0]]
    }, 
    {
      "op": "Pad", 
      "name": "pad8", 
      "attrs": {
        "mode": "constant", 
        "pad_width": "(0, 0, 0, 0, 1, 1, 1, 1)"
      }, 
      "inputs": [[35, 0, 0]]
    }, 
    {
      "op": "Convolution", 
      "name": "convolution7", 
      "attrs": {
        "dilate": "(1, 1)", 
        "kernel": "(3, 3)", 
        "no_bias": "True", 
        "num_filter": "64", 
        "num_group": "1", 
        "stride": "(1, 1)"
      }, 
      "inputs": [[36, 0, 0], [9, 0, 0]]
    }, 
    {
      "op": "LeakyReLU", 
      "name": "leakyrelu5", 
      "attrs": {"slope": "0.20000000298023224"}, 
      "inputs": [[37, 0, 0]]
    }, 
    {
      "op": "Pad", 
      "name": "pad9", 
      "attrs": {
        "mode": "constant", 
        "pad_width": "(0, 0, 0, 0, 1, 1, 1, 1)"
      }, 
      "inputs": [[38, 0, 0]]
    }, 
    {
      "op": "Convolution", 
      "name": "convolution8", 
      "attrs": {
        "dilate": "(1, 1)", 
        "kernel": "(3, 3)", 
        "no_bias": "True", 
        "num_filter": "64", 
        "num_group": "1", 
        "stride": "(1, 1)"
      }, 
      "inputs": [[39, 0, 0], [13, 0, 0]]
    }, 
    {
      "op": "LeakyReLU", 
      "name": "leakyrelu6", 
      "attrs": {"slope": "0.20000000298023224"}, 
      "inputs": [[40, 0, 0]]
    }, 
    {
      "op": "Pad", 
      "name": "pad10", 
      "attrs": {
        "mode": "constant", 
        "pad_width": "(0, 0, 0, 0, 1, 1, 1, 1)"
      }, 
      "inputs": [[41, 0, 0]]
    }, 
    {
      "op": "Convolution", 
      "name": "convolution9", 
      "attrs": {
        "dilate": "(1, 1)", 
        "kernel": "(3, 3)", 
        "no_bias": "True", 
        "num_filter": "256", 
        "num_group": "1", 
        "stride": "(1, 1)"
      }, 
      "inputs": [[42, 0, 0], [17, 0, 0]]
    }, 
    {
      "op": "Pad", 
      "name": "pad11", 
      "attrs": {
        "mode": "constant", 
        "pad_width": "(0, 0, 0, 0, 0, 0, 0, 0)"
      }, 
      "inputs": [[43, 0, 0]]
    }, 
    {
      "op": "Pooling", 
      "name": "pooling1", 
      "attrs": {
        "global_pool": "True", 
        "kernel": "(1, 1)", 
        "pool_type": "avg"
      }, 
      "inputs": [[44, 0, 0]]
    }, 
    {
      "op": "Pad", 
      "name": "pad12", 
      "attrs": {
        "mode": "constant", 
        "pad_width": "(0, 0, 0, 0, 0, 0, 0, 0)"
      }, 
      "inputs": [[45, 0, 0]]
    }, 
    {
      "op": "Convolution", 
      "name": "convolution10", 
      "attrs": {
        "dilate": "(1, 1)", 
        "kernel": "(1, 1)", 
        "no_bias": "True", 
        "num_filter": "16", 
        "num_group": "1", 
        "stride": "(1, 1)"
      }, 
      "inputs": [[46, 0, 0], [22, 0, 0]]
    }, 
    {
      "op": "LeakyReLU", 
      "name": "leakyrelu7", 
      "attrs": {"slope": "0.20000000298023224"}, 
      "inputs": [[47, 0, 0]]
    }, 
    {
      "op": "Pad", 
      "name": "pad13", 
      "attrs": {
        "mode": "constant", 
        "pad_width": "(0, 0, 0, 0, 0, 0, 0, 0)"
      }, 
      "inputs": [[48, 0, 0]]
    }, 
    {
      "op": "Convolution", 
      "name": "convolution11", 
      "attrs": {
        "dilate": "(1, 1)", 
        "kernel": "(1, 1)", 
        "no_bias": "True", 
        "num_filter": "256", 
        "num_group": "1", 
        "stride": "(1, 1)"
      }, 
      "inputs": [[49, 0, 0], [26, 0, 0]]
    }, 
    {
      "op": "sigmoid", 
      "name": "sigmoid1", 
      "inputs": [[50, 0, 0]]
    }, 
    {
      "op": "Reshape", 
      "name": "reshape1", 
      "attrs": {"shape": "(1, -1, 1, 1)"}, 
      "inputs": [[51, 0, 0]]
    }, 
    {
      "op": "broadcast_mul", 
      "name": "broadcast_mul1", 
      "inputs": [[43, 0, 0], [52, 0, 0]]
    }, 
    {
      "op": "Pad", 
      "name": "pad14", 
      "attrs": {
        "mode": "constant", 
        "pad_width": "(0, 0, 0, 0, 0, 0, 0, 0)"
      }, 
      "inputs": [[53, 0, 0]]
    }, 
    {
      "op": "Convolution", 
      "name": "convolution12", 
      "attrs": {
        "dilate": "(1, 1)", 
        "kernel": "(1, 1)", 
        "no_bias": "True", 
        "num_filter": "64", 
        "num_group": "1", 
        "stride": "(1, 1)"
      }, 
      "inputs": [[54, 0, 0], [32, 0, 0]]
    }, 
    {
      "op": "LeakyReLU", 
      "name": "leakyrelu8", 
      "attrs": {"slope": "0.20000000298023224"}, 
      "inputs": [[55, 0, 0]]
    }, 
    {
      "op": "broadcast_add", 
      "name": "broadcast_add1", 
      "inputs": [[35, 0, 0], [56, 0, 0]]
    }, 
    {
      "op": "Pad", 
      "name": "pad15", 
      "attrs": {
        "mode": "constant", 
        "pad_width": "(0, 0, 0, 0, 1, 1, 1, 1)"
      }, 
      "inputs": [[57, 0, 0]]
    }, 
    {
      "op": "Convolution", 
      "name": "convolution13", 
      "attrs": {
        "dilate": "(1, 1)", 
        "kernel": "(3, 3)", 
        "no_bias": "True", 
        "num_filter": "64", 
        "num_group": "1", 
        "stride": "(1, 1)"
      }, 
      "inputs": [[58, 0, 0], [9, 0, 0]]
    }, 
    {
      "op": "LeakyReLU", 
      "name": "leakyrelu9", 
      "attrs": {"slope": "0.20000000298023224"}, 
      "inputs": [[59, 0, 0]]
    }, 
    {
      "op": "Pad", 
      "name": "pad16", 
      "attrs": {
        "mode": "constant", 
        "pad_width": "(0, 0, 0, 0, 1, 1, 1, 1)"
      }, 
      "inputs": [[60, 0, 0]]
    }, 
    {
      "op": "Convolution", 
      "name": "convolution14", 
      "attrs": {
        "dilate": "(1, 1)", 
        "kernel": "(3, 3)", 
        "no_bias": "True", 
        "num_filter": "64", 
        "num_group": "1", 
        "stride": "(1, 1)"
      }, 
      "inputs": [[61, 0, 0], [13, 0, 0]]
    }, 
    {
      "op": "LeakyReLU", 
      "name": "leakyrelu10", 
      "attrs": {"slope": "0.20000000298023224"}, 
      "inputs": [[62, 0, 0]]
    }, 
    {
      "op": "Pad", 
      "name": "pad17", 
      "attrs": {
        "mode": "constant", 
        "pad_width": "(0, 0, 0, 0, 1, 1, 1, 1)"
      }, 
      "inputs": [[63, 0, 0]]
    }, 
    {
      "op": "Convolution", 
      "name": "convolution15", 
      "attrs": {
        "dilate": "(1, 1)", 
        "kernel": "(3, 3)", 
        "no_bias": "True", 
        "num_filter": "256", 
        "num_group": "1", 
        "stride": "(1, 1)"
      }, 
      "inputs": [[64, 0, 0], [17, 0, 0]]
    }, 
    {
      "op": "Pad", 
      "name": "pad18", 
      "attrs": {
        "mode": "constant", 
        "pad_width": "(0, 0, 0, 0, 0, 0, 0, 0)"
      }, 
      "inputs": [[65, 0, 0]]
    }, 
    {
      "op": "Pooling", 
      "name": "pooling2", 
      "attrs": {
        "global_pool": "True", 
        "kernel": "(1, 1)", 
        "pool_type": "avg"
      }, 
      "inputs": [[66, 0, 0]]
    }, 
    {
      "op": "Pad", 
      "name": "pad19", 
      "attrs": {
        "mode": "constant", 
        "pad_width": "(0, 0, 0, 0, 0, 0, 0, 0)"
      }, 
      "inputs": [[67, 0, 0]]
    }, 
    {
      "op": "Convolution", 
      "name": "convolution16", 
      "attrs": {
        "dilate": "(1, 1)", 
        "kernel": "(1, 1)", 
        "no_bias": "True", 
        "num_filter": "16", 
        "num_group": "1", 
        "stride": "(1, 1)"
      }, 
      "inputs": [[68, 0, 0], [22, 0, 0]]
    }, 
    {
      "op": "LeakyReLU", 
      "name": "leakyrelu11", 
      "attrs": {"slope": "0.20000000298023224"}, 
      "inputs": [[69, 0, 0]]
    }, 
    {
      "op": "Pad", 
      "name": "pad20", 
      "attrs": {
        "mode": "constant", 
        "pad_width": "(0, 0, 0, 0, 0, 0, 0, 0)"
      }, 
      "inputs": [[70, 0, 0]]
    }, 
    {
      "op": "Convolution", 
      "name": "convolution17", 
      "attrs": {
        "dilate": "(1, 1)", 
        "kernel": "(1, 1)", 
        "no_bias": "True", 
        "num_filter": "256", 
        "num_group": "1", 
        "stride": "(1, 1)"
      }, 
      "inputs": [[71, 0, 0], [26, 0, 0]]
    }, 
    {
      "op": "sigmoid", 
      "name": "sigmoid2", 
      "inputs": [[72, 0, 0]]
    }, 
    {
      "op": "Reshape", 
      "name": "reshape2", 
      "attrs": {"shape": "(1, -1, 1, 1)"}, 
      "inputs": [[73, 0, 0]]
    }, 
    {
      "op": "broadcast_mul", 
      "name": "broadcast_mul2", 
      "inputs": [[65, 0, 0], [74, 0, 0]]
    }, 
    {
      "op": "Pad", 
      "name": "pad21", 
      "attrs": {
        "mode": "constant", 
        "pad_width": "(0, 0, 0, 0, 0, 0, 0, 0)"
      }, 
      "inputs": [[75, 0, 0]]
    }, 
    {
      "op": "Convolution", 
      "name": "convolution18", 
      "attrs": {
        "dilate": "(1, 1)", 
        "kernel": "(1, 1)", 
        "no_bias": "True", 
        "num_filter": "64", 
        "num_group": "1", 
        "stride": "(1, 1)"
      }, 
      "inputs": [[76, 0, 0], [32, 0, 0]]
    }, 
    {
      "op": "LeakyReLU", 
      "name": "leakyrelu12", 
      "attrs": {"slope": "0.20000000298023224"}, 
      "inputs": [[77, 0, 0]]
    }, 
    {
      "op": "broadcast_add", 
      "name": "broadcast_add2", 
      "inputs": [[57, 0, 0], [78, 0, 0]]
    }, 
    {
      "op": "Pad", 
      "name": "pad22", 
      "attrs": {
        "mode": "constant", 
        "pad_width": "(0, 0, 0, 0, 1, 1, 1, 1)"
      }, 
      "inputs": [[79, 0, 0]]
    }, 
    {
      "op": "Convolution", 
      "name": "convolution19", 
      "attrs": {
        "dilate": "(1, 1)", 
        "kernel": "(3, 3)", 
        "no_bias": "True", 
        "num_filter": "64", 
        "num_group": "1", 
        "stride": "(1, 1)"
      }, 
      "inputs": [[80, 0, 0], [9, 0, 0]]
    }, 
    {
      "op": "LeakyReLU", 
      "name": "leakyrelu13", 
      "attrs": {"slope": "0.20000000298023224"}, 
      "inputs": [[81, 0, 0]]
    }, 
    {
      "op": "Pad", 
      "name": "pad23", 
      "attrs": {
        "mode": "constant", 
        "pad_width": "(0, 0, 0, 0, 1, 1, 1, 1)"
      }, 
      "inputs": [[82, 0, 0]]
    }, 
    {
      "op": "Convolution", 
      "name": "convolution20", 
      "attrs": {
        "dilate": "(1, 1)", 
        "kernel": "(3, 3)", 
        "no_bias": "True", 
        "num_filter": "64", 
        "num_group": "1", 
        "stride": "(1, 1)"
      }, 
      "inputs": [[83, 0, 0], [13, 0, 0]]
    }, 
    {
      "op": "LeakyReLU", 
      "name": "leakyrelu14", 
      "attrs": {"slope": "0.20000000298023224"}, 
      "inputs": [[84, 0, 0]]
    }, 
    {
      "op": "Pad", 
      "name": "pad24", 
      "attrs": {
        "mode": "constant", 
        "pad_width": "(0, 0, 0, 0, 1, 1, 1, 1)"
      }, 
      "inputs": [[85, 0, 0]]
    }, 
    {
      "op": "Convolution", 
      "name": "convolution21", 
      "attrs": {
        "dilate": "(1, 1)", 
        "kernel": "(3, 3)", 
        "no_bias": "True", 
        "num_filter": "256", 
        "num_group": "1", 
        "stride": "(1, 1)"
      }, 
      "inputs": [[86, 0, 0], [17, 0, 0]]
    }, 
    {
      "op": "Pad", 
      "name": "pad25", 
      "attrs": {
        "mode": "constant", 
        "pad_width": "(0, 0, 0, 0, 0, 0, 0, 0)"
      }, 
      "inputs": [[87, 0, 0]]
    }, 
    {
      "op": "Pooling", 
      "name": "pooling3", 
      "attrs": {
        "global_pool": "True", 
        "kernel": "(1, 1)", 
        "pool_type": "avg"
      }, 
      "inputs": [[88, 0, 0]]
    }, 
    {
      "op": "Pad", 
      "name": "pad26", 
      "attrs": {
        "mode": "constant", 
        "pad_width": "(0, 0, 0, 0, 0, 0, 0, 0)"
      }, 
      "inputs": [[89, 0, 0]]
    }, 
    {
      "op": "Convolution", 
      "name": "convolution22", 
      "attrs": {
        "dilate": "(1, 1)", 
        "kernel": "(1, 1)", 
        "no_bias": "True", 
        "num_filter": "16", 
        "num_group": "1", 
        "stride": "(1, 1)"
      }, 
      "inputs": [[90, 0, 0], [22, 0, 0]]
    }, 
    {
      "op": "LeakyReLU", 
      "name": "leakyrelu15", 
      "attrs": {"slope": "0.20000000298023224"}, 
      "inputs": [[91, 0, 0]]
    }, 
    {
      "op": "Pad", 
      "name": "pad27", 
      "attrs": {
        "mode": "constant", 
        "pad_width": "(0, 0, 0, 0, 0, 0, 0, 0)"
      }, 
      "inputs": [[92, 0, 0]]
    }, 
    {
      "op": "Convolution", 
      "name": "convolution23", 
      "attrs": {
        "dilate": "(1, 1)", 
        "kernel": "(1, 1)", 
        "no_bias": "True", 
        "num_filter": "256", 
        "num_group": "1", 
        "stride": "(1, 1)"
      }, 
      "inputs": [[93, 0, 0], [26, 0, 0]]
    }, 
    {
      "op": "sigmoid", 
      "name": "sigmoid3", 
      "inputs": [[94, 0, 0]]
    }, 
    {
      "op": "Reshape", 
      "name": "reshape3", 
      "attrs": {"shape": "(1, -1, 1, 1)"}, 
      "inputs": [[95, 0, 0]]
    }, 
    {
      "op": "broadcast_mul", 
      "name": "broadcast_mul3", 
      "inputs": [[87, 0, 0], [96, 0, 0]]
    }, 
    {
      "op": "Pad", 
      "name": "pad28", 
      "attrs": {
        "mode": "constant", 
        "pad_width": "(0, 0, 0, 0, 0, 0, 0, 0)"
      }, 
      "inputs": [[97, 0, 0]]
    }, 
    {
      "op": "Convolution", 
      "name": "convolution24", 
      "attrs": {
        "dilate": "(1, 1)", 
        "kernel": "(1, 1)", 
        "no_bias": "True", 
        "num_filter": "64", 
        "num_group": "1", 
        "stride": "(1, 1)"
      }, 
      "inputs": [[98, 0, 0], [32, 0, 0]]
    }, 
    {
      "op": "LeakyReLU", 
      "name": "leakyrelu16", 
      "attrs": {"slope": "0.20000000298023224"}, 
      "inputs": [[99, 0, 0]]
    }, 
    {
      "op": "broadcast_add", 
      "name": "broadcast_add3", 
      "inputs": [[79, 0, 0], [100, 0, 0]]
    }, 
    {
      "op": "Pad", 
      "name": "pad29", 
      "attrs": {
        "mode": "constant", 
        "pad_width": "(0, 0, 0, 0, 0, 0, 0, 0)"
      }, 
      "inputs": [[101, 0, 0]]
    }, 
    {
      "op": "null", 
      "name": "learned_3", 
      "attrs": {"__shape__": "(64, 64, 4, 4)"}, 
      "inputs": []
    }, 
    {
      "op": "Deconvolution", 
      "name": "deconvolution0", 
      "attrs": {
        "dilate": "(1, 1)", 
        "kernel": "(4, 4)", 
        "no_bias": "True", 
        "num_filter": "64", 
        "num_group": "1", 
        "pad": "(1, 1)", 
        "stride": "(2, 2)"
      }, 
      "inputs": [[102, 0, 0], [103, 0, 0]]
    }, 
    {
      "op": "LeakyReLU", 
      "name": "leakyrelu17", 
      "attrs": {"slope": "0.20000000298023224"}, 
      "inputs": [[104, 0, 0]]
    }, 
    {
      "op": "Pad", 
      "name": "pad31", 
      "attrs": {
        "mode": "constant", 
        "pad_width": "(0, 0, 0, 0, 1, 1, 1, 1)"
      }, 
      "inputs": [[105, 0, 0]]
    }, 
    {
      "op": "null", 
      "name": "learned_2", 
      "attrs": {"__shape__": "(1, 64, 3, 3)"}, 
      "inputs": []
    }, 
    {
      "op": "Convolution", 
      "name": "convolution25", 
      "attrs": {
        "dilate": "(1, 1)", 
        "kernel": "(3, 3)", 
        "no_bias": "True", 
        "num_filter": "1", 
        "num_group": "1", 
        "stride": "(1, 1)"
      }, 
      "inputs": [[106, 0, 0], [107, 0, 0]]
    }, 
    {
      "op": "broadcast_add", 
      "name": "broadcast_add4", 
      "inputs": [[3, 0, 0], [108, 0, 0]]
    }
  ], 
  "arg_nodes": [
    0, 
    2, 
    5, 
    9, 
    13, 
    17, 
    22, 
    26, 
    32, 
    103, 
    107
  ], 
  "node_row_ptr": [
    0, 
    1, 
    2, 
    3, 
    4, 
    5, 
    6, 
    7, 
    8, 
    9, 
    10, 
    11, 
    12, 
    13, 
    14, 
    15, 
    16, 
    17, 
    18, 
    19, 
    20, 
    21, 
    22, 
    23, 
    24, 
    25, 
    26, 
    27, 
    28, 
    29, 
    30, 
    31, 
    32, 
    33, 
    34, 
    35, 
    36, 
    37, 
    38, 
    39, 
    40, 
    41, 
    42, 
    43, 
    44, 
    45, 
    46, 
    47, 
    48, 
    49, 
    50, 
    51, 
    52, 
    53, 
    54, 
    55, 
    56, 
    57, 
    58, 
    59, 
    60, 
    61, 
    62, 
    63, 
    64, 
    65, 
    66, 
    67, 
    68, 
    69, 
    70, 
    71, 
    72, 
    73, 
    74, 
    75, 
    76, 
    77, 
    78, 
    79, 
    80, 
    81, 
    82, 
    83, 
    84, 
    85, 
    86, 
    87, 
    88, 
    89, 
    90, 
    91, 
    92, 
    93, 
    94, 
    95, 
    96, 
    97, 
    98, 
    99, 
    100, 
    101, 
    102, 
    103, 
    104, 
    105, 
    106, 
    107, 
    108, 
    109, 
    110
  ], 
  "heads": [[109, 0, 0]], 
  "attrs": {"mxnet_version": ["int", 10300]}
}