{
  "nodes": [
    {
      "op": "null", 
      "name": "data", 
      "inputs": []
    }, 
    {
      "op": "null", 
      "name": "conv0_1_weight", 
      "attrs": {
        "kernel": "(3, 3)", 
        "no_bias": "False", 
        "num_filter": "256", 
        "pad": "(1, 1)", 
        "stride": "(1, 1)"
      }, 
      "inputs": []
    }, 
    {
      "op": "null", 
      "name": "conv0_1_bias", 
      "attrs": {
        "kernel": "(3, 3)", 
        "no_bias": "False", 
        "num_filter": "256", 
        "pad": "(1, 1)", 
        "stride": "(1, 1)"
      }, 
      "inputs": []
    }, 
    {
      "op": "Convolution", 
      "name": "conv0_1", 
      "attrs": {
        "kernel": "(3, 3)", 
        "no_bias": "False", 
        "num_filter": "256", 
        "pad": "(1, 1)", 
        "stride": "(1, 1)"
      }, 
      "inputs": [[0, 0, 0], [1, 0, 0], [2, 0, 0]]
    }, 
    {
      "op": "null", 
      "name": "relu0_1_gamma", 
      "attrs": {
        "__init__": "[\"Constant\", {\"value\": 0.25}]", 
        "act_type": "prelu", 
        "slope": "0.0"
      }, 
      "inputs": []
    }, 
    {
      "op": "LeakyReLU", 
      "name": "relu0_1", 
      "attrs": {
        "act_type": "prelu", 
        "slope": "0.0"
      }, 
      "inputs": [[3, 0, 0], [4, 0, 0]]
    }, 
    {
      "op": "null", 
      "name": "conv1_weight", 
      "attrs": {
        "kernel": "(1, 1)", 
        "no_bias": "False", 
        "num_filter": "64", 
        "pad": "(0, 0)", 
        "stride": "(1, 1)"
      }, 
      "inputs": []
    }, 
    {
      "op": "null", 
      "name": "conv1_bias", 
      "attrs": {
        "kernel": "(1, 1)", 
        "no_bias": "False", 
        "num_filter": "64", 
        "pad": "(0, 0)", 
        "stride": "(1, 1)"
      }, 
      "inputs": []
    }, 
    {
      "op": "Convolution", 
      "name": "conv1", 
      "attrs": {
        "kernel": "(1, 1)", 
        "no_bias": "False", 
        "num_filter": "64", 
        "pad": "(0, 0)", 
        "stride": "(1, 1)"
      }, 
      "inputs": [[5, 0, 0], [6, 0, 0], [7, 0, 0]]
    }, 
    {
      "op": "null", 
      "name": "relu1_gamma", 
      "attrs": {
        "__init__": "[\"Constant\", {\"value\": 0.25}]", 
        "act_type": "prelu", 
        "slope": "0.0"
      }, 
      "inputs": []
    }, 
    {
      "op": "LeakyReLU", 
      "name": "relu1", 
      "attrs": {
        "act_type": "prelu", 
        "slope": "0.0"
      }, 
      "inputs": [[8, 0, 0], [9, 0, 0]]
    }, 
    {
      "op": "_mul_scalar", 
      "name": "_mulscalar0", 
      "attrs": {"scalar": "1.0"}, 
      "inputs": [[10, 0, 0]]
    }, 
    {
      "op": "null", 
      "name": "conv1_bp1_weight", 
      "attrs": {
        "kernel": "(6, 6)", 
        "no_bias": "False", 
        "num_filter": "64", 
        "pad": "(2, 2)", 
        "stride": "(2, 2)"
      }, 
      "inputs": []
    }, 
    {
      "op": "null", 
      "name": "conv1_bp1_bias", 
      "attrs": {
        "kernel": "(6, 6)", 
        "no_bias": "False", 
        "num_filter": "64", 
        "pad": "(2, 2)", 
        "stride": "(2, 2)"
      }, 
      "inputs": []
    }, 
    {
      "op": "Deconvolution", 
      "name": "conv1_bp1", 
      "attrs": {
        "kernel": "(6, 6)", 
        "no_bias": "False", 
        "num_filter": "64", 
        "pad": "(2, 2)", 
        "stride": "(2, 2)"
      }, 
      "inputs": [[10, 0, 0], [12, 0, 0], [13, 0, 0]]
    }, 
    {
      "op": "null", 
      "name": "relu1_bp1_gamma", 
      "attrs": {
        "__init__": "[\"Constant\", {\"value\": 0.25}]", 
        "act_type": "prelu", 
        "slope": "0.0"
      }, 
      "inputs": []
    }, 
    {
      "op": "LeakyReLU", 
      "name": "relu1_bp1", 
      "attrs": {
        "act_type": "prelu", 
        "slope": "0.0"
      }, 
      "inputs": [[14, 0, 0], [15, 0, 0]]
    }, 
    {
      "op": "null", 
      "name": "conv2_bp1_weight", 
      "attrs": {
        "kernel": "(6, 6)", 
        "no_bias": "False", 
        "num_filter": "64", 
        "pad": "(2, 2)", 
        "stride": "(2, 2)"
      }, 
      "inputs": []
    }, 
    {
      "op": "null", 
      "name": "conv2_bp1_bias", 
      "attrs": {
        "kernel": "(6, 6)", 
        "no_bias": "False", 
        "num_filter": "64", 
        "pad": "(2, 2)", 
        "stride": "(2, 2)"
      }, 
      "inputs": []
    }, 
    {
      "op": "Convolution", 
      "name": "conv2_bp1", 
      "attrs": {
        "kernel": "(6, 6)", 
        "no_bias": "False", 
        "num_filter": "64", 
        "pad": "(2, 2)", 
        "stride": "(2, 2)"
      }, 
      "inputs": [[16, 0, 0], [17, 0, 0], [18, 0, 0]]
    }, 
    {
      "op": "null", 
      "name": "relu2_bp1_gamma", 
      "attrs": {
        "__init__": "[\"Constant\", {\"value\": 0.25}]", 
        "act_type": "prelu", 
        "slope": "0.0"
      }, 
      "inputs": []
    }, 
    {
      "op": "LeakyReLU", 
      "name": "relu2_bp1", 
      "attrs": {
        "act_type": "prelu", 
        "slope": "0.0"
      }, 
      "inputs": [[19, 0, 0], [20, 0, 0]]
    }, 
    {
      "op": "_mul_scalar", 
      "name": "_mulscalar1", 
      "attrs": {"scalar": "-1.0"}, 
      "inputs": [[21, 0, 0]]
    }, 
    {
      "op": "elemwise_add", 
      "name": "_plus0", 
      "inputs": [[11, 0, 0], [22, 0, 0]]
    }, 
    {
      "op": "null", 
      "name": "conv3_bp1_weight", 
      "attrs": {
        "kernel": "(6, 6)", 
        "no_bias": "False", 
        "num_filter": "64", 
        "pad": "(2, 2)", 
        "stride": "(2, 2)"
      }, 
      "inputs": []
    }, 
    {
      "op": "null", 
      "name": "conv3_bp1_bias", 
      "attrs": {
        "kernel": "(6, 6)", 
        "no_bias": "False", 
        "num_filter": "64", 
        "pad": "(2, 2)", 
        "stride": "(2, 2)"
      }, 
      "inputs": []
    }, 
    {
      "op": "Deconvolution", 
      "name": "conv3_bp1", 
      "attrs": {
        "kernel": "(6, 6)", 
        "no_bias": "False", 
        "num_filter": "64", 
        "pad": "(2, 2)", 
        "stride": "(2, 2)"
      }, 
      "inputs": [[23, 0, 0], [24, 0, 0], [25, 0, 0]]
    }, 
    {
      "op": "null", 
      "name": "relu3_bp1_gamma", 
      "attrs": {
        "__init__": "[\"Constant\", {\"value\": 0.25}]", 
        "act_type": "prelu", 
        "slope": "0.0"
      }, 
      "inputs": []
    }, 
    {
      "op": "LeakyReLU", 
      "name": "relu3_bp1", 
      "attrs": {
        "act_type": "prelu", 
        "slope": "0.0"
      }, 
      "inputs": [[26, 0, 0], [27, 0, 0]]
    }, 
    {
      "op": "broadcast_add", 
      "name": "eltwise2_bp1", 
      "inputs": [[28, 0, 0], [16, 0, 0]]
    }, 
    {
      "op": "_mul_scalar", 
      "name": "_mulscalar2", 
      "attrs": {"scalar": "1.0"}, 
      "inputs": [[29, 0, 0]]
    }, 
    {
      "op": "null", 
      "name": "conv1_bp2_weight", 
      "attrs": {
        "kernel": "(6, 6)", 
        "no_bias": "False", 
        "num_filter": "64", 
        "pad": "(2, 2)", 
        "stride": "(2, 2)"
      }, 
      "inputs": []
    }, 
    {
      "op": "null", 
      "name": "conv1_bp2_bias", 
      "attrs": {
        "kernel": "(6, 6)", 
        "no_bias": "False", 
        "num_filter": "64", 
        "pad": "(2, 2)", 
        "stride": "(2, 2)"
      }, 
      "inputs": []
    }, 
    {
      "op": "Convolution", 
      "name": "conv1_bp2", 
      "attrs": {
        "kernel": "(6, 6)", 
        "no_bias": "False", 
        "num_filter": "64", 
        "pad": "(2, 2)", 
        "stride": "(2, 2)"
      }, 
      "inputs": [[29, 0, 0], [31, 0, 0], [32, 0, 0]]
    }, 
    {
      "op": "null", 
      "name": "relu1_bp2_gamma", 
      "attrs": {
        "__init__": "[\"Constant\", {\"value\": 0.25}]", 
        "act_type": "prelu", 
        "slope": "0.0"
      }, 
      "inputs": []
    }, 
    {
      "op": "LeakyReLU", 
      "name": "relu1_bp2", 
      "attrs": {
        "act_type": "prelu", 
        "slope": "0.0"
      }, 
      "inputs": [[33, 0, 0], [34, 0, 0]]
    }, 
    {
      "op": "null", 
      "name": "conv2_bp2_weight", 
      "attrs": {
        "kernel": "(6, 6)", 
        "no_bias": "False", 
        "num_filter": "64", 
        "pad": "(2, 2)", 
        "stride": "(2, 2)"
      }, 
      "inputs": []
    }, 
    {
      "op": "null", 
      "name": "conv2_bp2_bias", 
      "attrs": {
        "kernel": "(6, 6)", 
        "no_bias": "False", 
        "num_filter": "64", 
        "pad": "(2, 2)", 
        "stride": "(2, 2)"
      }, 
      "inputs": []
    }, 
    {
      "op": "Deconvolution", 
      "name": "conv2_bp2", 
      "attrs": {
        "kernel": "(6, 6)", 
        "no_bias": "False", 
        "num_filter": "64", 
        "pad": "(2, 2)", 
        "stride": "(2, 2)"
      }, 
      "inputs": [[35, 0, 0], [36, 0, 0], [37, 0, 0]]
    }, 
    {
      "op": "null", 
      "name": "relu2_bp2_gamma", 
      "attrs": {
        "__init__": "[\"Constant\", {\"value\": 0.25}]", 
        "act_type": "prelu", 
        "slope": "0.0"
      }, 
      "inputs": []
    }, 
    {
      "op": "LeakyReLU", 
      "name": "relu2_bp2", 
      "attrs": {
        "act_type": "prelu", 
        "slope": "0.0"
      }, 
      "inputs": [[38, 0, 0], [39, 0, 0]]
    }, 
    {
      "op": "_mul_scalar", 
      "name": "_mulscalar3", 
      "attrs": {"scalar": "-1.0"}, 
      "inputs": [[40, 0, 0]]
    }, 
    {
      "op": "elemwise_add", 
      "name": "_plus1", 
      "inputs": [[30, 0, 0], [41, 0, 0]]
    }, 
    {
      "op": "null", 
      "name": "conv3_bp2_weight", 
      "attrs": {
        "kernel": "(6, 6)", 
        "no_bias": "False", 
        "num_filter": "64", 
        "pad": "(2, 2)", 
        "stride": "(2, 2)"
      }, 
      "inputs": []
    }, 
    {
      "op": "null", 
      "name": "conv3_bp2_bias", 
      "attrs": {
        "kernel": "(6, 6)", 
        "no_bias": "False", 
        "num_filter": "64", 
        "pad": "(2, 2)", 
        "stride": "(2, 2)"
      }, 
      "inputs": []
    }, 
    {
      "op": "Convolution", 
      "name": "conv3_bp2", 
      "attrs": {
        "kernel": "(6, 6)", 
        "no_bias": "False", 
        "num_filter": "64", 
        "pad": "(2, 2)", 
        "stride": "(2, 2)"
      }, 
      "inputs": [[42, 0, 0], [43, 0, 0], [44, 0, 0]]
    }, 
    {
      "op": "null", 
      "name": "relu3_bp2_gamma", 
      "attrs": {
        "__init__": "[\"Constant\", {\"value\": 0.25}]", 
        "act_type": "prelu", 
        "slope": "0.0"
      }, 
      "inputs": []
    }, 
    {
      "op": "LeakyReLU", 
      "name": "relu3_bp2", 
      "attrs": {
        "act_type": "prelu", 
        "slope": "0.0"
      }, 
      "inputs": [[45, 0, 0], [46, 0, 0]]
    }, 
    {
      "op": "broadcast_add", 
      "name": "eltwise2_bp2", 
      "inputs": [[47, 0, 0], [35, 0, 0]]
    }, 
    {
      "op": "_mul_scalar", 
      "name": "_mulscalar4", 
      "attrs": {"scalar": "1.0"}, 
      "inputs": [[48, 0, 0]]
    }, 
    {
      "op": "null", 
      "name": "conv1_bp3_weight", 
      "attrs": {
        "kernel": "(6, 6)", 
        "no_bias": "False", 
        "num_filter": "64", 
        "pad": "(2, 2)", 
        "stride": "(2, 2)"
      }, 
      "inputs": []
    }, 
    {
      "op": "null", 
      "name": "conv1_bp3_bias", 
      "attrs": {
        "kernel": "(6, 6)", 
        "no_bias": "False", 
        "num_filter": "64", 
        "pad": "(2, 2)", 
        "stride": "(2, 2)"
      }, 
      "inputs": []
    }, 
    {
      "op": "Deconvolution", 
      "name": "conv1_bp3", 
      "attrs": {
        "kernel": "(6, 6)", 
        "no_bias": "False", 
        "num_filter": "64", 
        "pad": "(2, 2)", 
        "stride": "(2, 2)"
      }, 
      "inputs": [[48, 0, 0], [50, 0, 0], [51, 0, 0]]
    }, 
    {
      "op": "null", 
      "name": "relu1_bp3_gamma", 
      "attrs": {
        "__init__": "[\"Constant\", {\"value\": 0.25}]", 
        "act_type": "prelu", 
        "slope": "0.0"
      }, 
      "inputs": []
    }, 
    {
      "op": "LeakyReLU", 
      "name": "relu1_bp3", 
      "attrs": {
        "act_type": "prelu", 
        "slope": "0.0"
      }, 
      "inputs": [[52, 0, 0], [53, 0, 0]]
    }, 
    {
      "op": "null", 
      "name": "conv2_bp3_weight", 
      "attrs": {
        "kernel": "(6, 6)", 
        "no_bias": "False", 
        "num_filter": "64", 
        "pad": "(2, 2)", 
        "stride": "(2, 2)"
      }, 
      "inputs": []
    }, 
    {
      "op": "null", 
      "name": "conv2_bp3_bias", 
      "attrs": {
        "kernel": "(6, 6)", 
        "no_bias": "False", 
        "num_filter": "64", 
        "pad": "(2, 2)", 
        "stride": "(2, 2)"
      }, 
      "inputs": []
    }, 
    {
      "op": "Convolution", 
      "name": "conv2_bp3", 
      "attrs": {
        "kernel": "(6, 6)", 
        "no_bias": "False", 
        "num_filter": "64", 
        "pad": "(2, 2)", 
        "stride": "(2, 2)"
      }, 
      "inputs": [[54, 0, 0], [55, 0, 0], [56, 0, 0]]
    }, 
    {
      "op": "null", 
      "name": "relu2_bp3_gamma", 
      "attrs": {
        "__init__": "[\"Constant\", {\"value\": 0.25}]", 
        "act_type": "prelu", 
        "slope": "0.0"
      }, 
      "inputs": []
    }, 
    {
      "op": "LeakyReLU", 
      "name": "relu2_bp3", 
      "attrs": {
        "act_type": "prelu", 
        "slope": "0.0"
      }, 
      "inputs": [[57, 0, 0], [58, 0, 0]]
    }, 
    {
      "op": "_mul_scalar", 
      "name": "_mulscalar5", 
      "attrs": {"scalar": "-1.0"}, 
      "inputs": [[59, 0, 0]]
    }, 
    {
      "op": "elemwise_add", 
      "name": "_plus2", 
      "inputs": [[49, 0, 0], [60, 0, 0]]
    }, 
    {
      "op": "null", 
      "name": "conv3_bp3_weight", 
      "attrs": {
        "kernel": "(6, 6)", 
        "no_bias": "False", 
        "num_filter": "64", 
        "pad": "(2, 2)", 
        "stride": "(2, 2)"
      }, 
      "inputs": []
    }, 
    {
      "op": "null", 
      "name": "conv3_bp3_bias", 
      "attrs": {
        "kernel": "(6, 6)", 
        "no_bias": "False", 
        "num_filter": "64", 
        "pad": "(2, 2)", 
        "stride": "(2, 2)"
      }, 
      "inputs": []
    }, 
    {
      "op": "Deconvolution", 
      "name": "conv3_bp3", 
      "attrs": {
        "kernel": "(6, 6)", 
        "no_bias": "False", 
        "num_filter": "64", 
        "pad": "(2, 2)", 
        "stride": "(2, 2)"
      }, 
      "inputs": [[61, 0, 0], [62, 0, 0], [63, 0, 0]]
    }, 
    {
      "op": "null", 
      "name": "relu3_bp3_gamma", 
      "attrs": {
        "__init__": "[\"Constant\", {\"value\": 0.25}]", 
        "act_type": "prelu", 
        "slope": "0.0"
      }, 
      "inputs": []
    }, 
    {
      "op": "LeakyReLU", 
      "name": "relu3_bp3", 
      "attrs": {
        "act_type": "prelu", 
        "slope": "0.0"
      }, 
      "inputs": [[64, 0, 0], [65, 0, 0]]
    }, 
    {
      "op": "broadcast_add", 
      "name": "eltwise2_bp3", 
      "inputs": [[66, 0, 0], [54, 0, 0]]
    }, 
    {
      "op": "Concat", 
      "name": "concat_bp3", 
      "attrs": {"num_args": "2"}, 
      "inputs": [[67, 0, 0], [29, 0, 0]]
    }, 
    {
      "op": "null", 
      "name": "out_concat_bp3_weight", 
      "attrs": {
        "kernel": "(1, 1)", 
        "no_bias": "False", 
        "num_filter": "64", 
        "pad": "(0, 0)", 
        "stride": "(1, 1)"
      }, 
      "inputs": []
    }, 
    {
      "op": "null", 
      "name": "out_concat_bp3_bias", 
      "attrs": {
        "kernel": "(1, 1)", 
        "no_bias": "False", 
        "num_filter": "64", 
        "pad": "(0, 0)", 
        "stride": "(1, 1)"
      }, 
      "inputs": []
    }, 
    {
      "op": "Convolution", 
      "name": "out_concat_bp3", 
      "attrs": {
        "kernel": "(1, 1)", 
        "no_bias": "False", 
        "num_filter": "64", 
        "pad": "(0, 0)", 
        "stride": "(1, 1)"
      }, 
      "inputs": [[68, 0, 0], [69, 0, 0], [70, 0, 0]]
    }, 
    {
      "op": "null", 
      "name": "relu1_concat_bp3_gamma", 
      "attrs": {
        "__init__": "[\"Constant\", {\"value\": 0.25}]", 
        "act_type": "prelu", 
        "slope": "0.0"
      }, 
      "inputs": []
    }, 
    {
      "op": "LeakyReLU", 
      "name": "relu1_concat_bp3", 
      "attrs": {
        "act_type": "prelu", 
        "slope": "0.0"
      }, 
      "inputs": [[71, 0, 0], [72, 0, 0]]
    }, 
    {
      "op": "_mul_scalar", 
      "name": "_mulscalar6", 
      "attrs": {"scalar": "1.0"}, 
      "inputs": [[73, 0, 0]]
    }, 
    {
      "op": "null", 
      "name": "conv1_bp4_weight", 
      "attrs": {
        "kernel": "(6, 6)", 
        "no_bias": "False", 
        "num_filter": "64", 
        "pad": "(2, 2)", 
        "stride": "(2, 2)"
      }, 
      "inputs": []
    }, 
    {
      "op": "null", 
      "name": "conv1_bp4_bias", 
      "attrs": {
        "kernel": "(6, 6)", 
        "no_bias": "False", 
        "num_filter": "64", 
        "pad": "(2, 2)", 
        "stride": "(2, 2)"
      }, 
      "inputs": []
    }, 
    {
      "op": "Convolution", 
      "name": "conv1_bp4", 
      "attrs": {
        "kernel": "(6, 6)", 
        "no_bias": "False", 
        "num_filter": "64", 
        "pad": "(2, 2)", 
        "stride": "(2, 2)"
      }, 
      "inputs": [[73, 0, 0], [75, 0, 0], [76, 0, 0]]
    }, 
    {
      "op": "null", 
      "name": "relu1_bp4_gamma", 
      "attrs": {
        "__init__": "[\"Constant\", {\"value\": 0.25}]", 
        "act_type": "prelu", 
        "slope": "0.0"
      }, 
      "inputs": []
    }, 
    {
      "op": "LeakyReLU", 
      "name": "relu1_bp4", 
      "attrs": {
        "act_type": "prelu", 
        "slope": "0.0"
      }, 
      "inputs": [[77, 0, 0], [78, 0, 0]]
    }, 
    {
      "op": "null", 
      "name": "conv2_bp4_weight", 
      "attrs": {
        "kernel": "(6, 6)", 
        "no_bias": "False", 
        "num_filter": "64", 
        "pad": "(2, 2)", 
        "stride": "(2, 2)"
      }, 
      "inputs": []
    }, 
    {
      "op": "null", 
      "name": "conv2_bp4_bias", 
      "attrs": {
        "kernel": "(6, 6)", 
        "no_bias": "False", 
        "num_filter": "64", 
        "pad": "(2, 2)", 
        "stride": "(2, 2)"
      }, 
      "inputs": []
    }, 
    {
      "op": "Deconvolution", 
      "name": "conv2_bp4", 
      "attrs": {
        "kernel": "(6, 6)", 
        "no_bias": "False", 
        "num_filter": "64", 
        "pad": "(2, 2)", 
        "stride": "(2, 2)"
      }, 
      "inputs": [[79, 0, 0], [80, 0, 0], [81, 0, 0]]
    }, 
    {
      "op": "null", 
      "name": "relu2_bp4_gamma", 
      "attrs": {
        "__init__": "[\"Constant\", {\"value\": 0.25}]", 
        "act_type": "prelu", 
        "slope": "0.0"
      }, 
      "inputs": []
    }, 
    {
      "op": "LeakyReLU", 
      "name": "relu2_bp4", 
      "attrs": {
        "act_type": "prelu", 
        "slope": "0.0"
      }, 
      "inputs": [[82, 0, 0], [83, 0, 0]]
    }, 
    {
      "op": "_mul_scalar", 
      "name": "_mulscalar7", 
      "attrs": {"scalar": "-1.0"}, 
      "inputs": [[84, 0, 0]]
    }, 
    {
      "op": "elemwise_add", 
      "name": "_plus3", 
      "inputs": [[74, 0, 0], [85, 0, 0]]
    }, 
    {
      "op": "null", 
      "name": "conv3_bp4_weight", 
      "attrs": {
        "kernel": "(6, 6)", 
        "no_bias": "False", 
        "num_filter": "64", 
        "pad": "(2, 2)", 
        "stride": "(2, 2)"
      }, 
      "inputs": []
    }, 
    {
      "op": "null", 
      "name": "conv3_bp4_bias", 
      "attrs": {
        "kernel": "(6, 6)", 
        "no_bias": "False", 
        "num_filter": "64", 
        "pad": "(2, 2)", 
        "stride": "(2, 2)"
      }, 
      "inputs": []
    }, 
    {
      "op": "Convolution", 
      "name": "conv3_bp4", 
      "attrs": {
        "kernel": "(6, 6)", 
        "no_bias": "False", 
        "num_filter": "64", 
        "pad": "(2, 2)", 
        "stride": "(2, 2)"
      }, 
      "inputs": [[86, 0, 0], [87, 0, 0], [88, 0, 0]]
    }, 
    {
      "op": "null", 
      "name": "relu3_bp4_gamma", 
      "attrs": {
        "__init__": "[\"Constant\", {\"value\": 0.25}]", 
        "act_type": "prelu", 
        "slope": "0.0"
      }, 
      "inputs": []
    }, 
    {
      "op": "LeakyReLU", 
      "name": "relu3_bp4", 
      "attrs": {
        "act_type": "prelu", 
        "slope": "0.0"
      }, 
      "inputs": [[89, 0, 0], [90, 0, 0]]
    }, 
    {
      "op": "broadcast_add", 
      "name": "eltwise2_bp4", 
      "inputs": [[91, 0, 0], [79, 0, 0]]
    }, 
    {
      "op": "Concat", 
      "name": "concat_bp4", 
      "attrs": {"num_args": "2"}, 
      "inputs": [[92, 0, 0], [48, 0, 0]]
    }, 
    {
      "op": "null", 
      "name": "out_concat_bp4_weight", 
      "attrs": {
        "kernel": "(1, 1)", 
        "no_bias": "False", 
        "num_filter": "64", 
        "pad": "(0, 0)", 
        "stride": "(1, 1)"
      }, 
      "inputs": []
    }, 
    {
      "op": "null", 
      "name": "out_concat_bp4_bias", 
      "attrs": {
        "kernel": "(1, 1)", 
        "no_bias": "False", 
        "num_filter": "64", 
        "pad": "(0, 0)", 
        "stride": "(1, 1)"
      }, 
      "inputs": []
    }, 
    {
      "op": "Convolution", 
      "name": "out_concat_bp4", 
      "attrs": {
        "kernel": "(1, 1)", 
        "no_bias": "False", 
        "num_filter": "64", 
        "pad": "(0, 0)", 
        "stride": "(1, 1)"
      }, 
      "inputs": [[93, 0, 0], [94, 0, 0], [95, 0, 0]]
    }, 
    {
      "op": "null", 
      "name": "relu1_concat_bp4_gamma", 
      "attrs": {
        "__init__": "[\"Constant\", {\"value\": 0.25}]", 
        "act_type": "prelu", 
        "slope": "0.0"
      }, 
      "inputs": []
    }, 
    {
      "op": "LeakyReLU", 
      "name": "relu1_concat_bp4", 
      "attrs": {
        "act_type": "prelu", 
        "slope": "0.0"
      }, 
      "inputs": [[96, 0, 0], [97, 0, 0]]
    }, 
    {
      "op": "_mul_scalar", 
      "name": "_mulscalar8", 
      "attrs": {"scalar": "1.0"}, 
      "inputs": [[98, 0, 0]]
    }, 
    {
      "op": "null", 
      "name": "conv1_bp5_weight", 
      "attrs": {
        "kernel": "(6, 6)", 
        "no_bias": "False", 
        "num_filter": "64", 
        "pad": "(2, 2)", 
        "stride": "(2, 2)"
      }, 
      "inputs": []
    }, 
    {
      "op": "null", 
      "name": "conv1_bp5_bias", 
      "attrs": {
        "kernel": "(6, 6)", 
        "no_bias": "False", 
        "num_filter": "64", 
        "pad": "(2, 2)", 
        "stride": "(2, 2)"
      }, 
      "inputs": []
    }, 
    {
      "op": "Deconvolution", 
      "name": "conv1_bp5", 
      "attrs": {
        "kernel": "(6, 6)", 
        "no_bias": "False", 
        "num_filter": "64", 
        "pad": "(2, 2)", 
        "stride": "(2, 2)"
      }, 
      "inputs": [[98, 0, 0], [100, 0, 0], [101, 0, 0]]
    }, 
    {
      "op": "null", 
      "name": "relu1_bp5_gamma", 
      "attrs": {
        "__init__": "[\"Constant\", {\"value\": 0.25}]", 
        "act_type": "prelu", 
        "slope": "0.0"
      }, 
      "inputs": []
    }, 
    {
      "op": "LeakyReLU", 
      "name": "relu1_bp5", 
      "attrs": {
        "act_type": "prelu", 
        "slope": "0.0"
      }, 
      "inputs": [[102, 0, 0], [103, 0, 0]]
    }, 
    {
      "op": "null", 
      "name": "conv2_bp5_weight", 
      "attrs": {
        "kernel": "(6, 6)", 
        "no_bias": "False", 
        "num_filter": "64", 
        "pad": "(2, 2)", 
        "stride": "(2, 2)"
      }, 
      "inputs": []
    }, 
    {
      "op": "null", 
      "name": "conv2_bp5_bias", 
      "attrs": {
        "kernel": "(6, 6)", 
        "no_bias": "False", 
        "num_filter": "64", 
        "pad": "(2, 2)", 
        "stride": "(2, 2)"
      }, 
      "inputs": []
    }, 
    {
      "op": "Convolution", 
      "name": "conv2_bp5", 
      "attrs": {
        "kernel": "(6, 6)", 
        "no_bias": "False", 
        "num_filter": "64", 
        "pad": "(2, 2)", 
        "stride": "(2, 2)"
      }, 
      "inputs": [[104, 0, 0], [105, 0, 0], [106, 0, 0]]
    }, 
    {
      "op": "null", 
      "name": "relu2_bp5_gamma", 
      "attrs": {
        "__init__": "[\"Constant\", {\"value\": 0.25}]", 
        "act_type": "prelu", 
        "slope": "0.0"
      }, 
      "inputs": []
    }, 
    {
      "op": "LeakyReLU", 
      "name": "relu2_bp5", 
      "attrs": {
        "act_type": "prelu", 
        "slope": "0.0"
      }, 
      "inputs": [[107, 0, 0], [108, 0, 0]]
    }, 
    {
      "op": "_mul_scalar", 
      "name": "_mulscalar9", 
      "attrs": {"scalar": "-1.0"}, 
      "inputs": [[109, 0, 0]]
    }, 
    {
      "op": "elemwise_add", 
      "name": "_plus4", 
      "inputs": [[99, 0, 0], [110, 0, 0]]
    }, 
    {
      "op": "null", 
      "name": "conv3_bp5_weight", 
      "attrs": {
        "kernel": "(6, 6)", 
        "no_bias": "False", 
        "num_filter": "64", 
        "pad": "(2, 2)", 
        "stride": "(2, 2)"
      }, 
      "inputs": []
    }, 
    {
      "op": "null", 
      "name": "conv3_bp5_bias", 
      "attrs": {
        "kernel": "(6, 6)", 
        "no_bias": "False", 
        "num_filter": "64", 
        "pad": "(2, 2)", 
        "stride": "(2, 2)"
      }, 
      "inputs": []
    }, 
    {
      "op": "Deconvolution", 
      "name": "conv3_bp5", 
      "attrs": {
        "kernel": "(6, 6)", 
        "no_bias": "False", 
        "num_filter": "64", 
        "pad": "(2, 2)", 
        "stride": "(2, 2)"
      }, 
      "inputs": [[111, 0, 0], [112, 0, 0], [113, 0, 0]]
    }, 
    {
      "op": "null", 
      "name": "relu3_bp5_gamma", 
      "attrs": {
        "__init__": "[\"Constant\", {\"value\": 0.25}]", 
        "act_type": "prelu", 
        "slope": "0.0"
      }, 
      "inputs": []
    }, 
    {
      "op": "LeakyReLU", 
      "name": "relu3_bp5", 
      "attrs": {
        "act_type": "prelu", 
        "slope": "0.0"
      }, 
      "inputs": [[114, 0, 0], [115, 0, 0]]
    }, 
    {
      "op": "broadcast_add", 
      "name": "eltwise2_bp5", 
      "inputs": [[116, 0, 0], [104, 0, 0]]
    }, 
    {
      "op": "Concat", 
      "name": "concat_bp5", 
      "attrs": {"num_args": "2"}, 
      "inputs": [[117, 0, 0], [68, 0, 0]]
    }, 
    {
      "op": "null", 
      "name": "out_concat_bp5_weight", 
      "attrs": {
        "kernel": "(1, 1)", 
        "no_bias": "False", 
        "num_filter": "64", 
        "pad": "(0, 0)", 
        "stride": "(1, 1)"
      }, 
      "inputs": []
    }, 
    {
      "op": "null", 
      "name": "out_concat_bp5_bias", 
      "attrs": {
        "kernel": "(1, 1)", 
        "no_bias": "False", 
        "num_filter": "64", 
        "pad": "(0, 0)", 
        "stride": "(1, 1)"
      }, 
      "inputs": []
    }, 
    {
      "op": "Convolution", 
      "name": "out_concat_bp5", 
      "attrs": {
        "kernel": "(1, 1)", 
        "no_bias": "False", 
        "num_filter": "64", 
        "pad": "(0, 0)", 
        "stride": "(1, 1)"
      }, 
      "inputs": [[118, 0, 0], [119, 0, 0], [120, 0, 0]]
    }, 
    {
      "op": "null", 
      "name": "relu1_concat_bp5_gamma", 
      "attrs": {
        "__init__": "[\"Constant\", {\"value\": 0.25}]", 
        "act_type": "prelu", 
        "slope": "0.0"
      }, 
      "inputs": []
    }, 
    {
      "op": "LeakyReLU", 
      "name": "relu1_concat_bp5", 
      "attrs": {
        "act_type": "prelu", 
        "slope": "0.0"
      }, 
      "inputs": [[121, 0, 0], [122, 0, 0]]
    }, 
    {
      "op": "_mul_scalar", 
      "name": "_mulscalar10", 
      "attrs": {"scalar": "1.0"}, 
      "inputs": [[123, 0, 0]]
    }, 
    {
      "op": "null", 
      "name": "conv1_bp6_weight", 
      "attrs": {
        "kernel": "(6, 6)", 
        "no_bias": "False", 
        "num_filter": "64", 
        "pad": "(2, 2)", 
        "stride": "(2, 2)"
      }, 
      "inputs": []
    }, 
    {
      "op": "null", 
      "name": "conv1_bp6_bias", 
      "attrs": {
        "kernel": "(6, 6)", 
        "no_bias": "False", 
        "num_filter": "64", 
        "pad": "(2, 2)", 
        "stride": "(2, 2)"
      }, 
      "inputs": []
    }, 
    {
      "op": "Convolution", 
      "name": "conv1_bp6", 
      "attrs": {
        "kernel": "(6, 6)", 
        "no_bias": "False", 
        "num_filter": "64", 
        "pad": "(2, 2)", 
        "stride": "(2, 2)"
      }, 
      "inputs": [[123, 0, 0], [125, 0, 0], [126, 0, 0]]
    }, 
    {
      "op": "null", 
      "name": "relu1_bp6_gamma", 
      "attrs": {
        "__init__": "[\"Constant\", {\"value\": 0.25}]", 
        "act_type": "prelu", 
        "slope": "0.0"
      }, 
      "inputs": []
    }, 
    {
      "op": "LeakyReLU", 
      "name": "relu1_bp6", 
      "attrs": {
        "act_type": "prelu", 
        "slope": "0.0"
      }, 
      "inputs": [[127, 0, 0], [128, 0, 0]]
    }, 
    {
      "op": "null", 
      "name": "conv2_bp6_weight", 
      "attrs": {
        "kernel": "(6, 6)", 
        "no_bias": "False", 
        "num_filter": "64", 
        "pad": "(2, 2)", 
        "stride": "(2, 2)"
      }, 
      "inputs": []
    }, 
    {
      "op": "null", 
      "name": "conv2_bp6_bias", 
      "attrs": {
        "kernel": "(6, 6)", 
        "no_bias": "False", 
        "num_filter": "64", 
        "pad": "(2, 2)", 
        "stride": "(2, 2)"
      }, 
      "inputs": []
    }, 
    {
      "op": "Deconvolution", 
      "name": "conv2_bp6", 
      "attrs": {
        "kernel": "(6, 6)", 
        "no_bias": "False", 
        "num_filter": "64", 
        "pad": "(2, 2)", 
        "stride": "(2, 2)"
      }, 
      "inputs": [[129, 0, 0], [130, 0, 0], [131, 0, 0]]
    }, 
    {
      "op": "null", 
      "name": "relu2_bp6_gamma", 
      "attrs": {
        "__init__": "[\"Constant\", {\"value\": 0.25}]", 
        "act_type": "prelu", 
        "slope": "0.0"
      }, 
      "inputs": []
    }, 
    {
      "op": "LeakyReLU", 
      "name": "relu2_bp6", 
      "attrs": {
        "act_type": "prelu", 
        "slope": "0.0"
      }, 
      "inputs": [[132, 0, 0], [133, 0, 0]]
    }, 
    {
      "op": "_mul_scalar", 
      "name": "_mulscalar11", 
      "attrs": {"scalar": "-1.0"}, 
      "inputs": [[134, 0, 0]]
    }, 
    {
      "op": "elemwise_add", 
      "name": "_plus5", 
      "inputs": [[124, 0, 0], [135, 0, 0]]
    }, 
    {
      "op": "null", 
      "name": "conv3_bp6_weight", 
      "attrs": {
        "kernel": "(6, 6)", 
        "no_bias": "False", 
        "num_filter": "64", 
        "pad": "(2, 2)", 
        "stride": "(2, 2)"
      }, 
      "inputs": []
    }, 
    {
      "op": "null", 
      "name": "conv3_bp6_bias", 
      "attrs": {
        "kernel": "(6, 6)", 
        "no_bias": "False", 
        "num_filter": "64", 
        "pad": "(2, 2)", 
        "stride": "(2, 2)"
      }, 
      "inputs": []
    }, 
    {
      "op": "Convolution", 
      "name": "conv3_bp6", 
      "attrs": {
        "kernel": "(6, 6)", 
        "no_bias": "False", 
        "num_filter": "64", 
        "pad": "(2, 2)", 
        "stride": "(2, 2)"
      }, 
      "inputs": [[136, 0, 0], [137, 0, 0], [138, 0, 0]]
    }, 
    {
      "op": "null", 
      "name": "relu3_bp6_gamma", 
      "attrs": {
        "__init__": "[\"Constant\", {\"value\": 0.25}]", 
        "act_type": "prelu", 
        "slope": "0.0"
      }, 
      "inputs": []
    }, 
    {
      "op": "LeakyReLU", 
      "name": "relu3_bp6", 
      "attrs": {
        "act_type": "prelu", 
        "slope": "0.0"
      }, 
      "inputs": [[139, 0, 0], [140, 0, 0]]
    }, 
    {
      "op": "broadcast_add", 
      "name": "eltwise2_bp6", 
      "inputs": [[141, 0, 0], [129, 0, 0]]
    }, 
    {
      "op": "Concat", 
      "name": "concat_bp6", 
      "attrs": {"num_args": "2"}, 
      "inputs": [[142, 0, 0], [93, 0, 0]]
    }, 
    {
      "op": "null", 
      "name": "out_concat_bp6_weight", 
      "attrs": {
        "kernel": "(1, 1)", 
        "no_bias": "False", 
        "num_filter": "64", 
        "pad": "(0, 0)", 
        "stride": "(1, 1)"
      }, 
      "inputs": []
    }, 
    {
      "op": "null", 
      "name": "out_concat_bp6_bias", 
      "attrs": {
        "kernel": "(1, 1)", 
        "no_bias": "False", 
        "num_filter": "64", 
        "pad": "(0, 0)", 
        "stride": "(1, 1)"
      }, 
      "inputs": []
    }, 
    {
      "op": "Convolution", 
      "name": "out_concat_bp6", 
      "attrs": {
        "kernel": "(1, 1)", 
        "no_bias": "False", 
        "num_filter": "64", 
        "pad": "(0, 0)", 
        "stride": "(1, 1)"
      }, 
      "inputs": [[143, 0, 0], [144, 0, 0], [145, 0, 0]]
    }, 
    {
      "op": "null", 
      "name": "relu1_concat_bp6_gamma", 
      "attrs": {
        "__init__": "[\"Constant\", {\"value\": 0.25}]", 
        "act_type": "prelu", 
        "slope": "0.0"
      }, 
      "inputs": []
    }, 
    {
      "op": "LeakyReLU", 
      "name": "relu1_concat_bp6", 
      "attrs": {
        "act_type": "prelu", 
        "slope": "0.0"
      }, 
      "inputs": [[146, 0, 0], [147, 0, 0]]
    }, 
    {
      "op": "_mul_scalar", 
      "name": "_mulscalar12", 
      "attrs": {"scalar": "1.0"}, 
      "inputs": [[148, 0, 0]]
    }, 
    {
      "op": "null", 
      "name": "conv1_bp7_weight", 
      "attrs": {
        "kernel": "(6, 6)", 
        "no_bias": "False", 
        "num_filter": "64", 
        "pad": "(2, 2)", 
        "stride": "(2, 2)"
      }, 
      "inputs": []
    }, 
    {
      "op": "null", 
      "name": "conv1_bp7_bias", 
      "attrs": {
        "kernel": "(6, 6)", 
        "no_bias": "False", 
        "num_filter": "64", 
        "pad": "(2, 2)", 
        "stride": "(2, 2)"
      }, 
      "inputs": []
    }, 
    {
      "op": "Deconvolution", 
      "name": "conv1_bp7", 
      "attrs": {
        "kernel": "(6, 6)", 
        "no_bias": "False", 
        "num_filter": "64", 
        "pad": "(2, 2)", 
        "stride": "(2, 2)"
      }, 
      "inputs": [[148, 0, 0], [150, 0, 0], [151, 0, 0]]
    }, 
    {
      "op": "null", 
      "name": "relu1_bp7_gamma", 
      "attrs": {
        "__init__": "[\"Constant\", {\"value\": 0.25}]", 
        "act_type": "prelu", 
        "slope": "0.0"
      }, 
      "inputs": []
    }, 
    {
      "op": "LeakyReLU", 
      "name": "relu1_bp7", 
      "attrs": {
        "act_type": "prelu", 
        "slope": "0.0"
      }, 
      "inputs": [[152, 0, 0], [153, 0, 0]]
    }, 
    {
      "op": "null", 
      "name": "conv2_bp7_weight", 
      "attrs": {
        "kernel": "(6, 6)", 
        "no_bias": "False", 
        "num_filter": "64", 
        "pad": "(2, 2)", 
        "stride": "(2, 2)"
      }, 
      "inputs": []
    }, 
    {
      "op": "null", 
      "name": "conv2_bp7_bias", 
      "attrs": {
        "kernel": "(6, 6)", 
        "no_bias": "False", 
        "num_filter": "64", 
        "pad": "(2, 2)", 
        "stride": "(2, 2)"
      }, 
      "inputs": []
    }, 
    {
      "op": "Convolution", 
      "name": "conv2_bp7", 
      "attrs": {
        "kernel": "(6, 6)", 
        "no_bias": "False", 
        "num_filter": "64", 
        "pad": "(2, 2)", 
        "stride": "(2, 2)"
      }, 
      "inputs": [[154, 0, 0], [155, 0, 0], [156, 0, 0]]
    }, 
    {
      "op": "null", 
      "name": "relu2_bp7_gamma", 
      "attrs": {
        "__init__": "[\"Constant\", {\"value\": 0.25}]", 
        "act_type": "prelu", 
        "slope": "0.0"
      }, 
      "inputs": []
    }, 
    {
      "op": "LeakyReLU", 
      "name": "relu2_bp7", 
      "attrs": {
        "act_type": "prelu", 
        "slope": "0.0"
      }, 
      "inputs": [[157, 0, 0], [158, 0, 0]]
    }, 
    {
      "op": "_mul_scalar", 
      "name": "_mulscalar13", 
      "attrs": {"scalar": "-1.0"}, 
      "inputs": [[159, 0, 0]]
    }, 
    {
      "op": "elemwise_add", 
      "name": "_plus6", 
      "inputs": [[149, 0, 0], [160, 0, 0]]
    }, 
    {
      "op": "null", 
      "name": "conv3_bp7_weight", 
      "attrs": {
        "kernel": "(6, 6)", 
        "no_bias": "False", 
        "num_filter": "64", 
        "pad": "(2, 2)", 
        "stride": "(2, 2)"
      }, 
      "inputs": []
    }, 
    {
      "op": "null", 
      "name": "conv3_bp7_bias", 
      "attrs": {
        "kernel": "(6, 6)", 
        "no_bias": "False", 
        "num_filter": "64", 
        "pad": "(2, 2)", 
        "stride": "(2, 2)"
      }, 
      "inputs": []
    }, 
    {
      "op": "Deconvolution", 
      "name": "conv3_bp7", 
      "attrs": {
        "kernel": "(6, 6)", 
        "no_bias": "False", 
        "num_filter": "64", 
        "pad": "(2, 2)", 
        "stride": "(2, 2)"
      }, 
      "inputs": [[161, 0, 0], [162, 0, 0], [163, 0, 0]]
    }, 
    {
      "op": "null", 
      "name": "relu3_bp7_gamma", 
      "attrs": {
        "__init__": "[\"Constant\", {\"value\": 0.25}]", 
        "act_type": "prelu", 
        "slope": "0.0"
      }, 
      "inputs": []
    }, 
    {
      "op": "LeakyReLU", 
      "name": "relu3_bp7", 
      "attrs": {
        "act_type": "prelu", 
        "slope": "0.0"
      }, 
      "inputs": [[164, 0, 0], [165, 0, 0]]
    }, 
    {
      "op": "broadcast_add", 
      "name": "eltwise2_bp7", 
      "inputs": [[166, 0, 0], [154, 0, 0]]
    }, 
    {
      "op": "Concat", 
      "name": "concat_bp7", 
      "attrs": {"num_args": "2"}, 
      "inputs": [[167, 0, 0], [118, 0, 0]]
    }, 
    {
      "op": "null", 
      "name": "out_concat_bp7_weight", 
      "attrs": {
        "kernel": "(1, 1)", 
        "no_bias": "False", 
        "num_filter": "64", 
        "pad": "(0, 0)", 
        "stride": "(1, 1)"
      }, 
      "inputs": []
    }, 
    {
      "op": "null", 
      "name": "out_concat_bp7_bias", 
      "attrs": {
        "kernel": "(1, 1)", 
        "no_bias": "False", 
        "num_filter": "64", 
        "pad": "(0, 0)", 
        "stride": "(1, 1)"
      }, 
      "inputs": []
    }, 
    {
      "op": "Convolution", 
      "name": "out_concat_bp7", 
      "attrs": {
        "kernel": "(1, 1)", 
        "no_bias": "False", 
        "num_filter": "64", 
        "pad": "(0, 0)", 
        "stride": "(1, 1)"
      }, 
      "inputs": [[168, 0, 0], [169, 0, 0], [170, 0, 0]]
    }, 
    {
      "op": "null", 
      "name": "relu1_concat_bp7_gamma", 
      "attrs": {
        "__init__": "[\"Constant\", {\"value\": 0.25}]", 
        "act_type": "prelu", 
        "slope": "0.0"
      }, 
      "inputs": []
    }, 
    {
      "op": "LeakyReLU", 
      "name": "relu1_concat_bp7", 
      "attrs": {
        "act_type": "prelu", 
        "slope": "0.0"
      }, 
      "inputs": [[171, 0, 0], [172, 0, 0]]
    }, 
    {
      "op": "_mul_scalar", 
      "name": "_mulscalar14", 
      "attrs": {"scalar": "1.0"}, 
      "inputs": [[173, 0, 0]]
    }, 
    {
      "op": "null", 
      "name": "conv1_bp8_weight", 
      "attrs": {
        "kernel": "(6, 6)", 
        "no_bias": "False", 
        "num_filter": "64", 
        "pad": "(2, 2)", 
        "stride": "(2, 2)"
      }, 
      "inputs": []
    }, 
    {
      "op": "null", 
      "name": "conv1_bp8_bias", 
      "attrs": {
        "kernel": "(6, 6)", 
        "no_bias": "False", 
        "num_filter": "64", 
        "pad": "(2, 2)", 
        "stride": "(2, 2)"
      }, 
      "inputs": []
    }, 
    {
      "op": "Convolution", 
      "name": "conv1_bp8", 
      "attrs": {
        "kernel": "(6, 6)", 
        "no_bias": "False", 
        "num_filter": "64", 
        "pad": "(2, 2)", 
        "stride": "(2, 2)"
      }, 
      "inputs": [[173, 0, 0], [175, 0, 0], [176, 0, 0]]
    }, 
    {
      "op": "null", 
      "name": "relu1_bp8_gamma", 
      "attrs": {
        "__init__": "[\"Constant\", {\"value\": 0.25}]", 
        "act_type": "prelu", 
        "slope": "0.0"
      }, 
      "inputs": []
    }, 
    {
      "op": "LeakyReLU", 
      "name": "relu1_bp8", 
      "attrs": {
        "act_type": "prelu", 
        "slope": "0.0"
      }, 
      "inputs": [[177, 0, 0], [178, 0, 0]]
    }, 
    {
      "op": "null", 
      "name": "conv2_bp8_weight", 
      "attrs": {
        "kernel": "(6, 6)", 
        "no_bias": "False", 
        "num_filter": "64", 
        "pad": "(2, 2)", 
        "stride": "(2, 2)"
      }, 
      "inputs": []
    }, 
    {
      "op": "null", 
      "name": "conv2_bp8_bias", 
      "attrs": {
        "kernel": "(6, 6)", 
        "no_bias": "False", 
        "num_filter": "64", 
        "pad": "(2, 2)", 
        "stride": "(2, 2)"
      }, 
      "inputs": []
    }, 
    {
      "op": "Deconvolution", 
      "name": "conv2_bp8", 
      "attrs": {
        "kernel": "(6, 6)", 
        "no_bias": "False", 
        "num_filter": "64", 
        "pad": "(2, 2)", 
        "stride": "(2, 2)"
      }, 
      "inputs": [[179, 0, 0], [180, 0, 0], [181, 0, 0]]
    }, 
    {
      "op": "null", 
      "name": "relu2_bp8_gamma", 
      "attrs": {
        "__init__": "[\"Constant\", {\"value\": 0.25}]", 
        "act_type": "prelu", 
        "slope": "0.0"
      }, 
      "inputs": []
    }, 
    {
      "op": "LeakyReLU", 
      "name": "relu2_bp8", 
      "attrs": {
        "act_type": "prelu", 
        "slope": "0.0"
      }, 
      "inputs": [[182, 0, 0], [183, 0, 0]]
    }, 
    {
      "op": "_mul_scalar", 
      "name": "_mulscalar15", 
      "attrs": {"scalar": "-1.0"}, 
      "inputs": [[184, 0, 0]]
    }, 
    {
      "op": "elemwise_add", 
      "name": "_plus7", 
      "inputs": [[174, 0, 0], [185, 0, 0]]
    }, 
    {
      "op": "null", 
      "name": "conv3_bp8_weight", 
      "attrs": {
        "kernel": "(6, 6)", 
        "no_bias": "False", 
        "num_filter": "64", 
        "pad": "(2, 2)", 
        "stride": "(2, 2)"
      }, 
      "inputs": []
    }, 
    {
      "op": "null", 
      "name": "conv3_bp8_bias", 
      "attrs": {
        "kernel": "(6, 6)", 
        "no_bias": "False", 
        "num_filter": "64", 
        "pad": "(2, 2)", 
        "stride": "(2, 2)"
      }, 
      "inputs": []
    }, 
    {
      "op": "Convolution", 
      "name": "conv3_bp8", 
      "attrs": {
        "kernel": "(6, 6)", 
        "no_bias": "False", 
        "num_filter": "64", 
        "pad": "(2, 2)", 
        "stride": "(2, 2)"
      }, 
      "inputs": [[186, 0, 0], [187, 0, 0], [188, 0, 0]]
    }, 
    {
      "op": "null", 
      "name": "relu3_bp8_gamma", 
      "attrs": {
        "__init__": "[\"Constant\", {\"value\": 0.25}]", 
        "act_type": "prelu", 
        "slope": "0.0"
      }, 
      "inputs": []
    }, 
    {
      "op": "LeakyReLU", 
      "name": "relu3_bp8", 
      "attrs": {
        "act_type": "prelu", 
        "slope": "0.0"
      }, 
      "inputs": [[189, 0, 0], [190, 0, 0]]
    }, 
    {
      "op": "broadcast_add", 
      "name": "eltwise2_bp8", 
      "inputs": [[191, 0, 0], [179, 0, 0]]
    }, 
    {
      "op": "Concat", 
      "name": "concat_bp8", 
      "attrs": {"num_args": "2"}, 
      "inputs": [[192, 0, 0], [143, 0, 0]]
    }, 
    {
      "op": "null", 
      "name": "out_concat_bp8_weight", 
      "attrs": {
        "kernel": "(1, 1)", 
        "no_bias": "False", 
        "num_filter": "64", 
        "pad": "(0, 0)", 
        "stride": "(1, 1)"
      }, 
      "inputs": []
    }, 
    {
      "op": "null", 
      "name": "out_concat_bp8_bias", 
      "attrs": {
        "kernel": "(1, 1)", 
        "no_bias": "False", 
        "num_filter": "64", 
        "pad": "(0, 0)", 
        "stride": "(1, 1)"
      }, 
      "inputs": []
    }, 
    {
      "op": "Convolution", 
      "name": "out_concat_bp8", 
      "attrs": {
        "kernel": "(1, 1)", 
        "no_bias": "False", 
        "num_filter": "64", 
        "pad": "(0, 0)", 
        "stride": "(1, 1)"
      }, 
      "inputs": [[193, 0, 0], [194, 0, 0], [195, 0, 0]]
    }, 
    {
      "op": "null", 
      "name": "relu1_concat_bp8_gamma", 
      "attrs": {
        "__init__": "[\"Constant\", {\"value\": 0.25}]", 
        "act_type": "prelu", 
        "slope": "0.0"
      }, 
      "inputs": []
    }, 
    {
      "op": "LeakyReLU", 
      "name": "relu1_concat_bp8", 
      "attrs": {
        "act_type": "prelu", 
        "slope": "0.0"
      }, 
      "inputs": [[196, 0, 0], [197, 0, 0]]
    }, 
    {
      "op": "_mul_scalar", 
      "name": "_mulscalar16", 
      "attrs": {"scalar": "1.0"}, 
      "inputs": [[198, 0, 0]]
    }, 
    {
      "op": "null", 
      "name": "conv1_bp9_weight", 
      "attrs": {
        "kernel": "(6, 6)", 
        "no_bias": "False", 
        "num_filter": "64", 
        "pad": "(2, 2)", 
        "stride": "(2, 2)"
      }, 
      "inputs": []
    }, 
    {
      "op": "null", 
      "name": "conv1_bp9_bias", 
      "attrs": {
        "kernel": "(6, 6)", 
        "no_bias": "False", 
        "num_filter": "64", 
        "pad": "(2, 2)", 
        "stride": "(2, 2)"
      }, 
      "inputs": []
    }, 
    {
      "op": "Deconvolution", 
      "name": "conv1_bp9", 
      "attrs": {
        "kernel": "(6, 6)", 
        "no_bias": "False", 
        "num_filter": "64", 
        "pad": "(2, 2)", 
        "stride": "(2, 2)"
      }, 
      "inputs": [[198, 0, 0], [200, 0, 0], [201, 0, 0]]
    }, 
    {
      "op": "null", 
      "name": "relu1_bp9_gamma", 
      "attrs": {
        "__init__": "[\"Constant\", {\"value\": 0.25}]", 
        "act_type": "prelu", 
        "slope": "0.0"
      }, 
      "inputs": []
    }, 
    {
      "op": "LeakyReLU", 
      "name": "relu1_bp9", 
      "attrs": {
        "act_type": "prelu", 
        "slope": "0.0"
      }, 
      "inputs": [[202, 0, 0], [203, 0, 0]]
    }, 
    {
      "op": "null", 
      "name": "conv2_bp9_weight", 
      "attrs": {
        "kernel": "(6, 6)", 
        "no_bias": "False", 
        "num_filter": "64", 
        "pad": "(2, 2)", 
        "stride": "(2, 2)"
      }, 
      "inputs": []
    }, 
    {
      "op": "null", 
      "name": "conv2_bp9_bias", 
      "attrs": {
        "kernel": "(6, 6)", 
        "no_bias": "False", 
        "num_filter": "64", 
        "pad": "(2, 2)", 
        "stride": "(2, 2)"
      }, 
      "inputs": []
    }, 
    {
      "op": "Convolution", 
      "name": "conv2_bp9", 
      "attrs": {
        "kernel": "(6, 6)", 
        "no_bias": "False", 
        "num_filter": "64", 
        "pad": "(2, 2)", 
        "stride": "(2, 2)"
      }, 
      "inputs": [[204, 0, 0], [205, 0, 0], [206, 0, 0]]
    }, 
    {
      "op": "null", 
      "name": "relu2_bp9_gamma", 
      "attrs": {
        "__init__": "[\"Constant\", {\"value\": 0.25}]", 
        "act_type": "prelu", 
        "slope": "0.0"
      }, 
      "inputs": []
    }, 
    {
      "op": "LeakyReLU", 
      "name": "relu2_bp9", 
      "attrs": {
        "act_type": "prelu", 
        "slope": "0.0"
      }, 
      "inputs": [[207, 0, 0], [208, 0, 0]]
    }, 
    {
      "op": "_mul_scalar", 
      "name": "_mulscalar17", 
      "attrs": {"scalar": "-1.0"}, 
      "inputs": [[209, 0, 0]]
    }, 
    {
      "op": "elemwise_add", 
      "name": "_plus8", 
      "inputs": [[199, 0, 0], [210, 0, 0]]
    }, 
    {
      "op": "null", 
      "name": "conv3_bp9_weight", 
      "attrs": {
        "kernel": "(6, 6)", 
        "no_bias": "False", 
        "num_filter": "64", 
        "pad": "(2, 2)", 
        "stride": "(2, 2)"
      }, 
      "inputs": []
    }, 
    {
      "op": "null", 
      "name": "conv3_bp9_bias", 
      "attrs": {
        "kernel": "(6, 6)", 
        "no_bias": "False", 
        "num_filter": "64", 
        "pad": "(2, 2)", 
        "stride": "(2, 2)"
      }, 
      "inputs": []
    }, 
    {
      "op": "Deconvolution", 
      "name": "conv3_bp9", 
      "attrs": {
        "kernel": "(6, 6)", 
        "no_bias": "False", 
        "num_filter": "64", 
        "pad": "(2, 2)", 
        "stride": "(2, 2)"
      }, 
      "inputs": [[211, 0, 0], [212, 0, 0], [213, 0, 0]]
    }, 
    {
      "op": "null", 
      "name": "relu3_bp9_gamma", 
      "attrs": {
        "__init__": "[\"Constant\", {\"value\": 0.25}]", 
        "act_type": "prelu", 
        "slope": "0.0"
      }, 
      "inputs": []
    }, 
    {
      "op": "LeakyReLU", 
      "name": "relu3_bp9", 
      "attrs": {
        "act_type": "prelu", 
        "slope": "0.0"
      }, 
      "inputs": [[214, 0, 0], [215, 0, 0]]
    }, 
    {
      "op": "broadcast_add", 
      "name": "eltwise2_bp9", 
      "inputs": [[216, 0, 0], [204, 0, 0]]
    }, 
    {
      "op": "Concat", 
      "name": "concat_bp9", 
      "attrs": {"num_args": "2"}, 
      "inputs": [[217, 0, 0], [168, 0, 0]]
    }, 
    {
      "op": "null", 
      "name": "out_concat_bp9_weight", 
      "attrs": {
        "kernel": "(1, 1)", 
        "no_bias": "False", 
        "num_filter": "64", 
        "pad": "(0, 0)", 
        "stride": "(1, 1)"
      }, 
      "inputs": []
    }, 
    {
      "op": "null", 
      "name": "out_concat_bp9_bias", 
      "attrs": {
        "kernel": "(1, 1)", 
        "no_bias": "False", 
        "num_filter": "64", 
        "pad": "(0, 0)", 
        "stride": "(1, 1)"
      }, 
      "inputs": []
    }, 
    {
      "op": "Convolution", 
      "name": "out_concat_bp9", 
      "attrs": {
        "kernel": "(1, 1)", 
        "no_bias": "False", 
        "num_filter": "64", 
        "pad": "(0, 0)", 
        "stride": "(1, 1)"
      }, 
      "inputs": [[218, 0, 0], [219, 0, 0], [220, 0, 0]]
    }, 
    {
      "op": "null", 
      "name": "relu1_concat_bp9_gamma", 
      "attrs": {
        "__init__": "[\"Constant\", {\"value\": 0.25}]", 
        "act_type": "prelu", 
        "slope": "0.0"
      }, 
      "inputs": []
    }, 
    {
      "op": "LeakyReLU", 
      "name": "relu1_concat_bp9", 
      "attrs": {
        "act_type": "prelu", 
        "slope": "0.0"
      }, 
      "inputs": [[221, 0, 0], [222, 0, 0]]
    }, 
    {
      "op": "_mul_scalar", 
      "name": "_mulscalar18", 
      "attrs": {"scalar": "1.0"}, 
      "inputs": [[223, 0, 0]]
    }, 
    {
      "op": "null", 
      "name": "conv1_bp10_weight", 
      "attrs": {
        "kernel": "(6, 6)", 
        "no_bias": "False", 
        "num_filter": "64", 
        "pad": "(2, 2)", 
        "stride": "(2, 2)"
      }, 
      "inputs": []
    }, 
    {
      "op": "null", 
      "name": "conv1_bp10_bias", 
      "attrs": {
        "kernel": "(6, 6)", 
        "no_bias": "False", 
        "num_filter": "64", 
        "pad": "(2, 2)", 
        "stride": "(2, 2)"
      }, 
      "inputs": []
    }, 
    {
      "op": "Convolution", 
      "name": "conv1_bp10", 
      "attrs": {
        "kernel": "(6, 6)", 
        "no_bias": "False", 
        "num_filter": "64", 
        "pad": "(2, 2)", 
        "stride": "(2, 2)"
      }, 
      "inputs": [[223, 0, 0], [225, 0, 0], [226, 0, 0]]
    }, 
    {
      "op": "null", 
      "name": "relu1_bp10_gamma", 
      "attrs": {
        "__init__": "[\"Constant\", {\"value\": 0.25}]", 
        "act_type": "prelu", 
        "slope": "0.0"
      }, 
      "inputs": []
    }, 
    {
      "op": "LeakyReLU", 
      "name": "relu1_bp10", 
      "attrs": {
        "act_type": "prelu", 
        "slope": "0.0"
      }, 
      "inputs": [[227, 0, 0], [228, 0, 0]]
    }, 
    {
      "op": "null", 
      "name": "conv2_bp10_weight", 
      "attrs": {
        "kernel": "(6, 6)", 
        "no_bias": "False", 
        "num_filter": "64", 
        "pad": "(2, 2)", 
        "stride": "(2, 2)"
      }, 
      "inputs": []
    }, 
    {
      "op": "null", 
      "name": "conv2_bp10_bias", 
      "attrs": {
        "kernel": "(6, 6)", 
        "no_bias": "False", 
        "num_filter": "64", 
        "pad": "(2, 2)", 
        "stride": "(2, 2)"
      }, 
      "inputs": []
    }, 
    {
      "op": "Deconvolution", 
      "name": "conv2_bp10", 
      "attrs": {
        "kernel": "(6, 6)", 
        "no_bias": "False", 
        "num_filter": "64", 
        "pad": "(2, 2)", 
        "stride": "(2, 2)"
      }, 
      "inputs": [[229, 0, 0], [230, 0, 0], [231, 0, 0]]
    }, 
    {
      "op": "null", 
      "name": "relu2_bp10_gamma", 
      "attrs": {
        "__init__": "[\"Constant\", {\"value\": 0.25}]", 
        "act_type": "prelu", 
        "slope": "0.0"
      }, 
      "inputs": []
    }, 
    {
      "op": "LeakyReLU", 
      "name": "relu2_bp10", 
      "attrs": {
        "act_type": "prelu", 
        "slope": "0.0"
      }, 
      "inputs": [[232, 0, 0], [233, 0, 0]]
    }, 
    {
      "op": "_mul_scalar", 
      "name": "_mulscalar19", 
      "attrs": {"scalar": "-1.0"}, 
      "inputs": [[234, 0, 0]]
    }, 
    {
      "op": "elemwise_add", 
      "name": "_plus9", 
      "inputs": [[224, 0, 0], [235, 0, 0]]
    }, 
    {
      "op": "null", 
      "name": "conv3_bp10_weight", 
      "attrs": {
        "kernel": "(6, 6)", 
        "no_bias": "False", 
        "num_filter": "64", 
        "pad": "(2, 2)", 
        "stride": "(2, 2)"
      }, 
      "inputs": []
    }, 
    {
      "op": "null", 
      "name": "conv3_bp10_bias", 
      "attrs": {
        "kernel": "(6, 6)", 
        "no_bias": "False", 
        "num_filter": "64", 
        "pad": "(2, 2)", 
        "stride": "(2, 2)"
      }, 
      "inputs": []
    }, 
    {
      "op": "Convolution", 
      "name": "conv3_bp10", 
      "attrs": {
        "kernel": "(6, 6)", 
        "no_bias": "False", 
        "num_filter": "64", 
        "pad": "(2, 2)", 
        "stride": "(2, 2)"
      }, 
      "inputs": [[236, 0, 0], [237, 0, 0], [238, 0, 0]]
    }, 
    {
      "op": "null", 
      "name": "relu3_bp10_gamma", 
      "attrs": {
        "__init__": "[\"Constant\", {\"value\": 0.25}]", 
        "act_type": "prelu", 
        "slope": "0.0"
      }, 
      "inputs": []
    }, 
    {
      "op": "LeakyReLU", 
      "name": "relu3_bp10", 
      "attrs": {
        "act_type": "prelu", 
        "slope": "0.0"
      }, 
      "inputs": [[239, 0, 0], [240, 0, 0]]
    }, 
    {
      "op": "broadcast_add", 
      "name": "eltwise2_bp10", 
      "inputs": [[241, 0, 0], [229, 0, 0]]
    }, 
    {
      "op": "Concat", 
      "name": "concat_bp10", 
      "attrs": {"num_args": "2"}, 
      "inputs": [[242, 0, 0], [193, 0, 0]]
    }, 
    {
      "op": "null", 
      "name": "out_concat_bp10_weight", 
      "attrs": {
        "kernel": "(1, 1)", 
        "no_bias": "False", 
        "num_filter": "64", 
        "pad": "(0, 0)", 
        "stride": "(1, 1)"
      }, 
      "inputs": []
    }, 
    {
      "op": "null", 
      "name": "out_concat_bp10_bias", 
      "attrs": {
        "kernel": "(1, 1)", 
        "no_bias": "False", 
        "num_filter": "64", 
        "pad": "(0, 0)", 
        "stride": "(1, 1)"
      }, 
      "inputs": []
    }, 
    {
      "op": "Convolution", 
      "name": "out_concat_bp10", 
      "attrs": {
        "kernel": "(1, 1)", 
        "no_bias": "False", 
        "num_filter": "64", 
        "pad": "(0, 0)", 
        "stride": "(1, 1)"
      }, 
      "inputs": [[243, 0, 0], [244, 0, 0], [245, 0, 0]]
    }, 
    {
      "op": "null", 
      "name": "relu1_concat_bp10_gamma", 
      "attrs": {
        "__init__": "[\"Constant\", {\"value\": 0.25}]", 
        "act_type": "prelu", 
        "slope": "0.0"
      }, 
      "inputs": []
    }, 
    {
      "op": "LeakyReLU", 
      "name": "relu1_concat_bp10", 
      "attrs": {
        "act_type": "prelu", 
        "slope": "0.0"
      }, 
      "inputs": [[246, 0, 0], [247, 0, 0]]
    }, 
    {
      "op": "_mul_scalar", 
      "name": "_mulscalar20", 
      "attrs": {"scalar": "1.0"}, 
      "inputs": [[248, 0, 0]]
    }, 
    {
      "op": "null", 
      "name": "conv1_bp11_weight", 
      "attrs": {
        "kernel": "(6, 6)", 
        "no_bias": "False", 
        "num_filter": "64", 
        "pad": "(2, 2)", 
        "stride": "(2, 2)"
      }, 
      "inputs": []
    }, 
    {
      "op": "null", 
      "name": "conv1_bp11_bias", 
      "attrs": {
        "kernel": "(6, 6)", 
        "no_bias": "False", 
        "num_filter": "64", 
        "pad": "(2, 2)", 
        "stride": "(2, 2)"
      }, 
      "inputs": []
    }, 
    {
      "op": "Deconvolution", 
      "name": "conv1_bp11", 
      "attrs": {
        "kernel": "(6, 6)", 
        "no_bias": "False", 
        "num_filter": "64", 
        "pad": "(2, 2)", 
        "stride": "(2, 2)"
      }, 
      "inputs": [[248, 0, 0], [250, 0, 0], [251, 0, 0]]
    }, 
    {
      "op": "null", 
      "name": "relu1_bp11_gamma", 
      "attrs": {
        "__init__": "[\"Constant\", {\"value\": 0.25}]", 
        "act_type": "prelu", 
        "slope": "0.0"
      }, 
      "inputs": []
    }, 
    {
      "op": "LeakyReLU", 
      "name": "relu1_bp11", 
      "attrs": {
        "act_type": "prelu", 
        "slope": "0.0"
      }, 
      "inputs": [[252, 0, 0], [253, 0, 0]]
    }, 
    {
      "op": "null", 
      "name": "conv2_bp11_weight", 
      "attrs": {
        "kernel": "(6, 6)", 
        "no_bias": "False", 
        "num_filter": "64", 
        "pad": "(2, 2)", 
        "stride": "(2, 2)"
      }, 
      "inputs": []
    }, 
    {
      "op": "null", 
      "name": "conv2_bp11_bias", 
      "attrs": {
        "kernel": "(6, 6)", 
        "no_bias": "False", 
        "num_filter": "64", 
        "pad": "(2, 2)", 
        "stride": "(2, 2)"
      }, 
      "inputs": []
    }, 
    {
      "op": "Convolution", 
      "name": "conv2_bp11", 
      "attrs": {
        "kernel": "(6, 6)", 
        "no_bias": "False", 
        "num_filter": "64", 
        "pad": "(2, 2)", 
        "stride": "(2, 2)"
      }, 
      "inputs": [[254, 0, 0], [255, 0, 0], [256, 0, 0]]
    }, 
    {
      "op": "null", 
      "name": "relu2_bp11_gamma", 
      "attrs": {
        "__init__": "[\"Constant\", {\"value\": 0.25}]", 
        "act_type": "prelu", 
        "slope": "0.0"
      }, 
      "inputs": []
    }, 
    {
      "op": "LeakyReLU", 
      "name": "relu2_bp11", 
      "attrs": {
        "act_type": "prelu", 
        "slope": "0.0"
      }, 
      "inputs": [[257, 0, 0], [258, 0, 0]]
    }, 
    {
      "op": "_mul_scalar", 
      "name": "_mulscalar21", 
      "attrs": {"scalar": "-1.0"}, 
      "inputs": [[259, 0, 0]]
    }, 
    {
      "op": "elemwise_add", 
      "name": "_plus10", 
      "inputs": [[249, 0, 0], [260, 0, 0]]
    }, 
    {
      "op": "null", 
      "name": "conv3_bp11_weight", 
      "attrs": {
        "kernel": "(6, 6)", 
        "no_bias": "False", 
        "num_filter": "64", 
        "pad": "(2, 2)", 
        "stride": "(2, 2)"
      }, 
      "inputs": []
    }, 
    {
      "op": "null", 
      "name": "conv3_bp11_bias", 
      "attrs": {
        "kernel": "(6, 6)", 
        "no_bias": "False", 
        "num_filter": "64", 
        "pad": "(2, 2)", 
        "stride": "(2, 2)"
      }, 
      "inputs": []
    }, 
    {
      "op": "Deconvolution", 
      "name": "conv3_bp11", 
      "attrs": {
        "kernel": "(6, 6)", 
        "no_bias": "False", 
        "num_filter": "64", 
        "pad": "(2, 2)", 
        "stride": "(2, 2)"
      }, 
      "inputs": [[261, 0, 0], [262, 0, 0], [263, 0, 0]]
    }, 
    {
      "op": "null", 
      "name": "relu3_bp11_gamma", 
      "attrs": {
        "__init__": "[\"Constant\", {\"value\": 0.25}]", 
        "act_type": "prelu", 
        "slope": "0.0"
      }, 
      "inputs": []
    }, 
    {
      "op": "LeakyReLU", 
      "name": "relu3_bp11", 
      "attrs": {
        "act_type": "prelu", 
        "slope": "0.0"
      }, 
      "inputs": [[264, 0, 0], [265, 0, 0]]
    }, 
    {
      "op": "broadcast_add", 
      "name": "eltwise2_bp11", 
      "inputs": [[266, 0, 0], [254, 0, 0]]
    }, 
    {
      "op": "Concat", 
      "name": "concat_bp11", 
      "attrs": {"num_args": "2"}, 
      "inputs": [[267, 0, 0], [218, 0, 0]]
    }, 
    {
      "op": "null", 
      "name": "out_concat_bp11_weight", 
      "attrs": {
        "kernel": "(1, 1)", 
        "no_bias": "False", 
        "num_filter": "64", 
        "pad": "(0, 0)", 
        "stride": "(1, 1)"
      }, 
      "inputs": []
    }, 
    {
      "op": "null", 
      "name": "out_concat_bp11_bias", 
      "attrs": {
        "kernel": "(1, 1)", 
        "no_bias": "False", 
        "num_filter": "64", 
        "pad": "(0, 0)", 
        "stride": "(1, 1)"
      }, 
      "inputs": []
    }, 
    {
      "op": "Convolution", 
      "name": "out_concat_bp11", 
      "attrs": {
        "kernel": "(1, 1)", 
        "no_bias": "False", 
        "num_filter": "64", 
        "pad": "(0, 0)", 
        "stride": "(1, 1)"
      }, 
      "inputs": [[268, 0, 0], [269, 0, 0], [270, 0, 0]]
    }, 
    {
      "op": "null", 
      "name": "relu1_concat_bp11_gamma", 
      "attrs": {
        "__init__": "[\"Constant\", {\"value\": 0.25}]", 
        "act_type": "prelu", 
        "slope": "0.0"
      }, 
      "inputs": []
    }, 
    {
      "op": "LeakyReLU", 
      "name": "relu1_concat_bp11", 
      "attrs": {
        "act_type": "prelu", 
        "slope": "0.0"
      }, 
      "inputs": [[271, 0, 0], [272, 0, 0]]
    }, 
    {
      "op": "_mul_scalar", 
      "name": "_mulscalar22", 
      "attrs": {"scalar": "1.0"}, 
      "inputs": [[273, 0, 0]]
    }, 
    {
      "op": "null", 
      "name": "conv1_bp12_weight", 
      "attrs": {
        "kernel": "(6, 6)", 
        "no_bias": "False", 
        "num_filter": "64", 
        "pad": "(2, 2)", 
        "stride": "(2, 2)"
      }, 
      "inputs": []
    }, 
    {
      "op": "null", 
      "name": "conv1_bp12_bias", 
      "attrs": {
        "kernel": "(6, 6)", 
        "no_bias": "False", 
        "num_filter": "64", 
        "pad": "(2, 2)", 
        "stride": "(2, 2)"
      }, 
      "inputs": []
    }, 
    {
      "op": "Convolution", 
      "name": "conv1_bp12", 
      "attrs": {
        "kernel": "(6, 6)", 
        "no_bias": "False", 
        "num_filter": "64", 
        "pad": "(2, 2)", 
        "stride": "(2, 2)"
      }, 
      "inputs": [[273, 0, 0], [275, 0, 0], [276, 0, 0]]
    }, 
    {
      "op": "null", 
      "name": "relu1_bp12_gamma", 
      "attrs": {
        "__init__": "[\"Constant\", {\"value\": 0.25}]", 
        "act_type": "prelu", 
        "slope": "0.0"
      }, 
      "inputs": []
    }, 
    {
      "op": "LeakyReLU", 
      "name": "relu1_bp12", 
      "attrs": {
        "act_type": "prelu", 
        "slope": "0.0"
      }, 
      "inputs": [[277, 0, 0], [278, 0, 0]]
    }, 
    {
      "op": "null", 
      "name": "conv2_bp12_weight", 
      "attrs": {
        "kernel": "(6, 6)", 
        "no_bias": "False", 
        "num_filter": "64", 
        "pad": "(2, 2)", 
        "stride": "(2, 2)"
      }, 
      "inputs": []
    }, 
    {
      "op": "null", 
      "name": "conv2_bp12_bias", 
      "attrs": {
        "kernel": "(6, 6)", 
        "no_bias": "False", 
        "num_filter": "64", 
        "pad": "(2, 2)", 
        "stride": "(2, 2)"
      }, 
      "inputs": []
    }, 
    {
      "op": "Deconvolution", 
      "name": "conv2_bp12", 
      "attrs": {
        "kernel": "(6, 6)", 
        "no_bias": "False", 
        "num_filter": "64", 
        "pad": "(2, 2)", 
        "stride": "(2, 2)"
      }, 
      "inputs": [[279, 0, 0], [280, 0, 0], [281, 0, 0]]
    }, 
    {
      "op": "null", 
      "name": "relu2_bp12_gamma", 
      "attrs": {
        "__init__": "[\"Constant\", {\"value\": 0.25}]", 
        "act_type": "prelu", 
        "slope": "0.0"
      }, 
      "inputs": []
    }, 
    {
      "op": "LeakyReLU", 
      "name": "relu2_bp12", 
      "attrs": {
        "act_type": "prelu", 
        "slope": "0.0"
      }, 
      "inputs": [[282, 0, 0], [283, 0, 0]]
    }, 
    {
      "op": "_mul_scalar", 
      "name": "_mulscalar23", 
      "attrs": {"scalar": "-1.0"}, 
      "inputs": [[284, 0, 0]]
    }, 
    {
      "op": "elemwise_add", 
      "name": "_plus11", 
      "inputs": [[274, 0, 0], [285, 0, 0]]
    }, 
    {
      "op": "null", 
      "name": "conv3_bp12_weight", 
      "attrs": {
        "kernel": "(6, 6)", 
        "no_bias": "False", 
        "num_filter": "64", 
        "pad": "(2, 2)", 
        "stride": "(2, 2)"
      }, 
      "inputs": []
    }, 
    {
      "op": "null", 
      "name": "conv3_bp12_bias", 
      "attrs": {
        "kernel": "(6, 6)", 
        "no_bias": "False", 
        "num_filter": "64", 
        "pad": "(2, 2)", 
        "stride": "(2, 2)"
      }, 
      "inputs": []
    }, 
    {
      "op": "Convolution", 
      "name": "conv3_bp12", 
      "attrs": {
        "kernel": "(6, 6)", 
        "no_bias": "False", 
        "num_filter": "64", 
        "pad": "(2, 2)", 
        "stride": "(2, 2)"
      }, 
      "inputs": [[286, 0, 0], [287, 0, 0], [288, 0, 0]]
    }, 
    {
      "op": "null", 
      "name": "relu3_bp12_gamma", 
      "attrs": {
        "__init__": "[\"Constant\", {\"value\": 0.25}]", 
        "act_type": "prelu", 
        "slope": "0.0"
      }, 
      "inputs": []
    }, 
    {
      "op": "LeakyReLU", 
      "name": "relu3_bp12", 
      "attrs": {
        "act_type": "prelu", 
        "slope": "0.0"
      }, 
      "inputs": [[289, 0, 0], [290, 0, 0]]
    }, 
    {
      "op": "broadcast_add", 
      "name": "eltwise2_bp12", 
      "inputs": [[291, 0, 0], [279, 0, 0]]
    }, 
    {
      "op": "Concat", 
      "name": "concat_bp12", 
      "attrs": {"num_args": "2"}, 
      "inputs": [[292, 0, 0], [243, 0, 0]]
    }, 
    {
      "op": "null", 
      "name": "out_concat_bp12_weight", 
      "attrs": {
        "kernel": "(1, 1)", 
        "no_bias": "False", 
        "num_filter": "64", 
        "pad": "(0, 0)", 
        "stride": "(1, 1)"
      }, 
      "inputs": []
    }, 
    {
      "op": "null", 
      "name": "out_concat_bp12_bias", 
      "attrs": {
        "kernel": "(1, 1)", 
        "no_bias": "False", 
        "num_filter": "64", 
        "pad": "(0, 0)", 
        "stride": "(1, 1)"
      }, 
      "inputs": []
    }, 
    {
      "op": "Convolution", 
      "name": "out_concat_bp12", 
      "attrs": {
        "kernel": "(1, 1)", 
        "no_bias": "False", 
        "num_filter": "64", 
        "pad": "(0, 0)", 
        "stride": "(1, 1)"
      }, 
      "inputs": [[293, 0, 0], [294, 0, 0], [295, 0, 0]]
    }, 
    {
      "op": "null", 
      "name": "relu1_concat_bp12_gamma", 
      "attrs": {
        "__init__": "[\"Constant\", {\"value\": 0.25}]", 
        "act_type": "prelu", 
        "slope": "0.0"
      }, 
      "inputs": []
    }, 
    {
      "op": "LeakyReLU", 
      "name": "relu1_concat_bp12", 
      "attrs": {
        "act_type": "prelu", 
        "slope": "0.0"
      }, 
      "inputs": [[296, 0, 0], [297, 0, 0]]
    }, 
    {
      "op": "_mul_scalar", 
      "name": "_mulscalar24", 
      "attrs": {"scalar": "1.0"}, 
      "inputs": [[298, 0, 0]]
    }, 
    {
      "op": "null", 
      "name": "conv1_bp13_weight", 
      "attrs": {
        "kernel": "(6, 6)", 
        "no_bias": "False", 
        "num_filter": "64", 
        "pad": "(2, 2)", 
        "stride": "(2, 2)"
      }, 
      "inputs": []
    }, 
    {
      "op": "null", 
      "name": "conv1_bp13_bias", 
      "attrs": {
        "kernel": "(6, 6)", 
        "no_bias": "False", 
        "num_filter": "64", 
        "pad": "(2, 2)", 
        "stride": "(2, 2)"
      }, 
      "inputs": []
    }, 
    {
      "op": "Deconvolution", 
      "name": "conv1_bp13", 
      "attrs": {
        "kernel": "(6, 6)", 
        "no_bias": "False", 
        "num_filter": "64", 
        "pad": "(2, 2)", 
        "stride": "(2, 2)"
      }, 
      "inputs": [[298, 0, 0], [300, 0, 0], [301, 0, 0]]
    }, 
    {
      "op": "null", 
      "name": "relu1_bp13_gamma", 
      "attrs": {
        "__init__": "[\"Constant\", {\"value\": 0.25}]", 
        "act_type": "prelu", 
        "slope": "0.0"
      }, 
      "inputs": []
    }, 
    {
      "op": "LeakyReLU", 
      "name": "relu1_bp13", 
      "attrs": {
        "act_type": "prelu", 
        "slope": "0.0"
      }, 
      "inputs": [[302, 0, 0], [303, 0, 0]]
    }, 
    {
      "op": "null", 
      "name": "conv2_bp13_weight", 
      "attrs": {
        "kernel": "(6, 6)", 
        "no_bias": "False", 
        "num_filter": "64", 
        "pad": "(2, 2)", 
        "stride": "(2, 2)"
      }, 
      "inputs": []
    }, 
    {
      "op": "null", 
      "name": "conv2_bp13_bias", 
      "attrs": {
        "kernel": "(6, 6)", 
        "no_bias": "False", 
        "num_filter": "64", 
        "pad": "(2, 2)", 
        "stride": "(2, 2)"
      }, 
      "inputs": []
    }, 
    {
      "op": "Convolution", 
      "name": "conv2_bp13", 
      "attrs": {
        "kernel": "(6, 6)", 
        "no_bias": "False", 
        "num_filter": "64", 
        "pad": "(2, 2)", 
        "stride": "(2, 2)"
      }, 
      "inputs": [[304, 0, 0], [305, 0, 0], [306, 0, 0]]
    }, 
    {
      "op": "null", 
      "name": "relu2_bp13_gamma", 
      "attrs": {
        "__init__": "[\"Constant\", {\"value\": 0.25}]", 
        "act_type": "prelu", 
        "slope": "0.0"
      }, 
      "inputs": []
    }, 
    {
      "op": "LeakyReLU", 
      "name": "relu2_bp13", 
      "attrs": {
        "act_type": "prelu", 
        "slope": "0.0"
      }, 
      "inputs": [[307, 0, 0], [308, 0, 0]]
    }, 
    {
      "op": "_mul_scalar", 
      "name": "_mulscalar25", 
      "attrs": {"scalar": "-1.0"}, 
      "inputs": [[309, 0, 0]]
    }, 
    {
      "op": "elemwise_add", 
      "name": "_plus12", 
      "inputs": [[299, 0, 0], [310, 0, 0]]
    }, 
    {
      "op": "null", 
      "name": "conv3_bp13_weight", 
      "attrs": {
        "kernel": "(6, 6)", 
        "no_bias": "False", 
        "num_filter": "64", 
        "pad": "(2, 2)", 
        "stride": "(2, 2)"
      }, 
      "inputs": []
    }, 
    {
      "op": "null", 
      "name": "conv3_bp13_bias", 
      "attrs": {
        "kernel": "(6, 6)", 
        "no_bias": "False", 
        "num_filter": "64", 
        "pad": "(2, 2)", 
        "stride": "(2, 2)"
      }, 
      "inputs": []
    }, 
    {
      "op": "Deconvolution", 
      "name": "conv3_bp13", 
      "attrs": {
        "kernel": "(6, 6)", 
        "no_bias": "False", 
        "num_filter": "64", 
        "pad": "(2, 2)", 
        "stride": "(2, 2)"
      }, 
      "inputs": [[311, 0, 0], [312, 0, 0], [313, 0, 0]]
    }, 
    {
      "op": "null", 
      "name": "relu3_bp13_gamma", 
      "attrs": {
        "__init__": "[\"Constant\", {\"value\": 0.25}]", 
        "act_type": "prelu", 
        "slope": "0.0"
      }, 
      "inputs": []
    }, 
    {
      "op": "LeakyReLU", 
      "name": "relu3_bp13", 
      "attrs": {
        "act_type": "prelu", 
        "slope": "0.0"
      }, 
      "inputs": [[314, 0, 0], [315, 0, 0]]
    }, 
    {
      "op": "broadcast_add", 
      "name": "eltwise2_bp13", 
      "inputs": [[316, 0, 0], [304, 0, 0]]
    }, 
    {
      "op": "Concat", 
      "name": "concat_bp13", 
      "attrs": {"num_args": "2"}, 
      "inputs": [[317, 0, 0], [268, 0, 0]]
    }, 
    {
      "op": "null", 
      "name": "conv_final_weight", 
      "attrs": {
        "kernel": "(3, 3)", 
        "no_bias": "False", 
        "num_filter": "3", 
        "pad": "(1, 1)", 
        "stride": "(1, 1)"
      }, 
      "inputs": []
    }, 
    {
      "op": "null", 
      "name": "conv_final_bias", 
      "attrs": {
        "kernel": "(3, 3)", 
        "no_bias": "False", 
        "num_filter": "3", 
        "pad": "(1, 1)", 
        "stride": "(1, 1)"
      }, 
      "inputs": []
    }, 
    {
      "op": "Convolution", 
      "name": "conv_final", 
      "attrs": {
        "kernel": "(3, 3)", 
        "no_bias": "False", 
        "num_filter": "3", 
        "pad": "(1, 1)", 
        "stride": "(1, 1)"
      }, 
      "inputs": [[318, 0, 0], [319, 0, 0], [320, 0, 0]]
    }
  ], 
  "arg_nodes": [
    0, 
    1, 
    2, 
    4, 
    6, 
    7, 
    9, 
    12, 
    13, 
    15, 
    17, 
    18, 
    20, 
    24, 
    25, 
    27, 
    31, 
    32, 
    34, 
    36, 
    37, 
    39, 
    43, 
    44, 
    46, 
    50, 
    51, 
    53, 
    55, 
    56, 
    58, 
    62, 
    63, 
    65, 
    69, 
    70, 
    72, 
    75, 
    76, 
    78, 
    80, 
    81, 
    83, 
    87, 
    88, 
    90, 
    94, 
    95, 
    97, 
    100, 
    101, 
    103, 
    105, 
    106, 
    108, 
    112, 
    113, 
    115, 
    119, 
    120, 
    122, 
    125, 
    126, 
    128, 
    130, 
    131, 
    133, 
    137, 
    138, 
    140, 
    144, 
    145, 
    147, 
    150, 
    151, 
    153, 
    155, 
    156, 
    158, 
    162, 
    163, 
    165, 
    169, 
    170, 
    172, 
    175, 
    176, 
    178, 
    180, 
    181, 
    183, 
    187, 
    188, 
    190, 
    194, 
    195, 
    197, 
    200, 
    201, 
    203, 
    205, 
    206, 
    208, 
    212, 
    213, 
    215, 
    219, 
    220, 
    222, 
    225, 
    226, 
    228, 
    230, 
    231, 
    233, 
    237, 
    238, 
    240, 
    244, 
    245, 
    247, 
    250, 
    251, 
    253, 
    255, 
    256, 
    258, 
    262, 
    263, 
    265, 
    269, 
    270, 
    272, 
    275, 
    276, 
    278, 
    280, 
    281, 
    283, 
    287, 
    288, 
    290, 
    294, 
    295, 
    297, 
    300, 
    301, 
    303, 
    305, 
    306, 
    308, 
    312, 
    313, 
    315, 
    319, 
    320
  ], 
  "node_row_ptr": [
    0, 
    1, 
    2, 
    3, 
    4, 
    5, 
    6, 
    7, 
    8, 
    9, 
    10, 
    11, 
    12, 
    13, 
    14, 
    15, 
    16, 
    17, 
    18, 
    19, 
    20, 
    21, 
    22, 
    23, 
    24, 
    25, 
    26, 
    27, 
    28, 
    29, 
    30, 
    31, 
    32, 
    33, 
    34, 
    35, 
    36, 
    37, 
    38, 
    39, 
    40, 
    41, 
    42, 
    43, 
    44, 
    45, 
    46, 
    47, 
    48, 
    49, 
    50, 
    51, 
    52, 
    53, 
    54, 
    55, 
    56, 
    57, 
    58, 
    59, 
    60, 
    61, 
    62, 
    63, 
    64, 
    65, 
    66, 
    67, 
    68, 
    69, 
    70, 
    71, 
    72, 
    73, 
    74, 
    75, 
    76, 
    77, 
    78, 
    79, 
    80, 
    81, 
    82, 
    83, 
    84, 
    85, 
    86, 
    87, 
    88, 
    89, 
    90, 
    91, 
    92, 
    93, 
    94, 
    95, 
    96, 
    97, 
    98, 
    99, 
    100, 
    101, 
    102, 
    103, 
    104, 
    105, 
    106, 
    107, 
    108, 
    109, 
    110, 
    111, 
    112, 
    113, 
    114, 
    115, 
    116, 
    117, 
    118, 
    119, 
    120, 
    121, 
    122, 
    123, 
    124, 
    125, 
    126, 
    127, 
    128, 
    129, 
    130, 
    131, 
    132, 
    133, 
    134, 
    135, 
    136, 
    137, 
    138, 
    139, 
    140, 
    141, 
    142, 
    143, 
    144, 
    145, 
    146, 
    147, 
    148, 
    149, 
    150, 
    151, 
    152, 
    153, 
    154, 
    155, 
    156, 
    157, 
    158, 
    159, 
    160, 
    161, 
    162, 
    163, 
    164, 
    165, 
    166, 
    167, 
    168, 
    169, 
    170, 
    171, 
    172, 
    173, 
    174, 
    175, 
    176, 
    177, 
    178, 
    179, 
    180, 
    181, 
    182, 
    183, 
    184, 
    185, 
    186, 
    187, 
    188, 
    189, 
    190, 
    191, 
    192, 
    193, 
    194, 
    195, 
    196, 
    197, 
    198, 
    199, 
    200, 
    201, 
    202, 
    203, 
    204, 
    205, 
    206, 
    207, 
    208, 
    209, 
    210, 
    211, 
    212, 
    213, 
    214, 
    215, 
    216, 
    217, 
    218, 
    219, 
    220, 
    221, 
    222, 
    223, 
    224, 
    225, 
    226, 
    227, 
    228, 
    229, 
    230, 
    231, 
    232, 
    233, 
    234, 
    235, 
    236, 
    237, 
    238, 
    239, 
    240, 
    241, 
    242, 
    243, 
    244, 
    245, 
    246, 
    247, 
    248, 
    249, 
    250, 
    251, 
    252, 
    253, 
    254, 
    255, 
    256, 
    257, 
    258, 
    259, 
    260, 
    261, 
    262, 
    263, 
    264, 
    265, 
    266, 
    267, 
    268, 
    269, 
    270, 
    271, 
    272, 
    273, 
    274, 
    275, 
    276, 
    277, 
    278, 
    279, 
    280, 
    281, 
    282, 
    283, 
    284, 
    285, 
    286, 
    287, 
    288, 
    289, 
    290, 
    291, 
    292, 
    293, 
    294, 
    295, 
    296, 
    297, 
    298, 
    299, 
    300, 
    301, 
    302, 
    303, 
    304, 
    305, 
    306, 
    307, 
    308, 
    309, 
    310, 
    311, 
    312, 
    313, 
    314, 
    315, 
    316, 
    317, 
    318, 
    319, 
    320, 
    321, 
    322
  ], 
  "heads": [[321, 0, 0]], 
  "attrs": {"mxnet_version": ["int", 10300]}
}