{
  "nodes": [
    {
      "op": "null", 
      "name": "data", 
      "inputs": []
    }, 
    {
      "op": "Pad", 
      "name": "pad0", 
      "attrs": {
        "mode": "constant", 
        "pad_width": "(0, 0, 0, 0, 1, 1, 1, 1)"
      }, 
      "inputs": [[0, 0, 0]]
    }, 
    {
      "op": "null", 
      "name": "learned_1", 
      "attrs": {"__shape__": "(128, 1, 3, 3)"}, 
      "inputs": []
    }, 
    {
      "op": "null", 
      "name": "learned_2", 
      "attrs": {"__shape__": "(128,)"}, 
      "inputs": []
    }, 
    {
      "op": "Convolution", 
      "name": "convolution0", 
      "attrs": {
        "dilate": "(1, 1)", 
        "kernel": "(3, 3)", 
        "no_bias": "False", 
        "num_filter": "128", 
        "num_group": "1", 
        "stride": "(1, 1)"
      }, 
      "inputs": [[1, 0, 0], [2, 0, 0], [3, 0, 0]]
    }, 
    {
      "op": "null", 
      "name": "learned_0", 
      "attrs": {
        "__init__": "[\"Constant\", {\"value\": 0.25}]", 
        "__shape__": "(1,)"
      }, 
      "inputs": []
    }, 
    {
      "op": "LeakyReLU", 
      "name": "leakyrelu0", 
      "attrs": {"act_type": "prelu"}, 
      "inputs": [[4, 0, 0], [5, 0, 0]]
    }, 
    {
      "op": "Pad", 
      "name": "pad1", 
      "attrs": {
        "mode": "constant", 
        "pad_width": "(0, 0, 0, 0, 1, 1, 1, 1)"
      }, 
      "inputs": [[6, 0, 0]]
    }, 
    {
      "op": "null", 
      "name": "learned_6", 
      "attrs": {"__shape__": "(16, 128, 3, 3)"}, 
      "inputs": []
    }, 
    {
      "op": "null", 
      "name": "learned_7", 
      "attrs": {"__shape__": "(16,)"}, 
      "inputs": []
    }, 
    {
      "op": "Convolution", 
      "name": "convolution1", 
      "attrs": {
        "dilate": "(1, 1)", 
        "kernel": "(3, 3)", 
        "no_bias": "False", 
        "num_filter": "16", 
        "num_group": "1", 
        "stride": "(1, 1)"
      }, 
      "inputs": [[7, 0, 0], [8, 0, 0], [9, 0, 0]]
    }, 
    {
      "op": "null", 
      "name": "learned_5", 
      "attrs": {
        "__init__": "[\"Constant\", {\"value\": 0.25}]", 
        "__shape__": "(1,)"
      }, 
      "inputs": []
    }, 
    {
      "op": "LeakyReLU", 
      "name": "leakyrelu1", 
      "attrs": {"act_type": "prelu"}, 
      "inputs": [[10, 0, 0], [11, 0, 0]]
    }, 
    {
      "op": "Pad", 
      "name": "pad2", 
      "attrs": {
        "mode": "constant", 
        "pad_width": "(0, 0, 0, 0, 1, 1, 1, 1)"
      }, 
      "inputs": [[12, 0, 0]]
    }, 
    {
      "op": "null", 
      "name": "learned_8", 
      "attrs": {"__shape__": "(16, 16, 3, 3)"}, 
      "inputs": []
    }, 
    {
      "op": "null", 
      "name": "learned_9", 
      "attrs": {"__shape__": "(16,)"}, 
      "inputs": []
    }, 
    {
      "op": "Convolution", 
      "name": "convolution2", 
      "attrs": {
        "dilate": "(1, 1)", 
        "kernel": "(3, 3)", 
        "no_bias": "False", 
        "num_filter": "16", 
        "num_group": "1", 
        "stride": "(1, 1)"
      }, 
      "inputs": [[13, 0, 0], [14, 0, 0], [15, 0, 0]]
    }, 
    {
      "op": "LeakyReLU", 
      "name": "leakyrelu2", 
      "attrs": {"act_type": "prelu"}, 
      "inputs": [[16, 0, 0], [11, 0, 0]]
    }, 
    {
      "op": "Concat", 
      "name": "concat0", 
      "attrs": {
        "dim": "1", 
        "num_args": "2"
      }, 
      "inputs": [[12, 0, 0], [17, 0, 0]]
    }, 
    {
      "op": "LeakyReLU", 
      "name": "leakyrelu3", 
      "attrs": {"act_type": "prelu"}, 
      "inputs": [[18, 0, 0], [11, 0, 0]]
    }, 
    {
      "op": "Pad", 
      "name": "pad3", 
      "attrs": {
        "mode": "constant", 
        "pad_width": "(0, 0, 0, 0, 1, 1, 1, 1)"
      }, 
      "inputs": [[19, 0, 0]]
    }, 
    {
      "op": "null", 
      "name": "learned_10", 
      "attrs": {"__shape__": "(16, 32, 3, 3)"}, 
      "inputs": []
    }, 
    {
      "op": "null", 
      "name": "learned_11", 
      "attrs": {"__shape__": "(16,)"}, 
      "inputs": []
    }, 
    {
      "op": "Convolution", 
      "name": "convolution3", 
      "attrs": {
        "dilate": "(1, 1)", 
        "kernel": "(3, 3)", 
        "no_bias": "False", 
        "num_filter": "16", 
        "num_group": "1", 
        "stride": "(1, 1)"
      }, 
      "inputs": [[20, 0, 0], [21, 0, 0], [22, 0, 0]]
    }, 
    {
      "op": "LeakyReLU", 
      "name": "leakyrelu4", 
      "attrs": {"act_type": "prelu"}, 
      "inputs": [[23, 0, 0], [11, 0, 0]]
    }, 
    {
      "op": "Concat", 
      "name": "concat1", 
      "attrs": {
        "dim": "1", 
        "num_args": "3"
      }, 
      "inputs": [[12, 0, 0], [17, 0, 0], [24, 0, 0]]
    }, 
    {
      "op": "LeakyReLU", 
      "name": "leakyrelu5", 
      "attrs": {"act_type": "prelu"}, 
      "inputs": [[25, 0, 0], [11, 0, 0]]
    }, 
    {
      "op": "Pad", 
      "name": "pad4", 
      "attrs": {
        "mode": "constant", 
        "pad_width": "(0, 0, 0, 0, 1, 1, 1, 1)"
      }, 
      "inputs": [[26, 0, 0]]
    }, 
    {
      "op": "null", 
      "name": "learned_12", 
      "attrs": {"__shape__": "(16, 48, 3, 3)"}, 
      "inputs": []
    }, 
    {
      "op": "null", 
      "name": "learned_13", 
      "attrs": {"__shape__": "(16,)"}, 
      "inputs": []
    }, 
    {
      "op": "Convolution", 
      "name": "convolution4", 
      "attrs": {
        "dilate": "(1, 1)", 
        "kernel": "(3, 3)", 
        "no_bias": "False", 
        "num_filter": "16", 
        "num_group": "1", 
        "stride": "(1, 1)"
      }, 
      "inputs": [[27, 0, 0], [28, 0, 0], [29, 0, 0]]
    }, 
    {
      "op": "LeakyReLU", 
      "name": "leakyrelu6", 
      "attrs": {"act_type": "prelu"}, 
      "inputs": [[30, 0, 0], [11, 0, 0]]
    }, 
    {
      "op": "Concat", 
      "name": "concat2", 
      "attrs": {
        "dim": "1", 
        "num_args": "4"
      }, 
      "inputs": [[12, 0, 0], [17, 0, 0], [24, 0, 0], [31, 0, 0]]
    }, 
    {
      "op": "LeakyReLU", 
      "name": "leakyrelu7", 
      "attrs": {"act_type": "prelu"}, 
      "inputs": [[32, 0, 0], [11, 0, 0]]
    }, 
    {
      "op": "Pad", 
      "name": "pad5", 
      "attrs": {
        "mode": "constant", 
        "pad_width": "(0, 0, 0, 0, 1, 1, 1, 1)"
      }, 
      "inputs": [[33, 0, 0]]
    }, 
    {
      "op": "null", 
      "name": "learned_14", 
      "attrs": {"__shape__": "(16, 64, 3, 3)"}, 
      "inputs": []
    }, 
    {
      "op": "null", 
      "name": "learned_15", 
      "attrs": {"__shape__": "(16,)"}, 
      "inputs": []
    }, 
    {
      "op": "Convolution", 
      "name": "convolution5", 
      "attrs": {
        "dilate": "(1, 1)", 
        "kernel": "(3, 3)", 
        "no_bias": "False", 
        "num_filter": "16", 
        "num_group": "1", 
        "stride": "(1, 1)"
      }, 
      "inputs": [[34, 0, 0], [35, 0, 0], [36, 0, 0]]
    }, 
    {
      "op": "LeakyReLU", 
      "name": "leakyrelu8", 
      "attrs": {"act_type": "prelu"}, 
      "inputs": [[37, 0, 0], [11, 0, 0]]
    }, 
    {
      "op": "Concat", 
      "name": "concat3", 
      "attrs": {
        "dim": "1", 
        "num_args": "5"
      }, 
      "inputs": [[12, 0, 0], [17, 0, 0], [24, 0, 0], [31, 0, 0], [38, 0, 0]]
    }, 
    {
      "op": "LeakyReLU", 
      "name": "leakyrelu9", 
      "attrs": {"act_type": "prelu"}, 
      "inputs": [[39, 0, 0], [11, 0, 0]]
    }, 
    {
      "op": "Pad", 
      "name": "pad6", 
      "attrs": {
        "mode": "constant", 
        "pad_width": "(0, 0, 0, 0, 1, 1, 1, 1)"
      }, 
      "inputs": [[40, 0, 0]]
    }, 
    {
      "op": "null", 
      "name": "learned_16", 
      "attrs": {"__shape__": "(16, 80, 3, 3)"}, 
      "inputs": []
    }, 
    {
      "op": "null", 
      "name": "learned_17", 
      "attrs": {"__shape__": "(16,)"}, 
      "inputs": []
    }, 
    {
      "op": "Convolution", 
      "name": "convolution6", 
      "attrs": {
        "dilate": "(1, 1)", 
        "kernel": "(3, 3)", 
        "no_bias": "False", 
        "num_filter": "16", 
        "num_group": "1", 
        "stride": "(1, 1)"
      }, 
      "inputs": [[41, 0, 0], [42, 0, 0], [43, 0, 0]]
    }, 
    {
      "op": "LeakyReLU", 
      "name": "leakyrelu10", 
      "attrs": {"act_type": "prelu"}, 
      "inputs": [[44, 0, 0], [11, 0, 0]]
    }, 
    {
      "op": "Concat", 
      "name": "concat4", 
      "attrs": {
        "dim": "1", 
        "num_args": "6"
      }, 
      "inputs": [[12, 0, 0], [17, 0, 0], [24, 0, 0], [31, 0, 0], [38, 0, 0], [45, 0, 0]]
    }, 
    {
      "op": "LeakyReLU", 
      "name": "leakyrelu11", 
      "attrs": {"act_type": "prelu"}, 
      "inputs": [[46, 0, 0], [11, 0, 0]]
    }, 
    {
      "op": "Pad", 
      "name": "pad7", 
      "attrs": {
        "mode": "constant", 
        "pad_width": "(0, 0, 0, 0, 1, 1, 1, 1)"
      }, 
      "inputs": [[47, 0, 0]]
    }, 
    {
      "op": "null", 
      "name": "learned_18", 
      "attrs": {"__shape__": "(16, 96, 3, 3)"}, 
      "inputs": []
    }, 
    {
      "op": "null", 
      "name": "learned_19", 
      "attrs": {"__shape__": "(16,)"}, 
      "inputs": []
    }, 
    {
      "op": "Convolution", 
      "name": "convolution7", 
      "attrs": {
        "dilate": "(1, 1)", 
        "kernel": "(3, 3)", 
        "no_bias": "False", 
        "num_filter": "16", 
        "num_group": "1", 
        "stride": "(1, 1)"
      }, 
      "inputs": [[48, 0, 0], [49, 0, 0], [50, 0, 0]]
    }, 
    {
      "op": "LeakyReLU", 
      "name": "leakyrelu12", 
      "attrs": {"act_type": "prelu"}, 
      "inputs": [[51, 0, 0], [11, 0, 0]]
    }, 
    {
      "op": "Concat", 
      "name": "concat5", 
      "attrs": {
        "dim": "1", 
        "num_args": "7"
      }, 
      "inputs": [[12, 0, 0], [17, 0, 0], [24, 0, 0], [31, 0, 0], [38, 0, 0], [45, 0, 0], [52, 0, 0]]
    }, 
    {
      "op": "LeakyReLU", 
      "name": "leakyrelu13", 
      "attrs": {"act_type": "prelu"}, 
      "inputs": [[53, 0, 0], [11, 0, 0]]
    }, 
    {
      "op": "Pad", 
      "name": "pad8", 
      "attrs": {
        "mode": "constant", 
        "pad_width": "(0, 0, 0, 0, 1, 1, 1, 1)"
      }, 
      "inputs": [[54, 0, 0]]
    }, 
    {
      "op": "null", 
      "name": "learned_20", 
      "attrs": {"__shape__": "(16, 112, 3, 3)"}, 
      "inputs": []
    }, 
    {
      "op": "null", 
      "name": "learned_21", 
      "attrs": {"__shape__": "(16,)"}, 
      "inputs": []
    }, 
    {
      "op": "Convolution", 
      "name": "convolution8", 
      "attrs": {
        "dilate": "(1, 1)", 
        "kernel": "(3, 3)", 
        "no_bias": "False", 
        "num_filter": "16", 
        "num_group": "1", 
        "stride": "(1, 1)"
      }, 
      "inputs": [[55, 0, 0], [56, 0, 0], [57, 0, 0]]
    }, 
    {
      "op": "LeakyReLU", 
      "name": "leakyrelu14", 
      "attrs": {"act_type": "prelu"}, 
      "inputs": [[58, 0, 0], [11, 0, 0]]
    }, 
    {
      "op": "Concat", 
      "name": "concat6", 
      "attrs": {
        "dim": "1", 
        "num_args": "8"
      }, 
      "inputs": [[12, 0, 0], [17, 0, 0], [24, 0, 0], [31, 0, 0], [38, 0, 0], [45, 0, 0], [52, 0, 0], [59, 0, 0]]
    }, 
    {
      "op": "LeakyReLU", 
      "name": "leakyrelu15", 
      "attrs": {"act_type": "prelu"}, 
      "inputs": [[60, 0, 0], [11, 0, 0]]
    }, 
    {
      "op": "Concat", 
      "name": "concat7", 
      "attrs": {
        "dim": "1", 
        "num_args": "2"
      }, 
      "inputs": [[6, 0, 0], [61, 0, 0]]
    }, 
    {
      "op": "Pad", 
      "name": "pad9", 
      "attrs": {
        "mode": "constant", 
        "pad_width": "(0, 0, 0, 0, 1, 1, 1, 1)"
      }, 
      "inputs": [[62, 0, 0]]
    }, 
    {
      "op": "null", 
      "name": "learned_23", 
      "attrs": {"__shape__": "(16, 256, 3, 3)"}, 
      "inputs": []
    }, 
    {
      "op": "null", 
      "name": "learned_24", 
      "attrs": {"__shape__": "(16,)"}, 
      "inputs": []
    }, 
    {
      "op": "Convolution", 
      "name": "convolution9", 
      "attrs": {
        "dilate": "(1, 1)", 
        "kernel": "(3, 3)", 
        "no_bias": "False", 
        "num_filter": "16", 
        "num_group": "1", 
        "stride": "(1, 1)"
      }, 
      "inputs": [[63, 0, 0], [64, 0, 0], [65, 0, 0]]
    }, 
    {
      "op": "null", 
      "name": "learned_22", 
      "attrs": {
        "__init__": "[\"Constant\", {\"value\": 0.25}]", 
        "__shape__": "(1,)"
      }, 
      "inputs": []
    }, 
    {
      "op": "LeakyReLU", 
      "name": "leakyrelu16", 
      "attrs": {"act_type": "prelu"}, 
      "inputs": [[66, 0, 0], [67, 0, 0]]
    }, 
    {
      "op": "Pad", 
      "name": "pad10", 
      "attrs": {
        "mode": "constant", 
        "pad_width": "(0, 0, 0, 0, 1, 1, 1, 1)"
      }, 
      "inputs": [[68, 0, 0]]
    }, 
    {
      "op": "null", 
      "name": "learned_25", 
      "attrs": {"__shape__": "(16, 16, 3, 3)"}, 
      "inputs": []
    }, 
    {
      "op": "null", 
      "name": "learned_26", 
      "attrs": {"__shape__": "(16,)"}, 
      "inputs": []
    }, 
    {
      "op": "Convolution", 
      "name": "convolution10", 
      "attrs": {
        "dilate": "(1, 1)", 
        "kernel": "(3, 3)", 
        "no_bias": "False", 
        "num_filter": "16", 
        "num_group": "1", 
        "stride": "(1, 1)"
      }, 
      "inputs": [[69, 0, 0], [70, 0, 0], [71, 0, 0]]
    }, 
    {
      "op": "LeakyReLU", 
      "name": "leakyrelu17", 
      "attrs": {"act_type": "prelu"}, 
      "inputs": [[72, 0, 0], [67, 0, 0]]
    }, 
    {
      "op": "Concat", 
      "name": "concat8", 
      "attrs": {
        "dim": "1", 
        "num_args": "2"
      }, 
      "inputs": [[68, 0, 0], [73, 0, 0]]
    }, 
    {
      "op": "LeakyReLU", 
      "name": "leakyrelu18", 
      "attrs": {"act_type": "prelu"}, 
      "inputs": [[74, 0, 0], [67, 0, 0]]
    }, 
    {
      "op": "Pad", 
      "name": "pad11", 
      "attrs": {
        "mode": "constant", 
        "pad_width": "(0, 0, 0, 0, 1, 1, 1, 1)"
      }, 
      "inputs": [[75, 0, 0]]
    }, 
    {
      "op": "null", 
      "name": "learned_27", 
      "attrs": {"__shape__": "(16, 32, 3, 3)"}, 
      "inputs": []
    }, 
    {
      "op": "null", 
      "name": "learned_28", 
      "attrs": {"__shape__": "(16,)"}, 
      "inputs": []
    }, 
    {
      "op": "Convolution", 
      "name": "convolution11", 
      "attrs": {
        "dilate": "(1, 1)", 
        "kernel": "(3, 3)", 
        "no_bias": "False", 
        "num_filter": "16", 
        "num_group": "1", 
        "stride": "(1, 1)"
      }, 
      "inputs": [[76, 0, 0], [77, 0, 0], [78, 0, 0]]
    }, 
    {
      "op": "LeakyReLU", 
      "name": "leakyrelu19", 
      "attrs": {"act_type": "prelu"}, 
      "inputs": [[79, 0, 0], [67, 0, 0]]
    }, 
    {
      "op": "Concat", 
      "name": "concat9", 
      "attrs": {
        "dim": "1", 
        "num_args": "3"
      }, 
      "inputs": [[68, 0, 0], [73, 0, 0], [80, 0, 0]]
    }, 
    {
      "op": "LeakyReLU", 
      "name": "leakyrelu20", 
      "attrs": {"act_type": "prelu"}, 
      "inputs": [[81, 0, 0], [67, 0, 0]]
    }, 
    {
      "op": "Pad", 
      "name": "pad12", 
      "attrs": {
        "mode": "constant", 
        "pad_width": "(0, 0, 0, 0, 1, 1, 1, 1)"
      }, 
      "inputs": [[82, 0, 0]]
    }, 
    {
      "op": "null", 
      "name": "learned_29", 
      "attrs": {"__shape__": "(16, 48, 3, 3)"}, 
      "inputs": []
    }, 
    {
      "op": "null", 
      "name": "learned_30", 
      "attrs": {"__shape__": "(16,)"}, 
      "inputs": []
    }, 
    {
      "op": "Convolution", 
      "name": "convolution12", 
      "attrs": {
        "dilate": "(1, 1)", 
        "kernel": "(3, 3)", 
        "no_bias": "False", 
        "num_filter": "16", 
        "num_group": "1", 
        "stride": "(1, 1)"
      }, 
      "inputs": [[83, 0, 0], [84, 0, 0], [85, 0, 0]]
    }, 
    {
      "op": "LeakyReLU", 
      "name": "leakyrelu21", 
      "attrs": {"act_type": "prelu"}, 
      "inputs": [[86, 0, 0], [67, 0, 0]]
    }, 
    {
      "op": "Concat", 
      "name": "concat10", 
      "attrs": {
        "dim": "1", 
        "num_args": "4"
      }, 
      "inputs": [[68, 0, 0], [73, 0, 0], [80, 0, 0], [87, 0, 0]]
    }, 
    {
      "op": "LeakyReLU", 
      "name": "leakyrelu22", 
      "attrs": {"act_type": "prelu"}, 
      "inputs": [[88, 0, 0], [67, 0, 0]]
    }, 
    {
      "op": "Pad", 
      "name": "pad13", 
      "attrs": {
        "mode": "constant", 
        "pad_width": "(0, 0, 0, 0, 1, 1, 1, 1)"
      }, 
      "inputs": [[89, 0, 0]]
    }, 
    {
      "op": "null", 
      "name": "learned_31", 
      "attrs": {"__shape__": "(16, 64, 3, 3)"}, 
      "inputs": []
    }, 
    {
      "op": "null", 
      "name": "learned_32", 
      "attrs": {"__shape__": "(16,)"}, 
      "inputs": []
    }, 
    {
      "op": "Convolution", 
      "name": "convolution13", 
      "attrs": {
        "dilate": "(1, 1)", 
        "kernel": "(3, 3)", 
        "no_bias": "False", 
        "num_filter": "16", 
        "num_group": "1", 
        "stride": "(1, 1)"
      }, 
      "inputs": [[90, 0, 0], [91, 0, 0], [92, 0, 0]]
    }, 
    {
      "op": "LeakyReLU", 
      "name": "leakyrelu23", 
      "attrs": {"act_type": "prelu"}, 
      "inputs": [[93, 0, 0], [67, 0, 0]]
    }, 
    {
      "op": "Concat", 
      "name": "concat11", 
      "attrs": {
        "dim": "1", 
        "num_args": "5"
      }, 
      "inputs": [[68, 0, 0], [73, 0, 0], [80, 0, 0], [87, 0, 0], [94, 0, 0]]
    }, 
    {
      "op": "LeakyReLU", 
      "name": "leakyrelu24", 
      "attrs": {"act_type": "prelu"}, 
      "inputs": [[95, 0, 0], [67, 0, 0]]
    }, 
    {
      "op": "Pad", 
      "name": "pad14", 
      "attrs": {
        "mode": "constant", 
        "pad_width": "(0, 0, 0, 0, 1, 1, 1, 1)"
      }, 
      "inputs": [[96, 0, 0]]
    }, 
    {
      "op": "null", 
      "name": "learned_33", 
      "attrs": {"__shape__": "(16, 80, 3, 3)"}, 
      "inputs": []
    }, 
    {
      "op": "null", 
      "name": "learned_34", 
      "attrs": {"__shape__": "(16,)"}, 
      "inputs": []
    }, 
    {
      "op": "Convolution", 
      "name": "convolution14", 
      "attrs": {
        "dilate": "(1, 1)", 
        "kernel": "(3, 3)", 
        "no_bias": "False", 
        "num_filter": "16", 
        "num_group": "1", 
        "stride": "(1, 1)"
      }, 
      "inputs": [[97, 0, 0], [98, 0, 0], [99, 0, 0]]
    }, 
    {
      "op": "LeakyReLU", 
      "name": "leakyrelu25", 
      "attrs": {"act_type": "prelu"}, 
      "inputs": [[100, 0, 0], [67, 0, 0]]
    }, 
    {
      "op": "Concat", 
      "name": "concat12", 
      "attrs": {
        "dim": "1", 
        "num_args": "6"
      }, 
      "inputs": [[68, 0, 0], [73, 0, 0], [80, 0, 0], [87, 0, 0], [94, 0, 0], [101, 0, 0]]
    }, 
    {
      "op": "LeakyReLU", 
      "name": "leakyrelu26", 
      "attrs": {"act_type": "prelu"}, 
      "inputs": [[102, 0, 0], [67, 0, 0]]
    }, 
    {
      "op": "Pad", 
      "name": "pad15", 
      "attrs": {
        "mode": "constant", 
        "pad_width": "(0, 0, 0, 0, 1, 1, 1, 1)"
      }, 
      "inputs": [[103, 0, 0]]
    }, 
    {
      "op": "null", 
      "name": "learned_35", 
      "attrs": {"__shape__": "(16, 96, 3, 3)"}, 
      "inputs": []
    }, 
    {
      "op": "null", 
      "name": "learned_36", 
      "attrs": {"__shape__": "(16,)"}, 
      "inputs": []
    }, 
    {
      "op": "Convolution", 
      "name": "convolution15", 
      "attrs": {
        "dilate": "(1, 1)", 
        "kernel": "(3, 3)", 
        "no_bias": "False", 
        "num_filter": "16", 
        "num_group": "1", 
        "stride": "(1, 1)"
      }, 
      "inputs": [[104, 0, 0], [105, 0, 0], [106, 0, 0]]
    }, 
    {
      "op": "LeakyReLU", 
      "name": "leakyrelu27", 
      "attrs": {"act_type": "prelu"}, 
      "inputs": [[107, 0, 0], [67, 0, 0]]
    }, 
    {
      "op": "Concat", 
      "name": "concat13", 
      "attrs": {
        "dim": "1", 
        "num_args": "7"
      }, 
      "inputs": [[68, 0, 0], [73, 0, 0], [80, 0, 0], [87, 0, 0], [94, 0, 0], [101, 0, 0], [108, 0, 0]]
    }, 
    {
      "op": "LeakyReLU", 
      "name": "leakyrelu28", 
      "attrs": {"act_type": "prelu"}, 
      "inputs": [[109, 0, 0], [67, 0, 0]]
    }, 
    {
      "op": "Pad", 
      "name": "pad16", 
      "attrs": {
        "mode": "constant", 
        "pad_width": "(0, 0, 0, 0, 1, 1, 1, 1)"
      }, 
      "inputs": [[110, 0, 0]]
    }, 
    {
      "op": "null", 
      "name": "learned_37", 
      "attrs": {"__shape__": "(16, 112, 3, 3)"}, 
      "inputs": []
    }, 
    {
      "op": "null", 
      "name": "learned_38", 
      "attrs": {"__shape__": "(16,)"}, 
      "inputs": []
    }, 
    {
      "op": "Convolution", 
      "name": "convolution16", 
      "attrs": {
        "dilate": "(1, 1)", 
        "kernel": "(3, 3)", 
        "no_bias": "False", 
        "num_filter": "16", 
        "num_group": "1", 
        "stride": "(1, 1)"
      }, 
      "inputs": [[111, 0, 0], [112, 0, 0], [113, 0, 0]]
    }, 
    {
      "op": "LeakyReLU", 
      "name": "leakyrelu29", 
      "attrs": {"act_type": "prelu"}, 
      "inputs": [[114, 0, 0], [67, 0, 0]]
    }, 
    {
      "op": "Concat", 
      "name": "concat14", 
      "attrs": {
        "dim": "1", 
        "num_args": "8"
      }, 
      "inputs": [[68, 0, 0], [73, 0, 0], [80, 0, 0], [87, 0, 0], [94, 0, 0], [101, 0, 0], [108, 0, 0], [115, 0, 0]]
    }, 
    {
      "op": "LeakyReLU", 
      "name": "leakyrelu30", 
      "attrs": {"act_type": "prelu"}, 
      "inputs": [[116, 0, 0], [67, 0, 0]]
    }, 
    {
      "op": "Concat", 
      "name": "concat15", 
      "attrs": {
        "dim": "1", 
        "num_args": "2"
      }, 
      "inputs": [[62, 0, 0], [117, 0, 0]]
    }, 
    {
      "op": "Pad", 
      "name": "pad17", 
      "attrs": {
        "mode": "constant", 
        "pad_width": "(0, 0, 0, 0, 1, 1, 1, 1)"
      }, 
      "inputs": [[118, 0, 0]]
    }, 
    {
      "op": "null", 
      "name": "learned_40", 
      "attrs": {"__shape__": "(16, 384, 3, 3)"}, 
      "inputs": []
    }, 
    {
      "op": "null", 
      "name": "learned_41", 
      "attrs": {"__shape__": "(16,)"}, 
      "inputs": []
    }, 
    {
      "op": "Convolution", 
      "name": "convolution17", 
      "attrs": {
        "dilate": "(1, 1)", 
        "kernel": "(3, 3)", 
        "no_bias": "False", 
        "num_filter": "16", 
        "num_group": "1", 
        "stride": "(1, 1)"
      }, 
      "inputs": [[119, 0, 0], [120, 0, 0], [121, 0, 0]]
    }, 
    {
      "op": "null", 
      "name": "learned_39", 
      "attrs": {
        "__init__": "[\"Constant\", {\"value\": 0.25}]", 
        "__shape__": "(1,)"
      }, 
      "inputs": []
    }, 
    {
      "op": "LeakyReLU", 
      "name": "leakyrelu31", 
      "attrs": {"act_type": "prelu"}, 
      "inputs": [[122, 0, 0], [123, 0, 0]]
    }, 
    {
      "op": "Pad", 
      "name": "pad18", 
      "attrs": {
        "mode": "constant", 
        "pad_width": "(0, 0, 0, 0, 1, 1, 1, 1)"
      }, 
      "inputs": [[124, 0, 0]]
    }, 
    {
      "op": "null", 
      "name": "learned_42", 
      "attrs": {"__shape__": "(16, 16, 3, 3)"}, 
      "inputs": []
    }, 
    {
      "op": "null", 
      "name": "learned_43", 
      "attrs": {"__shape__": "(16,)"}, 
      "inputs": []
    }, 
    {
      "op": "Convolution", 
      "name": "convolution18", 
      "attrs": {
        "dilate": "(1, 1)", 
        "kernel": "(3, 3)", 
        "no_bias": "False", 
        "num_filter": "16", 
        "num_group": "1", 
        "stride": "(1, 1)"
      }, 
      "inputs": [[125, 0, 0], [126, 0, 0], [127, 0, 0]]
    }, 
    {
      "op": "LeakyReLU", 
      "name": "leakyrelu32", 
      "attrs": {"act_type": "prelu"}, 
      "inputs": [[128, 0, 0], [123, 0, 0]]
    }, 
    {
      "op": "Concat", 
      "name": "concat16", 
      "attrs": {
        "dim": "1", 
        "num_args": "2"
      }, 
      "inputs": [[124, 0, 0], [129, 0, 0]]
    }, 
    {
      "op": "LeakyReLU", 
      "name": "leakyrelu33", 
      "attrs": {"act_type": "prelu"}, 
      "inputs": [[130, 0, 0], [123, 0, 0]]
    }, 
    {
      "op": "Pad", 
      "name": "pad19", 
      "attrs": {
        "mode": "constant", 
        "pad_width": "(0, 0, 0, 0, 1, 1, 1, 1)"
      }, 
      "inputs": [[131, 0, 0]]
    }, 
    {
      "op": "null", 
      "name": "learned_44", 
      "attrs": {"__shape__": "(16, 32, 3, 3)"}, 
      "inputs": []
    }, 
    {
      "op": "null", 
      "name": "learned_45", 
      "attrs": {"__shape__": "(16,)"}, 
      "inputs": []
    }, 
    {
      "op": "Convolution", 
      "name": "convolution19", 
      "attrs": {
        "dilate": "(1, 1)", 
        "kernel": "(3, 3)", 
        "no_bias": "False", 
        "num_filter": "16", 
        "num_group": "1", 
        "stride": "(1, 1)"
      }, 
      "inputs": [[132, 0, 0], [133, 0, 0], [134, 0, 0]]
    }, 
    {
      "op": "LeakyReLU", 
      "name": "leakyrelu34", 
      "attrs": {"act_type": "prelu"}, 
      "inputs": [[135, 0, 0], [123, 0, 0]]
    }, 
    {
      "op": "Concat", 
      "name": "concat17", 
      "attrs": {
        "dim": "1", 
        "num_args": "3"
      }, 
      "inputs": [[124, 0, 0], [129, 0, 0], [136, 0, 0]]
    }, 
    {
      "op": "LeakyReLU", 
      "name": "leakyrelu35", 
      "attrs": {"act_type": "prelu"}, 
      "inputs": [[137, 0, 0], [123, 0, 0]]
    }, 
    {
      "op": "Pad", 
      "name": "pad20", 
      "attrs": {
        "mode": "constant", 
        "pad_width": "(0, 0, 0, 0, 1, 1, 1, 1)"
      }, 
      "inputs": [[138, 0, 0]]
    }, 
    {
      "op": "null", 
      "name": "learned_46", 
      "attrs": {"__shape__": "(16, 48, 3, 3)"}, 
      "inputs": []
    }, 
    {
      "op": "null", 
      "name": "learned_47", 
      "attrs": {"__shape__": "(16,)"}, 
      "inputs": []
    }, 
    {
      "op": "Convolution", 
      "name": "convolution20", 
      "attrs": {
        "dilate": "(1, 1)", 
        "kernel": "(3, 3)", 
        "no_bias": "False", 
        "num_filter": "16", 
        "num_group": "1", 
        "stride": "(1, 1)"
      }, 
      "inputs": [[139, 0, 0], [140, 0, 0], [141, 0, 0]]
    }, 
    {
      "op": "LeakyReLU", 
      "name": "leakyrelu36", 
      "attrs": {"act_type": "prelu"}, 
      "inputs": [[142, 0, 0], [123, 0, 0]]
    }, 
    {
      "op": "Concat", 
      "name": "concat18", 
      "attrs": {
        "dim": "1", 
        "num_args": "4"
      }, 
      "inputs": [[124, 0, 0], [129, 0, 0], [136, 0, 0], [143, 0, 0]]
    }, 
    {
      "op": "LeakyReLU", 
      "name": "leakyrelu37", 
      "attrs": {"act_type": "prelu"}, 
      "inputs": [[144, 0, 0], [123, 0, 0]]
    }, 
    {
      "op": "Pad", 
      "name": "pad21", 
      "attrs": {
        "mode": "constant", 
        "pad_width": "(0, 0, 0, 0, 1, 1, 1, 1)"
      }, 
      "inputs": [[145, 0, 0]]
    }, 
    {
      "op": "null", 
      "name": "learned_48", 
      "attrs": {"__shape__": "(16, 64, 3, 3)"}, 
      "inputs": []
    }, 
    {
      "op": "null", 
      "name": "learned_49", 
      "attrs": {"__shape__": "(16,)"}, 
      "inputs": []
    }, 
    {
      "op": "Convolution", 
      "name": "convolution21", 
      "attrs": {
        "dilate": "(1, 1)", 
        "kernel": "(3, 3)", 
        "no_bias": "False", 
        "num_filter": "16", 
        "num_group": "1", 
        "stride": "(1, 1)"
      }, 
      "inputs": [[146, 0, 0], [147, 0, 0], [148, 0, 0]]
    }, 
    {
      "op": "LeakyReLU", 
      "name": "leakyrelu38", 
      "attrs": {"act_type": "prelu"}, 
      "inputs": [[149, 0, 0], [123, 0, 0]]
    }, 
    {
      "op": "Concat", 
      "name": "concat19", 
      "attrs": {
        "dim": "1", 
        "num_args": "5"
      }, 
      "inputs": [[124, 0, 0], [129, 0, 0], [136, 0, 0], [143, 0, 0], [150, 0, 0]]
    }, 
    {
      "op": "LeakyReLU", 
      "name": "leakyrelu39", 
      "attrs": {"act_type": "prelu"}, 
      "inputs": [[151, 0, 0], [123, 0, 0]]
    }, 
    {
      "op": "Pad", 
      "name": "pad22", 
      "attrs": {
        "mode": "constant", 
        "pad_width": "(0, 0, 0, 0, 1, 1, 1, 1)"
      }, 
      "inputs": [[152, 0, 0]]
    }, 
    {
      "op": "null", 
      "name": "learned_50", 
      "attrs": {"__shape__": "(16, 80, 3, 3)"}, 
      "inputs": []
    }, 
    {
      "op": "null", 
      "name": "learned_51", 
      "attrs": {"__shape__": "(16,)"}, 
      "inputs": []
    }, 
    {
      "op": "Convolution", 
      "name": "convolution22", 
      "attrs": {
        "dilate": "(1, 1)", 
        "kernel": "(3, 3)", 
        "no_bias": "False", 
        "num_filter": "16", 
        "num_group": "1", 
        "stride": "(1, 1)"
      }, 
      "inputs": [[153, 0, 0], [154, 0, 0], [155, 0, 0]]
    }, 
    {
      "op": "LeakyReLU", 
      "name": "leakyrelu40", 
      "attrs": {"act_type": "prelu"}, 
      "inputs": [[156, 0, 0], [123, 0, 0]]
    }, 
    {
      "op": "Concat", 
      "name": "concat20", 
      "attrs": {
        "dim": "1", 
        "num_args": "6"
      }, 
      "inputs": [[124, 0, 0], [129, 0, 0], [136, 0, 0], [143, 0, 0], [150, 0, 0], [157, 0, 0]]
    }, 
    {
      "op": "LeakyReLU", 
      "name": "leakyrelu41", 
      "attrs": {"act_type": "prelu"}, 
      "inputs": [[158, 0, 0], [123, 0, 0]]
    }, 
    {
      "op": "Pad", 
      "name": "pad23", 
      "attrs": {
        "mode": "constant", 
        "pad_width": "(0, 0, 0, 0, 1, 1, 1, 1)"
      }, 
      "inputs": [[159, 0, 0]]
    }, 
    {
      "op": "null", 
      "name": "learned_52", 
      "attrs": {"__shape__": "(16, 96, 3, 3)"}, 
      "inputs": []
    }, 
    {
      "op": "null", 
      "name": "learned_53", 
      "attrs": {"__shape__": "(16,)"}, 
      "inputs": []
    }, 
    {
      "op": "Convolution", 
      "name": "convolution23", 
      "attrs": {
        "dilate": "(1, 1)", 
        "kernel": "(3, 3)", 
        "no_bias": "False", 
        "num_filter": "16", 
        "num_group": "1", 
        "stride": "(1, 1)"
      }, 
      "inputs": [[160, 0, 0], [161, 0, 0], [162, 0, 0]]
    }, 
    {
      "op": "LeakyReLU", 
      "name": "leakyrelu42", 
      "attrs": {"act_type": "prelu"}, 
      "inputs": [[163, 0, 0], [123, 0, 0]]
    }, 
    {
      "op": "Concat", 
      "name": "concat21", 
      "attrs": {
        "dim": "1", 
        "num_args": "7"
      }, 
      "inputs": [[124, 0, 0], [129, 0, 0], [136, 0, 0], [143, 0, 0], [150, 0, 0], [157, 0, 0], [164, 0, 0]]
    }, 
    {
      "op": "LeakyReLU", 
      "name": "leakyrelu43", 
      "attrs": {"act_type": "prelu"}, 
      "inputs": [[165, 0, 0], [123, 0, 0]]
    }, 
    {
      "op": "Pad", 
      "name": "pad24", 
      "attrs": {
        "mode": "constant", 
        "pad_width": "(0, 0, 0, 0, 1, 1, 1, 1)"
      }, 
      "inputs": [[166, 0, 0]]
    }, 
    {
      "op": "null", 
      "name": "learned_54", 
      "attrs": {"__shape__": "(16, 112, 3, 3)"}, 
      "inputs": []
    }, 
    {
      "op": "null", 
      "name": "learned_55", 
      "attrs": {"__shape__": "(16,)"}, 
      "inputs": []
    }, 
    {
      "op": "Convolution", 
      "name": "convolution24", 
      "attrs": {
        "dilate": "(1, 1)", 
        "kernel": "(3, 3)", 
        "no_bias": "False", 
        "num_filter": "16", 
        "num_group": "1", 
        "stride": "(1, 1)"
      }, 
      "inputs": [[167, 0, 0], [168, 0, 0], [169, 0, 0]]
    }, 
    {
      "op": "LeakyReLU", 
      "name": "leakyrelu44", 
      "attrs": {"act_type": "prelu"}, 
      "inputs": [[170, 0, 0], [123, 0, 0]]
    }, 
    {
      "op": "Concat", 
      "name": "concat22", 
      "attrs": {
        "dim": "1", 
        "num_args": "8"
      }, 
      "inputs": [[124, 0, 0], [129, 0, 0], [136, 0, 0], [143, 0, 0], [150, 0, 0], [157, 0, 0], [164, 0, 0], [171, 0, 0]]
    }, 
    {
      "op": "LeakyReLU", 
      "name": "leakyrelu45", 
      "attrs": {"act_type": "prelu"}, 
      "inputs": [[172, 0, 0], [123, 0, 0]]
    }, 
    {
      "op": "Concat", 
      "name": "concat23", 
      "attrs": {
        "dim": "1", 
        "num_args": "2"
      }, 
      "inputs": [[118, 0, 0], [173, 0, 0]]
    }, 
    {
      "op": "Pad", 
      "name": "pad25", 
      "attrs": {
        "mode": "constant", 
        "pad_width": "(0, 0, 0, 0, 1, 1, 1, 1)"
      }, 
      "inputs": [[174, 0, 0]]
    }, 
    {
      "op": "null", 
      "name": "learned_57", 
      "attrs": {"__shape__": "(16, 512, 3, 3)"}, 
      "inputs": []
    }, 
    {
      "op": "null", 
      "name": "learned_58", 
      "attrs": {"__shape__": "(16,)"}, 
      "inputs": []
    }, 
    {
      "op": "Convolution", 
      "name": "convolution25", 
      "attrs": {
        "dilate": "(1, 1)", 
        "kernel": "(3, 3)", 
        "no_bias": "False", 
        "num_filter": "16", 
        "num_group": "1", 
        "stride": "(1, 1)"
      }, 
      "inputs": [[175, 0, 0], [176, 0, 0], [177, 0, 0]]
    }, 
    {
      "op": "null", 
      "name": "learned_56", 
      "attrs": {
        "__init__": "[\"Constant\", {\"value\": 0.25}]", 
        "__shape__": "(1,)"
      }, 
      "inputs": []
    }, 
    {
      "op": "LeakyReLU", 
      "name": "leakyrelu46", 
      "attrs": {"act_type": "prelu"}, 
      "inputs": [[178, 0, 0], [179, 0, 0]]
    }, 
    {
      "op": "Pad", 
      "name": "pad26", 
      "attrs": {
        "mode": "constant", 
        "pad_width": "(0, 0, 0, 0, 1, 1, 1, 1)"
      }, 
      "inputs": [[180, 0, 0]]
    }, 
    {
      "op": "null", 
      "name": "learned_59", 
      "attrs": {"__shape__": "(16, 16, 3, 3)"}, 
      "inputs": []
    }, 
    {
      "op": "null", 
      "name": "learned_60", 
      "attrs": {"__shape__": "(16,)"}, 
      "inputs": []
    }, 
    {
      "op": "Convolution", 
      "name": "convolution26", 
      "attrs": {
        "dilate": "(1, 1)", 
        "kernel": "(3, 3)", 
        "no_bias": "False", 
        "num_filter": "16", 
        "num_group": "1", 
        "stride": "(1, 1)"
      }, 
      "inputs": [[181, 0, 0], [182, 0, 0], [183, 0, 0]]
    }, 
    {
      "op": "LeakyReLU", 
      "name": "leakyrelu47", 
      "attrs": {"act_type": "prelu"}, 
      "inputs": [[184, 0, 0], [179, 0, 0]]
    }, 
    {
      "op": "Concat", 
      "name": "concat24", 
      "attrs": {
        "dim": "1", 
        "num_args": "2"
      }, 
      "inputs": [[180, 0, 0], [185, 0, 0]]
    }, 
    {
      "op": "LeakyReLU", 
      "name": "leakyrelu48", 
      "attrs": {"act_type": "prelu"}, 
      "inputs": [[186, 0, 0], [179, 0, 0]]
    }, 
    {
      "op": "Pad", 
      "name": "pad27", 
      "attrs": {
        "mode": "constant", 
        "pad_width": "(0, 0, 0, 0, 1, 1, 1, 1)"
      }, 
      "inputs": [[187, 0, 0]]
    }, 
    {
      "op": "null", 
      "name": "learned_61", 
      "attrs": {"__shape__": "(16, 32, 3, 3)"}, 
      "inputs": []
    }, 
    {
      "op": "null", 
      "name": "learned_62", 
      "attrs": {"__shape__": "(16,)"}, 
      "inputs": []
    }, 
    {
      "op": "Convolution", 
      "name": "convolution27", 
      "attrs": {
        "dilate": "(1, 1)", 
        "kernel": "(3, 3)", 
        "no_bias": "False", 
        "num_filter": "16", 
        "num_group": "1", 
        "stride": "(1, 1)"
      }, 
      "inputs": [[188, 0, 0], [189, 0, 0], [190, 0, 0]]
    }, 
    {
      "op": "LeakyReLU", 
      "name": "leakyrelu49", 
      "attrs": {"act_type": "prelu"}, 
      "inputs": [[191, 0, 0], [179, 0, 0]]
    }, 
    {
      "op": "Concat", 
      "name": "concat25", 
      "attrs": {
        "dim": "1", 
        "num_args": "3"
      }, 
      "inputs": [[180, 0, 0], [185, 0, 0], [192, 0, 0]]
    }, 
    {
      "op": "LeakyReLU", 
      "name": "leakyrelu50", 
      "attrs": {"act_type": "prelu"}, 
      "inputs": [[193, 0, 0], [179, 0, 0]]
    }, 
    {
      "op": "Pad", 
      "name": "pad28", 
      "attrs": {
        "mode": "constant", 
        "pad_width": "(0, 0, 0, 0, 1, 1, 1, 1)"
      }, 
      "inputs": [[194, 0, 0]]
    }, 
    {
      "op": "null", 
      "name": "learned_63", 
      "attrs": {"__shape__": "(16, 48, 3, 3)"}, 
      "inputs": []
    }, 
    {
      "op": "null", 
      "name": "learned_64", 
      "attrs": {"__shape__": "(16,)"}, 
      "inputs": []
    }, 
    {
      "op": "Convolution", 
      "name": "convolution28", 
      "attrs": {
        "dilate": "(1, 1)", 
        "kernel": "(3, 3)", 
        "no_bias": "False", 
        "num_filter": "16", 
        "num_group": "1", 
        "stride": "(1, 1)"
      }, 
      "inputs": [[195, 0, 0], [196, 0, 0], [197, 0, 0]]
    }, 
    {
      "op": "LeakyReLU", 
      "name": "leakyrelu51", 
      "attrs": {"act_type": "prelu"}, 
      "inputs": [[198, 0, 0], [179, 0, 0]]
    }, 
    {
      "op": "Concat", 
      "name": "concat26", 
      "attrs": {
        "dim": "1", 
        "num_args": "4"
      }, 
      "inputs": [[180, 0, 0], [185, 0, 0], [192, 0, 0], [199, 0, 0]]
    }, 
    {
      "op": "LeakyReLU", 
      "name": "leakyrelu52", 
      "attrs": {"act_type": "prelu"}, 
      "inputs": [[200, 0, 0], [179, 0, 0]]
    }, 
    {
      "op": "Pad", 
      "name": "pad29", 
      "attrs": {
        "mode": "constant", 
        "pad_width": "(0, 0, 0, 0, 1, 1, 1, 1)"
      }, 
      "inputs": [[201, 0, 0]]
    }, 
    {
      "op": "null", 
      "name": "learned_65", 
      "attrs": {"__shape__": "(16, 64, 3, 3)"}, 
      "inputs": []
    }, 
    {
      "op": "null", 
      "name": "learned_66", 
      "attrs": {"__shape__": "(16,)"}, 
      "inputs": []
    }, 
    {
      "op": "Convolution", 
      "name": "convolution29", 
      "attrs": {
        "dilate": "(1, 1)", 
        "kernel": "(3, 3)", 
        "no_bias": "False", 
        "num_filter": "16", 
        "num_group": "1", 
        "stride": "(1, 1)"
      }, 
      "inputs": [[202, 0, 0], [203, 0, 0], [204, 0, 0]]
    }, 
    {
      "op": "LeakyReLU", 
      "name": "leakyrelu53", 
      "attrs": {"act_type": "prelu"}, 
      "inputs": [[205, 0, 0], [179, 0, 0]]
    }, 
    {
      "op": "Concat", 
      "name": "concat27", 
      "attrs": {
        "dim": "1", 
        "num_args": "5"
      }, 
      "inputs": [[180, 0, 0], [185, 0, 0], [192, 0, 0], [199, 0, 0], [206, 0, 0]]
    }, 
    {
      "op": "LeakyReLU", 
      "name": "leakyrelu54", 
      "attrs": {"act_type": "prelu"}, 
      "inputs": [[207, 0, 0], [179, 0, 0]]
    }, 
    {
      "op": "Pad", 
      "name": "pad30", 
      "attrs": {
        "mode": "constant", 
        "pad_width": "(0, 0, 0, 0, 1, 1, 1, 1)"
      }, 
      "inputs": [[208, 0, 0]]
    }, 
    {
      "op": "null", 
      "name": "learned_67", 
      "attrs": {"__shape__": "(16, 80, 3, 3)"}, 
      "inputs": []
    }, 
    {
      "op": "null", 
      "name": "learned_68", 
      "attrs": {"__shape__": "(16,)"}, 
      "inputs": []
    }, 
    {
      "op": "Convolution", 
      "name": "convolution30", 
      "attrs": {
        "dilate": "(1, 1)", 
        "kernel": "(3, 3)", 
        "no_bias": "False", 
        "num_filter": "16", 
        "num_group": "1", 
        "stride": "(1, 1)"
      }, 
      "inputs": [[209, 0, 0], [210, 0, 0], [211, 0, 0]]
    }, 
    {
      "op": "LeakyReLU", 
      "name": "leakyrelu55", 
      "attrs": {"act_type": "prelu"}, 
      "inputs": [[212, 0, 0], [179, 0, 0]]
    }, 
    {
      "op": "Concat", 
      "name": "concat28", 
      "attrs": {
        "dim": "1", 
        "num_args": "6"
      }, 
      "inputs": [[180, 0, 0], [185, 0, 0], [192, 0, 0], [199, 0, 0], [206, 0, 0], [213, 0, 0]]
    }, 
    {
      "op": "LeakyReLU", 
      "name": "leakyrelu56", 
      "attrs": {"act_type": "prelu"}, 
      "inputs": [[214, 0, 0], [179, 0, 0]]
    }, 
    {
      "op": "Pad", 
      "name": "pad31", 
      "attrs": {
        "mode": "constant", 
        "pad_width": "(0, 0, 0, 0, 1, 1, 1, 1)"
      }, 
      "inputs": [[215, 0, 0]]
    }, 
    {
      "op": "null", 
      "name": "learned_69", 
      "attrs": {"__shape__": "(16, 96, 3, 3)"}, 
      "inputs": []
    }, 
    {
      "op": "null", 
      "name": "learned_70", 
      "attrs": {"__shape__": "(16,)"}, 
      "inputs": []
    }, 
    {
      "op": "Convolution", 
      "name": "convolution31", 
      "attrs": {
        "dilate": "(1, 1)", 
        "kernel": "(3, 3)", 
        "no_bias": "False", 
        "num_filter": "16", 
        "num_group": "1", 
        "stride": "(1, 1)"
      }, 
      "inputs": [[216, 0, 0], [217, 0, 0], [218, 0, 0]]
    }, 
    {
      "op": "LeakyReLU", 
      "name": "leakyrelu57", 
      "attrs": {"act_type": "prelu"}, 
      "inputs": [[219, 0, 0], [179, 0, 0]]
    }, 
    {
      "op": "Concat", 
      "name": "concat29", 
      "attrs": {
        "dim": "1", 
        "num_args": "7"
      }, 
      "inputs": [[180, 0, 0], [185, 0, 0], [192, 0, 0], [199, 0, 0], [206, 0, 0], [213, 0, 0], [220, 0, 0]]
    }, 
    {
      "op": "LeakyReLU", 
      "name": "leakyrelu58", 
      "attrs": {"act_type": "prelu"}, 
      "inputs": [[221, 0, 0], [179, 0, 0]]
    }, 
    {
      "op": "Pad", 
      "name": "pad32", 
      "attrs": {
        "mode": "constant", 
        "pad_width": "(0, 0, 0, 0, 1, 1, 1, 1)"
      }, 
      "inputs": [[222, 0, 0]]
    }, 
    {
      "op": "null", 
      "name": "learned_71", 
      "attrs": {"__shape__": "(16, 112, 3, 3)"}, 
      "inputs": []
    }, 
    {
      "op": "null", 
      "name": "learned_72", 
      "attrs": {"__shape__": "(16,)"}, 
      "inputs": []
    }, 
    {
      "op": "Convolution", 
      "name": "convolution32", 
      "attrs": {
        "dilate": "(1, 1)", 
        "kernel": "(3, 3)", 
        "no_bias": "False", 
        "num_filter": "16", 
        "num_group": "1", 
        "stride": "(1, 1)"
      }, 
      "inputs": [[223, 0, 0], [224, 0, 0], [225, 0, 0]]
    }, 
    {
      "op": "LeakyReLU", 
      "name": "leakyrelu59", 
      "attrs": {"act_type": "prelu"}, 
      "inputs": [[226, 0, 0], [179, 0, 0]]
    }, 
    {
      "op": "Concat", 
      "name": "concat30", 
      "attrs": {
        "dim": "1", 
        "num_args": "8"
      }, 
      "inputs": [[180, 0, 0], [185, 0, 0], [192, 0, 0], [199, 0, 0], [206, 0, 0], [213, 0, 0], [220, 0, 0], [227, 0, 0]]
    }, 
    {
      "op": "LeakyReLU", 
      "name": "leakyrelu60", 
      "attrs": {"act_type": "prelu"}, 
      "inputs": [[228, 0, 0], [179, 0, 0]]
    }, 
    {
      "op": "Concat", 
      "name": "concat31", 
      "attrs": {
        "dim": "1", 
        "num_args": "2"
      }, 
      "inputs": [[174, 0, 0], [229, 0, 0]]
    }, 
    {
      "op": "Pad", 
      "name": "pad33", 
      "attrs": {
        "mode": "constant", 
        "pad_width": "(0, 0, 0, 0, 1, 1, 1, 1)"
      }, 
      "inputs": [[230, 0, 0]]
    }, 
    {
      "op": "null", 
      "name": "learned_74", 
      "attrs": {"__shape__": "(16, 640, 3, 3)"}, 
      "inputs": []
    }, 
    {
      "op": "null", 
      "name": "learned_75", 
      "attrs": {"__shape__": "(16,)"}, 
      "inputs": []
    }, 
    {
      "op": "Convolution", 
      "name": "convolution33", 
      "attrs": {
        "dilate": "(1, 1)", 
        "kernel": "(3, 3)", 
        "no_bias": "False", 
        "num_filter": "16", 
        "num_group": "1", 
        "stride": "(1, 1)"
      }, 
      "inputs": [[231, 0, 0], [232, 0, 0], [233, 0, 0]]
    }, 
    {
      "op": "null", 
      "name": "learned_73", 
      "attrs": {
        "__init__": "[\"Constant\", {\"value\": 0.25}]", 
        "__shape__": "(1,)"
      }, 
      "inputs": []
    }, 
    {
      "op": "LeakyReLU", 
      "name": "leakyrelu61", 
      "attrs": {"act_type": "prelu"}, 
      "inputs": [[234, 0, 0], [235, 0, 0]]
    }, 
    {
      "op": "Pad", 
      "name": "pad34", 
      "attrs": {
        "mode": "constant", 
        "pad_width": "(0, 0, 0, 0, 1, 1, 1, 1)"
      }, 
      "inputs": [[236, 0, 0]]
    }, 
    {
      "op": "null", 
      "name": "learned_76", 
      "attrs": {"__shape__": "(16, 16, 3, 3)"}, 
      "inputs": []
    }, 
    {
      "op": "null", 
      "name": "learned_77", 
      "attrs": {"__shape__": "(16,)"}, 
      "inputs": []
    }, 
    {
      "op": "Convolution", 
      "name": "convolution34", 
      "attrs": {
        "dilate": "(1, 1)", 
        "kernel": "(3, 3)", 
        "no_bias": "False", 
        "num_filter": "16", 
        "num_group": "1", 
        "stride": "(1, 1)"
      }, 
      "inputs": [[237, 0, 0], [238, 0, 0], [239, 0, 0]]
    }, 
    {
      "op": "LeakyReLU", 
      "name": "leakyrelu62", 
      "attrs": {"act_type": "prelu"}, 
      "inputs": [[240, 0, 0], [235, 0, 0]]
    }, 
    {
      "op": "Concat", 
      "name": "concat32", 
      "attrs": {
        "dim": "1", 
        "num_args": "2"
      }, 
      "inputs": [[236, 0, 0], [241, 0, 0]]
    }, 
    {
      "op": "LeakyReLU", 
      "name": "leakyrelu63", 
      "attrs": {"act_type": "prelu"}, 
      "inputs": [[242, 0, 0], [235, 0, 0]]
    }, 
    {
      "op": "Pad", 
      "name": "pad35", 
      "attrs": {
        "mode": "constant", 
        "pad_width": "(0, 0, 0, 0, 1, 1, 1, 1)"
      }, 
      "inputs": [[243, 0, 0]]
    }, 
    {
      "op": "null", 
      "name": "learned_78", 
      "attrs": {"__shape__": "(16, 32, 3, 3)"}, 
      "inputs": []
    }, 
    {
      "op": "null", 
      "name": "learned_79", 
      "attrs": {"__shape__": "(16,)"}, 
      "inputs": []
    }, 
    {
      "op": "Convolution", 
      "name": "convolution35", 
      "attrs": {
        "dilate": "(1, 1)", 
        "kernel": "(3, 3)", 
        "no_bias": "False", 
        "num_filter": "16", 
        "num_group": "1", 
        "stride": "(1, 1)"
      }, 
      "inputs": [[244, 0, 0], [245, 0, 0], [246, 0, 0]]
    }, 
    {
      "op": "LeakyReLU", 
      "name": "leakyrelu64", 
      "attrs": {"act_type": "prelu"}, 
      "inputs": [[247, 0, 0], [235, 0, 0]]
    }, 
    {
      "op": "Concat", 
      "name": "concat33", 
      "attrs": {
        "dim": "1", 
        "num_args": "3"
      }, 
      "inputs": [[236, 0, 0], [241, 0, 0], [248, 0, 0]]
    }, 
    {
      "op": "LeakyReLU", 
      "name": "leakyrelu65", 
      "attrs": {"act_type": "prelu"}, 
      "inputs": [[249, 0, 0], [235, 0, 0]]
    }, 
    {
      "op": "Pad", 
      "name": "pad36", 
      "attrs": {
        "mode": "constant", 
        "pad_width": "(0, 0, 0, 0, 1, 1, 1, 1)"
      }, 
      "inputs": [[250, 0, 0]]
    }, 
    {
      "op": "null", 
      "name": "learned_80", 
      "attrs": {"__shape__": "(16, 48, 3, 3)"}, 
      "inputs": []
    }, 
    {
      "op": "null", 
      "name": "learned_81", 
      "attrs": {"__shape__": "(16,)"}, 
      "inputs": []
    }, 
    {
      "op": "Convolution", 
      "name": "convolution36", 
      "attrs": {
        "dilate": "(1, 1)", 
        "kernel": "(3, 3)", 
        "no_bias": "False", 
        "num_filter": "16", 
        "num_group": "1", 
        "stride": "(1, 1)"
      }, 
      "inputs": [[251, 0, 0], [252, 0, 0], [253, 0, 0]]
    }, 
    {
      "op": "LeakyReLU", 
      "name": "leakyrelu66", 
      "attrs": {"act_type": "prelu"}, 
      "inputs": [[254, 0, 0], [235, 0, 0]]
    }, 
    {
      "op": "Concat", 
      "name": "concat34", 
      "attrs": {
        "dim": "1", 
        "num_args": "4"
      }, 
      "inputs": [[236, 0, 0], [241, 0, 0], [248, 0, 0], [255, 0, 0]]
    }, 
    {
      "op": "LeakyReLU", 
      "name": "leakyrelu67", 
      "attrs": {"act_type": "prelu"}, 
      "inputs": [[256, 0, 0], [235, 0, 0]]
    }, 
    {
      "op": "Pad", 
      "name": "pad37", 
      "attrs": {
        "mode": "constant", 
        "pad_width": "(0, 0, 0, 0, 1, 1, 1, 1)"
      }, 
      "inputs": [[257, 0, 0]]
    }, 
    {
      "op": "null", 
      "name": "learned_82", 
      "attrs": {"__shape__": "(16, 64, 3, 3)"}, 
      "inputs": []
    }, 
    {
      "op": "null", 
      "name": "learned_83", 
      "attrs": {"__shape__": "(16,)"}, 
      "inputs": []
    }, 
    {
      "op": "Convolution", 
      "name": "convolution37", 
      "attrs": {
        "dilate": "(1, 1)", 
        "kernel": "(3, 3)", 
        "no_bias": "False", 
        "num_filter": "16", 
        "num_group": "1", 
        "stride": "(1, 1)"
      }, 
      "inputs": [[258, 0, 0], [259, 0, 0], [260, 0, 0]]
    }, 
    {
      "op": "LeakyReLU", 
      "name": "leakyrelu68", 
      "attrs": {"act_type": "prelu"}, 
      "inputs": [[261, 0, 0], [235, 0, 0]]
    }, 
    {
      "op": "Concat", 
      "name": "concat35", 
      "attrs": {
        "dim": "1", 
        "num_args": "5"
      }, 
      "inputs": [[236, 0, 0], [241, 0, 0], [248, 0, 0], [255, 0, 0], [262, 0, 0]]
    }, 
    {
      "op": "LeakyReLU", 
      "name": "leakyrelu69", 
      "attrs": {"act_type": "prelu"}, 
      "inputs": [[263, 0, 0], [235, 0, 0]]
    }, 
    {
      "op": "Pad", 
      "name": "pad38", 
      "attrs": {
        "mode": "constant", 
        "pad_width": "(0, 0, 0, 0, 1, 1, 1, 1)"
      }, 
      "inputs": [[264, 0, 0]]
    }, 
    {
      "op": "null", 
      "name": "learned_84", 
      "attrs": {"__shape__": "(16, 80, 3, 3)"}, 
      "inputs": []
    }, 
    {
      "op": "null", 
      "name": "learned_85", 
      "attrs": {"__shape__": "(16,)"}, 
      "inputs": []
    }, 
    {
      "op": "Convolution", 
      "name": "convolution38", 
      "attrs": {
        "dilate": "(1, 1)", 
        "kernel": "(3, 3)", 
        "no_bias": "False", 
        "num_filter": "16", 
        "num_group": "1", 
        "stride": "(1, 1)"
      }, 
      "inputs": [[265, 0, 0], [266, 0, 0], [267, 0, 0]]
    }, 
    {
      "op": "LeakyReLU", 
      "name": "leakyrelu70", 
      "attrs": {"act_type": "prelu"}, 
      "inputs": [[268, 0, 0], [235, 0, 0]]
    }, 
    {
      "op": "Concat", 
      "name": "concat36", 
      "attrs": {
        "dim": "1", 
        "num_args": "6"
      }, 
      "inputs": [[236, 0, 0], [241, 0, 0], [248, 0, 0], [255, 0, 0], [262, 0, 0], [269, 0, 0]]
    }, 
    {
      "op": "LeakyReLU", 
      "name": "leakyrelu71", 
      "attrs": {"act_type": "prelu"}, 
      "inputs": [[270, 0, 0], [235, 0, 0]]
    }, 
    {
      "op": "Pad", 
      "name": "pad39", 
      "attrs": {
        "mode": "constant", 
        "pad_width": "(0, 0, 0, 0, 1, 1, 1, 1)"
      }, 
      "inputs": [[271, 0, 0]]
    }, 
    {
      "op": "null", 
      "name": "learned_86", 
      "attrs": {"__shape__": "(16, 96, 3, 3)"}, 
      "inputs": []
    }, 
    {
      "op": "null", 
      "name": "learned_87", 
      "attrs": {"__shape__": "(16,)"}, 
      "inputs": []
    }, 
    {
      "op": "Convolution", 
      "name": "convolution39", 
      "attrs": {
        "dilate": "(1, 1)", 
        "kernel": "(3, 3)", 
        "no_bias": "False", 
        "num_filter": "16", 
        "num_group": "1", 
        "stride": "(1, 1)"
      }, 
      "inputs": [[272, 0, 0], [273, 0, 0], [274, 0, 0]]
    }, 
    {
      "op": "LeakyReLU", 
      "name": "leakyrelu72", 
      "attrs": {"act_type": "prelu"}, 
      "inputs": [[275, 0, 0], [235, 0, 0]]
    }, 
    {
      "op": "Concat", 
      "name": "concat37", 
      "attrs": {
        "dim": "1", 
        "num_args": "7"
      }, 
      "inputs": [[236, 0, 0], [241, 0, 0], [248, 0, 0], [255, 0, 0], [262, 0, 0], [269, 0, 0], [276, 0, 0]]
    }, 
    {
      "op": "LeakyReLU", 
      "name": "leakyrelu73", 
      "attrs": {"act_type": "prelu"}, 
      "inputs": [[277, 0, 0], [235, 0, 0]]
    }, 
    {
      "op": "Pad", 
      "name": "pad40", 
      "attrs": {
        "mode": "constant", 
        "pad_width": "(0, 0, 0, 0, 1, 1, 1, 1)"
      }, 
      "inputs": [[278, 0, 0]]
    }, 
    {
      "op": "null", 
      "name": "learned_88", 
      "attrs": {"__shape__": "(16, 112, 3, 3)"}, 
      "inputs": []
    }, 
    {
      "op": "null", 
      "name": "learned_89", 
      "attrs": {"__shape__": "(16,)"}, 
      "inputs": []
    }, 
    {
      "op": "Convolution", 
      "name": "convolution40", 
      "attrs": {
        "dilate": "(1, 1)", 
        "kernel": "(3, 3)", 
        "no_bias": "False", 
        "num_filter": "16", 
        "num_group": "1", 
        "stride": "(1, 1)"
      }, 
      "inputs": [[279, 0, 0], [280, 0, 0], [281, 0, 0]]
    }, 
    {
      "op": "LeakyReLU", 
      "name": "leakyrelu74", 
      "attrs": {"act_type": "prelu"}, 
      "inputs": [[282, 0, 0], [235, 0, 0]]
    }, 
    {
      "op": "Concat", 
      "name": "concat38", 
      "attrs": {
        "dim": "1", 
        "num_args": "8"
      }, 
      "inputs": [[236, 0, 0], [241, 0, 0], [248, 0, 0], [255, 0, 0], [262, 0, 0], [269, 0, 0], [276, 0, 0], [283, 0, 0]]
    }, 
    {
      "op": "LeakyReLU", 
      "name": "leakyrelu75", 
      "attrs": {"act_type": "prelu"}, 
      "inputs": [[284, 0, 0], [235, 0, 0]]
    }, 
    {
      "op": "Concat", 
      "name": "concat39", 
      "attrs": {
        "dim": "1", 
        "num_args": "2"
      }, 
      "inputs": [[230, 0, 0], [285, 0, 0]]
    }, 
    {
      "op": "Pad", 
      "name": "pad41", 
      "attrs": {
        "mode": "constant", 
        "pad_width": "(0, 0, 0, 0, 1, 1, 1, 1)"
      }, 
      "inputs": [[286, 0, 0]]
    }, 
    {
      "op": "null", 
      "name": "learned_91", 
      "attrs": {"__shape__": "(16, 768, 3, 3)"}, 
      "inputs": []
    }, 
    {
      "op": "null", 
      "name": "learned_92", 
      "attrs": {"__shape__": "(16,)"}, 
      "inputs": []
    }, 
    {
      "op": "Convolution", 
      "name": "convolution41", 
      "attrs": {
        "dilate": "(1, 1)", 
        "kernel": "(3, 3)", 
        "no_bias": "False", 
        "num_filter": "16", 
        "num_group": "1", 
        "stride": "(1, 1)"
      }, 
      "inputs": [[287, 0, 0], [288, 0, 0], [289, 0, 0]]
    }, 
    {
      "op": "null", 
      "name": "learned_90", 
      "attrs": {
        "__init__": "[\"Constant\", {\"value\": 0.25}]", 
        "__shape__": "(1,)"
      }, 
      "inputs": []
    }, 
    {
      "op": "LeakyReLU", 
      "name": "leakyrelu76", 
      "attrs": {"act_type": "prelu"}, 
      "inputs": [[290, 0, 0], [291, 0, 0]]
    }, 
    {
      "op": "Pad", 
      "name": "pad42", 
      "attrs": {
        "mode": "constant", 
        "pad_width": "(0, 0, 0, 0, 1, 1, 1, 1)"
      }, 
      "inputs": [[292, 0, 0]]
    }, 
    {
      "op": "null", 
      "name": "learned_93", 
      "attrs": {"__shape__": "(16, 16, 3, 3)"}, 
      "inputs": []
    }, 
    {
      "op": "null", 
      "name": "learned_94", 
      "attrs": {"__shape__": "(16,)"}, 
      "inputs": []
    }, 
    {
      "op": "Convolution", 
      "name": "convolution42", 
      "attrs": {
        "dilate": "(1, 1)", 
        "kernel": "(3, 3)", 
        "no_bias": "False", 
        "num_filter": "16", 
        "num_group": "1", 
        "stride": "(1, 1)"
      }, 
      "inputs": [[293, 0, 0], [294, 0, 0], [295, 0, 0]]
    }, 
    {
      "op": "LeakyReLU", 
      "name": "leakyrelu77", 
      "attrs": {"act_type": "prelu"}, 
      "inputs": [[296, 0, 0], [291, 0, 0]]
    }, 
    {
      "op": "Concat", 
      "name": "concat40", 
      "attrs": {
        "dim": "1", 
        "num_args": "2"
      }, 
      "inputs": [[292, 0, 0], [297, 0, 0]]
    }, 
    {
      "op": "LeakyReLU", 
      "name": "leakyrelu78", 
      "attrs": {"act_type": "prelu"}, 
      "inputs": [[298, 0, 0], [291, 0, 0]]
    }, 
    {
      "op": "Pad", 
      "name": "pad43", 
      "attrs": {
        "mode": "constant", 
        "pad_width": "(0, 0, 0, 0, 1, 1, 1, 1)"
      }, 
      "inputs": [[299, 0, 0]]
    }, 
    {
      "op": "null", 
      "name": "learned_95", 
      "attrs": {"__shape__": "(16, 32, 3, 3)"}, 
      "inputs": []
    }, 
    {
      "op": "null", 
      "name": "learned_96", 
      "attrs": {"__shape__": "(16,)"}, 
      "inputs": []
    }, 
    {
      "op": "Convolution", 
      "name": "convolution43", 
      "attrs": {
        "dilate": "(1, 1)", 
        "kernel": "(3, 3)", 
        "no_bias": "False", 
        "num_filter": "16", 
        "num_group": "1", 
        "stride": "(1, 1)"
      }, 
      "inputs": [[300, 0, 0], [301, 0, 0], [302, 0, 0]]
    }, 
    {
      "op": "LeakyReLU", 
      "name": "leakyrelu79", 
      "attrs": {"act_type": "prelu"}, 
      "inputs": [[303, 0, 0], [291, 0, 0]]
    }, 
    {
      "op": "Concat", 
      "name": "concat41", 
      "attrs": {
        "dim": "1", 
        "num_args": "3"
      }, 
      "inputs": [[292, 0, 0], [297, 0, 0], [304, 0, 0]]
    }, 
    {
      "op": "LeakyReLU", 
      "name": "leakyrelu80", 
      "attrs": {"act_type": "prelu"}, 
      "inputs": [[305, 0, 0], [291, 0, 0]]
    }, 
    {
      "op": "Pad", 
      "name": "pad44", 
      "attrs": {
        "mode": "constant", 
        "pad_width": "(0, 0, 0, 0, 1, 1, 1, 1)"
      }, 
      "inputs": [[306, 0, 0]]
    }, 
    {
      "op": "null", 
      "name": "learned_97", 
      "attrs": {"__shape__": "(16, 48, 3, 3)"}, 
      "inputs": []
    }, 
    {
      "op": "null", 
      "name": "learned_98", 
      "attrs": {"__shape__": "(16,)"}, 
      "inputs": []
    }, 
    {
      "op": "Convolution", 
      "name": "convolution44", 
      "attrs": {
        "dilate": "(1, 1)", 
        "kernel": "(3, 3)", 
        "no_bias": "False", 
        "num_filter": "16", 
        "num_group": "1", 
        "stride": "(1, 1)"
      }, 
      "inputs": [[307, 0, 0], [308, 0, 0], [309, 0, 0]]
    }, 
    {
      "op": "LeakyReLU", 
      "name": "leakyrelu81", 
      "attrs": {"act_type": "prelu"}, 
      "inputs": [[310, 0, 0], [291, 0, 0]]
    }, 
    {
      "op": "Concat", 
      "name": "concat42", 
      "attrs": {
        "dim": "1", 
        "num_args": "4"
      }, 
      "inputs": [[292, 0, 0], [297, 0, 0], [304, 0, 0], [311, 0, 0]]
    }, 
    {
      "op": "LeakyReLU", 
      "name": "leakyrelu82", 
      "attrs": {"act_type": "prelu"}, 
      "inputs": [[312, 0, 0], [291, 0, 0]]
    }, 
    {
      "op": "Pad", 
      "name": "pad45", 
      "attrs": {
        "mode": "constant", 
        "pad_width": "(0, 0, 0, 0, 1, 1, 1, 1)"
      }, 
      "inputs": [[313, 0, 0]]
    }, 
    {
      "op": "null", 
      "name": "learned_99", 
      "attrs": {"__shape__": "(16, 64, 3, 3)"}, 
      "inputs": []
    }, 
    {
      "op": "null", 
      "name": "learned_100", 
      "attrs": {"__shape__": "(16,)"}, 
      "inputs": []
    }, 
    {
      "op": "Convolution", 
      "name": "convolution45", 
      "attrs": {
        "dilate": "(1, 1)", 
        "kernel": "(3, 3)", 
        "no_bias": "False", 
        "num_filter": "16", 
        "num_group": "1", 
        "stride": "(1, 1)"
      }, 
      "inputs": [[314, 0, 0], [315, 0, 0], [316, 0, 0]]
    }, 
    {
      "op": "LeakyReLU", 
      "name": "leakyrelu83", 
      "attrs": {"act_type": "prelu"}, 
      "inputs": [[317, 0, 0], [291, 0, 0]]
    }, 
    {
      "op": "Concat", 
      "name": "concat43", 
      "attrs": {
        "dim": "1", 
        "num_args": "5"
      }, 
      "inputs": [[292, 0, 0], [297, 0, 0], [304, 0, 0], [311, 0, 0], [318, 0, 0]]
    }, 
    {
      "op": "LeakyReLU", 
      "name": "leakyrelu84", 
      "attrs": {"act_type": "prelu"}, 
      "inputs": [[319, 0, 0], [291, 0, 0]]
    }, 
    {
      "op": "Pad", 
      "name": "pad46", 
      "attrs": {
        "mode": "constant", 
        "pad_width": "(0, 0, 0, 0, 1, 1, 1, 1)"
      }, 
      "inputs": [[320, 0, 0]]
    }, 
    {
      "op": "null", 
      "name": "learned_101", 
      "attrs": {"__shape__": "(16, 80, 3, 3)"}, 
      "inputs": []
    }, 
    {
      "op": "null", 
      "name": "learned_102", 
      "attrs": {"__shape__": "(16,)"}, 
      "inputs": []
    }, 
    {
      "op": "Convolution", 
      "name": "convolution46", 
      "attrs": {
        "dilate": "(1, 1)", 
        "kernel": "(3, 3)", 
        "no_bias": "False", 
        "num_filter": "16", 
        "num_group": "1", 
        "stride": "(1, 1)"
      }, 
      "inputs": [[321, 0, 0], [322, 0, 0], [323, 0, 0]]
    }, 
    {
      "op": "LeakyReLU", 
      "name": "leakyrelu85", 
      "attrs": {"act_type": "prelu"}, 
      "inputs": [[324, 0, 0], [291, 0, 0]]
    }, 
    {
      "op": "Concat", 
      "name": "concat44", 
      "attrs": {
        "dim": "1", 
        "num_args": "6"
      }, 
      "inputs": [[292, 0, 0], [297, 0, 0], [304, 0, 0], [311, 0, 0], [318, 0, 0], [325, 0, 0]]
    }, 
    {
      "op": "LeakyReLU", 
      "name": "leakyrelu86", 
      "attrs": {"act_type": "prelu"}, 
      "inputs": [[326, 0, 0], [291, 0, 0]]
    }, 
    {
      "op": "Pad", 
      "name": "pad47", 
      "attrs": {
        "mode": "constant", 
        "pad_width": "(0, 0, 0, 0, 1, 1, 1, 1)"
      }, 
      "inputs": [[327, 0, 0]]
    }, 
    {
      "op": "null", 
      "name": "learned_103", 
      "attrs": {"__shape__": "(16, 96, 3, 3)"}, 
      "inputs": []
    }, 
    {
      "op": "null", 
      "name": "learned_104", 
      "attrs": {"__shape__": "(16,)"}, 
      "inputs": []
    }, 
    {
      "op": "Convolution", 
      "name": "convolution47", 
      "attrs": {
        "dilate": "(1, 1)", 
        "kernel": "(3, 3)", 
        "no_bias": "False", 
        "num_filter": "16", 
        "num_group": "1", 
        "stride": "(1, 1)"
      }, 
      "inputs": [[328, 0, 0], [329, 0, 0], [330, 0, 0]]
    }, 
    {
      "op": "LeakyReLU", 
      "name": "leakyrelu87", 
      "attrs": {"act_type": "prelu"}, 
      "inputs": [[331, 0, 0], [291, 0, 0]]
    }, 
    {
      "op": "Concat", 
      "name": "concat45", 
      "attrs": {
        "dim": "1", 
        "num_args": "7"
      }, 
      "inputs": [[292, 0, 0], [297, 0, 0], [304, 0, 0], [311, 0, 0], [318, 0, 0], [325, 0, 0], [332, 0, 0]]
    }, 
    {
      "op": "LeakyReLU", 
      "name": "leakyrelu88", 
      "attrs": {"act_type": "prelu"}, 
      "inputs": [[333, 0, 0], [291, 0, 0]]
    }, 
    {
      "op": "Pad", 
      "name": "pad48", 
      "attrs": {
        "mode": "constant", 
        "pad_width": "(0, 0, 0, 0, 1, 1, 1, 1)"
      }, 
      "inputs": [[334, 0, 0]]
    }, 
    {
      "op": "null", 
      "name": "learned_105", 
      "attrs": {"__shape__": "(16, 112, 3, 3)"}, 
      "inputs": []
    }, 
    {
      "op": "null", 
      "name": "learned_106", 
      "attrs": {"__shape__": "(16,)"}, 
      "inputs": []
    }, 
    {
      "op": "Convolution", 
      "name": "convolution48", 
      "attrs": {
        "dilate": "(1, 1)", 
        "kernel": "(3, 3)", 
        "no_bias": "False", 
        "num_filter": "16", 
        "num_group": "1", 
        "stride": "(1, 1)"
      }, 
      "inputs": [[335, 0, 0], [336, 0, 0], [337, 0, 0]]
    }, 
    {
      "op": "LeakyReLU", 
      "name": "leakyrelu89", 
      "attrs": {"act_type": "prelu"}, 
      "inputs": [[338, 0, 0], [291, 0, 0]]
    }, 
    {
      "op": "Concat", 
      "name": "concat46", 
      "attrs": {
        "dim": "1", 
        "num_args": "8"
      }, 
      "inputs": [[292, 0, 0], [297, 0, 0], [304, 0, 0], [311, 0, 0], [318, 0, 0], [325, 0, 0], [332, 0, 0], [339, 0, 0]]
    }, 
    {
      "op": "LeakyReLU", 
      "name": "leakyrelu90", 
      "attrs": {"act_type": "prelu"}, 
      "inputs": [[340, 0, 0], [291, 0, 0]]
    }, 
    {
      "op": "Concat", 
      "name": "concat47", 
      "attrs": {
        "dim": "1", 
        "num_args": "2"
      }, 
      "inputs": [[286, 0, 0], [341, 0, 0]]
    }, 
    {
      "op": "Pad", 
      "name": "pad49", 
      "attrs": {
        "mode": "constant", 
        "pad_width": "(0, 0, 0, 0, 1, 1, 1, 1)"
      }, 
      "inputs": [[342, 0, 0]]
    }, 
    {
      "op": "null", 
      "name": "learned_108", 
      "attrs": {"__shape__": "(16, 896, 3, 3)"}, 
      "inputs": []
    }, 
    {
      "op": "null", 
      "name": "learned_109", 
      "attrs": {"__shape__": "(16,)"}, 
      "inputs": []
    }, 
    {
      "op": "Convolution", 
      "name": "convolution49", 
      "attrs": {
        "dilate": "(1, 1)", 
        "kernel": "(3, 3)", 
        "no_bias": "False", 
        "num_filter": "16", 
        "num_group": "1", 
        "stride": "(1, 1)"
      }, 
      "inputs": [[343, 0, 0], [344, 0, 0], [345, 0, 0]]
    }, 
    {
      "op": "null", 
      "name": "learned_107", 
      "attrs": {
        "__init__": "[\"Constant\", {\"value\": 0.25}]", 
        "__shape__": "(1,)"
      }, 
      "inputs": []
    }, 
    {
      "op": "LeakyReLU", 
      "name": "leakyrelu91", 
      "attrs": {"act_type": "prelu"}, 
      "inputs": [[346, 0, 0], [347, 0, 0]]
    }, 
    {
      "op": "Pad", 
      "name": "pad50", 
      "attrs": {
        "mode": "constant", 
        "pad_width": "(0, 0, 0, 0, 1, 1, 1, 1)"
      }, 
      "inputs": [[348, 0, 0]]
    }, 
    {
      "op": "null", 
      "name": "learned_110", 
      "attrs": {"__shape__": "(16, 16, 3, 3)"}, 
      "inputs": []
    }, 
    {
      "op": "null", 
      "name": "learned_111", 
      "attrs": {"__shape__": "(16,)"}, 
      "inputs": []
    }, 
    {
      "op": "Convolution", 
      "name": "convolution50", 
      "attrs": {
        "dilate": "(1, 1)", 
        "kernel": "(3, 3)", 
        "no_bias": "False", 
        "num_filter": "16", 
        "num_group": "1", 
        "stride": "(1, 1)"
      }, 
      "inputs": [[349, 0, 0], [350, 0, 0], [351, 0, 0]]
    }, 
    {
      "op": "LeakyReLU", 
      "name": "leakyrelu92", 
      "attrs": {"act_type": "prelu"}, 
      "inputs": [[352, 0, 0], [347, 0, 0]]
    }, 
    {
      "op": "Concat", 
      "name": "concat48", 
      "attrs": {
        "dim": "1", 
        "num_args": "2"
      }, 
      "inputs": [[348, 0, 0], [353, 0, 0]]
    }, 
    {
      "op": "LeakyReLU", 
      "name": "leakyrelu93", 
      "attrs": {"act_type": "prelu"}, 
      "inputs": [[354, 0, 0], [347, 0, 0]]
    }, 
    {
      "op": "Pad", 
      "name": "pad51", 
      "attrs": {
        "mode": "constant", 
        "pad_width": "(0, 0, 0, 0, 1, 1, 1, 1)"
      }, 
      "inputs": [[355, 0, 0]]
    }, 
    {
      "op": "null", 
      "name": "learned_112", 
      "attrs": {"__shape__": "(16, 32, 3, 3)"}, 
      "inputs": []
    }, 
    {
      "op": "null", 
      "name": "learned_113", 
      "attrs": {"__shape__": "(16,)"}, 
      "inputs": []
    }, 
    {
      "op": "Convolution", 
      "name": "convolution51", 
      "attrs": {
        "dilate": "(1, 1)", 
        "kernel": "(3, 3)", 
        "no_bias": "False", 
        "num_filter": "16", 
        "num_group": "1", 
        "stride": "(1, 1)"
      }, 
      "inputs": [[356, 0, 0], [357, 0, 0], [358, 0, 0]]
    }, 
    {
      "op": "LeakyReLU", 
      "name": "leakyrelu94", 
      "attrs": {"act_type": "prelu"}, 
      "inputs": [[359, 0, 0], [347, 0, 0]]
    }, 
    {
      "op": "Concat", 
      "name": "concat49", 
      "attrs": {
        "dim": "1", 
        "num_args": "3"
      }, 
      "inputs": [[348, 0, 0], [353, 0, 0], [360, 0, 0]]
    }, 
    {
      "op": "LeakyReLU", 
      "name": "leakyrelu95", 
      "attrs": {"act_type": "prelu"}, 
      "inputs": [[361, 0, 0], [347, 0, 0]]
    }, 
    {
      "op": "Pad", 
      "name": "pad52", 
      "attrs": {
        "mode": "constant", 
        "pad_width": "(0, 0, 0, 0, 1, 1, 1, 1)"
      }, 
      "inputs": [[362, 0, 0]]
    }, 
    {
      "op": "null", 
      "name": "learned_114", 
      "attrs": {"__shape__": "(16, 48, 3, 3)"}, 
      "inputs": []
    }, 
    {
      "op": "null", 
      "name": "learned_115", 
      "attrs": {"__shape__": "(16,)"}, 
      "inputs": []
    }, 
    {
      "op": "Convolution", 
      "name": "convolution52", 
      "attrs": {
        "dilate": "(1, 1)", 
        "kernel": "(3, 3)", 
        "no_bias": "False", 
        "num_filter": "16", 
        "num_group": "1", 
        "stride": "(1, 1)"
      }, 
      "inputs": [[363, 0, 0], [364, 0, 0], [365, 0, 0]]
    }, 
    {
      "op": "LeakyReLU", 
      "name": "leakyrelu96", 
      "attrs": {"act_type": "prelu"}, 
      "inputs": [[366, 0, 0], [347, 0, 0]]
    }, 
    {
      "op": "Concat", 
      "name": "concat50", 
      "attrs": {
        "dim": "1", 
        "num_args": "4"
      }, 
      "inputs": [[348, 0, 0], [353, 0, 0], [360, 0, 0], [367, 0, 0]]
    }, 
    {
      "op": "LeakyReLU", 
      "name": "leakyrelu97", 
      "attrs": {"act_type": "prelu"}, 
      "inputs": [[368, 0, 0], [347, 0, 0]]
    }, 
    {
      "op": "Pad", 
      "name": "pad53", 
      "attrs": {
        "mode": "constant", 
        "pad_width": "(0, 0, 0, 0, 1, 1, 1, 1)"
      }, 
      "inputs": [[369, 0, 0]]
    }, 
    {
      "op": "null", 
      "name": "learned_116", 
      "attrs": {"__shape__": "(16, 64, 3, 3)"}, 
      "inputs": []
    }, 
    {
      "op": "null", 
      "name": "learned_117", 
      "attrs": {"__shape__": "(16,)"}, 
      "inputs": []
    }, 
    {
      "op": "Convolution", 
      "name": "convolution53", 
      "attrs": {
        "dilate": "(1, 1)", 
        "kernel": "(3, 3)", 
        "no_bias": "False", 
        "num_filter": "16", 
        "num_group": "1", 
        "stride": "(1, 1)"
      }, 
      "inputs": [[370, 0, 0], [371, 0, 0], [372, 0, 0]]
    }, 
    {
      "op": "LeakyReLU", 
      "name": "leakyrelu98", 
      "attrs": {"act_type": "prelu"}, 
      "inputs": [[373, 0, 0], [347, 0, 0]]
    }, 
    {
      "op": "Concat", 
      "name": "concat51", 
      "attrs": {
        "dim": "1", 
        "num_args": "5"
      }, 
      "inputs": [[348, 0, 0], [353, 0, 0], [360, 0, 0], [367, 0, 0], [374, 0, 0]]
    }, 
    {
      "op": "LeakyReLU", 
      "name": "leakyrelu99", 
      "attrs": {"act_type": "prelu"}, 
      "inputs": [[375, 0, 0], [347, 0, 0]]
    }, 
    {
      "op": "Pad", 
      "name": "pad54", 
      "attrs": {
        "mode": "constant", 
        "pad_width": "(0, 0, 0, 0, 1, 1, 1, 1)"
      }, 
      "inputs": [[376, 0, 0]]
    }, 
    {
      "op": "null", 
      "name": "learned_118", 
      "attrs": {"__shape__": "(16, 80, 3, 3)"}, 
      "inputs": []
    }, 
    {
      "op": "null", 
      "name": "learned_119", 
      "attrs": {"__shape__": "(16,)"}, 
      "inputs": []
    }, 
    {
      "op": "Convolution", 
      "name": "convolution54", 
      "attrs": {
        "dilate": "(1, 1)", 
        "kernel": "(3, 3)", 
        "no_bias": "False", 
        "num_filter": "16", 
        "num_group": "1", 
        "stride": "(1, 1)"
      }, 
      "inputs": [[377, 0, 0], [378, 0, 0], [379, 0, 0]]
    }, 
    {
      "op": "LeakyReLU", 
      "name": "leakyrelu100", 
      "attrs": {"act_type": "prelu"}, 
      "inputs": [[380, 0, 0], [347, 0, 0]]
    }, 
    {
      "op": "Concat", 
      "name": "concat52", 
      "attrs": {
        "dim": "1", 
        "num_args": "6"
      }, 
      "inputs": [[348, 0, 0], [353, 0, 0], [360, 0, 0], [367, 0, 0], [374, 0, 0], [381, 0, 0]]
    }, 
    {
      "op": "LeakyReLU", 
      "name": "leakyrelu101", 
      "attrs": {"act_type": "prelu"}, 
      "inputs": [[382, 0, 0], [347, 0, 0]]
    }, 
    {
      "op": "Pad", 
      "name": "pad55", 
      "attrs": {
        "mode": "constant", 
        "pad_width": "(0, 0, 0, 0, 1, 1, 1, 1)"
      }, 
      "inputs": [[383, 0, 0]]
    }, 
    {
      "op": "null", 
      "name": "learned_120", 
      "attrs": {"__shape__": "(16, 96, 3, 3)"}, 
      "inputs": []
    }, 
    {
      "op": "null", 
      "name": "learned_121", 
      "attrs": {"__shape__": "(16,)"}, 
      "inputs": []
    }, 
    {
      "op": "Convolution", 
      "name": "convolution55", 
      "attrs": {
        "dilate": "(1, 1)", 
        "kernel": "(3, 3)", 
        "no_bias": "False", 
        "num_filter": "16", 
        "num_group": "1", 
        "stride": "(1, 1)"
      }, 
      "inputs": [[384, 0, 0], [385, 0, 0], [386, 0, 0]]
    }, 
    {
      "op": "LeakyReLU", 
      "name": "leakyrelu102", 
      "attrs": {"act_type": "prelu"}, 
      "inputs": [[387, 0, 0], [347, 0, 0]]
    }, 
    {
      "op": "Concat", 
      "name": "concat53", 
      "attrs": {
        "dim": "1", 
        "num_args": "7"
      }, 
      "inputs": [[348, 0, 0], [353, 0, 0], [360, 0, 0], [367, 0, 0], [374, 0, 0], [381, 0, 0], [388, 0, 0]]
    }, 
    {
      "op": "LeakyReLU", 
      "name": "leakyrelu103", 
      "attrs": {"act_type": "prelu"}, 
      "inputs": [[389, 0, 0], [347, 0, 0]]
    }, 
    {
      "op": "Pad", 
      "name": "pad56", 
      "attrs": {
        "mode": "constant", 
        "pad_width": "(0, 0, 0, 0, 1, 1, 1, 1)"
      }, 
      "inputs": [[390, 0, 0]]
    }, 
    {
      "op": "null", 
      "name": "learned_122", 
      "attrs": {"__shape__": "(16, 112, 3, 3)"}, 
      "inputs": []
    }, 
    {
      "op": "null", 
      "name": "learned_123", 
      "attrs": {"__shape__": "(16,)"}, 
      "inputs": []
    }, 
    {
      "op": "Convolution", 
      "name": "convolution56", 
      "attrs": {
        "dilate": "(1, 1)", 
        "kernel": "(3, 3)", 
        "no_bias": "False", 
        "num_filter": "16", 
        "num_group": "1", 
        "stride": "(1, 1)"
      }, 
      "inputs": [[391, 0, 0], [392, 0, 0], [393, 0, 0]]
    }, 
    {
      "op": "LeakyReLU", 
      "name": "leakyrelu104", 
      "attrs": {"act_type": "prelu"}, 
      "inputs": [[394, 0, 0], [347, 0, 0]]
    }, 
    {
      "op": "Concat", 
      "name": "concat54", 
      "attrs": {
        "dim": "1", 
        "num_args": "8"
      }, 
      "inputs": [[348, 0, 0], [353, 0, 0], [360, 0, 0], [367, 0, 0], [374, 0, 0], [381, 0, 0], [388, 0, 0], [395, 0, 0]]
    }, 
    {
      "op": "LeakyReLU", 
      "name": "leakyrelu105", 
      "attrs": {"act_type": "prelu"}, 
      "inputs": [[396, 0, 0], [347, 0, 0]]
    }, 
    {
      "op": "Concat", 
      "name": "concat55", 
      "attrs": {
        "dim": "1", 
        "num_args": "2"
      }, 
      "inputs": [[342, 0, 0], [397, 0, 0]]
    }, 
    {
      "op": "Pad", 
      "name": "pad57", 
      "attrs": {
        "mode": "constant", 
        "pad_width": "(0, 0, 0, 0, 1, 1, 1, 1)"
      }, 
      "inputs": [[398, 0, 0]]
    }, 
    {
      "op": "null", 
      "name": "learned_125", 
      "attrs": {"__shape__": "(16, 1024, 3, 3)"}, 
      "inputs": []
    }, 
    {
      "op": "null", 
      "name": "learned_126", 
      "attrs": {"__shape__": "(16,)"}, 
      "inputs": []
    }, 
    {
      "op": "Convolution", 
      "name": "convolution57", 
      "attrs": {
        "dilate": "(1, 1)", 
        "kernel": "(3, 3)", 
        "no_bias": "False", 
        "num_filter": "16", 
        "num_group": "1", 
        "stride": "(1, 1)"
      }, 
      "inputs": [[399, 0, 0], [400, 0, 0], [401, 0, 0]]
    }, 
    {
      "op": "null", 
      "name": "learned_124", 
      "attrs": {
        "__init__": "[\"Constant\", {\"value\": 0.25}]", 
        "__shape__": "(1,)"
      }, 
      "inputs": []
    }, 
    {
      "op": "LeakyReLU", 
      "name": "leakyrelu106", 
      "attrs": {"act_type": "prelu"}, 
      "inputs": [[402, 0, 0], [403, 0, 0]]
    }, 
    {
      "op": "Pad", 
      "name": "pad58", 
      "attrs": {
        "mode": "constant", 
        "pad_width": "(0, 0, 0, 0, 1, 1, 1, 1)"
      }, 
      "inputs": [[404, 0, 0]]
    }, 
    {
      "op": "null", 
      "name": "learned_127", 
      "attrs": {"__shape__": "(16, 16, 3, 3)"}, 
      "inputs": []
    }, 
    {
      "op": "null", 
      "name": "learned_128", 
      "attrs": {"__shape__": "(16,)"}, 
      "inputs": []
    }, 
    {
      "op": "Convolution", 
      "name": "convolution58", 
      "attrs": {
        "dilate": "(1, 1)", 
        "kernel": "(3, 3)", 
        "no_bias": "False", 
        "num_filter": "16", 
        "num_group": "1", 
        "stride": "(1, 1)"
      }, 
      "inputs": [[405, 0, 0], [406, 0, 0], [407, 0, 0]]
    }, 
    {
      "op": "LeakyReLU", 
      "name": "leakyrelu107", 
      "attrs": {"act_type": "prelu"}, 
      "inputs": [[408, 0, 0], [403, 0, 0]]
    }, 
    {
      "op": "Concat", 
      "name": "concat56", 
      "attrs": {
        "dim": "1", 
        "num_args": "2"
      }, 
      "inputs": [[404, 0, 0], [409, 0, 0]]
    }, 
    {
      "op": "LeakyReLU", 
      "name": "leakyrelu108", 
      "attrs": {"act_type": "prelu"}, 
      "inputs": [[410, 0, 0], [403, 0, 0]]
    }, 
    {
      "op": "Pad", 
      "name": "pad59", 
      "attrs": {
        "mode": "constant", 
        "pad_width": "(0, 0, 0, 0, 1, 1, 1, 1)"
      }, 
      "inputs": [[411, 0, 0]]
    }, 
    {
      "op": "null", 
      "name": "learned_129", 
      "attrs": {"__shape__": "(16, 32, 3, 3)"}, 
      "inputs": []
    }, 
    {
      "op": "null", 
      "name": "learned_130", 
      "attrs": {"__shape__": "(16,)"}, 
      "inputs": []
    }, 
    {
      "op": "Convolution", 
      "name": "convolution59", 
      "attrs": {
        "dilate": "(1, 1)", 
        "kernel": "(3, 3)", 
        "no_bias": "False", 
        "num_filter": "16", 
        "num_group": "1", 
        "stride": "(1, 1)"
      }, 
      "inputs": [[412, 0, 0], [413, 0, 0], [414, 0, 0]]
    }, 
    {
      "op": "LeakyReLU", 
      "name": "leakyrelu109", 
      "attrs": {"act_type": "prelu"}, 
      "inputs": [[415, 0, 0], [403, 0, 0]]
    }, 
    {
      "op": "Concat", 
      "name": "concat57", 
      "attrs": {
        "dim": "1", 
        "num_args": "3"
      }, 
      "inputs": [[404, 0, 0], [409, 0, 0], [416, 0, 0]]
    }, 
    {
      "op": "LeakyReLU", 
      "name": "leakyrelu110", 
      "attrs": {"act_type": "prelu"}, 
      "inputs": [[417, 0, 0], [403, 0, 0]]
    }, 
    {
      "op": "Pad", 
      "name": "pad60", 
      "attrs": {
        "mode": "constant", 
        "pad_width": "(0, 0, 0, 0, 1, 1, 1, 1)"
      }, 
      "inputs": [[418, 0, 0]]
    }, 
    {
      "op": "null", 
      "name": "learned_131", 
      "attrs": {"__shape__": "(16, 48, 3, 3)"}, 
      "inputs": []
    }, 
    {
      "op": "null", 
      "name": "learned_132", 
      "attrs": {"__shape__": "(16,)"}, 
      "inputs": []
    }, 
    {
      "op": "Convolution", 
      "name": "convolution60", 
      "attrs": {
        "dilate": "(1, 1)", 
        "kernel": "(3, 3)", 
        "no_bias": "False", 
        "num_filter": "16", 
        "num_group": "1", 
        "stride": "(1, 1)"
      }, 
      "inputs": [[419, 0, 0], [420, 0, 0], [421, 0, 0]]
    }, 
    {
      "op": "LeakyReLU", 
      "name": "leakyrelu111", 
      "attrs": {"act_type": "prelu"}, 
      "inputs": [[422, 0, 0], [403, 0, 0]]
    }, 
    {
      "op": "Concat", 
      "name": "concat58", 
      "attrs": {
        "dim": "1", 
        "num_args": "4"
      }, 
      "inputs": [[404, 0, 0], [409, 0, 0], [416, 0, 0], [423, 0, 0]]
    }, 
    {
      "op": "LeakyReLU", 
      "name": "leakyrelu112", 
      "attrs": {"act_type": "prelu"}, 
      "inputs": [[424, 0, 0], [403, 0, 0]]
    }, 
    {
      "op": "Pad", 
      "name": "pad61", 
      "attrs": {
        "mode": "constant", 
        "pad_width": "(0, 0, 0, 0, 1, 1, 1, 1)"
      }, 
      "inputs": [[425, 0, 0]]
    }, 
    {
      "op": "null", 
      "name": "learned_133", 
      "attrs": {"__shape__": "(16, 64, 3, 3)"}, 
      "inputs": []
    }, 
    {
      "op": "null", 
      "name": "learned_134", 
      "attrs": {"__shape__": "(16,)"}, 
      "inputs": []
    }, 
    {
      "op": "Convolution", 
      "name": "convolution61", 
      "attrs": {
        "dilate": "(1, 1)", 
        "kernel": "(3, 3)", 
        "no_bias": "False", 
        "num_filter": "16", 
        "num_group": "1", 
        "stride": "(1, 1)"
      }, 
      "inputs": [[426, 0, 0], [427, 0, 0], [428, 0, 0]]
    }, 
    {
      "op": "LeakyReLU", 
      "name": "leakyrelu113", 
      "attrs": {"act_type": "prelu"}, 
      "inputs": [[429, 0, 0], [403, 0, 0]]
    }, 
    {
      "op": "Concat", 
      "name": "concat59", 
      "attrs": {
        "dim": "1", 
        "num_args": "5"
      }, 
      "inputs": [[404, 0, 0], [409, 0, 0], [416, 0, 0], [423, 0, 0], [430, 0, 0]]
    }, 
    {
      "op": "LeakyReLU", 
      "name": "leakyrelu114", 
      "attrs": {"act_type": "prelu"}, 
      "inputs": [[431, 0, 0], [403, 0, 0]]
    }, 
    {
      "op": "Pad", 
      "name": "pad62", 
      "attrs": {
        "mode": "constant", 
        "pad_width": "(0, 0, 0, 0, 1, 1, 1, 1)"
      }, 
      "inputs": [[432, 0, 0]]
    }, 
    {
      "op": "null", 
      "name": "learned_135", 
      "attrs": {"__shape__": "(16, 80, 3, 3)"}, 
      "inputs": []
    }, 
    {
      "op": "null", 
      "name": "learned_136", 
      "attrs": {"__shape__": "(16,)"}, 
      "inputs": []
    }, 
    {
      "op": "Convolution", 
      "name": "convolution62", 
      "attrs": {
        "dilate": "(1, 1)", 
        "kernel": "(3, 3)", 
        "no_bias": "False", 
        "num_filter": "16", 
        "num_group": "1", 
        "stride": "(1, 1)"
      }, 
      "inputs": [[433, 0, 0], [434, 0, 0], [435, 0, 0]]
    }, 
    {
      "op": "LeakyReLU", 
      "name": "leakyrelu115", 
      "attrs": {"act_type": "prelu"}, 
      "inputs": [[436, 0, 0], [403, 0, 0]]
    }, 
    {
      "op": "Concat", 
      "name": "concat60", 
      "attrs": {
        "dim": "1", 
        "num_args": "6"
      }, 
      "inputs": [[404, 0, 0], [409, 0, 0], [416, 0, 0], [423, 0, 0], [430, 0, 0], [437, 0, 0]]
    }, 
    {
      "op": "LeakyReLU", 
      "name": "leakyrelu116", 
      "attrs": {"act_type": "prelu"}, 
      "inputs": [[438, 0, 0], [403, 0, 0]]
    }, 
    {
      "op": "Pad", 
      "name": "pad63", 
      "attrs": {
        "mode": "constant", 
        "pad_width": "(0, 0, 0, 0, 1, 1, 1, 1)"
      }, 
      "inputs": [[439, 0, 0]]
    }, 
    {
      "op": "null", 
      "name": "learned_137", 
      "attrs": {"__shape__": "(16, 96, 3, 3)"}, 
      "inputs": []
    }, 
    {
      "op": "null", 
      "name": "learned_138", 
      "attrs": {"__shape__": "(16,)"}, 
      "inputs": []
    }, 
    {
      "op": "Convolution", 
      "name": "convolution63", 
      "attrs": {
        "dilate": "(1, 1)", 
        "kernel": "(3, 3)", 
        "no_bias": "False", 
        "num_filter": "16", 
        "num_group": "1", 
        "stride": "(1, 1)"
      }, 
      "inputs": [[440, 0, 0], [441, 0, 0], [442, 0, 0]]
    }, 
    {
      "op": "LeakyReLU", 
      "name": "leakyrelu117", 
      "attrs": {"act_type": "prelu"}, 
      "inputs": [[443, 0, 0], [403, 0, 0]]
    }, 
    {
      "op": "Concat", 
      "name": "concat61", 
      "attrs": {
        "dim": "1", 
        "num_args": "7"
      }, 
      "inputs": [[404, 0, 0], [409, 0, 0], [416, 0, 0], [423, 0, 0], [430, 0, 0], [437, 0, 0], [444, 0, 0]]
    }, 
    {
      "op": "LeakyReLU", 
      "name": "leakyrelu118", 
      "attrs": {"act_type": "prelu"}, 
      "inputs": [[445, 0, 0], [403, 0, 0]]
    }, 
    {
      "op": "Pad", 
      "name": "pad64", 
      "attrs": {
        "mode": "constant", 
        "pad_width": "(0, 0, 0, 0, 1, 1, 1, 1)"
      }, 
      "inputs": [[446, 0, 0]]
    }, 
    {
      "op": "null", 
      "name": "learned_139", 
      "attrs": {"__shape__": "(16, 112, 3, 3)"}, 
      "inputs": []
    }, 
    {
      "op": "null", 
      "name": "learned_140", 
      "attrs": {"__shape__": "(16,)"}, 
      "inputs": []
    }, 
    {
      "op": "Convolution", 
      "name": "convolution64", 
      "attrs": {
        "dilate": "(1, 1)", 
        "kernel": "(3, 3)", 
        "no_bias": "False", 
        "num_filter": "16", 
        "num_group": "1", 
        "stride": "(1, 1)"
      }, 
      "inputs": [[447, 0, 0], [448, 0, 0], [449, 0, 0]]
    }, 
    {
      "op": "LeakyReLU", 
      "name": "leakyrelu119", 
      "attrs": {"act_type": "prelu"}, 
      "inputs": [[450, 0, 0], [403, 0, 0]]
    }, 
    {
      "op": "Concat", 
      "name": "concat62", 
      "attrs": {
        "dim": "1", 
        "num_args": "8"
      }, 
      "inputs": [[404, 0, 0], [409, 0, 0], [416, 0, 0], [423, 0, 0], [430, 0, 0], [437, 0, 0], [444, 0, 0], [451, 0, 0]]
    }, 
    {
      "op": "LeakyReLU", 
      "name": "leakyrelu120", 
      "attrs": {"act_type": "prelu"}, 
      "inputs": [[452, 0, 0], [403, 0, 0]]
    }, 
    {
      "op": "Concat", 
      "name": "concat63", 
      "attrs": {
        "dim": "1", 
        "num_args": "2"
      }, 
      "inputs": [[398, 0, 0], [453, 0, 0]]
    }, 
    {
      "op": "Pad", 
      "name": "pad65", 
      "attrs": {
        "mode": "constant", 
        "pad_width": "(0, 0, 0, 0, 0, 0, 0, 0)"
      }, 
      "inputs": [[454, 0, 0]]
    }, 
    {
      "op": "null", 
      "name": "learned_3", 
      "attrs": {"__shape__": "(256, 1152, 1, 1)"}, 
      "inputs": []
    }, 
    {
      "op": "Convolution", 
      "name": "convolution65", 
      "attrs": {
        "dilate": "(1, 1)", 
        "kernel": "(1, 1)", 
        "no_bias": "True", 
        "num_filter": "256", 
        "num_group": "1", 
        "stride": "(1, 1)"
      }, 
      "inputs": [[455, 0, 0], [456, 0, 0]]
    }, 
    {
      "op": "Pad", 
      "name": "pad66", 
      "attrs": {
        "mode": "constant", 
        "pad_width": "(0, 0, 0, 0, 0, 0, 0, 0)"
      }, 
      "inputs": [[457, 0, 0]]
    }, 
    {
      "op": "null", 
      "name": "learned_141", 
      "attrs": {"__shape__": "(256, 256, 2, 2)"}, 
      "inputs": []
    }, 
    {
      "op": "Deconvolution", 
      "name": "deconvolution0", 
      "attrs": {
        "dilate": "(1, 1)", 
        "kernel": "(2, 2)", 
        "no_bias": "True", 
        "num_filter": "256", 
        "num_group": "1", 
        "stride": "(2, 2)"
      }, 
      "inputs": [[458, 0, 0], [459, 0, 0]]
    }, 
    {
      "op": "null", 
      "name": "learned_142", 
      "attrs": {
        "__init__": "[\"Constant\", {\"value\": 0.25}]", 
        "__shape__": "(1,)"
      }, 
      "inputs": []
    }, 
    {
      "op": "LeakyReLU", 
      "name": "leakyrelu121", 
      "attrs": {"act_type": "prelu"}, 
      "inputs": [[460, 0, 0], [461, 0, 0]]
    }, 
    {
      "op": "Pad", 
      "name": "pad67", 
      "attrs": {
        "mode": "constant", 
        "pad_width": "(0, 0, 0, 0, 0, 0, 0, 0)"
      }, 
      "inputs": [[462, 0, 0]]
    }, 
    {
      "op": "null", 
      "name": "learned_143", 
      "attrs": {"__shape__": "(256, 256, 2, 2)"}, 
      "inputs": []
    }, 
    {
      "op": "Deconvolution", 
      "name": "deconvolution1", 
      "attrs": {
        "dilate": "(1, 1)", 
        "kernel": "(2, 2)", 
        "no_bias": "True", 
        "num_filter": "256", 
        "num_group": "1", 
        "stride": "(2, 2)"
      }, 
      "inputs": [[463, 0, 0], [464, 0, 0]]
    }, 
    {
      "op": "null", 
      "name": "learned_144", 
      "attrs": {
        "__init__": "[\"Constant\", {\"value\": 0.25}]", 
        "__shape__": "(1,)"
      }, 
      "inputs": []
    }, 
    {
      "op": "LeakyReLU", 
      "name": "leakyrelu122", 
      "attrs": {"act_type": "prelu"}, 
      "inputs": [[465, 0, 0], [466, 0, 0]]
    }, 
    {
      "op": "Pad", 
      "name": "pad68", 
      "attrs": {
        "mode": "constant", 
        "pad_width": "(0, 0, 0, 0, 1, 1, 1, 1)"
      }, 
      "inputs": [[467, 0, 0]]
    }, 
    {
      "op": "null", 
      "name": "learned_4", 
      "attrs": {"__shape__": "(1, 256, 3, 3)"}, 
      "inputs": []
    }, 
    {
      "op": "Convolution", 
      "name": "convolution66", 
      "attrs": {
        "dilate": "(1, 1)", 
        "kernel": "(3, 3)", 
        "no_bias": "True", 
        "num_filter": "1", 
        "num_group": "1", 
        "stride": "(1, 1)"
      }, 
      "inputs": [[468, 0, 0], [469, 0, 0]]
    }
  ], 
  "arg_nodes": [
    0, 
    2, 
    3, 
    5, 
    8, 
    9, 
    11, 
    14, 
    15, 
    21, 
    22, 
    28, 
    29, 
    35, 
    36, 
    42, 
    43, 
    49, 
    50, 
    56, 
    57, 
    64, 
    65, 
    67, 
    70, 
    71, 
    77, 
    78, 
    84, 
    85, 
    91, 
    92, 
    98, 
    99, 
    105, 
    106, 
    112, 
    113, 
    120, 
    121, 
    123, 
    126, 
    127, 
    133, 
    134, 
    140, 
    141, 
    147, 
    148, 
    154, 
    155, 
    161, 
    162, 
    168, 
    169, 
    176, 
    177, 
    179, 
    182, 
    183, 
    189, 
    190, 
    196, 
    197, 
    203, 
    204, 
    210, 
    211, 
    217, 
    218, 
    224, 
    225, 
    232, 
    233, 
    235, 
    238, 
    239, 
    245, 
    246, 
    252, 
    253, 
    259, 
    260, 
    266, 
    267, 
    273, 
    274, 
    280, 
    281, 
    288, 
    289, 
    291, 
    294, 
    295, 
    301, 
    302, 
    308, 
    309, 
    315, 
    316, 
    322, 
    323, 
    329, 
    330, 
    336, 
    337, 
    344, 
    345, 
    347, 
    350, 
    351, 
    357, 
    358, 
    364, 
    365, 
    371, 
    372, 
    378, 
    379, 
    385, 
    386, 
    392, 
    393, 
    400, 
    401, 
    403, 
    406, 
    407, 
    413, 
    414, 
    420, 
    421, 
    427, 
    428, 
    434, 
    435, 
    441, 
    442, 
    448, 
    449, 
    456, 
    459, 
    461, 
    464, 
    466, 
    469
  ], 
  "node_row_ptr": [
    0, 
    1, 
    2, 
    3, 
    4, 
    5, 
    6, 
    7, 
    8, 
    9, 
    10, 
    11, 
    12, 
    13, 
    14, 
    15, 
    16, 
    17, 
    18, 
    19, 
    20, 
    21, 
    22, 
    23, 
    24, 
    25, 
    26, 
    27, 
    28, 
    29, 
    30, 
    31, 
    32, 
    33, 
    34, 
    35, 
    36, 
    37, 
    38, 
    39, 
    40, 
    41, 
    42, 
    43, 
    44, 
    45, 
    46, 
    47, 
    48, 
    49, 
    50, 
    51, 
    52, 
    53, 
    54, 
    55, 
    56, 
    57, 
    58, 
    59, 
    60, 
    61, 
    62, 
    63, 
    64, 
    65, 
    66, 
    67, 
    68, 
    69, 
    70, 
    71, 
    72, 
    73, 
    74, 
    75, 
    76, 
    77, 
    78, 
    79, 
    80, 
    81, 
    82, 
    83, 
    84, 
    85, 
    86, 
    87, 
    88, 
    89, 
    90, 
    91, 
    92, 
    93, 
    94, 
    95, 
    96, 
    97, 
    98, 
    99, 
    100, 
    101, 
    102, 
    103, 
    104, 
    105, 
    106, 
    107, 
    108, 
    109, 
    110, 
    111, 
    112, 
    113, 
    114, 
    115, 
    116, 
    117, 
    118, 
    119, 
    120, 
    121, 
    122, 
    123, 
    124, 
    125, 
    126, 
    127, 
    128, 
    129, 
    130, 
    131, 
    132, 
    133, 
    134, 
    135, 
    136, 
    137, 
    138, 
    139, 
    140, 
    141, 
    142, 
    143, 
    144, 
    145, 
    146, 
    147, 
    148, 
    149, 
    150, 
    151, 
    152, 
    153, 
    154, 
    155, 
    156, 
    157, 
    158, 
    159, 
    160, 
    161, 
    162, 
    163, 
    164, 
    165, 
    166, 
    167, 
    168, 
    169, 
    170, 
    171, 
    172, 
    173, 
    174, 
    175, 
    176, 
    177, 
    178, 
    179, 
    180, 
    181, 
    182, 
    183, 
    184, 
    185, 
    186, 
    187, 
    188, 
    189, 
    190, 
    191, 
    192, 
    193, 
    194, 
    195, 
    196, 
    197, 
    198, 
    199, 
    200, 
    201, 
    202, 
    203, 
    204, 
    205, 
    206, 
    207, 
    208, 
    209, 
    210, 
    211, 
    212, 
    213, 
    214, 
    215, 
    216, 
    217, 
    218, 
    219, 
    220, 
    221, 
    222, 
    223, 
    224, 
    225, 
    226, 
    227, 
    228, 
    229, 
    230, 
    231, 
    232, 
    233, 
    234, 
    235, 
    236, 
    237, 
    238, 
    239, 
    240, 
    241, 
    242, 
    243, 
    244, 
    245, 
    246, 
    247, 
    248, 
    249, 
    250, 
    251, 
    252, 
    253, 
    254, 
    255, 
    256, 
    257, 
    258, 
    259, 
    260, 
    261, 
    262, 
    263, 
    264, 
    265, 
    266, 
    267, 
    268, 
    269, 
    270, 
    271, 
    272, 
    273, 
    274, 
    275, 
    276, 
    277, 
    278, 
    279, 
    280, 
    281, 
    282, 
    283, 
    284, 
    285, 
    286, 
    287, 
    288, 
    289, 
    290, 
    291, 
    292, 
    293, 
    294, 
    295, 
    296, 
    297, 
    298, 
    299, 
    300, 
    301, 
    302, 
    303, 
    304, 
    305, 
    306, 
    307, 
    308, 
    309, 
    310, 
    311, 
    312, 
    313, 
    314, 
    315, 
    316, 
    317, 
    318, 
    319, 
    320, 
    321, 
    322, 
    323, 
    324, 
    325, 
    326, 
    327, 
    328, 
    329, 
    330, 
    331, 
    332, 
    333, 
    334, 
    335, 
    336, 
    337, 
    338, 
    339, 
    340, 
    341, 
    342, 
    343, 
    344, 
    345, 
    346, 
    347, 
    348, 
    349, 
    350, 
    351, 
    352, 
    353, 
    354, 
    355, 
    356, 
    357, 
    358, 
    359, 
    360, 
    361, 
    362, 
    363, 
    364, 
    365, 
    366, 
    367, 
    368, 
    369, 
    370, 
    371, 
    372, 
    373, 
    374, 
    375, 
    376, 
    377, 
    378, 
    379, 
    380, 
    381, 
    382, 
    383, 
    384, 
    385, 
    386, 
    387, 
    388, 
    389, 
    390, 
    391, 
    392, 
    393, 
    394, 
    395, 
    396, 
    397, 
    398, 
    399, 
    400, 
    401, 
    402, 
    403, 
    404, 
    405, 
    406, 
    407, 
    408, 
    409, 
    410, 
    411, 
    412, 
    413, 
    414, 
    415, 
    416, 
    417, 
    418, 
    419, 
    420, 
    421, 
    422, 
    423, 
    424, 
    425, 
    426, 
    427, 
    428, 
    429, 
    430, 
    431, 
    432, 
    433, 
    434, 
    435, 
    436, 
    437, 
    438, 
    439, 
    440, 
    441, 
    442, 
    443, 
    444, 
    445, 
    446, 
    447, 
    448, 
    449, 
    450, 
    451, 
    452, 
    453, 
    454, 
    455, 
    456, 
    457, 
    458, 
    459, 
    460, 
    461, 
    462, 
    463, 
    464, 
    465, 
    466, 
    467, 
    468, 
    469, 
    470, 
    471
  ], 
  "heads": [[470, 0, 0]], 
  "attrs": {"mxnet_version": ["int", 10300]}
}