{
  "nodes": [
    {
      "op": "null", 
      "name": "data", 
      "inputs": []
    }, 
    {
      "op": "Pooling", 
      "name": "pooling0", 
      "attrs": {
        "global_pool": "True", 
        "kernel": "(1, 1)", 
        "pool_type": "avg"
      }, 
      "inputs": [[0, 0, 0]]
    }, 
    {
      "op": "broadcast_sub", 
      "name": "broadcast_sub0", 
      "inputs": [[0, 0, 0], [1, 0, 0]]
    }, 
    {
      "op": "_mul_scalar", 
      "name": "_mulscalar0", 
      "attrs": {"scalar": "2.0"}, 
      "inputs": [[2, 0, 0]]
    }, 
    {
      "op": "null", 
      "name": "learned_0", 
      "attrs": {"__shape__": "(64, 3, 3, 3)"}, 
      "inputs": []
    }, 
    {
      "op": "Convolution", 
      "name": "convolution0", 
      "attrs": {
        "dilate": "(1, 1)", 
        "kernel": "(3, 3)", 
        "layout": "NCHW", 
        "no_bias": "True", 
        "num_filter": "64", 
        "num_group": "1", 
        "pad": "(1, 1)", 
        "stride": "(1, 1)"
      }, 
      "inputs": [[3, 0, 0], [4, 0, 0]]
    }, 
    {
      "op": "null", 
      "name": "learned_2", 
      "attrs": {
        "__init__": "[\"Constant\", {\"value\": 0.25}]", 
        "__shape__": "(1,)"
      }, 
      "inputs": []
    }, 
    {
      "op": "LeakyReLU", 
      "name": "leakyrelu0", 
      "attrs": {"act_type": "prelu"}, 
      "inputs": [[5, 0, 0], [6, 0, 0]]
    }, 
    {
      "op": "null", 
      "name": "learned_3", 
      "attrs": {"__shape__": "(256, 64, 3, 3)"}, 
      "inputs": []
    }, 
    {
      "op": "null", 
      "name": "learned_4", 
      "attrs": {"__shape__": "(256,)"}, 
      "inputs": []
    }, 
    {
      "op": "Convolution", 
      "name": "convolution14", 
      "attrs": {
        "dilate": "(1, 1)", 
        "kernel": "(3, 3)", 
        "layout": "NCHW", 
        "no_bias": "False", 
        "num_filter": "256", 
        "num_group": "1", 
        "pad": "(1, 1)", 
        "stride": "(1, 1)"
      }, 
      "inputs": [[7, 0, 0], [8, 0, 0], [9, 0, 0]]
    }, 
    {
      "op": "Reshape", 
      "name": "reshape0", 
      "attrs": {"shape": "(0, -4, -1, 4, 0, 0)"}, 
      "inputs": [[10, 0, 0]]
    }, 
    {
      "op": "Reshape", 
      "name": "reshape1", 
      "attrs": {"shape": "(0, 0, -4, 2, 2, 0, 0)"}, 
      "inputs": [[11, 0, 0]]
    }, 
    {
      "op": "transpose", 
      "name": "transpose0", 
      "attrs": {"axes": "(0, 1, 4, 2, 5, 3)"}, 
      "inputs": [[12, 0, 0]]
    }, 
    {
      "op": "Reshape", 
      "name": "reshape2", 
      "attrs": {"shape": "(0, 0, -3, -3)"}, 
      "inputs": [[13, 0, 0]]
    }, 
    {
      "op": "null", 
      "name": "learned_5", 
      "attrs": {
        "__init__": "[\"Constant\", {\"value\": 0.25}]", 
        "__shape__": "(1,)"
      }, 
      "inputs": []
    }, 
    {
      "op": "LeakyReLU", 
      "name": "leakyrelu7", 
      "attrs": {"act_type": "prelu"}, 
      "inputs": [[14, 0, 0], [15, 0, 0]]
    }, 
    {
      "op": "null", 
      "name": "learned_40", 
      "attrs": {"__shape__": "(3, 64, 3, 3)"}, 
      "inputs": []
    }, 
    {
      "op": "Convolution", 
      "name": "convolution15", 
      "attrs": {
        "dilate": "(1, 1)", 
        "kernel": "(3, 3)", 
        "layout": "NCHW", 
        "no_bias": "True", 
        "num_filter": "3", 
        "num_group": "1", 
        "pad": "(1, 1)", 
        "stride": "(1, 1)"
      }, 
      "inputs": [[16, 0, 0], [17, 0, 0]]
    }, 
    {
      "op": "null", 
      "name": "learned_1", 
      "attrs": {"__shape__": "(64, 64, 3, 3)"}, 
      "inputs": []
    }, 
    {
      "op": "Convolution", 
      "name": "convolution1", 
      "attrs": {
        "dilate": "(1, 1)", 
        "kernel": "(3, 3)", 
        "layout": "NCHW", 
        "no_bias": "True", 
        "num_filter": "64", 
        "num_group": "1", 
        "pad": "(1, 1)", 
        "stride": "(1, 1)"
      }, 
      "inputs": [[7, 0, 0], [19, 0, 0]]
    }, 
    {
      "op": "null", 
      "name": "learned_16", 
      "attrs": {"__shape__": "(64, 64, 3, 3)"}, 
      "inputs": []
    }, 
    {
      "op": "Convolution", 
      "name": "convolution2", 
      "attrs": {
        "dilate": "(1, 1)", 
        "kernel": "(3, 3)", 
        "layout": "NCHW", 
        "no_bias": "True", 
        "num_filter": "64", 
        "num_group": "1", 
        "pad": "(1, 1)", 
        "stride": "(1, 1)"
      }, 
      "inputs": [[20, 0, 0], [21, 0, 0]]
    }, 
    {
      "op": "null", 
      "name": "learned_18", 
      "attrs": {
        "__init__": "[\"Constant\", {\"value\": 0.25}]", 
        "__shape__": "(1,)"
      }, 
      "inputs": []
    }, 
    {
      "op": "LeakyReLU", 
      "name": "leakyrelu1", 
      "attrs": {"act_type": "prelu"}, 
      "inputs": [[22, 0, 0], [23, 0, 0]]
    }, 
    {
      "op": "null", 
      "name": "learned_17", 
      "attrs": {"__shape__": "(64, 64, 3, 3)"}, 
      "inputs": []
    }, 
    {
      "op": "Convolution", 
      "name": "convolution3", 
      "attrs": {
        "dilate": "(1, 1)", 
        "kernel": "(3, 3)", 
        "layout": "NCHW", 
        "no_bias": "True", 
        "num_filter": "64", 
        "num_group": "1", 
        "pad": "(1, 1)", 
        "stride": "(1, 1)"
      }, 
      "inputs": [[24, 0, 0], [25, 0, 0]]
    }, 
    {
      "op": "null", 
      "name": "learned_19", 
      "attrs": {"__shape__": "(1,)"}, 
      "inputs": []
    }, 
    {
      "op": "broadcast_mul", 
      "name": "broadcast_mul1", 
      "inputs": [[26, 0, 0], [27, 0, 0]]
    }, 
    {
      "op": "broadcast_add", 
      "name": "broadcast_add0", 
      "inputs": [[28, 0, 0], [20, 0, 0]]
    }, 
    {
      "op": "null", 
      "name": "learned_20", 
      "attrs": {"__shape__": "(64, 64, 3, 3)"}, 
      "inputs": []
    }, 
    {
      "op": "Convolution", 
      "name": "convolution4", 
      "attrs": {
        "dilate": "(1, 1)", 
        "kernel": "(3, 3)", 
        "layout": "NCHW", 
        "no_bias": "True", 
        "num_filter": "64", 
        "num_group": "1", 
        "pad": "(1, 1)", 
        "stride": "(1, 1)"
      }, 
      "inputs": [[29, 0, 0], [30, 0, 0]]
    }, 
    {
      "op": "null", 
      "name": "learned_22", 
      "attrs": {
        "__init__": "[\"Constant\", {\"value\": 0.25}]", 
        "__shape__": "(1,)"
      }, 
      "inputs": []
    }, 
    {
      "op": "LeakyReLU", 
      "name": "leakyrelu2", 
      "attrs": {"act_type": "prelu"}, 
      "inputs": [[31, 0, 0], [32, 0, 0]]
    }, 
    {
      "op": "null", 
      "name": "learned_21", 
      "attrs": {"__shape__": "(64, 64, 3, 3)"}, 
      "inputs": []
    }, 
    {
      "op": "Convolution", 
      "name": "convolution5", 
      "attrs": {
        "dilate": "(1, 1)", 
        "kernel": "(3, 3)", 
        "layout": "NCHW", 
        "no_bias": "True", 
        "num_filter": "64", 
        "num_group": "1", 
        "pad": "(1, 1)", 
        "stride": "(1, 1)"
      }, 
      "inputs": [[33, 0, 0], [34, 0, 0]]
    }, 
    {
      "op": "null", 
      "name": "learned_23", 
      "attrs": {"__shape__": "(1,)"}, 
      "inputs": []
    }, 
    {
      "op": "broadcast_mul", 
      "name": "broadcast_mul2", 
      "inputs": [[35, 0, 0], [36, 0, 0]]
    }, 
    {
      "op": "broadcast_add", 
      "name": "broadcast_add1", 
      "inputs": [[37, 0, 0], [29, 0, 0]]
    }, 
    {
      "op": "null", 
      "name": "learned_24", 
      "attrs": {"__shape__": "(64, 64, 3, 3)"}, 
      "inputs": []
    }, 
    {
      "op": "Convolution", 
      "name": "convolution6", 
      "attrs": {
        "dilate": "(1, 1)", 
        "kernel": "(3, 3)", 
        "layout": "NCHW", 
        "no_bias": "True", 
        "num_filter": "64", 
        "num_group": "1", 
        "pad": "(1, 1)", 
        "stride": "(1, 1)"
      }, 
      "inputs": [[38, 0, 0], [39, 0, 0]]
    }, 
    {
      "op": "null", 
      "name": "learned_26", 
      "attrs": {
        "__init__": "[\"Constant\", {\"value\": 0.25}]", 
        "__shape__": "(1,)"
      }, 
      "inputs": []
    }, 
    {
      "op": "LeakyReLU", 
      "name": "leakyrelu3", 
      "attrs": {"act_type": "prelu"}, 
      "inputs": [[40, 0, 0], [41, 0, 0]]
    }, 
    {
      "op": "null", 
      "name": "learned_25", 
      "attrs": {"__shape__": "(64, 64, 3, 3)"}, 
      "inputs": []
    }, 
    {
      "op": "Convolution", 
      "name": "convolution7", 
      "attrs": {
        "dilate": "(1, 1)", 
        "kernel": "(3, 3)", 
        "layout": "NCHW", 
        "no_bias": "True", 
        "num_filter": "64", 
        "num_group": "1", 
        "pad": "(1, 1)", 
        "stride": "(1, 1)"
      }, 
      "inputs": [[42, 0, 0], [43, 0, 0]]
    }, 
    {
      "op": "null", 
      "name": "learned_27", 
      "attrs": {"__shape__": "(1,)"}, 
      "inputs": []
    }, 
    {
      "op": "broadcast_mul", 
      "name": "broadcast_mul3", 
      "inputs": [[44, 0, 0], [45, 0, 0]]
    }, 
    {
      "op": "broadcast_add", 
      "name": "broadcast_add2", 
      "inputs": [[46, 0, 0], [38, 0, 0]]
    }, 
    {
      "op": "null", 
      "name": "learned_28", 
      "attrs": {"__shape__": "(64, 64, 3, 3)"}, 
      "inputs": []
    }, 
    {
      "op": "Convolution", 
      "name": "convolution8", 
      "attrs": {
        "dilate": "(1, 1)", 
        "kernel": "(3, 3)", 
        "layout": "NCHW", 
        "no_bias": "True", 
        "num_filter": "64", 
        "num_group": "1", 
        "pad": "(1, 1)", 
        "stride": "(1, 1)"
      }, 
      "inputs": [[47, 0, 0], [48, 0, 0]]
    }, 
    {
      "op": "null", 
      "name": "learned_30", 
      "attrs": {
        "__init__": "[\"Constant\", {\"value\": 0.25}]", 
        "__shape__": "(1,)"
      }, 
      "inputs": []
    }, 
    {
      "op": "LeakyReLU", 
      "name": "leakyrelu4", 
      "attrs": {"act_type": "prelu"}, 
      "inputs": [[49, 0, 0], [50, 0, 0]]
    }, 
    {
      "op": "null", 
      "name": "learned_29", 
      "attrs": {"__shape__": "(64, 64, 3, 3)"}, 
      "inputs": []
    }, 
    {
      "op": "Convolution", 
      "name": "convolution9", 
      "attrs": {
        "dilate": "(1, 1)", 
        "kernel": "(3, 3)", 
        "layout": "NCHW", 
        "no_bias": "True", 
        "num_filter": "64", 
        "num_group": "1", 
        "pad": "(1, 1)", 
        "stride": "(1, 1)"
      }, 
      "inputs": [[51, 0, 0], [52, 0, 0]]
    }, 
    {
      "op": "null", 
      "name": "learned_31", 
      "attrs": {"__shape__": "(1,)"}, 
      "inputs": []
    }, 
    {
      "op": "broadcast_mul", 
      "name": "broadcast_mul4", 
      "inputs": [[53, 0, 0], [54, 0, 0]]
    }, 
    {
      "op": "broadcast_add", 
      "name": "broadcast_add3", 
      "inputs": [[55, 0, 0], [47, 0, 0]]
    }, 
    {
      "op": "null", 
      "name": "learned_32", 
      "attrs": {"__shape__": "(64, 64, 3, 3)"}, 
      "inputs": []
    }, 
    {
      "op": "Convolution", 
      "name": "convolution10", 
      "attrs": {
        "dilate": "(1, 1)", 
        "kernel": "(3, 3)", 
        "layout": "NCHW", 
        "no_bias": "True", 
        "num_filter": "64", 
        "num_group": "1", 
        "pad": "(1, 1)", 
        "stride": "(1, 1)"
      }, 
      "inputs": [[56, 0, 0], [57, 0, 0]]
    }, 
    {
      "op": "null", 
      "name": "learned_34", 
      "attrs": {
        "__init__": "[\"Constant\", {\"value\": 0.25}]", 
        "__shape__": "(1,)"
      }, 
      "inputs": []
    }, 
    {
      "op": "LeakyReLU", 
      "name": "leakyrelu5", 
      "attrs": {"act_type": "prelu"}, 
      "inputs": [[58, 0, 0], [59, 0, 0]]
    }, 
    {
      "op": "null", 
      "name": "learned_33", 
      "attrs": {"__shape__": "(64, 64, 3, 3)"}, 
      "inputs": []
    }, 
    {
      "op": "Convolution", 
      "name": "convolution11", 
      "attrs": {
        "dilate": "(1, 1)", 
        "kernel": "(3, 3)", 
        "layout": "NCHW", 
        "no_bias": "True", 
        "num_filter": "64", 
        "num_group": "1", 
        "pad": "(1, 1)", 
        "stride": "(1, 1)"
      }, 
      "inputs": [[60, 0, 0], [61, 0, 0]]
    }, 
    {
      "op": "null", 
      "name": "learned_35", 
      "attrs": {"__shape__": "(1,)"}, 
      "inputs": []
    }, 
    {
      "op": "broadcast_mul", 
      "name": "broadcast_mul5", 
      "inputs": [[62, 0, 0], [63, 0, 0]]
    }, 
    {
      "op": "broadcast_add", 
      "name": "broadcast_add4", 
      "inputs": [[64, 0, 0], [56, 0, 0]]
    }, 
    {
      "op": "null", 
      "name": "learned_36", 
      "attrs": {"__shape__": "(64, 64, 3, 3)"}, 
      "inputs": []
    }, 
    {
      "op": "Convolution", 
      "name": "convolution12", 
      "attrs": {
        "dilate": "(1, 1)", 
        "kernel": "(3, 3)", 
        "layout": "NCHW", 
        "no_bias": "True", 
        "num_filter": "64", 
        "num_group": "1", 
        "pad": "(1, 1)", 
        "stride": "(1, 1)"
      }, 
      "inputs": [[65, 0, 0], [66, 0, 0]]
    }, 
    {
      "op": "null", 
      "name": "learned_38", 
      "attrs": {
        "__init__": "[\"Constant\", {\"value\": 0.25}]", 
        "__shape__": "(1,)"
      }, 
      "inputs": []
    }, 
    {
      "op": "LeakyReLU", 
      "name": "leakyrelu6", 
      "attrs": {"act_type": "prelu"}, 
      "inputs": [[67, 0, 0], [68, 0, 0]]
    }, 
    {
      "op": "null", 
      "name": "learned_37", 
      "attrs": {"__shape__": "(64, 64, 3, 3)"}, 
      "inputs": []
    }, 
    {
      "op": "Convolution", 
      "name": "convolution13", 
      "attrs": {
        "dilate": "(1, 1)", 
        "kernel": "(3, 3)", 
        "layout": "NCHW", 
        "no_bias": "True", 
        "num_filter": "64", 
        "num_group": "1", 
        "pad": "(1, 1)", 
        "stride": "(1, 1)"
      }, 
      "inputs": [[69, 0, 0], [70, 0, 0]]
    }, 
    {
      "op": "null", 
      "name": "learned_39", 
      "attrs": {"__shape__": "(1,)"}, 
      "inputs": []
    }, 
    {
      "op": "broadcast_mul", 
      "name": "broadcast_mul6", 
      "inputs": [[71, 0, 0], [72, 0, 0]]
    }, 
    {
      "op": "broadcast_add", 
      "name": "broadcast_add5", 
      "inputs": [[73, 0, 0], [65, 0, 0]]
    }, 
    {
      "op": "null", 
      "name": "learned_9", 
      "attrs": {"__shape__": "(256, 64, 3, 3)"}, 
      "inputs": []
    }, 
    {
      "op": "null", 
      "name": "learned_10", 
      "attrs": {"__shape__": "(256,)"}, 
      "inputs": []
    }, 
    {
      "op": "Convolution", 
      "name": "convolution16", 
      "attrs": {
        "dilate": "(1, 1)", 
        "kernel": "(3, 3)", 
        "layout": "NCHW", 
        "no_bias": "False", 
        "num_filter": "256", 
        "num_group": "1", 
        "pad": "(1, 1)", 
        "stride": "(1, 1)"
      }, 
      "inputs": [[74, 0, 0], [75, 0, 0], [76, 0, 0]]
    }, 
    {
      "op": "Reshape", 
      "name": "reshape3", 
      "attrs": {"shape": "(0, -4, -1, 4, 0, 0)"}, 
      "inputs": [[77, 0, 0]]
    }, 
    {
      "op": "Reshape", 
      "name": "reshape4", 
      "attrs": {"shape": "(0, 0, -4, 2, 2, 0, 0)"}, 
      "inputs": [[78, 0, 0]]
    }, 
    {
      "op": "transpose", 
      "name": "transpose1", 
      "attrs": {"axes": "(0, 1, 4, 2, 5, 3)"}, 
      "inputs": [[79, 0, 0]]
    }, 
    {
      "op": "Reshape", 
      "name": "reshape5", 
      "attrs": {"shape": "(0, 0, -3, -3)"}, 
      "inputs": [[80, 0, 0]]
    }, 
    {
      "op": "null", 
      "name": "learned_11", 
      "attrs": {
        "__init__": "[\"Constant\", {\"value\": 0.25}]", 
        "__shape__": "(1,)"
      }, 
      "inputs": []
    }, 
    {
      "op": "LeakyReLU", 
      "name": "leakyrelu8", 
      "attrs": {"act_type": "prelu"}, 
      "inputs": [[81, 0, 0], [82, 0, 0]]
    }, 
    {
      "op": "null", 
      "name": "learned_15", 
      "attrs": {"__shape__": "(1, 64, 3, 3)"}, 
      "inputs": []
    }, 
    {
      "op": "Convolution", 
      "name": "convolution17", 
      "attrs": {
        "dilate": "(1, 1)", 
        "kernel": "(3, 3)", 
        "layout": "NCHW", 
        "no_bias": "True", 
        "num_filter": "1", 
        "num_group": "1", 
        "pad": "(1, 1)", 
        "stride": "(1, 1)"
      }, 
      "inputs": [[83, 0, 0], [84, 0, 0]]
    }, 
    {
      "op": "broadcast_add", 
      "name": "broadcast_add6", 
      "inputs": [[18, 0, 0], [85, 0, 0]]
    }, 
    {
      "op": "_mul_scalar", 
      "name": "_mulscalar1", 
      "attrs": {"scalar": "0.5"}, 
      "inputs": [[86, 0, 0]]
    }, 
    {
      "op": "broadcast_add", 
      "name": "broadcast_add7", 
      "inputs": [[1, 0, 0], [87, 0, 0]]
    }
  ], 
  "arg_nodes": [
    0, 
    4, 
    6, 
    8, 
    9, 
    15, 
    17, 
    19, 
    21, 
    23, 
    25, 
    27, 
    30, 
    32, 
    34, 
    36, 
    39, 
    41, 
    43, 
    45, 
    48, 
    50, 
    52, 
    54, 
    57, 
    59, 
    61, 
    63, 
    66, 
    68, 
    70, 
    72, 
    75, 
    76, 
    82, 
    84
  ], 
  "node_row_ptr": [
    0, 
    1, 
    2, 
    3, 
    4, 
    5, 
    6, 
    7, 
    8, 
    9, 
    10, 
    11, 
    12, 
    13, 
    14, 
    15, 
    16, 
    17, 
    18, 
    19, 
    20, 
    21, 
    22, 
    23, 
    24, 
    25, 
    26, 
    27, 
    28, 
    29, 
    30, 
    31, 
    32, 
    33, 
    34, 
    35, 
    36, 
    37, 
    38, 
    39, 
    40, 
    41, 
    42, 
    43, 
    44, 
    45, 
    46, 
    47, 
    48, 
    49, 
    50, 
    51, 
    52, 
    53, 
    54, 
    55, 
    56, 
    57, 
    58, 
    59, 
    60, 
    61, 
    62, 
    63, 
    64, 
    65, 
    66, 
    67, 
    68, 
    69, 
    70, 
    71, 
    72, 
    73, 
    74, 
    75, 
    76, 
    77, 
    78, 
    79, 
    80, 
    81, 
    82, 
    83, 
    84, 
    85, 
    86, 
    87, 
    88, 
    89
  ], 
  "heads": [[88, 0, 0]], 
  "attrs": {"mxnet_version": ["int", 10300]}
}