{
  "nodes": [
    {
      "op": "null", 
      "name": "data", 
      "inputs": []
    }, 
    {
      "op": "null", 
      "name": "sub_mean.weight", 
      "attrs": {"__shape__": "(3, 3, 1, 1)"}, 
      "inputs": []
    }, 
    {
      "op": "null", 
      "name": "sub_mean.bias", 
      "attrs": {"__shape__": "(3,)"}, 
      "inputs": []
    }, 
    {
      "op": "Convolution", 
      "name": "convolution0", 
      "attrs": {
        "dilate": "(1, 1)", 
        "kernel": "(1, 1)", 
        "layout": "NCHW", 
        "no_bias": "False", 
        "num_filter": "3", 
        "num_group": "1", 
        "pad": "(0, 0)", 
        "stride": "(1, 1)"
      }, 
      "inputs": [[0, 0, 0], [1, 0, 0], [2, 0, 0]]
    }, 
    {
      "op": "null", 
      "name": "head.0.weight", 
      "attrs": {"__shape__": "(64, 3, 3, 3)"}, 
      "inputs": []
    }, 
    {
      "op": "null", 
      "name": "head.0.bias", 
      "attrs": {"__shape__": "(64,)"}, 
      "inputs": []
    }, 
    {
      "op": "Convolution", 
      "name": "convolution1", 
      "attrs": {
        "dilate": "(1, 1)", 
        "kernel": "(3, 3)", 
        "layout": "NCHW", 
        "no_bias": "False", 
        "num_filter": "64", 
        "num_group": "1", 
        "pad": "(1, 1)", 
        "stride": "(1, 1)"
      }, 
      "inputs": [[3, 0, 0], [4, 0, 0], [5, 0, 0]]
    }, 
    {
      "op": "null", 
      "name": "pre_process.0.0.body.0.weight", 
      "attrs": {"__shape__": "(64, 64, 5, 5)"}, 
      "inputs": []
    }, 
    {
      "op": "null", 
      "name": "pre_process.0.0.body.0.bias", 
      "attrs": {"__shape__": "(64,)"}, 
      "inputs": []
    }, 
    {
      "op": "Convolution", 
      "name": "convolution2", 
      "attrs": {
        "dilate": "(1, 1)", 
        "kernel": "(5, 5)", 
        "layout": "NCHW", 
        "no_bias": "False", 
        "num_filter": "64", 
        "num_group": "1", 
        "pad": "(2, 2)", 
        "stride": "(1, 1)"
      }, 
      "inputs": [[6, 0, 0], [7, 0, 0], [8, 0, 0]]
    }, 
    {
      "op": "relu", 
      "name": "relu0", 
      "inputs": [[9, 0, 0]]
    }, 
    {
      "op": "null", 
      "name": "pre_process.0.0.body.2.weight", 
      "attrs": {"__shape__": "(64, 64, 5, 5)"}, 
      "inputs": []
    }, 
    {
      "op": "null", 
      "name": "pre_process.0.0.body.2.bias", 
      "attrs": {"__shape__": "(64,)"}, 
      "inputs": []
    }, 
    {
      "op": "Convolution", 
      "name": "convolution3", 
      "attrs": {
        "dilate": "(1, 1)", 
        "kernel": "(5, 5)", 
        "layout": "NCHW", 
        "no_bias": "False", 
        "num_filter": "64", 
        "num_group": "1", 
        "pad": "(2, 2)", 
        "stride": "(1, 1)"
      }, 
      "inputs": [[10, 0, 0], [11, 0, 0], [12, 0, 0]]
    }, 
    {
      "op": "broadcast_add", 
      "name": "broadcast_add0", 
      "inputs": [[13, 0, 0], [6, 0, 0]]
    }, 
    {
      "op": "null", 
      "name": "pre_process.0.1.body.0.weight", 
      "attrs": {"__shape__": "(64, 64, 5, 5)"}, 
      "inputs": []
    }, 
    {
      "op": "null", 
      "name": "pre_process.0.1.body.0.bias", 
      "attrs": {"__shape__": "(64,)"}, 
      "inputs": []
    }, 
    {
      "op": "Convolution", 
      "name": "convolution4", 
      "attrs": {
        "dilate": "(1, 1)", 
        "kernel": "(5, 5)", 
        "layout": "NCHW", 
        "no_bias": "False", 
        "num_filter": "64", 
        "num_group": "1", 
        "pad": "(2, 2)", 
        "stride": "(1, 1)"
      }, 
      "inputs": [[14, 0, 0], [15, 0, 0], [16, 0, 0]]
    }, 
    {
      "op": "relu", 
      "name": "relu1", 
      "inputs": [[17, 0, 0]]
    }, 
    {
      "op": "null", 
      "name": "pre_process.0.1.body.2.weight", 
      "attrs": {"__shape__": "(64, 64, 5, 5)"}, 
      "inputs": []
    }, 
    {
      "op": "null", 
      "name": "pre_process.0.1.body.2.bias", 
      "attrs": {"__shape__": "(64,)"}, 
      "inputs": []
    }, 
    {
      "op": "Convolution", 
      "name": "convolution5", 
      "attrs": {
        "dilate": "(1, 1)", 
        "kernel": "(5, 5)", 
        "layout": "NCHW", 
        "no_bias": "False", 
        "num_filter": "64", 
        "num_group": "1", 
        "pad": "(2, 2)", 
        "stride": "(1, 1)"
      }, 
      "inputs": [[18, 0, 0], [19, 0, 0], [20, 0, 0]]
    }, 
    {
      "op": "broadcast_add", 
      "name": "broadcast_add1", 
      "inputs": [[21, 0, 0], [14, 0, 0]]
    }, 
    {
      "op": "null", 
      "name": "body.0.body.0.weight", 
      "attrs": {"__shape__": "(64, 64, 3, 3)"}, 
      "inputs": []
    }, 
    {
      "op": "null", 
      "name": "body.0.body.0.bias", 
      "attrs": {"__shape__": "(64,)"}, 
      "inputs": []
    }, 
    {
      "op": "Convolution", 
      "name": "convolution6", 
      "attrs": {
        "dilate": "(1, 1)", 
        "kernel": "(3, 3)", 
        "layout": "NCHW", 
        "no_bias": "False", 
        "num_filter": "64", 
        "num_group": "1", 
        "pad": "(1, 1)", 
        "stride": "(1, 1)"
      }, 
      "inputs": [[22, 0, 0], [23, 0, 0], [24, 0, 0]]
    }, 
    {
      "op": "relu", 
      "name": "relu2", 
      "inputs": [[25, 0, 0]]
    }, 
    {
      "op": "null", 
      "name": "body.0.body.2.weight", 
      "attrs": {"__shape__": "(64, 64, 3, 3)"}, 
      "inputs": []
    }, 
    {
      "op": "null", 
      "name": "body.0.body.2.bias", 
      "attrs": {"__shape__": "(64,)"}, 
      "inputs": []
    }, 
    {
      "op": "Convolution", 
      "name": "convolution7", 
      "attrs": {
        "dilate": "(1, 1)", 
        "kernel": "(3, 3)", 
        "layout": "NCHW", 
        "no_bias": "False", 
        "num_filter": "64", 
        "num_group": "1", 
        "pad": "(1, 1)", 
        "stride": "(1, 1)"
      }, 
      "inputs": [[26, 0, 0], [27, 0, 0], [28, 0, 0]]
    }, 
    {
      "op": "broadcast_add", 
      "name": "broadcast_add2", 
      "inputs": [[29, 0, 0], [22, 0, 0]]
    }, 
    {
      "op": "null", 
      "name": "body.1.body.0.weight", 
      "attrs": {"__shape__": "(64, 64, 3, 3)"}, 
      "inputs": []
    }, 
    {
      "op": "null", 
      "name": "body.1.body.0.bias", 
      "attrs": {"__shape__": "(64,)"}, 
      "inputs": []
    }, 
    {
      "op": "Convolution", 
      "name": "convolution8", 
      "attrs": {
        "dilate": "(1, 1)", 
        "kernel": "(3, 3)", 
        "layout": "NCHW", 
        "no_bias": "False", 
        "num_filter": "64", 
        "num_group": "1", 
        "pad": "(1, 1)", 
        "stride": "(1, 1)"
      }, 
      "inputs": [[30, 0, 0], [31, 0, 0], [32, 0, 0]]
    }, 
    {
      "op": "relu", 
      "name": "relu3", 
      "inputs": [[33, 0, 0]]
    }, 
    {
      "op": "null", 
      "name": "body.1.body.2.weight", 
      "attrs": {"__shape__": "(64, 64, 3, 3)"}, 
      "inputs": []
    }, 
    {
      "op": "null", 
      "name": "body.1.body.2.bias", 
      "attrs": {"__shape__": "(64,)"}, 
      "inputs": []
    }, 
    {
      "op": "Convolution", 
      "name": "convolution9", 
      "attrs": {
        "dilate": "(1, 1)", 
        "kernel": "(3, 3)", 
        "layout": "NCHW", 
        "no_bias": "False", 
        "num_filter": "64", 
        "num_group": "1", 
        "pad": "(1, 1)", 
        "stride": "(1, 1)"
      }, 
      "inputs": [[34, 0, 0], [35, 0, 0], [36, 0, 0]]
    }, 
    {
      "op": "broadcast_add", 
      "name": "broadcast_add3", 
      "inputs": [[37, 0, 0], [30, 0, 0]]
    }, 
    {
      "op": "null", 
      "name": "body.2.body.0.weight", 
      "attrs": {"__shape__": "(64, 64, 3, 3)"}, 
      "inputs": []
    }, 
    {
      "op": "null", 
      "name": "body.2.body.0.bias", 
      "attrs": {"__shape__": "(64,)"}, 
      "inputs": []
    }, 
    {
      "op": "Convolution", 
      "name": "convolution10", 
      "attrs": {
        "dilate": "(1, 1)", 
        "kernel": "(3, 3)", 
        "layout": "NCHW", 
        "no_bias": "False", 
        "num_filter": "64", 
        "num_group": "1", 
        "pad": "(1, 1)", 
        "stride": "(1, 1)"
      }, 
      "inputs": [[38, 0, 0], [39, 0, 0], [40, 0, 0]]
    }, 
    {
      "op": "relu", 
      "name": "relu4", 
      "inputs": [[41, 0, 0]]
    }, 
    {
      "op": "null", 
      "name": "body.2.body.2.weight", 
      "attrs": {"__shape__": "(64, 64, 3, 3)"}, 
      "inputs": []
    }, 
    {
      "op": "null", 
      "name": "body.2.body.2.bias", 
      "attrs": {"__shape__": "(64,)"}, 
      "inputs": []
    }, 
    {
      "op": "Convolution", 
      "name": "convolution11", 
      "attrs": {
        "dilate": "(1, 1)", 
        "kernel": "(3, 3)", 
        "layout": "NCHW", 
        "no_bias": "False", 
        "num_filter": "64", 
        "num_group": "1", 
        "pad": "(1, 1)", 
        "stride": "(1, 1)"
      }, 
      "inputs": [[42, 0, 0], [43, 0, 0], [44, 0, 0]]
    }, 
    {
      "op": "broadcast_add", 
      "name": "broadcast_add4", 
      "inputs": [[45, 0, 0], [38, 0, 0]]
    }, 
    {
      "op": "null", 
      "name": "body.3.body.0.weight", 
      "attrs": {"__shape__": "(64, 64, 3, 3)"}, 
      "inputs": []
    }, 
    {
      "op": "null", 
      "name": "body.3.body.0.bias", 
      "attrs": {"__shape__": "(64,)"}, 
      "inputs": []
    }, 
    {
      "op": "Convolution", 
      "name": "convolution12", 
      "attrs": {
        "dilate": "(1, 1)", 
        "kernel": "(3, 3)", 
        "layout": "NCHW", 
        "no_bias": "False", 
        "num_filter": "64", 
        "num_group": "1", 
        "pad": "(1, 1)", 
        "stride": "(1, 1)"
      }, 
      "inputs": [[46, 0, 0], [47, 0, 0], [48, 0, 0]]
    }, 
    {
      "op": "relu", 
      "name": "relu5", 
      "inputs": [[49, 0, 0]]
    }, 
    {
      "op": "null", 
      "name": "body.3.body.2.weight", 
      "attrs": {"__shape__": "(64, 64, 3, 3)"}, 
      "inputs": []
    }, 
    {
      "op": "null", 
      "name": "body.3.body.2.bias", 
      "attrs": {"__shape__": "(64,)"}, 
      "inputs": []
    }, 
    {
      "op": "Convolution", 
      "name": "convolution13", 
      "attrs": {
        "dilate": "(1, 1)", 
        "kernel": "(3, 3)", 
        "layout": "NCHW", 
        "no_bias": "False", 
        "num_filter": "64", 
        "num_group": "1", 
        "pad": "(1, 1)", 
        "stride": "(1, 1)"
      }, 
      "inputs": [[50, 0, 0], [51, 0, 0], [52, 0, 0]]
    }, 
    {
      "op": "broadcast_add", 
      "name": "broadcast_add5", 
      "inputs": [[53, 0, 0], [46, 0, 0]]
    }, 
    {
      "op": "null", 
      "name": "body.4.body.0.weight", 
      "attrs": {"__shape__": "(64, 64, 3, 3)"}, 
      "inputs": []
    }, 
    {
      "op": "null", 
      "name": "body.4.body.0.bias", 
      "attrs": {"__shape__": "(64,)"}, 
      "inputs": []
    }, 
    {
      "op": "Convolution", 
      "name": "convolution14", 
      "attrs": {
        "dilate": "(1, 1)", 
        "kernel": "(3, 3)", 
        "layout": "NCHW", 
        "no_bias": "False", 
        "num_filter": "64", 
        "num_group": "1", 
        "pad": "(1, 1)", 
        "stride": "(1, 1)"
      }, 
      "inputs": [[54, 0, 0], [55, 0, 0], [56, 0, 0]]
    }, 
    {
      "op": "relu", 
      "name": "relu6", 
      "inputs": [[57, 0, 0]]
    }, 
    {
      "op": "null", 
      "name": "body.4.body.2.weight", 
      "attrs": {"__shape__": "(64, 64, 3, 3)"}, 
      "inputs": []
    }, 
    {
      "op": "null", 
      "name": "body.4.body.2.bias", 
      "attrs": {"__shape__": "(64,)"}, 
      "inputs": []
    }, 
    {
      "op": "Convolution", 
      "name": "convolution15", 
      "attrs": {
        "dilate": "(1, 1)", 
        "kernel": "(3, 3)", 
        "layout": "NCHW", 
        "no_bias": "False", 
        "num_filter": "64", 
        "num_group": "1", 
        "pad": "(1, 1)", 
        "stride": "(1, 1)"
      }, 
      "inputs": [[58, 0, 0], [59, 0, 0], [60, 0, 0]]
    }, 
    {
      "op": "broadcast_add", 
      "name": "broadcast_add6", 
      "inputs": [[61, 0, 0], [54, 0, 0]]
    }, 
    {
      "op": "null", 
      "name": "body.5.body.0.weight", 
      "attrs": {"__shape__": "(64, 64, 3, 3)"}, 
      "inputs": []
    }, 
    {
      "op": "null", 
      "name": "body.5.body.0.bias", 
      "attrs": {"__shape__": "(64,)"}, 
      "inputs": []
    }, 
    {
      "op": "Convolution", 
      "name": "convolution16", 
      "attrs": {
        "dilate": "(1, 1)", 
        "kernel": "(3, 3)", 
        "layout": "NCHW", 
        "no_bias": "False", 
        "num_filter": "64", 
        "num_group": "1", 
        "pad": "(1, 1)", 
        "stride": "(1, 1)"
      }, 
      "inputs": [[62, 0, 0], [63, 0, 0], [64, 0, 0]]
    }, 
    {
      "op": "relu", 
      "name": "relu7", 
      "inputs": [[65, 0, 0]]
    }, 
    {
      "op": "null", 
      "name": "body.5.body.2.weight", 
      "attrs": {"__shape__": "(64, 64, 3, 3)"}, 
      "inputs": []
    }, 
    {
      "op": "null", 
      "name": "body.5.body.2.bias", 
      "attrs": {"__shape__": "(64,)"}, 
      "inputs": []
    }, 
    {
      "op": "Convolution", 
      "name": "convolution17", 
      "attrs": {
        "dilate": "(1, 1)", 
        "kernel": "(3, 3)", 
        "layout": "NCHW", 
        "no_bias": "False", 
        "num_filter": "64", 
        "num_group": "1", 
        "pad": "(1, 1)", 
        "stride": "(1, 1)"
      }, 
      "inputs": [[66, 0, 0], [67, 0, 0], [68, 0, 0]]
    }, 
    {
      "op": "broadcast_add", 
      "name": "broadcast_add7", 
      "inputs": [[69, 0, 0], [62, 0, 0]]
    }, 
    {
      "op": "null", 
      "name": "body.6.body.0.weight", 
      "attrs": {"__shape__": "(64, 64, 3, 3)"}, 
      "inputs": []
    }, 
    {
      "op": "null", 
      "name": "body.6.body.0.bias", 
      "attrs": {"__shape__": "(64,)"}, 
      "inputs": []
    }, 
    {
      "op": "Convolution", 
      "name": "convolution18", 
      "attrs": {
        "dilate": "(1, 1)", 
        "kernel": "(3, 3)", 
        "layout": "NCHW", 
        "no_bias": "False", 
        "num_filter": "64", 
        "num_group": "1", 
        "pad": "(1, 1)", 
        "stride": "(1, 1)"
      }, 
      "inputs": [[70, 0, 0], [71, 0, 0], [72, 0, 0]]
    }, 
    {
      "op": "relu", 
      "name": "relu8", 
      "inputs": [[73, 0, 0]]
    }, 
    {
      "op": "null", 
      "name": "body.6.body.2.weight", 
      "attrs": {"__shape__": "(64, 64, 3, 3)"}, 
      "inputs": []
    }, 
    {
      "op": "null", 
      "name": "body.6.body.2.bias", 
      "attrs": {"__shape__": "(64,)"}, 
      "inputs": []
    }, 
    {
      "op": "Convolution", 
      "name": "convolution19", 
      "attrs": {
        "dilate": "(1, 1)", 
        "kernel": "(3, 3)", 
        "layout": "NCHW", 
        "no_bias": "False", 
        "num_filter": "64", 
        "num_group": "1", 
        "pad": "(1, 1)", 
        "stride": "(1, 1)"
      }, 
      "inputs": [[74, 0, 0], [75, 0, 0], [76, 0, 0]]
    }, 
    {
      "op": "broadcast_add", 
      "name": "broadcast_add8", 
      "inputs": [[77, 0, 0], [70, 0, 0]]
    }, 
    {
      "op": "null", 
      "name": "body.7.body.0.weight", 
      "attrs": {"__shape__": "(64, 64, 3, 3)"}, 
      "inputs": []
    }, 
    {
      "op": "null", 
      "name": "body.7.body.0.bias", 
      "attrs": {"__shape__": "(64,)"}, 
      "inputs": []
    }, 
    {
      "op": "Convolution", 
      "name": "convolution20", 
      "attrs": {
        "dilate": "(1, 1)", 
        "kernel": "(3, 3)", 
        "layout": "NCHW", 
        "no_bias": "False", 
        "num_filter": "64", 
        "num_group": "1", 
        "pad": "(1, 1)", 
        "stride": "(1, 1)"
      }, 
      "inputs": [[78, 0, 0], [79, 0, 0], [80, 0, 0]]
    }, 
    {
      "op": "relu", 
      "name": "relu9", 
      "inputs": [[81, 0, 0]]
    }, 
    {
      "op": "null", 
      "name": "body.7.body.2.weight", 
      "attrs": {"__shape__": "(64, 64, 3, 3)"}, 
      "inputs": []
    }, 
    {
      "op": "null", 
      "name": "body.7.body.2.bias", 
      "attrs": {"__shape__": "(64,)"}, 
      "inputs": []
    }, 
    {
      "op": "Convolution", 
      "name": "convolution21", 
      "attrs": {
        "dilate": "(1, 1)", 
        "kernel": "(3, 3)", 
        "layout": "NCHW", 
        "no_bias": "False", 
        "num_filter": "64", 
        "num_group": "1", 
        "pad": "(1, 1)", 
        "stride": "(1, 1)"
      }, 
      "inputs": [[82, 0, 0], [83, 0, 0], [84, 0, 0]]
    }, 
    {
      "op": "broadcast_add", 
      "name": "broadcast_add9", 
      "inputs": [[85, 0, 0], [78, 0, 0]]
    }, 
    {
      "op": "null", 
      "name": "body.8.body.0.weight", 
      "attrs": {"__shape__": "(64, 64, 3, 3)"}, 
      "inputs": []
    }, 
    {
      "op": "null", 
      "name": "body.8.body.0.bias", 
      "attrs": {"__shape__": "(64,)"}, 
      "inputs": []
    }, 
    {
      "op": "Convolution", 
      "name": "convolution22", 
      "attrs": {
        "dilate": "(1, 1)", 
        "kernel": "(3, 3)", 
        "layout": "NCHW", 
        "no_bias": "False", 
        "num_filter": "64", 
        "num_group": "1", 
        "pad": "(1, 1)", 
        "stride": "(1, 1)"
      }, 
      "inputs": [[86, 0, 0], [87, 0, 0], [88, 0, 0]]
    }, 
    {
      "op": "relu", 
      "name": "relu10", 
      "inputs": [[89, 0, 0]]
    }, 
    {
      "op": "null", 
      "name": "body.8.body.2.weight", 
      "attrs": {"__shape__": "(64, 64, 3, 3)"}, 
      "inputs": []
    }, 
    {
      "op": "null", 
      "name": "body.8.body.2.bias", 
      "attrs": {"__shape__": "(64,)"}, 
      "inputs": []
    }, 
    {
      "op": "Convolution", 
      "name": "convolution23", 
      "attrs": {
        "dilate": "(1, 1)", 
        "kernel": "(3, 3)", 
        "layout": "NCHW", 
        "no_bias": "False", 
        "num_filter": "64", 
        "num_group": "1", 
        "pad": "(1, 1)", 
        "stride": "(1, 1)"
      }, 
      "inputs": [[90, 0, 0], [91, 0, 0], [92, 0, 0]]
    }, 
    {
      "op": "broadcast_add", 
      "name": "broadcast_add10", 
      "inputs": [[93, 0, 0], [86, 0, 0]]
    }, 
    {
      "op": "null", 
      "name": "body.9.body.0.weight", 
      "attrs": {"__shape__": "(64, 64, 3, 3)"}, 
      "inputs": []
    }, 
    {
      "op": "null", 
      "name": "body.9.body.0.bias", 
      "attrs": {"__shape__": "(64,)"}, 
      "inputs": []
    }, 
    {
      "op": "Convolution", 
      "name": "convolution24", 
      "attrs": {
        "dilate": "(1, 1)", 
        "kernel": "(3, 3)", 
        "layout": "NCHW", 
        "no_bias": "False", 
        "num_filter": "64", 
        "num_group": "1", 
        "pad": "(1, 1)", 
        "stride": "(1, 1)"
      }, 
      "inputs": [[94, 0, 0], [95, 0, 0], [96, 0, 0]]
    }, 
    {
      "op": "relu", 
      "name": "relu11", 
      "inputs": [[97, 0, 0]]
    }, 
    {
      "op": "null", 
      "name": "body.9.body.2.weight", 
      "attrs": {"__shape__": "(64, 64, 3, 3)"}, 
      "inputs": []
    }, 
    {
      "op": "null", 
      "name": "body.9.body.2.bias", 
      "attrs": {"__shape__": "(64,)"}, 
      "inputs": []
    }, 
    {
      "op": "Convolution", 
      "name": "convolution25", 
      "attrs": {
        "dilate": "(1, 1)", 
        "kernel": "(3, 3)", 
        "layout": "NCHW", 
        "no_bias": "False", 
        "num_filter": "64", 
        "num_group": "1", 
        "pad": "(1, 1)", 
        "stride": "(1, 1)"
      }, 
      "inputs": [[98, 0, 0], [99, 0, 0], [100, 0, 0]]
    }, 
    {
      "op": "broadcast_add", 
      "name": "broadcast_add11", 
      "inputs": [[101, 0, 0], [94, 0, 0]]
    }, 
    {
      "op": "null", 
      "name": "body.10.body.0.weight", 
      "attrs": {"__shape__": "(64, 64, 3, 3)"}, 
      "inputs": []
    }, 
    {
      "op": "null", 
      "name": "body.10.body.0.bias", 
      "attrs": {"__shape__": "(64,)"}, 
      "inputs": []
    }, 
    {
      "op": "Convolution", 
      "name": "convolution26", 
      "attrs": {
        "dilate": "(1, 1)", 
        "kernel": "(3, 3)", 
        "layout": "NCHW", 
        "no_bias": "False", 
        "num_filter": "64", 
        "num_group": "1", 
        "pad": "(1, 1)", 
        "stride": "(1, 1)"
      }, 
      "inputs": [[102, 0, 0], [103, 0, 0], [104, 0, 0]]
    }, 
    {
      "op": "relu", 
      "name": "relu12", 
      "inputs": [[105, 0, 0]]
    }, 
    {
      "op": "null", 
      "name": "body.10.body.2.weight", 
      "attrs": {"__shape__": "(64, 64, 3, 3)"}, 
      "inputs": []
    }, 
    {
      "op": "null", 
      "name": "body.10.body.2.bias", 
      "attrs": {"__shape__": "(64,)"}, 
      "inputs": []
    }, 
    {
      "op": "Convolution", 
      "name": "convolution27", 
      "attrs": {
        "dilate": "(1, 1)", 
        "kernel": "(3, 3)", 
        "layout": "NCHW", 
        "no_bias": "False", 
        "num_filter": "64", 
        "num_group": "1", 
        "pad": "(1, 1)", 
        "stride": "(1, 1)"
      }, 
      "inputs": [[106, 0, 0], [107, 0, 0], [108, 0, 0]]
    }, 
    {
      "op": "broadcast_add", 
      "name": "broadcast_add12", 
      "inputs": [[109, 0, 0], [102, 0, 0]]
    }, 
    {
      "op": "null", 
      "name": "body.11.body.0.weight", 
      "attrs": {"__shape__": "(64, 64, 3, 3)"}, 
      "inputs": []
    }, 
    {
      "op": "null", 
      "name": "body.11.body.0.bias", 
      "attrs": {"__shape__": "(64,)"}, 
      "inputs": []
    }, 
    {
      "op": "Convolution", 
      "name": "convolution28", 
      "attrs": {
        "dilate": "(1, 1)", 
        "kernel": "(3, 3)", 
        "layout": "NCHW", 
        "no_bias": "False", 
        "num_filter": "64", 
        "num_group": "1", 
        "pad": "(1, 1)", 
        "stride": "(1, 1)"
      }, 
      "inputs": [[110, 0, 0], [111, 0, 0], [112, 0, 0]]
    }, 
    {
      "op": "relu", 
      "name": "relu13", 
      "inputs": [[113, 0, 0]]
    }, 
    {
      "op": "null", 
      "name": "body.11.body.2.weight", 
      "attrs": {"__shape__": "(64, 64, 3, 3)"}, 
      "inputs": []
    }, 
    {
      "op": "null", 
      "name": "body.11.body.2.bias", 
      "attrs": {"__shape__": "(64,)"}, 
      "inputs": []
    }, 
    {
      "op": "Convolution", 
      "name": "convolution29", 
      "attrs": {
        "dilate": "(1, 1)", 
        "kernel": "(3, 3)", 
        "layout": "NCHW", 
        "no_bias": "False", 
        "num_filter": "64", 
        "num_group": "1", 
        "pad": "(1, 1)", 
        "stride": "(1, 1)"
      }, 
      "inputs": [[114, 0, 0], [115, 0, 0], [116, 0, 0]]
    }, 
    {
      "op": "broadcast_add", 
      "name": "broadcast_add13", 
      "inputs": [[117, 0, 0], [110, 0, 0]]
    }, 
    {
      "op": "null", 
      "name": "body.12.body.0.weight", 
      "attrs": {"__shape__": "(64, 64, 3, 3)"}, 
      "inputs": []
    }, 
    {
      "op": "null", 
      "name": "body.12.body.0.bias", 
      "attrs": {"__shape__": "(64,)"}, 
      "inputs": []
    }, 
    {
      "op": "Convolution", 
      "name": "convolution30", 
      "attrs": {
        "dilate": "(1, 1)", 
        "kernel": "(3, 3)", 
        "layout": "NCHW", 
        "no_bias": "False", 
        "num_filter": "64", 
        "num_group": "1", 
        "pad": "(1, 1)", 
        "stride": "(1, 1)"
      }, 
      "inputs": [[118, 0, 0], [119, 0, 0], [120, 0, 0]]
    }, 
    {
      "op": "relu", 
      "name": "relu14", 
      "inputs": [[121, 0, 0]]
    }, 
    {
      "op": "null", 
      "name": "body.12.body.2.weight", 
      "attrs": {"__shape__": "(64, 64, 3, 3)"}, 
      "inputs": []
    }, 
    {
      "op": "null", 
      "name": "body.12.body.2.bias", 
      "attrs": {"__shape__": "(64,)"}, 
      "inputs": []
    }, 
    {
      "op": "Convolution", 
      "name": "convolution31", 
      "attrs": {
        "dilate": "(1, 1)", 
        "kernel": "(3, 3)", 
        "layout": "NCHW", 
        "no_bias": "False", 
        "num_filter": "64", 
        "num_group": "1", 
        "pad": "(1, 1)", 
        "stride": "(1, 1)"
      }, 
      "inputs": [[122, 0, 0], [123, 0, 0], [124, 0, 0]]
    }, 
    {
      "op": "broadcast_add", 
      "name": "broadcast_add14", 
      "inputs": [[125, 0, 0], [118, 0, 0]]
    }, 
    {
      "op": "null", 
      "name": "body.13.body.0.weight", 
      "attrs": {"__shape__": "(64, 64, 3, 3)"}, 
      "inputs": []
    }, 
    {
      "op": "null", 
      "name": "body.13.body.0.bias", 
      "attrs": {"__shape__": "(64,)"}, 
      "inputs": []
    }, 
    {
      "op": "Convolution", 
      "name": "convolution32", 
      "attrs": {
        "dilate": "(1, 1)", 
        "kernel": "(3, 3)", 
        "layout": "NCHW", 
        "no_bias": "False", 
        "num_filter": "64", 
        "num_group": "1", 
        "pad": "(1, 1)", 
        "stride": "(1, 1)"
      }, 
      "inputs": [[126, 0, 0], [127, 0, 0], [128, 0, 0]]
    }, 
    {
      "op": "relu", 
      "name": "relu15", 
      "inputs": [[129, 0, 0]]
    }, 
    {
      "op": "null", 
      "name": "body.13.body.2.weight", 
      "attrs": {"__shape__": "(64, 64, 3, 3)"}, 
      "inputs": []
    }, 
    {
      "op": "null", 
      "name": "body.13.body.2.bias", 
      "attrs": {"__shape__": "(64,)"}, 
      "inputs": []
    }, 
    {
      "op": "Convolution", 
      "name": "convolution33", 
      "attrs": {
        "dilate": "(1, 1)", 
        "kernel": "(3, 3)", 
        "layout": "NCHW", 
        "no_bias": "False", 
        "num_filter": "64", 
        "num_group": "1", 
        "pad": "(1, 1)", 
        "stride": "(1, 1)"
      }, 
      "inputs": [[130, 0, 0], [131, 0, 0], [132, 0, 0]]
    }, 
    {
      "op": "broadcast_add", 
      "name": "broadcast_add15", 
      "inputs": [[133, 0, 0], [126, 0, 0]]
    }, 
    {
      "op": "null", 
      "name": "body.14.body.0.weight", 
      "attrs": {"__shape__": "(64, 64, 3, 3)"}, 
      "inputs": []
    }, 
    {
      "op": "null", 
      "name": "body.14.body.0.bias", 
      "attrs": {"__shape__": "(64,)"}, 
      "inputs": []
    }, 
    {
      "op": "Convolution", 
      "name": "convolution34", 
      "attrs": {
        "dilate": "(1, 1)", 
        "kernel": "(3, 3)", 
        "layout": "NCHW", 
        "no_bias": "False", 
        "num_filter": "64", 
        "num_group": "1", 
        "pad": "(1, 1)", 
        "stride": "(1, 1)"
      }, 
      "inputs": [[134, 0, 0], [135, 0, 0], [136, 0, 0]]
    }, 
    {
      "op": "relu", 
      "name": "relu16", 
      "inputs": [[137, 0, 0]]
    }, 
    {
      "op": "null", 
      "name": "body.14.body.2.weight", 
      "attrs": {"__shape__": "(64, 64, 3, 3)"}, 
      "inputs": []
    }, 
    {
      "op": "null", 
      "name": "body.14.body.2.bias", 
      "attrs": {"__shape__": "(64,)"}, 
      "inputs": []
    }, 
    {
      "op": "Convolution", 
      "name": "convolution35", 
      "attrs": {
        "dilate": "(1, 1)", 
        "kernel": "(3, 3)", 
        "layout": "NCHW", 
        "no_bias": "False", 
        "num_filter": "64", 
        "num_group": "1", 
        "pad": "(1, 1)", 
        "stride": "(1, 1)"
      }, 
      "inputs": [[138, 0, 0], [139, 0, 0], [140, 0, 0]]
    }, 
    {
      "op": "broadcast_add", 
      "name": "broadcast_add16", 
      "inputs": [[141, 0, 0], [134, 0, 0]]
    }, 
    {
      "op": "null", 
      "name": "body.15.body.0.weight", 
      "attrs": {"__shape__": "(64, 64, 3, 3)"}, 
      "inputs": []
    }, 
    {
      "op": "null", 
      "name": "body.15.body.0.bias", 
      "attrs": {"__shape__": "(64,)"}, 
      "inputs": []
    }, 
    {
      "op": "Convolution", 
      "name": "convolution36", 
      "attrs": {
        "dilate": "(1, 1)", 
        "kernel": "(3, 3)", 
        "layout": "NCHW", 
        "no_bias": "False", 
        "num_filter": "64", 
        "num_group": "1", 
        "pad": "(1, 1)", 
        "stride": "(1, 1)"
      }, 
      "inputs": [[142, 0, 0], [143, 0, 0], [144, 0, 0]]
    }, 
    {
      "op": "relu", 
      "name": "relu17", 
      "inputs": [[145, 0, 0]]
    }, 
    {
      "op": "null", 
      "name": "body.15.body.2.weight", 
      "attrs": {"__shape__": "(64, 64, 3, 3)"}, 
      "inputs": []
    }, 
    {
      "op": "null", 
      "name": "body.15.body.2.bias", 
      "attrs": {"__shape__": "(64,)"}, 
      "inputs": []
    }, 
    {
      "op": "Convolution", 
      "name": "convolution37", 
      "attrs": {
        "dilate": "(1, 1)", 
        "kernel": "(3, 3)", 
        "layout": "NCHW", 
        "no_bias": "False", 
        "num_filter": "64", 
        "num_group": "1", 
        "pad": "(1, 1)", 
        "stride": "(1, 1)"
      }, 
      "inputs": [[146, 0, 0], [147, 0, 0], [148, 0, 0]]
    }, 
    {
      "op": "broadcast_add", 
      "name": "broadcast_add17", 
      "inputs": [[149, 0, 0], [142, 0, 0]]
    }, 
    {
      "op": "null", 
      "name": "body.16.body.0.weight", 
      "attrs": {"__shape__": "(64, 64, 3, 3)"}, 
      "inputs": []
    }, 
    {
      "op": "null", 
      "name": "body.16.body.0.bias", 
      "attrs": {"__shape__": "(64,)"}, 
      "inputs": []
    }, 
    {
      "op": "Convolution", 
      "name": "convolution38", 
      "attrs": {
        "dilate": "(1, 1)", 
        "kernel": "(3, 3)", 
        "layout": "NCHW", 
        "no_bias": "False", 
        "num_filter": "64", 
        "num_group": "1", 
        "pad": "(1, 1)", 
        "stride": "(1, 1)"
      }, 
      "inputs": [[150, 0, 0], [151, 0, 0], [152, 0, 0]]
    }, 
    {
      "op": "relu", 
      "name": "relu18", 
      "inputs": [[153, 0, 0]]
    }, 
    {
      "op": "null", 
      "name": "body.16.body.2.weight", 
      "attrs": {"__shape__": "(64, 64, 3, 3)"}, 
      "inputs": []
    }, 
    {
      "op": "null", 
      "name": "body.16.body.2.bias", 
      "attrs": {"__shape__": "(64,)"}, 
      "inputs": []
    }, 
    {
      "op": "Convolution", 
      "name": "convolution39", 
      "attrs": {
        "dilate": "(1, 1)", 
        "kernel": "(3, 3)", 
        "layout": "NCHW", 
        "no_bias": "False", 
        "num_filter": "64", 
        "num_group": "1", 
        "pad": "(1, 1)", 
        "stride": "(1, 1)"
      }, 
      "inputs": [[154, 0, 0], [155, 0, 0], [156, 0, 0]]
    }, 
    {
      "op": "broadcast_add", 
      "name": "broadcast_add18", 
      "inputs": [[157, 0, 0], [150, 0, 0]]
    }, 
    {
      "op": "null", 
      "name": "body.17.body.0.weight", 
      "attrs": {"__shape__": "(64, 64, 3, 3)"}, 
      "inputs": []
    }, 
    {
      "op": "null", 
      "name": "body.17.body.0.bias", 
      "attrs": {"__shape__": "(64,)"}, 
      "inputs": []
    }, 
    {
      "op": "Convolution", 
      "name": "convolution40", 
      "attrs": {
        "dilate": "(1, 1)", 
        "kernel": "(3, 3)", 
        "layout": "NCHW", 
        "no_bias": "False", 
        "num_filter": "64", 
        "num_group": "1", 
        "pad": "(1, 1)", 
        "stride": "(1, 1)"
      }, 
      "inputs": [[158, 0, 0], [159, 0, 0], [160, 0, 0]]
    }, 
    {
      "op": "relu", 
      "name": "relu19", 
      "inputs": [[161, 0, 0]]
    }, 
    {
      "op": "null", 
      "name": "body.17.body.2.weight", 
      "attrs": {"__shape__": "(64, 64, 3, 3)"}, 
      "inputs": []
    }, 
    {
      "op": "null", 
      "name": "body.17.body.2.bias", 
      "attrs": {"__shape__": "(64,)"}, 
      "inputs": []
    }, 
    {
      "op": "Convolution", 
      "name": "convolution41", 
      "attrs": {
        "dilate": "(1, 1)", 
        "kernel": "(3, 3)", 
        "layout": "NCHW", 
        "no_bias": "False", 
        "num_filter": "64", 
        "num_group": "1", 
        "pad": "(1, 1)", 
        "stride": "(1, 1)"
      }, 
      "inputs": [[162, 0, 0], [163, 0, 0], [164, 0, 0]]
    }, 
    {
      "op": "broadcast_add", 
      "name": "broadcast_add19", 
      "inputs": [[165, 0, 0], [158, 0, 0]]
    }, 
    {
      "op": "null", 
      "name": "body.18.body.0.weight", 
      "attrs": {"__shape__": "(64, 64, 3, 3)"}, 
      "inputs": []
    }, 
    {
      "op": "null", 
      "name": "body.18.body.0.bias", 
      "attrs": {"__shape__": "(64,)"}, 
      "inputs": []
    }, 
    {
      "op": "Convolution", 
      "name": "convolution42", 
      "attrs": {
        "dilate": "(1, 1)", 
        "kernel": "(3, 3)", 
        "layout": "NCHW", 
        "no_bias": "False", 
        "num_filter": "64", 
        "num_group": "1", 
        "pad": "(1, 1)", 
        "stride": "(1, 1)"
      }, 
      "inputs": [[166, 0, 0], [167, 0, 0], [168, 0, 0]]
    }, 
    {
      "op": "relu", 
      "name": "relu20", 
      "inputs": [[169, 0, 0]]
    }, 
    {
      "op": "null", 
      "name": "body.18.body.2.weight", 
      "attrs": {"__shape__": "(64, 64, 3, 3)"}, 
      "inputs": []
    }, 
    {
      "op": "null", 
      "name": "body.18.body.2.bias", 
      "attrs": {"__shape__": "(64,)"}, 
      "inputs": []
    }, 
    {
      "op": "Convolution", 
      "name": "convolution43", 
      "attrs": {
        "dilate": "(1, 1)", 
        "kernel": "(3, 3)", 
        "layout": "NCHW", 
        "no_bias": "False", 
        "num_filter": "64", 
        "num_group": "1", 
        "pad": "(1, 1)", 
        "stride": "(1, 1)"
      }, 
      "inputs": [[170, 0, 0], [171, 0, 0], [172, 0, 0]]
    }, 
    {
      "op": "broadcast_add", 
      "name": "broadcast_add20", 
      "inputs": [[173, 0, 0], [166, 0, 0]]
    }, 
    {
      "op": "null", 
      "name": "body.19.body.0.weight", 
      "attrs": {"__shape__": "(64, 64, 3, 3)"}, 
      "inputs": []
    }, 
    {
      "op": "null", 
      "name": "body.19.body.0.bias", 
      "attrs": {"__shape__": "(64,)"}, 
      "inputs": []
    }, 
    {
      "op": "Convolution", 
      "name": "convolution44", 
      "attrs": {
        "dilate": "(1, 1)", 
        "kernel": "(3, 3)", 
        "layout": "NCHW", 
        "no_bias": "False", 
        "num_filter": "64", 
        "num_group": "1", 
        "pad": "(1, 1)", 
        "stride": "(1, 1)"
      }, 
      "inputs": [[174, 0, 0], [175, 0, 0], [176, 0, 0]]
    }, 
    {
      "op": "relu", 
      "name": "relu21", 
      "inputs": [[177, 0, 0]]
    }, 
    {
      "op": "null", 
      "name": "body.19.body.2.weight", 
      "attrs": {"__shape__": "(64, 64, 3, 3)"}, 
      "inputs": []
    }, 
    {
      "op": "null", 
      "name": "body.19.body.2.bias", 
      "attrs": {"__shape__": "(64,)"}, 
      "inputs": []
    }, 
    {
      "op": "Convolution", 
      "name": "convolution45", 
      "attrs": {
        "dilate": "(1, 1)", 
        "kernel": "(3, 3)", 
        "layout": "NCHW", 
        "no_bias": "False", 
        "num_filter": "64", 
        "num_group": "1", 
        "pad": "(1, 1)", 
        "stride": "(1, 1)"
      }, 
      "inputs": [[178, 0, 0], [179, 0, 0], [180, 0, 0]]
    }, 
    {
      "op": "broadcast_add", 
      "name": "broadcast_add21", 
      "inputs": [[181, 0, 0], [174, 0, 0]]
    }, 
    {
      "op": "null", 
      "name": "body.20.body.0.weight", 
      "attrs": {"__shape__": "(64, 64, 3, 3)"}, 
      "inputs": []
    }, 
    {
      "op": "null", 
      "name": "body.20.body.0.bias", 
      "attrs": {"__shape__": "(64,)"}, 
      "inputs": []
    }, 
    {
      "op": "Convolution", 
      "name": "convolution46", 
      "attrs": {
        "dilate": "(1, 1)", 
        "kernel": "(3, 3)", 
        "layout": "NCHW", 
        "no_bias": "False", 
        "num_filter": "64", 
        "num_group": "1", 
        "pad": "(1, 1)", 
        "stride": "(1, 1)"
      }, 
      "inputs": [[182, 0, 0], [183, 0, 0], [184, 0, 0]]
    }, 
    {
      "op": "relu", 
      "name": "relu22", 
      "inputs": [[185, 0, 0]]
    }, 
    {
      "op": "null", 
      "name": "body.20.body.2.weight", 
      "attrs": {"__shape__": "(64, 64, 3, 3)"}, 
      "inputs": []
    }, 
    {
      "op": "null", 
      "name": "body.20.body.2.bias", 
      "attrs": {"__shape__": "(64,)"}, 
      "inputs": []
    }, 
    {
      "op": "Convolution", 
      "name": "convolution47", 
      "attrs": {
        "dilate": "(1, 1)", 
        "kernel": "(3, 3)", 
        "layout": "NCHW", 
        "no_bias": "False", 
        "num_filter": "64", 
        "num_group": "1", 
        "pad": "(1, 1)", 
        "stride": "(1, 1)"
      }, 
      "inputs": [[186, 0, 0], [187, 0, 0], [188, 0, 0]]
    }, 
    {
      "op": "broadcast_add", 
      "name": "broadcast_add22", 
      "inputs": [[189, 0, 0], [182, 0, 0]]
    }, 
    {
      "op": "null", 
      "name": "body.21.body.0.weight", 
      "attrs": {"__shape__": "(64, 64, 3, 3)"}, 
      "inputs": []
    }, 
    {
      "op": "null", 
      "name": "body.21.body.0.bias", 
      "attrs": {"__shape__": "(64,)"}, 
      "inputs": []
    }, 
    {
      "op": "Convolution", 
      "name": "convolution48", 
      "attrs": {
        "dilate": "(1, 1)", 
        "kernel": "(3, 3)", 
        "layout": "NCHW", 
        "no_bias": "False", 
        "num_filter": "64", 
        "num_group": "1", 
        "pad": "(1, 1)", 
        "stride": "(1, 1)"
      }, 
      "inputs": [[190, 0, 0], [191, 0, 0], [192, 0, 0]]
    }, 
    {
      "op": "relu", 
      "name": "relu23", 
      "inputs": [[193, 0, 0]]
    }, 
    {
      "op": "null", 
      "name": "body.21.body.2.weight", 
      "attrs": {"__shape__": "(64, 64, 3, 3)"}, 
      "inputs": []
    }, 
    {
      "op": "null", 
      "name": "body.21.body.2.bias", 
      "attrs": {"__shape__": "(64,)"}, 
      "inputs": []
    }, 
    {
      "op": "Convolution", 
      "name": "convolution49", 
      "attrs": {
        "dilate": "(1, 1)", 
        "kernel": "(3, 3)", 
        "layout": "NCHW", 
        "no_bias": "False", 
        "num_filter": "64", 
        "num_group": "1", 
        "pad": "(1, 1)", 
        "stride": "(1, 1)"
      }, 
      "inputs": [[194, 0, 0], [195, 0, 0], [196, 0, 0]]
    }, 
    {
      "op": "broadcast_add", 
      "name": "broadcast_add23", 
      "inputs": [[197, 0, 0], [190, 0, 0]]
    }, 
    {
      "op": "null", 
      "name": "body.22.body.0.weight", 
      "attrs": {"__shape__": "(64, 64, 3, 3)"}, 
      "inputs": []
    }, 
    {
      "op": "null", 
      "name": "body.22.body.0.bias", 
      "attrs": {"__shape__": "(64,)"}, 
      "inputs": []
    }, 
    {
      "op": "Convolution", 
      "name": "convolution50", 
      "attrs": {
        "dilate": "(1, 1)", 
        "kernel": "(3, 3)", 
        "layout": "NCHW", 
        "no_bias": "False", 
        "num_filter": "64", 
        "num_group": "1", 
        "pad": "(1, 1)", 
        "stride": "(1, 1)"
      }, 
      "inputs": [[198, 0, 0], [199, 0, 0], [200, 0, 0]]
    }, 
    {
      "op": "relu", 
      "name": "relu24", 
      "inputs": [[201, 0, 0]]
    }, 
    {
      "op": "null", 
      "name": "body.22.body.2.weight", 
      "attrs": {"__shape__": "(64, 64, 3, 3)"}, 
      "inputs": []
    }, 
    {
      "op": "null", 
      "name": "body.22.body.2.bias", 
      "attrs": {"__shape__": "(64,)"}, 
      "inputs": []
    }, 
    {
      "op": "Convolution", 
      "name": "convolution51", 
      "attrs": {
        "dilate": "(1, 1)", 
        "kernel": "(3, 3)", 
        "layout": "NCHW", 
        "no_bias": "False", 
        "num_filter": "64", 
        "num_group": "1", 
        "pad": "(1, 1)", 
        "stride": "(1, 1)"
      }, 
      "inputs": [[202, 0, 0], [203, 0, 0], [204, 0, 0]]
    }, 
    {
      "op": "broadcast_add", 
      "name": "broadcast_add24", 
      "inputs": [[205, 0, 0], [198, 0, 0]]
    }, 
    {
      "op": "null", 
      "name": "body.23.body.0.weight", 
      "attrs": {"__shape__": "(64, 64, 3, 3)"}, 
      "inputs": []
    }, 
    {
      "op": "null", 
      "name": "body.23.body.0.bias", 
      "attrs": {"__shape__": "(64,)"}, 
      "inputs": []
    }, 
    {
      "op": "Convolution", 
      "name": "convolution52", 
      "attrs": {
        "dilate": "(1, 1)", 
        "kernel": "(3, 3)", 
        "layout": "NCHW", 
        "no_bias": "False", 
        "num_filter": "64", 
        "num_group": "1", 
        "pad": "(1, 1)", 
        "stride": "(1, 1)"
      }, 
      "inputs": [[206, 0, 0], [207, 0, 0], [208, 0, 0]]
    }, 
    {
      "op": "relu", 
      "name": "relu25", 
      "inputs": [[209, 0, 0]]
    }, 
    {
      "op": "null", 
      "name": "body.23.body.2.weight", 
      "attrs": {"__shape__": "(64, 64, 3, 3)"}, 
      "inputs": []
    }, 
    {
      "op": "null", 
      "name": "body.23.body.2.bias", 
      "attrs": {"__shape__": "(64,)"}, 
      "inputs": []
    }, 
    {
      "op": "Convolution", 
      "name": "convolution53", 
      "attrs": {
        "dilate": "(1, 1)", 
        "kernel": "(3, 3)", 
        "layout": "NCHW", 
        "no_bias": "False", 
        "num_filter": "64", 
        "num_group": "1", 
        "pad": "(1, 1)", 
        "stride": "(1, 1)"
      }, 
      "inputs": [[210, 0, 0], [211, 0, 0], [212, 0, 0]]
    }, 
    {
      "op": "broadcast_add", 
      "name": "broadcast_add25", 
      "inputs": [[213, 0, 0], [206, 0, 0]]
    }, 
    {
      "op": "null", 
      "name": "body.24.body.0.weight", 
      "attrs": {"__shape__": "(64, 64, 3, 3)"}, 
      "inputs": []
    }, 
    {
      "op": "null", 
      "name": "body.24.body.0.bias", 
      "attrs": {"__shape__": "(64,)"}, 
      "inputs": []
    }, 
    {
      "op": "Convolution", 
      "name": "convolution54", 
      "attrs": {
        "dilate": "(1, 1)", 
        "kernel": "(3, 3)", 
        "layout": "NCHW", 
        "no_bias": "False", 
        "num_filter": "64", 
        "num_group": "1", 
        "pad": "(1, 1)", 
        "stride": "(1, 1)"
      }, 
      "inputs": [[214, 0, 0], [215, 0, 0], [216, 0, 0]]
    }, 
    {
      "op": "relu", 
      "name": "relu26", 
      "inputs": [[217, 0, 0]]
    }, 
    {
      "op": "null", 
      "name": "body.24.body.2.weight", 
      "attrs": {"__shape__": "(64, 64, 3, 3)"}, 
      "inputs": []
    }, 
    {
      "op": "null", 
      "name": "body.24.body.2.bias", 
      "attrs": {"__shape__": "(64,)"}, 
      "inputs": []
    }, 
    {
      "op": "Convolution", 
      "name": "convolution55", 
      "attrs": {
        "dilate": "(1, 1)", 
        "kernel": "(3, 3)", 
        "layout": "NCHW", 
        "no_bias": "False", 
        "num_filter": "64", 
        "num_group": "1", 
        "pad": "(1, 1)", 
        "stride": "(1, 1)"
      }, 
      "inputs": [[218, 0, 0], [219, 0, 0], [220, 0, 0]]
    }, 
    {
      "op": "broadcast_add", 
      "name": "broadcast_add26", 
      "inputs": [[221, 0, 0], [214, 0, 0]]
    }, 
    {
      "op": "null", 
      "name": "body.25.body.0.weight", 
      "attrs": {"__shape__": "(64, 64, 3, 3)"}, 
      "inputs": []
    }, 
    {
      "op": "null", 
      "name": "body.25.body.0.bias", 
      "attrs": {"__shape__": "(64,)"}, 
      "inputs": []
    }, 
    {
      "op": "Convolution", 
      "name": "convolution56", 
      "attrs": {
        "dilate": "(1, 1)", 
        "kernel": "(3, 3)", 
        "layout": "NCHW", 
        "no_bias": "False", 
        "num_filter": "64", 
        "num_group": "1", 
        "pad": "(1, 1)", 
        "stride": "(1, 1)"
      }, 
      "inputs": [[222, 0, 0], [223, 0, 0], [224, 0, 0]]
    }, 
    {
      "op": "relu", 
      "name": "relu27", 
      "inputs": [[225, 0, 0]]
    }, 
    {
      "op": "null", 
      "name": "body.25.body.2.weight", 
      "attrs": {"__shape__": "(64, 64, 3, 3)"}, 
      "inputs": []
    }, 
    {
      "op": "null", 
      "name": "body.25.body.2.bias", 
      "attrs": {"__shape__": "(64,)"}, 
      "inputs": []
    }, 
    {
      "op": "Convolution", 
      "name": "convolution57", 
      "attrs": {
        "dilate": "(1, 1)", 
        "kernel": "(3, 3)", 
        "layout": "NCHW", 
        "no_bias": "False", 
        "num_filter": "64", 
        "num_group": "1", 
        "pad": "(1, 1)", 
        "stride": "(1, 1)"
      }, 
      "inputs": [[226, 0, 0], [227, 0, 0], [228, 0, 0]]
    }, 
    {
      "op": "broadcast_add", 
      "name": "broadcast_add27", 
      "inputs": [[229, 0, 0], [222, 0, 0]]
    }, 
    {
      "op": "null", 
      "name": "body.26.body.0.weight", 
      "attrs": {"__shape__": "(64, 64, 3, 3)"}, 
      "inputs": []
    }, 
    {
      "op": "null", 
      "name": "body.26.body.0.bias", 
      "attrs": {"__shape__": "(64,)"}, 
      "inputs": []
    }, 
    {
      "op": "Convolution", 
      "name": "convolution58", 
      "attrs": {
        "dilate": "(1, 1)", 
        "kernel": "(3, 3)", 
        "layout": "NCHW", 
        "no_bias": "False", 
        "num_filter": "64", 
        "num_group": "1", 
        "pad": "(1, 1)", 
        "stride": "(1, 1)"
      }, 
      "inputs": [[230, 0, 0], [231, 0, 0], [232, 0, 0]]
    }, 
    {
      "op": "relu", 
      "name": "relu28", 
      "inputs": [[233, 0, 0]]
    }, 
    {
      "op": "null", 
      "name": "body.26.body.2.weight", 
      "attrs": {"__shape__": "(64, 64, 3, 3)"}, 
      "inputs": []
    }, 
    {
      "op": "null", 
      "name": "body.26.body.2.bias", 
      "attrs": {"__shape__": "(64,)"}, 
      "inputs": []
    }, 
    {
      "op": "Convolution", 
      "name": "convolution59", 
      "attrs": {
        "dilate": "(1, 1)", 
        "kernel": "(3, 3)", 
        "layout": "NCHW", 
        "no_bias": "False", 
        "num_filter": "64", 
        "num_group": "1", 
        "pad": "(1, 1)", 
        "stride": "(1, 1)"
      }, 
      "inputs": [[234, 0, 0], [235, 0, 0], [236, 0, 0]]
    }, 
    {
      "op": "broadcast_add", 
      "name": "broadcast_add28", 
      "inputs": [[237, 0, 0], [230, 0, 0]]
    }, 
    {
      "op": "null", 
      "name": "body.27.body.0.weight", 
      "attrs": {"__shape__": "(64, 64, 3, 3)"}, 
      "inputs": []
    }, 
    {
      "op": "null", 
      "name": "body.27.body.0.bias", 
      "attrs": {"__shape__": "(64,)"}, 
      "inputs": []
    }, 
    {
      "op": "Convolution", 
      "name": "convolution60", 
      "attrs": {
        "dilate": "(1, 1)", 
        "kernel": "(3, 3)", 
        "layout": "NCHW", 
        "no_bias": "False", 
        "num_filter": "64", 
        "num_group": "1", 
        "pad": "(1, 1)", 
        "stride": "(1, 1)"
      }, 
      "inputs": [[238, 0, 0], [239, 0, 0], [240, 0, 0]]
    }, 
    {
      "op": "relu", 
      "name": "relu29", 
      "inputs": [[241, 0, 0]]
    }, 
    {
      "op": "null", 
      "name": "body.27.body.2.weight", 
      "attrs": {"__shape__": "(64, 64, 3, 3)"}, 
      "inputs": []
    }, 
    {
      "op": "null", 
      "name": "body.27.body.2.bias", 
      "attrs": {"__shape__": "(64,)"}, 
      "inputs": []
    }, 
    {
      "op": "Convolution", 
      "name": "convolution61", 
      "attrs": {
        "dilate": "(1, 1)", 
        "kernel": "(3, 3)", 
        "layout": "NCHW", 
        "no_bias": "False", 
        "num_filter": "64", 
        "num_group": "1", 
        "pad": "(1, 1)", 
        "stride": "(1, 1)"
      }, 
      "inputs": [[242, 0, 0], [243, 0, 0], [244, 0, 0]]
    }, 
    {
      "op": "broadcast_add", 
      "name": "broadcast_add29", 
      "inputs": [[245, 0, 0], [238, 0, 0]]
    }, 
    {
      "op": "null", 
      "name": "body.28.body.0.weight", 
      "attrs": {"__shape__": "(64, 64, 3, 3)"}, 
      "inputs": []
    }, 
    {
      "op": "null", 
      "name": "body.28.body.0.bias", 
      "attrs": {"__shape__": "(64,)"}, 
      "inputs": []
    }, 
    {
      "op": "Convolution", 
      "name": "convolution62", 
      "attrs": {
        "dilate": "(1, 1)", 
        "kernel": "(3, 3)", 
        "layout": "NCHW", 
        "no_bias": "False", 
        "num_filter": "64", 
        "num_group": "1", 
        "pad": "(1, 1)", 
        "stride": "(1, 1)"
      }, 
      "inputs": [[246, 0, 0], [247, 0, 0], [248, 0, 0]]
    }, 
    {
      "op": "relu", 
      "name": "relu30", 
      "inputs": [[249, 0, 0]]
    }, 
    {
      "op": "null", 
      "name": "body.28.body.2.weight", 
      "attrs": {"__shape__": "(64, 64, 3, 3)"}, 
      "inputs": []
    }, 
    {
      "op": "null", 
      "name": "body.28.body.2.bias", 
      "attrs": {"__shape__": "(64,)"}, 
      "inputs": []
    }, 
    {
      "op": "Convolution", 
      "name": "convolution63", 
      "attrs": {
        "dilate": "(1, 1)", 
        "kernel": "(3, 3)", 
        "layout": "NCHW", 
        "no_bias": "False", 
        "num_filter": "64", 
        "num_group": "1", 
        "pad": "(1, 1)", 
        "stride": "(1, 1)"
      }, 
      "inputs": [[250, 0, 0], [251, 0, 0], [252, 0, 0]]
    }, 
    {
      "op": "broadcast_add", 
      "name": "broadcast_add30", 
      "inputs": [[253, 0, 0], [246, 0, 0]]
    }, 
    {
      "op": "null", 
      "name": "body.29.body.0.weight", 
      "attrs": {"__shape__": "(64, 64, 3, 3)"}, 
      "inputs": []
    }, 
    {
      "op": "null", 
      "name": "body.29.body.0.bias", 
      "attrs": {"__shape__": "(64,)"}, 
      "inputs": []
    }, 
    {
      "op": "Convolution", 
      "name": "convolution64", 
      "attrs": {
        "dilate": "(1, 1)", 
        "kernel": "(3, 3)", 
        "layout": "NCHW", 
        "no_bias": "False", 
        "num_filter": "64", 
        "num_group": "1", 
        "pad": "(1, 1)", 
        "stride": "(1, 1)"
      }, 
      "inputs": [[254, 0, 0], [255, 0, 0], [256, 0, 0]]
    }, 
    {
      "op": "relu", 
      "name": "relu31", 
      "inputs": [[257, 0, 0]]
    }, 
    {
      "op": "null", 
      "name": "body.29.body.2.weight", 
      "attrs": {"__shape__": "(64, 64, 3, 3)"}, 
      "inputs": []
    }, 
    {
      "op": "null", 
      "name": "body.29.body.2.bias", 
      "attrs": {"__shape__": "(64,)"}, 
      "inputs": []
    }, 
    {
      "op": "Convolution", 
      "name": "convolution65", 
      "attrs": {
        "dilate": "(1, 1)", 
        "kernel": "(3, 3)", 
        "layout": "NCHW", 
        "no_bias": "False", 
        "num_filter": "64", 
        "num_group": "1", 
        "pad": "(1, 1)", 
        "stride": "(1, 1)"
      }, 
      "inputs": [[258, 0, 0], [259, 0, 0], [260, 0, 0]]
    }, 
    {
      "op": "broadcast_add", 
      "name": "broadcast_add31", 
      "inputs": [[261, 0, 0], [254, 0, 0]]
    }, 
    {
      "op": "null", 
      "name": "body.30.body.0.weight", 
      "attrs": {"__shape__": "(64, 64, 3, 3)"}, 
      "inputs": []
    }, 
    {
      "op": "null", 
      "name": "body.30.body.0.bias", 
      "attrs": {"__shape__": "(64,)"}, 
      "inputs": []
    }, 
    {
      "op": "Convolution", 
      "name": "convolution66", 
      "attrs": {
        "dilate": "(1, 1)", 
        "kernel": "(3, 3)", 
        "layout": "NCHW", 
        "no_bias": "False", 
        "num_filter": "64", 
        "num_group": "1", 
        "pad": "(1, 1)", 
        "stride": "(1, 1)"
      }, 
      "inputs": [[262, 0, 0], [263, 0, 0], [264, 0, 0]]
    }, 
    {
      "op": "relu", 
      "name": "relu32", 
      "inputs": [[265, 0, 0]]
    }, 
    {
      "op": "null", 
      "name": "body.30.body.2.weight", 
      "attrs": {"__shape__": "(64, 64, 3, 3)"}, 
      "inputs": []
    }, 
    {
      "op": "null", 
      "name": "body.30.body.2.bias", 
      "attrs": {"__shape__": "(64,)"}, 
      "inputs": []
    }, 
    {
      "op": "Convolution", 
      "name": "convolution67", 
      "attrs": {
        "dilate": "(1, 1)", 
        "kernel": "(3, 3)", 
        "layout": "NCHW", 
        "no_bias": "False", 
        "num_filter": "64", 
        "num_group": "1", 
        "pad": "(1, 1)", 
        "stride": "(1, 1)"
      }, 
      "inputs": [[266, 0, 0], [267, 0, 0], [268, 0, 0]]
    }, 
    {
      "op": "broadcast_add", 
      "name": "broadcast_add32", 
      "inputs": [[269, 0, 0], [262, 0, 0]]
    }, 
    {
      "op": "null", 
      "name": "body.31.body.0.weight", 
      "attrs": {"__shape__": "(64, 64, 3, 3)"}, 
      "inputs": []
    }, 
    {
      "op": "null", 
      "name": "body.31.body.0.bias", 
      "attrs": {"__shape__": "(64,)"}, 
      "inputs": []
    }, 
    {
      "op": "Convolution", 
      "name": "convolution68", 
      "attrs": {
        "dilate": "(1, 1)", 
        "kernel": "(3, 3)", 
        "layout": "NCHW", 
        "no_bias": "False", 
        "num_filter": "64", 
        "num_group": "1", 
        "pad": "(1, 1)", 
        "stride": "(1, 1)"
      }, 
      "inputs": [[270, 0, 0], [271, 0, 0], [272, 0, 0]]
    }, 
    {
      "op": "relu", 
      "name": "relu33", 
      "inputs": [[273, 0, 0]]
    }, 
    {
      "op": "null", 
      "name": "body.31.body.2.weight", 
      "attrs": {"__shape__": "(64, 64, 3, 3)"}, 
      "inputs": []
    }, 
    {
      "op": "null", 
      "name": "body.31.body.2.bias", 
      "attrs": {"__shape__": "(64,)"}, 
      "inputs": []
    }, 
    {
      "op": "Convolution", 
      "name": "convolution69", 
      "attrs": {
        "dilate": "(1, 1)", 
        "kernel": "(3, 3)", 
        "layout": "NCHW", 
        "no_bias": "False", 
        "num_filter": "64", 
        "num_group": "1", 
        "pad": "(1, 1)", 
        "stride": "(1, 1)"
      }, 
      "inputs": [[274, 0, 0], [275, 0, 0], [276, 0, 0]]
    }, 
    {
      "op": "broadcast_add", 
      "name": "broadcast_add33", 
      "inputs": [[277, 0, 0], [270, 0, 0]]
    }, 
    {
      "op": "null", 
      "name": "body.32.body.0.weight", 
      "attrs": {"__shape__": "(64, 64, 3, 3)"}, 
      "inputs": []
    }, 
    {
      "op": "null", 
      "name": "body.32.body.0.bias", 
      "attrs": {"__shape__": "(64,)"}, 
      "inputs": []
    }, 
    {
      "op": "Convolution", 
      "name": "convolution70", 
      "attrs": {
        "dilate": "(1, 1)", 
        "kernel": "(3, 3)", 
        "layout": "NCHW", 
        "no_bias": "False", 
        "num_filter": "64", 
        "num_group": "1", 
        "pad": "(1, 1)", 
        "stride": "(1, 1)"
      }, 
      "inputs": [[278, 0, 0], [279, 0, 0], [280, 0, 0]]
    }, 
    {
      "op": "relu", 
      "name": "relu34", 
      "inputs": [[281, 0, 0]]
    }, 
    {
      "op": "null", 
      "name": "body.32.body.2.weight", 
      "attrs": {"__shape__": "(64, 64, 3, 3)"}, 
      "inputs": []
    }, 
    {
      "op": "null", 
      "name": "body.32.body.2.bias", 
      "attrs": {"__shape__": "(64,)"}, 
      "inputs": []
    }, 
    {
      "op": "Convolution", 
      "name": "convolution71", 
      "attrs": {
        "dilate": "(1, 1)", 
        "kernel": "(3, 3)", 
        "layout": "NCHW", 
        "no_bias": "False", 
        "num_filter": "64", 
        "num_group": "1", 
        "pad": "(1, 1)", 
        "stride": "(1, 1)"
      }, 
      "inputs": [[282, 0, 0], [283, 0, 0], [284, 0, 0]]
    }, 
    {
      "op": "broadcast_add", 
      "name": "broadcast_add34", 
      "inputs": [[285, 0, 0], [278, 0, 0]]
    }, 
    {
      "op": "null", 
      "name": "body.33.body.0.weight", 
      "attrs": {"__shape__": "(64, 64, 3, 3)"}, 
      "inputs": []
    }, 
    {
      "op": "null", 
      "name": "body.33.body.0.bias", 
      "attrs": {"__shape__": "(64,)"}, 
      "inputs": []
    }, 
    {
      "op": "Convolution", 
      "name": "convolution72", 
      "attrs": {
        "dilate": "(1, 1)", 
        "kernel": "(3, 3)", 
        "layout": "NCHW", 
        "no_bias": "False", 
        "num_filter": "64", 
        "num_group": "1", 
        "pad": "(1, 1)", 
        "stride": "(1, 1)"
      }, 
      "inputs": [[286, 0, 0], [287, 0, 0], [288, 0, 0]]
    }, 
    {
      "op": "relu", 
      "name": "relu35", 
      "inputs": [[289, 0, 0]]
    }, 
    {
      "op": "null", 
      "name": "body.33.body.2.weight", 
      "attrs": {"__shape__": "(64, 64, 3, 3)"}, 
      "inputs": []
    }, 
    {
      "op": "null", 
      "name": "body.33.body.2.bias", 
      "attrs": {"__shape__": "(64,)"}, 
      "inputs": []
    }, 
    {
      "op": "Convolution", 
      "name": "convolution73", 
      "attrs": {
        "dilate": "(1, 1)", 
        "kernel": "(3, 3)", 
        "layout": "NCHW", 
        "no_bias": "False", 
        "num_filter": "64", 
        "num_group": "1", 
        "pad": "(1, 1)", 
        "stride": "(1, 1)"
      }, 
      "inputs": [[290, 0, 0], [291, 0, 0], [292, 0, 0]]
    }, 
    {
      "op": "broadcast_add", 
      "name": "broadcast_add35", 
      "inputs": [[293, 0, 0], [286, 0, 0]]
    }, 
    {
      "op": "null", 
      "name": "body.34.body.0.weight", 
      "attrs": {"__shape__": "(64, 64, 3, 3)"}, 
      "inputs": []
    }, 
    {
      "op": "null", 
      "name": "body.34.body.0.bias", 
      "attrs": {"__shape__": "(64,)"}, 
      "inputs": []
    }, 
    {
      "op": "Convolution", 
      "name": "convolution74", 
      "attrs": {
        "dilate": "(1, 1)", 
        "kernel": "(3, 3)", 
        "layout": "NCHW", 
        "no_bias": "False", 
        "num_filter": "64", 
        "num_group": "1", 
        "pad": "(1, 1)", 
        "stride": "(1, 1)"
      }, 
      "inputs": [[294, 0, 0], [295, 0, 0], [296, 0, 0]]
    }, 
    {
      "op": "relu", 
      "name": "relu36", 
      "inputs": [[297, 0, 0]]
    }, 
    {
      "op": "null", 
      "name": "body.34.body.2.weight", 
      "attrs": {"__shape__": "(64, 64, 3, 3)"}, 
      "inputs": []
    }, 
    {
      "op": "null", 
      "name": "body.34.body.2.bias", 
      "attrs": {"__shape__": "(64,)"}, 
      "inputs": []
    }, 
    {
      "op": "Convolution", 
      "name": "convolution75", 
      "attrs": {
        "dilate": "(1, 1)", 
        "kernel": "(3, 3)", 
        "layout": "NCHW", 
        "no_bias": "False", 
        "num_filter": "64", 
        "num_group": "1", 
        "pad": "(1, 1)", 
        "stride": "(1, 1)"
      }, 
      "inputs": [[298, 0, 0], [299, 0, 0], [300, 0, 0]]
    }, 
    {
      "op": "broadcast_add", 
      "name": "broadcast_add36", 
      "inputs": [[301, 0, 0], [294, 0, 0]]
    }, 
    {
      "op": "null", 
      "name": "body.35.body.0.weight", 
      "attrs": {"__shape__": "(64, 64, 3, 3)"}, 
      "inputs": []
    }, 
    {
      "op": "null", 
      "name": "body.35.body.0.bias", 
      "attrs": {"__shape__": "(64,)"}, 
      "inputs": []
    }, 
    {
      "op": "Convolution", 
      "name": "convolution76", 
      "attrs": {
        "dilate": "(1, 1)", 
        "kernel": "(3, 3)", 
        "layout": "NCHW", 
        "no_bias": "False", 
        "num_filter": "64", 
        "num_group": "1", 
        "pad": "(1, 1)", 
        "stride": "(1, 1)"
      }, 
      "inputs": [[302, 0, 0], [303, 0, 0], [304, 0, 0]]
    }, 
    {
      "op": "relu", 
      "name": "relu37", 
      "inputs": [[305, 0, 0]]
    }, 
    {
      "op": "null", 
      "name": "body.35.body.2.weight", 
      "attrs": {"__shape__": "(64, 64, 3, 3)"}, 
      "inputs": []
    }, 
    {
      "op": "null", 
      "name": "body.35.body.2.bias", 
      "attrs": {"__shape__": "(64,)"}, 
      "inputs": []
    }, 
    {
      "op": "Convolution", 
      "name": "convolution77", 
      "attrs": {
        "dilate": "(1, 1)", 
        "kernel": "(3, 3)", 
        "layout": "NCHW", 
        "no_bias": "False", 
        "num_filter": "64", 
        "num_group": "1", 
        "pad": "(1, 1)", 
        "stride": "(1, 1)"
      }, 
      "inputs": [[306, 0, 0], [307, 0, 0], [308, 0, 0]]
    }, 
    {
      "op": "broadcast_add", 
      "name": "broadcast_add37", 
      "inputs": [[309, 0, 0], [302, 0, 0]]
    }, 
    {
      "op": "null", 
      "name": "body.36.body.0.weight", 
      "attrs": {"__shape__": "(64, 64, 3, 3)"}, 
      "inputs": []
    }, 
    {
      "op": "null", 
      "name": "body.36.body.0.bias", 
      "attrs": {"__shape__": "(64,)"}, 
      "inputs": []
    }, 
    {
      "op": "Convolution", 
      "name": "convolution78", 
      "attrs": {
        "dilate": "(1, 1)", 
        "kernel": "(3, 3)", 
        "layout": "NCHW", 
        "no_bias": "False", 
        "num_filter": "64", 
        "num_group": "1", 
        "pad": "(1, 1)", 
        "stride": "(1, 1)"
      }, 
      "inputs": [[310, 0, 0], [311, 0, 0], [312, 0, 0]]
    }, 
    {
      "op": "relu", 
      "name": "relu38", 
      "inputs": [[313, 0, 0]]
    }, 
    {
      "op": "null", 
      "name": "body.36.body.2.weight", 
      "attrs": {"__shape__": "(64, 64, 3, 3)"}, 
      "inputs": []
    }, 
    {
      "op": "null", 
      "name": "body.36.body.2.bias", 
      "attrs": {"__shape__": "(64,)"}, 
      "inputs": []
    }, 
    {
      "op": "Convolution", 
      "name": "convolution79", 
      "attrs": {
        "dilate": "(1, 1)", 
        "kernel": "(3, 3)", 
        "layout": "NCHW", 
        "no_bias": "False", 
        "num_filter": "64", 
        "num_group": "1", 
        "pad": "(1, 1)", 
        "stride": "(1, 1)"
      }, 
      "inputs": [[314, 0, 0], [315, 0, 0], [316, 0, 0]]
    }, 
    {
      "op": "broadcast_add", 
      "name": "broadcast_add38", 
      "inputs": [[317, 0, 0], [310, 0, 0]]
    }, 
    {
      "op": "null", 
      "name": "body.37.body.0.weight", 
      "attrs": {"__shape__": "(64, 64, 3, 3)"}, 
      "inputs": []
    }, 
    {
      "op": "null", 
      "name": "body.37.body.0.bias", 
      "attrs": {"__shape__": "(64,)"}, 
      "inputs": []
    }, 
    {
      "op": "Convolution", 
      "name": "convolution80", 
      "attrs": {
        "dilate": "(1, 1)", 
        "kernel": "(3, 3)", 
        "layout": "NCHW", 
        "no_bias": "False", 
        "num_filter": "64", 
        "num_group": "1", 
        "pad": "(1, 1)", 
        "stride": "(1, 1)"
      }, 
      "inputs": [[318, 0, 0], [319, 0, 0], [320, 0, 0]]
    }, 
    {
      "op": "relu", 
      "name": "relu39", 
      "inputs": [[321, 0, 0]]
    }, 
    {
      "op": "null", 
      "name": "body.37.body.2.weight", 
      "attrs": {"__shape__": "(64, 64, 3, 3)"}, 
      "inputs": []
    }, 
    {
      "op": "null", 
      "name": "body.37.body.2.bias", 
      "attrs": {"__shape__": "(64,)"}, 
      "inputs": []
    }, 
    {
      "op": "Convolution", 
      "name": "convolution81", 
      "attrs": {
        "dilate": "(1, 1)", 
        "kernel": "(3, 3)", 
        "layout": "NCHW", 
        "no_bias": "False", 
        "num_filter": "64", 
        "num_group": "1", 
        "pad": "(1, 1)", 
        "stride": "(1, 1)"
      }, 
      "inputs": [[322, 0, 0], [323, 0, 0], [324, 0, 0]]
    }, 
    {
      "op": "broadcast_add", 
      "name": "broadcast_add39", 
      "inputs": [[325, 0, 0], [318, 0, 0]]
    }, 
    {
      "op": "null", 
      "name": "body.38.body.0.weight", 
      "attrs": {"__shape__": "(64, 64, 3, 3)"}, 
      "inputs": []
    }, 
    {
      "op": "null", 
      "name": "body.38.body.0.bias", 
      "attrs": {"__shape__": "(64,)"}, 
      "inputs": []
    }, 
    {
      "op": "Convolution", 
      "name": "convolution82", 
      "attrs": {
        "dilate": "(1, 1)", 
        "kernel": "(3, 3)", 
        "layout": "NCHW", 
        "no_bias": "False", 
        "num_filter": "64", 
        "num_group": "1", 
        "pad": "(1, 1)", 
        "stride": "(1, 1)"
      }, 
      "inputs": [[326, 0, 0], [327, 0, 0], [328, 0, 0]]
    }, 
    {
      "op": "relu", 
      "name": "relu40", 
      "inputs": [[329, 0, 0]]
    }, 
    {
      "op": "null", 
      "name": "body.38.body.2.weight", 
      "attrs": {"__shape__": "(64, 64, 3, 3)"}, 
      "inputs": []
    }, 
    {
      "op": "null", 
      "name": "body.38.body.2.bias", 
      "attrs": {"__shape__": "(64,)"}, 
      "inputs": []
    }, 
    {
      "op": "Convolution", 
      "name": "convolution83", 
      "attrs": {
        "dilate": "(1, 1)", 
        "kernel": "(3, 3)", 
        "layout": "NCHW", 
        "no_bias": "False", 
        "num_filter": "64", 
        "num_group": "1", 
        "pad": "(1, 1)", 
        "stride": "(1, 1)"
      }, 
      "inputs": [[330, 0, 0], [331, 0, 0], [332, 0, 0]]
    }, 
    {
      "op": "broadcast_add", 
      "name": "broadcast_add40", 
      "inputs": [[333, 0, 0], [326, 0, 0]]
    }, 
    {
      "op": "null", 
      "name": "body.39.body.0.weight", 
      "attrs": {"__shape__": "(64, 64, 3, 3)"}, 
      "inputs": []
    }, 
    {
      "op": "null", 
      "name": "body.39.body.0.bias", 
      "attrs": {"__shape__": "(64,)"}, 
      "inputs": []
    }, 
    {
      "op": "Convolution", 
      "name": "convolution84", 
      "attrs": {
        "dilate": "(1, 1)", 
        "kernel": "(3, 3)", 
        "layout": "NCHW", 
        "no_bias": "False", 
        "num_filter": "64", 
        "num_group": "1", 
        "pad": "(1, 1)", 
        "stride": "(1, 1)"
      }, 
      "inputs": [[334, 0, 0], [335, 0, 0], [336, 0, 0]]
    }, 
    {
      "op": "relu", 
      "name": "relu41", 
      "inputs": [[337, 0, 0]]
    }, 
    {
      "op": "null", 
      "name": "body.39.body.2.weight", 
      "attrs": {"__shape__": "(64, 64, 3, 3)"}, 
      "inputs": []
    }, 
    {
      "op": "null", 
      "name": "body.39.body.2.bias", 
      "attrs": {"__shape__": "(64,)"}, 
      "inputs": []
    }, 
    {
      "op": "Convolution", 
      "name": "convolution85", 
      "attrs": {
        "dilate": "(1, 1)", 
        "kernel": "(3, 3)", 
        "layout": "NCHW", 
        "no_bias": "False", 
        "num_filter": "64", 
        "num_group": "1", 
        "pad": "(1, 1)", 
        "stride": "(1, 1)"
      }, 
      "inputs": [[338, 0, 0], [339, 0, 0], [340, 0, 0]]
    }, 
    {
      "op": "broadcast_add", 
      "name": "broadcast_add41", 
      "inputs": [[341, 0, 0], [334, 0, 0]]
    }, 
    {
      "op": "null", 
      "name": "body.40.body.0.weight", 
      "attrs": {"__shape__": "(64, 64, 3, 3)"}, 
      "inputs": []
    }, 
    {
      "op": "null", 
      "name": "body.40.body.0.bias", 
      "attrs": {"__shape__": "(64,)"}, 
      "inputs": []
    }, 
    {
      "op": "Convolution", 
      "name": "convolution86", 
      "attrs": {
        "dilate": "(1, 1)", 
        "kernel": "(3, 3)", 
        "layout": "NCHW", 
        "no_bias": "False", 
        "num_filter": "64", 
        "num_group": "1", 
        "pad": "(1, 1)", 
        "stride": "(1, 1)"
      }, 
      "inputs": [[342, 0, 0], [343, 0, 0], [344, 0, 0]]
    }, 
    {
      "op": "relu", 
      "name": "relu42", 
      "inputs": [[345, 0, 0]]
    }, 
    {
      "op": "null", 
      "name": "body.40.body.2.weight", 
      "attrs": {"__shape__": "(64, 64, 3, 3)"}, 
      "inputs": []
    }, 
    {
      "op": "null", 
      "name": "body.40.body.2.bias", 
      "attrs": {"__shape__": "(64,)"}, 
      "inputs": []
    }, 
    {
      "op": "Convolution", 
      "name": "convolution87", 
      "attrs": {
        "dilate": "(1, 1)", 
        "kernel": "(3, 3)", 
        "layout": "NCHW", 
        "no_bias": "False", 
        "num_filter": "64", 
        "num_group": "1", 
        "pad": "(1, 1)", 
        "stride": "(1, 1)"
      }, 
      "inputs": [[346, 0, 0], [347, 0, 0], [348, 0, 0]]
    }, 
    {
      "op": "broadcast_add", 
      "name": "broadcast_add42", 
      "inputs": [[349, 0, 0], [342, 0, 0]]
    }, 
    {
      "op": "null", 
      "name": "body.41.body.0.weight", 
      "attrs": {"__shape__": "(64, 64, 3, 3)"}, 
      "inputs": []
    }, 
    {
      "op": "null", 
      "name": "body.41.body.0.bias", 
      "attrs": {"__shape__": "(64,)"}, 
      "inputs": []
    }, 
    {
      "op": "Convolution", 
      "name": "convolution88", 
      "attrs": {
        "dilate": "(1, 1)", 
        "kernel": "(3, 3)", 
        "layout": "NCHW", 
        "no_bias": "False", 
        "num_filter": "64", 
        "num_group": "1", 
        "pad": "(1, 1)", 
        "stride": "(1, 1)"
      }, 
      "inputs": [[350, 0, 0], [351, 0, 0], [352, 0, 0]]
    }, 
    {
      "op": "relu", 
      "name": "relu43", 
      "inputs": [[353, 0, 0]]
    }, 
    {
      "op": "null", 
      "name": "body.41.body.2.weight", 
      "attrs": {"__shape__": "(64, 64, 3, 3)"}, 
      "inputs": []
    }, 
    {
      "op": "null", 
      "name": "body.41.body.2.bias", 
      "attrs": {"__shape__": "(64,)"}, 
      "inputs": []
    }, 
    {
      "op": "Convolution", 
      "name": "convolution89", 
      "attrs": {
        "dilate": "(1, 1)", 
        "kernel": "(3, 3)", 
        "layout": "NCHW", 
        "no_bias": "False", 
        "num_filter": "64", 
        "num_group": "1", 
        "pad": "(1, 1)", 
        "stride": "(1, 1)"
      }, 
      "inputs": [[354, 0, 0], [355, 0, 0], [356, 0, 0]]
    }, 
    {
      "op": "broadcast_add", 
      "name": "broadcast_add43", 
      "inputs": [[357, 0, 0], [350, 0, 0]]
    }, 
    {
      "op": "null", 
      "name": "body.42.body.0.weight", 
      "attrs": {"__shape__": "(64, 64, 3, 3)"}, 
      "inputs": []
    }, 
    {
      "op": "null", 
      "name": "body.42.body.0.bias", 
      "attrs": {"__shape__": "(64,)"}, 
      "inputs": []
    }, 
    {
      "op": "Convolution", 
      "name": "convolution90", 
      "attrs": {
        "dilate": "(1, 1)", 
        "kernel": "(3, 3)", 
        "layout": "NCHW", 
        "no_bias": "False", 
        "num_filter": "64", 
        "num_group": "1", 
        "pad": "(1, 1)", 
        "stride": "(1, 1)"
      }, 
      "inputs": [[358, 0, 0], [359, 0, 0], [360, 0, 0]]
    }, 
    {
      "op": "relu", 
      "name": "relu44", 
      "inputs": [[361, 0, 0]]
    }, 
    {
      "op": "null", 
      "name": "body.42.body.2.weight", 
      "attrs": {"__shape__": "(64, 64, 3, 3)"}, 
      "inputs": []
    }, 
    {
      "op": "null", 
      "name": "body.42.body.2.bias", 
      "attrs": {"__shape__": "(64,)"}, 
      "inputs": []
    }, 
    {
      "op": "Convolution", 
      "name": "convolution91", 
      "attrs": {
        "dilate": "(1, 1)", 
        "kernel": "(3, 3)", 
        "layout": "NCHW", 
        "no_bias": "False", 
        "num_filter": "64", 
        "num_group": "1", 
        "pad": "(1, 1)", 
        "stride": "(1, 1)"
      }, 
      "inputs": [[362, 0, 0], [363, 0, 0], [364, 0, 0]]
    }, 
    {
      "op": "broadcast_add", 
      "name": "broadcast_add44", 
      "inputs": [[365, 0, 0], [358, 0, 0]]
    }, 
    {
      "op": "null", 
      "name": "body.43.body.0.weight", 
      "attrs": {"__shape__": "(64, 64, 3, 3)"}, 
      "inputs": []
    }, 
    {
      "op": "null", 
      "name": "body.43.body.0.bias", 
      "attrs": {"__shape__": "(64,)"}, 
      "inputs": []
    }, 
    {
      "op": "Convolution", 
      "name": "convolution92", 
      "attrs": {
        "dilate": "(1, 1)", 
        "kernel": "(3, 3)", 
        "layout": "NCHW", 
        "no_bias": "False", 
        "num_filter": "64", 
        "num_group": "1", 
        "pad": "(1, 1)", 
        "stride": "(1, 1)"
      }, 
      "inputs": [[366, 0, 0], [367, 0, 0], [368, 0, 0]]
    }, 
    {
      "op": "relu", 
      "name": "relu45", 
      "inputs": [[369, 0, 0]]
    }, 
    {
      "op": "null", 
      "name": "body.43.body.2.weight", 
      "attrs": {"__shape__": "(64, 64, 3, 3)"}, 
      "inputs": []
    }, 
    {
      "op": "null", 
      "name": "body.43.body.2.bias", 
      "attrs": {"__shape__": "(64,)"}, 
      "inputs": []
    }, 
    {
      "op": "Convolution", 
      "name": "convolution93", 
      "attrs": {
        "dilate": "(1, 1)", 
        "kernel": "(3, 3)", 
        "layout": "NCHW", 
        "no_bias": "False", 
        "num_filter": "64", 
        "num_group": "1", 
        "pad": "(1, 1)", 
        "stride": "(1, 1)"
      }, 
      "inputs": [[370, 0, 0], [371, 0, 0], [372, 0, 0]]
    }, 
    {
      "op": "broadcast_add", 
      "name": "broadcast_add45", 
      "inputs": [[373, 0, 0], [366, 0, 0]]
    }, 
    {
      "op": "null", 
      "name": "body.44.body.0.weight", 
      "attrs": {"__shape__": "(64, 64, 3, 3)"}, 
      "inputs": []
    }, 
    {
      "op": "null", 
      "name": "body.44.body.0.bias", 
      "attrs": {"__shape__": "(64,)"}, 
      "inputs": []
    }, 
    {
      "op": "Convolution", 
      "name": "convolution94", 
      "attrs": {
        "dilate": "(1, 1)", 
        "kernel": "(3, 3)", 
        "layout": "NCHW", 
        "no_bias": "False", 
        "num_filter": "64", 
        "num_group": "1", 
        "pad": "(1, 1)", 
        "stride": "(1, 1)"
      }, 
      "inputs": [[374, 0, 0], [375, 0, 0], [376, 0, 0]]
    }, 
    {
      "op": "relu", 
      "name": "relu46", 
      "inputs": [[377, 0, 0]]
    }, 
    {
      "op": "null", 
      "name": "body.44.body.2.weight", 
      "attrs": {"__shape__": "(64, 64, 3, 3)"}, 
      "inputs": []
    }, 
    {
      "op": "null", 
      "name": "body.44.body.2.bias", 
      "attrs": {"__shape__": "(64,)"}, 
      "inputs": []
    }, 
    {
      "op": "Convolution", 
      "name": "convolution95", 
      "attrs": {
        "dilate": "(1, 1)", 
        "kernel": "(3, 3)", 
        "layout": "NCHW", 
        "no_bias": "False", 
        "num_filter": "64", 
        "num_group": "1", 
        "pad": "(1, 1)", 
        "stride": "(1, 1)"
      }, 
      "inputs": [[378, 0, 0], [379, 0, 0], [380, 0, 0]]
    }, 
    {
      "op": "broadcast_add", 
      "name": "broadcast_add46", 
      "inputs": [[381, 0, 0], [374, 0, 0]]
    }, 
    {
      "op": "null", 
      "name": "body.45.body.0.weight", 
      "attrs": {"__shape__": "(64, 64, 3, 3)"}, 
      "inputs": []
    }, 
    {
      "op": "null", 
      "name": "body.45.body.0.bias", 
      "attrs": {"__shape__": "(64,)"}, 
      "inputs": []
    }, 
    {
      "op": "Convolution", 
      "name": "convolution96", 
      "attrs": {
        "dilate": "(1, 1)", 
        "kernel": "(3, 3)", 
        "layout": "NCHW", 
        "no_bias": "False", 
        "num_filter": "64", 
        "num_group": "1", 
        "pad": "(1, 1)", 
        "stride": "(1, 1)"
      }, 
      "inputs": [[382, 0, 0], [383, 0, 0], [384, 0, 0]]
    }, 
    {
      "op": "relu", 
      "name": "relu47", 
      "inputs": [[385, 0, 0]]
    }, 
    {
      "op": "null", 
      "name": "body.45.body.2.weight", 
      "attrs": {"__shape__": "(64, 64, 3, 3)"}, 
      "inputs": []
    }, 
    {
      "op": "null", 
      "name": "body.45.body.2.bias", 
      "attrs": {"__shape__": "(64,)"}, 
      "inputs": []
    }, 
    {
      "op": "Convolution", 
      "name": "convolution97", 
      "attrs": {
        "dilate": "(1, 1)", 
        "kernel": "(3, 3)", 
        "layout": "NCHW", 
        "no_bias": "False", 
        "num_filter": "64", 
        "num_group": "1", 
        "pad": "(1, 1)", 
        "stride": "(1, 1)"
      }, 
      "inputs": [[386, 0, 0], [387, 0, 0], [388, 0, 0]]
    }, 
    {
      "op": "broadcast_add", 
      "name": "broadcast_add47", 
      "inputs": [[389, 0, 0], [382, 0, 0]]
    }, 
    {
      "op": "null", 
      "name": "body.46.body.0.weight", 
      "attrs": {"__shape__": "(64, 64, 3, 3)"}, 
      "inputs": []
    }, 
    {
      "op": "null", 
      "name": "body.46.body.0.bias", 
      "attrs": {"__shape__": "(64,)"}, 
      "inputs": []
    }, 
    {
      "op": "Convolution", 
      "name": "convolution98", 
      "attrs": {
        "dilate": "(1, 1)", 
        "kernel": "(3, 3)", 
        "layout": "NCHW", 
        "no_bias": "False", 
        "num_filter": "64", 
        "num_group": "1", 
        "pad": "(1, 1)", 
        "stride": "(1, 1)"
      }, 
      "inputs": [[390, 0, 0], [391, 0, 0], [392, 0, 0]]
    }, 
    {
      "op": "relu", 
      "name": "relu48", 
      "inputs": [[393, 0, 0]]
    }, 
    {
      "op": "null", 
      "name": "body.46.body.2.weight", 
      "attrs": {"__shape__": "(64, 64, 3, 3)"}, 
      "inputs": []
    }, 
    {
      "op": "null", 
      "name": "body.46.body.2.bias", 
      "attrs": {"__shape__": "(64,)"}, 
      "inputs": []
    }, 
    {
      "op": "Convolution", 
      "name": "convolution99", 
      "attrs": {
        "dilate": "(1, 1)", 
        "kernel": "(3, 3)", 
        "layout": "NCHW", 
        "no_bias": "False", 
        "num_filter": "64", 
        "num_group": "1", 
        "pad": "(1, 1)", 
        "stride": "(1, 1)"
      }, 
      "inputs": [[394, 0, 0], [395, 0, 0], [396, 0, 0]]
    }, 
    {
      "op": "broadcast_add", 
      "name": "broadcast_add48", 
      "inputs": [[397, 0, 0], [390, 0, 0]]
    }, 
    {
      "op": "null", 
      "name": "body.47.body.0.weight", 
      "attrs": {"__shape__": "(64, 64, 3, 3)"}, 
      "inputs": []
    }, 
    {
      "op": "null", 
      "name": "body.47.body.0.bias", 
      "attrs": {"__shape__": "(64,)"}, 
      "inputs": []
    }, 
    {
      "op": "Convolution", 
      "name": "convolution100", 
      "attrs": {
        "dilate": "(1, 1)", 
        "kernel": "(3, 3)", 
        "layout": "NCHW", 
        "no_bias": "False", 
        "num_filter": "64", 
        "num_group": "1", 
        "pad": "(1, 1)", 
        "stride": "(1, 1)"
      }, 
      "inputs": [[398, 0, 0], [399, 0, 0], [400, 0, 0]]
    }, 
    {
      "op": "relu", 
      "name": "relu49", 
      "inputs": [[401, 0, 0]]
    }, 
    {
      "op": "null", 
      "name": "body.47.body.2.weight", 
      "attrs": {"__shape__": "(64, 64, 3, 3)"}, 
      "inputs": []
    }, 
    {
      "op": "null", 
      "name": "body.47.body.2.bias", 
      "attrs": {"__shape__": "(64,)"}, 
      "inputs": []
    }, 
    {
      "op": "Convolution", 
      "name": "convolution101", 
      "attrs": {
        "dilate": "(1, 1)", 
        "kernel": "(3, 3)", 
        "layout": "NCHW", 
        "no_bias": "False", 
        "num_filter": "64", 
        "num_group": "1", 
        "pad": "(1, 1)", 
        "stride": "(1, 1)"
      }, 
      "inputs": [[402, 0, 0], [403, 0, 0], [404, 0, 0]]
    }, 
    {
      "op": "broadcast_add", 
      "name": "broadcast_add49", 
      "inputs": [[405, 0, 0], [398, 0, 0]]
    }, 
    {
      "op": "null", 
      "name": "body.48.body.0.weight", 
      "attrs": {"__shape__": "(64, 64, 3, 3)"}, 
      "inputs": []
    }, 
    {
      "op": "null", 
      "name": "body.48.body.0.bias", 
      "attrs": {"__shape__": "(64,)"}, 
      "inputs": []
    }, 
    {
      "op": "Convolution", 
      "name": "convolution102", 
      "attrs": {
        "dilate": "(1, 1)", 
        "kernel": "(3, 3)", 
        "layout": "NCHW", 
        "no_bias": "False", 
        "num_filter": "64", 
        "num_group": "1", 
        "pad": "(1, 1)", 
        "stride": "(1, 1)"
      }, 
      "inputs": [[406, 0, 0], [407, 0, 0], [408, 0, 0]]
    }, 
    {
      "op": "relu", 
      "name": "relu50", 
      "inputs": [[409, 0, 0]]
    }, 
    {
      "op": "null", 
      "name": "body.48.body.2.weight", 
      "attrs": {"__shape__": "(64, 64, 3, 3)"}, 
      "inputs": []
    }, 
    {
      "op": "null", 
      "name": "body.48.body.2.bias", 
      "attrs": {"__shape__": "(64,)"}, 
      "inputs": []
    }, 
    {
      "op": "Convolution", 
      "name": "convolution103", 
      "attrs": {
        "dilate": "(1, 1)", 
        "kernel": "(3, 3)", 
        "layout": "NCHW", 
        "no_bias": "False", 
        "num_filter": "64", 
        "num_group": "1", 
        "pad": "(1, 1)", 
        "stride": "(1, 1)"
      }, 
      "inputs": [[410, 0, 0], [411, 0, 0], [412, 0, 0]]
    }, 
    {
      "op": "broadcast_add", 
      "name": "broadcast_add50", 
      "inputs": [[413, 0, 0], [406, 0, 0]]
    }, 
    {
      "op": "null", 
      "name": "body.49.body.0.weight", 
      "attrs": {"__shape__": "(64, 64, 3, 3)"}, 
      "inputs": []
    }, 
    {
      "op": "null", 
      "name": "body.49.body.0.bias", 
      "attrs": {"__shape__": "(64,)"}, 
      "inputs": []
    }, 
    {
      "op": "Convolution", 
      "name": "convolution104", 
      "attrs": {
        "dilate": "(1, 1)", 
        "kernel": "(3, 3)", 
        "layout": "NCHW", 
        "no_bias": "False", 
        "num_filter": "64", 
        "num_group": "1", 
        "pad": "(1, 1)", 
        "stride": "(1, 1)"
      }, 
      "inputs": [[414, 0, 0], [415, 0, 0], [416, 0, 0]]
    }, 
    {
      "op": "relu", 
      "name": "relu51", 
      "inputs": [[417, 0, 0]]
    }, 
    {
      "op": "null", 
      "name": "body.49.body.2.weight", 
      "attrs": {"__shape__": "(64, 64, 3, 3)"}, 
      "inputs": []
    }, 
    {
      "op": "null", 
      "name": "body.49.body.2.bias", 
      "attrs": {"__shape__": "(64,)"}, 
      "inputs": []
    }, 
    {
      "op": "Convolution", 
      "name": "convolution105", 
      "attrs": {
        "dilate": "(1, 1)", 
        "kernel": "(3, 3)", 
        "layout": "NCHW", 
        "no_bias": "False", 
        "num_filter": "64", 
        "num_group": "1", 
        "pad": "(1, 1)", 
        "stride": "(1, 1)"
      }, 
      "inputs": [[418, 0, 0], [419, 0, 0], [420, 0, 0]]
    }, 
    {
      "op": "broadcast_add", 
      "name": "broadcast_add51", 
      "inputs": [[421, 0, 0], [414, 0, 0]]
    }, 
    {
      "op": "null", 
      "name": "body.50.body.0.weight", 
      "attrs": {"__shape__": "(64, 64, 3, 3)"}, 
      "inputs": []
    }, 
    {
      "op": "null", 
      "name": "body.50.body.0.bias", 
      "attrs": {"__shape__": "(64,)"}, 
      "inputs": []
    }, 
    {
      "op": "Convolution", 
      "name": "convolution106", 
      "attrs": {
        "dilate": "(1, 1)", 
        "kernel": "(3, 3)", 
        "layout": "NCHW", 
        "no_bias": "False", 
        "num_filter": "64", 
        "num_group": "1", 
        "pad": "(1, 1)", 
        "stride": "(1, 1)"
      }, 
      "inputs": [[422, 0, 0], [423, 0, 0], [424, 0, 0]]
    }, 
    {
      "op": "relu", 
      "name": "relu52", 
      "inputs": [[425, 0, 0]]
    }, 
    {
      "op": "null", 
      "name": "body.50.body.2.weight", 
      "attrs": {"__shape__": "(64, 64, 3, 3)"}, 
      "inputs": []
    }, 
    {
      "op": "null", 
      "name": "body.50.body.2.bias", 
      "attrs": {"__shape__": "(64,)"}, 
      "inputs": []
    }, 
    {
      "op": "Convolution", 
      "name": "convolution107", 
      "attrs": {
        "dilate": "(1, 1)", 
        "kernel": "(3, 3)", 
        "layout": "NCHW", 
        "no_bias": "False", 
        "num_filter": "64", 
        "num_group": "1", 
        "pad": "(1, 1)", 
        "stride": "(1, 1)"
      }, 
      "inputs": [[426, 0, 0], [427, 0, 0], [428, 0, 0]]
    }, 
    {
      "op": "broadcast_add", 
      "name": "broadcast_add52", 
      "inputs": [[429, 0, 0], [422, 0, 0]]
    }, 
    {
      "op": "null", 
      "name": "body.51.body.0.weight", 
      "attrs": {"__shape__": "(64, 64, 3, 3)"}, 
      "inputs": []
    }, 
    {
      "op": "null", 
      "name": "body.51.body.0.bias", 
      "attrs": {"__shape__": "(64,)"}, 
      "inputs": []
    }, 
    {
      "op": "Convolution", 
      "name": "convolution108", 
      "attrs": {
        "dilate": "(1, 1)", 
        "kernel": "(3, 3)", 
        "layout": "NCHW", 
        "no_bias": "False", 
        "num_filter": "64", 
        "num_group": "1", 
        "pad": "(1, 1)", 
        "stride": "(1, 1)"
      }, 
      "inputs": [[430, 0, 0], [431, 0, 0], [432, 0, 0]]
    }, 
    {
      "op": "relu", 
      "name": "relu53", 
      "inputs": [[433, 0, 0]]
    }, 
    {
      "op": "null", 
      "name": "body.51.body.2.weight", 
      "attrs": {"__shape__": "(64, 64, 3, 3)"}, 
      "inputs": []
    }, 
    {
      "op": "null", 
      "name": "body.51.body.2.bias", 
      "attrs": {"__shape__": "(64,)"}, 
      "inputs": []
    }, 
    {
      "op": "Convolution", 
      "name": "convolution109", 
      "attrs": {
        "dilate": "(1, 1)", 
        "kernel": "(3, 3)", 
        "layout": "NCHW", 
        "no_bias": "False", 
        "num_filter": "64", 
        "num_group": "1", 
        "pad": "(1, 1)", 
        "stride": "(1, 1)"
      }, 
      "inputs": [[434, 0, 0], [435, 0, 0], [436, 0, 0]]
    }, 
    {
      "op": "broadcast_add", 
      "name": "broadcast_add53", 
      "inputs": [[437, 0, 0], [430, 0, 0]]
    }, 
    {
      "op": "null", 
      "name": "body.52.body.0.weight", 
      "attrs": {"__shape__": "(64, 64, 3, 3)"}, 
      "inputs": []
    }, 
    {
      "op": "null", 
      "name": "body.52.body.0.bias", 
      "attrs": {"__shape__": "(64,)"}, 
      "inputs": []
    }, 
    {
      "op": "Convolution", 
      "name": "convolution110", 
      "attrs": {
        "dilate": "(1, 1)", 
        "kernel": "(3, 3)", 
        "layout": "NCHW", 
        "no_bias": "False", 
        "num_filter": "64", 
        "num_group": "1", 
        "pad": "(1, 1)", 
        "stride": "(1, 1)"
      }, 
      "inputs": [[438, 0, 0], [439, 0, 0], [440, 0, 0]]
    }, 
    {
      "op": "relu", 
      "name": "relu54", 
      "inputs": [[441, 0, 0]]
    }, 
    {
      "op": "null", 
      "name": "body.52.body.2.weight", 
      "attrs": {"__shape__": "(64, 64, 3, 3)"}, 
      "inputs": []
    }, 
    {
      "op": "null", 
      "name": "body.52.body.2.bias", 
      "attrs": {"__shape__": "(64,)"}, 
      "inputs": []
    }, 
    {
      "op": "Convolution", 
      "name": "convolution111", 
      "attrs": {
        "dilate": "(1, 1)", 
        "kernel": "(3, 3)", 
        "layout": "NCHW", 
        "no_bias": "False", 
        "num_filter": "64", 
        "num_group": "1", 
        "pad": "(1, 1)", 
        "stride": "(1, 1)"
      }, 
      "inputs": [[442, 0, 0], [443, 0, 0], [444, 0, 0]]
    }, 
    {
      "op": "broadcast_add", 
      "name": "broadcast_add54", 
      "inputs": [[445, 0, 0], [438, 0, 0]]
    }, 
    {
      "op": "null", 
      "name": "body.53.body.0.weight", 
      "attrs": {"__shape__": "(64, 64, 3, 3)"}, 
      "inputs": []
    }, 
    {
      "op": "null", 
      "name": "body.53.body.0.bias", 
      "attrs": {"__shape__": "(64,)"}, 
      "inputs": []
    }, 
    {
      "op": "Convolution", 
      "name": "convolution112", 
      "attrs": {
        "dilate": "(1, 1)", 
        "kernel": "(3, 3)", 
        "layout": "NCHW", 
        "no_bias": "False", 
        "num_filter": "64", 
        "num_group": "1", 
        "pad": "(1, 1)", 
        "stride": "(1, 1)"
      }, 
      "inputs": [[446, 0, 0], [447, 0, 0], [448, 0, 0]]
    }, 
    {
      "op": "relu", 
      "name": "relu55", 
      "inputs": [[449, 0, 0]]
    }, 
    {
      "op": "null", 
      "name": "body.53.body.2.weight", 
      "attrs": {"__shape__": "(64, 64, 3, 3)"}, 
      "inputs": []
    }, 
    {
      "op": "null", 
      "name": "body.53.body.2.bias", 
      "attrs": {"__shape__": "(64,)"}, 
      "inputs": []
    }, 
    {
      "op": "Convolution", 
      "name": "convolution113", 
      "attrs": {
        "dilate": "(1, 1)", 
        "kernel": "(3, 3)", 
        "layout": "NCHW", 
        "no_bias": "False", 
        "num_filter": "64", 
        "num_group": "1", 
        "pad": "(1, 1)", 
        "stride": "(1, 1)"
      }, 
      "inputs": [[450, 0, 0], [451, 0, 0], [452, 0, 0]]
    }, 
    {
      "op": "broadcast_add", 
      "name": "broadcast_add55", 
      "inputs": [[453, 0, 0], [446, 0, 0]]
    }, 
    {
      "op": "null", 
      "name": "body.54.body.0.weight", 
      "attrs": {"__shape__": "(64, 64, 3, 3)"}, 
      "inputs": []
    }, 
    {
      "op": "null", 
      "name": "body.54.body.0.bias", 
      "attrs": {"__shape__": "(64,)"}, 
      "inputs": []
    }, 
    {
      "op": "Convolution", 
      "name": "convolution114", 
      "attrs": {
        "dilate": "(1, 1)", 
        "kernel": "(3, 3)", 
        "layout": "NCHW", 
        "no_bias": "False", 
        "num_filter": "64", 
        "num_group": "1", 
        "pad": "(1, 1)", 
        "stride": "(1, 1)"
      }, 
      "inputs": [[454, 0, 0], [455, 0, 0], [456, 0, 0]]
    }, 
    {
      "op": "relu", 
      "name": "relu56", 
      "inputs": [[457, 0, 0]]
    }, 
    {
      "op": "null", 
      "name": "body.54.body.2.weight", 
      "attrs": {"__shape__": "(64, 64, 3, 3)"}, 
      "inputs": []
    }, 
    {
      "op": "null", 
      "name": "body.54.body.2.bias", 
      "attrs": {"__shape__": "(64,)"}, 
      "inputs": []
    }, 
    {
      "op": "Convolution", 
      "name": "convolution115", 
      "attrs": {
        "dilate": "(1, 1)", 
        "kernel": "(3, 3)", 
        "layout": "NCHW", 
        "no_bias": "False", 
        "num_filter": "64", 
        "num_group": "1", 
        "pad": "(1, 1)", 
        "stride": "(1, 1)"
      }, 
      "inputs": [[458, 0, 0], [459, 0, 0], [460, 0, 0]]
    }, 
    {
      "op": "broadcast_add", 
      "name": "broadcast_add56", 
      "inputs": [[461, 0, 0], [454, 0, 0]]
    }, 
    {
      "op": "null", 
      "name": "body.55.body.0.weight", 
      "attrs": {"__shape__": "(64, 64, 3, 3)"}, 
      "inputs": []
    }, 
    {
      "op": "null", 
      "name": "body.55.body.0.bias", 
      "attrs": {"__shape__": "(64,)"}, 
      "inputs": []
    }, 
    {
      "op": "Convolution", 
      "name": "convolution116", 
      "attrs": {
        "dilate": "(1, 1)", 
        "kernel": "(3, 3)", 
        "layout": "NCHW", 
        "no_bias": "False", 
        "num_filter": "64", 
        "num_group": "1", 
        "pad": "(1, 1)", 
        "stride": "(1, 1)"
      }, 
      "inputs": [[462, 0, 0], [463, 0, 0], [464, 0, 0]]
    }, 
    {
      "op": "relu", 
      "name": "relu57", 
      "inputs": [[465, 0, 0]]
    }, 
    {
      "op": "null", 
      "name": "body.55.body.2.weight", 
      "attrs": {"__shape__": "(64, 64, 3, 3)"}, 
      "inputs": []
    }, 
    {
      "op": "null", 
      "name": "body.55.body.2.bias", 
      "attrs": {"__shape__": "(64,)"}, 
      "inputs": []
    }, 
    {
      "op": "Convolution", 
      "name": "convolution117", 
      "attrs": {
        "dilate": "(1, 1)", 
        "kernel": "(3, 3)", 
        "layout": "NCHW", 
        "no_bias": "False", 
        "num_filter": "64", 
        "num_group": "1", 
        "pad": "(1, 1)", 
        "stride": "(1, 1)"
      }, 
      "inputs": [[466, 0, 0], [467, 0, 0], [468, 0, 0]]
    }, 
    {
      "op": "broadcast_add", 
      "name": "broadcast_add57", 
      "inputs": [[469, 0, 0], [462, 0, 0]]
    }, 
    {
      "op": "null", 
      "name": "body.56.body.0.weight", 
      "attrs": {"__shape__": "(64, 64, 3, 3)"}, 
      "inputs": []
    }, 
    {
      "op": "null", 
      "name": "body.56.body.0.bias", 
      "attrs": {"__shape__": "(64,)"}, 
      "inputs": []
    }, 
    {
      "op": "Convolution", 
      "name": "convolution118", 
      "attrs": {
        "dilate": "(1, 1)", 
        "kernel": "(3, 3)", 
        "layout": "NCHW", 
        "no_bias": "False", 
        "num_filter": "64", 
        "num_group": "1", 
        "pad": "(1, 1)", 
        "stride": "(1, 1)"
      }, 
      "inputs": [[470, 0, 0], [471, 0, 0], [472, 0, 0]]
    }, 
    {
      "op": "relu", 
      "name": "relu58", 
      "inputs": [[473, 0, 0]]
    }, 
    {
      "op": "null", 
      "name": "body.56.body.2.weight", 
      "attrs": {"__shape__": "(64, 64, 3, 3)"}, 
      "inputs": []
    }, 
    {
      "op": "null", 
      "name": "body.56.body.2.bias", 
      "attrs": {"__shape__": "(64,)"}, 
      "inputs": []
    }, 
    {
      "op": "Convolution", 
      "name": "convolution119", 
      "attrs": {
        "dilate": "(1, 1)", 
        "kernel": "(3, 3)", 
        "layout": "NCHW", 
        "no_bias": "False", 
        "num_filter": "64", 
        "num_group": "1", 
        "pad": "(1, 1)", 
        "stride": "(1, 1)"
      }, 
      "inputs": [[474, 0, 0], [475, 0, 0], [476, 0, 0]]
    }, 
    {
      "op": "broadcast_add", 
      "name": "broadcast_add58", 
      "inputs": [[477, 0, 0], [470, 0, 0]]
    }, 
    {
      "op": "null", 
      "name": "body.57.body.0.weight", 
      "attrs": {"__shape__": "(64, 64, 3, 3)"}, 
      "inputs": []
    }, 
    {
      "op": "null", 
      "name": "body.57.body.0.bias", 
      "attrs": {"__shape__": "(64,)"}, 
      "inputs": []
    }, 
    {
      "op": "Convolution", 
      "name": "convolution120", 
      "attrs": {
        "dilate": "(1, 1)", 
        "kernel": "(3, 3)", 
        "layout": "NCHW", 
        "no_bias": "False", 
        "num_filter": "64", 
        "num_group": "1", 
        "pad": "(1, 1)", 
        "stride": "(1, 1)"
      }, 
      "inputs": [[478, 0, 0], [479, 0, 0], [480, 0, 0]]
    }, 
    {
      "op": "relu", 
      "name": "relu59", 
      "inputs": [[481, 0, 0]]
    }, 
    {
      "op": "null", 
      "name": "body.57.body.2.weight", 
      "attrs": {"__shape__": "(64, 64, 3, 3)"}, 
      "inputs": []
    }, 
    {
      "op": "null", 
      "name": "body.57.body.2.bias", 
      "attrs": {"__shape__": "(64,)"}, 
      "inputs": []
    }, 
    {
      "op": "Convolution", 
      "name": "convolution121", 
      "attrs": {
        "dilate": "(1, 1)", 
        "kernel": "(3, 3)", 
        "layout": "NCHW", 
        "no_bias": "False", 
        "num_filter": "64", 
        "num_group": "1", 
        "pad": "(1, 1)", 
        "stride": "(1, 1)"
      }, 
      "inputs": [[482, 0, 0], [483, 0, 0], [484, 0, 0]]
    }, 
    {
      "op": "broadcast_add", 
      "name": "broadcast_add59", 
      "inputs": [[485, 0, 0], [478, 0, 0]]
    }, 
    {
      "op": "null", 
      "name": "body.58.body.0.weight", 
      "attrs": {"__shape__": "(64, 64, 3, 3)"}, 
      "inputs": []
    }, 
    {
      "op": "null", 
      "name": "body.58.body.0.bias", 
      "attrs": {"__shape__": "(64,)"}, 
      "inputs": []
    }, 
    {
      "op": "Convolution", 
      "name": "convolution122", 
      "attrs": {
        "dilate": "(1, 1)", 
        "kernel": "(3, 3)", 
        "layout": "NCHW", 
        "no_bias": "False", 
        "num_filter": "64", 
        "num_group": "1", 
        "pad": "(1, 1)", 
        "stride": "(1, 1)"
      }, 
      "inputs": [[486, 0, 0], [487, 0, 0], [488, 0, 0]]
    }, 
    {
      "op": "relu", 
      "name": "relu60", 
      "inputs": [[489, 0, 0]]
    }, 
    {
      "op": "null", 
      "name": "body.58.body.2.weight", 
      "attrs": {"__shape__": "(64, 64, 3, 3)"}, 
      "inputs": []
    }, 
    {
      "op": "null", 
      "name": "body.58.body.2.bias", 
      "attrs": {"__shape__": "(64,)"}, 
      "inputs": []
    }, 
    {
      "op": "Convolution", 
      "name": "convolution123", 
      "attrs": {
        "dilate": "(1, 1)", 
        "kernel": "(3, 3)", 
        "layout": "NCHW", 
        "no_bias": "False", 
        "num_filter": "64", 
        "num_group": "1", 
        "pad": "(1, 1)", 
        "stride": "(1, 1)"
      }, 
      "inputs": [[490, 0, 0], [491, 0, 0], [492, 0, 0]]
    }, 
    {
      "op": "broadcast_add", 
      "name": "broadcast_add60", 
      "inputs": [[493, 0, 0], [486, 0, 0]]
    }, 
    {
      "op": "null", 
      "name": "body.59.body.0.weight", 
      "attrs": {"__shape__": "(64, 64, 3, 3)"}, 
      "inputs": []
    }, 
    {
      "op": "null", 
      "name": "body.59.body.0.bias", 
      "attrs": {"__shape__": "(64,)"}, 
      "inputs": []
    }, 
    {
      "op": "Convolution", 
      "name": "convolution124", 
      "attrs": {
        "dilate": "(1, 1)", 
        "kernel": "(3, 3)", 
        "layout": "NCHW", 
        "no_bias": "False", 
        "num_filter": "64", 
        "num_group": "1", 
        "pad": "(1, 1)", 
        "stride": "(1, 1)"
      }, 
      "inputs": [[494, 0, 0], [495, 0, 0], [496, 0, 0]]
    }, 
    {
      "op": "relu", 
      "name": "relu61", 
      "inputs": [[497, 0, 0]]
    }, 
    {
      "op": "null", 
      "name": "body.59.body.2.weight", 
      "attrs": {"__shape__": "(64, 64, 3, 3)"}, 
      "inputs": []
    }, 
    {
      "op": "null", 
      "name": "body.59.body.2.bias", 
      "attrs": {"__shape__": "(64,)"}, 
      "inputs": []
    }, 
    {
      "op": "Convolution", 
      "name": "convolution125", 
      "attrs": {
        "dilate": "(1, 1)", 
        "kernel": "(3, 3)", 
        "layout": "NCHW", 
        "no_bias": "False", 
        "num_filter": "64", 
        "num_group": "1", 
        "pad": "(1, 1)", 
        "stride": "(1, 1)"
      }, 
      "inputs": [[498, 0, 0], [499, 0, 0], [500, 0, 0]]
    }, 
    {
      "op": "broadcast_add", 
      "name": "broadcast_add61", 
      "inputs": [[501, 0, 0], [494, 0, 0]]
    }, 
    {
      "op": "null", 
      "name": "body.60.body.0.weight", 
      "attrs": {"__shape__": "(64, 64, 3, 3)"}, 
      "inputs": []
    }, 
    {
      "op": "null", 
      "name": "body.60.body.0.bias", 
      "attrs": {"__shape__": "(64,)"}, 
      "inputs": []
    }, 
    {
      "op": "Convolution", 
      "name": "convolution126", 
      "attrs": {
        "dilate": "(1, 1)", 
        "kernel": "(3, 3)", 
        "layout": "NCHW", 
        "no_bias": "False", 
        "num_filter": "64", 
        "num_group": "1", 
        "pad": "(1, 1)", 
        "stride": "(1, 1)"
      }, 
      "inputs": [[502, 0, 0], [503, 0, 0], [504, 0, 0]]
    }, 
    {
      "op": "relu", 
      "name": "relu62", 
      "inputs": [[505, 0, 0]]
    }, 
    {
      "op": "null", 
      "name": "body.60.body.2.weight", 
      "attrs": {"__shape__": "(64, 64, 3, 3)"}, 
      "inputs": []
    }, 
    {
      "op": "null", 
      "name": "body.60.body.2.bias", 
      "attrs": {"__shape__": "(64,)"}, 
      "inputs": []
    }, 
    {
      "op": "Convolution", 
      "name": "convolution127", 
      "attrs": {
        "dilate": "(1, 1)", 
        "kernel": "(3, 3)", 
        "layout": "NCHW", 
        "no_bias": "False", 
        "num_filter": "64", 
        "num_group": "1", 
        "pad": "(1, 1)", 
        "stride": "(1, 1)"
      }, 
      "inputs": [[506, 0, 0], [507, 0, 0], [508, 0, 0]]
    }, 
    {
      "op": "broadcast_add", 
      "name": "broadcast_add62", 
      "inputs": [[509, 0, 0], [502, 0, 0]]
    }, 
    {
      "op": "null", 
      "name": "body.61.body.0.weight", 
      "attrs": {"__shape__": "(64, 64, 3, 3)"}, 
      "inputs": []
    }, 
    {
      "op": "null", 
      "name": "body.61.body.0.bias", 
      "attrs": {"__shape__": "(64,)"}, 
      "inputs": []
    }, 
    {
      "op": "Convolution", 
      "name": "convolution128", 
      "attrs": {
        "dilate": "(1, 1)", 
        "kernel": "(3, 3)", 
        "layout": "NCHW", 
        "no_bias": "False", 
        "num_filter": "64", 
        "num_group": "1", 
        "pad": "(1, 1)", 
        "stride": "(1, 1)"
      }, 
      "inputs": [[510, 0, 0], [511, 0, 0], [512, 0, 0]]
    }, 
    {
      "op": "relu", 
      "name": "relu63", 
      "inputs": [[513, 0, 0]]
    }, 
    {
      "op": "null", 
      "name": "body.61.body.2.weight", 
      "attrs": {"__shape__": "(64, 64, 3, 3)"}, 
      "inputs": []
    }, 
    {
      "op": "null", 
      "name": "body.61.body.2.bias", 
      "attrs": {"__shape__": "(64,)"}, 
      "inputs": []
    }, 
    {
      "op": "Convolution", 
      "name": "convolution129", 
      "attrs": {
        "dilate": "(1, 1)", 
        "kernel": "(3, 3)", 
        "layout": "NCHW", 
        "no_bias": "False", 
        "num_filter": "64", 
        "num_group": "1", 
        "pad": "(1, 1)", 
        "stride": "(1, 1)"
      }, 
      "inputs": [[514, 0, 0], [515, 0, 0], [516, 0, 0]]
    }, 
    {
      "op": "broadcast_add", 
      "name": "broadcast_add63", 
      "inputs": [[517, 0, 0], [510, 0, 0]]
    }, 
    {
      "op": "null", 
      "name": "body.62.body.0.weight", 
      "attrs": {"__shape__": "(64, 64, 3, 3)"}, 
      "inputs": []
    }, 
    {
      "op": "null", 
      "name": "body.62.body.0.bias", 
      "attrs": {"__shape__": "(64,)"}, 
      "inputs": []
    }, 
    {
      "op": "Convolution", 
      "name": "convolution130", 
      "attrs": {
        "dilate": "(1, 1)", 
        "kernel": "(3, 3)", 
        "layout": "NCHW", 
        "no_bias": "False", 
        "num_filter": "64", 
        "num_group": "1", 
        "pad": "(1, 1)", 
        "stride": "(1, 1)"
      }, 
      "inputs": [[518, 0, 0], [519, 0, 0], [520, 0, 0]]
    }, 
    {
      "op": "relu", 
      "name": "relu64", 
      "inputs": [[521, 0, 0]]
    }, 
    {
      "op": "null", 
      "name": "body.62.body.2.weight", 
      "attrs": {"__shape__": "(64, 64, 3, 3)"}, 
      "inputs": []
    }, 
    {
      "op": "null", 
      "name": "body.62.body.2.bias", 
      "attrs": {"__shape__": "(64,)"}, 
      "inputs": []
    }, 
    {
      "op": "Convolution", 
      "name": "convolution131", 
      "attrs": {
        "dilate": "(1, 1)", 
        "kernel": "(3, 3)", 
        "layout": "NCHW", 
        "no_bias": "False", 
        "num_filter": "64", 
        "num_group": "1", 
        "pad": "(1, 1)", 
        "stride": "(1, 1)"
      }, 
      "inputs": [[522, 0, 0], [523, 0, 0], [524, 0, 0]]
    }, 
    {
      "op": "broadcast_add", 
      "name": "broadcast_add64", 
      "inputs": [[525, 0, 0], [518, 0, 0]]
    }, 
    {
      "op": "null", 
      "name": "body.63.body.0.weight", 
      "attrs": {"__shape__": "(64, 64, 3, 3)"}, 
      "inputs": []
    }, 
    {
      "op": "null", 
      "name": "body.63.body.0.bias", 
      "attrs": {"__shape__": "(64,)"}, 
      "inputs": []
    }, 
    {
      "op": "Convolution", 
      "name": "convolution132", 
      "attrs": {
        "dilate": "(1, 1)", 
        "kernel": "(3, 3)", 
        "layout": "NCHW", 
        "no_bias": "False", 
        "num_filter": "64", 
        "num_group": "1", 
        "pad": "(1, 1)", 
        "stride": "(1, 1)"
      }, 
      "inputs": [[526, 0, 0], [527, 0, 0], [528, 0, 0]]
    }, 
    {
      "op": "relu", 
      "name": "relu65", 
      "inputs": [[529, 0, 0]]
    }, 
    {
      "op": "null", 
      "name": "body.63.body.2.weight", 
      "attrs": {"__shape__": "(64, 64, 3, 3)"}, 
      "inputs": []
    }, 
    {
      "op": "null", 
      "name": "body.63.body.2.bias", 
      "attrs": {"__shape__": "(64,)"}, 
      "inputs": []
    }, 
    {
      "op": "Convolution", 
      "name": "convolution133", 
      "attrs": {
        "dilate": "(1, 1)", 
        "kernel": "(3, 3)", 
        "layout": "NCHW", 
        "no_bias": "False", 
        "num_filter": "64", 
        "num_group": "1", 
        "pad": "(1, 1)", 
        "stride": "(1, 1)"
      }, 
      "inputs": [[530, 0, 0], [531, 0, 0], [532, 0, 0]]
    }, 
    {
      "op": "broadcast_add", 
      "name": "broadcast_add65", 
      "inputs": [[533, 0, 0], [526, 0, 0]]
    }, 
    {
      "op": "null", 
      "name": "body.64.body.0.weight", 
      "attrs": {"__shape__": "(64, 64, 3, 3)"}, 
      "inputs": []
    }, 
    {
      "op": "null", 
      "name": "body.64.body.0.bias", 
      "attrs": {"__shape__": "(64,)"}, 
      "inputs": []
    }, 
    {
      "op": "Convolution", 
      "name": "convolution134", 
      "attrs": {
        "dilate": "(1, 1)", 
        "kernel": "(3, 3)", 
        "layout": "NCHW", 
        "no_bias": "False", 
        "num_filter": "64", 
        "num_group": "1", 
        "pad": "(1, 1)", 
        "stride": "(1, 1)"
      }, 
      "inputs": [[534, 0, 0], [535, 0, 0], [536, 0, 0]]
    }, 
    {
      "op": "relu", 
      "name": "relu66", 
      "inputs": [[537, 0, 0]]
    }, 
    {
      "op": "null", 
      "name": "body.64.body.2.weight", 
      "attrs": {"__shape__": "(64, 64, 3, 3)"}, 
      "inputs": []
    }, 
    {
      "op": "null", 
      "name": "body.64.body.2.bias", 
      "attrs": {"__shape__": "(64,)"}, 
      "inputs": []
    }, 
    {
      "op": "Convolution", 
      "name": "convolution135", 
      "attrs": {
        "dilate": "(1, 1)", 
        "kernel": "(3, 3)", 
        "layout": "NCHW", 
        "no_bias": "False", 
        "num_filter": "64", 
        "num_group": "1", 
        "pad": "(1, 1)", 
        "stride": "(1, 1)"
      }, 
      "inputs": [[538, 0, 0], [539, 0, 0], [540, 0, 0]]
    }, 
    {
      "op": "broadcast_add", 
      "name": "broadcast_add66", 
      "inputs": [[541, 0, 0], [534, 0, 0]]
    }, 
    {
      "op": "null", 
      "name": "body.65.body.0.weight", 
      "attrs": {"__shape__": "(64, 64, 3, 3)"}, 
      "inputs": []
    }, 
    {
      "op": "null", 
      "name": "body.65.body.0.bias", 
      "attrs": {"__shape__": "(64,)"}, 
      "inputs": []
    }, 
    {
      "op": "Convolution", 
      "name": "convolution136", 
      "attrs": {
        "dilate": "(1, 1)", 
        "kernel": "(3, 3)", 
        "layout": "NCHW", 
        "no_bias": "False", 
        "num_filter": "64", 
        "num_group": "1", 
        "pad": "(1, 1)", 
        "stride": "(1, 1)"
      }, 
      "inputs": [[542, 0, 0], [543, 0, 0], [544, 0, 0]]
    }, 
    {
      "op": "relu", 
      "name": "relu67", 
      "inputs": [[545, 0, 0]]
    }, 
    {
      "op": "null", 
      "name": "body.65.body.2.weight", 
      "attrs": {"__shape__": "(64, 64, 3, 3)"}, 
      "inputs": []
    }, 
    {
      "op": "null", 
      "name": "body.65.body.2.bias", 
      "attrs": {"__shape__": "(64,)"}, 
      "inputs": []
    }, 
    {
      "op": "Convolution", 
      "name": "convolution137", 
      "attrs": {
        "dilate": "(1, 1)", 
        "kernel": "(3, 3)", 
        "layout": "NCHW", 
        "no_bias": "False", 
        "num_filter": "64", 
        "num_group": "1", 
        "pad": "(1, 1)", 
        "stride": "(1, 1)"
      }, 
      "inputs": [[546, 0, 0], [547, 0, 0], [548, 0, 0]]
    }, 
    {
      "op": "broadcast_add", 
      "name": "broadcast_add67", 
      "inputs": [[549, 0, 0], [542, 0, 0]]
    }, 
    {
      "op": "null", 
      "name": "body.66.body.0.weight", 
      "attrs": {"__shape__": "(64, 64, 3, 3)"}, 
      "inputs": []
    }, 
    {
      "op": "null", 
      "name": "body.66.body.0.bias", 
      "attrs": {"__shape__": "(64,)"}, 
      "inputs": []
    }, 
    {
      "op": "Convolution", 
      "name": "convolution138", 
      "attrs": {
        "dilate": "(1, 1)", 
        "kernel": "(3, 3)", 
        "layout": "NCHW", 
        "no_bias": "False", 
        "num_filter": "64", 
        "num_group": "1", 
        "pad": "(1, 1)", 
        "stride": "(1, 1)"
      }, 
      "inputs": [[550, 0, 0], [551, 0, 0], [552, 0, 0]]
    }, 
    {
      "op": "relu", 
      "name": "relu68", 
      "inputs": [[553, 0, 0]]
    }, 
    {
      "op": "null", 
      "name": "body.66.body.2.weight", 
      "attrs": {"__shape__": "(64, 64, 3, 3)"}, 
      "inputs": []
    }, 
    {
      "op": "null", 
      "name": "body.66.body.2.bias", 
      "attrs": {"__shape__": "(64,)"}, 
      "inputs": []
    }, 
    {
      "op": "Convolution", 
      "name": "convolution139", 
      "attrs": {
        "dilate": "(1, 1)", 
        "kernel": "(3, 3)", 
        "layout": "NCHW", 
        "no_bias": "False", 
        "num_filter": "64", 
        "num_group": "1", 
        "pad": "(1, 1)", 
        "stride": "(1, 1)"
      }, 
      "inputs": [[554, 0, 0], [555, 0, 0], [556, 0, 0]]
    }, 
    {
      "op": "broadcast_add", 
      "name": "broadcast_add68", 
      "inputs": [[557, 0, 0], [550, 0, 0]]
    }, 
    {
      "op": "null", 
      "name": "body.67.body.0.weight", 
      "attrs": {"__shape__": "(64, 64, 3, 3)"}, 
      "inputs": []
    }, 
    {
      "op": "null", 
      "name": "body.67.body.0.bias", 
      "attrs": {"__shape__": "(64,)"}, 
      "inputs": []
    }, 
    {
      "op": "Convolution", 
      "name": "convolution140", 
      "attrs": {
        "dilate": "(1, 1)", 
        "kernel": "(3, 3)", 
        "layout": "NCHW", 
        "no_bias": "False", 
        "num_filter": "64", 
        "num_group": "1", 
        "pad": "(1, 1)", 
        "stride": "(1, 1)"
      }, 
      "inputs": [[558, 0, 0], [559, 0, 0], [560, 0, 0]]
    }, 
    {
      "op": "relu", 
      "name": "relu69", 
      "inputs": [[561, 0, 0]]
    }, 
    {
      "op": "null", 
      "name": "body.67.body.2.weight", 
      "attrs": {"__shape__": "(64, 64, 3, 3)"}, 
      "inputs": []
    }, 
    {
      "op": "null", 
      "name": "body.67.body.2.bias", 
      "attrs": {"__shape__": "(64,)"}, 
      "inputs": []
    }, 
    {
      "op": "Convolution", 
      "name": "convolution141", 
      "attrs": {
        "dilate": "(1, 1)", 
        "kernel": "(3, 3)", 
        "layout": "NCHW", 
        "no_bias": "False", 
        "num_filter": "64", 
        "num_group": "1", 
        "pad": "(1, 1)", 
        "stride": "(1, 1)"
      }, 
      "inputs": [[562, 0, 0], [563, 0, 0], [564, 0, 0]]
    }, 
    {
      "op": "broadcast_add", 
      "name": "broadcast_add69", 
      "inputs": [[565, 0, 0], [558, 0, 0]]
    }, 
    {
      "op": "null", 
      "name": "body.68.body.0.weight", 
      "attrs": {"__shape__": "(64, 64, 3, 3)"}, 
      "inputs": []
    }, 
    {
      "op": "null", 
      "name": "body.68.body.0.bias", 
      "attrs": {"__shape__": "(64,)"}, 
      "inputs": []
    }, 
    {
      "op": "Convolution", 
      "name": "convolution142", 
      "attrs": {
        "dilate": "(1, 1)", 
        "kernel": "(3, 3)", 
        "layout": "NCHW", 
        "no_bias": "False", 
        "num_filter": "64", 
        "num_group": "1", 
        "pad": "(1, 1)", 
        "stride": "(1, 1)"
      }, 
      "inputs": [[566, 0, 0], [567, 0, 0], [568, 0, 0]]
    }, 
    {
      "op": "relu", 
      "name": "relu70", 
      "inputs": [[569, 0, 0]]
    }, 
    {
      "op": "null", 
      "name": "body.68.body.2.weight", 
      "attrs": {"__shape__": "(64, 64, 3, 3)"}, 
      "inputs": []
    }, 
    {
      "op": "null", 
      "name": "body.68.body.2.bias", 
      "attrs": {"__shape__": "(64,)"}, 
      "inputs": []
    }, 
    {
      "op": "Convolution", 
      "name": "convolution143", 
      "attrs": {
        "dilate": "(1, 1)", 
        "kernel": "(3, 3)", 
        "layout": "NCHW", 
        "no_bias": "False", 
        "num_filter": "64", 
        "num_group": "1", 
        "pad": "(1, 1)", 
        "stride": "(1, 1)"
      }, 
      "inputs": [[570, 0, 0], [571, 0, 0], [572, 0, 0]]
    }, 
    {
      "op": "broadcast_add", 
      "name": "broadcast_add70", 
      "inputs": [[573, 0, 0], [566, 0, 0]]
    }, 
    {
      "op": "null", 
      "name": "body.69.body.0.weight", 
      "attrs": {"__shape__": "(64, 64, 3, 3)"}, 
      "inputs": []
    }, 
    {
      "op": "null", 
      "name": "body.69.body.0.bias", 
      "attrs": {"__shape__": "(64,)"}, 
      "inputs": []
    }, 
    {
      "op": "Convolution", 
      "name": "convolution144", 
      "attrs": {
        "dilate": "(1, 1)", 
        "kernel": "(3, 3)", 
        "layout": "NCHW", 
        "no_bias": "False", 
        "num_filter": "64", 
        "num_group": "1", 
        "pad": "(1, 1)", 
        "stride": "(1, 1)"
      }, 
      "inputs": [[574, 0, 0], [575, 0, 0], [576, 0, 0]]
    }, 
    {
      "op": "relu", 
      "name": "relu71", 
      "inputs": [[577, 0, 0]]
    }, 
    {
      "op": "null", 
      "name": "body.69.body.2.weight", 
      "attrs": {"__shape__": "(64, 64, 3, 3)"}, 
      "inputs": []
    }, 
    {
      "op": "null", 
      "name": "body.69.body.2.bias", 
      "attrs": {"__shape__": "(64,)"}, 
      "inputs": []
    }, 
    {
      "op": "Convolution", 
      "name": "convolution145", 
      "attrs": {
        "dilate": "(1, 1)", 
        "kernel": "(3, 3)", 
        "layout": "NCHW", 
        "no_bias": "False", 
        "num_filter": "64", 
        "num_group": "1", 
        "pad": "(1, 1)", 
        "stride": "(1, 1)"
      }, 
      "inputs": [[578, 0, 0], [579, 0, 0], [580, 0, 0]]
    }, 
    {
      "op": "broadcast_add", 
      "name": "broadcast_add71", 
      "inputs": [[581, 0, 0], [574, 0, 0]]
    }, 
    {
      "op": "null", 
      "name": "body.70.body.0.weight", 
      "attrs": {"__shape__": "(64, 64, 3, 3)"}, 
      "inputs": []
    }, 
    {
      "op": "null", 
      "name": "body.70.body.0.bias", 
      "attrs": {"__shape__": "(64,)"}, 
      "inputs": []
    }, 
    {
      "op": "Convolution", 
      "name": "convolution146", 
      "attrs": {
        "dilate": "(1, 1)", 
        "kernel": "(3, 3)", 
        "layout": "NCHW", 
        "no_bias": "False", 
        "num_filter": "64", 
        "num_group": "1", 
        "pad": "(1, 1)", 
        "stride": "(1, 1)"
      }, 
      "inputs": [[582, 0, 0], [583, 0, 0], [584, 0, 0]]
    }, 
    {
      "op": "relu", 
      "name": "relu72", 
      "inputs": [[585, 0, 0]]
    }, 
    {
      "op": "null", 
      "name": "body.70.body.2.weight", 
      "attrs": {"__shape__": "(64, 64, 3, 3)"}, 
      "inputs": []
    }, 
    {
      "op": "null", 
      "name": "body.70.body.2.bias", 
      "attrs": {"__shape__": "(64,)"}, 
      "inputs": []
    }, 
    {
      "op": "Convolution", 
      "name": "convolution147", 
      "attrs": {
        "dilate": "(1, 1)", 
        "kernel": "(3, 3)", 
        "layout": "NCHW", 
        "no_bias": "False", 
        "num_filter": "64", 
        "num_group": "1", 
        "pad": "(1, 1)", 
        "stride": "(1, 1)"
      }, 
      "inputs": [[586, 0, 0], [587, 0, 0], [588, 0, 0]]
    }, 
    {
      "op": "broadcast_add", 
      "name": "broadcast_add72", 
      "inputs": [[589, 0, 0], [582, 0, 0]]
    }, 
    {
      "op": "null", 
      "name": "body.71.body.0.weight", 
      "attrs": {"__shape__": "(64, 64, 3, 3)"}, 
      "inputs": []
    }, 
    {
      "op": "null", 
      "name": "body.71.body.0.bias", 
      "attrs": {"__shape__": "(64,)"}, 
      "inputs": []
    }, 
    {
      "op": "Convolution", 
      "name": "convolution148", 
      "attrs": {
        "dilate": "(1, 1)", 
        "kernel": "(3, 3)", 
        "layout": "NCHW", 
        "no_bias": "False", 
        "num_filter": "64", 
        "num_group": "1", 
        "pad": "(1, 1)", 
        "stride": "(1, 1)"
      }, 
      "inputs": [[590, 0, 0], [591, 0, 0], [592, 0, 0]]
    }, 
    {
      "op": "relu", 
      "name": "relu73", 
      "inputs": [[593, 0, 0]]
    }, 
    {
      "op": "null", 
      "name": "body.71.body.2.weight", 
      "attrs": {"__shape__": "(64, 64, 3, 3)"}, 
      "inputs": []
    }, 
    {
      "op": "null", 
      "name": "body.71.body.2.bias", 
      "attrs": {"__shape__": "(64,)"}, 
      "inputs": []
    }, 
    {
      "op": "Convolution", 
      "name": "convolution149", 
      "attrs": {
        "dilate": "(1, 1)", 
        "kernel": "(3, 3)", 
        "layout": "NCHW", 
        "no_bias": "False", 
        "num_filter": "64", 
        "num_group": "1", 
        "pad": "(1, 1)", 
        "stride": "(1, 1)"
      }, 
      "inputs": [[594, 0, 0], [595, 0, 0], [596, 0, 0]]
    }, 
    {
      "op": "broadcast_add", 
      "name": "broadcast_add73", 
      "inputs": [[597, 0, 0], [590, 0, 0]]
    }, 
    {
      "op": "null", 
      "name": "body.72.body.0.weight", 
      "attrs": {"__shape__": "(64, 64, 3, 3)"}, 
      "inputs": []
    }, 
    {
      "op": "null", 
      "name": "body.72.body.0.bias", 
      "attrs": {"__shape__": "(64,)"}, 
      "inputs": []
    }, 
    {
      "op": "Convolution", 
      "name": "convolution150", 
      "attrs": {
        "dilate": "(1, 1)", 
        "kernel": "(3, 3)", 
        "layout": "NCHW", 
        "no_bias": "False", 
        "num_filter": "64", 
        "num_group": "1", 
        "pad": "(1, 1)", 
        "stride": "(1, 1)"
      }, 
      "inputs": [[598, 0, 0], [599, 0, 0], [600, 0, 0]]
    }, 
    {
      "op": "relu", 
      "name": "relu74", 
      "inputs": [[601, 0, 0]]
    }, 
    {
      "op": "null", 
      "name": "body.72.body.2.weight", 
      "attrs": {"__shape__": "(64, 64, 3, 3)"}, 
      "inputs": []
    }, 
    {
      "op": "null", 
      "name": "body.72.body.2.bias", 
      "attrs": {"__shape__": "(64,)"}, 
      "inputs": []
    }, 
    {
      "op": "Convolution", 
      "name": "convolution151", 
      "attrs": {
        "dilate": "(1, 1)", 
        "kernel": "(3, 3)", 
        "layout": "NCHW", 
        "no_bias": "False", 
        "num_filter": "64", 
        "num_group": "1", 
        "pad": "(1, 1)", 
        "stride": "(1, 1)"
      }, 
      "inputs": [[602, 0, 0], [603, 0, 0], [604, 0, 0]]
    }, 
    {
      "op": "broadcast_add", 
      "name": "broadcast_add74", 
      "inputs": [[605, 0, 0], [598, 0, 0]]
    }, 
    {
      "op": "null", 
      "name": "body.73.body.0.weight", 
      "attrs": {"__shape__": "(64, 64, 3, 3)"}, 
      "inputs": []
    }, 
    {
      "op": "null", 
      "name": "body.73.body.0.bias", 
      "attrs": {"__shape__": "(64,)"}, 
      "inputs": []
    }, 
    {
      "op": "Convolution", 
      "name": "convolution152", 
      "attrs": {
        "dilate": "(1, 1)", 
        "kernel": "(3, 3)", 
        "layout": "NCHW", 
        "no_bias": "False", 
        "num_filter": "64", 
        "num_group": "1", 
        "pad": "(1, 1)", 
        "stride": "(1, 1)"
      }, 
      "inputs": [[606, 0, 0], [607, 0, 0], [608, 0, 0]]
    }, 
    {
      "op": "relu", 
      "name": "relu75", 
      "inputs": [[609, 0, 0]]
    }, 
    {
      "op": "null", 
      "name": "body.73.body.2.weight", 
      "attrs": {"__shape__": "(64, 64, 3, 3)"}, 
      "inputs": []
    }, 
    {
      "op": "null", 
      "name": "body.73.body.2.bias", 
      "attrs": {"__shape__": "(64,)"}, 
      "inputs": []
    }, 
    {
      "op": "Convolution", 
      "name": "convolution153", 
      "attrs": {
        "dilate": "(1, 1)", 
        "kernel": "(3, 3)", 
        "layout": "NCHW", 
        "no_bias": "False", 
        "num_filter": "64", 
        "num_group": "1", 
        "pad": "(1, 1)", 
        "stride": "(1, 1)"
      }, 
      "inputs": [[610, 0, 0], [611, 0, 0], [612, 0, 0]]
    }, 
    {
      "op": "broadcast_add", 
      "name": "broadcast_add75", 
      "inputs": [[613, 0, 0], [606, 0, 0]]
    }, 
    {
      "op": "null", 
      "name": "body.74.body.0.weight", 
      "attrs": {"__shape__": "(64, 64, 3, 3)"}, 
      "inputs": []
    }, 
    {
      "op": "null", 
      "name": "body.74.body.0.bias", 
      "attrs": {"__shape__": "(64,)"}, 
      "inputs": []
    }, 
    {
      "op": "Convolution", 
      "name": "convolution154", 
      "attrs": {
        "dilate": "(1, 1)", 
        "kernel": "(3, 3)", 
        "layout": "NCHW", 
        "no_bias": "False", 
        "num_filter": "64", 
        "num_group": "1", 
        "pad": "(1, 1)", 
        "stride": "(1, 1)"
      }, 
      "inputs": [[614, 0, 0], [615, 0, 0], [616, 0, 0]]
    }, 
    {
      "op": "relu", 
      "name": "relu76", 
      "inputs": [[617, 0, 0]]
    }, 
    {
      "op": "null", 
      "name": "body.74.body.2.weight", 
      "attrs": {"__shape__": "(64, 64, 3, 3)"}, 
      "inputs": []
    }, 
    {
      "op": "null", 
      "name": "body.74.body.2.bias", 
      "attrs": {"__shape__": "(64,)"}, 
      "inputs": []
    }, 
    {
      "op": "Convolution", 
      "name": "convolution155", 
      "attrs": {
        "dilate": "(1, 1)", 
        "kernel": "(3, 3)", 
        "layout": "NCHW", 
        "no_bias": "False", 
        "num_filter": "64", 
        "num_group": "1", 
        "pad": "(1, 1)", 
        "stride": "(1, 1)"
      }, 
      "inputs": [[618, 0, 0], [619, 0, 0], [620, 0, 0]]
    }, 
    {
      "op": "broadcast_add", 
      "name": "broadcast_add76", 
      "inputs": [[621, 0, 0], [614, 0, 0]]
    }, 
    {
      "op": "null", 
      "name": "body.75.body.0.weight", 
      "attrs": {"__shape__": "(64, 64, 3, 3)"}, 
      "inputs": []
    }, 
    {
      "op": "null", 
      "name": "body.75.body.0.bias", 
      "attrs": {"__shape__": "(64,)"}, 
      "inputs": []
    }, 
    {
      "op": "Convolution", 
      "name": "convolution156", 
      "attrs": {
        "dilate": "(1, 1)", 
        "kernel": "(3, 3)", 
        "layout": "NCHW", 
        "no_bias": "False", 
        "num_filter": "64", 
        "num_group": "1", 
        "pad": "(1, 1)", 
        "stride": "(1, 1)"
      }, 
      "inputs": [[622, 0, 0], [623, 0, 0], [624, 0, 0]]
    }, 
    {
      "op": "relu", 
      "name": "relu77", 
      "inputs": [[625, 0, 0]]
    }, 
    {
      "op": "null", 
      "name": "body.75.body.2.weight", 
      "attrs": {"__shape__": "(64, 64, 3, 3)"}, 
      "inputs": []
    }, 
    {
      "op": "null", 
      "name": "body.75.body.2.bias", 
      "attrs": {"__shape__": "(64,)"}, 
      "inputs": []
    }, 
    {
      "op": "Convolution", 
      "name": "convolution157", 
      "attrs": {
        "dilate": "(1, 1)", 
        "kernel": "(3, 3)", 
        "layout": "NCHW", 
        "no_bias": "False", 
        "num_filter": "64", 
        "num_group": "1", 
        "pad": "(1, 1)", 
        "stride": "(1, 1)"
      }, 
      "inputs": [[626, 0, 0], [627, 0, 0], [628, 0, 0]]
    }, 
    {
      "op": "broadcast_add", 
      "name": "broadcast_add77", 
      "inputs": [[629, 0, 0], [622, 0, 0]]
    }, 
    {
      "op": "null", 
      "name": "body.76.body.0.weight", 
      "attrs": {"__shape__": "(64, 64, 3, 3)"}, 
      "inputs": []
    }, 
    {
      "op": "null", 
      "name": "body.76.body.0.bias", 
      "attrs": {"__shape__": "(64,)"}, 
      "inputs": []
    }, 
    {
      "op": "Convolution", 
      "name": "convolution158", 
      "attrs": {
        "dilate": "(1, 1)", 
        "kernel": "(3, 3)", 
        "layout": "NCHW", 
        "no_bias": "False", 
        "num_filter": "64", 
        "num_group": "1", 
        "pad": "(1, 1)", 
        "stride": "(1, 1)"
      }, 
      "inputs": [[630, 0, 0], [631, 0, 0], [632, 0, 0]]
    }, 
    {
      "op": "relu", 
      "name": "relu78", 
      "inputs": [[633, 0, 0]]
    }, 
    {
      "op": "null", 
      "name": "body.76.body.2.weight", 
      "attrs": {"__shape__": "(64, 64, 3, 3)"}, 
      "inputs": []
    }, 
    {
      "op": "null", 
      "name": "body.76.body.2.bias", 
      "attrs": {"__shape__": "(64,)"}, 
      "inputs": []
    }, 
    {
      "op": "Convolution", 
      "name": "convolution159", 
      "attrs": {
        "dilate": "(1, 1)", 
        "kernel": "(3, 3)", 
        "layout": "NCHW", 
        "no_bias": "False", 
        "num_filter": "64", 
        "num_group": "1", 
        "pad": "(1, 1)", 
        "stride": "(1, 1)"
      }, 
      "inputs": [[634, 0, 0], [635, 0, 0], [636, 0, 0]]
    }, 
    {
      "op": "broadcast_add", 
      "name": "broadcast_add78", 
      "inputs": [[637, 0, 0], [630, 0, 0]]
    }, 
    {
      "op": "null", 
      "name": "body.77.body.0.weight", 
      "attrs": {"__shape__": "(64, 64, 3, 3)"}, 
      "inputs": []
    }, 
    {
      "op": "null", 
      "name": "body.77.body.0.bias", 
      "attrs": {"__shape__": "(64,)"}, 
      "inputs": []
    }, 
    {
      "op": "Convolution", 
      "name": "convolution160", 
      "attrs": {
        "dilate": "(1, 1)", 
        "kernel": "(3, 3)", 
        "layout": "NCHW", 
        "no_bias": "False", 
        "num_filter": "64", 
        "num_group": "1", 
        "pad": "(1, 1)", 
        "stride": "(1, 1)"
      }, 
      "inputs": [[638, 0, 0], [639, 0, 0], [640, 0, 0]]
    }, 
    {
      "op": "relu", 
      "name": "relu79", 
      "inputs": [[641, 0, 0]]
    }, 
    {
      "op": "null", 
      "name": "body.77.body.2.weight", 
      "attrs": {"__shape__": "(64, 64, 3, 3)"}, 
      "inputs": []
    }, 
    {
      "op": "null", 
      "name": "body.77.body.2.bias", 
      "attrs": {"__shape__": "(64,)"}, 
      "inputs": []
    }, 
    {
      "op": "Convolution", 
      "name": "convolution161", 
      "attrs": {
        "dilate": "(1, 1)", 
        "kernel": "(3, 3)", 
        "layout": "NCHW", 
        "no_bias": "False", 
        "num_filter": "64", 
        "num_group": "1", 
        "pad": "(1, 1)", 
        "stride": "(1, 1)"
      }, 
      "inputs": [[642, 0, 0], [643, 0, 0], [644, 0, 0]]
    }, 
    {
      "op": "broadcast_add", 
      "name": "broadcast_add79", 
      "inputs": [[645, 0, 0], [638, 0, 0]]
    }, 
    {
      "op": "null", 
      "name": "body.78.body.0.weight", 
      "attrs": {"__shape__": "(64, 64, 3, 3)"}, 
      "inputs": []
    }, 
    {
      "op": "null", 
      "name": "body.78.body.0.bias", 
      "attrs": {"__shape__": "(64,)"}, 
      "inputs": []
    }, 
    {
      "op": "Convolution", 
      "name": "convolution162", 
      "attrs": {
        "dilate": "(1, 1)", 
        "kernel": "(3, 3)", 
        "layout": "NCHW", 
        "no_bias": "False", 
        "num_filter": "64", 
        "num_group": "1", 
        "pad": "(1, 1)", 
        "stride": "(1, 1)"
      }, 
      "inputs": [[646, 0, 0], [647, 0, 0], [648, 0, 0]]
    }, 
    {
      "op": "relu", 
      "name": "relu80", 
      "inputs": [[649, 0, 0]]
    }, 
    {
      "op": "null", 
      "name": "body.78.body.2.weight", 
      "attrs": {"__shape__": "(64, 64, 3, 3)"}, 
      "inputs": []
    }, 
    {
      "op": "null", 
      "name": "body.78.body.2.bias", 
      "attrs": {"__shape__": "(64,)"}, 
      "inputs": []
    }, 
    {
      "op": "Convolution", 
      "name": "convolution163", 
      "attrs": {
        "dilate": "(1, 1)", 
        "kernel": "(3, 3)", 
        "layout": "NCHW", 
        "no_bias": "False", 
        "num_filter": "64", 
        "num_group": "1", 
        "pad": "(1, 1)", 
        "stride": "(1, 1)"
      }, 
      "inputs": [[650, 0, 0], [651, 0, 0], [652, 0, 0]]
    }, 
    {
      "op": "broadcast_add", 
      "name": "broadcast_add80", 
      "inputs": [[653, 0, 0], [646, 0, 0]]
    }, 
    {
      "op": "null", 
      "name": "body.79.body.0.weight", 
      "attrs": {"__shape__": "(64, 64, 3, 3)"}, 
      "inputs": []
    }, 
    {
      "op": "null", 
      "name": "body.79.body.0.bias", 
      "attrs": {"__shape__": "(64,)"}, 
      "inputs": []
    }, 
    {
      "op": "Convolution", 
      "name": "convolution164", 
      "attrs": {
        "dilate": "(1, 1)", 
        "kernel": "(3, 3)", 
        "layout": "NCHW", 
        "no_bias": "False", 
        "num_filter": "64", 
        "num_group": "1", 
        "pad": "(1, 1)", 
        "stride": "(1, 1)"
      }, 
      "inputs": [[654, 0, 0], [655, 0, 0], [656, 0, 0]]
    }, 
    {
      "op": "relu", 
      "name": "relu81", 
      "inputs": [[657, 0, 0]]
    }, 
    {
      "op": "null", 
      "name": "body.79.body.2.weight", 
      "attrs": {"__shape__": "(64, 64, 3, 3)"}, 
      "inputs": []
    }, 
    {
      "op": "null", 
      "name": "body.79.body.2.bias", 
      "attrs": {"__shape__": "(64,)"}, 
      "inputs": []
    }, 
    {
      "op": "Convolution", 
      "name": "convolution165", 
      "attrs": {
        "dilate": "(1, 1)", 
        "kernel": "(3, 3)", 
        "layout": "NCHW", 
        "no_bias": "False", 
        "num_filter": "64", 
        "num_group": "1", 
        "pad": "(1, 1)", 
        "stride": "(1, 1)"
      }, 
      "inputs": [[658, 0, 0], [659, 0, 0], [660, 0, 0]]
    }, 
    {
      "op": "broadcast_add", 
      "name": "broadcast_add81", 
      "inputs": [[661, 0, 0], [654, 0, 0]]
    }, 
    {
      "op": "null", 
      "name": "body.80.weight", 
      "attrs": {"__shape__": "(64, 64, 3, 3)"}, 
      "inputs": []
    }, 
    {
      "op": "null", 
      "name": "body.80.bias", 
      "attrs": {"__shape__": "(64,)"}, 
      "inputs": []
    }, 
    {
      "op": "Convolution", 
      "name": "convolution166", 
      "attrs": {
        "dilate": "(1, 1)", 
        "kernel": "(3, 3)", 
        "layout": "NCHW", 
        "no_bias": "False", 
        "num_filter": "64", 
        "num_group": "1", 
        "pad": "(1, 1)", 
        "stride": "(1, 1)"
      }, 
      "inputs": [[662, 0, 0], [663, 0, 0], [664, 0, 0]]
    }, 
    {
      "op": "broadcast_add", 
      "name": "broadcast_add82", 
      "inputs": [[665, 0, 0], [22, 0, 0]]
    }, 
    {
      "op": "null", 
      "name": "upsample.0.0.weight", 
      "attrs": {"__shape__": "(256, 64, 3, 3)"}, 
      "inputs": []
    }, 
    {
      "op": "null", 
      "name": "upsample.0.0.bias", 
      "attrs": {"__shape__": "(256,)"}, 
      "inputs": []
    }, 
    {
      "op": "Convolution", 
      "name": "convolution167", 
      "attrs": {
        "dilate": "(1, 1)", 
        "kernel": "(3, 3)", 
        "layout": "NCHW", 
        "no_bias": "False", 
        "num_filter": "256", 
        "num_group": "1", 
        "pad": "(1, 1)", 
        "stride": "(1, 1)"
      }, 
      "inputs": [[666, 0, 0], [667, 0, 0], [668, 0, 0]]
    }, 
    {
      "op": "Reshape", 
      "name": "reshape0", 
      "attrs": {"shape": "(0, -4, -1, 4, 0, 0)"}, 
      "inputs": [[669, 0, 0]]
    }, 
    {
      "op": "Reshape", 
      "name": "reshape1", 
      "attrs": {"shape": "(0, 0, -4, 2, 2, 0, 0)"}, 
      "inputs": [[670, 0, 0]]
    }, 
    {
      "op": "transpose", 
      "name": "transpose0", 
      "attrs": {"axes": "(0, 1, 4, 2, 5, 3)"}, 
      "inputs": [[671, 0, 0]]
    }, 
    {
      "op": "Reshape", 
      "name": "reshape2", 
      "attrs": {"shape": "(0, 0, -3, -3)"}, 
      "inputs": [[672, 0, 0]]
    }, 
    {
      "op": "null", 
      "name": "tail.0.weight", 
      "attrs": {"__shape__": "(3, 64, 3, 3)"}, 
      "inputs": []
    }, 
    {
      "op": "null", 
      "name": "tail.0.bias", 
      "attrs": {"__shape__": "(3,)"}, 
      "inputs": []
    }, 
    {
      "op": "Convolution", 
      "name": "convolution168", 
      "attrs": {
        "dilate": "(1, 1)", 
        "kernel": "(3, 3)", 
        "layout": "NCHW", 
        "no_bias": "False", 
        "num_filter": "3", 
        "num_group": "1", 
        "pad": "(1, 1)", 
        "stride": "(1, 1)"
      }, 
      "inputs": [[673, 0, 0], [674, 0, 0], [675, 0, 0]]
    }, 
    {
      "op": "null", 
      "name": "add_mean.weight", 
      "attrs": {"__shape__": "(3, 3, 1, 1)"}, 
      "inputs": []
    }, 
    {
      "op": "null", 
      "name": "add_mean.bias", 
      "attrs": {"__shape__": "(3,)"}, 
      "inputs": []
    }, 
    {
      "op": "Convolution", 
      "name": "convolution169", 
      "attrs": {
        "dilate": "(1, 1)", 
        "kernel": "(1, 1)", 
        "layout": "NCHW", 
        "no_bias": "False", 
        "num_filter": "3", 
        "num_group": "1", 
        "pad": "(0, 0)", 
        "stride": "(1, 1)"
      }, 
      "inputs": [[676, 0, 0], [677, 0, 0], [678, 0, 0]]
    }
  ], 
  "arg_nodes": [
    0, 
    1, 
    2, 
    4, 
    5, 
    7, 
    8, 
    11, 
    12, 
    15, 
    16, 
    19, 
    20, 
    23, 
    24, 
    27, 
    28, 
    31, 
    32, 
    35, 
    36, 
    39, 
    40, 
    43, 
    44, 
    47, 
    48, 
    51, 
    52, 
    55, 
    56, 
    59, 
    60, 
    63, 
    64, 
    67, 
    68, 
    71, 
    72, 
    75, 
    76, 
    79, 
    80, 
    83, 
    84, 
    87, 
    88, 
    91, 
    92, 
    95, 
    96, 
    99, 
    100, 
    103, 
    104, 
    107, 
    108, 
    111, 
    112, 
    115, 
    116, 
    119, 
    120, 
    123, 
    124, 
    127, 
    128, 
    131, 
    132, 
    135, 
    136, 
    139, 
    140, 
    143, 
    144, 
    147, 
    148, 
    151, 
    152, 
    155, 
    156, 
    159, 
    160, 
    163, 
    164, 
    167, 
    168, 
    171, 
    172, 
    175, 
    176, 
    179, 
    180, 
    183, 
    184, 
    187, 
    188, 
    191, 
    192, 
    195, 
    196, 
    199, 
    200, 
    203, 
    204, 
    207, 
    208, 
    211, 
    212, 
    215, 
    216, 
    219, 
    220, 
    223, 
    224, 
    227, 
    228, 
    231, 
    232, 
    235, 
    236, 
    239, 
    240, 
    243, 
    244, 
    247, 
    248, 
    251, 
    252, 
    255, 
    256, 
    259, 
    260, 
    263, 
    264, 
    267, 
    268, 
    271, 
    272, 
    275, 
    276, 
    279, 
    280, 
    283, 
    284, 
    287, 
    288, 
    291, 
    292, 
    295, 
    296, 
    299, 
    300, 
    303, 
    304, 
    307, 
    308, 
    311, 
    312, 
    315, 
    316, 
    319, 
    320, 
    323, 
    324, 
    327, 
    328, 
    331, 
    332, 
    335, 
    336, 
    339, 
    340, 
    343, 
    344, 
    347, 
    348, 
    351, 
    352, 
    355, 
    356, 
    359, 
    360, 
    363, 
    364, 
    367, 
    368, 
    371, 
    372, 
    375, 
    376, 
    379, 
    380, 
    383, 
    384, 
    387, 
    388, 
    391, 
    392, 
    395, 
    396, 
    399, 
    400, 
    403, 
    404, 
    407, 
    408, 
    411, 
    412, 
    415, 
    416, 
    419, 
    420, 
    423, 
    424, 
    427, 
    428, 
    431, 
    432, 
    435, 
    436, 
    439, 
    440, 
    443, 
    444, 
    447, 
    448, 
    451, 
    452, 
    455, 
    456, 
    459, 
    460, 
    463, 
    464, 
    467, 
    468, 
    471, 
    472, 
    475, 
    476, 
    479, 
    480, 
    483, 
    484, 
    487, 
    488, 
    491, 
    492, 
    495, 
    496, 
    499, 
    500, 
    503, 
    504, 
    507, 
    508, 
    511, 
    512, 
    515, 
    516, 
    519, 
    520, 
    523, 
    524, 
    527, 
    528, 
    531, 
    532, 
    535, 
    536, 
    539, 
    540, 
    543, 
    544, 
    547, 
    548, 
    551, 
    552, 
    555, 
    556, 
    559, 
    560, 
    563, 
    564, 
    567, 
    568, 
    571, 
    572, 
    575, 
    576, 
    579, 
    580, 
    583, 
    584, 
    587, 
    588, 
    591, 
    592, 
    595, 
    596, 
    599, 
    600, 
    603, 
    604, 
    607, 
    608, 
    611, 
    612, 
    615, 
    616, 
    619, 
    620, 
    623, 
    624, 
    627, 
    628, 
    631, 
    632, 
    635, 
    636, 
    639, 
    640, 
    643, 
    644, 
    647, 
    648, 
    651, 
    652, 
    655, 
    656, 
    659, 
    660, 
    663, 
    664, 
    667, 
    668, 
    674, 
    675, 
    677, 
    678
  ], 
  "node_row_ptr": [
    0, 
    1, 
    2, 
    3, 
    4, 
    5, 
    6, 
    7, 
    8, 
    9, 
    10, 
    11, 
    12, 
    13, 
    14, 
    15, 
    16, 
    17, 
    18, 
    19, 
    20, 
    21, 
    22, 
    23, 
    24, 
    25, 
    26, 
    27, 
    28, 
    29, 
    30, 
    31, 
    32, 
    33, 
    34, 
    35, 
    36, 
    37, 
    38, 
    39, 
    40, 
    41, 
    42, 
    43, 
    44, 
    45, 
    46, 
    47, 
    48, 
    49, 
    50, 
    51, 
    52, 
    53, 
    54, 
    55, 
    56, 
    57, 
    58, 
    59, 
    60, 
    61, 
    62, 
    63, 
    64, 
    65, 
    66, 
    67, 
    68, 
    69, 
    70, 
    71, 
    72, 
    73, 
    74, 
    75, 
    76, 
    77, 
    78, 
    79, 
    80, 
    81, 
    82, 
    83, 
    84, 
    85, 
    86, 
    87, 
    88, 
    89, 
    90, 
    91, 
    92, 
    93, 
    94, 
    95, 
    96, 
    97, 
    98, 
    99, 
    100, 
    101, 
    102, 
    103, 
    104, 
    105, 
    106, 
    107, 
    108, 
    109, 
    110, 
    111, 
    112, 
    113, 
    114, 
    115, 
    116, 
    117, 
    118, 
    119, 
    120, 
    121, 
    122, 
    123, 
    124, 
    125, 
    126, 
    127, 
    128, 
    129, 
    130, 
    131, 
    132, 
    133, 
    134, 
    135, 
    136, 
    137, 
    138, 
    139, 
    140, 
    141, 
    142, 
    143, 
    144, 
    145, 
    146, 
    147, 
    148, 
    149, 
    150, 
    151, 
    152, 
    153, 
    154, 
    155, 
    156, 
    157, 
    158, 
    159, 
    160, 
    161, 
    162, 
    163, 
    164, 
    165, 
    166, 
    167, 
    168, 
    169, 
    170, 
    171, 
    172, 
    173, 
    174, 
    175, 
    176, 
    177, 
    178, 
    179, 
    180, 
    181, 
    182, 
    183, 
    184, 
    185, 
    186, 
    187, 
    188, 
    189, 
    190, 
    191, 
    192, 
    193, 
    194, 
    195, 
    196, 
    197, 
    198, 
    199, 
    200, 
    201, 
    202, 
    203, 
    204, 
    205, 
    206, 
    207, 
    208, 
    209, 
    210, 
    211, 
    212, 
    213, 
    214, 
    215, 
    216, 
    217, 
    218, 
    219, 
    220, 
    221, 
    222, 
    223, 
    224, 
    225, 
    226, 
    227, 
    228, 
    229, 
    230, 
    231, 
    232, 
    233, 
    234, 
    235, 
    236, 
    237, 
    238, 
    239, 
    240, 
    241, 
    242, 
    243, 
    244, 
    245, 
    246, 
    247, 
    248, 
    249, 
    250, 
    251, 
    252, 
    253, 
    254, 
    255, 
    256, 
    257, 
    258, 
    259, 
    260, 
    261, 
    262, 
    263, 
    264, 
    265, 
    266, 
    267, 
    268, 
    269, 
    270, 
    271, 
    272, 
    273, 
    274, 
    275, 
    276, 
    277, 
    278, 
    279, 
    280, 
    281, 
    282, 
    283, 
    284, 
    285, 
    286, 
    287, 
    288, 
    289, 
    290, 
    291, 
    292, 
    293, 
    294, 
    295, 
    296, 
    297, 
    298, 
    299, 
    300, 
    301, 
    302, 
    303, 
    304, 
    305, 
    306, 
    307, 
    308, 
    309, 
    310, 
    311, 
    312, 
    313, 
    314, 
    315, 
    316, 
    317, 
    318, 
    319, 
    320, 
    321, 
    322, 
    323, 
    324, 
    325, 
    326, 
    327, 
    328, 
    329, 
    330, 
    331, 
    332, 
    333, 
    334, 
    335, 
    336, 
    337, 
    338, 
    339, 
    340, 
    341, 
    342, 
    343, 
    344, 
    345, 
    346, 
    347, 
    348, 
    349, 
    350, 
    351, 
    352, 
    353, 
    354, 
    355, 
    356, 
    357, 
    358, 
    359, 
    360, 
    361, 
    362, 
    363, 
    364, 
    365, 
    366, 
    367, 
    368, 
    369, 
    370, 
    371, 
    372, 
    373, 
    374, 
    375, 
    376, 
    377, 
    378, 
    379, 
    380, 
    381, 
    382, 
    383, 
    384, 
    385, 
    386, 
    387, 
    388, 
    389, 
    390, 
    391, 
    392, 
    393, 
    394, 
    395, 
    396, 
    397, 
    398, 
    399, 
    400, 
    401, 
    402, 
    403, 
    404, 
    405, 
    406, 
    407, 
    408, 
    409, 
    410, 
    411, 
    412, 
    413, 
    414, 
    415, 
    416, 
    417, 
    418, 
    419, 
    420, 
    421, 
    422, 
    423, 
    424, 
    425, 
    426, 
    427, 
    428, 
    429, 
    430, 
    431, 
    432, 
    433, 
    434, 
    435, 
    436, 
    437, 
    438, 
    439, 
    440, 
    441, 
    442, 
    443, 
    444, 
    445, 
    446, 
    447, 
    448, 
    449, 
    450, 
    451, 
    452, 
    453, 
    454, 
    455, 
    456, 
    457, 
    458, 
    459, 
    460, 
    461, 
    462, 
    463, 
    464, 
    465, 
    466, 
    467, 
    468, 
    469, 
    470, 
    471, 
    472, 
    473, 
    474, 
    475, 
    476, 
    477, 
    478, 
    479, 
    480, 
    481, 
    482, 
    483, 
    484, 
    485, 
    486, 
    487, 
    488, 
    489, 
    490, 
    491, 
    492, 
    493, 
    494, 
    495, 
    496, 
    497, 
    498, 
    499, 
    500, 
    501, 
    502, 
    503, 
    504, 
    505, 
    506, 
    507, 
    508, 
    509, 
    510, 
    511, 
    512, 
    513, 
    514, 
    515, 
    516, 
    517, 
    518, 
    519, 
    520, 
    521, 
    522, 
    523, 
    524, 
    525, 
    526, 
    527, 
    528, 
    529, 
    530, 
    531, 
    532, 
    533, 
    534, 
    535, 
    536, 
    537, 
    538, 
    539, 
    540, 
    541, 
    542, 
    543, 
    544, 
    545, 
    546, 
    547, 
    548, 
    549, 
    550, 
    551, 
    552, 
    553, 
    554, 
    555, 
    556, 
    557, 
    558, 
    559, 
    560, 
    561, 
    562, 
    563, 
    564, 
    565, 
    566, 
    567, 
    568, 
    569, 
    570, 
    571, 
    572, 
    573, 
    574, 
    575, 
    576, 
    577, 
    578, 
    579, 
    580, 
    581, 
    582, 
    583, 
    584, 
    585, 
    586, 
    587, 
    588, 
    589, 
    590, 
    591, 
    592, 
    593, 
    594, 
    595, 
    596, 
    597, 
    598, 
    599, 
    600, 
    601, 
    602, 
    603, 
    604, 
    605, 
    606, 
    607, 
    608, 
    609, 
    610, 
    611, 
    612, 
    613, 
    614, 
    615, 
    616, 
    617, 
    618, 
    619, 
    620, 
    621, 
    622, 
    623, 
    624, 
    625, 
    626, 
    627, 
    628, 
    629, 
    630, 
    631, 
    632, 
    633, 
    634, 
    635, 
    636, 
    637, 
    638, 
    639, 
    640, 
    641, 
    642, 
    643, 
    644, 
    645, 
    646, 
    647, 
    648, 
    649, 
    650, 
    651, 
    652, 
    653, 
    654, 
    655, 
    656, 
    657, 
    658, 
    659, 
    660, 
    661, 
    662, 
    663, 
    664, 
    665, 
    666, 
    667, 
    668, 
    669, 
    670, 
    671, 
    672, 
    673, 
    674, 
    675, 
    676, 
    677, 
    678, 
    679, 
    680
  ], 
  "heads": [[679, 0, 0]], 
  "attrs": {"mxnet_version": ["int", 10300]}
}