{
  "nodes": [
    {
      "op": "null", 
      "name": "data", 
      "inputs": []
    }, 
    {
      "op": "null", 
      "name": "conv1_weight", 
      "attrs": {
        "kernel": "(3, 3)", 
        "no_bias": "False", 
        "num_filter": "64", 
        "pad": "(1, 1)", 
        "stride": "(1, 1)"
      }, 
      "inputs": []
    }, 
    {
      "op": "null", 
      "name": "conv1_bias", 
      "attrs": {
        "kernel": "(3, 3)", 
        "no_bias": "False", 
        "num_filter": "64", 
        "pad": "(1, 1)", 
        "stride": "(1, 1)"
      }, 
      "inputs": []
    }, 
    {
      "op": "Convolution", 
      "name": "conv1", 
      "attrs": {
        "kernel": "(3, 3)", 
        "no_bias": "False", 
        "num_filter": "64", 
        "pad": "(1, 1)", 
        "stride": "(1, 1)"
      }, 
      "inputs": [[0, 0, 0], [1, 0, 0], [2, 0, 0]]
    }, 
    {
      "op": "Activation", 
      "name": "relu1", 
      "attrs": {"act_type": "relu"}, 
      "inputs": [[3, 0, 0]]
    }, 
    {
      "op": "null", 
      "name": "conv2_weight", 
      "attrs": {
        "kernel": "(3, 3)", 
        "no_bias": "False", 
        "num_filter": "64", 
        "pad": "(1, 1)", 
        "stride": "(1, 1)"
      }, 
      "inputs": []
    }, 
    {
      "op": "null", 
      "name": "conv2_bias", 
      "attrs": {
        "kernel": "(3, 3)", 
        "no_bias": "False", 
        "num_filter": "64", 
        "pad": "(1, 1)", 
        "stride": "(1, 1)"
      }, 
      "inputs": []
    }, 
    {
      "op": "Convolution", 
      "name": "conv2", 
      "attrs": {
        "kernel": "(3, 3)", 
        "no_bias": "False", 
        "num_filter": "64", 
        "pad": "(1, 1)", 
        "stride": "(1, 1)"
      }, 
      "inputs": [[4, 0, 0], [5, 0, 0], [6, 0, 0]]
    }, 
    {
      "op": "Activation", 
      "name": "relu2", 
      "attrs": {"act_type": "relu"}, 
      "inputs": [[7, 0, 0]]
    }, 
    {
      "op": "null", 
      "name": "conv3_weight", 
      "attrs": {
        "kernel": "(3, 3)", 
        "no_bias": "False", 
        "num_filter": "64", 
        "pad": "(1, 1)", 
        "stride": "(1, 1)"
      }, 
      "inputs": []
    }, 
    {
      "op": "null", 
      "name": "conv3_bias", 
      "attrs": {
        "kernel": "(3, 3)", 
        "no_bias": "False", 
        "num_filter": "64", 
        "pad": "(1, 1)", 
        "stride": "(1, 1)"
      }, 
      "inputs": []
    }, 
    {
      "op": "Convolution", 
      "name": "conv3", 
      "attrs": {
        "kernel": "(3, 3)", 
        "no_bias": "False", 
        "num_filter": "64", 
        "pad": "(1, 1)", 
        "stride": "(1, 1)"
      }, 
      "inputs": [[8, 0, 0], [9, 0, 0], [10, 0, 0]]
    }, 
    {
      "op": "Activation", 
      "name": "relu3", 
      "attrs": {"act_type": "relu"}, 
      "inputs": [[11, 0, 0]]
    }, 
    {
      "op": "null", 
      "name": "conv4_weight", 
      "attrs": {
        "kernel": "(3, 3)", 
        "no_bias": "False", 
        "num_filter": "64", 
        "pad": "(1, 1)", 
        "stride": "(1, 1)"
      }, 
      "inputs": []
    }, 
    {
      "op": "null", 
      "name": "conv4_bias", 
      "attrs": {
        "kernel": "(3, 3)", 
        "no_bias": "False", 
        "num_filter": "64", 
        "pad": "(1, 1)", 
        "stride": "(1, 1)"
      }, 
      "inputs": []
    }, 
    {
      "op": "Convolution", 
      "name": "conv4", 
      "attrs": {
        "kernel": "(3, 3)", 
        "no_bias": "False", 
        "num_filter": "64", 
        "pad": "(1, 1)", 
        "stride": "(1, 1)"
      }, 
      "inputs": [[12, 0, 0], [13, 0, 0], [14, 0, 0]]
    }, 
    {
      "op": "Activation", 
      "name": "relu4", 
      "attrs": {"act_type": "relu"}, 
      "inputs": [[15, 0, 0]]
    }, 
    {
      "op": "null", 
      "name": "conv5_weight", 
      "attrs": {
        "kernel": "(3, 3)", 
        "no_bias": "False", 
        "num_filter": "64", 
        "pad": "(1, 1)", 
        "stride": "(1, 1)"
      }, 
      "inputs": []
    }, 
    {
      "op": "null", 
      "name": "conv5_bias", 
      "attrs": {
        "kernel": "(3, 3)", 
        "no_bias": "False", 
        "num_filter": "64", 
        "pad": "(1, 1)", 
        "stride": "(1, 1)"
      }, 
      "inputs": []
    }, 
    {
      "op": "Convolution", 
      "name": "conv5", 
      "attrs": {
        "kernel": "(3, 3)", 
        "no_bias": "False", 
        "num_filter": "64", 
        "pad": "(1, 1)", 
        "stride": "(1, 1)"
      }, 
      "inputs": [[16, 0, 0], [17, 0, 0], [18, 0, 0]]
    }, 
    {
      "op": "Activation", 
      "name": "relu5", 
      "attrs": {"act_type": "relu"}, 
      "inputs": [[19, 0, 0]]
    }, 
    {
      "op": "null", 
      "name": "conv6_weight", 
      "attrs": {
        "kernel": "(3, 3)", 
        "no_bias": "False", 
        "num_filter": "64", 
        "pad": "(1, 1)", 
        "stride": "(1, 1)"
      }, 
      "inputs": []
    }, 
    {
      "op": "null", 
      "name": "conv6_bias", 
      "attrs": {
        "kernel": "(3, 3)", 
        "no_bias": "False", 
        "num_filter": "64", 
        "pad": "(1, 1)", 
        "stride": "(1, 1)"
      }, 
      "inputs": []
    }, 
    {
      "op": "Convolution", 
      "name": "conv6", 
      "attrs": {
        "kernel": "(3, 3)", 
        "no_bias": "False", 
        "num_filter": "64", 
        "pad": "(1, 1)", 
        "stride": "(1, 1)"
      }, 
      "inputs": [[20, 0, 0], [21, 0, 0], [22, 0, 0]]
    }, 
    {
      "op": "Activation", 
      "name": "relu6", 
      "attrs": {"act_type": "relu"}, 
      "inputs": [[23, 0, 0]]
    }, 
    {
      "op": "null", 
      "name": "conv7_weight", 
      "attrs": {
        "kernel": "(3, 3)", 
        "no_bias": "False", 
        "num_filter": "64", 
        "pad": "(1, 1)", 
        "stride": "(1, 1)"
      }, 
      "inputs": []
    }, 
    {
      "op": "null", 
      "name": "conv7_bias", 
      "attrs": {
        "kernel": "(3, 3)", 
        "no_bias": "False", 
        "num_filter": "64", 
        "pad": "(1, 1)", 
        "stride": "(1, 1)"
      }, 
      "inputs": []
    }, 
    {
      "op": "Convolution", 
      "name": "conv7", 
      "attrs": {
        "kernel": "(3, 3)", 
        "no_bias": "False", 
        "num_filter": "64", 
        "pad": "(1, 1)", 
        "stride": "(1, 1)"
      }, 
      "inputs": [[24, 0, 0], [25, 0, 0], [26, 0, 0]]
    }, 
    {
      "op": "Activation", 
      "name": "relu7", 
      "attrs": {"act_type": "relu"}, 
      "inputs": [[27, 0, 0]]
    }, 
    {
      "op": "null", 
      "name": "conv8_weight", 
      "attrs": {
        "kernel": "(3, 3)", 
        "no_bias": "False", 
        "num_filter": "64", 
        "pad": "(1, 1)", 
        "stride": "(1, 1)"
      }, 
      "inputs": []
    }, 
    {
      "op": "null", 
      "name": "conv8_bias", 
      "attrs": {
        "kernel": "(3, 3)", 
        "no_bias": "False", 
        "num_filter": "64", 
        "pad": "(1, 1)", 
        "stride": "(1, 1)"
      }, 
      "inputs": []
    }, 
    {
      "op": "Convolution", 
      "name": "conv8", 
      "attrs": {
        "kernel": "(3, 3)", 
        "no_bias": "False", 
        "num_filter": "64", 
        "pad": "(1, 1)", 
        "stride": "(1, 1)"
      }, 
      "inputs": [[28, 0, 0], [29, 0, 0], [30, 0, 0]]
    }, 
    {
      "op": "Activation", 
      "name": "relu8", 
      "attrs": {"act_type": "relu"}, 
      "inputs": [[31, 0, 0]]
    }, 
    {
      "op": "null", 
      "name": "conv9_weight", 
      "attrs": {
        "kernel": "(3, 3)", 
        "no_bias": "False", 
        "num_filter": "64", 
        "pad": "(1, 1)", 
        "stride": "(1, 1)"
      }, 
      "inputs": []
    }, 
    {
      "op": "null", 
      "name": "conv9_bias", 
      "attrs": {
        "kernel": "(3, 3)", 
        "no_bias": "False", 
        "num_filter": "64", 
        "pad": "(1, 1)", 
        "stride": "(1, 1)"
      }, 
      "inputs": []
    }, 
    {
      "op": "Convolution", 
      "name": "conv9", 
      "attrs": {
        "kernel": "(3, 3)", 
        "no_bias": "False", 
        "num_filter": "64", 
        "pad": "(1, 1)", 
        "stride": "(1, 1)"
      }, 
      "inputs": [[32, 0, 0], [33, 0, 0], [34, 0, 0]]
    }, 
    {
      "op": "Activation", 
      "name": "relu9", 
      "attrs": {"act_type": "relu"}, 
      "inputs": [[35, 0, 0]]
    }, 
    {
      "op": "null", 
      "name": "conv10_weight", 
      "attrs": {
        "kernel": "(3, 3)", 
        "no_bias": "False", 
        "num_filter": "64", 
        "pad": "(1, 1)", 
        "stride": "(1, 1)"
      }, 
      "inputs": []
    }, 
    {
      "op": "null", 
      "name": "conv10_bias", 
      "attrs": {
        "kernel": "(3, 3)", 
        "no_bias": "False", 
        "num_filter": "64", 
        "pad": "(1, 1)", 
        "stride": "(1, 1)"
      }, 
      "inputs": []
    }, 
    {
      "op": "Convolution", 
      "name": "conv10", 
      "attrs": {
        "kernel": "(3, 3)", 
        "no_bias": "False", 
        "num_filter": "64", 
        "pad": "(1, 1)", 
        "stride": "(1, 1)"
      }, 
      "inputs": [[36, 0, 0], [37, 0, 0], [38, 0, 0]]
    }, 
    {
      "op": "Activation", 
      "name": "relu10", 
      "attrs": {"act_type": "relu"}, 
      "inputs": [[39, 0, 0]]
    }, 
    {
      "op": "null", 
      "name": "conv11_weight", 
      "attrs": {
        "kernel": "(3, 3)", 
        "no_bias": "False", 
        "num_filter": "64", 
        "pad": "(1, 1)", 
        "stride": "(1, 1)"
      }, 
      "inputs": []
    }, 
    {
      "op": "null", 
      "name": "conv11_bias", 
      "attrs": {
        "kernel": "(3, 3)", 
        "no_bias": "False", 
        "num_filter": "64", 
        "pad": "(1, 1)", 
        "stride": "(1, 1)"
      }, 
      "inputs": []
    }, 
    {
      "op": "Convolution", 
      "name": "conv11", 
      "attrs": {
        "kernel": "(3, 3)", 
        "no_bias": "False", 
        "num_filter": "64", 
        "pad": "(1, 1)", 
        "stride": "(1, 1)"
      }, 
      "inputs": [[40, 0, 0], [41, 0, 0], [42, 0, 0]]
    }, 
    {
      "op": "Activation", 
      "name": "relu11", 
      "attrs": {"act_type": "relu"}, 
      "inputs": [[43, 0, 0]]
    }, 
    {
      "op": "null", 
      "name": "conv12_weight", 
      "attrs": {
        "kernel": "(3, 3)", 
        "no_bias": "False", 
        "num_filter": "64", 
        "pad": "(1, 1)", 
        "stride": "(1, 1)"
      }, 
      "inputs": []
    }, 
    {
      "op": "null", 
      "name": "conv12_bias", 
      "attrs": {
        "kernel": "(3, 3)", 
        "no_bias": "False", 
        "num_filter": "64", 
        "pad": "(1, 1)", 
        "stride": "(1, 1)"
      }, 
      "inputs": []
    }, 
    {
      "op": "Convolution", 
      "name": "conv12", 
      "attrs": {
        "kernel": "(3, 3)", 
        "no_bias": "False", 
        "num_filter": "64", 
        "pad": "(1, 1)", 
        "stride": "(1, 1)"
      }, 
      "inputs": [[44, 0, 0], [45, 0, 0], [46, 0, 0]]
    }, 
    {
      "op": "Activation", 
      "name": "relu12", 
      "attrs": {"act_type": "relu"}, 
      "inputs": [[47, 0, 0]]
    }, 
    {
      "op": "null", 
      "name": "conv13_weight", 
      "attrs": {
        "kernel": "(3, 3)", 
        "no_bias": "False", 
        "num_filter": "64", 
        "pad": "(1, 1)", 
        "stride": "(1, 1)"
      }, 
      "inputs": []
    }, 
    {
      "op": "null", 
      "name": "conv13_bias", 
      "attrs": {
        "kernel": "(3, 3)", 
        "no_bias": "False", 
        "num_filter": "64", 
        "pad": "(1, 1)", 
        "stride": "(1, 1)"
      }, 
      "inputs": []
    }, 
    {
      "op": "Convolution", 
      "name": "conv13", 
      "attrs": {
        "kernel": "(3, 3)", 
        "no_bias": "False", 
        "num_filter": "64", 
        "pad": "(1, 1)", 
        "stride": "(1, 1)"
      }, 
      "inputs": [[48, 0, 0], [49, 0, 0], [50, 0, 0]]
    }, 
    {
      "op": "Activation", 
      "name": "relu13", 
      "attrs": {"act_type": "relu"}, 
      "inputs": [[51, 0, 0]]
    }, 
    {
      "op": "null", 
      "name": "conv14_weight", 
      "attrs": {
        "kernel": "(3, 3)", 
        "no_bias": "False", 
        "num_filter": "64", 
        "pad": "(1, 1)", 
        "stride": "(1, 1)"
      }, 
      "inputs": []
    }, 
    {
      "op": "null", 
      "name": "conv14_bias", 
      "attrs": {
        "kernel": "(3, 3)", 
        "no_bias": "False", 
        "num_filter": "64", 
        "pad": "(1, 1)", 
        "stride": "(1, 1)"
      }, 
      "inputs": []
    }, 
    {
      "op": "Convolution", 
      "name": "conv14", 
      "attrs": {
        "kernel": "(3, 3)", 
        "no_bias": "False", 
        "num_filter": "64", 
        "pad": "(1, 1)", 
        "stride": "(1, 1)"
      }, 
      "inputs": [[52, 0, 0], [53, 0, 0], [54, 0, 0]]
    }, 
    {
      "op": "Activation", 
      "name": "relu14", 
      "attrs": {"act_type": "relu"}, 
      "inputs": [[55, 0, 0]]
    }, 
    {
      "op": "null", 
      "name": "conv15_weight", 
      "attrs": {
        "kernel": "(3, 3)", 
        "no_bias": "False", 
        "num_filter": "64", 
        "pad": "(1, 1)", 
        "stride": "(1, 1)"
      }, 
      "inputs": []
    }, 
    {
      "op": "null", 
      "name": "conv15_bias", 
      "attrs": {
        "kernel": "(3, 3)", 
        "no_bias": "False", 
        "num_filter": "64", 
        "pad": "(1, 1)", 
        "stride": "(1, 1)"
      }, 
      "inputs": []
    }, 
    {
      "op": "Convolution", 
      "name": "conv15", 
      "attrs": {
        "kernel": "(3, 3)", 
        "no_bias": "False", 
        "num_filter": "64", 
        "pad": "(1, 1)", 
        "stride": "(1, 1)"
      }, 
      "inputs": [[56, 0, 0], [57, 0, 0], [58, 0, 0]]
    }, 
    {
      "op": "Activation", 
      "name": "relu15", 
      "attrs": {"act_type": "relu"}, 
      "inputs": [[59, 0, 0]]
    }, 
    {
      "op": "null", 
      "name": "conv16_weight", 
      "attrs": {
        "kernel": "(3, 3)", 
        "no_bias": "False", 
        "num_filter": "64", 
        "pad": "(1, 1)", 
        "stride": "(1, 1)"
      }, 
      "inputs": []
    }, 
    {
      "op": "null", 
      "name": "conv16_bias", 
      "attrs": {
        "kernel": "(3, 3)", 
        "no_bias": "False", 
        "num_filter": "64", 
        "pad": "(1, 1)", 
        "stride": "(1, 1)"
      }, 
      "inputs": []
    }, 
    {
      "op": "Convolution", 
      "name": "conv16", 
      "attrs": {
        "kernel": "(3, 3)", 
        "no_bias": "False", 
        "num_filter": "64", 
        "pad": "(1, 1)", 
        "stride": "(1, 1)"
      }, 
      "inputs": [[60, 0, 0], [61, 0, 0], [62, 0, 0]]
    }, 
    {
      "op": "Activation", 
      "name": "relu16", 
      "attrs": {"act_type": "relu"}, 
      "inputs": [[63, 0, 0]]
    }, 
    {
      "op": "null", 
      "name": "conv17_weight", 
      "attrs": {
        "kernel": "(3, 3)", 
        "no_bias": "False", 
        "num_filter": "64", 
        "pad": "(1, 1)", 
        "stride": "(1, 1)"
      }, 
      "inputs": []
    }, 
    {
      "op": "null", 
      "name": "conv17_bias", 
      "attrs": {
        "kernel": "(3, 3)", 
        "no_bias": "False", 
        "num_filter": "64", 
        "pad": "(1, 1)", 
        "stride": "(1, 1)"
      }, 
      "inputs": []
    }, 
    {
      "op": "Convolution", 
      "name": "conv17", 
      "attrs": {
        "kernel": "(3, 3)", 
        "no_bias": "False", 
        "num_filter": "64", 
        "pad": "(1, 1)", 
        "stride": "(1, 1)"
      }, 
      "inputs": [[64, 0, 0], [65, 0, 0], [66, 0, 0]]
    }, 
    {
      "op": "Activation", 
      "name": "relu17", 
      "attrs": {"act_type": "relu"}, 
      "inputs": [[67, 0, 0]]
    }, 
    {
      "op": "null", 
      "name": "conv18_weight", 
      "attrs": {
        "kernel": "(3, 3)", 
        "no_bias": "False", 
        "num_filter": "64", 
        "pad": "(1, 1)", 
        "stride": "(1, 1)"
      }, 
      "inputs": []
    }, 
    {
      "op": "null", 
      "name": "conv18_bias", 
      "attrs": {
        "kernel": "(3, 3)", 
        "no_bias": "False", 
        "num_filter": "64", 
        "pad": "(1, 1)", 
        "stride": "(1, 1)"
      }, 
      "inputs": []
    }, 
    {
      "op": "Convolution", 
      "name": "conv18", 
      "attrs": {
        "kernel": "(3, 3)", 
        "no_bias": "False", 
        "num_filter": "64", 
        "pad": "(1, 1)", 
        "stride": "(1, 1)"
      }, 
      "inputs": [[68, 0, 0], [69, 0, 0], [70, 0, 0]]
    }, 
    {
      "op": "Activation", 
      "name": "relu18", 
      "attrs": {"act_type": "relu"}, 
      "inputs": [[71, 0, 0]]
    }, 
    {
      "op": "null", 
      "name": "conv19_weight", 
      "attrs": {
        "kernel": "(3, 3)", 
        "no_bias": "False", 
        "num_filter": "64", 
        "pad": "(1, 1)", 
        "stride": "(1, 1)"
      }, 
      "inputs": []
    }, 
    {
      "op": "null", 
      "name": "conv19_bias", 
      "attrs": {
        "kernel": "(3, 3)", 
        "no_bias": "False", 
        "num_filter": "64", 
        "pad": "(1, 1)", 
        "stride": "(1, 1)"
      }, 
      "inputs": []
    }, 
    {
      "op": "Convolution", 
      "name": "conv19", 
      "attrs": {
        "kernel": "(3, 3)", 
        "no_bias": "False", 
        "num_filter": "64", 
        "pad": "(1, 1)", 
        "stride": "(1, 1)"
      }, 
      "inputs": [[72, 0, 0], [73, 0, 0], [74, 0, 0]]
    }, 
    {
      "op": "Activation", 
      "name": "relu19", 
      "attrs": {"act_type": "relu"}, 
      "inputs": [[75, 0, 0]]
    }, 
    {
      "op": "null", 
      "name": "conv20_weight", 
      "attrs": {
        "kernel": "(3, 3)", 
        "no_bias": "False", 
        "num_filter": "1", 
        "pad": "(1, 1)", 
        "stride": "(1, 1)"
      }, 
      "inputs": []
    }, 
    {
      "op": "null", 
      "name": "conv20_bias", 
      "attrs": {
        "kernel": "(3, 3)", 
        "no_bias": "False", 
        "num_filter": "1", 
        "pad": "(1, 1)", 
        "stride": "(1, 1)"
      }, 
      "inputs": []
    }, 
    {
      "op": "Convolution", 
      "name": "conv20", 
      "attrs": {
        "kernel": "(3, 3)", 
        "no_bias": "False", 
        "num_filter": "1", 
        "pad": "(1, 1)", 
        "stride": "(1, 1)"
      }, 
      "inputs": [[76, 0, 0], [77, 0, 0], [78, 0, 0]]
    }, 
    {
      "op": "broadcast_add", 
      "name": "sum", 
      "inputs": [[0, 0, 0], [79, 0, 0]]
    }
  ], 
  "arg_nodes": [
    0, 
    1, 
    2, 
    5, 
    6, 
    9, 
    10, 
    13, 
    14, 
    17, 
    18, 
    21, 
    22, 
    25, 
    26, 
    29, 
    30, 
    33, 
    34, 
    37, 
    38, 
    41, 
    42, 
    45, 
    46, 
    49, 
    50, 
    53, 
    54, 
    57, 
    58, 
    61, 
    62, 
    65, 
    66, 
    69, 
    70, 
    73, 
    74, 
    77, 
    78
  ], 
  "node_row_ptr": [
    0, 
    1, 
    2, 
    3, 
    4, 
    5, 
    6, 
    7, 
    8, 
    9, 
    10, 
    11, 
    12, 
    13, 
    14, 
    15, 
    16, 
    17, 
    18, 
    19, 
    20, 
    21, 
    22, 
    23, 
    24, 
    25, 
    26, 
    27, 
    28, 
    29, 
    30, 
    31, 
    32, 
    33, 
    34, 
    35, 
    36, 
    37, 
    38, 
    39, 
    40, 
    41, 
    42, 
    43, 
    44, 
    45, 
    46, 
    47, 
    48, 
    49, 
    50, 
    51, 
    52, 
    53, 
    54, 
    55, 
    56, 
    57, 
    58, 
    59, 
    60, 
    61, 
    62, 
    63, 
    64, 
    65, 
    66, 
    67, 
    68, 
    69, 
    70, 
    71, 
    72, 
    73, 
    74, 
    75, 
    76, 
    77, 
    78, 
    79, 
    80, 
    81
  ], 
  "heads": [[80, 0, 0]], 
  "attrs": {"mxnet_version": ["int", 10300]}
}