{
  "nodes": [
    {
      "op": "null", 
      "name": "data", 
      "inputs": []
    }, 
    {
      "op": "null", 
      "name": "learned_1", 
      "attrs": {"__shape__": "(1,)"}, 
      "inputs": []
    }, 
    {
      "op": "null", 
      "name": "learned_2", 
      "attrs": {"__shape__": "(1,)"}, 
      "inputs": []
    }, 
    {
      "op": "null", 
      "name": "learned_3", 
      "attrs": {
        "__init__": "[\"zero\", {}]", 
        "__shape__": "(1,)"
      }, 
      "inputs": []
    }, 
    {
      "op": "null", 
      "name": "learned_4", 
      "attrs": {
        "__init__": "[\"one\", {}]", 
        "__shape__": "(1,)"
      }, 
      "inputs": []
    }, 
    {
      "op": "BatchNorm", 
      "name": "batchnorm0", 
      "attrs": {
        "cudnn_off": "1", 
        "eps": "9.999999747378752e-06", 
        "fix_gamma": "False", 
        "momentum": "0.8999999761581421"
      }, 
      "inputs": [[0, 0, 0], [1, 0, 0], [2, 0, 0], [3, 0, 1], [4, 0, 1]]
    }, 
    {
      "op": "relu", 
      "name": "relu0", 
      "inputs": [[5, 0, 0]]
    }, 
    {
      "op": "Pad", 
      "name": "pad0", 
      "attrs": {
        "mode": "constant", 
        "pad_width": "(0, 0, 0, 0, 1, 1, 1, 1)"
      }, 
      "inputs": [[6, 0, 0]]
    }, 
    {
      "op": "null", 
      "name": "learned_5", 
      "attrs": {"__shape__": "(64, 1, 3, 3)"}, 
      "inputs": []
    }, 
    {
      "op": "null", 
      "name": "learned_6", 
      "attrs": {"__shape__": "(64,)"}, 
      "inputs": []
    }, 
    {
      "op": "Convolution", 
      "name": "convolution0", 
      "attrs": {
        "dilate": "(1, 1)", 
        "kernel": "(3, 3)", 
        "no_bias": "False", 
        "num_filter": "64", 
        "num_group": "1", 
        "stride": "(1, 1)"
      }, 
      "inputs": [[7, 0, 0], [8, 0, 0], [9, 0, 0]]
    }, 
    {
      "op": "null", 
      "name": "learned_13", 
      "attrs": {"__shape__": "(64,)"}, 
      "inputs": []
    }, 
    {
      "op": "null", 
      "name": "learned_14", 
      "attrs": {"__shape__": "(64,)"}, 
      "inputs": []
    }, 
    {
      "op": "null", 
      "name": "learned_15", 
      "attrs": {
        "__init__": "[\"zero\", {}]", 
        "__shape__": "(64,)"
      }, 
      "inputs": []
    }, 
    {
      "op": "null", 
      "name": "learned_16", 
      "attrs": {
        "__init__": "[\"one\", {}]", 
        "__shape__": "(64,)"
      }, 
      "inputs": []
    }, 
    {
      "op": "BatchNorm", 
      "name": "batchnorm1", 
      "attrs": {
        "cudnn_off": "1", 
        "eps": "9.999999747378752e-06", 
        "fix_gamma": "False", 
        "momentum": "0.8999999761581421"
      }, 
      "inputs": [[10, 0, 0], [11, 0, 0], [12, 0, 0], [13, 0, 1], [14, 0, 1]]
    }, 
    {
      "op": "relu", 
      "name": "relu1", 
      "inputs": [[15, 0, 0]]
    }, 
    {
      "op": "Pad", 
      "name": "pad1", 
      "attrs": {
        "mode": "constant", 
        "pad_width": "(0, 0, 0, 0, 1, 1, 1, 1)"
      }, 
      "inputs": [[16, 0, 0]]
    }, 
    {
      "op": "null", 
      "name": "learned_17", 
      "attrs": {"__shape__": "(64, 64, 3, 3)"}, 
      "inputs": []
    }, 
    {
      "op": "null", 
      "name": "learned_18", 
      "attrs": {"__shape__": "(64,)"}, 
      "inputs": []
    }, 
    {
      "op": "Convolution", 
      "name": "convolution1", 
      "attrs": {
        "dilate": "(1, 1)", 
        "kernel": "(3, 3)", 
        "no_bias": "False", 
        "num_filter": "64", 
        "num_group": "1", 
        "stride": "(1, 1)"
      }, 
      "inputs": [[17, 0, 0], [18, 0, 0], [19, 0, 0]]
    }, 
    {
      "op": "null", 
      "name": "learned_19", 
      "attrs": {"__shape__": "(64,)"}, 
      "inputs": []
    }, 
    {
      "op": "null", 
      "name": "learned_20", 
      "attrs": {"__shape__": "(64,)"}, 
      "inputs": []
    }, 
    {
      "op": "null", 
      "name": "learned_21", 
      "attrs": {
        "__init__": "[\"zero\", {}]", 
        "__shape__": "(64,)"
      }, 
      "inputs": []
    }, 
    {
      "op": "null", 
      "name": "learned_22", 
      "attrs": {
        "__init__": "[\"one\", {}]", 
        "__shape__": "(64,)"
      }, 
      "inputs": []
    }, 
    {
      "op": "BatchNorm", 
      "name": "batchnorm2", 
      "attrs": {
        "cudnn_off": "1", 
        "eps": "9.999999747378752e-06", 
        "fix_gamma": "False", 
        "momentum": "0.8999999761581421"
      }, 
      "inputs": [[20, 0, 0], [21, 0, 0], [22, 0, 0], [23, 0, 1], [24, 0, 1]]
    }, 
    {
      "op": "relu", 
      "name": "relu2", 
      "inputs": [[25, 0, 0]]
    }, 
    {
      "op": "Pad", 
      "name": "pad2", 
      "attrs": {
        "mode": "constant", 
        "pad_width": "(0, 0, 0, 0, 1, 1, 1, 1)"
      }, 
      "inputs": [[26, 0, 0]]
    }, 
    {
      "op": "null", 
      "name": "learned_23", 
      "attrs": {"__shape__": "(64, 64, 3, 3)"}, 
      "inputs": []
    }, 
    {
      "op": "null", 
      "name": "learned_24", 
      "attrs": {"__shape__": "(64,)"}, 
      "inputs": []
    }, 
    {
      "op": "Convolution", 
      "name": "convolution2", 
      "attrs": {
        "dilate": "(1, 1)", 
        "kernel": "(3, 3)", 
        "no_bias": "False", 
        "num_filter": "64", 
        "num_group": "1", 
        "stride": "(1, 1)"
      }, 
      "inputs": [[27, 0, 0], [28, 0, 0], [29, 0, 0]]
    }, 
    {
      "op": "broadcast_add", 
      "name": "broadcast_add0", 
      "inputs": [[30, 0, 0], [10, 0, 0]]
    }, 
    {
      "op": "null", 
      "name": "learned_25", 
      "attrs": {"__shape__": "(64,)"}, 
      "inputs": []
    }, 
    {
      "op": "null", 
      "name": "learned_26", 
      "attrs": {"__shape__": "(64,)"}, 
      "inputs": []
    }, 
    {
      "op": "null", 
      "name": "learned_27", 
      "attrs": {
        "__init__": "[\"zero\", {}]", 
        "__shape__": "(64,)"
      }, 
      "inputs": []
    }, 
    {
      "op": "null", 
      "name": "learned_28", 
      "attrs": {
        "__init__": "[\"one\", {}]", 
        "__shape__": "(64,)"
      }, 
      "inputs": []
    }, 
    {
      "op": "BatchNorm", 
      "name": "batchnorm3", 
      "attrs": {
        "cudnn_off": "1", 
        "eps": "9.999999747378752e-06", 
        "fix_gamma": "False", 
        "momentum": "0.8999999761581421"
      }, 
      "inputs": [[31, 0, 0], [32, 0, 0], [33, 0, 0], [34, 0, 1], [35, 0, 1]]
    }, 
    {
      "op": "relu", 
      "name": "relu3", 
      "inputs": [[36, 0, 0]]
    }, 
    {
      "op": "Pad", 
      "name": "pad3", 
      "attrs": {
        "mode": "constant", 
        "pad_width": "(0, 0, 0, 0, 1, 1, 1, 1)"
      }, 
      "inputs": [[37, 0, 0]]
    }, 
    {
      "op": "null", 
      "name": "learned_29", 
      "attrs": {"__shape__": "(64, 64, 3, 3)"}, 
      "inputs": []
    }, 
    {
      "op": "null", 
      "name": "learned_30", 
      "attrs": {"__shape__": "(64,)"}, 
      "inputs": []
    }, 
    {
      "op": "Convolution", 
      "name": "convolution3", 
      "attrs": {
        "dilate": "(1, 1)", 
        "kernel": "(3, 3)", 
        "no_bias": "False", 
        "num_filter": "64", 
        "num_group": "1", 
        "stride": "(1, 1)"
      }, 
      "inputs": [[38, 0, 0], [39, 0, 0], [40, 0, 0]]
    }, 
    {
      "op": "null", 
      "name": "learned_31", 
      "attrs": {"__shape__": "(64,)"}, 
      "inputs": []
    }, 
    {
      "op": "null", 
      "name": "learned_32", 
      "attrs": {"__shape__": "(64,)"}, 
      "inputs": []
    }, 
    {
      "op": "null", 
      "name": "learned_33", 
      "attrs": {
        "__init__": "[\"zero\", {}]", 
        "__shape__": "(64,)"
      }, 
      "inputs": []
    }, 
    {
      "op": "null", 
      "name": "learned_34", 
      "attrs": {
        "__init__": "[\"one\", {}]", 
        "__shape__": "(64,)"
      }, 
      "inputs": []
    }, 
    {
      "op": "BatchNorm", 
      "name": "batchnorm4", 
      "attrs": {
        "cudnn_off": "1", 
        "eps": "9.999999747378752e-06", 
        "fix_gamma": "False", 
        "momentum": "0.8999999761581421"
      }, 
      "inputs": [[41, 0, 0], [42, 0, 0], [43, 0, 0], [44, 0, 1], [45, 0, 1]]
    }, 
    {
      "op": "relu", 
      "name": "relu4", 
      "inputs": [[46, 0, 0]]
    }, 
    {
      "op": "Pad", 
      "name": "pad4", 
      "attrs": {
        "mode": "constant", 
        "pad_width": "(0, 0, 0, 0, 1, 1, 1, 1)"
      }, 
      "inputs": [[47, 0, 0]]
    }, 
    {
      "op": "null", 
      "name": "learned_35", 
      "attrs": {"__shape__": "(64, 64, 3, 3)"}, 
      "inputs": []
    }, 
    {
      "op": "null", 
      "name": "learned_36", 
      "attrs": {"__shape__": "(64,)"}, 
      "inputs": []
    }, 
    {
      "op": "Convolution", 
      "name": "convolution4", 
      "attrs": {
        "dilate": "(1, 1)", 
        "kernel": "(3, 3)", 
        "no_bias": "False", 
        "num_filter": "64", 
        "num_group": "1", 
        "stride": "(1, 1)"
      }, 
      "inputs": [[48, 0, 0], [49, 0, 0], [50, 0, 0]]
    }, 
    {
      "op": "broadcast_add", 
      "name": "broadcast_add1", 
      "inputs": [[51, 0, 0], [31, 0, 0]]
    }, 
    {
      "op": "null", 
      "name": "learned_37", 
      "attrs": {"__shape__": "(64,)"}, 
      "inputs": []
    }, 
    {
      "op": "null", 
      "name": "learned_38", 
      "attrs": {"__shape__": "(64,)"}, 
      "inputs": []
    }, 
    {
      "op": "null", 
      "name": "learned_39", 
      "attrs": {
        "__init__": "[\"zero\", {}]", 
        "__shape__": "(64,)"
      }, 
      "inputs": []
    }, 
    {
      "op": "null", 
      "name": "learned_40", 
      "attrs": {
        "__init__": "[\"one\", {}]", 
        "__shape__": "(64,)"
      }, 
      "inputs": []
    }, 
    {
      "op": "BatchNorm", 
      "name": "batchnorm5", 
      "attrs": {
        "cudnn_off": "1", 
        "eps": "9.999999747378752e-06", 
        "fix_gamma": "False", 
        "momentum": "0.8999999761581421"
      }, 
      "inputs": [[52, 0, 0], [53, 0, 0], [54, 0, 0], [55, 0, 1], [56, 0, 1]]
    }, 
    {
      "op": "relu", 
      "name": "relu5", 
      "inputs": [[57, 0, 0]]
    }, 
    {
      "op": "Pad", 
      "name": "pad5", 
      "attrs": {
        "mode": "constant", 
        "pad_width": "(0, 0, 0, 0, 1, 1, 1, 1)"
      }, 
      "inputs": [[58, 0, 0]]
    }, 
    {
      "op": "null", 
      "name": "learned_41", 
      "attrs": {"__shape__": "(64, 64, 3, 3)"}, 
      "inputs": []
    }, 
    {
      "op": "null", 
      "name": "learned_42", 
      "attrs": {"__shape__": "(64,)"}, 
      "inputs": []
    }, 
    {
      "op": "Convolution", 
      "name": "convolution5", 
      "attrs": {
        "dilate": "(1, 1)", 
        "kernel": "(3, 3)", 
        "no_bias": "False", 
        "num_filter": "64", 
        "num_group": "1", 
        "stride": "(1, 1)"
      }, 
      "inputs": [[59, 0, 0], [60, 0, 0], [61, 0, 0]]
    }, 
    {
      "op": "null", 
      "name": "learned_43", 
      "attrs": {"__shape__": "(64,)"}, 
      "inputs": []
    }, 
    {
      "op": "null", 
      "name": "learned_44", 
      "attrs": {"__shape__": "(64,)"}, 
      "inputs": []
    }, 
    {
      "op": "null", 
      "name": "learned_45", 
      "attrs": {
        "__init__": "[\"zero\", {}]", 
        "__shape__": "(64,)"
      }, 
      "inputs": []
    }, 
    {
      "op": "null", 
      "name": "learned_46", 
      "attrs": {
        "__init__": "[\"one\", {}]", 
        "__shape__": "(64,)"
      }, 
      "inputs": []
    }, 
    {
      "op": "BatchNorm", 
      "name": "batchnorm6", 
      "attrs": {
        "cudnn_off": "1", 
        "eps": "9.999999747378752e-06", 
        "fix_gamma": "False", 
        "momentum": "0.8999999761581421"
      }, 
      "inputs": [[62, 0, 0], [63, 0, 0], [64, 0, 0], [65, 0, 1], [66, 0, 1]]
    }, 
    {
      "op": "relu", 
      "name": "relu6", 
      "inputs": [[67, 0, 0]]
    }, 
    {
      "op": "Pad", 
      "name": "pad6", 
      "attrs": {
        "mode": "constant", 
        "pad_width": "(0, 0, 0, 0, 1, 1, 1, 1)"
      }, 
      "inputs": [[68, 0, 0]]
    }, 
    {
      "op": "null", 
      "name": "learned_47", 
      "attrs": {"__shape__": "(64, 64, 3, 3)"}, 
      "inputs": []
    }, 
    {
      "op": "null", 
      "name": "learned_48", 
      "attrs": {"__shape__": "(64,)"}, 
      "inputs": []
    }, 
    {
      "op": "Convolution", 
      "name": "convolution6", 
      "attrs": {
        "dilate": "(1, 1)", 
        "kernel": "(3, 3)", 
        "no_bias": "False", 
        "num_filter": "64", 
        "num_group": "1", 
        "stride": "(1, 1)"
      }, 
      "inputs": [[69, 0, 0], [70, 0, 0], [71, 0, 0]]
    }, 
    {
      "op": "broadcast_add", 
      "name": "broadcast_add2", 
      "inputs": [[72, 0, 0], [52, 0, 0]]
    }, 
    {
      "op": "null", 
      "name": "learned_49", 
      "attrs": {"__shape__": "(64,)"}, 
      "inputs": []
    }, 
    {
      "op": "null", 
      "name": "learned_50", 
      "attrs": {"__shape__": "(64,)"}, 
      "inputs": []
    }, 
    {
      "op": "null", 
      "name": "learned_51", 
      "attrs": {
        "__init__": "[\"zero\", {}]", 
        "__shape__": "(64,)"
      }, 
      "inputs": []
    }, 
    {
      "op": "null", 
      "name": "learned_52", 
      "attrs": {
        "__init__": "[\"one\", {}]", 
        "__shape__": "(64,)"
      }, 
      "inputs": []
    }, 
    {
      "op": "BatchNorm", 
      "name": "batchnorm7", 
      "attrs": {
        "cudnn_off": "1", 
        "eps": "9.999999747378752e-06", 
        "fix_gamma": "False", 
        "momentum": "0.8999999761581421"
      }, 
      "inputs": [[73, 0, 0], [74, 0, 0], [75, 0, 0], [76, 0, 1], [77, 0, 1]]
    }, 
    {
      "op": "relu", 
      "name": "relu7", 
      "inputs": [[78, 0, 0]]
    }, 
    {
      "op": "Pad", 
      "name": "pad7", 
      "attrs": {
        "mode": "constant", 
        "pad_width": "(0, 0, 0, 0, 1, 1, 1, 1)"
      }, 
      "inputs": [[79, 0, 0]]
    }, 
    {
      "op": "null", 
      "name": "learned_53", 
      "attrs": {"__shape__": "(64, 64, 3, 3)"}, 
      "inputs": []
    }, 
    {
      "op": "null", 
      "name": "learned_54", 
      "attrs": {"__shape__": "(64,)"}, 
      "inputs": []
    }, 
    {
      "op": "Convolution", 
      "name": "convolution7", 
      "attrs": {
        "dilate": "(1, 1)", 
        "kernel": "(3, 3)", 
        "no_bias": "False", 
        "num_filter": "64", 
        "num_group": "1", 
        "stride": "(1, 1)"
      }, 
      "inputs": [[80, 0, 0], [81, 0, 0], [82, 0, 0]]
    }, 
    {
      "op": "null", 
      "name": "learned_55", 
      "attrs": {"__shape__": "(64,)"}, 
      "inputs": []
    }, 
    {
      "op": "null", 
      "name": "learned_56", 
      "attrs": {"__shape__": "(64,)"}, 
      "inputs": []
    }, 
    {
      "op": "null", 
      "name": "learned_57", 
      "attrs": {
        "__init__": "[\"zero\", {}]", 
        "__shape__": "(64,)"
      }, 
      "inputs": []
    }, 
    {
      "op": "null", 
      "name": "learned_58", 
      "attrs": {
        "__init__": "[\"one\", {}]", 
        "__shape__": "(64,)"
      }, 
      "inputs": []
    }, 
    {
      "op": "BatchNorm", 
      "name": "batchnorm8", 
      "attrs": {
        "cudnn_off": "1", 
        "eps": "9.999999747378752e-06", 
        "fix_gamma": "False", 
        "momentum": "0.8999999761581421"
      }, 
      "inputs": [[83, 0, 0], [84, 0, 0], [85, 0, 0], [86, 0, 1], [87, 0, 1]]
    }, 
    {
      "op": "relu", 
      "name": "relu8", 
      "inputs": [[88, 0, 0]]
    }, 
    {
      "op": "Pad", 
      "name": "pad8", 
      "attrs": {
        "mode": "constant", 
        "pad_width": "(0, 0, 0, 0, 1, 1, 1, 1)"
      }, 
      "inputs": [[89, 0, 0]]
    }, 
    {
      "op": "null", 
      "name": "learned_59", 
      "attrs": {"__shape__": "(64, 64, 3, 3)"}, 
      "inputs": []
    }, 
    {
      "op": "null", 
      "name": "learned_60", 
      "attrs": {"__shape__": "(64,)"}, 
      "inputs": []
    }, 
    {
      "op": "Convolution", 
      "name": "convolution8", 
      "attrs": {
        "dilate": "(1, 1)", 
        "kernel": "(3, 3)", 
        "no_bias": "False", 
        "num_filter": "64", 
        "num_group": "1", 
        "stride": "(1, 1)"
      }, 
      "inputs": [[90, 0, 0], [91, 0, 0], [92, 0, 0]]
    }, 
    {
      "op": "broadcast_add", 
      "name": "broadcast_add3", 
      "inputs": [[93, 0, 0], [73, 0, 0]]
    }, 
    {
      "op": "null", 
      "name": "learned_61", 
      "attrs": {"__shape__": "(64,)"}, 
      "inputs": []
    }, 
    {
      "op": "null", 
      "name": "learned_62", 
      "attrs": {"__shape__": "(64,)"}, 
      "inputs": []
    }, 
    {
      "op": "null", 
      "name": "learned_63", 
      "attrs": {
        "__init__": "[\"zero\", {}]", 
        "__shape__": "(64,)"
      }, 
      "inputs": []
    }, 
    {
      "op": "null", 
      "name": "learned_64", 
      "attrs": {
        "__init__": "[\"one\", {}]", 
        "__shape__": "(64,)"
      }, 
      "inputs": []
    }, 
    {
      "op": "BatchNorm", 
      "name": "batchnorm9", 
      "attrs": {
        "cudnn_off": "1", 
        "eps": "9.999999747378752e-06", 
        "fix_gamma": "False", 
        "momentum": "0.8999999761581421"
      }, 
      "inputs": [[94, 0, 0], [95, 0, 0], [96, 0, 0], [97, 0, 1], [98, 0, 1]]
    }, 
    {
      "op": "relu", 
      "name": "relu9", 
      "inputs": [[99, 0, 0]]
    }, 
    {
      "op": "Pad", 
      "name": "pad9", 
      "attrs": {
        "mode": "constant", 
        "pad_width": "(0, 0, 0, 0, 1, 1, 1, 1)"
      }, 
      "inputs": [[100, 0, 0]]
    }, 
    {
      "op": "null", 
      "name": "learned_65", 
      "attrs": {"__shape__": "(64, 64, 3, 3)"}, 
      "inputs": []
    }, 
    {
      "op": "null", 
      "name": "learned_66", 
      "attrs": {"__shape__": "(64,)"}, 
      "inputs": []
    }, 
    {
      "op": "Convolution", 
      "name": "convolution9", 
      "attrs": {
        "dilate": "(1, 1)", 
        "kernel": "(3, 3)", 
        "no_bias": "False", 
        "num_filter": "64", 
        "num_group": "1", 
        "stride": "(1, 1)"
      }, 
      "inputs": [[101, 0, 0], [102, 0, 0], [103, 0, 0]]
    }, 
    {
      "op": "null", 
      "name": "learned_67", 
      "attrs": {"__shape__": "(64,)"}, 
      "inputs": []
    }, 
    {
      "op": "null", 
      "name": "learned_68", 
      "attrs": {"__shape__": "(64,)"}, 
      "inputs": []
    }, 
    {
      "op": "null", 
      "name": "learned_69", 
      "attrs": {
        "__init__": "[\"zero\", {}]", 
        "__shape__": "(64,)"
      }, 
      "inputs": []
    }, 
    {
      "op": "null", 
      "name": "learned_70", 
      "attrs": {
        "__init__": "[\"one\", {}]", 
        "__shape__": "(64,)"
      }, 
      "inputs": []
    }, 
    {
      "op": "BatchNorm", 
      "name": "batchnorm10", 
      "attrs": {
        "cudnn_off": "1", 
        "eps": "9.999999747378752e-06", 
        "fix_gamma": "False", 
        "momentum": "0.8999999761581421"
      }, 
      "inputs": [[104, 0, 0], [105, 0, 0], [106, 0, 0], [107, 0, 1], [108, 0, 1]]
    }, 
    {
      "op": "relu", 
      "name": "relu10", 
      "inputs": [[109, 0, 0]]
    }, 
    {
      "op": "Pad", 
      "name": "pad10", 
      "attrs": {
        "mode": "constant", 
        "pad_width": "(0, 0, 0, 0, 1, 1, 1, 1)"
      }, 
      "inputs": [[110, 0, 0]]
    }, 
    {
      "op": "null", 
      "name": "learned_71", 
      "attrs": {"__shape__": "(64, 64, 3, 3)"}, 
      "inputs": []
    }, 
    {
      "op": "null", 
      "name": "learned_72", 
      "attrs": {"__shape__": "(64,)"}, 
      "inputs": []
    }, 
    {
      "op": "Convolution", 
      "name": "convolution10", 
      "attrs": {
        "dilate": "(1, 1)", 
        "kernel": "(3, 3)", 
        "no_bias": "False", 
        "num_filter": "64", 
        "num_group": "1", 
        "stride": "(1, 1)"
      }, 
      "inputs": [[111, 0, 0], [112, 0, 0], [113, 0, 0]]
    }, 
    {
      "op": "broadcast_add", 
      "name": "broadcast_add4", 
      "inputs": [[114, 0, 0], [94, 0, 0]]
    }, 
    {
      "op": "null", 
      "name": "learned_73", 
      "attrs": {"__shape__": "(64,)"}, 
      "inputs": []
    }, 
    {
      "op": "null", 
      "name": "learned_74", 
      "attrs": {"__shape__": "(64,)"}, 
      "inputs": []
    }, 
    {
      "op": "null", 
      "name": "learned_75", 
      "attrs": {
        "__init__": "[\"zero\", {}]", 
        "__shape__": "(64,)"
      }, 
      "inputs": []
    }, 
    {
      "op": "null", 
      "name": "learned_76", 
      "attrs": {
        "__init__": "[\"one\", {}]", 
        "__shape__": "(64,)"
      }, 
      "inputs": []
    }, 
    {
      "op": "BatchNorm", 
      "name": "batchnorm11", 
      "attrs": {
        "cudnn_off": "1", 
        "eps": "9.999999747378752e-06", 
        "fix_gamma": "False", 
        "momentum": "0.8999999761581421"
      }, 
      "inputs": [[115, 0, 0], [116, 0, 0], [117, 0, 0], [118, 0, 1], [119, 0, 1]]
    }, 
    {
      "op": "relu", 
      "name": "relu11", 
      "inputs": [[120, 0, 0]]
    }, 
    {
      "op": "Pad", 
      "name": "pad11", 
      "attrs": {
        "mode": "constant", 
        "pad_width": "(0, 0, 0, 0, 1, 1, 1, 1)"
      }, 
      "inputs": [[121, 0, 0]]
    }, 
    {
      "op": "null", 
      "name": "learned_77", 
      "attrs": {"__shape__": "(64, 64, 3, 3)"}, 
      "inputs": []
    }, 
    {
      "op": "null", 
      "name": "learned_78", 
      "attrs": {"__shape__": "(64,)"}, 
      "inputs": []
    }, 
    {
      "op": "Convolution", 
      "name": "convolution11", 
      "attrs": {
        "dilate": "(1, 1)", 
        "kernel": "(3, 3)", 
        "no_bias": "False", 
        "num_filter": "64", 
        "num_group": "1", 
        "stride": "(1, 1)"
      }, 
      "inputs": [[122, 0, 0], [123, 0, 0], [124, 0, 0]]
    }, 
    {
      "op": "null", 
      "name": "learned_79", 
      "attrs": {"__shape__": "(64,)"}, 
      "inputs": []
    }, 
    {
      "op": "null", 
      "name": "learned_80", 
      "attrs": {"__shape__": "(64,)"}, 
      "inputs": []
    }, 
    {
      "op": "null", 
      "name": "learned_81", 
      "attrs": {
        "__init__": "[\"zero\", {}]", 
        "__shape__": "(64,)"
      }, 
      "inputs": []
    }, 
    {
      "op": "null", 
      "name": "learned_82", 
      "attrs": {
        "__init__": "[\"one\", {}]", 
        "__shape__": "(64,)"
      }, 
      "inputs": []
    }, 
    {
      "op": "BatchNorm", 
      "name": "batchnorm12", 
      "attrs": {
        "cudnn_off": "1", 
        "eps": "9.999999747378752e-06", 
        "fix_gamma": "False", 
        "momentum": "0.8999999761581421"
      }, 
      "inputs": [[125, 0, 0], [126, 0, 0], [127, 0, 0], [128, 0, 1], [129, 0, 1]]
    }, 
    {
      "op": "relu", 
      "name": "relu12", 
      "inputs": [[130, 0, 0]]
    }, 
    {
      "op": "Pad", 
      "name": "pad12", 
      "attrs": {
        "mode": "constant", 
        "pad_width": "(0, 0, 0, 0, 1, 1, 1, 1)"
      }, 
      "inputs": [[131, 0, 0]]
    }, 
    {
      "op": "null", 
      "name": "learned_83", 
      "attrs": {"__shape__": "(64, 64, 3, 3)"}, 
      "inputs": []
    }, 
    {
      "op": "null", 
      "name": "learned_84", 
      "attrs": {"__shape__": "(64,)"}, 
      "inputs": []
    }, 
    {
      "op": "Convolution", 
      "name": "convolution12", 
      "attrs": {
        "dilate": "(1, 1)", 
        "kernel": "(3, 3)", 
        "no_bias": "False", 
        "num_filter": "64", 
        "num_group": "1", 
        "stride": "(1, 1)"
      }, 
      "inputs": [[132, 0, 0], [133, 0, 0], [134, 0, 0]]
    }, 
    {
      "op": "broadcast_add", 
      "name": "broadcast_add5", 
      "inputs": [[135, 0, 0], [115, 0, 0]]
    }, 
    {
      "op": "Concat", 
      "name": "concat0", 
      "attrs": {
        "dim": "1", 
        "num_args": "7"
      }, 
      "inputs": [[31, 0, 0], [52, 0, 0], [73, 0, 0], [94, 0, 0], [115, 0, 0], [136, 0, 0], [10, 0, 0]]
    }, 
    {
      "op": "null", 
      "name": "learned_85", 
      "attrs": {"__shape__": "(448,)"}, 
      "inputs": []
    }, 
    {
      "op": "null", 
      "name": "learned_86", 
      "attrs": {"__shape__": "(448,)"}, 
      "inputs": []
    }, 
    {
      "op": "null", 
      "name": "learned_87", 
      "attrs": {
        "__init__": "[\"zero\", {}]", 
        "__shape__": "(448,)"
      }, 
      "inputs": []
    }, 
    {
      "op": "null", 
      "name": "learned_88", 
      "attrs": {
        "__init__": "[\"one\", {}]", 
        "__shape__": "(448,)"
      }, 
      "inputs": []
    }, 
    {
      "op": "BatchNorm", 
      "name": "batchnorm13", 
      "attrs": {
        "cudnn_off": "1", 
        "eps": "9.999999747378752e-06", 
        "fix_gamma": "False", 
        "momentum": "0.8999999761581421"
      }, 
      "inputs": [[137, 0, 0], [138, 0, 0], [139, 0, 0], [140, 0, 1], [141, 0, 1]]
    }, 
    {
      "op": "relu", 
      "name": "relu13", 
      "inputs": [[142, 0, 0]]
    }, 
    {
      "op": "Pad", 
      "name": "pad13", 
      "attrs": {
        "mode": "constant", 
        "pad_width": "(0, 0, 0, 0, 0, 0, 0, 0)"
      }, 
      "inputs": [[143, 0, 0]]
    }, 
    {
      "op": "null", 
      "name": "learned_89", 
      "attrs": {"__shape__": "(64, 448, 1, 1)"}, 
      "inputs": []
    }, 
    {
      "op": "null", 
      "name": "learned_90", 
      "attrs": {"__shape__": "(64,)"}, 
      "inputs": []
    }, 
    {
      "op": "Convolution", 
      "name": "convolution13", 
      "attrs": {
        "dilate": "(1, 1)", 
        "kernel": "(1, 1)", 
        "no_bias": "False", 
        "num_filter": "64", 
        "num_group": "1", 
        "stride": "(1, 1)"
      }, 
      "inputs": [[144, 0, 0], [145, 0, 0], [146, 0, 0]]
    }, 
    {
      "op": "null", 
      "name": "learned_7", 
      "attrs": {"__shape__": "(64,)"}, 
      "inputs": []
    }, 
    {
      "op": "null", 
      "name": "learned_8", 
      "attrs": {"__shape__": "(64,)"}, 
      "inputs": []
    }, 
    {
      "op": "null", 
      "name": "learned_9", 
      "attrs": {
        "__init__": "[\"zero\", {}]", 
        "__shape__": "(64,)"
      }, 
      "inputs": []
    }, 
    {
      "op": "null", 
      "name": "learned_10", 
      "attrs": {
        "__init__": "[\"one\", {}]", 
        "__shape__": "(64,)"
      }, 
      "inputs": []
    }, 
    {
      "op": "BatchNorm", 
      "name": "batchnorm79", 
      "attrs": {
        "cudnn_off": "1", 
        "eps": "9.999999747378752e-06", 
        "fix_gamma": "False", 
        "momentum": "0.8999999761581421"
      }, 
      "inputs": [[147, 0, 0], [148, 0, 0], [149, 0, 0], [150, 0, 1], [151, 0, 1]]
    }, 
    {
      "op": "relu", 
      "name": "relu79", 
      "inputs": [[152, 0, 0]]
    }, 
    {
      "op": "Pad", 
      "name": "pad79", 
      "attrs": {
        "mode": "constant", 
        "pad_width": "(0, 0, 0, 0, 1, 1, 1, 1)"
      }, 
      "inputs": [[153, 0, 0]]
    }, 
    {
      "op": "null", 
      "name": "learned_11", 
      "attrs": {"__shape__": "(1, 64, 3, 3)"}, 
      "inputs": []
    }, 
    {
      "op": "null", 
      "name": "learned_12", 
      "attrs": {"__shape__": "(1,)"}, 
      "inputs": []
    }, 
    {
      "op": "Convolution", 
      "name": "convolution79", 
      "attrs": {
        "dilate": "(1, 1)", 
        "kernel": "(3, 3)", 
        "no_bias": "False", 
        "num_filter": "1", 
        "num_group": "1", 
        "stride": "(1, 1)"
      }, 
      "inputs": [[154, 0, 0], [155, 0, 0], [156, 0, 0]]
    }, 
    {
      "op": "broadcast_add", 
      "name": "broadcast_add36", 
      "inputs": [[157, 0, 0], [0, 0, 0]]
    }, 
    {
      "op": "_mul_scalar", 
      "name": "_mulscalar0", 
      "attrs": {"scalar": "0.1666666666667"}, 
      "inputs": [[158, 0, 0]]
    }, 
    {
      "op": "null", 
      "name": "learned_91", 
      "attrs": {"__shape__": "(64,)"}, 
      "inputs": []
    }, 
    {
      "op": "null", 
      "name": "learned_92", 
      "attrs": {"__shape__": "(64,)"}, 
      "inputs": []
    }, 
    {
      "op": "null", 
      "name": "learned_93", 
      "attrs": {
        "__init__": "[\"zero\", {}]", 
        "__shape__": "(64,)"
      }, 
      "inputs": []
    }, 
    {
      "op": "null", 
      "name": "learned_94", 
      "attrs": {
        "__init__": "[\"one\", {}]", 
        "__shape__": "(64,)"
      }, 
      "inputs": []
    }, 
    {
      "op": "BatchNorm", 
      "name": "batchnorm14", 
      "attrs": {
        "cudnn_off": "1", 
        "eps": "9.999999747378752e-06", 
        "fix_gamma": "False", 
        "momentum": "0.8999999761581421"
      }, 
      "inputs": [[147, 0, 0], [160, 0, 0], [161, 0, 0], [162, 0, 1], [163, 0, 1]]
    }, 
    {
      "op": "relu", 
      "name": "relu14", 
      "inputs": [[164, 0, 0]]
    }, 
    {
      "op": "Pad", 
      "name": "pad14", 
      "attrs": {
        "mode": "constant", 
        "pad_width": "(0, 0, 0, 0, 1, 1, 1, 1)"
      }, 
      "inputs": [[165, 0, 0]]
    }, 
    {
      "op": "null", 
      "name": "learned_95", 
      "attrs": {"__shape__": "(64, 64, 3, 3)"}, 
      "inputs": []
    }, 
    {
      "op": "null", 
      "name": "learned_96", 
      "attrs": {"__shape__": "(64,)"}, 
      "inputs": []
    }, 
    {
      "op": "Convolution", 
      "name": "convolution14", 
      "attrs": {
        "dilate": "(1, 1)", 
        "kernel": "(3, 3)", 
        "no_bias": "False", 
        "num_filter": "64", 
        "num_group": "1", 
        "stride": "(1, 1)"
      }, 
      "inputs": [[166, 0, 0], [167, 0, 0], [168, 0, 0]]
    }, 
    {
      "op": "null", 
      "name": "learned_97", 
      "attrs": {"__shape__": "(64,)"}, 
      "inputs": []
    }, 
    {
      "op": "null", 
      "name": "learned_98", 
      "attrs": {"__shape__": "(64,)"}, 
      "inputs": []
    }, 
    {
      "op": "null", 
      "name": "learned_99", 
      "attrs": {
        "__init__": "[\"zero\", {}]", 
        "__shape__": "(64,)"
      }, 
      "inputs": []
    }, 
    {
      "op": "null", 
      "name": "learned_100", 
      "attrs": {
        "__init__": "[\"one\", {}]", 
        "__shape__": "(64,)"
      }, 
      "inputs": []
    }, 
    {
      "op": "BatchNorm", 
      "name": "batchnorm15", 
      "attrs": {
        "cudnn_off": "1", 
        "eps": "9.999999747378752e-06", 
        "fix_gamma": "False", 
        "momentum": "0.8999999761581421"
      }, 
      "inputs": [[169, 0, 0], [170, 0, 0], [171, 0, 0], [172, 0, 1], [173, 0, 1]]
    }, 
    {
      "op": "relu", 
      "name": "relu15", 
      "inputs": [[174, 0, 0]]
    }, 
    {
      "op": "Pad", 
      "name": "pad15", 
      "attrs": {
        "mode": "constant", 
        "pad_width": "(0, 0, 0, 0, 1, 1, 1, 1)"
      }, 
      "inputs": [[175, 0, 0]]
    }, 
    {
      "op": "null", 
      "name": "learned_101", 
      "attrs": {"__shape__": "(64, 64, 3, 3)"}, 
      "inputs": []
    }, 
    {
      "op": "null", 
      "name": "learned_102", 
      "attrs": {"__shape__": "(64,)"}, 
      "inputs": []
    }, 
    {
      "op": "Convolution", 
      "name": "convolution15", 
      "attrs": {
        "dilate": "(1, 1)", 
        "kernel": "(3, 3)", 
        "no_bias": "False", 
        "num_filter": "64", 
        "num_group": "1", 
        "stride": "(1, 1)"
      }, 
      "inputs": [[176, 0, 0], [177, 0, 0], [178, 0, 0]]
    }, 
    {
      "op": "broadcast_add", 
      "name": "broadcast_add6", 
      "inputs": [[179, 0, 0], [147, 0, 0]]
    }, 
    {
      "op": "null", 
      "name": "learned_103", 
      "attrs": {"__shape__": "(64,)"}, 
      "inputs": []
    }, 
    {
      "op": "null", 
      "name": "learned_104", 
      "attrs": {"__shape__": "(64,)"}, 
      "inputs": []
    }, 
    {
      "op": "null", 
      "name": "learned_105", 
      "attrs": {
        "__init__": "[\"zero\", {}]", 
        "__shape__": "(64,)"
      }, 
      "inputs": []
    }, 
    {
      "op": "null", 
      "name": "learned_106", 
      "attrs": {
        "__init__": "[\"one\", {}]", 
        "__shape__": "(64,)"
      }, 
      "inputs": []
    }, 
    {
      "op": "BatchNorm", 
      "name": "batchnorm16", 
      "attrs": {
        "cudnn_off": "1", 
        "eps": "9.999999747378752e-06", 
        "fix_gamma": "False", 
        "momentum": "0.8999999761581421"
      }, 
      "inputs": [[180, 0, 0], [181, 0, 0], [182, 0, 0], [183, 0, 1], [184, 0, 1]]
    }, 
    {
      "op": "relu", 
      "name": "relu16", 
      "inputs": [[185, 0, 0]]
    }, 
    {
      "op": "Pad", 
      "name": "pad16", 
      "attrs": {
        "mode": "constant", 
        "pad_width": "(0, 0, 0, 0, 1, 1, 1, 1)"
      }, 
      "inputs": [[186, 0, 0]]
    }, 
    {
      "op": "null", 
      "name": "learned_107", 
      "attrs": {"__shape__": "(64, 64, 3, 3)"}, 
      "inputs": []
    }, 
    {
      "op": "null", 
      "name": "learned_108", 
      "attrs": {"__shape__": "(64,)"}, 
      "inputs": []
    }, 
    {
      "op": "Convolution", 
      "name": "convolution16", 
      "attrs": {
        "dilate": "(1, 1)", 
        "kernel": "(3, 3)", 
        "no_bias": "False", 
        "num_filter": "64", 
        "num_group": "1", 
        "stride": "(1, 1)"
      }, 
      "inputs": [[187, 0, 0], [188, 0, 0], [189, 0, 0]]
    }, 
    {
      "op": "null", 
      "name": "learned_109", 
      "attrs": {"__shape__": "(64,)"}, 
      "inputs": []
    }, 
    {
      "op": "null", 
      "name": "learned_110", 
      "attrs": {"__shape__": "(64,)"}, 
      "inputs": []
    }, 
    {
      "op": "null", 
      "name": "learned_111", 
      "attrs": {
        "__init__": "[\"zero\", {}]", 
        "__shape__": "(64,)"
      }, 
      "inputs": []
    }, 
    {
      "op": "null", 
      "name": "learned_112", 
      "attrs": {
        "__init__": "[\"one\", {}]", 
        "__shape__": "(64,)"
      }, 
      "inputs": []
    }, 
    {
      "op": "BatchNorm", 
      "name": "batchnorm17", 
      "attrs": {
        "cudnn_off": "1", 
        "eps": "9.999999747378752e-06", 
        "fix_gamma": "False", 
        "momentum": "0.8999999761581421"
      }, 
      "inputs": [[190, 0, 0], [191, 0, 0], [192, 0, 0], [193, 0, 1], [194, 0, 1]]
    }, 
    {
      "op": "relu", 
      "name": "relu17", 
      "inputs": [[195, 0, 0]]
    }, 
    {
      "op": "Pad", 
      "name": "pad17", 
      "attrs": {
        "mode": "constant", 
        "pad_width": "(0, 0, 0, 0, 1, 1, 1, 1)"
      }, 
      "inputs": [[196, 0, 0]]
    }, 
    {
      "op": "null", 
      "name": "learned_113", 
      "attrs": {"__shape__": "(64, 64, 3, 3)"}, 
      "inputs": []
    }, 
    {
      "op": "null", 
      "name": "learned_114", 
      "attrs": {"__shape__": "(64,)"}, 
      "inputs": []
    }, 
    {
      "op": "Convolution", 
      "name": "convolution17", 
      "attrs": {
        "dilate": "(1, 1)", 
        "kernel": "(3, 3)", 
        "no_bias": "False", 
        "num_filter": "64", 
        "num_group": "1", 
        "stride": "(1, 1)"
      }, 
      "inputs": [[197, 0, 0], [198, 0, 0], [199, 0, 0]]
    }, 
    {
      "op": "broadcast_add", 
      "name": "broadcast_add7", 
      "inputs": [[200, 0, 0], [180, 0, 0]]
    }, 
    {
      "op": "null", 
      "name": "learned_115", 
      "attrs": {"__shape__": "(64,)"}, 
      "inputs": []
    }, 
    {
      "op": "null", 
      "name": "learned_116", 
      "attrs": {"__shape__": "(64,)"}, 
      "inputs": []
    }, 
    {
      "op": "null", 
      "name": "learned_117", 
      "attrs": {
        "__init__": "[\"zero\", {}]", 
        "__shape__": "(64,)"
      }, 
      "inputs": []
    }, 
    {
      "op": "null", 
      "name": "learned_118", 
      "attrs": {
        "__init__": "[\"one\", {}]", 
        "__shape__": "(64,)"
      }, 
      "inputs": []
    }, 
    {
      "op": "BatchNorm", 
      "name": "batchnorm18", 
      "attrs": {
        "cudnn_off": "1", 
        "eps": "9.999999747378752e-06", 
        "fix_gamma": "False", 
        "momentum": "0.8999999761581421"
      }, 
      "inputs": [[201, 0, 0], [202, 0, 0], [203, 0, 0], [204, 0, 1], [205, 0, 1]]
    }, 
    {
      "op": "relu", 
      "name": "relu18", 
      "inputs": [[206, 0, 0]]
    }, 
    {
      "op": "Pad", 
      "name": "pad18", 
      "attrs": {
        "mode": "constant", 
        "pad_width": "(0, 0, 0, 0, 1, 1, 1, 1)"
      }, 
      "inputs": [[207, 0, 0]]
    }, 
    {
      "op": "null", 
      "name": "learned_119", 
      "attrs": {"__shape__": "(64, 64, 3, 3)"}, 
      "inputs": []
    }, 
    {
      "op": "null", 
      "name": "learned_120", 
      "attrs": {"__shape__": "(64,)"}, 
      "inputs": []
    }, 
    {
      "op": "Convolution", 
      "name": "convolution18", 
      "attrs": {
        "dilate": "(1, 1)", 
        "kernel": "(3, 3)", 
        "no_bias": "False", 
        "num_filter": "64", 
        "num_group": "1", 
        "stride": "(1, 1)"
      }, 
      "inputs": [[208, 0, 0], [209, 0, 0], [210, 0, 0]]
    }, 
    {
      "op": "null", 
      "name": "learned_121", 
      "attrs": {"__shape__": "(64,)"}, 
      "inputs": []
    }, 
    {
      "op": "null", 
      "name": "learned_122", 
      "attrs": {"__shape__": "(64,)"}, 
      "inputs": []
    }, 
    {
      "op": "null", 
      "name": "learned_123", 
      "attrs": {
        "__init__": "[\"zero\", {}]", 
        "__shape__": "(64,)"
      }, 
      "inputs": []
    }, 
    {
      "op": "null", 
      "name": "learned_124", 
      "attrs": {
        "__init__": "[\"one\", {}]", 
        "__shape__": "(64,)"
      }, 
      "inputs": []
    }, 
    {
      "op": "BatchNorm", 
      "name": "batchnorm19", 
      "attrs": {
        "cudnn_off": "1", 
        "eps": "9.999999747378752e-06", 
        "fix_gamma": "False", 
        "momentum": "0.8999999761581421"
      }, 
      "inputs": [[211, 0, 0], [212, 0, 0], [213, 0, 0], [214, 0, 1], [215, 0, 1]]
    }, 
    {
      "op": "relu", 
      "name": "relu19", 
      "inputs": [[216, 0, 0]]
    }, 
    {
      "op": "Pad", 
      "name": "pad19", 
      "attrs": {
        "mode": "constant", 
        "pad_width": "(0, 0, 0, 0, 1, 1, 1, 1)"
      }, 
      "inputs": [[217, 0, 0]]
    }, 
    {
      "op": "null", 
      "name": "learned_125", 
      "attrs": {"__shape__": "(64, 64, 3, 3)"}, 
      "inputs": []
    }, 
    {
      "op": "null", 
      "name": "learned_126", 
      "attrs": {"__shape__": "(64,)"}, 
      "inputs": []
    }, 
    {
      "op": "Convolution", 
      "name": "convolution19", 
      "attrs": {
        "dilate": "(1, 1)", 
        "kernel": "(3, 3)", 
        "no_bias": "False", 
        "num_filter": "64", 
        "num_group": "1", 
        "stride": "(1, 1)"
      }, 
      "inputs": [[218, 0, 0], [219, 0, 0], [220, 0, 0]]
    }, 
    {
      "op": "broadcast_add", 
      "name": "broadcast_add8", 
      "inputs": [[221, 0, 0], [201, 0, 0]]
    }, 
    {
      "op": "null", 
      "name": "learned_127", 
      "attrs": {"__shape__": "(64,)"}, 
      "inputs": []
    }, 
    {
      "op": "null", 
      "name": "learned_128", 
      "attrs": {"__shape__": "(64,)"}, 
      "inputs": []
    }, 
    {
      "op": "null", 
      "name": "learned_129", 
      "attrs": {
        "__init__": "[\"zero\", {}]", 
        "__shape__": "(64,)"
      }, 
      "inputs": []
    }, 
    {
      "op": "null", 
      "name": "learned_130", 
      "attrs": {
        "__init__": "[\"one\", {}]", 
        "__shape__": "(64,)"
      }, 
      "inputs": []
    }, 
    {
      "op": "BatchNorm", 
      "name": "batchnorm20", 
      "attrs": {
        "cudnn_off": "1", 
        "eps": "9.999999747378752e-06", 
        "fix_gamma": "False", 
        "momentum": "0.8999999761581421"
      }, 
      "inputs": [[222, 0, 0], [223, 0, 0], [224, 0, 0], [225, 0, 1], [226, 0, 1]]
    }, 
    {
      "op": "relu", 
      "name": "relu20", 
      "inputs": [[227, 0, 0]]
    }, 
    {
      "op": "Pad", 
      "name": "pad20", 
      "attrs": {
        "mode": "constant", 
        "pad_width": "(0, 0, 0, 0, 1, 1, 1, 1)"
      }, 
      "inputs": [[228, 0, 0]]
    }, 
    {
      "op": "null", 
      "name": "learned_131", 
      "attrs": {"__shape__": "(64, 64, 3, 3)"}, 
      "inputs": []
    }, 
    {
      "op": "null", 
      "name": "learned_132", 
      "attrs": {"__shape__": "(64,)"}, 
      "inputs": []
    }, 
    {
      "op": "Convolution", 
      "name": "convolution20", 
      "attrs": {
        "dilate": "(1, 1)", 
        "kernel": "(3, 3)", 
        "no_bias": "False", 
        "num_filter": "64", 
        "num_group": "1", 
        "stride": "(1, 1)"
      }, 
      "inputs": [[229, 0, 0], [230, 0, 0], [231, 0, 0]]
    }, 
    {
      "op": "null", 
      "name": "learned_133", 
      "attrs": {"__shape__": "(64,)"}, 
      "inputs": []
    }, 
    {
      "op": "null", 
      "name": "learned_134", 
      "attrs": {"__shape__": "(64,)"}, 
      "inputs": []
    }, 
    {
      "op": "null", 
      "name": "learned_135", 
      "attrs": {
        "__init__": "[\"zero\", {}]", 
        "__shape__": "(64,)"
      }, 
      "inputs": []
    }, 
    {
      "op": "null", 
      "name": "learned_136", 
      "attrs": {
        "__init__": "[\"one\", {}]", 
        "__shape__": "(64,)"
      }, 
      "inputs": []
    }, 
    {
      "op": "BatchNorm", 
      "name": "batchnorm21", 
      "attrs": {
        "cudnn_off": "1", 
        "eps": "9.999999747378752e-06", 
        "fix_gamma": "False", 
        "momentum": "0.8999999761581421"
      }, 
      "inputs": [[232, 0, 0], [233, 0, 0], [234, 0, 0], [235, 0, 1], [236, 0, 1]]
    }, 
    {
      "op": "relu", 
      "name": "relu21", 
      "inputs": [[237, 0, 0]]
    }, 
    {
      "op": "Pad", 
      "name": "pad21", 
      "attrs": {
        "mode": "constant", 
        "pad_width": "(0, 0, 0, 0, 1, 1, 1, 1)"
      }, 
      "inputs": [[238, 0, 0]]
    }, 
    {
      "op": "null", 
      "name": "learned_137", 
      "attrs": {"__shape__": "(64, 64, 3, 3)"}, 
      "inputs": []
    }, 
    {
      "op": "null", 
      "name": "learned_138", 
      "attrs": {"__shape__": "(64,)"}, 
      "inputs": []
    }, 
    {
      "op": "Convolution", 
      "name": "convolution21", 
      "attrs": {
        "dilate": "(1, 1)", 
        "kernel": "(3, 3)", 
        "no_bias": "False", 
        "num_filter": "64", 
        "num_group": "1", 
        "stride": "(1, 1)"
      }, 
      "inputs": [[239, 0, 0], [240, 0, 0], [241, 0, 0]]
    }, 
    {
      "op": "broadcast_add", 
      "name": "broadcast_add9", 
      "inputs": [[242, 0, 0], [222, 0, 0]]
    }, 
    {
      "op": "null", 
      "name": "learned_139", 
      "attrs": {"__shape__": "(64,)"}, 
      "inputs": []
    }, 
    {
      "op": "null", 
      "name": "learned_140", 
      "attrs": {"__shape__": "(64,)"}, 
      "inputs": []
    }, 
    {
      "op": "null", 
      "name": "learned_141", 
      "attrs": {
        "__init__": "[\"zero\", {}]", 
        "__shape__": "(64,)"
      }, 
      "inputs": []
    }, 
    {
      "op": "null", 
      "name": "learned_142", 
      "attrs": {
        "__init__": "[\"one\", {}]", 
        "__shape__": "(64,)"
      }, 
      "inputs": []
    }, 
    {
      "op": "BatchNorm", 
      "name": "batchnorm22", 
      "attrs": {
        "cudnn_off": "1", 
        "eps": "9.999999747378752e-06", 
        "fix_gamma": "False", 
        "momentum": "0.8999999761581421"
      }, 
      "inputs": [[243, 0, 0], [244, 0, 0], [245, 0, 0], [246, 0, 1], [247, 0, 1]]
    }, 
    {
      "op": "relu", 
      "name": "relu22", 
      "inputs": [[248, 0, 0]]
    }, 
    {
      "op": "Pad", 
      "name": "pad22", 
      "attrs": {
        "mode": "constant", 
        "pad_width": "(0, 0, 0, 0, 1, 1, 1, 1)"
      }, 
      "inputs": [[249, 0, 0]]
    }, 
    {
      "op": "null", 
      "name": "learned_143", 
      "attrs": {"__shape__": "(64, 64, 3, 3)"}, 
      "inputs": []
    }, 
    {
      "op": "null", 
      "name": "learned_144", 
      "attrs": {"__shape__": "(64,)"}, 
      "inputs": []
    }, 
    {
      "op": "Convolution", 
      "name": "convolution22", 
      "attrs": {
        "dilate": "(1, 1)", 
        "kernel": "(3, 3)", 
        "no_bias": "False", 
        "num_filter": "64", 
        "num_group": "1", 
        "stride": "(1, 1)"
      }, 
      "inputs": [[250, 0, 0], [251, 0, 0], [252, 0, 0]]
    }, 
    {
      "op": "null", 
      "name": "learned_145", 
      "attrs": {"__shape__": "(64,)"}, 
      "inputs": []
    }, 
    {
      "op": "null", 
      "name": "learned_146", 
      "attrs": {"__shape__": "(64,)"}, 
      "inputs": []
    }, 
    {
      "op": "null", 
      "name": "learned_147", 
      "attrs": {
        "__init__": "[\"zero\", {}]", 
        "__shape__": "(64,)"
      }, 
      "inputs": []
    }, 
    {
      "op": "null", 
      "name": "learned_148", 
      "attrs": {
        "__init__": "[\"one\", {}]", 
        "__shape__": "(64,)"
      }, 
      "inputs": []
    }, 
    {
      "op": "BatchNorm", 
      "name": "batchnorm23", 
      "attrs": {
        "cudnn_off": "1", 
        "eps": "9.999999747378752e-06", 
        "fix_gamma": "False", 
        "momentum": "0.8999999761581421"
      }, 
      "inputs": [[253, 0, 0], [254, 0, 0], [255, 0, 0], [256, 0, 1], [257, 0, 1]]
    }, 
    {
      "op": "relu", 
      "name": "relu23", 
      "inputs": [[258, 0, 0]]
    }, 
    {
      "op": "Pad", 
      "name": "pad23", 
      "attrs": {
        "mode": "constant", 
        "pad_width": "(0, 0, 0, 0, 1, 1, 1, 1)"
      }, 
      "inputs": [[259, 0, 0]]
    }, 
    {
      "op": "null", 
      "name": "learned_149", 
      "attrs": {"__shape__": "(64, 64, 3, 3)"}, 
      "inputs": []
    }, 
    {
      "op": "null", 
      "name": "learned_150", 
      "attrs": {"__shape__": "(64,)"}, 
      "inputs": []
    }, 
    {
      "op": "Convolution", 
      "name": "convolution23", 
      "attrs": {
        "dilate": "(1, 1)", 
        "kernel": "(3, 3)", 
        "no_bias": "False", 
        "num_filter": "64", 
        "num_group": "1", 
        "stride": "(1, 1)"
      }, 
      "inputs": [[260, 0, 0], [261, 0, 0], [262, 0, 0]]
    }, 
    {
      "op": "broadcast_add", 
      "name": "broadcast_add10", 
      "inputs": [[263, 0, 0], [243, 0, 0]]
    }, 
    {
      "op": "null", 
      "name": "learned_151", 
      "attrs": {"__shape__": "(64,)"}, 
      "inputs": []
    }, 
    {
      "op": "null", 
      "name": "learned_152", 
      "attrs": {"__shape__": "(64,)"}, 
      "inputs": []
    }, 
    {
      "op": "null", 
      "name": "learned_153", 
      "attrs": {
        "__init__": "[\"zero\", {}]", 
        "__shape__": "(64,)"
      }, 
      "inputs": []
    }, 
    {
      "op": "null", 
      "name": "learned_154", 
      "attrs": {
        "__init__": "[\"one\", {}]", 
        "__shape__": "(64,)"
      }, 
      "inputs": []
    }, 
    {
      "op": "BatchNorm", 
      "name": "batchnorm24", 
      "attrs": {
        "cudnn_off": "1", 
        "eps": "9.999999747378752e-06", 
        "fix_gamma": "False", 
        "momentum": "0.8999999761581421"
      }, 
      "inputs": [[264, 0, 0], [265, 0, 0], [266, 0, 0], [267, 0, 1], [268, 0, 1]]
    }, 
    {
      "op": "relu", 
      "name": "relu24", 
      "inputs": [[269, 0, 0]]
    }, 
    {
      "op": "Pad", 
      "name": "pad24", 
      "attrs": {
        "mode": "constant", 
        "pad_width": "(0, 0, 0, 0, 1, 1, 1, 1)"
      }, 
      "inputs": [[270, 0, 0]]
    }, 
    {
      "op": "null", 
      "name": "learned_155", 
      "attrs": {"__shape__": "(64, 64, 3, 3)"}, 
      "inputs": []
    }, 
    {
      "op": "null", 
      "name": "learned_156", 
      "attrs": {"__shape__": "(64,)"}, 
      "inputs": []
    }, 
    {
      "op": "Convolution", 
      "name": "convolution24", 
      "attrs": {
        "dilate": "(1, 1)", 
        "kernel": "(3, 3)", 
        "no_bias": "False", 
        "num_filter": "64", 
        "num_group": "1", 
        "stride": "(1, 1)"
      }, 
      "inputs": [[271, 0, 0], [272, 0, 0], [273, 0, 0]]
    }, 
    {
      "op": "null", 
      "name": "learned_157", 
      "attrs": {"__shape__": "(64,)"}, 
      "inputs": []
    }, 
    {
      "op": "null", 
      "name": "learned_158", 
      "attrs": {"__shape__": "(64,)"}, 
      "inputs": []
    }, 
    {
      "op": "null", 
      "name": "learned_159", 
      "attrs": {
        "__init__": "[\"zero\", {}]", 
        "__shape__": "(64,)"
      }, 
      "inputs": []
    }, 
    {
      "op": "null", 
      "name": "learned_160", 
      "attrs": {
        "__init__": "[\"one\", {}]", 
        "__shape__": "(64,)"
      }, 
      "inputs": []
    }, 
    {
      "op": "BatchNorm", 
      "name": "batchnorm25", 
      "attrs": {
        "cudnn_off": "1", 
        "eps": "9.999999747378752e-06", 
        "fix_gamma": "False", 
        "momentum": "0.8999999761581421"
      }, 
      "inputs": [[274, 0, 0], [275, 0, 0], [276, 0, 0], [277, 0, 1], [278, 0, 1]]
    }, 
    {
      "op": "relu", 
      "name": "relu25", 
      "inputs": [[279, 0, 0]]
    }, 
    {
      "op": "Pad", 
      "name": "pad25", 
      "attrs": {
        "mode": "constant", 
        "pad_width": "(0, 0, 0, 0, 1, 1, 1, 1)"
      }, 
      "inputs": [[280, 0, 0]]
    }, 
    {
      "op": "null", 
      "name": "learned_161", 
      "attrs": {"__shape__": "(64, 64, 3, 3)"}, 
      "inputs": []
    }, 
    {
      "op": "null", 
      "name": "learned_162", 
      "attrs": {"__shape__": "(64,)"}, 
      "inputs": []
    }, 
    {
      "op": "Convolution", 
      "name": "convolution25", 
      "attrs": {
        "dilate": "(1, 1)", 
        "kernel": "(3, 3)", 
        "no_bias": "False", 
        "num_filter": "64", 
        "num_group": "1", 
        "stride": "(1, 1)"
      }, 
      "inputs": [[281, 0, 0], [282, 0, 0], [283, 0, 0]]
    }, 
    {
      "op": "broadcast_add", 
      "name": "broadcast_add11", 
      "inputs": [[284, 0, 0], [264, 0, 0]]
    }, 
    {
      "op": "Concat", 
      "name": "concat1", 
      "attrs": {
        "dim": "1", 
        "num_args": "8"
      }, 
      "inputs": [[180, 0, 0], [201, 0, 0], [222, 0, 0], [243, 0, 0], [264, 0, 0], [285, 0, 0], [10, 0, 0], [147, 0, 0]]
    }, 
    {
      "op": "null", 
      "name": "learned_163", 
      "attrs": {"__shape__": "(512,)"}, 
      "inputs": []
    }, 
    {
      "op": "null", 
      "name": "learned_164", 
      "attrs": {"__shape__": "(512,)"}, 
      "inputs": []
    }, 
    {
      "op": "null", 
      "name": "learned_165", 
      "attrs": {
        "__init__": "[\"zero\", {}]", 
        "__shape__": "(512,)"
      }, 
      "inputs": []
    }, 
    {
      "op": "null", 
      "name": "learned_166", 
      "attrs": {
        "__init__": "[\"one\", {}]", 
        "__shape__": "(512,)"
      }, 
      "inputs": []
    }, 
    {
      "op": "BatchNorm", 
      "name": "batchnorm26", 
      "attrs": {
        "cudnn_off": "1", 
        "eps": "9.999999747378752e-06", 
        "fix_gamma": "False", 
        "momentum": "0.8999999761581421"
      }, 
      "inputs": [[286, 0, 0], [287, 0, 0], [288, 0, 0], [289, 0, 1], [290, 0, 1]]
    }, 
    {
      "op": "relu", 
      "name": "relu26", 
      "inputs": [[291, 0, 0]]
    }, 
    {
      "op": "Pad", 
      "name": "pad26", 
      "attrs": {
        "mode": "constant", 
        "pad_width": "(0, 0, 0, 0, 0, 0, 0, 0)"
      }, 
      "inputs": [[292, 0, 0]]
    }, 
    {
      "op": "null", 
      "name": "learned_167", 
      "attrs": {"__shape__": "(64, 512, 1, 1)"}, 
      "inputs": []
    }, 
    {
      "op": "null", 
      "name": "learned_168", 
      "attrs": {"__shape__": "(64,)"}, 
      "inputs": []
    }, 
    {
      "op": "Convolution", 
      "name": "convolution26", 
      "attrs": {
        "dilate": "(1, 1)", 
        "kernel": "(1, 1)", 
        "no_bias": "False", 
        "num_filter": "64", 
        "num_group": "1", 
        "stride": "(1, 1)"
      }, 
      "inputs": [[293, 0, 0], [294, 0, 0], [295, 0, 0]]
    }, 
    {
      "op": "BatchNorm", 
      "name": "batchnorm80", 
      "attrs": {
        "cudnn_off": "1", 
        "eps": "9.999999747378752e-06", 
        "fix_gamma": "False", 
        "momentum": "0.8999999761581421"
      }, 
      "inputs": [[296, 0, 0], [148, 0, 0], [149, 0, 0], [150, 0, 2], [151, 0, 2]]
    }, 
    {
      "op": "relu", 
      "name": "relu80", 
      "inputs": [[297, 0, 0]]
    }, 
    {
      "op": "Pad", 
      "name": "pad80", 
      "attrs": {
        "mode": "constant", 
        "pad_width": "(0, 0, 0, 0, 1, 1, 1, 1)"
      }, 
      "inputs": [[298, 0, 0]]
    }, 
    {
      "op": "Convolution", 
      "name": "convolution80", 
      "attrs": {
        "dilate": "(1, 1)", 
        "kernel": "(3, 3)", 
        "no_bias": "False", 
        "num_filter": "1", 
        "num_group": "1", 
        "stride": "(1, 1)"
      }, 
      "inputs": [[299, 0, 0], [155, 0, 0], [156, 0, 0]]
    }, 
    {
      "op": "broadcast_add", 
      "name": "broadcast_add37", 
      "inputs": [[300, 0, 0], [0, 0, 0]]
    }, 
    {
      "op": "_mul_scalar", 
      "name": "_mulscalar1", 
      "attrs": {"scalar": "0.1666666666667"}, 
      "inputs": [[301, 0, 0]]
    }, 
    {
      "op": "broadcast_add", 
      "name": "broadcast_add38", 
      "inputs": [[159, 0, 0], [302, 0, 0]]
    }, 
    {
      "op": "null", 
      "name": "learned_169", 
      "attrs": {"__shape__": "(64,)"}, 
      "inputs": []
    }, 
    {
      "op": "null", 
      "name": "learned_170", 
      "attrs": {"__shape__": "(64,)"}, 
      "inputs": []
    }, 
    {
      "op": "null", 
      "name": "learned_171", 
      "attrs": {
        "__init__": "[\"zero\", {}]", 
        "__shape__": "(64,)"
      }, 
      "inputs": []
    }, 
    {
      "op": "null", 
      "name": "learned_172", 
      "attrs": {
        "__init__": "[\"one\", {}]", 
        "__shape__": "(64,)"
      }, 
      "inputs": []
    }, 
    {
      "op": "BatchNorm", 
      "name": "batchnorm27", 
      "attrs": {
        "cudnn_off": "1", 
        "eps": "9.999999747378752e-06", 
        "fix_gamma": "False", 
        "momentum": "0.8999999761581421"
      }, 
      "inputs": [[296, 0, 0], [304, 0, 0], [305, 0, 0], [306, 0, 1], [307, 0, 1]]
    }, 
    {
      "op": "relu", 
      "name": "relu27", 
      "inputs": [[308, 0, 0]]
    }, 
    {
      "op": "Pad", 
      "name": "pad27", 
      "attrs": {
        "mode": "constant", 
        "pad_width": "(0, 0, 0, 0, 1, 1, 1, 1)"
      }, 
      "inputs": [[309, 0, 0]]
    }, 
    {
      "op": "null", 
      "name": "learned_173", 
      "attrs": {"__shape__": "(64, 64, 3, 3)"}, 
      "inputs": []
    }, 
    {
      "op": "null", 
      "name": "learned_174", 
      "attrs": {"__shape__": "(64,)"}, 
      "inputs": []
    }, 
    {
      "op": "Convolution", 
      "name": "convolution27", 
      "attrs": {
        "dilate": "(1, 1)", 
        "kernel": "(3, 3)", 
        "no_bias": "False", 
        "num_filter": "64", 
        "num_group": "1", 
        "stride": "(1, 1)"
      }, 
      "inputs": [[310, 0, 0], [311, 0, 0], [312, 0, 0]]
    }, 
    {
      "op": "null", 
      "name": "learned_175", 
      "attrs": {"__shape__": "(64,)"}, 
      "inputs": []
    }, 
    {
      "op": "null", 
      "name": "learned_176", 
      "attrs": {"__shape__": "(64,)"}, 
      "inputs": []
    }, 
    {
      "op": "null", 
      "name": "learned_177", 
      "attrs": {
        "__init__": "[\"zero\", {}]", 
        "__shape__": "(64,)"
      }, 
      "inputs": []
    }, 
    {
      "op": "null", 
      "name": "learned_178", 
      "attrs": {
        "__init__": "[\"one\", {}]", 
        "__shape__": "(64,)"
      }, 
      "inputs": []
    }, 
    {
      "op": "BatchNorm", 
      "name": "batchnorm28", 
      "attrs": {
        "cudnn_off": "1", 
        "eps": "9.999999747378752e-06", 
        "fix_gamma": "False", 
        "momentum": "0.8999999761581421"
      }, 
      "inputs": [[313, 0, 0], [314, 0, 0], [315, 0, 0], [316, 0, 1], [317, 0, 1]]
    }, 
    {
      "op": "relu", 
      "name": "relu28", 
      "inputs": [[318, 0, 0]]
    }, 
    {
      "op": "Pad", 
      "name": "pad28", 
      "attrs": {
        "mode": "constant", 
        "pad_width": "(0, 0, 0, 0, 1, 1, 1, 1)"
      }, 
      "inputs": [[319, 0, 0]]
    }, 
    {
      "op": "null", 
      "name": "learned_179", 
      "attrs": {"__shape__": "(64, 64, 3, 3)"}, 
      "inputs": []
    }, 
    {
      "op": "null", 
      "name": "learned_180", 
      "attrs": {"__shape__": "(64,)"}, 
      "inputs": []
    }, 
    {
      "op": "Convolution", 
      "name": "convolution28", 
      "attrs": {
        "dilate": "(1, 1)", 
        "kernel": "(3, 3)", 
        "no_bias": "False", 
        "num_filter": "64", 
        "num_group": "1", 
        "stride": "(1, 1)"
      }, 
      "inputs": [[320, 0, 0], [321, 0, 0], [322, 0, 0]]
    }, 
    {
      "op": "broadcast_add", 
      "name": "broadcast_add12", 
      "inputs": [[323, 0, 0], [296, 0, 0]]
    }, 
    {
      "op": "null", 
      "name": "learned_181", 
      "attrs": {"__shape__": "(64,)"}, 
      "inputs": []
    }, 
    {
      "op": "null", 
      "name": "learned_182", 
      "attrs": {"__shape__": "(64,)"}, 
      "inputs": []
    }, 
    {
      "op": "null", 
      "name": "learned_183", 
      "attrs": {
        "__init__": "[\"zero\", {}]", 
        "__shape__": "(64,)"
      }, 
      "inputs": []
    }, 
    {
      "op": "null", 
      "name": "learned_184", 
      "attrs": {
        "__init__": "[\"one\", {}]", 
        "__shape__": "(64,)"
      }, 
      "inputs": []
    }, 
    {
      "op": "BatchNorm", 
      "name": "batchnorm29", 
      "attrs": {
        "cudnn_off": "1", 
        "eps": "9.999999747378752e-06", 
        "fix_gamma": "False", 
        "momentum": "0.8999999761581421"
      }, 
      "inputs": [[324, 0, 0], [325, 0, 0], [326, 0, 0], [327, 0, 1], [328, 0, 1]]
    }, 
    {
      "op": "relu", 
      "name": "relu29", 
      "inputs": [[329, 0, 0]]
    }, 
    {
      "op": "Pad", 
      "name": "pad29", 
      "attrs": {
        "mode": "constant", 
        "pad_width": "(0, 0, 0, 0, 1, 1, 1, 1)"
      }, 
      "inputs": [[330, 0, 0]]
    }, 
    {
      "op": "null", 
      "name": "learned_185", 
      "attrs": {"__shape__": "(64, 64, 3, 3)"}, 
      "inputs": []
    }, 
    {
      "op": "null", 
      "name": "learned_186", 
      "attrs": {"__shape__": "(64,)"}, 
      "inputs": []
    }, 
    {
      "op": "Convolution", 
      "name": "convolution29", 
      "attrs": {
        "dilate": "(1, 1)", 
        "kernel": "(3, 3)", 
        "no_bias": "False", 
        "num_filter": "64", 
        "num_group": "1", 
        "stride": "(1, 1)"
      }, 
      "inputs": [[331, 0, 0], [332, 0, 0], [333, 0, 0]]
    }, 
    {
      "op": "null", 
      "name": "learned_187", 
      "attrs": {"__shape__": "(64,)"}, 
      "inputs": []
    }, 
    {
      "op": "null", 
      "name": "learned_188", 
      "attrs": {"__shape__": "(64,)"}, 
      "inputs": []
    }, 
    {
      "op": "null", 
      "name": "learned_189", 
      "attrs": {
        "__init__": "[\"zero\", {}]", 
        "__shape__": "(64,)"
      }, 
      "inputs": []
    }, 
    {
      "op": "null", 
      "name": "learned_190", 
      "attrs": {
        "__init__": "[\"one\", {}]", 
        "__shape__": "(64,)"
      }, 
      "inputs": []
    }, 
    {
      "op": "BatchNorm", 
      "name": "batchnorm30", 
      "attrs": {
        "cudnn_off": "1", 
        "eps": "9.999999747378752e-06", 
        "fix_gamma": "False", 
        "momentum": "0.8999999761581421"
      }, 
      "inputs": [[334, 0, 0], [335, 0, 0], [336, 0, 0], [337, 0, 1], [338, 0, 1]]
    }, 
    {
      "op": "relu", 
      "name": "relu30", 
      "inputs": [[339, 0, 0]]
    }, 
    {
      "op": "Pad", 
      "name": "pad30", 
      "attrs": {
        "mode": "constant", 
        "pad_width": "(0, 0, 0, 0, 1, 1, 1, 1)"
      }, 
      "inputs": [[340, 0, 0]]
    }, 
    {
      "op": "null", 
      "name": "learned_191", 
      "attrs": {"__shape__": "(64, 64, 3, 3)"}, 
      "inputs": []
    }, 
    {
      "op": "null", 
      "name": "learned_192", 
      "attrs": {"__shape__": "(64,)"}, 
      "inputs": []
    }, 
    {
      "op": "Convolution", 
      "name": "convolution30", 
      "attrs": {
        "dilate": "(1, 1)", 
        "kernel": "(3, 3)", 
        "no_bias": "False", 
        "num_filter": "64", 
        "num_group": "1", 
        "stride": "(1, 1)"
      }, 
      "inputs": [[341, 0, 0], [342, 0, 0], [343, 0, 0]]
    }, 
    {
      "op": "broadcast_add", 
      "name": "broadcast_add13", 
      "inputs": [[344, 0, 0], [324, 0, 0]]
    }, 
    {
      "op": "null", 
      "name": "learned_193", 
      "attrs": {"__shape__": "(64,)"}, 
      "inputs": []
    }, 
    {
      "op": "null", 
      "name": "learned_194", 
      "attrs": {"__shape__": "(64,)"}, 
      "inputs": []
    }, 
    {
      "op": "null", 
      "name": "learned_195", 
      "attrs": {
        "__init__": "[\"zero\", {}]", 
        "__shape__": "(64,)"
      }, 
      "inputs": []
    }, 
    {
      "op": "null", 
      "name": "learned_196", 
      "attrs": {
        "__init__": "[\"one\", {}]", 
        "__shape__": "(64,)"
      }, 
      "inputs": []
    }, 
    {
      "op": "BatchNorm", 
      "name": "batchnorm31", 
      "attrs": {
        "cudnn_off": "1", 
        "eps": "9.999999747378752e-06", 
        "fix_gamma": "False", 
        "momentum": "0.8999999761581421"
      }, 
      "inputs": [[345, 0, 0], [346, 0, 0], [347, 0, 0], [348, 0, 1], [349, 0, 1]]
    }, 
    {
      "op": "relu", 
      "name": "relu31", 
      "inputs": [[350, 0, 0]]
    }, 
    {
      "op": "Pad", 
      "name": "pad31", 
      "attrs": {
        "mode": "constant", 
        "pad_width": "(0, 0, 0, 0, 1, 1, 1, 1)"
      }, 
      "inputs": [[351, 0, 0]]
    }, 
    {
      "op": "null", 
      "name": "learned_197", 
      "attrs": {"__shape__": "(64, 64, 3, 3)"}, 
      "inputs": []
    }, 
    {
      "op": "null", 
      "name": "learned_198", 
      "attrs": {"__shape__": "(64,)"}, 
      "inputs": []
    }, 
    {
      "op": "Convolution", 
      "name": "convolution31", 
      "attrs": {
        "dilate": "(1, 1)", 
        "kernel": "(3, 3)", 
        "no_bias": "False", 
        "num_filter": "64", 
        "num_group": "1", 
        "stride": "(1, 1)"
      }, 
      "inputs": [[352, 0, 0], [353, 0, 0], [354, 0, 0]]
    }, 
    {
      "op": "null", 
      "name": "learned_199", 
      "attrs": {"__shape__": "(64,)"}, 
      "inputs": []
    }, 
    {
      "op": "null", 
      "name": "learned_200", 
      "attrs": {"__shape__": "(64,)"}, 
      "inputs": []
    }, 
    {
      "op": "null", 
      "name": "learned_201", 
      "attrs": {
        "__init__": "[\"zero\", {}]", 
        "__shape__": "(64,)"
      }, 
      "inputs": []
    }, 
    {
      "op": "null", 
      "name": "learned_202", 
      "attrs": {
        "__init__": "[\"one\", {}]", 
        "__shape__": "(64,)"
      }, 
      "inputs": []
    }, 
    {
      "op": "BatchNorm", 
      "name": "batchnorm32", 
      "attrs": {
        "cudnn_off": "1", 
        "eps": "9.999999747378752e-06", 
        "fix_gamma": "False", 
        "momentum": "0.8999999761581421"
      }, 
      "inputs": [[355, 0, 0], [356, 0, 0], [357, 0, 0], [358, 0, 1], [359, 0, 1]]
    }, 
    {
      "op": "relu", 
      "name": "relu32", 
      "inputs": [[360, 0, 0]]
    }, 
    {
      "op": "Pad", 
      "name": "pad32", 
      "attrs": {
        "mode": "constant", 
        "pad_width": "(0, 0, 0, 0, 1, 1, 1, 1)"
      }, 
      "inputs": [[361, 0, 0]]
    }, 
    {
      "op": "null", 
      "name": "learned_203", 
      "attrs": {"__shape__": "(64, 64, 3, 3)"}, 
      "inputs": []
    }, 
    {
      "op": "null", 
      "name": "learned_204", 
      "attrs": {"__shape__": "(64,)"}, 
      "inputs": []
    }, 
    {
      "op": "Convolution", 
      "name": "convolution32", 
      "attrs": {
        "dilate": "(1, 1)", 
        "kernel": "(3, 3)", 
        "no_bias": "False", 
        "num_filter": "64", 
        "num_group": "1", 
        "stride": "(1, 1)"
      }, 
      "inputs": [[362, 0, 0], [363, 0, 0], [364, 0, 0]]
    }, 
    {
      "op": "broadcast_add", 
      "name": "broadcast_add14", 
      "inputs": [[365, 0, 0], [345, 0, 0]]
    }, 
    {
      "op": "null", 
      "name": "learned_205", 
      "attrs": {"__shape__": "(64,)"}, 
      "inputs": []
    }, 
    {
      "op": "null", 
      "name": "learned_206", 
      "attrs": {"__shape__": "(64,)"}, 
      "inputs": []
    }, 
    {
      "op": "null", 
      "name": "learned_207", 
      "attrs": {
        "__init__": "[\"zero\", {}]", 
        "__shape__": "(64,)"
      }, 
      "inputs": []
    }, 
    {
      "op": "null", 
      "name": "learned_208", 
      "attrs": {
        "__init__": "[\"one\", {}]", 
        "__shape__": "(64,)"
      }, 
      "inputs": []
    }, 
    {
      "op": "BatchNorm", 
      "name": "batchnorm33", 
      "attrs": {
        "cudnn_off": "1", 
        "eps": "9.999999747378752e-06", 
        "fix_gamma": "False", 
        "momentum": "0.8999999761581421"
      }, 
      "inputs": [[366, 0, 0], [367, 0, 0], [368, 0, 0], [369, 0, 1], [370, 0, 1]]
    }, 
    {
      "op": "relu", 
      "name": "relu33", 
      "inputs": [[371, 0, 0]]
    }, 
    {
      "op": "Pad", 
      "name": "pad33", 
      "attrs": {
        "mode": "constant", 
        "pad_width": "(0, 0, 0, 0, 1, 1, 1, 1)"
      }, 
      "inputs": [[372, 0, 0]]
    }, 
    {
      "op": "null", 
      "name": "learned_209", 
      "attrs": {"__shape__": "(64, 64, 3, 3)"}, 
      "inputs": []
    }, 
    {
      "op": "null", 
      "name": "learned_210", 
      "attrs": {"__shape__": "(64,)"}, 
      "inputs": []
    }, 
    {
      "op": "Convolution", 
      "name": "convolution33", 
      "attrs": {
        "dilate": "(1, 1)", 
        "kernel": "(3, 3)", 
        "no_bias": "False", 
        "num_filter": "64", 
        "num_group": "1", 
        "stride": "(1, 1)"
      }, 
      "inputs": [[373, 0, 0], [374, 0, 0], [375, 0, 0]]
    }, 
    {
      "op": "null", 
      "name": "learned_211", 
      "attrs": {"__shape__": "(64,)"}, 
      "inputs": []
    }, 
    {
      "op": "null", 
      "name": "learned_212", 
      "attrs": {"__shape__": "(64,)"}, 
      "inputs": []
    }, 
    {
      "op": "null", 
      "name": "learned_213", 
      "attrs": {
        "__init__": "[\"zero\", {}]", 
        "__shape__": "(64,)"
      }, 
      "inputs": []
    }, 
    {
      "op": "null", 
      "name": "learned_214", 
      "attrs": {
        "__init__": "[\"one\", {}]", 
        "__shape__": "(64,)"
      }, 
      "inputs": []
    }, 
    {
      "op": "BatchNorm", 
      "name": "batchnorm34", 
      "attrs": {
        "cudnn_off": "1", 
        "eps": "9.999999747378752e-06", 
        "fix_gamma": "False", 
        "momentum": "0.8999999761581421"
      }, 
      "inputs": [[376, 0, 0], [377, 0, 0], [378, 0, 0], [379, 0, 1], [380, 0, 1]]
    }, 
    {
      "op": "relu", 
      "name": "relu34", 
      "inputs": [[381, 0, 0]]
    }, 
    {
      "op": "Pad", 
      "name": "pad34", 
      "attrs": {
        "mode": "constant", 
        "pad_width": "(0, 0, 0, 0, 1, 1, 1, 1)"
      }, 
      "inputs": [[382, 0, 0]]
    }, 
    {
      "op": "null", 
      "name": "learned_215", 
      "attrs": {"__shape__": "(64, 64, 3, 3)"}, 
      "inputs": []
    }, 
    {
      "op": "null", 
      "name": "learned_216", 
      "attrs": {"__shape__": "(64,)"}, 
      "inputs": []
    }, 
    {
      "op": "Convolution", 
      "name": "convolution34", 
      "attrs": {
        "dilate": "(1, 1)", 
        "kernel": "(3, 3)", 
        "no_bias": "False", 
        "num_filter": "64", 
        "num_group": "1", 
        "stride": "(1, 1)"
      }, 
      "inputs": [[383, 0, 0], [384, 0, 0], [385, 0, 0]]
    }, 
    {
      "op": "broadcast_add", 
      "name": "broadcast_add15", 
      "inputs": [[386, 0, 0], [366, 0, 0]]
    }, 
    {
      "op": "null", 
      "name": "learned_217", 
      "attrs": {"__shape__": "(64,)"}, 
      "inputs": []
    }, 
    {
      "op": "null", 
      "name": "learned_218", 
      "attrs": {"__shape__": "(64,)"}, 
      "inputs": []
    }, 
    {
      "op": "null", 
      "name": "learned_219", 
      "attrs": {
        "__init__": "[\"zero\", {}]", 
        "__shape__": "(64,)"
      }, 
      "inputs": []
    }, 
    {
      "op": "null", 
      "name": "learned_220", 
      "attrs": {
        "__init__": "[\"one\", {}]", 
        "__shape__": "(64,)"
      }, 
      "inputs": []
    }, 
    {
      "op": "BatchNorm", 
      "name": "batchnorm35", 
      "attrs": {
        "cudnn_off": "1", 
        "eps": "9.999999747378752e-06", 
        "fix_gamma": "False", 
        "momentum": "0.8999999761581421"
      }, 
      "inputs": [[387, 0, 0], [388, 0, 0], [389, 0, 0], [390, 0, 1], [391, 0, 1]]
    }, 
    {
      "op": "relu", 
      "name": "relu35", 
      "inputs": [[392, 0, 0]]
    }, 
    {
      "op": "Pad", 
      "name": "pad35", 
      "attrs": {
        "mode": "constant", 
        "pad_width": "(0, 0, 0, 0, 1, 1, 1, 1)"
      }, 
      "inputs": [[393, 0, 0]]
    }, 
    {
      "op": "null", 
      "name": "learned_221", 
      "attrs": {"__shape__": "(64, 64, 3, 3)"}, 
      "inputs": []
    }, 
    {
      "op": "null", 
      "name": "learned_222", 
      "attrs": {"__shape__": "(64,)"}, 
      "inputs": []
    }, 
    {
      "op": "Convolution", 
      "name": "convolution35", 
      "attrs": {
        "dilate": "(1, 1)", 
        "kernel": "(3, 3)", 
        "no_bias": "False", 
        "num_filter": "64", 
        "num_group": "1", 
        "stride": "(1, 1)"
      }, 
      "inputs": [[394, 0, 0], [395, 0, 0], [396, 0, 0]]
    }, 
    {
      "op": "null", 
      "name": "learned_223", 
      "attrs": {"__shape__": "(64,)"}, 
      "inputs": []
    }, 
    {
      "op": "null", 
      "name": "learned_224", 
      "attrs": {"__shape__": "(64,)"}, 
      "inputs": []
    }, 
    {
      "op": "null", 
      "name": "learned_225", 
      "attrs": {
        "__init__": "[\"zero\", {}]", 
        "__shape__": "(64,)"
      }, 
      "inputs": []
    }, 
    {
      "op": "null", 
      "name": "learned_226", 
      "attrs": {
        "__init__": "[\"one\", {}]", 
        "__shape__": "(64,)"
      }, 
      "inputs": []
    }, 
    {
      "op": "BatchNorm", 
      "name": "batchnorm36", 
      "attrs": {
        "cudnn_off": "1", 
        "eps": "9.999999747378752e-06", 
        "fix_gamma": "False", 
        "momentum": "0.8999999761581421"
      }, 
      "inputs": [[397, 0, 0], [398, 0, 0], [399, 0, 0], [400, 0, 1], [401, 0, 1]]
    }, 
    {
      "op": "relu", 
      "name": "relu36", 
      "inputs": [[402, 0, 0]]
    }, 
    {
      "op": "Pad", 
      "name": "pad36", 
      "attrs": {
        "mode": "constant", 
        "pad_width": "(0, 0, 0, 0, 1, 1, 1, 1)"
      }, 
      "inputs": [[403, 0, 0]]
    }, 
    {
      "op": "null", 
      "name": "learned_227", 
      "attrs": {"__shape__": "(64, 64, 3, 3)"}, 
      "inputs": []
    }, 
    {
      "op": "null", 
      "name": "learned_228", 
      "attrs": {"__shape__": "(64,)"}, 
      "inputs": []
    }, 
    {
      "op": "Convolution", 
      "name": "convolution36", 
      "attrs": {
        "dilate": "(1, 1)", 
        "kernel": "(3, 3)", 
        "no_bias": "False", 
        "num_filter": "64", 
        "num_group": "1", 
        "stride": "(1, 1)"
      }, 
      "inputs": [[404, 0, 0], [405, 0, 0], [406, 0, 0]]
    }, 
    {
      "op": "broadcast_add", 
      "name": "broadcast_add16", 
      "inputs": [[407, 0, 0], [387, 0, 0]]
    }, 
    {
      "op": "null", 
      "name": "learned_229", 
      "attrs": {"__shape__": "(64,)"}, 
      "inputs": []
    }, 
    {
      "op": "null", 
      "name": "learned_230", 
      "attrs": {"__shape__": "(64,)"}, 
      "inputs": []
    }, 
    {
      "op": "null", 
      "name": "learned_231", 
      "attrs": {
        "__init__": "[\"zero\", {}]", 
        "__shape__": "(64,)"
      }, 
      "inputs": []
    }, 
    {
      "op": "null", 
      "name": "learned_232", 
      "attrs": {
        "__init__": "[\"one\", {}]", 
        "__shape__": "(64,)"
      }, 
      "inputs": []
    }, 
    {
      "op": "BatchNorm", 
      "name": "batchnorm37", 
      "attrs": {
        "cudnn_off": "1", 
        "eps": "9.999999747378752e-06", 
        "fix_gamma": "False", 
        "momentum": "0.8999999761581421"
      }, 
      "inputs": [[408, 0, 0], [409, 0, 0], [410, 0, 0], [411, 0, 1], [412, 0, 1]]
    }, 
    {
      "op": "relu", 
      "name": "relu37", 
      "inputs": [[413, 0, 0]]
    }, 
    {
      "op": "Pad", 
      "name": "pad37", 
      "attrs": {
        "mode": "constant", 
        "pad_width": "(0, 0, 0, 0, 1, 1, 1, 1)"
      }, 
      "inputs": [[414, 0, 0]]
    }, 
    {
      "op": "null", 
      "name": "learned_233", 
      "attrs": {"__shape__": "(64, 64, 3, 3)"}, 
      "inputs": []
    }, 
    {
      "op": "null", 
      "name": "learned_234", 
      "attrs": {"__shape__": "(64,)"}, 
      "inputs": []
    }, 
    {
      "op": "Convolution", 
      "name": "convolution37", 
      "attrs": {
        "dilate": "(1, 1)", 
        "kernel": "(3, 3)", 
        "no_bias": "False", 
        "num_filter": "64", 
        "num_group": "1", 
        "stride": "(1, 1)"
      }, 
      "inputs": [[415, 0, 0], [416, 0, 0], [417, 0, 0]]
    }, 
    {
      "op": "null", 
      "name": "learned_235", 
      "attrs": {"__shape__": "(64,)"}, 
      "inputs": []
    }, 
    {
      "op": "null", 
      "name": "learned_236", 
      "attrs": {"__shape__": "(64,)"}, 
      "inputs": []
    }, 
    {
      "op": "null", 
      "name": "learned_237", 
      "attrs": {
        "__init__": "[\"zero\", {}]", 
        "__shape__": "(64,)"
      }, 
      "inputs": []
    }, 
    {
      "op": "null", 
      "name": "learned_238", 
      "attrs": {
        "__init__": "[\"one\", {}]", 
        "__shape__": "(64,)"
      }, 
      "inputs": []
    }, 
    {
      "op": "BatchNorm", 
      "name": "batchnorm38", 
      "attrs": {
        "cudnn_off": "1", 
        "eps": "9.999999747378752e-06", 
        "fix_gamma": "False", 
        "momentum": "0.8999999761581421"
      }, 
      "inputs": [[418, 0, 0], [419, 0, 0], [420, 0, 0], [421, 0, 1], [422, 0, 1]]
    }, 
    {
      "op": "relu", 
      "name": "relu38", 
      "inputs": [[423, 0, 0]]
    }, 
    {
      "op": "Pad", 
      "name": "pad38", 
      "attrs": {
        "mode": "constant", 
        "pad_width": "(0, 0, 0, 0, 1, 1, 1, 1)"
      }, 
      "inputs": [[424, 0, 0]]
    }, 
    {
      "op": "null", 
      "name": "learned_239", 
      "attrs": {"__shape__": "(64, 64, 3, 3)"}, 
      "inputs": []
    }, 
    {
      "op": "null", 
      "name": "learned_240", 
      "attrs": {"__shape__": "(64,)"}, 
      "inputs": []
    }, 
    {
      "op": "Convolution", 
      "name": "convolution38", 
      "attrs": {
        "dilate": "(1, 1)", 
        "kernel": "(3, 3)", 
        "no_bias": "False", 
        "num_filter": "64", 
        "num_group": "1", 
        "stride": "(1, 1)"
      }, 
      "inputs": [[425, 0, 0], [426, 0, 0], [427, 0, 0]]
    }, 
    {
      "op": "broadcast_add", 
      "name": "broadcast_add17", 
      "inputs": [[428, 0, 0], [408, 0, 0]]
    }, 
    {
      "op": "Concat", 
      "name": "concat2", 
      "attrs": {
        "dim": "1", 
        "num_args": "9"
      }, 
      "inputs": [[324, 0, 0], [345, 0, 0], [366, 0, 0], [387, 0, 0], [408, 0, 0], [429, 0, 0], [10, 0, 0], [147, 0, 0], [296, 0, 0]]
    }, 
    {
      "op": "null", 
      "name": "learned_241", 
      "attrs": {"__shape__": "(576,)"}, 
      "inputs": []
    }, 
    {
      "op": "null", 
      "name": "learned_242", 
      "attrs": {"__shape__": "(576,)"}, 
      "inputs": []
    }, 
    {
      "op": "null", 
      "name": "learned_243", 
      "attrs": {
        "__init__": "[\"zero\", {}]", 
        "__shape__": "(576,)"
      }, 
      "inputs": []
    }, 
    {
      "op": "null", 
      "name": "learned_244", 
      "attrs": {
        "__init__": "[\"one\", {}]", 
        "__shape__": "(576,)"
      }, 
      "inputs": []
    }, 
    {
      "op": "BatchNorm", 
      "name": "batchnorm39", 
      "attrs": {
        "cudnn_off": "1", 
        "eps": "9.999999747378752e-06", 
        "fix_gamma": "False", 
        "momentum": "0.8999999761581421"
      }, 
      "inputs": [[430, 0, 0], [431, 0, 0], [432, 0, 0], [433, 0, 1], [434, 0, 1]]
    }, 
    {
      "op": "relu", 
      "name": "relu39", 
      "inputs": [[435, 0, 0]]
    }, 
    {
      "op": "Pad", 
      "name": "pad39", 
      "attrs": {
        "mode": "constant", 
        "pad_width": "(0, 0, 0, 0, 0, 0, 0, 0)"
      }, 
      "inputs": [[436, 0, 0]]
    }, 
    {
      "op": "null", 
      "name": "learned_245", 
      "attrs": {"__shape__": "(64, 576, 1, 1)"}, 
      "inputs": []
    }, 
    {
      "op": "null", 
      "name": "learned_246", 
      "attrs": {"__shape__": "(64,)"}, 
      "inputs": []
    }, 
    {
      "op": "Convolution", 
      "name": "convolution39", 
      "attrs": {
        "dilate": "(1, 1)", 
        "kernel": "(1, 1)", 
        "no_bias": "False", 
        "num_filter": "64", 
        "num_group": "1", 
        "stride": "(1, 1)"
      }, 
      "inputs": [[437, 0, 0], [438, 0, 0], [439, 0, 0]]
    }, 
    {
      "op": "BatchNorm", 
      "name": "batchnorm81", 
      "attrs": {
        "cudnn_off": "1", 
        "eps": "9.999999747378752e-06", 
        "fix_gamma": "False", 
        "momentum": "0.8999999761581421"
      }, 
      "inputs": [[440, 0, 0], [148, 0, 0], [149, 0, 0], [150, 0, 3], [151, 0, 3]]
    }, 
    {
      "op": "relu", 
      "name": "relu81", 
      "inputs": [[441, 0, 0]]
    }, 
    {
      "op": "Pad", 
      "name": "pad81", 
      "attrs": {
        "mode": "constant", 
        "pad_width": "(0, 0, 0, 0, 1, 1, 1, 1)"
      }, 
      "inputs": [[442, 0, 0]]
    }, 
    {
      "op": "Convolution", 
      "name": "convolution81", 
      "attrs": {
        "dilate": "(1, 1)", 
        "kernel": "(3, 3)", 
        "no_bias": "False", 
        "num_filter": "1", 
        "num_group": "1", 
        "stride": "(1, 1)"
      }, 
      "inputs": [[443, 0, 0], [155, 0, 0], [156, 0, 0]]
    }, 
    {
      "op": "broadcast_add", 
      "name": "broadcast_add39", 
      "inputs": [[444, 0, 0], [0, 0, 0]]
    }, 
    {
      "op": "_mul_scalar", 
      "name": "_mulscalar2", 
      "attrs": {"scalar": "0.1666666666667"}, 
      "inputs": [[445, 0, 0]]
    }, 
    {
      "op": "broadcast_add", 
      "name": "broadcast_add40", 
      "inputs": [[303, 0, 0], [446, 0, 0]]
    }, 
    {
      "op": "null", 
      "name": "learned_247", 
      "attrs": {"__shape__": "(64,)"}, 
      "inputs": []
    }, 
    {
      "op": "null", 
      "name": "learned_248", 
      "attrs": {"__shape__": "(64,)"}, 
      "inputs": []
    }, 
    {
      "op": "null", 
      "name": "learned_249", 
      "attrs": {
        "__init__": "[\"zero\", {}]", 
        "__shape__": "(64,)"
      }, 
      "inputs": []
    }, 
    {
      "op": "null", 
      "name": "learned_250", 
      "attrs": {
        "__init__": "[\"one\", {}]", 
        "__shape__": "(64,)"
      }, 
      "inputs": []
    }, 
    {
      "op": "BatchNorm", 
      "name": "batchnorm40", 
      "attrs": {
        "cudnn_off": "1", 
        "eps": "9.999999747378752e-06", 
        "fix_gamma": "False", 
        "momentum": "0.8999999761581421"
      }, 
      "inputs": [[440, 0, 0], [448, 0, 0], [449, 0, 0], [450, 0, 1], [451, 0, 1]]
    }, 
    {
      "op": "relu", 
      "name": "relu40", 
      "inputs": [[452, 0, 0]]
    }, 
    {
      "op": "Pad", 
      "name": "pad40", 
      "attrs": {
        "mode": "constant", 
        "pad_width": "(0, 0, 0, 0, 1, 1, 1, 1)"
      }, 
      "inputs": [[453, 0, 0]]
    }, 
    {
      "op": "null", 
      "name": "learned_251", 
      "attrs": {"__shape__": "(64, 64, 3, 3)"}, 
      "inputs": []
    }, 
    {
      "op": "null", 
      "name": "learned_252", 
      "attrs": {"__shape__": "(64,)"}, 
      "inputs": []
    }, 
    {
      "op": "Convolution", 
      "name": "convolution40", 
      "attrs": {
        "dilate": "(1, 1)", 
        "kernel": "(3, 3)", 
        "no_bias": "False", 
        "num_filter": "64", 
        "num_group": "1", 
        "stride": "(1, 1)"
      }, 
      "inputs": [[454, 0, 0], [455, 0, 0], [456, 0, 0]]
    }, 
    {
      "op": "null", 
      "name": "learned_253", 
      "attrs": {"__shape__": "(64,)"}, 
      "inputs": []
    }, 
    {
      "op": "null", 
      "name": "learned_254", 
      "attrs": {"__shape__": "(64,)"}, 
      "inputs": []
    }, 
    {
      "op": "null", 
      "name": "learned_255", 
      "attrs": {
        "__init__": "[\"zero\", {}]", 
        "__shape__": "(64,)"
      }, 
      "inputs": []
    }, 
    {
      "op": "null", 
      "name": "learned_256", 
      "attrs": {
        "__init__": "[\"one\", {}]", 
        "__shape__": "(64,)"
      }, 
      "inputs": []
    }, 
    {
      "op": "BatchNorm", 
      "name": "batchnorm41", 
      "attrs": {
        "cudnn_off": "1", 
        "eps": "9.999999747378752e-06", 
        "fix_gamma": "False", 
        "momentum": "0.8999999761581421"
      }, 
      "inputs": [[457, 0, 0], [458, 0, 0], [459, 0, 0], [460, 0, 1], [461, 0, 1]]
    }, 
    {
      "op": "relu", 
      "name": "relu41", 
      "inputs": [[462, 0, 0]]
    }, 
    {
      "op": "Pad", 
      "name": "pad41", 
      "attrs": {
        "mode": "constant", 
        "pad_width": "(0, 0, 0, 0, 1, 1, 1, 1)"
      }, 
      "inputs": [[463, 0, 0]]
    }, 
    {
      "op": "null", 
      "name": "learned_257", 
      "attrs": {"__shape__": "(64, 64, 3, 3)"}, 
      "inputs": []
    }, 
    {
      "op": "null", 
      "name": "learned_258", 
      "attrs": {"__shape__": "(64,)"}, 
      "inputs": []
    }, 
    {
      "op": "Convolution", 
      "name": "convolution41", 
      "attrs": {
        "dilate": "(1, 1)", 
        "kernel": "(3, 3)", 
        "no_bias": "False", 
        "num_filter": "64", 
        "num_group": "1", 
        "stride": "(1, 1)"
      }, 
      "inputs": [[464, 0, 0], [465, 0, 0], [466, 0, 0]]
    }, 
    {
      "op": "broadcast_add", 
      "name": "broadcast_add18", 
      "inputs": [[467, 0, 0], [440, 0, 0]]
    }, 
    {
      "op": "null", 
      "name": "learned_259", 
      "attrs": {"__shape__": "(64,)"}, 
      "inputs": []
    }, 
    {
      "op": "null", 
      "name": "learned_260", 
      "attrs": {"__shape__": "(64,)"}, 
      "inputs": []
    }, 
    {
      "op": "null", 
      "name": "learned_261", 
      "attrs": {
        "__init__": "[\"zero\", {}]", 
        "__shape__": "(64,)"
      }, 
      "inputs": []
    }, 
    {
      "op": "null", 
      "name": "learned_262", 
      "attrs": {
        "__init__": "[\"one\", {}]", 
        "__shape__": "(64,)"
      }, 
      "inputs": []
    }, 
    {
      "op": "BatchNorm", 
      "name": "batchnorm42", 
      "attrs": {
        "cudnn_off": "1", 
        "eps": "9.999999747378752e-06", 
        "fix_gamma": "False", 
        "momentum": "0.8999999761581421"
      }, 
      "inputs": [[468, 0, 0], [469, 0, 0], [470, 0, 0], [471, 0, 1], [472, 0, 1]]
    }, 
    {
      "op": "relu", 
      "name": "relu42", 
      "inputs": [[473, 0, 0]]
    }, 
    {
      "op": "Pad", 
      "name": "pad42", 
      "attrs": {
        "mode": "constant", 
        "pad_width": "(0, 0, 0, 0, 1, 1, 1, 1)"
      }, 
      "inputs": [[474, 0, 0]]
    }, 
    {
      "op": "null", 
      "name": "learned_263", 
      "attrs": {"__shape__": "(64, 64, 3, 3)"}, 
      "inputs": []
    }, 
    {
      "op": "null", 
      "name": "learned_264", 
      "attrs": {"__shape__": "(64,)"}, 
      "inputs": []
    }, 
    {
      "op": "Convolution", 
      "name": "convolution42", 
      "attrs": {
        "dilate": "(1, 1)", 
        "kernel": "(3, 3)", 
        "no_bias": "False", 
        "num_filter": "64", 
        "num_group": "1", 
        "stride": "(1, 1)"
      }, 
      "inputs": [[475, 0, 0], [476, 0, 0], [477, 0, 0]]
    }, 
    {
      "op": "null", 
      "name": "learned_265", 
      "attrs": {"__shape__": "(64,)"}, 
      "inputs": []
    }, 
    {
      "op": "null", 
      "name": "learned_266", 
      "attrs": {"__shape__": "(64,)"}, 
      "inputs": []
    }, 
    {
      "op": "null", 
      "name": "learned_267", 
      "attrs": {
        "__init__": "[\"zero\", {}]", 
        "__shape__": "(64,)"
      }, 
      "inputs": []
    }, 
    {
      "op": "null", 
      "name": "learned_268", 
      "attrs": {
        "__init__": "[\"one\", {}]", 
        "__shape__": "(64,)"
      }, 
      "inputs": []
    }, 
    {
      "op": "BatchNorm", 
      "name": "batchnorm43", 
      "attrs": {
        "cudnn_off": "1", 
        "eps": "9.999999747378752e-06", 
        "fix_gamma": "False", 
        "momentum": "0.8999999761581421"
      }, 
      "inputs": [[478, 0, 0], [479, 0, 0], [480, 0, 0], [481, 0, 1], [482, 0, 1]]
    }, 
    {
      "op": "relu", 
      "name": "relu43", 
      "inputs": [[483, 0, 0]]
    }, 
    {
      "op": "Pad", 
      "name": "pad43", 
      "attrs": {
        "mode": "constant", 
        "pad_width": "(0, 0, 0, 0, 1, 1, 1, 1)"
      }, 
      "inputs": [[484, 0, 0]]
    }, 
    {
      "op": "null", 
      "name": "learned_269", 
      "attrs": {"__shape__": "(64, 64, 3, 3)"}, 
      "inputs": []
    }, 
    {
      "op": "null", 
      "name": "learned_270", 
      "attrs": {"__shape__": "(64,)"}, 
      "inputs": []
    }, 
    {
      "op": "Convolution", 
      "name": "convolution43", 
      "attrs": {
        "dilate": "(1, 1)", 
        "kernel": "(3, 3)", 
        "no_bias": "False", 
        "num_filter": "64", 
        "num_group": "1", 
        "stride": "(1, 1)"
      }, 
      "inputs": [[485, 0, 0], [486, 0, 0], [487, 0, 0]]
    }, 
    {
      "op": "broadcast_add", 
      "name": "broadcast_add19", 
      "inputs": [[488, 0, 0], [468, 0, 0]]
    }, 
    {
      "op": "null", 
      "name": "learned_271", 
      "attrs": {"__shape__": "(64,)"}, 
      "inputs": []
    }, 
    {
      "op": "null", 
      "name": "learned_272", 
      "attrs": {"__shape__": "(64,)"}, 
      "inputs": []
    }, 
    {
      "op": "null", 
      "name": "learned_273", 
      "attrs": {
        "__init__": "[\"zero\", {}]", 
        "__shape__": "(64,)"
      }, 
      "inputs": []
    }, 
    {
      "op": "null", 
      "name": "learned_274", 
      "attrs": {
        "__init__": "[\"one\", {}]", 
        "__shape__": "(64,)"
      }, 
      "inputs": []
    }, 
    {
      "op": "BatchNorm", 
      "name": "batchnorm44", 
      "attrs": {
        "cudnn_off": "1", 
        "eps": "9.999999747378752e-06", 
        "fix_gamma": "False", 
        "momentum": "0.8999999761581421"
      }, 
      "inputs": [[489, 0, 0], [490, 0, 0], [491, 0, 0], [492, 0, 1], [493, 0, 1]]
    }, 
    {
      "op": "relu", 
      "name": "relu44", 
      "inputs": [[494, 0, 0]]
    }, 
    {
      "op": "Pad", 
      "name": "pad44", 
      "attrs": {
        "mode": "constant", 
        "pad_width": "(0, 0, 0, 0, 1, 1, 1, 1)"
      }, 
      "inputs": [[495, 0, 0]]
    }, 
    {
      "op": "null", 
      "name": "learned_275", 
      "attrs": {"__shape__": "(64, 64, 3, 3)"}, 
      "inputs": []
    }, 
    {
      "op": "null", 
      "name": "learned_276", 
      "attrs": {"__shape__": "(64,)"}, 
      "inputs": []
    }, 
    {
      "op": "Convolution", 
      "name": "convolution44", 
      "attrs": {
        "dilate": "(1, 1)", 
        "kernel": "(3, 3)", 
        "no_bias": "False", 
        "num_filter": "64", 
        "num_group": "1", 
        "stride": "(1, 1)"
      }, 
      "inputs": [[496, 0, 0], [497, 0, 0], [498, 0, 0]]
    }, 
    {
      "op": "null", 
      "name": "learned_277", 
      "attrs": {"__shape__": "(64,)"}, 
      "inputs": []
    }, 
    {
      "op": "null", 
      "name": "learned_278", 
      "attrs": {"__shape__": "(64,)"}, 
      "inputs": []
    }, 
    {
      "op": "null", 
      "name": "learned_279", 
      "attrs": {
        "__init__": "[\"zero\", {}]", 
        "__shape__": "(64,)"
      }, 
      "inputs": []
    }, 
    {
      "op": "null", 
      "name": "learned_280", 
      "attrs": {
        "__init__": "[\"one\", {}]", 
        "__shape__": "(64,)"
      }, 
      "inputs": []
    }, 
    {
      "op": "BatchNorm", 
      "name": "batchnorm45", 
      "attrs": {
        "cudnn_off": "1", 
        "eps": "9.999999747378752e-06", 
        "fix_gamma": "False", 
        "momentum": "0.8999999761581421"
      }, 
      "inputs": [[499, 0, 0], [500, 0, 0], [501, 0, 0], [502, 0, 1], [503, 0, 1]]
    }, 
    {
      "op": "relu", 
      "name": "relu45", 
      "inputs": [[504, 0, 0]]
    }, 
    {
      "op": "Pad", 
      "name": "pad45", 
      "attrs": {
        "mode": "constant", 
        "pad_width": "(0, 0, 0, 0, 1, 1, 1, 1)"
      }, 
      "inputs": [[505, 0, 0]]
    }, 
    {
      "op": "null", 
      "name": "learned_281", 
      "attrs": {"__shape__": "(64, 64, 3, 3)"}, 
      "inputs": []
    }, 
    {
      "op": "null", 
      "name": "learned_282", 
      "attrs": {"__shape__": "(64,)"}, 
      "inputs": []
    }, 
    {
      "op": "Convolution", 
      "name": "convolution45", 
      "attrs": {
        "dilate": "(1, 1)", 
        "kernel": "(3, 3)", 
        "no_bias": "False", 
        "num_filter": "64", 
        "num_group": "1", 
        "stride": "(1, 1)"
      }, 
      "inputs": [[506, 0, 0], [507, 0, 0], [508, 0, 0]]
    }, 
    {
      "op": "broadcast_add", 
      "name": "broadcast_add20", 
      "inputs": [[509, 0, 0], [489, 0, 0]]
    }, 
    {
      "op": "null", 
      "name": "learned_283", 
      "attrs": {"__shape__": "(64,)"}, 
      "inputs": []
    }, 
    {
      "op": "null", 
      "name": "learned_284", 
      "attrs": {"__shape__": "(64,)"}, 
      "inputs": []
    }, 
    {
      "op": "null", 
      "name": "learned_285", 
      "attrs": {
        "__init__": "[\"zero\", {}]", 
        "__shape__": "(64,)"
      }, 
      "inputs": []
    }, 
    {
      "op": "null", 
      "name": "learned_286", 
      "attrs": {
        "__init__": "[\"one\", {}]", 
        "__shape__": "(64,)"
      }, 
      "inputs": []
    }, 
    {
      "op": "BatchNorm", 
      "name": "batchnorm46", 
      "attrs": {
        "cudnn_off": "1", 
        "eps": "9.999999747378752e-06", 
        "fix_gamma": "False", 
        "momentum": "0.8999999761581421"
      }, 
      "inputs": [[510, 0, 0], [511, 0, 0], [512, 0, 0], [513, 0, 1], [514, 0, 1]]
    }, 
    {
      "op": "relu", 
      "name": "relu46", 
      "inputs": [[515, 0, 0]]
    }, 
    {
      "op": "Pad", 
      "name": "pad46", 
      "attrs": {
        "mode": "constant", 
        "pad_width": "(0, 0, 0, 0, 1, 1, 1, 1)"
      }, 
      "inputs": [[516, 0, 0]]
    }, 
    {
      "op": "null", 
      "name": "learned_287", 
      "attrs": {"__shape__": "(64, 64, 3, 3)"}, 
      "inputs": []
    }, 
    {
      "op": "null", 
      "name": "learned_288", 
      "attrs": {"__shape__": "(64,)"}, 
      "inputs": []
    }, 
    {
      "op": "Convolution", 
      "name": "convolution46", 
      "attrs": {
        "dilate": "(1, 1)", 
        "kernel": "(3, 3)", 
        "no_bias": "False", 
        "num_filter": "64", 
        "num_group": "1", 
        "stride": "(1, 1)"
      }, 
      "inputs": [[517, 0, 0], [518, 0, 0], [519, 0, 0]]
    }, 
    {
      "op": "null", 
      "name": "learned_289", 
      "attrs": {"__shape__": "(64,)"}, 
      "inputs": []
    }, 
    {
      "op": "null", 
      "name": "learned_290", 
      "attrs": {"__shape__": "(64,)"}, 
      "inputs": []
    }, 
    {
      "op": "null", 
      "name": "learned_291", 
      "attrs": {
        "__init__": "[\"zero\", {}]", 
        "__shape__": "(64,)"
      }, 
      "inputs": []
    }, 
    {
      "op": "null", 
      "name": "learned_292", 
      "attrs": {
        "__init__": "[\"one\", {}]", 
        "__shape__": "(64,)"
      }, 
      "inputs": []
    }, 
    {
      "op": "BatchNorm", 
      "name": "batchnorm47", 
      "attrs": {
        "cudnn_off": "1", 
        "eps": "9.999999747378752e-06", 
        "fix_gamma": "False", 
        "momentum": "0.8999999761581421"
      }, 
      "inputs": [[520, 0, 0], [521, 0, 0], [522, 0, 0], [523, 0, 1], [524, 0, 1]]
    }, 
    {
      "op": "relu", 
      "name": "relu47", 
      "inputs": [[525, 0, 0]]
    }, 
    {
      "op": "Pad", 
      "name": "pad47", 
      "attrs": {
        "mode": "constant", 
        "pad_width": "(0, 0, 0, 0, 1, 1, 1, 1)"
      }, 
      "inputs": [[526, 0, 0]]
    }, 
    {
      "op": "null", 
      "name": "learned_293", 
      "attrs": {"__shape__": "(64, 64, 3, 3)"}, 
      "inputs": []
    }, 
    {
      "op": "null", 
      "name": "learned_294", 
      "attrs": {"__shape__": "(64,)"}, 
      "inputs": []
    }, 
    {
      "op": "Convolution", 
      "name": "convolution47", 
      "attrs": {
        "dilate": "(1, 1)", 
        "kernel": "(3, 3)", 
        "no_bias": "False", 
        "num_filter": "64", 
        "num_group": "1", 
        "stride": "(1, 1)"
      }, 
      "inputs": [[527, 0, 0], [528, 0, 0], [529, 0, 0]]
    }, 
    {
      "op": "broadcast_add", 
      "name": "broadcast_add21", 
      "inputs": [[530, 0, 0], [510, 0, 0]]
    }, 
    {
      "op": "null", 
      "name": "learned_295", 
      "attrs": {"__shape__": "(64,)"}, 
      "inputs": []
    }, 
    {
      "op": "null", 
      "name": "learned_296", 
      "attrs": {"__shape__": "(64,)"}, 
      "inputs": []
    }, 
    {
      "op": "null", 
      "name": "learned_297", 
      "attrs": {
        "__init__": "[\"zero\", {}]", 
        "__shape__": "(64,)"
      }, 
      "inputs": []
    }, 
    {
      "op": "null", 
      "name": "learned_298", 
      "attrs": {
        "__init__": "[\"one\", {}]", 
        "__shape__": "(64,)"
      }, 
      "inputs": []
    }, 
    {
      "op": "BatchNorm", 
      "name": "batchnorm48", 
      "attrs": {
        "cudnn_off": "1", 
        "eps": "9.999999747378752e-06", 
        "fix_gamma": "False", 
        "momentum": "0.8999999761581421"
      }, 
      "inputs": [[531, 0, 0], [532, 0, 0], [533, 0, 0], [534, 0, 1], [535, 0, 1]]
    }, 
    {
      "op": "relu", 
      "name": "relu48", 
      "inputs": [[536, 0, 0]]
    }, 
    {
      "op": "Pad", 
      "name": "pad48", 
      "attrs": {
        "mode": "constant", 
        "pad_width": "(0, 0, 0, 0, 1, 1, 1, 1)"
      }, 
      "inputs": [[537, 0, 0]]
    }, 
    {
      "op": "null", 
      "name": "learned_299", 
      "attrs": {"__shape__": "(64, 64, 3, 3)"}, 
      "inputs": []
    }, 
    {
      "op": "null", 
      "name": "learned_300", 
      "attrs": {"__shape__": "(64,)"}, 
      "inputs": []
    }, 
    {
      "op": "Convolution", 
      "name": "convolution48", 
      "attrs": {
        "dilate": "(1, 1)", 
        "kernel": "(3, 3)", 
        "no_bias": "False", 
        "num_filter": "64", 
        "num_group": "1", 
        "stride": "(1, 1)"
      }, 
      "inputs": [[538, 0, 0], [539, 0, 0], [540, 0, 0]]
    }, 
    {
      "op": "null", 
      "name": "learned_301", 
      "attrs": {"__shape__": "(64,)"}, 
      "inputs": []
    }, 
    {
      "op": "null", 
      "name": "learned_302", 
      "attrs": {"__shape__": "(64,)"}, 
      "inputs": []
    }, 
    {
      "op": "null", 
      "name": "learned_303", 
      "attrs": {
        "__init__": "[\"zero\", {}]", 
        "__shape__": "(64,)"
      }, 
      "inputs": []
    }, 
    {
      "op": "null", 
      "name": "learned_304", 
      "attrs": {
        "__init__": "[\"one\", {}]", 
        "__shape__": "(64,)"
      }, 
      "inputs": []
    }, 
    {
      "op": "BatchNorm", 
      "name": "batchnorm49", 
      "attrs": {
        "cudnn_off": "1", 
        "eps": "9.999999747378752e-06", 
        "fix_gamma": "False", 
        "momentum": "0.8999999761581421"
      }, 
      "inputs": [[541, 0, 0], [542, 0, 0], [543, 0, 0], [544, 0, 1], [545, 0, 1]]
    }, 
    {
      "op": "relu", 
      "name": "relu49", 
      "inputs": [[546, 0, 0]]
    }, 
    {
      "op": "Pad", 
      "name": "pad49", 
      "attrs": {
        "mode": "constant", 
        "pad_width": "(0, 0, 0, 0, 1, 1, 1, 1)"
      }, 
      "inputs": [[547, 0, 0]]
    }, 
    {
      "op": "null", 
      "name": "learned_305", 
      "attrs": {"__shape__": "(64, 64, 3, 3)"}, 
      "inputs": []
    }, 
    {
      "op": "null", 
      "name": "learned_306", 
      "attrs": {"__shape__": "(64,)"}, 
      "inputs": []
    }, 
    {
      "op": "Convolution", 
      "name": "convolution49", 
      "attrs": {
        "dilate": "(1, 1)", 
        "kernel": "(3, 3)", 
        "no_bias": "False", 
        "num_filter": "64", 
        "num_group": "1", 
        "stride": "(1, 1)"
      }, 
      "inputs": [[548, 0, 0], [549, 0, 0], [550, 0, 0]]
    }, 
    {
      "op": "broadcast_add", 
      "name": "broadcast_add22", 
      "inputs": [[551, 0, 0], [531, 0, 0]]
    }, 
    {
      "op": "null", 
      "name": "learned_307", 
      "attrs": {"__shape__": "(64,)"}, 
      "inputs": []
    }, 
    {
      "op": "null", 
      "name": "learned_308", 
      "attrs": {"__shape__": "(64,)"}, 
      "inputs": []
    }, 
    {
      "op": "null", 
      "name": "learned_309", 
      "attrs": {
        "__init__": "[\"zero\", {}]", 
        "__shape__": "(64,)"
      }, 
      "inputs": []
    }, 
    {
      "op": "null", 
      "name": "learned_310", 
      "attrs": {
        "__init__": "[\"one\", {}]", 
        "__shape__": "(64,)"
      }, 
      "inputs": []
    }, 
    {
      "op": "BatchNorm", 
      "name": "batchnorm50", 
      "attrs": {
        "cudnn_off": "1", 
        "eps": "9.999999747378752e-06", 
        "fix_gamma": "False", 
        "momentum": "0.8999999761581421"
      }, 
      "inputs": [[552, 0, 0], [553, 0, 0], [554, 0, 0], [555, 0, 1], [556, 0, 1]]
    }, 
    {
      "op": "relu", 
      "name": "relu50", 
      "inputs": [[557, 0, 0]]
    }, 
    {
      "op": "Pad", 
      "name": "pad50", 
      "attrs": {
        "mode": "constant", 
        "pad_width": "(0, 0, 0, 0, 1, 1, 1, 1)"
      }, 
      "inputs": [[558, 0, 0]]
    }, 
    {
      "op": "null", 
      "name": "learned_311", 
      "attrs": {"__shape__": "(64, 64, 3, 3)"}, 
      "inputs": []
    }, 
    {
      "op": "null", 
      "name": "learned_312", 
      "attrs": {"__shape__": "(64,)"}, 
      "inputs": []
    }, 
    {
      "op": "Convolution", 
      "name": "convolution50", 
      "attrs": {
        "dilate": "(1, 1)", 
        "kernel": "(3, 3)", 
        "no_bias": "False", 
        "num_filter": "64", 
        "num_group": "1", 
        "stride": "(1, 1)"
      }, 
      "inputs": [[559, 0, 0], [560, 0, 0], [561, 0, 0]]
    }, 
    {
      "op": "null", 
      "name": "learned_313", 
      "attrs": {"__shape__": "(64,)"}, 
      "inputs": []
    }, 
    {
      "op": "null", 
      "name": "learned_314", 
      "attrs": {"__shape__": "(64,)"}, 
      "inputs": []
    }, 
    {
      "op": "null", 
      "name": "learned_315", 
      "attrs": {
        "__init__": "[\"zero\", {}]", 
        "__shape__": "(64,)"
      }, 
      "inputs": []
    }, 
    {
      "op": "null", 
      "name": "learned_316", 
      "attrs": {
        "__init__": "[\"one\", {}]", 
        "__shape__": "(64,)"
      }, 
      "inputs": []
    }, 
    {
      "op": "BatchNorm", 
      "name": "batchnorm51", 
      "attrs": {
        "cudnn_off": "1", 
        "eps": "9.999999747378752e-06", 
        "fix_gamma": "False", 
        "momentum": "0.8999999761581421"
      }, 
      "inputs": [[562, 0, 0], [563, 0, 0], [564, 0, 0], [565, 0, 1], [566, 0, 1]]
    }, 
    {
      "op": "relu", 
      "name": "relu51", 
      "inputs": [[567, 0, 0]]
    }, 
    {
      "op": "Pad", 
      "name": "pad51", 
      "attrs": {
        "mode": "constant", 
        "pad_width": "(0, 0, 0, 0, 1, 1, 1, 1)"
      }, 
      "inputs": [[568, 0, 0]]
    }, 
    {
      "op": "null", 
      "name": "learned_317", 
      "attrs": {"__shape__": "(64, 64, 3, 3)"}, 
      "inputs": []
    }, 
    {
      "op": "null", 
      "name": "learned_318", 
      "attrs": {"__shape__": "(64,)"}, 
      "inputs": []
    }, 
    {
      "op": "Convolution", 
      "name": "convolution51", 
      "attrs": {
        "dilate": "(1, 1)", 
        "kernel": "(3, 3)", 
        "no_bias": "False", 
        "num_filter": "64", 
        "num_group": "1", 
        "stride": "(1, 1)"
      }, 
      "inputs": [[569, 0, 0], [570, 0, 0], [571, 0, 0]]
    }, 
    {
      "op": "broadcast_add", 
      "name": "broadcast_add23", 
      "inputs": [[572, 0, 0], [552, 0, 0]]
    }, 
    {
      "op": "Concat", 
      "name": "concat3", 
      "attrs": {
        "dim": "1", 
        "num_args": "10"
      }, 
      "inputs": [[468, 0, 0], [489, 0, 0], [510, 0, 0], [531, 0, 0], [552, 0, 0], [573, 0, 0], [10, 0, 0], [147, 0, 0], [296, 0, 0], [440, 0, 0]]
    }, 
    {
      "op": "null", 
      "name": "learned_319", 
      "attrs": {"__shape__": "(640,)"}, 
      "inputs": []
    }, 
    {
      "op": "null", 
      "name": "learned_320", 
      "attrs": {"__shape__": "(640,)"}, 
      "inputs": []
    }, 
    {
      "op": "null", 
      "name": "learned_321", 
      "attrs": {
        "__init__": "[\"zero\", {}]", 
        "__shape__": "(640,)"
      }, 
      "inputs": []
    }, 
    {
      "op": "null", 
      "name": "learned_322", 
      "attrs": {
        "__init__": "[\"one\", {}]", 
        "__shape__": "(640,)"
      }, 
      "inputs": []
    }, 
    {
      "op": "BatchNorm", 
      "name": "batchnorm52", 
      "attrs": {
        "cudnn_off": "1", 
        "eps": "9.999999747378752e-06", 
        "fix_gamma": "False", 
        "momentum": "0.8999999761581421"
      }, 
      "inputs": [[574, 0, 0], [575, 0, 0], [576, 0, 0], [577, 0, 1], [578, 0, 1]]
    }, 
    {
      "op": "relu", 
      "name": "relu52", 
      "inputs": [[579, 0, 0]]
    }, 
    {
      "op": "Pad", 
      "name": "pad52", 
      "attrs": {
        "mode": "constant", 
        "pad_width": "(0, 0, 0, 0, 0, 0, 0, 0)"
      }, 
      "inputs": [[580, 0, 0]]
    }, 
    {
      "op": "null", 
      "name": "learned_323", 
      "attrs": {"__shape__": "(64, 640, 1, 1)"}, 
      "inputs": []
    }, 
    {
      "op": "null", 
      "name": "learned_324", 
      "attrs": {"__shape__": "(64,)"}, 
      "inputs": []
    }, 
    {
      "op": "Convolution", 
      "name": "convolution52", 
      "attrs": {
        "dilate": "(1, 1)", 
        "kernel": "(1, 1)", 
        "no_bias": "False", 
        "num_filter": "64", 
        "num_group": "1", 
        "stride": "(1, 1)"
      }, 
      "inputs": [[581, 0, 0], [582, 0, 0], [583, 0, 0]]
    }, 
    {
      "op": "BatchNorm", 
      "name": "batchnorm82", 
      "attrs": {
        "cudnn_off": "1", 
        "eps": "9.999999747378752e-06", 
        "fix_gamma": "False", 
        "momentum": "0.8999999761581421"
      }, 
      "inputs": [[584, 0, 0], [148, 0, 0], [149, 0, 0], [150, 0, 4], [151, 0, 4]]
    }, 
    {
      "op": "relu", 
      "name": "relu82", 
      "inputs": [[585, 0, 0]]
    }, 
    {
      "op": "Pad", 
      "name": "pad82", 
      "attrs": {
        "mode": "constant", 
        "pad_width": "(0, 0, 0, 0, 1, 1, 1, 1)"
      }, 
      "inputs": [[586, 0, 0]]
    }, 
    {
      "op": "Convolution", 
      "name": "convolution82", 
      "attrs": {
        "dilate": "(1, 1)", 
        "kernel": "(3, 3)", 
        "no_bias": "False", 
        "num_filter": "1", 
        "num_group": "1", 
        "stride": "(1, 1)"
      }, 
      "inputs": [[587, 0, 0], [155, 0, 0], [156, 0, 0]]
    }, 
    {
      "op": "broadcast_add", 
      "name": "broadcast_add41", 
      "inputs": [[588, 0, 0], [0, 0, 0]]
    }, 
    {
      "op": "_mul_scalar", 
      "name": "_mulscalar3", 
      "attrs": {"scalar": "0.1666666666667"}, 
      "inputs": [[589, 0, 0]]
    }, 
    {
      "op": "broadcast_add", 
      "name": "broadcast_add42", 
      "inputs": [[447, 0, 0], [590, 0, 0]]
    }, 
    {
      "op": "null", 
      "name": "learned_325", 
      "attrs": {"__shape__": "(64,)"}, 
      "inputs": []
    }, 
    {
      "op": "null", 
      "name": "learned_326", 
      "attrs": {"__shape__": "(64,)"}, 
      "inputs": []
    }, 
    {
      "op": "null", 
      "name": "learned_327", 
      "attrs": {
        "__init__": "[\"zero\", {}]", 
        "__shape__": "(64,)"
      }, 
      "inputs": []
    }, 
    {
      "op": "null", 
      "name": "learned_328", 
      "attrs": {
        "__init__": "[\"one\", {}]", 
        "__shape__": "(64,)"
      }, 
      "inputs": []
    }, 
    {
      "op": "BatchNorm", 
      "name": "batchnorm53", 
      "attrs": {
        "cudnn_off": "1", 
        "eps": "9.999999747378752e-06", 
        "fix_gamma": "False", 
        "momentum": "0.8999999761581421"
      }, 
      "inputs": [[584, 0, 0], [592, 0, 0], [593, 0, 0], [594, 0, 1], [595, 0, 1]]
    }, 
    {
      "op": "relu", 
      "name": "relu53", 
      "inputs": [[596, 0, 0]]
    }, 
    {
      "op": "Pad", 
      "name": "pad53", 
      "attrs": {
        "mode": "constant", 
        "pad_width": "(0, 0, 0, 0, 1, 1, 1, 1)"
      }, 
      "inputs": [[597, 0, 0]]
    }, 
    {
      "op": "null", 
      "name": "learned_329", 
      "attrs": {"__shape__": "(64, 64, 3, 3)"}, 
      "inputs": []
    }, 
    {
      "op": "null", 
      "name": "learned_330", 
      "attrs": {"__shape__": "(64,)"}, 
      "inputs": []
    }, 
    {
      "op": "Convolution", 
      "name": "convolution53", 
      "attrs": {
        "dilate": "(1, 1)", 
        "kernel": "(3, 3)", 
        "no_bias": "False", 
        "num_filter": "64", 
        "num_group": "1", 
        "stride": "(1, 1)"
      }, 
      "inputs": [[598, 0, 0], [599, 0, 0], [600, 0, 0]]
    }, 
    {
      "op": "null", 
      "name": "learned_331", 
      "attrs": {"__shape__": "(64,)"}, 
      "inputs": []
    }, 
    {
      "op": "null", 
      "name": "learned_332", 
      "attrs": {"__shape__": "(64,)"}, 
      "inputs": []
    }, 
    {
      "op": "null", 
      "name": "learned_333", 
      "attrs": {
        "__init__": "[\"zero\", {}]", 
        "__shape__": "(64,)"
      }, 
      "inputs": []
    }, 
    {
      "op": "null", 
      "name": "learned_334", 
      "attrs": {
        "__init__": "[\"one\", {}]", 
        "__shape__": "(64,)"
      }, 
      "inputs": []
    }, 
    {
      "op": "BatchNorm", 
      "name": "batchnorm54", 
      "attrs": {
        "cudnn_off": "1", 
        "eps": "9.999999747378752e-06", 
        "fix_gamma": "False", 
        "momentum": "0.8999999761581421"
      }, 
      "inputs": [[601, 0, 0], [602, 0, 0], [603, 0, 0], [604, 0, 1], [605, 0, 1]]
    }, 
    {
      "op": "relu", 
      "name": "relu54", 
      "inputs": [[606, 0, 0]]
    }, 
    {
      "op": "Pad", 
      "name": "pad54", 
      "attrs": {
        "mode": "constant", 
        "pad_width": "(0, 0, 0, 0, 1, 1, 1, 1)"
      }, 
      "inputs": [[607, 0, 0]]
    }, 
    {
      "op": "null", 
      "name": "learned_335", 
      "attrs": {"__shape__": "(64, 64, 3, 3)"}, 
      "inputs": []
    }, 
    {
      "op": "null", 
      "name": "learned_336", 
      "attrs": {"__shape__": "(64,)"}, 
      "inputs": []
    }, 
    {
      "op": "Convolution", 
      "name": "convolution54", 
      "attrs": {
        "dilate": "(1, 1)", 
        "kernel": "(3, 3)", 
        "no_bias": "False", 
        "num_filter": "64", 
        "num_group": "1", 
        "stride": "(1, 1)"
      }, 
      "inputs": [[608, 0, 0], [609, 0, 0], [610, 0, 0]]
    }, 
    {
      "op": "broadcast_add", 
      "name": "broadcast_add24", 
      "inputs": [[611, 0, 0], [584, 0, 0]]
    }, 
    {
      "op": "null", 
      "name": "learned_337", 
      "attrs": {"__shape__": "(64,)"}, 
      "inputs": []
    }, 
    {
      "op": "null", 
      "name": "learned_338", 
      "attrs": {"__shape__": "(64,)"}, 
      "inputs": []
    }, 
    {
      "op": "null", 
      "name": "learned_339", 
      "attrs": {
        "__init__": "[\"zero\", {}]", 
        "__shape__": "(64,)"
      }, 
      "inputs": []
    }, 
    {
      "op": "null", 
      "name": "learned_340", 
      "attrs": {
        "__init__": "[\"one\", {}]", 
        "__shape__": "(64,)"
      }, 
      "inputs": []
    }, 
    {
      "op": "BatchNorm", 
      "name": "batchnorm55", 
      "attrs": {
        "cudnn_off": "1", 
        "eps": "9.999999747378752e-06", 
        "fix_gamma": "False", 
        "momentum": "0.8999999761581421"
      }, 
      "inputs": [[612, 0, 0], [613, 0, 0], [614, 0, 0], [615, 0, 1], [616, 0, 1]]
    }, 
    {
      "op": "relu", 
      "name": "relu55", 
      "inputs": [[617, 0, 0]]
    }, 
    {
      "op": "Pad", 
      "name": "pad55", 
      "attrs": {
        "mode": "constant", 
        "pad_width": "(0, 0, 0, 0, 1, 1, 1, 1)"
      }, 
      "inputs": [[618, 0, 0]]
    }, 
    {
      "op": "null", 
      "name": "learned_341", 
      "attrs": {"__shape__": "(64, 64, 3, 3)"}, 
      "inputs": []
    }, 
    {
      "op": "null", 
      "name": "learned_342", 
      "attrs": {"__shape__": "(64,)"}, 
      "inputs": []
    }, 
    {
      "op": "Convolution", 
      "name": "convolution55", 
      "attrs": {
        "dilate": "(1, 1)", 
        "kernel": "(3, 3)", 
        "no_bias": "False", 
        "num_filter": "64", 
        "num_group": "1", 
        "stride": "(1, 1)"
      }, 
      "inputs": [[619, 0, 0], [620, 0, 0], [621, 0, 0]]
    }, 
    {
      "op": "null", 
      "name": "learned_343", 
      "attrs": {"__shape__": "(64,)"}, 
      "inputs": []
    }, 
    {
      "op": "null", 
      "name": "learned_344", 
      "attrs": {"__shape__": "(64,)"}, 
      "inputs": []
    }, 
    {
      "op": "null", 
      "name": "learned_345", 
      "attrs": {
        "__init__": "[\"zero\", {}]", 
        "__shape__": "(64,)"
      }, 
      "inputs": []
    }, 
    {
      "op": "null", 
      "name": "learned_346", 
      "attrs": {
        "__init__": "[\"one\", {}]", 
        "__shape__": "(64,)"
      }, 
      "inputs": []
    }, 
    {
      "op": "BatchNorm", 
      "name": "batchnorm56", 
      "attrs": {
        "cudnn_off": "1", 
        "eps": "9.999999747378752e-06", 
        "fix_gamma": "False", 
        "momentum": "0.8999999761581421"
      }, 
      "inputs": [[622, 0, 0], [623, 0, 0], [624, 0, 0], [625, 0, 1], [626, 0, 1]]
    }, 
    {
      "op": "relu", 
      "name": "relu56", 
      "inputs": [[627, 0, 0]]
    }, 
    {
      "op": "Pad", 
      "name": "pad56", 
      "attrs": {
        "mode": "constant", 
        "pad_width": "(0, 0, 0, 0, 1, 1, 1, 1)"
      }, 
      "inputs": [[628, 0, 0]]
    }, 
    {
      "op": "null", 
      "name": "learned_347", 
      "attrs": {"__shape__": "(64, 64, 3, 3)"}, 
      "inputs": []
    }, 
    {
      "op": "null", 
      "name": "learned_348", 
      "attrs": {"__shape__": "(64,)"}, 
      "inputs": []
    }, 
    {
      "op": "Convolution", 
      "name": "convolution56", 
      "attrs": {
        "dilate": "(1, 1)", 
        "kernel": "(3, 3)", 
        "no_bias": "False", 
        "num_filter": "64", 
        "num_group": "1", 
        "stride": "(1, 1)"
      }, 
      "inputs": [[629, 0, 0], [630, 0, 0], [631, 0, 0]]
    }, 
    {
      "op": "broadcast_add", 
      "name": "broadcast_add25", 
      "inputs": [[632, 0, 0], [612, 0, 0]]
    }, 
    {
      "op": "null", 
      "name": "learned_349", 
      "attrs": {"__shape__": "(64,)"}, 
      "inputs": []
    }, 
    {
      "op": "null", 
      "name": "learned_350", 
      "attrs": {"__shape__": "(64,)"}, 
      "inputs": []
    }, 
    {
      "op": "null", 
      "name": "learned_351", 
      "attrs": {
        "__init__": "[\"zero\", {}]", 
        "__shape__": "(64,)"
      }, 
      "inputs": []
    }, 
    {
      "op": "null", 
      "name": "learned_352", 
      "attrs": {
        "__init__": "[\"one\", {}]", 
        "__shape__": "(64,)"
      }, 
      "inputs": []
    }, 
    {
      "op": "BatchNorm", 
      "name": "batchnorm57", 
      "attrs": {
        "cudnn_off": "1", 
        "eps": "9.999999747378752e-06", 
        "fix_gamma": "False", 
        "momentum": "0.8999999761581421"
      }, 
      "inputs": [[633, 0, 0], [634, 0, 0], [635, 0, 0], [636, 0, 1], [637, 0, 1]]
    }, 
    {
      "op": "relu", 
      "name": "relu57", 
      "inputs": [[638, 0, 0]]
    }, 
    {
      "op": "Pad", 
      "name": "pad57", 
      "attrs": {
        "mode": "constant", 
        "pad_width": "(0, 0, 0, 0, 1, 1, 1, 1)"
      }, 
      "inputs": [[639, 0, 0]]
    }, 
    {
      "op": "null", 
      "name": "learned_353", 
      "attrs": {"__shape__": "(64, 64, 3, 3)"}, 
      "inputs": []
    }, 
    {
      "op": "null", 
      "name": "learned_354", 
      "attrs": {"__shape__": "(64,)"}, 
      "inputs": []
    }, 
    {
      "op": "Convolution", 
      "name": "convolution57", 
      "attrs": {
        "dilate": "(1, 1)", 
        "kernel": "(3, 3)", 
        "no_bias": "False", 
        "num_filter": "64", 
        "num_group": "1", 
        "stride": "(1, 1)"
      }, 
      "inputs": [[640, 0, 0], [641, 0, 0], [642, 0, 0]]
    }, 
    {
      "op": "null", 
      "name": "learned_355", 
      "attrs": {"__shape__": "(64,)"}, 
      "inputs": []
    }, 
    {
      "op": "null", 
      "name": "learned_356", 
      "attrs": {"__shape__": "(64,)"}, 
      "inputs": []
    }, 
    {
      "op": "null", 
      "name": "learned_357", 
      "attrs": {
        "__init__": "[\"zero\", {}]", 
        "__shape__": "(64,)"
      }, 
      "inputs": []
    }, 
    {
      "op": "null", 
      "name": "learned_358", 
      "attrs": {
        "__init__": "[\"one\", {}]", 
        "__shape__": "(64,)"
      }, 
      "inputs": []
    }, 
    {
      "op": "BatchNorm", 
      "name": "batchnorm58", 
      "attrs": {
        "cudnn_off": "1", 
        "eps": "9.999999747378752e-06", 
        "fix_gamma": "False", 
        "momentum": "0.8999999761581421"
      }, 
      "inputs": [[643, 0, 0], [644, 0, 0], [645, 0, 0], [646, 0, 1], [647, 0, 1]]
    }, 
    {
      "op": "relu", 
      "name": "relu58", 
      "inputs": [[648, 0, 0]]
    }, 
    {
      "op": "Pad", 
      "name": "pad58", 
      "attrs": {
        "mode": "constant", 
        "pad_width": "(0, 0, 0, 0, 1, 1, 1, 1)"
      }, 
      "inputs": [[649, 0, 0]]
    }, 
    {
      "op": "null", 
      "name": "learned_359", 
      "attrs": {"__shape__": "(64, 64, 3, 3)"}, 
      "inputs": []
    }, 
    {
      "op": "null", 
      "name": "learned_360", 
      "attrs": {"__shape__": "(64,)"}, 
      "inputs": []
    }, 
    {
      "op": "Convolution", 
      "name": "convolution58", 
      "attrs": {
        "dilate": "(1, 1)", 
        "kernel": "(3, 3)", 
        "no_bias": "False", 
        "num_filter": "64", 
        "num_group": "1", 
        "stride": "(1, 1)"
      }, 
      "inputs": [[650, 0, 0], [651, 0, 0], [652, 0, 0]]
    }, 
    {
      "op": "broadcast_add", 
      "name": "broadcast_add26", 
      "inputs": [[653, 0, 0], [633, 0, 0]]
    }, 
    {
      "op": "null", 
      "name": "learned_361", 
      "attrs": {"__shape__": "(64,)"}, 
      "inputs": []
    }, 
    {
      "op": "null", 
      "name": "learned_362", 
      "attrs": {"__shape__": "(64,)"}, 
      "inputs": []
    }, 
    {
      "op": "null", 
      "name": "learned_363", 
      "attrs": {
        "__init__": "[\"zero\", {}]", 
        "__shape__": "(64,)"
      }, 
      "inputs": []
    }, 
    {
      "op": "null", 
      "name": "learned_364", 
      "attrs": {
        "__init__": "[\"one\", {}]", 
        "__shape__": "(64,)"
      }, 
      "inputs": []
    }, 
    {
      "op": "BatchNorm", 
      "name": "batchnorm59", 
      "attrs": {
        "cudnn_off": "1", 
        "eps": "9.999999747378752e-06", 
        "fix_gamma": "False", 
        "momentum": "0.8999999761581421"
      }, 
      "inputs": [[654, 0, 0], [655, 0, 0], [656, 0, 0], [657, 0, 1], [658, 0, 1]]
    }, 
    {
      "op": "relu", 
      "name": "relu59", 
      "inputs": [[659, 0, 0]]
    }, 
    {
      "op": "Pad", 
      "name": "pad59", 
      "attrs": {
        "mode": "constant", 
        "pad_width": "(0, 0, 0, 0, 1, 1, 1, 1)"
      }, 
      "inputs": [[660, 0, 0]]
    }, 
    {
      "op": "null", 
      "name": "learned_365", 
      "attrs": {"__shape__": "(64, 64, 3, 3)"}, 
      "inputs": []
    }, 
    {
      "op": "null", 
      "name": "learned_366", 
      "attrs": {"__shape__": "(64,)"}, 
      "inputs": []
    }, 
    {
      "op": "Convolution", 
      "name": "convolution59", 
      "attrs": {
        "dilate": "(1, 1)", 
        "kernel": "(3, 3)", 
        "no_bias": "False", 
        "num_filter": "64", 
        "num_group": "1", 
        "stride": "(1, 1)"
      }, 
      "inputs": [[661, 0, 0], [662, 0, 0], [663, 0, 0]]
    }, 
    {
      "op": "null", 
      "name": "learned_367", 
      "attrs": {"__shape__": "(64,)"}, 
      "inputs": []
    }, 
    {
      "op": "null", 
      "name": "learned_368", 
      "attrs": {"__shape__": "(64,)"}, 
      "inputs": []
    }, 
    {
      "op": "null", 
      "name": "learned_369", 
      "attrs": {
        "__init__": "[\"zero\", {}]", 
        "__shape__": "(64,)"
      }, 
      "inputs": []
    }, 
    {
      "op": "null", 
      "name": "learned_370", 
      "attrs": {
        "__init__": "[\"one\", {}]", 
        "__shape__": "(64,)"
      }, 
      "inputs": []
    }, 
    {
      "op": "BatchNorm", 
      "name": "batchnorm60", 
      "attrs": {
        "cudnn_off": "1", 
        "eps": "9.999999747378752e-06", 
        "fix_gamma": "False", 
        "momentum": "0.8999999761581421"
      }, 
      "inputs": [[664, 0, 0], [665, 0, 0], [666, 0, 0], [667, 0, 1], [668, 0, 1]]
    }, 
    {
      "op": "relu", 
      "name": "relu60", 
      "inputs": [[669, 0, 0]]
    }, 
    {
      "op": "Pad", 
      "name": "pad60", 
      "attrs": {
        "mode": "constant", 
        "pad_width": "(0, 0, 0, 0, 1, 1, 1, 1)"
      }, 
      "inputs": [[670, 0, 0]]
    }, 
    {
      "op": "null", 
      "name": "learned_371", 
      "attrs": {"__shape__": "(64, 64, 3, 3)"}, 
      "inputs": []
    }, 
    {
      "op": "null", 
      "name": "learned_372", 
      "attrs": {"__shape__": "(64,)"}, 
      "inputs": []
    }, 
    {
      "op": "Convolution", 
      "name": "convolution60", 
      "attrs": {
        "dilate": "(1, 1)", 
        "kernel": "(3, 3)", 
        "no_bias": "False", 
        "num_filter": "64", 
        "num_group": "1", 
        "stride": "(1, 1)"
      }, 
      "inputs": [[671, 0, 0], [672, 0, 0], [673, 0, 0]]
    }, 
    {
      "op": "broadcast_add", 
      "name": "broadcast_add27", 
      "inputs": [[674, 0, 0], [654, 0, 0]]
    }, 
    {
      "op": "null", 
      "name": "learned_373", 
      "attrs": {"__shape__": "(64,)"}, 
      "inputs": []
    }, 
    {
      "op": "null", 
      "name": "learned_374", 
      "attrs": {"__shape__": "(64,)"}, 
      "inputs": []
    }, 
    {
      "op": "null", 
      "name": "learned_375", 
      "attrs": {
        "__init__": "[\"zero\", {}]", 
        "__shape__": "(64,)"
      }, 
      "inputs": []
    }, 
    {
      "op": "null", 
      "name": "learned_376", 
      "attrs": {
        "__init__": "[\"one\", {}]", 
        "__shape__": "(64,)"
      }, 
      "inputs": []
    }, 
    {
      "op": "BatchNorm", 
      "name": "batchnorm61", 
      "attrs": {
        "cudnn_off": "1", 
        "eps": "9.999999747378752e-06", 
        "fix_gamma": "False", 
        "momentum": "0.8999999761581421"
      }, 
      "inputs": [[675, 0, 0], [676, 0, 0], [677, 0, 0], [678, 0, 1], [679, 0, 1]]
    }, 
    {
      "op": "relu", 
      "name": "relu61", 
      "inputs": [[680, 0, 0]]
    }, 
    {
      "op": "Pad", 
      "name": "pad61", 
      "attrs": {
        "mode": "constant", 
        "pad_width": "(0, 0, 0, 0, 1, 1, 1, 1)"
      }, 
      "inputs": [[681, 0, 0]]
    }, 
    {
      "op": "null", 
      "name": "learned_377", 
      "attrs": {"__shape__": "(64, 64, 3, 3)"}, 
      "inputs": []
    }, 
    {
      "op": "null", 
      "name": "learned_378", 
      "attrs": {"__shape__": "(64,)"}, 
      "inputs": []
    }, 
    {
      "op": "Convolution", 
      "name": "convolution61", 
      "attrs": {
        "dilate": "(1, 1)", 
        "kernel": "(3, 3)", 
        "no_bias": "False", 
        "num_filter": "64", 
        "num_group": "1", 
        "stride": "(1, 1)"
      }, 
      "inputs": [[682, 0, 0], [683, 0, 0], [684, 0, 0]]
    }, 
    {
      "op": "null", 
      "name": "learned_379", 
      "attrs": {"__shape__": "(64,)"}, 
      "inputs": []
    }, 
    {
      "op": "null", 
      "name": "learned_380", 
      "attrs": {"__shape__": "(64,)"}, 
      "inputs": []
    }, 
    {
      "op": "null", 
      "name": "learned_381", 
      "attrs": {
        "__init__": "[\"zero\", {}]", 
        "__shape__": "(64,)"
      }, 
      "inputs": []
    }, 
    {
      "op": "null", 
      "name": "learned_382", 
      "attrs": {
        "__init__": "[\"one\", {}]", 
        "__shape__": "(64,)"
      }, 
      "inputs": []
    }, 
    {
      "op": "BatchNorm", 
      "name": "batchnorm62", 
      "attrs": {
        "cudnn_off": "1", 
        "eps": "9.999999747378752e-06", 
        "fix_gamma": "False", 
        "momentum": "0.8999999761581421"
      }, 
      "inputs": [[685, 0, 0], [686, 0, 0], [687, 0, 0], [688, 0, 1], [689, 0, 1]]
    }, 
    {
      "op": "relu", 
      "name": "relu62", 
      "inputs": [[690, 0, 0]]
    }, 
    {
      "op": "Pad", 
      "name": "pad62", 
      "attrs": {
        "mode": "constant", 
        "pad_width": "(0, 0, 0, 0, 1, 1, 1, 1)"
      }, 
      "inputs": [[691, 0, 0]]
    }, 
    {
      "op": "null", 
      "name": "learned_383", 
      "attrs": {"__shape__": "(64, 64, 3, 3)"}, 
      "inputs": []
    }, 
    {
      "op": "null", 
      "name": "learned_384", 
      "attrs": {"__shape__": "(64,)"}, 
      "inputs": []
    }, 
    {
      "op": "Convolution", 
      "name": "convolution62", 
      "attrs": {
        "dilate": "(1, 1)", 
        "kernel": "(3, 3)", 
        "no_bias": "False", 
        "num_filter": "64", 
        "num_group": "1", 
        "stride": "(1, 1)"
      }, 
      "inputs": [[692, 0, 0], [693, 0, 0], [694, 0, 0]]
    }, 
    {
      "op": "broadcast_add", 
      "name": "broadcast_add28", 
      "inputs": [[695, 0, 0], [675, 0, 0]]
    }, 
    {
      "op": "null", 
      "name": "learned_385", 
      "attrs": {"__shape__": "(64,)"}, 
      "inputs": []
    }, 
    {
      "op": "null", 
      "name": "learned_386", 
      "attrs": {"__shape__": "(64,)"}, 
      "inputs": []
    }, 
    {
      "op": "null", 
      "name": "learned_387", 
      "attrs": {
        "__init__": "[\"zero\", {}]", 
        "__shape__": "(64,)"
      }, 
      "inputs": []
    }, 
    {
      "op": "null", 
      "name": "learned_388", 
      "attrs": {
        "__init__": "[\"one\", {}]", 
        "__shape__": "(64,)"
      }, 
      "inputs": []
    }, 
    {
      "op": "BatchNorm", 
      "name": "batchnorm63", 
      "attrs": {
        "cudnn_off": "1", 
        "eps": "9.999999747378752e-06", 
        "fix_gamma": "False", 
        "momentum": "0.8999999761581421"
      }, 
      "inputs": [[696, 0, 0], [697, 0, 0], [698, 0, 0], [699, 0, 1], [700, 0, 1]]
    }, 
    {
      "op": "relu", 
      "name": "relu63", 
      "inputs": [[701, 0, 0]]
    }, 
    {
      "op": "Pad", 
      "name": "pad63", 
      "attrs": {
        "mode": "constant", 
        "pad_width": "(0, 0, 0, 0, 1, 1, 1, 1)"
      }, 
      "inputs": [[702, 0, 0]]
    }, 
    {
      "op": "null", 
      "name": "learned_389", 
      "attrs": {"__shape__": "(64, 64, 3, 3)"}, 
      "inputs": []
    }, 
    {
      "op": "null", 
      "name": "learned_390", 
      "attrs": {"__shape__": "(64,)"}, 
      "inputs": []
    }, 
    {
      "op": "Convolution", 
      "name": "convolution63", 
      "attrs": {
        "dilate": "(1, 1)", 
        "kernel": "(3, 3)", 
        "no_bias": "False", 
        "num_filter": "64", 
        "num_group": "1", 
        "stride": "(1, 1)"
      }, 
      "inputs": [[703, 0, 0], [704, 0, 0], [705, 0, 0]]
    }, 
    {
      "op": "null", 
      "name": "learned_391", 
      "attrs": {"__shape__": "(64,)"}, 
      "inputs": []
    }, 
    {
      "op": "null", 
      "name": "learned_392", 
      "attrs": {"__shape__": "(64,)"}, 
      "inputs": []
    }, 
    {
      "op": "null", 
      "name": "learned_393", 
      "attrs": {
        "__init__": "[\"zero\", {}]", 
        "__shape__": "(64,)"
      }, 
      "inputs": []
    }, 
    {
      "op": "null", 
      "name": "learned_394", 
      "attrs": {
        "__init__": "[\"one\", {}]", 
        "__shape__": "(64,)"
      }, 
      "inputs": []
    }, 
    {
      "op": "BatchNorm", 
      "name": "batchnorm64", 
      "attrs": {
        "cudnn_off": "1", 
        "eps": "9.999999747378752e-06", 
        "fix_gamma": "False", 
        "momentum": "0.8999999761581421"
      }, 
      "inputs": [[706, 0, 0], [707, 0, 0], [708, 0, 0], [709, 0, 1], [710, 0, 1]]
    }, 
    {
      "op": "relu", 
      "name": "relu64", 
      "inputs": [[711, 0, 0]]
    }, 
    {
      "op": "Pad", 
      "name": "pad64", 
      "attrs": {
        "mode": "constant", 
        "pad_width": "(0, 0, 0, 0, 1, 1, 1, 1)"
      }, 
      "inputs": [[712, 0, 0]]
    }, 
    {
      "op": "null", 
      "name": "learned_395", 
      "attrs": {"__shape__": "(64, 64, 3, 3)"}, 
      "inputs": []
    }, 
    {
      "op": "null", 
      "name": "learned_396", 
      "attrs": {"__shape__": "(64,)"}, 
      "inputs": []
    }, 
    {
      "op": "Convolution", 
      "name": "convolution64", 
      "attrs": {
        "dilate": "(1, 1)", 
        "kernel": "(3, 3)", 
        "no_bias": "False", 
        "num_filter": "64", 
        "num_group": "1", 
        "stride": "(1, 1)"
      }, 
      "inputs": [[713, 0, 0], [714, 0, 0], [715, 0, 0]]
    }, 
    {
      "op": "broadcast_add", 
      "name": "broadcast_add29", 
      "inputs": [[716, 0, 0], [696, 0, 0]]
    }, 
    {
      "op": "Concat", 
      "name": "concat4", 
      "attrs": {
        "dim": "1", 
        "num_args": "11"
      }, 
      "inputs": [
        [612, 0, 0], 
        [633, 0, 0], 
        [654, 0, 0], 
        [675, 0, 0], 
        [696, 0, 0], 
        [717, 0, 0], 
        [10, 0, 0], 
        [147, 0, 0], 
        [296, 0, 0], 
        [440, 0, 0], 
        [584, 0, 0]
      ]
    }, 
    {
      "op": "null", 
      "name": "learned_397", 
      "attrs": {"__shape__": "(704,)"}, 
      "inputs": []
    }, 
    {
      "op": "null", 
      "name": "learned_398", 
      "attrs": {"__shape__": "(704,)"}, 
      "inputs": []
    }, 
    {
      "op": "null", 
      "name": "learned_399", 
      "attrs": {
        "__init__": "[\"zero\", {}]", 
        "__shape__": "(704,)"
      }, 
      "inputs": []
    }, 
    {
      "op": "null", 
      "name": "learned_400", 
      "attrs": {
        "__init__": "[\"one\", {}]", 
        "__shape__": "(704,)"
      }, 
      "inputs": []
    }, 
    {
      "op": "BatchNorm", 
      "name": "batchnorm65", 
      "attrs": {
        "cudnn_off": "1", 
        "eps": "9.999999747378752e-06", 
        "fix_gamma": "False", 
        "momentum": "0.8999999761581421"
      }, 
      "inputs": [[718, 0, 0], [719, 0, 0], [720, 0, 0], [721, 0, 1], [722, 0, 1]]
    }, 
    {
      "op": "relu", 
      "name": "relu65", 
      "inputs": [[723, 0, 0]]
    }, 
    {
      "op": "Pad", 
      "name": "pad65", 
      "attrs": {
        "mode": "constant", 
        "pad_width": "(0, 0, 0, 0, 0, 0, 0, 0)"
      }, 
      "inputs": [[724, 0, 0]]
    }, 
    {
      "op": "null", 
      "name": "learned_401", 
      "attrs": {"__shape__": "(64, 704, 1, 1)"}, 
      "inputs": []
    }, 
    {
      "op": "null", 
      "name": "learned_402", 
      "attrs": {"__shape__": "(64,)"}, 
      "inputs": []
    }, 
    {
      "op": "Convolution", 
      "name": "convolution65", 
      "attrs": {
        "dilate": "(1, 1)", 
        "kernel": "(1, 1)", 
        "no_bias": "False", 
        "num_filter": "64", 
        "num_group": "1", 
        "stride": "(1, 1)"
      }, 
      "inputs": [[725, 0, 0], [726, 0, 0], [727, 0, 0]]
    }, 
    {
      "op": "BatchNorm", 
      "name": "batchnorm83", 
      "attrs": {
        "cudnn_off": "1", 
        "eps": "9.999999747378752e-06", 
        "fix_gamma": "False", 
        "momentum": "0.8999999761581421"
      }, 
      "inputs": [[728, 0, 0], [148, 0, 0], [149, 0, 0], [150, 0, 5], [151, 0, 5]]
    }, 
    {
      "op": "relu", 
      "name": "relu83", 
      "inputs": [[729, 0, 0]]
    }, 
    {
      "op": "Pad", 
      "name": "pad83", 
      "attrs": {
        "mode": "constant", 
        "pad_width": "(0, 0, 0, 0, 1, 1, 1, 1)"
      }, 
      "inputs": [[730, 0, 0]]
    }, 
    {
      "op": "Convolution", 
      "name": "convolution83", 
      "attrs": {
        "dilate": "(1, 1)", 
        "kernel": "(3, 3)", 
        "no_bias": "False", 
        "num_filter": "1", 
        "num_group": "1", 
        "stride": "(1, 1)"
      }, 
      "inputs": [[731, 0, 0], [155, 0, 0], [156, 0, 0]]
    }, 
    {
      "op": "broadcast_add", 
      "name": "broadcast_add43", 
      "inputs": [[732, 0, 0], [0, 0, 0]]
    }, 
    {
      "op": "_mul_scalar", 
      "name": "_mulscalar4", 
      "attrs": {"scalar": "0.1666666666667"}, 
      "inputs": [[733, 0, 0]]
    }, 
    {
      "op": "broadcast_add", 
      "name": "broadcast_add44", 
      "inputs": [[591, 0, 0], [734, 0, 0]]
    }, 
    {
      "op": "null", 
      "name": "learned_403", 
      "attrs": {"__shape__": "(64,)"}, 
      "inputs": []
    }, 
    {
      "op": "null", 
      "name": "learned_404", 
      "attrs": {"__shape__": "(64,)"}, 
      "inputs": []
    }, 
    {
      "op": "null", 
      "name": "learned_405", 
      "attrs": {
        "__init__": "[\"zero\", {}]", 
        "__shape__": "(64,)"
      }, 
      "inputs": []
    }, 
    {
      "op": "null", 
      "name": "learned_406", 
      "attrs": {
        "__init__": "[\"one\", {}]", 
        "__shape__": "(64,)"
      }, 
      "inputs": []
    }, 
    {
      "op": "BatchNorm", 
      "name": "batchnorm66", 
      "attrs": {
        "cudnn_off": "1", 
        "eps": "9.999999747378752e-06", 
        "fix_gamma": "False", 
        "momentum": "0.8999999761581421"
      }, 
      "inputs": [[728, 0, 0], [736, 0, 0], [737, 0, 0], [738, 0, 1], [739, 0, 1]]
    }, 
    {
      "op": "relu", 
      "name": "relu66", 
      "inputs": [[740, 0, 0]]
    }, 
    {
      "op": "Pad", 
      "name": "pad66", 
      "attrs": {
        "mode": "constant", 
        "pad_width": "(0, 0, 0, 0, 1, 1, 1, 1)"
      }, 
      "inputs": [[741, 0, 0]]
    }, 
    {
      "op": "null", 
      "name": "learned_407", 
      "attrs": {"__shape__": "(64, 64, 3, 3)"}, 
      "inputs": []
    }, 
    {
      "op": "null", 
      "name": "learned_408", 
      "attrs": {"__shape__": "(64,)"}, 
      "inputs": []
    }, 
    {
      "op": "Convolution", 
      "name": "convolution66", 
      "attrs": {
        "dilate": "(1, 1)", 
        "kernel": "(3, 3)", 
        "no_bias": "False", 
        "num_filter": "64", 
        "num_group": "1", 
        "stride": "(1, 1)"
      }, 
      "inputs": [[742, 0, 0], [743, 0, 0], [744, 0, 0]]
    }, 
    {
      "op": "null", 
      "name": "learned_409", 
      "attrs": {"__shape__": "(64,)"}, 
      "inputs": []
    }, 
    {
      "op": "null", 
      "name": "learned_410", 
      "attrs": {"__shape__": "(64,)"}, 
      "inputs": []
    }, 
    {
      "op": "null", 
      "name": "learned_411", 
      "attrs": {
        "__init__": "[\"zero\", {}]", 
        "__shape__": "(64,)"
      }, 
      "inputs": []
    }, 
    {
      "op": "null", 
      "name": "learned_412", 
      "attrs": {
        "__init__": "[\"one\", {}]", 
        "__shape__": "(64,)"
      }, 
      "inputs": []
    }, 
    {
      "op": "BatchNorm", 
      "name": "batchnorm67", 
      "attrs": {
        "cudnn_off": "1", 
        "eps": "9.999999747378752e-06", 
        "fix_gamma": "False", 
        "momentum": "0.8999999761581421"
      }, 
      "inputs": [[745, 0, 0], [746, 0, 0], [747, 0, 0], [748, 0, 1], [749, 0, 1]]
    }, 
    {
      "op": "relu", 
      "name": "relu67", 
      "inputs": [[750, 0, 0]]
    }, 
    {
      "op": "Pad", 
      "name": "pad67", 
      "attrs": {
        "mode": "constant", 
        "pad_width": "(0, 0, 0, 0, 1, 1, 1, 1)"
      }, 
      "inputs": [[751, 0, 0]]
    }, 
    {
      "op": "null", 
      "name": "learned_413", 
      "attrs": {"__shape__": "(64, 64, 3, 3)"}, 
      "inputs": []
    }, 
    {
      "op": "null", 
      "name": "learned_414", 
      "attrs": {"__shape__": "(64,)"}, 
      "inputs": []
    }, 
    {
      "op": "Convolution", 
      "name": "convolution67", 
      "attrs": {
        "dilate": "(1, 1)", 
        "kernel": "(3, 3)", 
        "no_bias": "False", 
        "num_filter": "64", 
        "num_group": "1", 
        "stride": "(1, 1)"
      }, 
      "inputs": [[752, 0, 0], [753, 0, 0], [754, 0, 0]]
    }, 
    {
      "op": "broadcast_add", 
      "name": "broadcast_add30", 
      "inputs": [[755, 0, 0], [728, 0, 0]]
    }, 
    {
      "op": "null", 
      "name": "learned_415", 
      "attrs": {"__shape__": "(64,)"}, 
      "inputs": []
    }, 
    {
      "op": "null", 
      "name": "learned_416", 
      "attrs": {"__shape__": "(64,)"}, 
      "inputs": []
    }, 
    {
      "op": "null", 
      "name": "learned_417", 
      "attrs": {
        "__init__": "[\"zero\", {}]", 
        "__shape__": "(64,)"
      }, 
      "inputs": []
    }, 
    {
      "op": "null", 
      "name": "learned_418", 
      "attrs": {
        "__init__": "[\"one\", {}]", 
        "__shape__": "(64,)"
      }, 
      "inputs": []
    }, 
    {
      "op": "BatchNorm", 
      "name": "batchnorm68", 
      "attrs": {
        "cudnn_off": "1", 
        "eps": "9.999999747378752e-06", 
        "fix_gamma": "False", 
        "momentum": "0.8999999761581421"
      }, 
      "inputs": [[756, 0, 0], [757, 0, 0], [758, 0, 0], [759, 0, 1], [760, 0, 1]]
    }, 
    {
      "op": "relu", 
      "name": "relu68", 
      "inputs": [[761, 0, 0]]
    }, 
    {
      "op": "Pad", 
      "name": "pad68", 
      "attrs": {
        "mode": "constant", 
        "pad_width": "(0, 0, 0, 0, 1, 1, 1, 1)"
      }, 
      "inputs": [[762, 0, 0]]
    }, 
    {
      "op": "null", 
      "name": "learned_419", 
      "attrs": {"__shape__": "(64, 64, 3, 3)"}, 
      "inputs": []
    }, 
    {
      "op": "null", 
      "name": "learned_420", 
      "attrs": {"__shape__": "(64,)"}, 
      "inputs": []
    }, 
    {
      "op": "Convolution", 
      "name": "convolution68", 
      "attrs": {
        "dilate": "(1, 1)", 
        "kernel": "(3, 3)", 
        "no_bias": "False", 
        "num_filter": "64", 
        "num_group": "1", 
        "stride": "(1, 1)"
      }, 
      "inputs": [[763, 0, 0], [764, 0, 0], [765, 0, 0]]
    }, 
    {
      "op": "null", 
      "name": "learned_421", 
      "attrs": {"__shape__": "(64,)"}, 
      "inputs": []
    }, 
    {
      "op": "null", 
      "name": "learned_422", 
      "attrs": {"__shape__": "(64,)"}, 
      "inputs": []
    }, 
    {
      "op": "null", 
      "name": "learned_423", 
      "attrs": {
        "__init__": "[\"zero\", {}]", 
        "__shape__": "(64,)"
      }, 
      "inputs": []
    }, 
    {
      "op": "null", 
      "name": "learned_424", 
      "attrs": {
        "__init__": "[\"one\", {}]", 
        "__shape__": "(64,)"
      }, 
      "inputs": []
    }, 
    {
      "op": "BatchNorm", 
      "name": "batchnorm69", 
      "attrs": {
        "cudnn_off": "1", 
        "eps": "9.999999747378752e-06", 
        "fix_gamma": "False", 
        "momentum": "0.8999999761581421"
      }, 
      "inputs": [[766, 0, 0], [767, 0, 0], [768, 0, 0], [769, 0, 1], [770, 0, 1]]
    }, 
    {
      "op": "relu", 
      "name": "relu69", 
      "inputs": [[771, 0, 0]]
    }, 
    {
      "op": "Pad", 
      "name": "pad69", 
      "attrs": {
        "mode": "constant", 
        "pad_width": "(0, 0, 0, 0, 1, 1, 1, 1)"
      }, 
      "inputs": [[772, 0, 0]]
    }, 
    {
      "op": "null", 
      "name": "learned_425", 
      "attrs": {"__shape__": "(64, 64, 3, 3)"}, 
      "inputs": []
    }, 
    {
      "op": "null", 
      "name": "learned_426", 
      "attrs": {"__shape__": "(64,)"}, 
      "inputs": []
    }, 
    {
      "op": "Convolution", 
      "name": "convolution69", 
      "attrs": {
        "dilate": "(1, 1)", 
        "kernel": "(3, 3)", 
        "no_bias": "False", 
        "num_filter": "64", 
        "num_group": "1", 
        "stride": "(1, 1)"
      }, 
      "inputs": [[773, 0, 0], [774, 0, 0], [775, 0, 0]]
    }, 
    {
      "op": "broadcast_add", 
      "name": "broadcast_add31", 
      "inputs": [[776, 0, 0], [756, 0, 0]]
    }, 
    {
      "op": "null", 
      "name": "learned_427", 
      "attrs": {"__shape__": "(64,)"}, 
      "inputs": []
    }, 
    {
      "op": "null", 
      "name": "learned_428", 
      "attrs": {"__shape__": "(64,)"}, 
      "inputs": []
    }, 
    {
      "op": "null", 
      "name": "learned_429", 
      "attrs": {
        "__init__": "[\"zero\", {}]", 
        "__shape__": "(64,)"
      }, 
      "inputs": []
    }, 
    {
      "op": "null", 
      "name": "learned_430", 
      "attrs": {
        "__init__": "[\"one\", {}]", 
        "__shape__": "(64,)"
      }, 
      "inputs": []
    }, 
    {
      "op": "BatchNorm", 
      "name": "batchnorm70", 
      "attrs": {
        "cudnn_off": "1", 
        "eps": "9.999999747378752e-06", 
        "fix_gamma": "False", 
        "momentum": "0.8999999761581421"
      }, 
      "inputs": [[777, 0, 0], [778, 0, 0], [779, 0, 0], [780, 0, 1], [781, 0, 1]]
    }, 
    {
      "op": "relu", 
      "name": "relu70", 
      "inputs": [[782, 0, 0]]
    }, 
    {
      "op": "Pad", 
      "name": "pad70", 
      "attrs": {
        "mode": "constant", 
        "pad_width": "(0, 0, 0, 0, 1, 1, 1, 1)"
      }, 
      "inputs": [[783, 0, 0]]
    }, 
    {
      "op": "null", 
      "name": "learned_431", 
      "attrs": {"__shape__": "(64, 64, 3, 3)"}, 
      "inputs": []
    }, 
    {
      "op": "null", 
      "name": "learned_432", 
      "attrs": {"__shape__": "(64,)"}, 
      "inputs": []
    }, 
    {
      "op": "Convolution", 
      "name": "convolution70", 
      "attrs": {
        "dilate": "(1, 1)", 
        "kernel": "(3, 3)", 
        "no_bias": "False", 
        "num_filter": "64", 
        "num_group": "1", 
        "stride": "(1, 1)"
      }, 
      "inputs": [[784, 0, 0], [785, 0, 0], [786, 0, 0]]
    }, 
    {
      "op": "null", 
      "name": "learned_433", 
      "attrs": {"__shape__": "(64,)"}, 
      "inputs": []
    }, 
    {
      "op": "null", 
      "name": "learned_434", 
      "attrs": {"__shape__": "(64,)"}, 
      "inputs": []
    }, 
    {
      "op": "null", 
      "name": "learned_435", 
      "attrs": {
        "__init__": "[\"zero\", {}]", 
        "__shape__": "(64,)"
      }, 
      "inputs": []
    }, 
    {
      "op": "null", 
      "name": "learned_436", 
      "attrs": {
        "__init__": "[\"one\", {}]", 
        "__shape__": "(64,)"
      }, 
      "inputs": []
    }, 
    {
      "op": "BatchNorm", 
      "name": "batchnorm71", 
      "attrs": {
        "cudnn_off": "1", 
        "eps": "9.999999747378752e-06", 
        "fix_gamma": "False", 
        "momentum": "0.8999999761581421"
      }, 
      "inputs": [[787, 0, 0], [788, 0, 0], [789, 0, 0], [790, 0, 1], [791, 0, 1]]
    }, 
    {
      "op": "relu", 
      "name": "relu71", 
      "inputs": [[792, 0, 0]]
    }, 
    {
      "op": "Pad", 
      "name": "pad71", 
      "attrs": {
        "mode": "constant", 
        "pad_width": "(0, 0, 0, 0, 1, 1, 1, 1)"
      }, 
      "inputs": [[793, 0, 0]]
    }, 
    {
      "op": "null", 
      "name": "learned_437", 
      "attrs": {"__shape__": "(64, 64, 3, 3)"}, 
      "inputs": []
    }, 
    {
      "op": "null", 
      "name": "learned_438", 
      "attrs": {"__shape__": "(64,)"}, 
      "inputs": []
    }, 
    {
      "op": "Convolution", 
      "name": "convolution71", 
      "attrs": {
        "dilate": "(1, 1)", 
        "kernel": "(3, 3)", 
        "no_bias": "False", 
        "num_filter": "64", 
        "num_group": "1", 
        "stride": "(1, 1)"
      }, 
      "inputs": [[794, 0, 0], [795, 0, 0], [796, 0, 0]]
    }, 
    {
      "op": "broadcast_add", 
      "name": "broadcast_add32", 
      "inputs": [[797, 0, 0], [777, 0, 0]]
    }, 
    {
      "op": "null", 
      "name": "learned_439", 
      "attrs": {"__shape__": "(64,)"}, 
      "inputs": []
    }, 
    {
      "op": "null", 
      "name": "learned_440", 
      "attrs": {"__shape__": "(64,)"}, 
      "inputs": []
    }, 
    {
      "op": "null", 
      "name": "learned_441", 
      "attrs": {
        "__init__": "[\"zero\", {}]", 
        "__shape__": "(64,)"
      }, 
      "inputs": []
    }, 
    {
      "op": "null", 
      "name": "learned_442", 
      "attrs": {
        "__init__": "[\"one\", {}]", 
        "__shape__": "(64,)"
      }, 
      "inputs": []
    }, 
    {
      "op": "BatchNorm", 
      "name": "batchnorm72", 
      "attrs": {
        "cudnn_off": "1", 
        "eps": "9.999999747378752e-06", 
        "fix_gamma": "False", 
        "momentum": "0.8999999761581421"
      }, 
      "inputs": [[798, 0, 0], [799, 0, 0], [800, 0, 0], [801, 0, 1], [802, 0, 1]]
    }, 
    {
      "op": "relu", 
      "name": "relu72", 
      "inputs": [[803, 0, 0]]
    }, 
    {
      "op": "Pad", 
      "name": "pad72", 
      "attrs": {
        "mode": "constant", 
        "pad_width": "(0, 0, 0, 0, 1, 1, 1, 1)"
      }, 
      "inputs": [[804, 0, 0]]
    }, 
    {
      "op": "null", 
      "name": "learned_443", 
      "attrs": {"__shape__": "(64, 64, 3, 3)"}, 
      "inputs": []
    }, 
    {
      "op": "null", 
      "name": "learned_444", 
      "attrs": {"__shape__": "(64,)"}, 
      "inputs": []
    }, 
    {
      "op": "Convolution", 
      "name": "convolution72", 
      "attrs": {
        "dilate": "(1, 1)", 
        "kernel": "(3, 3)", 
        "no_bias": "False", 
        "num_filter": "64", 
        "num_group": "1", 
        "stride": "(1, 1)"
      }, 
      "inputs": [[805, 0, 0], [806, 0, 0], [807, 0, 0]]
    }, 
    {
      "op": "null", 
      "name": "learned_445", 
      "attrs": {"__shape__": "(64,)"}, 
      "inputs": []
    }, 
    {
      "op": "null", 
      "name": "learned_446", 
      "attrs": {"__shape__": "(64,)"}, 
      "inputs": []
    }, 
    {
      "op": "null", 
      "name": "learned_447", 
      "attrs": {
        "__init__": "[\"zero\", {}]", 
        "__shape__": "(64,)"
      }, 
      "inputs": []
    }, 
    {
      "op": "null", 
      "name": "learned_448", 
      "attrs": {
        "__init__": "[\"one\", {}]", 
        "__shape__": "(64,)"
      }, 
      "inputs": []
    }, 
    {
      "op": "BatchNorm", 
      "name": "batchnorm73", 
      "attrs": {
        "cudnn_off": "1", 
        "eps": "9.999999747378752e-06", 
        "fix_gamma": "False", 
        "momentum": "0.8999999761581421"
      }, 
      "inputs": [[808, 0, 0], [809, 0, 0], [810, 0, 0], [811, 0, 1], [812, 0, 1]]
    }, 
    {
      "op": "relu", 
      "name": "relu73", 
      "inputs": [[813, 0, 0]]
    }, 
    {
      "op": "Pad", 
      "name": "pad73", 
      "attrs": {
        "mode": "constant", 
        "pad_width": "(0, 0, 0, 0, 1, 1, 1, 1)"
      }, 
      "inputs": [[814, 0, 0]]
    }, 
    {
      "op": "null", 
      "name": "learned_449", 
      "attrs": {"__shape__": "(64, 64, 3, 3)"}, 
      "inputs": []
    }, 
    {
      "op": "null", 
      "name": "learned_450", 
      "attrs": {"__shape__": "(64,)"}, 
      "inputs": []
    }, 
    {
      "op": "Convolution", 
      "name": "convolution73", 
      "attrs": {
        "dilate": "(1, 1)", 
        "kernel": "(3, 3)", 
        "no_bias": "False", 
        "num_filter": "64", 
        "num_group": "1", 
        "stride": "(1, 1)"
      }, 
      "inputs": [[815, 0, 0], [816, 0, 0], [817, 0, 0]]
    }, 
    {
      "op": "broadcast_add", 
      "name": "broadcast_add33", 
      "inputs": [[818, 0, 0], [798, 0, 0]]
    }, 
    {
      "op": "null", 
      "name": "learned_451", 
      "attrs": {"__shape__": "(64,)"}, 
      "inputs": []
    }, 
    {
      "op": "null", 
      "name": "learned_452", 
      "attrs": {"__shape__": "(64,)"}, 
      "inputs": []
    }, 
    {
      "op": "null", 
      "name": "learned_453", 
      "attrs": {
        "__init__": "[\"zero\", {}]", 
        "__shape__": "(64,)"
      }, 
      "inputs": []
    }, 
    {
      "op": "null", 
      "name": "learned_454", 
      "attrs": {
        "__init__": "[\"one\", {}]", 
        "__shape__": "(64,)"
      }, 
      "inputs": []
    }, 
    {
      "op": "BatchNorm", 
      "name": "batchnorm74", 
      "attrs": {
        "cudnn_off": "1", 
        "eps": "9.999999747378752e-06", 
        "fix_gamma": "False", 
        "momentum": "0.8999999761581421"
      }, 
      "inputs": [[819, 0, 0], [820, 0, 0], [821, 0, 0], [822, 0, 1], [823, 0, 1]]
    }, 
    {
      "op": "relu", 
      "name": "relu74", 
      "inputs": [[824, 0, 0]]
    }, 
    {
      "op": "Pad", 
      "name": "pad74", 
      "attrs": {
        "mode": "constant", 
        "pad_width": "(0, 0, 0, 0, 1, 1, 1, 1)"
      }, 
      "inputs": [[825, 0, 0]]
    }, 
    {
      "op": "null", 
      "name": "learned_455", 
      "attrs": {"__shape__": "(64, 64, 3, 3)"}, 
      "inputs": []
    }, 
    {
      "op": "null", 
      "name": "learned_456", 
      "attrs": {"__shape__": "(64,)"}, 
      "inputs": []
    }, 
    {
      "op": "Convolution", 
      "name": "convolution74", 
      "attrs": {
        "dilate": "(1, 1)", 
        "kernel": "(3, 3)", 
        "no_bias": "False", 
        "num_filter": "64", 
        "num_group": "1", 
        "stride": "(1, 1)"
      }, 
      "inputs": [[826, 0, 0], [827, 0, 0], [828, 0, 0]]
    }, 
    {
      "op": "null", 
      "name": "learned_457", 
      "attrs": {"__shape__": "(64,)"}, 
      "inputs": []
    }, 
    {
      "op": "null", 
      "name": "learned_458", 
      "attrs": {"__shape__": "(64,)"}, 
      "inputs": []
    }, 
    {
      "op": "null", 
      "name": "learned_459", 
      "attrs": {
        "__init__": "[\"zero\", {}]", 
        "__shape__": "(64,)"
      }, 
      "inputs": []
    }, 
    {
      "op": "null", 
      "name": "learned_460", 
      "attrs": {
        "__init__": "[\"one\", {}]", 
        "__shape__": "(64,)"
      }, 
      "inputs": []
    }, 
    {
      "op": "BatchNorm", 
      "name": "batchnorm75", 
      "attrs": {
        "cudnn_off": "1", 
        "eps": "9.999999747378752e-06", 
        "fix_gamma": "False", 
        "momentum": "0.8999999761581421"
      }, 
      "inputs": [[829, 0, 0], [830, 0, 0], [831, 0, 0], [832, 0, 1], [833, 0, 1]]
    }, 
    {
      "op": "relu", 
      "name": "relu75", 
      "inputs": [[834, 0, 0]]
    }, 
    {
      "op": "Pad", 
      "name": "pad75", 
      "attrs": {
        "mode": "constant", 
        "pad_width": "(0, 0, 0, 0, 1, 1, 1, 1)"
      }, 
      "inputs": [[835, 0, 0]]
    }, 
    {
      "op": "null", 
      "name": "learned_461", 
      "attrs": {"__shape__": "(64, 64, 3, 3)"}, 
      "inputs": []
    }, 
    {
      "op": "null", 
      "name": "learned_462", 
      "attrs": {"__shape__": "(64,)"}, 
      "inputs": []
    }, 
    {
      "op": "Convolution", 
      "name": "convolution75", 
      "attrs": {
        "dilate": "(1, 1)", 
        "kernel": "(3, 3)", 
        "no_bias": "False", 
        "num_filter": "64", 
        "num_group": "1", 
        "stride": "(1, 1)"
      }, 
      "inputs": [[836, 0, 0], [837, 0, 0], [838, 0, 0]]
    }, 
    {
      "op": "broadcast_add", 
      "name": "broadcast_add34", 
      "inputs": [[839, 0, 0], [819, 0, 0]]
    }, 
    {
      "op": "null", 
      "name": "learned_463", 
      "attrs": {"__shape__": "(64,)"}, 
      "inputs": []
    }, 
    {
      "op": "null", 
      "name": "learned_464", 
      "attrs": {"__shape__": "(64,)"}, 
      "inputs": []
    }, 
    {
      "op": "null", 
      "name": "learned_465", 
      "attrs": {
        "__init__": "[\"zero\", {}]", 
        "__shape__": "(64,)"
      }, 
      "inputs": []
    }, 
    {
      "op": "null", 
      "name": "learned_466", 
      "attrs": {
        "__init__": "[\"one\", {}]", 
        "__shape__": "(64,)"
      }, 
      "inputs": []
    }, 
    {
      "op": "BatchNorm", 
      "name": "batchnorm76", 
      "attrs": {
        "cudnn_off": "1", 
        "eps": "9.999999747378752e-06", 
        "fix_gamma": "False", 
        "momentum": "0.8999999761581421"
      }, 
      "inputs": [[840, 0, 0], [841, 0, 0], [842, 0, 0], [843, 0, 1], [844, 0, 1]]
    }, 
    {
      "op": "relu", 
      "name": "relu76", 
      "inputs": [[845, 0, 0]]
    }, 
    {
      "op": "Pad", 
      "name": "pad76", 
      "attrs": {
        "mode": "constant", 
        "pad_width": "(0, 0, 0, 0, 1, 1, 1, 1)"
      }, 
      "inputs": [[846, 0, 0]]
    }, 
    {
      "op": "null", 
      "name": "learned_467", 
      "attrs": {"__shape__": "(64, 64, 3, 3)"}, 
      "inputs": []
    }, 
    {
      "op": "null", 
      "name": "learned_468", 
      "attrs": {"__shape__": "(64,)"}, 
      "inputs": []
    }, 
    {
      "op": "Convolution", 
      "name": "convolution76", 
      "attrs": {
        "dilate": "(1, 1)", 
        "kernel": "(3, 3)", 
        "no_bias": "False", 
        "num_filter": "64", 
        "num_group": "1", 
        "stride": "(1, 1)"
      }, 
      "inputs": [[847, 0, 0], [848, 0, 0], [849, 0, 0]]
    }, 
    {
      "op": "null", 
      "name": "learned_469", 
      "attrs": {"__shape__": "(64,)"}, 
      "inputs": []
    }, 
    {
      "op": "null", 
      "name": "learned_470", 
      "attrs": {"__shape__": "(64,)"}, 
      "inputs": []
    }, 
    {
      "op": "null", 
      "name": "learned_471", 
      "attrs": {
        "__init__": "[\"zero\", {}]", 
        "__shape__": "(64,)"
      }, 
      "inputs": []
    }, 
    {
      "op": "null", 
      "name": "learned_472", 
      "attrs": {
        "__init__": "[\"one\", {}]", 
        "__shape__": "(64,)"
      }, 
      "inputs": []
    }, 
    {
      "op": "BatchNorm", 
      "name": "batchnorm77", 
      "attrs": {
        "cudnn_off": "1", 
        "eps": "9.999999747378752e-06", 
        "fix_gamma": "False", 
        "momentum": "0.8999999761581421"
      }, 
      "inputs": [[850, 0, 0], [851, 0, 0], [852, 0, 0], [853, 0, 1], [854, 0, 1]]
    }, 
    {
      "op": "relu", 
      "name": "relu77", 
      "inputs": [[855, 0, 0]]
    }, 
    {
      "op": "Pad", 
      "name": "pad77", 
      "attrs": {
        "mode": "constant", 
        "pad_width": "(0, 0, 0, 0, 1, 1, 1, 1)"
      }, 
      "inputs": [[856, 0, 0]]
    }, 
    {
      "op": "null", 
      "name": "learned_473", 
      "attrs": {"__shape__": "(64, 64, 3, 3)"}, 
      "inputs": []
    }, 
    {
      "op": "null", 
      "name": "learned_474", 
      "attrs": {"__shape__": "(64,)"}, 
      "inputs": []
    }, 
    {
      "op": "Convolution", 
      "name": "convolution77", 
      "attrs": {
        "dilate": "(1, 1)", 
        "kernel": "(3, 3)", 
        "no_bias": "False", 
        "num_filter": "64", 
        "num_group": "1", 
        "stride": "(1, 1)"
      }, 
      "inputs": [[857, 0, 0], [858, 0, 0], [859, 0, 0]]
    }, 
    {
      "op": "broadcast_add", 
      "name": "broadcast_add35", 
      "inputs": [[860, 0, 0], [840, 0, 0]]
    }, 
    {
      "op": "Concat", 
      "name": "concat5", 
      "attrs": {
        "dim": "1", 
        "num_args": "12"
      }, 
      "inputs": [
        [756, 0, 0], 
        [777, 0, 0], 
        [798, 0, 0], 
        [819, 0, 0], 
        [840, 0, 0], 
        [861, 0, 0], 
        [10, 0, 0], 
        [147, 0, 0], 
        [296, 0, 0], 
        [440, 0, 0], 
        [584, 0, 0], 
        [728, 0, 0]
      ]
    }, 
    {
      "op": "null", 
      "name": "learned_475", 
      "attrs": {"__shape__": "(768,)"}, 
      "inputs": []
    }, 
    {
      "op": "null", 
      "name": "learned_476", 
      "attrs": {"__shape__": "(768,)"}, 
      "inputs": []
    }, 
    {
      "op": "null", 
      "name": "learned_477", 
      "attrs": {
        "__init__": "[\"zero\", {}]", 
        "__shape__": "(768,)"
      }, 
      "inputs": []
    }, 
    {
      "op": "null", 
      "name": "learned_478", 
      "attrs": {
        "__init__": "[\"one\", {}]", 
        "__shape__": "(768,)"
      }, 
      "inputs": []
    }, 
    {
      "op": "BatchNorm", 
      "name": "batchnorm78", 
      "attrs": {
        "cudnn_off": "1", 
        "eps": "9.999999747378752e-06", 
        "fix_gamma": "False", 
        "momentum": "0.8999999761581421"
      }, 
      "inputs": [[862, 0, 0], [863, 0, 0], [864, 0, 0], [865, 0, 1], [866, 0, 1]]
    }, 
    {
      "op": "relu", 
      "name": "relu78", 
      "inputs": [[867, 0, 0]]
    }, 
    {
      "op": "Pad", 
      "name": "pad78", 
      "attrs": {
        "mode": "constant", 
        "pad_width": "(0, 0, 0, 0, 0, 0, 0, 0)"
      }, 
      "inputs": [[868, 0, 0]]
    }, 
    {
      "op": "null", 
      "name": "learned_479", 
      "attrs": {"__shape__": "(64, 768, 1, 1)"}, 
      "inputs": []
    }, 
    {
      "op": "null", 
      "name": "learned_480", 
      "attrs": {"__shape__": "(64,)"}, 
      "inputs": []
    }, 
    {
      "op": "Convolution", 
      "name": "convolution78", 
      "attrs": {
        "dilate": "(1, 1)", 
        "kernel": "(1, 1)", 
        "no_bias": "False", 
        "num_filter": "64", 
        "num_group": "1", 
        "stride": "(1, 1)"
      }, 
      "inputs": [[869, 0, 0], [870, 0, 0], [871, 0, 0]]
    }, 
    {
      "op": "BatchNorm", 
      "name": "batchnorm84", 
      "attrs": {
        "cudnn_off": "1", 
        "eps": "9.999999747378752e-06", 
        "fix_gamma": "False", 
        "momentum": "0.8999999761581421"
      }, 
      "inputs": [[872, 0, 0], [148, 0, 0], [149, 0, 0], [150, 0, 6], [151, 0, 6]]
    }, 
    {
      "op": "relu", 
      "name": "relu84", 
      "inputs": [[873, 0, 0]]
    }, 
    {
      "op": "Pad", 
      "name": "pad84", 
      "attrs": {
        "mode": "constant", 
        "pad_width": "(0, 0, 0, 0, 1, 1, 1, 1)"
      }, 
      "inputs": [[874, 0, 0]]
    }, 
    {
      "op": "Convolution", 
      "name": "convolution84", 
      "attrs": {
        "dilate": "(1, 1)", 
        "kernel": "(3, 3)", 
        "no_bias": "False", 
        "num_filter": "1", 
        "num_group": "1", 
        "stride": "(1, 1)"
      }, 
      "inputs": [[875, 0, 0], [155, 0, 0], [156, 0, 0]]
    }, 
    {
      "op": "broadcast_add", 
      "name": "broadcast_add45", 
      "inputs": [[876, 0, 0], [0, 0, 0]]
    }, 
    {
      "op": "_mul_scalar", 
      "name": "_mulscalar5", 
      "attrs": {"scalar": "0.1666666666667"}, 
      "inputs": [[877, 0, 0]]
    }, 
    {
      "op": "broadcast_add", 
      "name": "broadcast_add46", 
      "inputs": [[735, 0, 0], [878, 0, 0]]
    }
  ], 
  "arg_nodes": [
    0, 
    1, 
    2, 
    3, 
    4, 
    8, 
    9, 
    11, 
    12, 
    13, 
    14, 
    18, 
    19, 
    21, 
    22, 
    23, 
    24, 
    28, 
    29, 
    32, 
    33, 
    34, 
    35, 
    39, 
    40, 
    42, 
    43, 
    44, 
    45, 
    49, 
    50, 
    53, 
    54, 
    55, 
    56, 
    60, 
    61, 
    63, 
    64, 
    65, 
    66, 
    70, 
    71, 
    74, 
    75, 
    76, 
    77, 
    81, 
    82, 
    84, 
    85, 
    86, 
    87, 
    91, 
    92, 
    95, 
    96, 
    97, 
    98, 
    102, 
    103, 
    105, 
    106, 
    107, 
    108, 
    112, 
    113, 
    116, 
    117, 
    118, 
    119, 
    123, 
    124, 
    126, 
    127, 
    128, 
    129, 
    133, 
    134, 
    138, 
    139, 
    140, 
    141, 
    145, 
    146, 
    148, 
    149, 
    150, 
    151, 
    155, 
    156, 
    160, 
    161, 
    162, 
    163, 
    167, 
    168, 
    170, 
    171, 
    172, 
    173, 
    177, 
    178, 
    181, 
    182, 
    183, 
    184, 
    188, 
    189, 
    191, 
    192, 
    193, 
    194, 
    198, 
    199, 
    202, 
    203, 
    204, 
    205, 
    209, 
    210, 
    212, 
    213, 
    214, 
    215, 
    219, 
    220, 
    223, 
    224, 
    225, 
    226, 
    230, 
    231, 
    233, 
    234, 
    235, 
    236, 
    240, 
    241, 
    244, 
    245, 
    246, 
    247, 
    251, 
    252, 
    254, 
    255, 
    256, 
    257, 
    261, 
    262, 
    265, 
    266, 
    267, 
    268, 
    272, 
    273, 
    275, 
    276, 
    277, 
    278, 
    282, 
    283, 
    287, 
    288, 
    289, 
    290, 
    294, 
    295, 
    304, 
    305, 
    306, 
    307, 
    311, 
    312, 
    314, 
    315, 
    316, 
    317, 
    321, 
    322, 
    325, 
    326, 
    327, 
    328, 
    332, 
    333, 
    335, 
    336, 
    337, 
    338, 
    342, 
    343, 
    346, 
    347, 
    348, 
    349, 
    353, 
    354, 
    356, 
    357, 
    358, 
    359, 
    363, 
    364, 
    367, 
    368, 
    369, 
    370, 
    374, 
    375, 
    377, 
    378, 
    379, 
    380, 
    384, 
    385, 
    388, 
    389, 
    390, 
    391, 
    395, 
    396, 
    398, 
    399, 
    400, 
    401, 
    405, 
    406, 
    409, 
    410, 
    411, 
    412, 
    416, 
    417, 
    419, 
    420, 
    421, 
    422, 
    426, 
    427, 
    431, 
    432, 
    433, 
    434, 
    438, 
    439, 
    448, 
    449, 
    450, 
    451, 
    455, 
    456, 
    458, 
    459, 
    460, 
    461, 
    465, 
    466, 
    469, 
    470, 
    471, 
    472, 
    476, 
    477, 
    479, 
    480, 
    481, 
    482, 
    486, 
    487, 
    490, 
    491, 
    492, 
    493, 
    497, 
    498, 
    500, 
    501, 
    502, 
    503, 
    507, 
    508, 
    511, 
    512, 
    513, 
    514, 
    518, 
    519, 
    521, 
    522, 
    523, 
    524, 
    528, 
    529, 
    532, 
    533, 
    534, 
    535, 
    539, 
    540, 
    542, 
    543, 
    544, 
    545, 
    549, 
    550, 
    553, 
    554, 
    555, 
    556, 
    560, 
    561, 
    563, 
    564, 
    565, 
    566, 
    570, 
    571, 
    575, 
    576, 
    577, 
    578, 
    582, 
    583, 
    592, 
    593, 
    594, 
    595, 
    599, 
    600, 
    602, 
    603, 
    604, 
    605, 
    609, 
    610, 
    613, 
    614, 
    615, 
    616, 
    620, 
    621, 
    623, 
    624, 
    625, 
    626, 
    630, 
    631, 
    634, 
    635, 
    636, 
    637, 
    641, 
    642, 
    644, 
    645, 
    646, 
    647, 
    651, 
    652, 
    655, 
    656, 
    657, 
    658, 
    662, 
    663, 
    665, 
    666, 
    667, 
    668, 
    672, 
    673, 
    676, 
    677, 
    678, 
    679, 
    683, 
    684, 
    686, 
    687, 
    688, 
    689, 
    693, 
    694, 
    697, 
    698, 
    699, 
    700, 
    704, 
    705, 
    707, 
    708, 
    709, 
    710, 
    714, 
    715, 
    719, 
    720, 
    721, 
    722, 
    726, 
    727, 
    736, 
    737, 
    738, 
    739, 
    743, 
    744, 
    746, 
    747, 
    748, 
    749, 
    753, 
    754, 
    757, 
    758, 
    759, 
    760, 
    764, 
    765, 
    767, 
    768, 
    769, 
    770, 
    774, 
    775, 
    778, 
    779, 
    780, 
    781, 
    785, 
    786, 
    788, 
    789, 
    790, 
    791, 
    795, 
    796, 
    799, 
    800, 
    801, 
    802, 
    806, 
    807, 
    809, 
    810, 
    811, 
    812, 
    816, 
    817, 
    820, 
    821, 
    822, 
    823, 
    827, 
    828, 
    830, 
    831, 
    832, 
    833, 
    837, 
    838, 
    841, 
    842, 
    843, 
    844, 
    848, 
    849, 
    851, 
    852, 
    853, 
    854, 
    858, 
    859, 
    863, 
    864, 
    865, 
    866, 
    870, 
    871
  ], 
  "node_row_ptr": [
    0, 
    1, 
    2, 
    3, 
    4, 
    5, 
    8, 
    9, 
    10, 
    11, 
    12, 
    13, 
    14, 
    15, 
    16, 
    17, 
    20, 
    21, 
    22, 
    23, 
    24, 
    25, 
    26, 
    27, 
    28, 
    29, 
    32, 
    33, 
    34, 
    35, 
    36, 
    37, 
    38, 
    39, 
    40, 
    41, 
    42, 
    45, 
    46, 
    47, 
    48, 
    49, 
    50, 
    51, 
    52, 
    53, 
    54, 
    57, 
    58, 
    59, 
    60, 
    61, 
    62, 
    63, 
    64, 
    65, 
    66, 
    67, 
    70, 
    71, 
    72, 
    73, 
    74, 
    75, 
    76, 
    77, 
    78, 
    79, 
    82, 
    83, 
    84, 
    85, 
    86, 
    87, 
    88, 
    89, 
    90, 
    91, 
    92, 
    95, 
    96, 
    97, 
    98, 
    99, 
    100, 
    101, 
    102, 
    103, 
    104, 
    107, 
    108, 
    109, 
    110, 
    111, 
    112, 
    113, 
    114, 
    115, 
    116, 
    117, 
    120, 
    121, 
    122, 
    123, 
    124, 
    125, 
    126, 
    127, 
    128, 
    129, 
    132, 
    133, 
    134, 
    135, 
    136, 
    137, 
    138, 
    139, 
    140, 
    141, 
    142, 
    145, 
    146, 
    147, 
    148, 
    149, 
    150, 
    151, 
    152, 
    153, 
    154, 
    157, 
    158, 
    159, 
    160, 
    161, 
    162, 
    163, 
    164, 
    165, 
    166, 
    167, 
    168, 
    171, 
    172, 
    173, 
    174, 
    175, 
    176, 
    177, 
    178, 
    179, 
    180, 
    183, 
    184, 
    185, 
    186, 
    187, 
    188, 
    189, 
    190, 
    191, 
    192, 
    193, 
    194, 
    197, 
    198, 
    199, 
    200, 
    201, 
    202, 
    203, 
    204, 
    205, 
    206, 
    209, 
    210, 
    211, 
    212, 
    213, 
    214, 
    215, 
    216, 
    217, 
    218, 
    219, 
    222, 
    223, 
    224, 
    225, 
    226, 
    227, 
    228, 
    229, 
    230, 
    231, 
    234, 
    235, 
    236, 
    237, 
    238, 
    239, 
    240, 
    241, 
    242, 
    243, 
    244, 
    247, 
    248, 
    249, 
    250, 
    251, 
    252, 
    253, 
    254, 
    255, 
    256, 
    259, 
    260, 
    261, 
    262, 
    263, 
    264, 
    265, 
    266, 
    267, 
    268, 
    269, 
    272, 
    273, 
    274, 
    275, 
    276, 
    277, 
    278, 
    279, 
    280, 
    281, 
    284, 
    285, 
    286, 
    287, 
    288, 
    289, 
    290, 
    291, 
    292, 
    293, 
    294, 
    297, 
    298, 
    299, 
    300, 
    301, 
    302, 
    303, 
    304, 
    305, 
    306, 
    309, 
    310, 
    311, 
    312, 
    313, 
    314, 
    315, 
    316, 
    317, 
    318, 
    319, 
    322, 
    323, 
    324, 
    325, 
    326, 
    327, 
    328, 
    329, 
    330, 
    331, 
    334, 
    335, 
    336, 
    337, 
    338, 
    339, 
    340, 
    341, 
    342, 
    343, 
    344, 
    345, 
    348, 
    349, 
    350, 
    351, 
    352, 
    353, 
    356, 
    357, 
    358, 
    359, 
    360, 
    361, 
    362, 
    363, 
    364, 
    365, 
    366, 
    369, 
    370, 
    371, 
    372, 
    373, 
    374, 
    375, 
    376, 
    377, 
    378, 
    381, 
    382, 
    383, 
    384, 
    385, 
    386, 
    387, 
    388, 
    389, 
    390, 
    391, 
    394, 
    395, 
    396, 
    397, 
    398, 
    399, 
    400, 
    401, 
    402, 
    403, 
    406, 
    407, 
    408, 
    409, 
    410, 
    411, 
    412, 
    413, 
    414, 
    415, 
    416, 
    419, 
    420, 
    421, 
    422, 
    423, 
    424, 
    425, 
    426, 
    427, 
    428, 
    431, 
    432, 
    433, 
    434, 
    435, 
    436, 
    437, 
    438, 
    439, 
    440, 
    441, 
    444, 
    445, 
    446, 
    447, 
    448, 
    449, 
    450, 
    451, 
    452, 
    453, 
    456, 
    457, 
    458, 
    459, 
    460, 
    461, 
    462, 
    463, 
    464, 
    465, 
    466, 
    469, 
    470, 
    471, 
    472, 
    473, 
    474, 
    475, 
    476, 
    477, 
    478, 
    481, 
    482, 
    483, 
    484, 
    485, 
    486, 
    487, 
    488, 
    489, 
    490, 
    491, 
    494, 
    495, 
    496, 
    497, 
    498, 
    499, 
    500, 
    501, 
    502, 
    503, 
    506, 
    507, 
    508, 
    509, 
    510, 
    511, 
    512, 
    513, 
    514, 
    515, 
    516, 
    517, 
    520, 
    521, 
    522, 
    523, 
    524, 
    525, 
    528, 
    529, 
    530, 
    531, 
    532, 
    533, 
    534, 
    535, 
    536, 
    537, 
    538, 
    541, 
    542, 
    543, 
    544, 
    545, 
    546, 
    547, 
    548, 
    549, 
    550, 
    553, 
    554, 
    555, 
    556, 
    557, 
    558, 
    559, 
    560, 
    561, 
    562, 
    563, 
    566, 
    567, 
    568, 
    569, 
    570, 
    571, 
    572, 
    573, 
    574, 
    575, 
    578, 
    579, 
    580, 
    581, 
    582, 
    583, 
    584, 
    585, 
    586, 
    587, 
    588, 
    591, 
    592, 
    593, 
    594, 
    595, 
    596, 
    597, 
    598, 
    599, 
    600, 
    603, 
    604, 
    605, 
    606, 
    607, 
    608, 
    609, 
    610, 
    611, 
    612, 
    613, 
    616, 
    617, 
    618, 
    619, 
    620, 
    621, 
    622, 
    623, 
    624, 
    625, 
    628, 
    629, 
    630, 
    631, 
    632, 
    633, 
    634, 
    635, 
    636, 
    637, 
    638, 
    641, 
    642, 
    643, 
    644, 
    645, 
    646, 
    647, 
    648, 
    649, 
    650, 
    653, 
    654, 
    655, 
    656, 
    657, 
    658, 
    659, 
    660, 
    661, 
    662, 
    663, 
    666, 
    667, 
    668, 
    669, 
    670, 
    671, 
    672, 
    673, 
    674, 
    675, 
    678, 
    679, 
    680, 
    681, 
    682, 
    683, 
    684, 
    685, 
    686, 
    687, 
    688, 
    689, 
    692, 
    693, 
    694, 
    695, 
    696, 
    697, 
    700, 
    701, 
    702, 
    703, 
    704, 
    705, 
    706, 
    707, 
    708, 
    709, 
    710, 
    713, 
    714, 
    715, 
    716, 
    717, 
    718, 
    719, 
    720, 
    721, 
    722, 
    725, 
    726, 
    727, 
    728, 
    729, 
    730, 
    731, 
    732, 
    733, 
    734, 
    735, 
    738, 
    739, 
    740, 
    741, 
    742, 
    743, 
    744, 
    745, 
    746, 
    747, 
    750, 
    751, 
    752, 
    753, 
    754, 
    755, 
    756, 
    757, 
    758, 
    759, 
    760, 
    763, 
    764, 
    765, 
    766, 
    767, 
    768, 
    769, 
    770, 
    771, 
    772, 
    775, 
    776, 
    777, 
    778, 
    779, 
    780, 
    781, 
    782, 
    783, 
    784, 
    785, 
    788, 
    789, 
    790, 
    791, 
    792, 
    793, 
    794, 
    795, 
    796, 
    797, 
    800, 
    801, 
    802, 
    803, 
    804, 
    805, 
    806, 
    807, 
    808, 
    809, 
    810, 
    813, 
    814, 
    815, 
    816, 
    817, 
    818, 
    819, 
    820, 
    821, 
    822, 
    825, 
    826, 
    827, 
    828, 
    829, 
    830, 
    831, 
    832, 
    833, 
    834, 
    835, 
    838, 
    839, 
    840, 
    841, 
    842, 
    843, 
    844, 
    845, 
    846, 
    847, 
    850, 
    851, 
    852, 
    853, 
    854, 
    855, 
    856, 
    857, 
    858, 
    859, 
    860, 
    861, 
    864, 
    865, 
    866, 
    867, 
    868, 
    869, 
    872, 
    873, 
    874, 
    875, 
    876, 
    877, 
    878, 
    879, 
    880, 
    881, 
    882, 
    885, 
    886, 
    887, 
    888, 
    889, 
    890, 
    891, 
    892, 
    893, 
    894, 
    897, 
    898, 
    899, 
    900, 
    901, 
    902, 
    903, 
    904, 
    905, 
    906, 
    907, 
    910, 
    911, 
    912, 
    913, 
    914, 
    915, 
    916, 
    917, 
    918, 
    919, 
    922, 
    923, 
    924, 
    925, 
    926, 
    927, 
    928, 
    929, 
    930, 
    931, 
    932, 
    935, 
    936, 
    937, 
    938, 
    939, 
    940, 
    941, 
    942, 
    943, 
    944, 
    947, 
    948, 
    949, 
    950, 
    951, 
    952, 
    953, 
    954, 
    955, 
    956, 
    957, 
    960, 
    961, 
    962, 
    963, 
    964, 
    965, 
    966, 
    967, 
    968, 
    969, 
    972, 
    973, 
    974, 
    975, 
    976, 
    977, 
    978, 
    979, 
    980, 
    981, 
    982, 
    985, 
    986, 
    987, 
    988, 
    989, 
    990, 
    991, 
    992, 
    993, 
    994, 
    997, 
    998, 
    999, 
    1000, 
    1001, 
    1002, 
    1003, 
    1004, 
    1005, 
    1006, 
    1007, 
    1010, 
    1011, 
    1012, 
    1013, 
    1014, 
    1015, 
    1016, 
    1017, 
    1018, 
    1019, 
    1022, 
    1023, 
    1024, 
    1025, 
    1026, 
    1027, 
    1028, 
    1029, 
    1030, 
    1031, 
    1032, 
    1033, 
    1036, 
    1037, 
    1038, 
    1039, 
    1040, 
    1041, 
    1044, 
    1045, 
    1046, 
    1047, 
    1048, 
    1049, 
    1050
  ], 
  "heads": [[879, 0, 0]], 
  "attrs": {"mxnet_version": ["int", 10300]}
}