{
  "nodes": [
    {
      "op": "null", 
      "name": "data", 
      "inputs": []
    }, 
    {
      "op": "null", 
      "name": "learned_0", 
      "attrs": {"__shape__": "(64, 3, 3, 3)"}, 
      "inputs": []
    }, 
    {
      "op": "null", 
      "name": "learned_1", 
      "attrs": {"__shape__": "(64,)"}, 
      "inputs": []
    }, 
    {
      "op": "Convolution", 
      "name": "convolution0", 
      "attrs": {
        "dilate": "(1, 1)", 
        "kernel": "(3, 3)", 
        "layout": "NCHW", 
        "no_bias": "False", 
        "num_filter": "64", 
        "num_group": "1", 
        "pad": "(1, 1)", 
        "stride": "(1, 1)"
      }, 
      "inputs": [[0, 0, 0], [1, 0, 0], [2, 0, 0]]
    }, 
    {
      "op": "null", 
      "name": "learned_2", 
      "attrs": {"__shape__": "(32, 64, 3, 3)"}, 
      "inputs": []
    }, 
    {
      "op": "null", 
      "name": "learned_3", 
      "attrs": {"__shape__": "(32,)"}, 
      "inputs": []
    }, 
    {
      "op": "Convolution", 
      "name": "convolution1", 
      "attrs": {
        "dilate": "(1, 1)", 
        "kernel": "(3, 3)", 
        "layout": "NCHW", 
        "no_bias": "False", 
        "num_filter": "32", 
        "num_group": "1", 
        "pad": "(1, 1)", 
        "stride": "(1, 1)"
      }, 
      "inputs": [[3, 0, 0], [4, 0, 0], [5, 0, 0]]
    }, 
    {
      "op": "LeakyReLU", 
      "name": "leakyrelu0", 
      "attrs": {"slope": "0.20000000298023224"}, 
      "inputs": [[6, 0, 0]]
    }, 
    {
      "op": "Concat", 
      "name": "concat0", 
      "attrs": {
        "dim": "1", 
        "num_args": "2"
      }, 
      "inputs": [[3, 0, 0], [7, 0, 0]]
    }, 
    {
      "op": "null", 
      "name": "learned_4", 
      "attrs": {"__shape__": "(32, 96, 3, 3)"}, 
      "inputs": []
    }, 
    {
      "op": "null", 
      "name": "learned_5", 
      "attrs": {"__shape__": "(32,)"}, 
      "inputs": []
    }, 
    {
      "op": "Convolution", 
      "name": "convolution2", 
      "attrs": {
        "dilate": "(1, 1)", 
        "kernel": "(3, 3)", 
        "layout": "NCHW", 
        "no_bias": "False", 
        "num_filter": "32", 
        "num_group": "1", 
        "pad": "(1, 1)", 
        "stride": "(1, 1)"
      }, 
      "inputs": [[8, 0, 0], [9, 0, 0], [10, 0, 0]]
    }, 
    {
      "op": "LeakyReLU", 
      "name": "leakyrelu1", 
      "attrs": {"slope": "0.20000000298023224"}, 
      "inputs": [[11, 0, 0]]
    }, 
    {
      "op": "Concat", 
      "name": "concat1", 
      "attrs": {
        "dim": "1", 
        "num_args": "3"
      }, 
      "inputs": [[3, 0, 0], [7, 0, 0], [12, 0, 0]]
    }, 
    {
      "op": "null", 
      "name": "learned_6", 
      "attrs": {"__shape__": "(32, 128, 3, 3)"}, 
      "inputs": []
    }, 
    {
      "op": "null", 
      "name": "learned_7", 
      "attrs": {"__shape__": "(32,)"}, 
      "inputs": []
    }, 
    {
      "op": "Convolution", 
      "name": "convolution3", 
      "attrs": {
        "dilate": "(1, 1)", 
        "kernel": "(3, 3)", 
        "layout": "NCHW", 
        "no_bias": "False", 
        "num_filter": "32", 
        "num_group": "1", 
        "pad": "(1, 1)", 
        "stride": "(1, 1)"
      }, 
      "inputs": [[13, 0, 0], [14, 0, 0], [15, 0, 0]]
    }, 
    {
      "op": "LeakyReLU", 
      "name": "leakyrelu2", 
      "attrs": {"slope": "0.20000000298023224"}, 
      "inputs": [[16, 0, 0]]
    }, 
    {
      "op": "Concat", 
      "name": "concat2", 
      "attrs": {
        "dim": "1", 
        "num_args": "4"
      }, 
      "inputs": [[3, 0, 0], [7, 0, 0], [12, 0, 0], [17, 0, 0]]
    }, 
    {
      "op": "null", 
      "name": "learned_8", 
      "attrs": {"__shape__": "(32, 160, 3, 3)"}, 
      "inputs": []
    }, 
    {
      "op": "null", 
      "name": "learned_9", 
      "attrs": {"__shape__": "(32,)"}, 
      "inputs": []
    }, 
    {
      "op": "Convolution", 
      "name": "convolution4", 
      "attrs": {
        "dilate": "(1, 1)", 
        "kernel": "(3, 3)", 
        "layout": "NCHW", 
        "no_bias": "False", 
        "num_filter": "32", 
        "num_group": "1", 
        "pad": "(1, 1)", 
        "stride": "(1, 1)"
      }, 
      "inputs": [[18, 0, 0], [19, 0, 0], [20, 0, 0]]
    }, 
    {
      "op": "LeakyReLU", 
      "name": "leakyrelu3", 
      "attrs": {"slope": "0.20000000298023224"}, 
      "inputs": [[21, 0, 0]]
    }, 
    {
      "op": "Concat", 
      "name": "concat3", 
      "attrs": {
        "dim": "1", 
        "num_args": "5"
      }, 
      "inputs": [[3, 0, 0], [7, 0, 0], [12, 0, 0], [17, 0, 0], [22, 0, 0]]
    }, 
    {
      "op": "null", 
      "name": "learned_10", 
      "attrs": {"__shape__": "(64, 192, 3, 3)"}, 
      "inputs": []
    }, 
    {
      "op": "null", 
      "name": "learned_11", 
      "attrs": {"__shape__": "(64,)"}, 
      "inputs": []
    }, 
    {
      "op": "Convolution", 
      "name": "convolution5", 
      "attrs": {
        "dilate": "(1, 1)", 
        "kernel": "(3, 3)", 
        "layout": "NCHW", 
        "no_bias": "False", 
        "num_filter": "64", 
        "num_group": "1", 
        "pad": "(1, 1)", 
        "stride": "(1, 1)"
      }, 
      "inputs": [[23, 0, 0], [24, 0, 0], [25, 0, 0]]
    }, 
    {
      "op": "_mul_scalar", 
      "name": "_mulscalar0", 
      "attrs": {"scalar": "0.2"}, 
      "inputs": [[26, 0, 0]]
    }, 
    {
      "op": "broadcast_add", 
      "name": "broadcast_add0", 
      "inputs": [[27, 0, 0], [3, 0, 0]]
    }, 
    {
      "op": "null", 
      "name": "learned_12", 
      "attrs": {"__shape__": "(32, 64, 3, 3)"}, 
      "inputs": []
    }, 
    {
      "op": "null", 
      "name": "learned_13", 
      "attrs": {"__shape__": "(32,)"}, 
      "inputs": []
    }, 
    {
      "op": "Convolution", 
      "name": "convolution6", 
      "attrs": {
        "dilate": "(1, 1)", 
        "kernel": "(3, 3)", 
        "layout": "NCHW", 
        "no_bias": "False", 
        "num_filter": "32", 
        "num_group": "1", 
        "pad": "(1, 1)", 
        "stride": "(1, 1)"
      }, 
      "inputs": [[28, 0, 0], [29, 0, 0], [30, 0, 0]]
    }, 
    {
      "op": "LeakyReLU", 
      "name": "leakyrelu4", 
      "attrs": {"slope": "0.20000000298023224"}, 
      "inputs": [[31, 0, 0]]
    }, 
    {
      "op": "Concat", 
      "name": "concat4", 
      "attrs": {
        "dim": "1", 
        "num_args": "2"
      }, 
      "inputs": [[28, 0, 0], [32, 0, 0]]
    }, 
    {
      "op": "null", 
      "name": "learned_14", 
      "attrs": {"__shape__": "(32, 96, 3, 3)"}, 
      "inputs": []
    }, 
    {
      "op": "null", 
      "name": "learned_15", 
      "attrs": {"__shape__": "(32,)"}, 
      "inputs": []
    }, 
    {
      "op": "Convolution", 
      "name": "convolution7", 
      "attrs": {
        "dilate": "(1, 1)", 
        "kernel": "(3, 3)", 
        "layout": "NCHW", 
        "no_bias": "False", 
        "num_filter": "32", 
        "num_group": "1", 
        "pad": "(1, 1)", 
        "stride": "(1, 1)"
      }, 
      "inputs": [[33, 0, 0], [34, 0, 0], [35, 0, 0]]
    }, 
    {
      "op": "LeakyReLU", 
      "name": "leakyrelu5", 
      "attrs": {"slope": "0.20000000298023224"}, 
      "inputs": [[36, 0, 0]]
    }, 
    {
      "op": "Concat", 
      "name": "concat5", 
      "attrs": {
        "dim": "1", 
        "num_args": "3"
      }, 
      "inputs": [[28, 0, 0], [32, 0, 0], [37, 0, 0]]
    }, 
    {
      "op": "null", 
      "name": "learned_16", 
      "attrs": {"__shape__": "(32, 128, 3, 3)"}, 
      "inputs": []
    }, 
    {
      "op": "null", 
      "name": "learned_17", 
      "attrs": {"__shape__": "(32,)"}, 
      "inputs": []
    }, 
    {
      "op": "Convolution", 
      "name": "convolution8", 
      "attrs": {
        "dilate": "(1, 1)", 
        "kernel": "(3, 3)", 
        "layout": "NCHW", 
        "no_bias": "False", 
        "num_filter": "32", 
        "num_group": "1", 
        "pad": "(1, 1)", 
        "stride": "(1, 1)"
      }, 
      "inputs": [[38, 0, 0], [39, 0, 0], [40, 0, 0]]
    }, 
    {
      "op": "LeakyReLU", 
      "name": "leakyrelu6", 
      "attrs": {"slope": "0.20000000298023224"}, 
      "inputs": [[41, 0, 0]]
    }, 
    {
      "op": "Concat", 
      "name": "concat6", 
      "attrs": {
        "dim": "1", 
        "num_args": "4"
      }, 
      "inputs": [[28, 0, 0], [32, 0, 0], [37, 0, 0], [42, 0, 0]]
    }, 
    {
      "op": "null", 
      "name": "learned_18", 
      "attrs": {"__shape__": "(32, 160, 3, 3)"}, 
      "inputs": []
    }, 
    {
      "op": "null", 
      "name": "learned_19", 
      "attrs": {"__shape__": "(32,)"}, 
      "inputs": []
    }, 
    {
      "op": "Convolution", 
      "name": "convolution9", 
      "attrs": {
        "dilate": "(1, 1)", 
        "kernel": "(3, 3)", 
        "layout": "NCHW", 
        "no_bias": "False", 
        "num_filter": "32", 
        "num_group": "1", 
        "pad": "(1, 1)", 
        "stride": "(1, 1)"
      }, 
      "inputs": [[43, 0, 0], [44, 0, 0], [45, 0, 0]]
    }, 
    {
      "op": "LeakyReLU", 
      "name": "leakyrelu7", 
      "attrs": {"slope": "0.20000000298023224"}, 
      "inputs": [[46, 0, 0]]
    }, 
    {
      "op": "Concat", 
      "name": "concat7", 
      "attrs": {
        "dim": "1", 
        "num_args": "5"
      }, 
      "inputs": [[28, 0, 0], [32, 0, 0], [37, 0, 0], [42, 0, 0], [47, 0, 0]]
    }, 
    {
      "op": "null", 
      "name": "learned_20", 
      "attrs": {"__shape__": "(64, 192, 3, 3)"}, 
      "inputs": []
    }, 
    {
      "op": "null", 
      "name": "learned_21", 
      "attrs": {"__shape__": "(64,)"}, 
      "inputs": []
    }, 
    {
      "op": "Convolution", 
      "name": "convolution10", 
      "attrs": {
        "dilate": "(1, 1)", 
        "kernel": "(3, 3)", 
        "layout": "NCHW", 
        "no_bias": "False", 
        "num_filter": "64", 
        "num_group": "1", 
        "pad": "(1, 1)", 
        "stride": "(1, 1)"
      }, 
      "inputs": [[48, 0, 0], [49, 0, 0], [50, 0, 0]]
    }, 
    {
      "op": "_mul_scalar", 
      "name": "_mulscalar1", 
      "attrs": {"scalar": "0.2"}, 
      "inputs": [[51, 0, 0]]
    }, 
    {
      "op": "broadcast_add", 
      "name": "broadcast_add1", 
      "inputs": [[52, 0, 0], [28, 0, 0]]
    }, 
    {
      "op": "null", 
      "name": "learned_22", 
      "attrs": {"__shape__": "(32, 64, 3, 3)"}, 
      "inputs": []
    }, 
    {
      "op": "null", 
      "name": "learned_23", 
      "attrs": {"__shape__": "(32,)"}, 
      "inputs": []
    }, 
    {
      "op": "Convolution", 
      "name": "convolution11", 
      "attrs": {
        "dilate": "(1, 1)", 
        "kernel": "(3, 3)", 
        "layout": "NCHW", 
        "no_bias": "False", 
        "num_filter": "32", 
        "num_group": "1", 
        "pad": "(1, 1)", 
        "stride": "(1, 1)"
      }, 
      "inputs": [[53, 0, 0], [54, 0, 0], [55, 0, 0]]
    }, 
    {
      "op": "LeakyReLU", 
      "name": "leakyrelu8", 
      "attrs": {"slope": "0.20000000298023224"}, 
      "inputs": [[56, 0, 0]]
    }, 
    {
      "op": "Concat", 
      "name": "concat8", 
      "attrs": {
        "dim": "1", 
        "num_args": "2"
      }, 
      "inputs": [[53, 0, 0], [57, 0, 0]]
    }, 
    {
      "op": "null", 
      "name": "learned_24", 
      "attrs": {"__shape__": "(32, 96, 3, 3)"}, 
      "inputs": []
    }, 
    {
      "op": "null", 
      "name": "learned_25", 
      "attrs": {"__shape__": "(32,)"}, 
      "inputs": []
    }, 
    {
      "op": "Convolution", 
      "name": "convolution12", 
      "attrs": {
        "dilate": "(1, 1)", 
        "kernel": "(3, 3)", 
        "layout": "NCHW", 
        "no_bias": "False", 
        "num_filter": "32", 
        "num_group": "1", 
        "pad": "(1, 1)", 
        "stride": "(1, 1)"
      }, 
      "inputs": [[58, 0, 0], [59, 0, 0], [60, 0, 0]]
    }, 
    {
      "op": "LeakyReLU", 
      "name": "leakyrelu9", 
      "attrs": {"slope": "0.20000000298023224"}, 
      "inputs": [[61, 0, 0]]
    }, 
    {
      "op": "Concat", 
      "name": "concat9", 
      "attrs": {
        "dim": "1", 
        "num_args": "3"
      }, 
      "inputs": [[53, 0, 0], [57, 0, 0], [62, 0, 0]]
    }, 
    {
      "op": "null", 
      "name": "learned_26", 
      "attrs": {"__shape__": "(32, 128, 3, 3)"}, 
      "inputs": []
    }, 
    {
      "op": "null", 
      "name": "learned_27", 
      "attrs": {"__shape__": "(32,)"}, 
      "inputs": []
    }, 
    {
      "op": "Convolution", 
      "name": "convolution13", 
      "attrs": {
        "dilate": "(1, 1)", 
        "kernel": "(3, 3)", 
        "layout": "NCHW", 
        "no_bias": "False", 
        "num_filter": "32", 
        "num_group": "1", 
        "pad": "(1, 1)", 
        "stride": "(1, 1)"
      }, 
      "inputs": [[63, 0, 0], [64, 0, 0], [65, 0, 0]]
    }, 
    {
      "op": "LeakyReLU", 
      "name": "leakyrelu10", 
      "attrs": {"slope": "0.20000000298023224"}, 
      "inputs": [[66, 0, 0]]
    }, 
    {
      "op": "Concat", 
      "name": "concat10", 
      "attrs": {
        "dim": "1", 
        "num_args": "4"
      }, 
      "inputs": [[53, 0, 0], [57, 0, 0], [62, 0, 0], [67, 0, 0]]
    }, 
    {
      "op": "null", 
      "name": "learned_28", 
      "attrs": {"__shape__": "(32, 160, 3, 3)"}, 
      "inputs": []
    }, 
    {
      "op": "null", 
      "name": "learned_29", 
      "attrs": {"__shape__": "(32,)"}, 
      "inputs": []
    }, 
    {
      "op": "Convolution", 
      "name": "convolution14", 
      "attrs": {
        "dilate": "(1, 1)", 
        "kernel": "(3, 3)", 
        "layout": "NCHW", 
        "no_bias": "False", 
        "num_filter": "32", 
        "num_group": "1", 
        "pad": "(1, 1)", 
        "stride": "(1, 1)"
      }, 
      "inputs": [[68, 0, 0], [69, 0, 0], [70, 0, 0]]
    }, 
    {
      "op": "LeakyReLU", 
      "name": "leakyrelu11", 
      "attrs": {"slope": "0.20000000298023224"}, 
      "inputs": [[71, 0, 0]]
    }, 
    {
      "op": "Concat", 
      "name": "concat11", 
      "attrs": {
        "dim": "1", 
        "num_args": "5"
      }, 
      "inputs": [[53, 0, 0], [57, 0, 0], [62, 0, 0], [67, 0, 0], [72, 0, 0]]
    }, 
    {
      "op": "null", 
      "name": "learned_30", 
      "attrs": {"__shape__": "(64, 192, 3, 3)"}, 
      "inputs": []
    }, 
    {
      "op": "null", 
      "name": "learned_31", 
      "attrs": {"__shape__": "(64,)"}, 
      "inputs": []
    }, 
    {
      "op": "Convolution", 
      "name": "convolution15", 
      "attrs": {
        "dilate": "(1, 1)", 
        "kernel": "(3, 3)", 
        "layout": "NCHW", 
        "no_bias": "False", 
        "num_filter": "64", 
        "num_group": "1", 
        "pad": "(1, 1)", 
        "stride": "(1, 1)"
      }, 
      "inputs": [[73, 0, 0], [74, 0, 0], [75, 0, 0]]
    }, 
    {
      "op": "_mul_scalar", 
      "name": "_mulscalar2", 
      "attrs": {"scalar": "0.2"}, 
      "inputs": [[76, 0, 0]]
    }, 
    {
      "op": "broadcast_add", 
      "name": "broadcast_add2", 
      "inputs": [[77, 0, 0], [53, 0, 0]]
    }, 
    {
      "op": "_mul_scalar", 
      "name": "_mulscalar3", 
      "attrs": {"scalar": "0.2"}, 
      "inputs": [[78, 0, 0]]
    }, 
    {
      "op": "broadcast_add", 
      "name": "broadcast_add3", 
      "inputs": [[79, 0, 0], [3, 0, 0]]
    }, 
    {
      "op": "null", 
      "name": "learned_32", 
      "attrs": {"__shape__": "(32, 64, 3, 3)"}, 
      "inputs": []
    }, 
    {
      "op": "null", 
      "name": "learned_33", 
      "attrs": {"__shape__": "(32,)"}, 
      "inputs": []
    }, 
    {
      "op": "Convolution", 
      "name": "convolution16", 
      "attrs": {
        "dilate": "(1, 1)", 
        "kernel": "(3, 3)", 
        "layout": "NCHW", 
        "no_bias": "False", 
        "num_filter": "32", 
        "num_group": "1", 
        "pad": "(1, 1)", 
        "stride": "(1, 1)"
      }, 
      "inputs": [[80, 0, 0], [81, 0, 0], [82, 0, 0]]
    }, 
    {
      "op": "LeakyReLU", 
      "name": "leakyrelu12", 
      "attrs": {"slope": "0.20000000298023224"}, 
      "inputs": [[83, 0, 0]]
    }, 
    {
      "op": "Concat", 
      "name": "concat12", 
      "attrs": {
        "dim": "1", 
        "num_args": "2"
      }, 
      "inputs": [[80, 0, 0], [84, 0, 0]]
    }, 
    {
      "op": "null", 
      "name": "learned_34", 
      "attrs": {"__shape__": "(32, 96, 3, 3)"}, 
      "inputs": []
    }, 
    {
      "op": "null", 
      "name": "learned_35", 
      "attrs": {"__shape__": "(32,)"}, 
      "inputs": []
    }, 
    {
      "op": "Convolution", 
      "name": "convolution17", 
      "attrs": {
        "dilate": "(1, 1)", 
        "kernel": "(3, 3)", 
        "layout": "NCHW", 
        "no_bias": "False", 
        "num_filter": "32", 
        "num_group": "1", 
        "pad": "(1, 1)", 
        "stride": "(1, 1)"
      }, 
      "inputs": [[85, 0, 0], [86, 0, 0], [87, 0, 0]]
    }, 
    {
      "op": "LeakyReLU", 
      "name": "leakyrelu13", 
      "attrs": {"slope": "0.20000000298023224"}, 
      "inputs": [[88, 0, 0]]
    }, 
    {
      "op": "Concat", 
      "name": "concat13", 
      "attrs": {
        "dim": "1", 
        "num_args": "3"
      }, 
      "inputs": [[80, 0, 0], [84, 0, 0], [89, 0, 0]]
    }, 
    {
      "op": "null", 
      "name": "learned_36", 
      "attrs": {"__shape__": "(32, 128, 3, 3)"}, 
      "inputs": []
    }, 
    {
      "op": "null", 
      "name": "learned_37", 
      "attrs": {"__shape__": "(32,)"}, 
      "inputs": []
    }, 
    {
      "op": "Convolution", 
      "name": "convolution18", 
      "attrs": {
        "dilate": "(1, 1)", 
        "kernel": "(3, 3)", 
        "layout": "NCHW", 
        "no_bias": "False", 
        "num_filter": "32", 
        "num_group": "1", 
        "pad": "(1, 1)", 
        "stride": "(1, 1)"
      }, 
      "inputs": [[90, 0, 0], [91, 0, 0], [92, 0, 0]]
    }, 
    {
      "op": "LeakyReLU", 
      "name": "leakyrelu14", 
      "attrs": {"slope": "0.20000000298023224"}, 
      "inputs": [[93, 0, 0]]
    }, 
    {
      "op": "Concat", 
      "name": "concat14", 
      "attrs": {
        "dim": "1", 
        "num_args": "4"
      }, 
      "inputs": [[80, 0, 0], [84, 0, 0], [89, 0, 0], [94, 0, 0]]
    }, 
    {
      "op": "null", 
      "name": "learned_38", 
      "attrs": {"__shape__": "(32, 160, 3, 3)"}, 
      "inputs": []
    }, 
    {
      "op": "null", 
      "name": "learned_39", 
      "attrs": {"__shape__": "(32,)"}, 
      "inputs": []
    }, 
    {
      "op": "Convolution", 
      "name": "convolution19", 
      "attrs": {
        "dilate": "(1, 1)", 
        "kernel": "(3, 3)", 
        "layout": "NCHW", 
        "no_bias": "False", 
        "num_filter": "32", 
        "num_group": "1", 
        "pad": "(1, 1)", 
        "stride": "(1, 1)"
      }, 
      "inputs": [[95, 0, 0], [96, 0, 0], [97, 0, 0]]
    }, 
    {
      "op": "LeakyReLU", 
      "name": "leakyrelu15", 
      "attrs": {"slope": "0.20000000298023224"}, 
      "inputs": [[98, 0, 0]]
    }, 
    {
      "op": "Concat", 
      "name": "concat15", 
      "attrs": {
        "dim": "1", 
        "num_args": "5"
      }, 
      "inputs": [[80, 0, 0], [84, 0, 0], [89, 0, 0], [94, 0, 0], [99, 0, 0]]
    }, 
    {
      "op": "null", 
      "name": "learned_40", 
      "attrs": {"__shape__": "(64, 192, 3, 3)"}, 
      "inputs": []
    }, 
    {
      "op": "null", 
      "name": "learned_41", 
      "attrs": {"__shape__": "(64,)"}, 
      "inputs": []
    }, 
    {
      "op": "Convolution", 
      "name": "convolution20", 
      "attrs": {
        "dilate": "(1, 1)", 
        "kernel": "(3, 3)", 
        "layout": "NCHW", 
        "no_bias": "False", 
        "num_filter": "64", 
        "num_group": "1", 
        "pad": "(1, 1)", 
        "stride": "(1, 1)"
      }, 
      "inputs": [[100, 0, 0], [101, 0, 0], [102, 0, 0]]
    }, 
    {
      "op": "_mul_scalar", 
      "name": "_mulscalar4", 
      "attrs": {"scalar": "0.2"}, 
      "inputs": [[103, 0, 0]]
    }, 
    {
      "op": "broadcast_add", 
      "name": "broadcast_add4", 
      "inputs": [[104, 0, 0], [80, 0, 0]]
    }, 
    {
      "op": "null", 
      "name": "learned_42", 
      "attrs": {"__shape__": "(32, 64, 3, 3)"}, 
      "inputs": []
    }, 
    {
      "op": "null", 
      "name": "learned_43", 
      "attrs": {"__shape__": "(32,)"}, 
      "inputs": []
    }, 
    {
      "op": "Convolution", 
      "name": "convolution21", 
      "attrs": {
        "dilate": "(1, 1)", 
        "kernel": "(3, 3)", 
        "layout": "NCHW", 
        "no_bias": "False", 
        "num_filter": "32", 
        "num_group": "1", 
        "pad": "(1, 1)", 
        "stride": "(1, 1)"
      }, 
      "inputs": [[105, 0, 0], [106, 0, 0], [107, 0, 0]]
    }, 
    {
      "op": "LeakyReLU", 
      "name": "leakyrelu16", 
      "attrs": {"slope": "0.20000000298023224"}, 
      "inputs": [[108, 0, 0]]
    }, 
    {
      "op": "Concat", 
      "name": "concat16", 
      "attrs": {
        "dim": "1", 
        "num_args": "2"
      }, 
      "inputs": [[105, 0, 0], [109, 0, 0]]
    }, 
    {
      "op": "null", 
      "name": "learned_44", 
      "attrs": {"__shape__": "(32, 96, 3, 3)"}, 
      "inputs": []
    }, 
    {
      "op": "null", 
      "name": "learned_45", 
      "attrs": {"__shape__": "(32,)"}, 
      "inputs": []
    }, 
    {
      "op": "Convolution", 
      "name": "convolution22", 
      "attrs": {
        "dilate": "(1, 1)", 
        "kernel": "(3, 3)", 
        "layout": "NCHW", 
        "no_bias": "False", 
        "num_filter": "32", 
        "num_group": "1", 
        "pad": "(1, 1)", 
        "stride": "(1, 1)"
      }, 
      "inputs": [[110, 0, 0], [111, 0, 0], [112, 0, 0]]
    }, 
    {
      "op": "LeakyReLU", 
      "name": "leakyrelu17", 
      "attrs": {"slope": "0.20000000298023224"}, 
      "inputs": [[113, 0, 0]]
    }, 
    {
      "op": "Concat", 
      "name": "concat17", 
      "attrs": {
        "dim": "1", 
        "num_args": "3"
      }, 
      "inputs": [[105, 0, 0], [109, 0, 0], [114, 0, 0]]
    }, 
    {
      "op": "null", 
      "name": "learned_46", 
      "attrs": {"__shape__": "(32, 128, 3, 3)"}, 
      "inputs": []
    }, 
    {
      "op": "null", 
      "name": "learned_47", 
      "attrs": {"__shape__": "(32,)"}, 
      "inputs": []
    }, 
    {
      "op": "Convolution", 
      "name": "convolution23", 
      "attrs": {
        "dilate": "(1, 1)", 
        "kernel": "(3, 3)", 
        "layout": "NCHW", 
        "no_bias": "False", 
        "num_filter": "32", 
        "num_group": "1", 
        "pad": "(1, 1)", 
        "stride": "(1, 1)"
      }, 
      "inputs": [[115, 0, 0], [116, 0, 0], [117, 0, 0]]
    }, 
    {
      "op": "LeakyReLU", 
      "name": "leakyrelu18", 
      "attrs": {"slope": "0.20000000298023224"}, 
      "inputs": [[118, 0, 0]]
    }, 
    {
      "op": "Concat", 
      "name": "concat18", 
      "attrs": {
        "dim": "1", 
        "num_args": "4"
      }, 
      "inputs": [[105, 0, 0], [109, 0, 0], [114, 0, 0], [119, 0, 0]]
    }, 
    {
      "op": "null", 
      "name": "learned_48", 
      "attrs": {"__shape__": "(32, 160, 3, 3)"}, 
      "inputs": []
    }, 
    {
      "op": "null", 
      "name": "learned_49", 
      "attrs": {"__shape__": "(32,)"}, 
      "inputs": []
    }, 
    {
      "op": "Convolution", 
      "name": "convolution24", 
      "attrs": {
        "dilate": "(1, 1)", 
        "kernel": "(3, 3)", 
        "layout": "NCHW", 
        "no_bias": "False", 
        "num_filter": "32", 
        "num_group": "1", 
        "pad": "(1, 1)", 
        "stride": "(1, 1)"
      }, 
      "inputs": [[120, 0, 0], [121, 0, 0], [122, 0, 0]]
    }, 
    {
      "op": "LeakyReLU", 
      "name": "leakyrelu19", 
      "attrs": {"slope": "0.20000000298023224"}, 
      "inputs": [[123, 0, 0]]
    }, 
    {
      "op": "Concat", 
      "name": "concat19", 
      "attrs": {
        "dim": "1", 
        "num_args": "5"
      }, 
      "inputs": [[105, 0, 0], [109, 0, 0], [114, 0, 0], [119, 0, 0], [124, 0, 0]]
    }, 
    {
      "op": "null", 
      "name": "learned_50", 
      "attrs": {"__shape__": "(64, 192, 3, 3)"}, 
      "inputs": []
    }, 
    {
      "op": "null", 
      "name": "learned_51", 
      "attrs": {"__shape__": "(64,)"}, 
      "inputs": []
    }, 
    {
      "op": "Convolution", 
      "name": "convolution25", 
      "attrs": {
        "dilate": "(1, 1)", 
        "kernel": "(3, 3)", 
        "layout": "NCHW", 
        "no_bias": "False", 
        "num_filter": "64", 
        "num_group": "1", 
        "pad": "(1, 1)", 
        "stride": "(1, 1)"
      }, 
      "inputs": [[125, 0, 0], [126, 0, 0], [127, 0, 0]]
    }, 
    {
      "op": "_mul_scalar", 
      "name": "_mulscalar5", 
      "attrs": {"scalar": "0.2"}, 
      "inputs": [[128, 0, 0]]
    }, 
    {
      "op": "broadcast_add", 
      "name": "broadcast_add5", 
      "inputs": [[129, 0, 0], [105, 0, 0]]
    }, 
    {
      "op": "null", 
      "name": "learned_52", 
      "attrs": {"__shape__": "(32, 64, 3, 3)"}, 
      "inputs": []
    }, 
    {
      "op": "null", 
      "name": "learned_53", 
      "attrs": {"__shape__": "(32,)"}, 
      "inputs": []
    }, 
    {
      "op": "Convolution", 
      "name": "convolution26", 
      "attrs": {
        "dilate": "(1, 1)", 
        "kernel": "(3, 3)", 
        "layout": "NCHW", 
        "no_bias": "False", 
        "num_filter": "32", 
        "num_group": "1", 
        "pad": "(1, 1)", 
        "stride": "(1, 1)"
      }, 
      "inputs": [[130, 0, 0], [131, 0, 0], [132, 0, 0]]
    }, 
    {
      "op": "LeakyReLU", 
      "name": "leakyrelu20", 
      "attrs": {"slope": "0.20000000298023224"}, 
      "inputs": [[133, 0, 0]]
    }, 
    {
      "op": "Concat", 
      "name": "concat20", 
      "attrs": {
        "dim": "1", 
        "num_args": "2"
      }, 
      "inputs": [[130, 0, 0], [134, 0, 0]]
    }, 
    {
      "op": "null", 
      "name": "learned_54", 
      "attrs": {"__shape__": "(32, 96, 3, 3)"}, 
      "inputs": []
    }, 
    {
      "op": "null", 
      "name": "learned_55", 
      "attrs": {"__shape__": "(32,)"}, 
      "inputs": []
    }, 
    {
      "op": "Convolution", 
      "name": "convolution27", 
      "attrs": {
        "dilate": "(1, 1)", 
        "kernel": "(3, 3)", 
        "layout": "NCHW", 
        "no_bias": "False", 
        "num_filter": "32", 
        "num_group": "1", 
        "pad": "(1, 1)", 
        "stride": "(1, 1)"
      }, 
      "inputs": [[135, 0, 0], [136, 0, 0], [137, 0, 0]]
    }, 
    {
      "op": "LeakyReLU", 
      "name": "leakyrelu21", 
      "attrs": {"slope": "0.20000000298023224"}, 
      "inputs": [[138, 0, 0]]
    }, 
    {
      "op": "Concat", 
      "name": "concat21", 
      "attrs": {
        "dim": "1", 
        "num_args": "3"
      }, 
      "inputs": [[130, 0, 0], [134, 0, 0], [139, 0, 0]]
    }, 
    {
      "op": "null", 
      "name": "learned_56", 
      "attrs": {"__shape__": "(32, 128, 3, 3)"}, 
      "inputs": []
    }, 
    {
      "op": "null", 
      "name": "learned_57", 
      "attrs": {"__shape__": "(32,)"}, 
      "inputs": []
    }, 
    {
      "op": "Convolution", 
      "name": "convolution28", 
      "attrs": {
        "dilate": "(1, 1)", 
        "kernel": "(3, 3)", 
        "layout": "NCHW", 
        "no_bias": "False", 
        "num_filter": "32", 
        "num_group": "1", 
        "pad": "(1, 1)", 
        "stride": "(1, 1)"
      }, 
      "inputs": [[140, 0, 0], [141, 0, 0], [142, 0, 0]]
    }, 
    {
      "op": "LeakyReLU", 
      "name": "leakyrelu22", 
      "attrs": {"slope": "0.20000000298023224"}, 
      "inputs": [[143, 0, 0]]
    }, 
    {
      "op": "Concat", 
      "name": "concat22", 
      "attrs": {
        "dim": "1", 
        "num_args": "4"
      }, 
      "inputs": [[130, 0, 0], [134, 0, 0], [139, 0, 0], [144, 0, 0]]
    }, 
    {
      "op": "null", 
      "name": "learned_58", 
      "attrs": {"__shape__": "(32, 160, 3, 3)"}, 
      "inputs": []
    }, 
    {
      "op": "null", 
      "name": "learned_59", 
      "attrs": {"__shape__": "(32,)"}, 
      "inputs": []
    }, 
    {
      "op": "Convolution", 
      "name": "convolution29", 
      "attrs": {
        "dilate": "(1, 1)", 
        "kernel": "(3, 3)", 
        "layout": "NCHW", 
        "no_bias": "False", 
        "num_filter": "32", 
        "num_group": "1", 
        "pad": "(1, 1)", 
        "stride": "(1, 1)"
      }, 
      "inputs": [[145, 0, 0], [146, 0, 0], [147, 0, 0]]
    }, 
    {
      "op": "LeakyReLU", 
      "name": "leakyrelu23", 
      "attrs": {"slope": "0.20000000298023224"}, 
      "inputs": [[148, 0, 0]]
    }, 
    {
      "op": "Concat", 
      "name": "concat23", 
      "attrs": {
        "dim": "1", 
        "num_args": "5"
      }, 
      "inputs": [[130, 0, 0], [134, 0, 0], [139, 0, 0], [144, 0, 0], [149, 0, 0]]
    }, 
    {
      "op": "null", 
      "name": "learned_60", 
      "attrs": {"__shape__": "(64, 192, 3, 3)"}, 
      "inputs": []
    }, 
    {
      "op": "null", 
      "name": "learned_61", 
      "attrs": {"__shape__": "(64,)"}, 
      "inputs": []
    }, 
    {
      "op": "Convolution", 
      "name": "convolution30", 
      "attrs": {
        "dilate": "(1, 1)", 
        "kernel": "(3, 3)", 
        "layout": "NCHW", 
        "no_bias": "False", 
        "num_filter": "64", 
        "num_group": "1", 
        "pad": "(1, 1)", 
        "stride": "(1, 1)"
      }, 
      "inputs": [[150, 0, 0], [151, 0, 0], [152, 0, 0]]
    }, 
    {
      "op": "_mul_scalar", 
      "name": "_mulscalar6", 
      "attrs": {"scalar": "0.2"}, 
      "inputs": [[153, 0, 0]]
    }, 
    {
      "op": "broadcast_add", 
      "name": "broadcast_add6", 
      "inputs": [[154, 0, 0], [130, 0, 0]]
    }, 
    {
      "op": "_mul_scalar", 
      "name": "_mulscalar7", 
      "attrs": {"scalar": "0.2"}, 
      "inputs": [[155, 0, 0]]
    }, 
    {
      "op": "broadcast_add", 
      "name": "broadcast_add7", 
      "inputs": [[156, 0, 0], [80, 0, 0]]
    }, 
    {
      "op": "null", 
      "name": "learned_62", 
      "attrs": {"__shape__": "(32, 64, 3, 3)"}, 
      "inputs": []
    }, 
    {
      "op": "null", 
      "name": "learned_63", 
      "attrs": {"__shape__": "(32,)"}, 
      "inputs": []
    }, 
    {
      "op": "Convolution", 
      "name": "convolution31", 
      "attrs": {
        "dilate": "(1, 1)", 
        "kernel": "(3, 3)", 
        "layout": "NCHW", 
        "no_bias": "False", 
        "num_filter": "32", 
        "num_group": "1", 
        "pad": "(1, 1)", 
        "stride": "(1, 1)"
      }, 
      "inputs": [[157, 0, 0], [158, 0, 0], [159, 0, 0]]
    }, 
    {
      "op": "LeakyReLU", 
      "name": "leakyrelu24", 
      "attrs": {"slope": "0.20000000298023224"}, 
      "inputs": [[160, 0, 0]]
    }, 
    {
      "op": "Concat", 
      "name": "concat24", 
      "attrs": {
        "dim": "1", 
        "num_args": "2"
      }, 
      "inputs": [[157, 0, 0], [161, 0, 0]]
    }, 
    {
      "op": "null", 
      "name": "learned_64", 
      "attrs": {"__shape__": "(32, 96, 3, 3)"}, 
      "inputs": []
    }, 
    {
      "op": "null", 
      "name": "learned_65", 
      "attrs": {"__shape__": "(32,)"}, 
      "inputs": []
    }, 
    {
      "op": "Convolution", 
      "name": "convolution32", 
      "attrs": {
        "dilate": "(1, 1)", 
        "kernel": "(3, 3)", 
        "layout": "NCHW", 
        "no_bias": "False", 
        "num_filter": "32", 
        "num_group": "1", 
        "pad": "(1, 1)", 
        "stride": "(1, 1)"
      }, 
      "inputs": [[162, 0, 0], [163, 0, 0], [164, 0, 0]]
    }, 
    {
      "op": "LeakyReLU", 
      "name": "leakyrelu25", 
      "attrs": {"slope": "0.20000000298023224"}, 
      "inputs": [[165, 0, 0]]
    }, 
    {
      "op": "Concat", 
      "name": "concat25", 
      "attrs": {
        "dim": "1", 
        "num_args": "3"
      }, 
      "inputs": [[157, 0, 0], [161, 0, 0], [166, 0, 0]]
    }, 
    {
      "op": "null", 
      "name": "learned_66", 
      "attrs": {"__shape__": "(32, 128, 3, 3)"}, 
      "inputs": []
    }, 
    {
      "op": "null", 
      "name": "learned_67", 
      "attrs": {"__shape__": "(32,)"}, 
      "inputs": []
    }, 
    {
      "op": "Convolution", 
      "name": "convolution33", 
      "attrs": {
        "dilate": "(1, 1)", 
        "kernel": "(3, 3)", 
        "layout": "NCHW", 
        "no_bias": "False", 
        "num_filter": "32", 
        "num_group": "1", 
        "pad": "(1, 1)", 
        "stride": "(1, 1)"
      }, 
      "inputs": [[167, 0, 0], [168, 0, 0], [169, 0, 0]]
    }, 
    {
      "op": "LeakyReLU", 
      "name": "leakyrelu26", 
      "attrs": {"slope": "0.20000000298023224"}, 
      "inputs": [[170, 0, 0]]
    }, 
    {
      "op": "Concat", 
      "name": "concat26", 
      "attrs": {
        "dim": "1", 
        "num_args": "4"
      }, 
      "inputs": [[157, 0, 0], [161, 0, 0], [166, 0, 0], [171, 0, 0]]
    }, 
    {
      "op": "null", 
      "name": "learned_68", 
      "attrs": {"__shape__": "(32, 160, 3, 3)"}, 
      "inputs": []
    }, 
    {
      "op": "null", 
      "name": "learned_69", 
      "attrs": {"__shape__": "(32,)"}, 
      "inputs": []
    }, 
    {
      "op": "Convolution", 
      "name": "convolution34", 
      "attrs": {
        "dilate": "(1, 1)", 
        "kernel": "(3, 3)", 
        "layout": "NCHW", 
        "no_bias": "False", 
        "num_filter": "32", 
        "num_group": "1", 
        "pad": "(1, 1)", 
        "stride": "(1, 1)"
      }, 
      "inputs": [[172, 0, 0], [173, 0, 0], [174, 0, 0]]
    }, 
    {
      "op": "LeakyReLU", 
      "name": "leakyrelu27", 
      "attrs": {"slope": "0.20000000298023224"}, 
      "inputs": [[175, 0, 0]]
    }, 
    {
      "op": "Concat", 
      "name": "concat27", 
      "attrs": {
        "dim": "1", 
        "num_args": "5"
      }, 
      "inputs": [[157, 0, 0], [161, 0, 0], [166, 0, 0], [171, 0, 0], [176, 0, 0]]
    }, 
    {
      "op": "null", 
      "name": "learned_70", 
      "attrs": {"__shape__": "(64, 192, 3, 3)"}, 
      "inputs": []
    }, 
    {
      "op": "null", 
      "name": "learned_71", 
      "attrs": {"__shape__": "(64,)"}, 
      "inputs": []
    }, 
    {
      "op": "Convolution", 
      "name": "convolution35", 
      "attrs": {
        "dilate": "(1, 1)", 
        "kernel": "(3, 3)", 
        "layout": "NCHW", 
        "no_bias": "False", 
        "num_filter": "64", 
        "num_group": "1", 
        "pad": "(1, 1)", 
        "stride": "(1, 1)"
      }, 
      "inputs": [[177, 0, 0], [178, 0, 0], [179, 0, 0]]
    }, 
    {
      "op": "_mul_scalar", 
      "name": "_mulscalar8", 
      "attrs": {"scalar": "0.2"}, 
      "inputs": [[180, 0, 0]]
    }, 
    {
      "op": "broadcast_add", 
      "name": "broadcast_add8", 
      "inputs": [[181, 0, 0], [157, 0, 0]]
    }, 
    {
      "op": "null", 
      "name": "learned_72", 
      "attrs": {"__shape__": "(32, 64, 3, 3)"}, 
      "inputs": []
    }, 
    {
      "op": "null", 
      "name": "learned_73", 
      "attrs": {"__shape__": "(32,)"}, 
      "inputs": []
    }, 
    {
      "op": "Convolution", 
      "name": "convolution36", 
      "attrs": {
        "dilate": "(1, 1)", 
        "kernel": "(3, 3)", 
        "layout": "NCHW", 
        "no_bias": "False", 
        "num_filter": "32", 
        "num_group": "1", 
        "pad": "(1, 1)", 
        "stride": "(1, 1)"
      }, 
      "inputs": [[182, 0, 0], [183, 0, 0], [184, 0, 0]]
    }, 
    {
      "op": "LeakyReLU", 
      "name": "leakyrelu28", 
      "attrs": {"slope": "0.20000000298023224"}, 
      "inputs": [[185, 0, 0]]
    }, 
    {
      "op": "Concat", 
      "name": "concat28", 
      "attrs": {
        "dim": "1", 
        "num_args": "2"
      }, 
      "inputs": [[182, 0, 0], [186, 0, 0]]
    }, 
    {
      "op": "null", 
      "name": "learned_74", 
      "attrs": {"__shape__": "(32, 96, 3, 3)"}, 
      "inputs": []
    }, 
    {
      "op": "null", 
      "name": "learned_75", 
      "attrs": {"__shape__": "(32,)"}, 
      "inputs": []
    }, 
    {
      "op": "Convolution", 
      "name": "convolution37", 
      "attrs": {
        "dilate": "(1, 1)", 
        "kernel": "(3, 3)", 
        "layout": "NCHW", 
        "no_bias": "False", 
        "num_filter": "32", 
        "num_group": "1", 
        "pad": "(1, 1)", 
        "stride": "(1, 1)"
      }, 
      "inputs": [[187, 0, 0], [188, 0, 0], [189, 0, 0]]
    }, 
    {
      "op": "LeakyReLU", 
      "name": "leakyrelu29", 
      "attrs": {"slope": "0.20000000298023224"}, 
      "inputs": [[190, 0, 0]]
    }, 
    {
      "op": "Concat", 
      "name": "concat29", 
      "attrs": {
        "dim": "1", 
        "num_args": "3"
      }, 
      "inputs": [[182, 0, 0], [186, 0, 0], [191, 0, 0]]
    }, 
    {
      "op": "null", 
      "name": "learned_76", 
      "attrs": {"__shape__": "(32, 128, 3, 3)"}, 
      "inputs": []
    }, 
    {
      "op": "null", 
      "name": "learned_77", 
      "attrs": {"__shape__": "(32,)"}, 
      "inputs": []
    }, 
    {
      "op": "Convolution", 
      "name": "convolution38", 
      "attrs": {
        "dilate": "(1, 1)", 
        "kernel": "(3, 3)", 
        "layout": "NCHW", 
        "no_bias": "False", 
        "num_filter": "32", 
        "num_group": "1", 
        "pad": "(1, 1)", 
        "stride": "(1, 1)"
      }, 
      "inputs": [[192, 0, 0], [193, 0, 0], [194, 0, 0]]
    }, 
    {
      "op": "LeakyReLU", 
      "name": "leakyrelu30", 
      "attrs": {"slope": "0.20000000298023224"}, 
      "inputs": [[195, 0, 0]]
    }, 
    {
      "op": "Concat", 
      "name": "concat30", 
      "attrs": {
        "dim": "1", 
        "num_args": "4"
      }, 
      "inputs": [[182, 0, 0], [186, 0, 0], [191, 0, 0], [196, 0, 0]]
    }, 
    {
      "op": "null", 
      "name": "learned_78", 
      "attrs": {"__shape__": "(32, 160, 3, 3)"}, 
      "inputs": []
    }, 
    {
      "op": "null", 
      "name": "learned_79", 
      "attrs": {"__shape__": "(32,)"}, 
      "inputs": []
    }, 
    {
      "op": "Convolution", 
      "name": "convolution39", 
      "attrs": {
        "dilate": "(1, 1)", 
        "kernel": "(3, 3)", 
        "layout": "NCHW", 
        "no_bias": "False", 
        "num_filter": "32", 
        "num_group": "1", 
        "pad": "(1, 1)", 
        "stride": "(1, 1)"
      }, 
      "inputs": [[197, 0, 0], [198, 0, 0], [199, 0, 0]]
    }, 
    {
      "op": "LeakyReLU", 
      "name": "leakyrelu31", 
      "attrs": {"slope": "0.20000000298023224"}, 
      "inputs": [[200, 0, 0]]
    }, 
    {
      "op": "Concat", 
      "name": "concat31", 
      "attrs": {
        "dim": "1", 
        "num_args": "5"
      }, 
      "inputs": [[182, 0, 0], [186, 0, 0], [191, 0, 0], [196, 0, 0], [201, 0, 0]]
    }, 
    {
      "op": "null", 
      "name": "learned_80", 
      "attrs": {"__shape__": "(64, 192, 3, 3)"}, 
      "inputs": []
    }, 
    {
      "op": "null", 
      "name": "learned_81", 
      "attrs": {"__shape__": "(64,)"}, 
      "inputs": []
    }, 
    {
      "op": "Convolution", 
      "name": "convolution40", 
      "attrs": {
        "dilate": "(1, 1)", 
        "kernel": "(3, 3)", 
        "layout": "NCHW", 
        "no_bias": "False", 
        "num_filter": "64", 
        "num_group": "1", 
        "pad": "(1, 1)", 
        "stride": "(1, 1)"
      }, 
      "inputs": [[202, 0, 0], [203, 0, 0], [204, 0, 0]]
    }, 
    {
      "op": "_mul_scalar", 
      "name": "_mulscalar9", 
      "attrs": {"scalar": "0.2"}, 
      "inputs": [[205, 0, 0]]
    }, 
    {
      "op": "broadcast_add", 
      "name": "broadcast_add9", 
      "inputs": [[206, 0, 0], [182, 0, 0]]
    }, 
    {
      "op": "null", 
      "name": "learned_82", 
      "attrs": {"__shape__": "(32, 64, 3, 3)"}, 
      "inputs": []
    }, 
    {
      "op": "null", 
      "name": "learned_83", 
      "attrs": {"__shape__": "(32,)"}, 
      "inputs": []
    }, 
    {
      "op": "Convolution", 
      "name": "convolution41", 
      "attrs": {
        "dilate": "(1, 1)", 
        "kernel": "(3, 3)", 
        "layout": "NCHW", 
        "no_bias": "False", 
        "num_filter": "32", 
        "num_group": "1", 
        "pad": "(1, 1)", 
        "stride": "(1, 1)"
      }, 
      "inputs": [[207, 0, 0], [208, 0, 0], [209, 0, 0]]
    }, 
    {
      "op": "LeakyReLU", 
      "name": "leakyrelu32", 
      "attrs": {"slope": "0.20000000298023224"}, 
      "inputs": [[210, 0, 0]]
    }, 
    {
      "op": "Concat", 
      "name": "concat32", 
      "attrs": {
        "dim": "1", 
        "num_args": "2"
      }, 
      "inputs": [[207, 0, 0], [211, 0, 0]]
    }, 
    {
      "op": "null", 
      "name": "learned_84", 
      "attrs": {"__shape__": "(32, 96, 3, 3)"}, 
      "inputs": []
    }, 
    {
      "op": "null", 
      "name": "learned_85", 
      "attrs": {"__shape__": "(32,)"}, 
      "inputs": []
    }, 
    {
      "op": "Convolution", 
      "name": "convolution42", 
      "attrs": {
        "dilate": "(1, 1)", 
        "kernel": "(3, 3)", 
        "layout": "NCHW", 
        "no_bias": "False", 
        "num_filter": "32", 
        "num_group": "1", 
        "pad": "(1, 1)", 
        "stride": "(1, 1)"
      }, 
      "inputs": [[212, 0, 0], [213, 0, 0], [214, 0, 0]]
    }, 
    {
      "op": "LeakyReLU", 
      "name": "leakyrelu33", 
      "attrs": {"slope": "0.20000000298023224"}, 
      "inputs": [[215, 0, 0]]
    }, 
    {
      "op": "Concat", 
      "name": "concat33", 
      "attrs": {
        "dim": "1", 
        "num_args": "3"
      }, 
      "inputs": [[207, 0, 0], [211, 0, 0], [216, 0, 0]]
    }, 
    {
      "op": "null", 
      "name": "learned_86", 
      "attrs": {"__shape__": "(32, 128, 3, 3)"}, 
      "inputs": []
    }, 
    {
      "op": "null", 
      "name": "learned_87", 
      "attrs": {"__shape__": "(32,)"}, 
      "inputs": []
    }, 
    {
      "op": "Convolution", 
      "name": "convolution43", 
      "attrs": {
        "dilate": "(1, 1)", 
        "kernel": "(3, 3)", 
        "layout": "NCHW", 
        "no_bias": "False", 
        "num_filter": "32", 
        "num_group": "1", 
        "pad": "(1, 1)", 
        "stride": "(1, 1)"
      }, 
      "inputs": [[217, 0, 0], [218, 0, 0], [219, 0, 0]]
    }, 
    {
      "op": "LeakyReLU", 
      "name": "leakyrelu34", 
      "attrs": {"slope": "0.20000000298023224"}, 
      "inputs": [[220, 0, 0]]
    }, 
    {
      "op": "Concat", 
      "name": "concat34", 
      "attrs": {
        "dim": "1", 
        "num_args": "4"
      }, 
      "inputs": [[207, 0, 0], [211, 0, 0], [216, 0, 0], [221, 0, 0]]
    }, 
    {
      "op": "null", 
      "name": "learned_88", 
      "attrs": {"__shape__": "(32, 160, 3, 3)"}, 
      "inputs": []
    }, 
    {
      "op": "null", 
      "name": "learned_89", 
      "attrs": {"__shape__": "(32,)"}, 
      "inputs": []
    }, 
    {
      "op": "Convolution", 
      "name": "convolution44", 
      "attrs": {
        "dilate": "(1, 1)", 
        "kernel": "(3, 3)", 
        "layout": "NCHW", 
        "no_bias": "False", 
        "num_filter": "32", 
        "num_group": "1", 
        "pad": "(1, 1)", 
        "stride": "(1, 1)"
      }, 
      "inputs": [[222, 0, 0], [223, 0, 0], [224, 0, 0]]
    }, 
    {
      "op": "LeakyReLU", 
      "name": "leakyrelu35", 
      "attrs": {"slope": "0.20000000298023224"}, 
      "inputs": [[225, 0, 0]]
    }, 
    {
      "op": "Concat", 
      "name": "concat35", 
      "attrs": {
        "dim": "1", 
        "num_args": "5"
      }, 
      "inputs": [[207, 0, 0], [211, 0, 0], [216, 0, 0], [221, 0, 0], [226, 0, 0]]
    }, 
    {
      "op": "null", 
      "name": "learned_90", 
      "attrs": {"__shape__": "(64, 192, 3, 3)"}, 
      "inputs": []
    }, 
    {
      "op": "null", 
      "name": "learned_91", 
      "attrs": {"__shape__": "(64,)"}, 
      "inputs": []
    }, 
    {
      "op": "Convolution", 
      "name": "convolution45", 
      "attrs": {
        "dilate": "(1, 1)", 
        "kernel": "(3, 3)", 
        "layout": "NCHW", 
        "no_bias": "False", 
        "num_filter": "64", 
        "num_group": "1", 
        "pad": "(1, 1)", 
        "stride": "(1, 1)"
      }, 
      "inputs": [[227, 0, 0], [228, 0, 0], [229, 0, 0]]
    }, 
    {
      "op": "_mul_scalar", 
      "name": "_mulscalar10", 
      "attrs": {"scalar": "0.2"}, 
      "inputs": [[230, 0, 0]]
    }, 
    {
      "op": "broadcast_add", 
      "name": "broadcast_add10", 
      "inputs": [[231, 0, 0], [207, 0, 0]]
    }, 
    {
      "op": "_mul_scalar", 
      "name": "_mulscalar11", 
      "attrs": {"scalar": "0.2"}, 
      "inputs": [[232, 0, 0]]
    }, 
    {
      "op": "broadcast_add", 
      "name": "broadcast_add11", 
      "inputs": [[233, 0, 0], [157, 0, 0]]
    }, 
    {
      "op": "null", 
      "name": "learned_92", 
      "attrs": {"__shape__": "(32, 64, 3, 3)"}, 
      "inputs": []
    }, 
    {
      "op": "null", 
      "name": "learned_93", 
      "attrs": {"__shape__": "(32,)"}, 
      "inputs": []
    }, 
    {
      "op": "Convolution", 
      "name": "convolution46", 
      "attrs": {
        "dilate": "(1, 1)", 
        "kernel": "(3, 3)", 
        "layout": "NCHW", 
        "no_bias": "False", 
        "num_filter": "32", 
        "num_group": "1", 
        "pad": "(1, 1)", 
        "stride": "(1, 1)"
      }, 
      "inputs": [[234, 0, 0], [235, 0, 0], [236, 0, 0]]
    }, 
    {
      "op": "LeakyReLU", 
      "name": "leakyrelu36", 
      "attrs": {"slope": "0.20000000298023224"}, 
      "inputs": [[237, 0, 0]]
    }, 
    {
      "op": "Concat", 
      "name": "concat36", 
      "attrs": {
        "dim": "1", 
        "num_args": "2"
      }, 
      "inputs": [[234, 0, 0], [238, 0, 0]]
    }, 
    {
      "op": "null", 
      "name": "learned_94", 
      "attrs": {"__shape__": "(32, 96, 3, 3)"}, 
      "inputs": []
    }, 
    {
      "op": "null", 
      "name": "learned_95", 
      "attrs": {"__shape__": "(32,)"}, 
      "inputs": []
    }, 
    {
      "op": "Convolution", 
      "name": "convolution47", 
      "attrs": {
        "dilate": "(1, 1)", 
        "kernel": "(3, 3)", 
        "layout": "NCHW", 
        "no_bias": "False", 
        "num_filter": "32", 
        "num_group": "1", 
        "pad": "(1, 1)", 
        "stride": "(1, 1)"
      }, 
      "inputs": [[239, 0, 0], [240, 0, 0], [241, 0, 0]]
    }, 
    {
      "op": "LeakyReLU", 
      "name": "leakyrelu37", 
      "attrs": {"slope": "0.20000000298023224"}, 
      "inputs": [[242, 0, 0]]
    }, 
    {
      "op": "Concat", 
      "name": "concat37", 
      "attrs": {
        "dim": "1", 
        "num_args": "3"
      }, 
      "inputs": [[234, 0, 0], [238, 0, 0], [243, 0, 0]]
    }, 
    {
      "op": "null", 
      "name": "learned_96", 
      "attrs": {"__shape__": "(32, 128, 3, 3)"}, 
      "inputs": []
    }, 
    {
      "op": "null", 
      "name": "learned_97", 
      "attrs": {"__shape__": "(32,)"}, 
      "inputs": []
    }, 
    {
      "op": "Convolution", 
      "name": "convolution48", 
      "attrs": {
        "dilate": "(1, 1)", 
        "kernel": "(3, 3)", 
        "layout": "NCHW", 
        "no_bias": "False", 
        "num_filter": "32", 
        "num_group": "1", 
        "pad": "(1, 1)", 
        "stride": "(1, 1)"
      }, 
      "inputs": [[244, 0, 0], [245, 0, 0], [246, 0, 0]]
    }, 
    {
      "op": "LeakyReLU", 
      "name": "leakyrelu38", 
      "attrs": {"slope": "0.20000000298023224"}, 
      "inputs": [[247, 0, 0]]
    }, 
    {
      "op": "Concat", 
      "name": "concat38", 
      "attrs": {
        "dim": "1", 
        "num_args": "4"
      }, 
      "inputs": [[234, 0, 0], [238, 0, 0], [243, 0, 0], [248, 0, 0]]
    }, 
    {
      "op": "null", 
      "name": "learned_98", 
      "attrs": {"__shape__": "(32, 160, 3, 3)"}, 
      "inputs": []
    }, 
    {
      "op": "null", 
      "name": "learned_99", 
      "attrs": {"__shape__": "(32,)"}, 
      "inputs": []
    }, 
    {
      "op": "Convolution", 
      "name": "convolution49", 
      "attrs": {
        "dilate": "(1, 1)", 
        "kernel": "(3, 3)", 
        "layout": "NCHW", 
        "no_bias": "False", 
        "num_filter": "32", 
        "num_group": "1", 
        "pad": "(1, 1)", 
        "stride": "(1, 1)"
      }, 
      "inputs": [[249, 0, 0], [250, 0, 0], [251, 0, 0]]
    }, 
    {
      "op": "LeakyReLU", 
      "name": "leakyrelu39", 
      "attrs": {"slope": "0.20000000298023224"}, 
      "inputs": [[252, 0, 0]]
    }, 
    {
      "op": "Concat", 
      "name": "concat39", 
      "attrs": {
        "dim": "1", 
        "num_args": "5"
      }, 
      "inputs": [[234, 0, 0], [238, 0, 0], [243, 0, 0], [248, 0, 0], [253, 0, 0]]
    }, 
    {
      "op": "null", 
      "name": "learned_100", 
      "attrs": {"__shape__": "(64, 192, 3, 3)"}, 
      "inputs": []
    }, 
    {
      "op": "null", 
      "name": "learned_101", 
      "attrs": {"__shape__": "(64,)"}, 
      "inputs": []
    }, 
    {
      "op": "Convolution", 
      "name": "convolution50", 
      "attrs": {
        "dilate": "(1, 1)", 
        "kernel": "(3, 3)", 
        "layout": "NCHW", 
        "no_bias": "False", 
        "num_filter": "64", 
        "num_group": "1", 
        "pad": "(1, 1)", 
        "stride": "(1, 1)"
      }, 
      "inputs": [[254, 0, 0], [255, 0, 0], [256, 0, 0]]
    }, 
    {
      "op": "_mul_scalar", 
      "name": "_mulscalar12", 
      "attrs": {"scalar": "0.2"}, 
      "inputs": [[257, 0, 0]]
    }, 
    {
      "op": "broadcast_add", 
      "name": "broadcast_add12", 
      "inputs": [[258, 0, 0], [234, 0, 0]]
    }, 
    {
      "op": "null", 
      "name": "learned_102", 
      "attrs": {"__shape__": "(32, 64, 3, 3)"}, 
      "inputs": []
    }, 
    {
      "op": "null", 
      "name": "learned_103", 
      "attrs": {"__shape__": "(32,)"}, 
      "inputs": []
    }, 
    {
      "op": "Convolution", 
      "name": "convolution51", 
      "attrs": {
        "dilate": "(1, 1)", 
        "kernel": "(3, 3)", 
        "layout": "NCHW", 
        "no_bias": "False", 
        "num_filter": "32", 
        "num_group": "1", 
        "pad": "(1, 1)", 
        "stride": "(1, 1)"
      }, 
      "inputs": [[259, 0, 0], [260, 0, 0], [261, 0, 0]]
    }, 
    {
      "op": "LeakyReLU", 
      "name": "leakyrelu40", 
      "attrs": {"slope": "0.20000000298023224"}, 
      "inputs": [[262, 0, 0]]
    }, 
    {
      "op": "Concat", 
      "name": "concat40", 
      "attrs": {
        "dim": "1", 
        "num_args": "2"
      }, 
      "inputs": [[259, 0, 0], [263, 0, 0]]
    }, 
    {
      "op": "null", 
      "name": "learned_104", 
      "attrs": {"__shape__": "(32, 96, 3, 3)"}, 
      "inputs": []
    }, 
    {
      "op": "null", 
      "name": "learned_105", 
      "attrs": {"__shape__": "(32,)"}, 
      "inputs": []
    }, 
    {
      "op": "Convolution", 
      "name": "convolution52", 
      "attrs": {
        "dilate": "(1, 1)", 
        "kernel": "(3, 3)", 
        "layout": "NCHW", 
        "no_bias": "False", 
        "num_filter": "32", 
        "num_group": "1", 
        "pad": "(1, 1)", 
        "stride": "(1, 1)"
      }, 
      "inputs": [[264, 0, 0], [265, 0, 0], [266, 0, 0]]
    }, 
    {
      "op": "LeakyReLU", 
      "name": "leakyrelu41", 
      "attrs": {"slope": "0.20000000298023224"}, 
      "inputs": [[267, 0, 0]]
    }, 
    {
      "op": "Concat", 
      "name": "concat41", 
      "attrs": {
        "dim": "1", 
        "num_args": "3"
      }, 
      "inputs": [[259, 0, 0], [263, 0, 0], [268, 0, 0]]
    }, 
    {
      "op": "null", 
      "name": "learned_106", 
      "attrs": {"__shape__": "(32, 128, 3, 3)"}, 
      "inputs": []
    }, 
    {
      "op": "null", 
      "name": "learned_107", 
      "attrs": {"__shape__": "(32,)"}, 
      "inputs": []
    }, 
    {
      "op": "Convolution", 
      "name": "convolution53", 
      "attrs": {
        "dilate": "(1, 1)", 
        "kernel": "(3, 3)", 
        "layout": "NCHW", 
        "no_bias": "False", 
        "num_filter": "32", 
        "num_group": "1", 
        "pad": "(1, 1)", 
        "stride": "(1, 1)"
      }, 
      "inputs": [[269, 0, 0], [270, 0, 0], [271, 0, 0]]
    }, 
    {
      "op": "LeakyReLU", 
      "name": "leakyrelu42", 
      "attrs": {"slope": "0.20000000298023224"}, 
      "inputs": [[272, 0, 0]]
    }, 
    {
      "op": "Concat", 
      "name": "concat42", 
      "attrs": {
        "dim": "1", 
        "num_args": "4"
      }, 
      "inputs": [[259, 0, 0], [263, 0, 0], [268, 0, 0], [273, 0, 0]]
    }, 
    {
      "op": "null", 
      "name": "learned_108", 
      "attrs": {"__shape__": "(32, 160, 3, 3)"}, 
      "inputs": []
    }, 
    {
      "op": "null", 
      "name": "learned_109", 
      "attrs": {"__shape__": "(32,)"}, 
      "inputs": []
    }, 
    {
      "op": "Convolution", 
      "name": "convolution54", 
      "attrs": {
        "dilate": "(1, 1)", 
        "kernel": "(3, 3)", 
        "layout": "NCHW", 
        "no_bias": "False", 
        "num_filter": "32", 
        "num_group": "1", 
        "pad": "(1, 1)", 
        "stride": "(1, 1)"
      }, 
      "inputs": [[274, 0, 0], [275, 0, 0], [276, 0, 0]]
    }, 
    {
      "op": "LeakyReLU", 
      "name": "leakyrelu43", 
      "attrs": {"slope": "0.20000000298023224"}, 
      "inputs": [[277, 0, 0]]
    }, 
    {
      "op": "Concat", 
      "name": "concat43", 
      "attrs": {
        "dim": "1", 
        "num_args": "5"
      }, 
      "inputs": [[259, 0, 0], [263, 0, 0], [268, 0, 0], [273, 0, 0], [278, 0, 0]]
    }, 
    {
      "op": "null", 
      "name": "learned_110", 
      "attrs": {"__shape__": "(64, 192, 3, 3)"}, 
      "inputs": []
    }, 
    {
      "op": "null", 
      "name": "learned_111", 
      "attrs": {"__shape__": "(64,)"}, 
      "inputs": []
    }, 
    {
      "op": "Convolution", 
      "name": "convolution55", 
      "attrs": {
        "dilate": "(1, 1)", 
        "kernel": "(3, 3)", 
        "layout": "NCHW", 
        "no_bias": "False", 
        "num_filter": "64", 
        "num_group": "1", 
        "pad": "(1, 1)", 
        "stride": "(1, 1)"
      }, 
      "inputs": [[279, 0, 0], [280, 0, 0], [281, 0, 0]]
    }, 
    {
      "op": "_mul_scalar", 
      "name": "_mulscalar13", 
      "attrs": {"scalar": "0.2"}, 
      "inputs": [[282, 0, 0]]
    }, 
    {
      "op": "broadcast_add", 
      "name": "broadcast_add13", 
      "inputs": [[283, 0, 0], [259, 0, 0]]
    }, 
    {
      "op": "null", 
      "name": "learned_112", 
      "attrs": {"__shape__": "(32, 64, 3, 3)"}, 
      "inputs": []
    }, 
    {
      "op": "null", 
      "name": "learned_113", 
      "attrs": {"__shape__": "(32,)"}, 
      "inputs": []
    }, 
    {
      "op": "Convolution", 
      "name": "convolution56", 
      "attrs": {
        "dilate": "(1, 1)", 
        "kernel": "(3, 3)", 
        "layout": "NCHW", 
        "no_bias": "False", 
        "num_filter": "32", 
        "num_group": "1", 
        "pad": "(1, 1)", 
        "stride": "(1, 1)"
      }, 
      "inputs": [[284, 0, 0], [285, 0, 0], [286, 0, 0]]
    }, 
    {
      "op": "LeakyReLU", 
      "name": "leakyrelu44", 
      "attrs": {"slope": "0.20000000298023224"}, 
      "inputs": [[287, 0, 0]]
    }, 
    {
      "op": "Concat", 
      "name": "concat44", 
      "attrs": {
        "dim": "1", 
        "num_args": "2"
      }, 
      "inputs": [[284, 0, 0], [288, 0, 0]]
    }, 
    {
      "op": "null", 
      "name": "learned_114", 
      "attrs": {"__shape__": "(32, 96, 3, 3)"}, 
      "inputs": []
    }, 
    {
      "op": "null", 
      "name": "learned_115", 
      "attrs": {"__shape__": "(32,)"}, 
      "inputs": []
    }, 
    {
      "op": "Convolution", 
      "name": "convolution57", 
      "attrs": {
        "dilate": "(1, 1)", 
        "kernel": "(3, 3)", 
        "layout": "NCHW", 
        "no_bias": "False", 
        "num_filter": "32", 
        "num_group": "1", 
        "pad": "(1, 1)", 
        "stride": "(1, 1)"
      }, 
      "inputs": [[289, 0, 0], [290, 0, 0], [291, 0, 0]]
    }, 
    {
      "op": "LeakyReLU", 
      "name": "leakyrelu45", 
      "attrs": {"slope": "0.20000000298023224"}, 
      "inputs": [[292, 0, 0]]
    }, 
    {
      "op": "Concat", 
      "name": "concat45", 
      "attrs": {
        "dim": "1", 
        "num_args": "3"
      }, 
      "inputs": [[284, 0, 0], [288, 0, 0], [293, 0, 0]]
    }, 
    {
      "op": "null", 
      "name": "learned_116", 
      "attrs": {"__shape__": "(32, 128, 3, 3)"}, 
      "inputs": []
    }, 
    {
      "op": "null", 
      "name": "learned_117", 
      "attrs": {"__shape__": "(32,)"}, 
      "inputs": []
    }, 
    {
      "op": "Convolution", 
      "name": "convolution58", 
      "attrs": {
        "dilate": "(1, 1)", 
        "kernel": "(3, 3)", 
        "layout": "NCHW", 
        "no_bias": "False", 
        "num_filter": "32", 
        "num_group": "1", 
        "pad": "(1, 1)", 
        "stride": "(1, 1)"
      }, 
      "inputs": [[294, 0, 0], [295, 0, 0], [296, 0, 0]]
    }, 
    {
      "op": "LeakyReLU", 
      "name": "leakyrelu46", 
      "attrs": {"slope": "0.20000000298023224"}, 
      "inputs": [[297, 0, 0]]
    }, 
    {
      "op": "Concat", 
      "name": "concat46", 
      "attrs": {
        "dim": "1", 
        "num_args": "4"
      }, 
      "inputs": [[284, 0, 0], [288, 0, 0], [293, 0, 0], [298, 0, 0]]
    }, 
    {
      "op": "null", 
      "name": "learned_118", 
      "attrs": {"__shape__": "(32, 160, 3, 3)"}, 
      "inputs": []
    }, 
    {
      "op": "null", 
      "name": "learned_119", 
      "attrs": {"__shape__": "(32,)"}, 
      "inputs": []
    }, 
    {
      "op": "Convolution", 
      "name": "convolution59", 
      "attrs": {
        "dilate": "(1, 1)", 
        "kernel": "(3, 3)", 
        "layout": "NCHW", 
        "no_bias": "False", 
        "num_filter": "32", 
        "num_group": "1", 
        "pad": "(1, 1)", 
        "stride": "(1, 1)"
      }, 
      "inputs": [[299, 0, 0], [300, 0, 0], [301, 0, 0]]
    }, 
    {
      "op": "LeakyReLU", 
      "name": "leakyrelu47", 
      "attrs": {"slope": "0.20000000298023224"}, 
      "inputs": [[302, 0, 0]]
    }, 
    {
      "op": "Concat", 
      "name": "concat47", 
      "attrs": {
        "dim": "1", 
        "num_args": "5"
      }, 
      "inputs": [[284, 0, 0], [288, 0, 0], [293, 0, 0], [298, 0, 0], [303, 0, 0]]
    }, 
    {
      "op": "null", 
      "name": "learned_120", 
      "attrs": {"__shape__": "(64, 192, 3, 3)"}, 
      "inputs": []
    }, 
    {
      "op": "null", 
      "name": "learned_121", 
      "attrs": {"__shape__": "(64,)"}, 
      "inputs": []
    }, 
    {
      "op": "Convolution", 
      "name": "convolution60", 
      "attrs": {
        "dilate": "(1, 1)", 
        "kernel": "(3, 3)", 
        "layout": "NCHW", 
        "no_bias": "False", 
        "num_filter": "64", 
        "num_group": "1", 
        "pad": "(1, 1)", 
        "stride": "(1, 1)"
      }, 
      "inputs": [[304, 0, 0], [305, 0, 0], [306, 0, 0]]
    }, 
    {
      "op": "_mul_scalar", 
      "name": "_mulscalar14", 
      "attrs": {"scalar": "0.2"}, 
      "inputs": [[307, 0, 0]]
    }, 
    {
      "op": "broadcast_add", 
      "name": "broadcast_add14", 
      "inputs": [[308, 0, 0], [284, 0, 0]]
    }, 
    {
      "op": "_mul_scalar", 
      "name": "_mulscalar15", 
      "attrs": {"scalar": "0.2"}, 
      "inputs": [[309, 0, 0]]
    }, 
    {
      "op": "broadcast_add", 
      "name": "broadcast_add15", 
      "inputs": [[310, 0, 0], [234, 0, 0]]
    }, 
    {
      "op": "null", 
      "name": "learned_122", 
      "attrs": {"__shape__": "(32, 64, 3, 3)"}, 
      "inputs": []
    }, 
    {
      "op": "null", 
      "name": "learned_123", 
      "attrs": {"__shape__": "(32,)"}, 
      "inputs": []
    }, 
    {
      "op": "Convolution", 
      "name": "convolution61", 
      "attrs": {
        "dilate": "(1, 1)", 
        "kernel": "(3, 3)", 
        "layout": "NCHW", 
        "no_bias": "False", 
        "num_filter": "32", 
        "num_group": "1", 
        "pad": "(1, 1)", 
        "stride": "(1, 1)"
      }, 
      "inputs": [[311, 0, 0], [312, 0, 0], [313, 0, 0]]
    }, 
    {
      "op": "LeakyReLU", 
      "name": "leakyrelu48", 
      "attrs": {"slope": "0.20000000298023224"}, 
      "inputs": [[314, 0, 0]]
    }, 
    {
      "op": "Concat", 
      "name": "concat48", 
      "attrs": {
        "dim": "1", 
        "num_args": "2"
      }, 
      "inputs": [[311, 0, 0], [315, 0, 0]]
    }, 
    {
      "op": "null", 
      "name": "learned_124", 
      "attrs": {"__shape__": "(32, 96, 3, 3)"}, 
      "inputs": []
    }, 
    {
      "op": "null", 
      "name": "learned_125", 
      "attrs": {"__shape__": "(32,)"}, 
      "inputs": []
    }, 
    {
      "op": "Convolution", 
      "name": "convolution62", 
      "attrs": {
        "dilate": "(1, 1)", 
        "kernel": "(3, 3)", 
        "layout": "NCHW", 
        "no_bias": "False", 
        "num_filter": "32", 
        "num_group": "1", 
        "pad": "(1, 1)", 
        "stride": "(1, 1)"
      }, 
      "inputs": [[316, 0, 0], [317, 0, 0], [318, 0, 0]]
    }, 
    {
      "op": "LeakyReLU", 
      "name": "leakyrelu49", 
      "attrs": {"slope": "0.20000000298023224"}, 
      "inputs": [[319, 0, 0]]
    }, 
    {
      "op": "Concat", 
      "name": "concat49", 
      "attrs": {
        "dim": "1", 
        "num_args": "3"
      }, 
      "inputs": [[311, 0, 0], [315, 0, 0], [320, 0, 0]]
    }, 
    {
      "op": "null", 
      "name": "learned_126", 
      "attrs": {"__shape__": "(32, 128, 3, 3)"}, 
      "inputs": []
    }, 
    {
      "op": "null", 
      "name": "learned_127", 
      "attrs": {"__shape__": "(32,)"}, 
      "inputs": []
    }, 
    {
      "op": "Convolution", 
      "name": "convolution63", 
      "attrs": {
        "dilate": "(1, 1)", 
        "kernel": "(3, 3)", 
        "layout": "NCHW", 
        "no_bias": "False", 
        "num_filter": "32", 
        "num_group": "1", 
        "pad": "(1, 1)", 
        "stride": "(1, 1)"
      }, 
      "inputs": [[321, 0, 0], [322, 0, 0], [323, 0, 0]]
    }, 
    {
      "op": "LeakyReLU", 
      "name": "leakyrelu50", 
      "attrs": {"slope": "0.20000000298023224"}, 
      "inputs": [[324, 0, 0]]
    }, 
    {
      "op": "Concat", 
      "name": "concat50", 
      "attrs": {
        "dim": "1", 
        "num_args": "4"
      }, 
      "inputs": [[311, 0, 0], [315, 0, 0], [320, 0, 0], [325, 0, 0]]
    }, 
    {
      "op": "null", 
      "name": "learned_128", 
      "attrs": {"__shape__": "(32, 160, 3, 3)"}, 
      "inputs": []
    }, 
    {
      "op": "null", 
      "name": "learned_129", 
      "attrs": {"__shape__": "(32,)"}, 
      "inputs": []
    }, 
    {
      "op": "Convolution", 
      "name": "convolution64", 
      "attrs": {
        "dilate": "(1, 1)", 
        "kernel": "(3, 3)", 
        "layout": "NCHW", 
        "no_bias": "False", 
        "num_filter": "32", 
        "num_group": "1", 
        "pad": "(1, 1)", 
        "stride": "(1, 1)"
      }, 
      "inputs": [[326, 0, 0], [327, 0, 0], [328, 0, 0]]
    }, 
    {
      "op": "LeakyReLU", 
      "name": "leakyrelu51", 
      "attrs": {"slope": "0.20000000298023224"}, 
      "inputs": [[329, 0, 0]]
    }, 
    {
      "op": "Concat", 
      "name": "concat51", 
      "attrs": {
        "dim": "1", 
        "num_args": "5"
      }, 
      "inputs": [[311, 0, 0], [315, 0, 0], [320, 0, 0], [325, 0, 0], [330, 0, 0]]
    }, 
    {
      "op": "null", 
      "name": "learned_130", 
      "attrs": {"__shape__": "(64, 192, 3, 3)"}, 
      "inputs": []
    }, 
    {
      "op": "null", 
      "name": "learned_131", 
      "attrs": {"__shape__": "(64,)"}, 
      "inputs": []
    }, 
    {
      "op": "Convolution", 
      "name": "convolution65", 
      "attrs": {
        "dilate": "(1, 1)", 
        "kernel": "(3, 3)", 
        "layout": "NCHW", 
        "no_bias": "False", 
        "num_filter": "64", 
        "num_group": "1", 
        "pad": "(1, 1)", 
        "stride": "(1, 1)"
      }, 
      "inputs": [[331, 0, 0], [332, 0, 0], [333, 0, 0]]
    }, 
    {
      "op": "_mul_scalar", 
      "name": "_mulscalar16", 
      "attrs": {"scalar": "0.2"}, 
      "inputs": [[334, 0, 0]]
    }, 
    {
      "op": "broadcast_add", 
      "name": "broadcast_add16", 
      "inputs": [[335, 0, 0], [311, 0, 0]]
    }, 
    {
      "op": "null", 
      "name": "learned_132", 
      "attrs": {"__shape__": "(32, 64, 3, 3)"}, 
      "inputs": []
    }, 
    {
      "op": "null", 
      "name": "learned_133", 
      "attrs": {"__shape__": "(32,)"}, 
      "inputs": []
    }, 
    {
      "op": "Convolution", 
      "name": "convolution66", 
      "attrs": {
        "dilate": "(1, 1)", 
        "kernel": "(3, 3)", 
        "layout": "NCHW", 
        "no_bias": "False", 
        "num_filter": "32", 
        "num_group": "1", 
        "pad": "(1, 1)", 
        "stride": "(1, 1)"
      }, 
      "inputs": [[336, 0, 0], [337, 0, 0], [338, 0, 0]]
    }, 
    {
      "op": "LeakyReLU", 
      "name": "leakyrelu52", 
      "attrs": {"slope": "0.20000000298023224"}, 
      "inputs": [[339, 0, 0]]
    }, 
    {
      "op": "Concat", 
      "name": "concat52", 
      "attrs": {
        "dim": "1", 
        "num_args": "2"
      }, 
      "inputs": [[336, 0, 0], [340, 0, 0]]
    }, 
    {
      "op": "null", 
      "name": "learned_134", 
      "attrs": {"__shape__": "(32, 96, 3, 3)"}, 
      "inputs": []
    }, 
    {
      "op": "null", 
      "name": "learned_135", 
      "attrs": {"__shape__": "(32,)"}, 
      "inputs": []
    }, 
    {
      "op": "Convolution", 
      "name": "convolution67", 
      "attrs": {
        "dilate": "(1, 1)", 
        "kernel": "(3, 3)", 
        "layout": "NCHW", 
        "no_bias": "False", 
        "num_filter": "32", 
        "num_group": "1", 
        "pad": "(1, 1)", 
        "stride": "(1, 1)"
      }, 
      "inputs": [[341, 0, 0], [342, 0, 0], [343, 0, 0]]
    }, 
    {
      "op": "LeakyReLU", 
      "name": "leakyrelu53", 
      "attrs": {"slope": "0.20000000298023224"}, 
      "inputs": [[344, 0, 0]]
    }, 
    {
      "op": "Concat", 
      "name": "concat53", 
      "attrs": {
        "dim": "1", 
        "num_args": "3"
      }, 
      "inputs": [[336, 0, 0], [340, 0, 0], [345, 0, 0]]
    }, 
    {
      "op": "null", 
      "name": "learned_136", 
      "attrs": {"__shape__": "(32, 128, 3, 3)"}, 
      "inputs": []
    }, 
    {
      "op": "null", 
      "name": "learned_137", 
      "attrs": {"__shape__": "(32,)"}, 
      "inputs": []
    }, 
    {
      "op": "Convolution", 
      "name": "convolution68", 
      "attrs": {
        "dilate": "(1, 1)", 
        "kernel": "(3, 3)", 
        "layout": "NCHW", 
        "no_bias": "False", 
        "num_filter": "32", 
        "num_group": "1", 
        "pad": "(1, 1)", 
        "stride": "(1, 1)"
      }, 
      "inputs": [[346, 0, 0], [347, 0, 0], [348, 0, 0]]
    }, 
    {
      "op": "LeakyReLU", 
      "name": "leakyrelu54", 
      "attrs": {"slope": "0.20000000298023224"}, 
      "inputs": [[349, 0, 0]]
    }, 
    {
      "op": "Concat", 
      "name": "concat54", 
      "attrs": {
        "dim": "1", 
        "num_args": "4"
      }, 
      "inputs": [[336, 0, 0], [340, 0, 0], [345, 0, 0], [350, 0, 0]]
    }, 
    {
      "op": "null", 
      "name": "learned_138", 
      "attrs": {"__shape__": "(32, 160, 3, 3)"}, 
      "inputs": []
    }, 
    {
      "op": "null", 
      "name": "learned_139", 
      "attrs": {"__shape__": "(32,)"}, 
      "inputs": []
    }, 
    {
      "op": "Convolution", 
      "name": "convolution69", 
      "attrs": {
        "dilate": "(1, 1)", 
        "kernel": "(3, 3)", 
        "layout": "NCHW", 
        "no_bias": "False", 
        "num_filter": "32", 
        "num_group": "1", 
        "pad": "(1, 1)", 
        "stride": "(1, 1)"
      }, 
      "inputs": [[351, 0, 0], [352, 0, 0], [353, 0, 0]]
    }, 
    {
      "op": "LeakyReLU", 
      "name": "leakyrelu55", 
      "attrs": {"slope": "0.20000000298023224"}, 
      "inputs": [[354, 0, 0]]
    }, 
    {
      "op": "Concat", 
      "name": "concat55", 
      "attrs": {
        "dim": "1", 
        "num_args": "5"
      }, 
      "inputs": [[336, 0, 0], [340, 0, 0], [345, 0, 0], [350, 0, 0], [355, 0, 0]]
    }, 
    {
      "op": "null", 
      "name": "learned_140", 
      "attrs": {"__shape__": "(64, 192, 3, 3)"}, 
      "inputs": []
    }, 
    {
      "op": "null", 
      "name": "learned_141", 
      "attrs": {"__shape__": "(64,)"}, 
      "inputs": []
    }, 
    {
      "op": "Convolution", 
      "name": "convolution70", 
      "attrs": {
        "dilate": "(1, 1)", 
        "kernel": "(3, 3)", 
        "layout": "NCHW", 
        "no_bias": "False", 
        "num_filter": "64", 
        "num_group": "1", 
        "pad": "(1, 1)", 
        "stride": "(1, 1)"
      }, 
      "inputs": [[356, 0, 0], [357, 0, 0], [358, 0, 0]]
    }, 
    {
      "op": "_mul_scalar", 
      "name": "_mulscalar17", 
      "attrs": {"scalar": "0.2"}, 
      "inputs": [[359, 0, 0]]
    }, 
    {
      "op": "broadcast_add", 
      "name": "broadcast_add17", 
      "inputs": [[360, 0, 0], [336, 0, 0]]
    }, 
    {
      "op": "null", 
      "name": "learned_142", 
      "attrs": {"__shape__": "(32, 64, 3, 3)"}, 
      "inputs": []
    }, 
    {
      "op": "null", 
      "name": "learned_143", 
      "attrs": {"__shape__": "(32,)"}, 
      "inputs": []
    }, 
    {
      "op": "Convolution", 
      "name": "convolution71", 
      "attrs": {
        "dilate": "(1, 1)", 
        "kernel": "(3, 3)", 
        "layout": "NCHW", 
        "no_bias": "False", 
        "num_filter": "32", 
        "num_group": "1", 
        "pad": "(1, 1)", 
        "stride": "(1, 1)"
      }, 
      "inputs": [[361, 0, 0], [362, 0, 0], [363, 0, 0]]
    }, 
    {
      "op": "LeakyReLU", 
      "name": "leakyrelu56", 
      "attrs": {"slope": "0.20000000298023224"}, 
      "inputs": [[364, 0, 0]]
    }, 
    {
      "op": "Concat", 
      "name": "concat56", 
      "attrs": {
        "dim": "1", 
        "num_args": "2"
      }, 
      "inputs": [[361, 0, 0], [365, 0, 0]]
    }, 
    {
      "op": "null", 
      "name": "learned_144", 
      "attrs": {"__shape__": "(32, 96, 3, 3)"}, 
      "inputs": []
    }, 
    {
      "op": "null", 
      "name": "learned_145", 
      "attrs": {"__shape__": "(32,)"}, 
      "inputs": []
    }, 
    {
      "op": "Convolution", 
      "name": "convolution72", 
      "attrs": {
        "dilate": "(1, 1)", 
        "kernel": "(3, 3)", 
        "layout": "NCHW", 
        "no_bias": "False", 
        "num_filter": "32", 
        "num_group": "1", 
        "pad": "(1, 1)", 
        "stride": "(1, 1)"
      }, 
      "inputs": [[366, 0, 0], [367, 0, 0], [368, 0, 0]]
    }, 
    {
      "op": "LeakyReLU", 
      "name": "leakyrelu57", 
      "attrs": {"slope": "0.20000000298023224"}, 
      "inputs": [[369, 0, 0]]
    }, 
    {
      "op": "Concat", 
      "name": "concat57", 
      "attrs": {
        "dim": "1", 
        "num_args": "3"
      }, 
      "inputs": [[361, 0, 0], [365, 0, 0], [370, 0, 0]]
    }, 
    {
      "op": "null", 
      "name": "learned_146", 
      "attrs": {"__shape__": "(32, 128, 3, 3)"}, 
      "inputs": []
    }, 
    {
      "op": "null", 
      "name": "learned_147", 
      "attrs": {"__shape__": "(32,)"}, 
      "inputs": []
    }, 
    {
      "op": "Convolution", 
      "name": "convolution73", 
      "attrs": {
        "dilate": "(1, 1)", 
        "kernel": "(3, 3)", 
        "layout": "NCHW", 
        "no_bias": "False", 
        "num_filter": "32", 
        "num_group": "1", 
        "pad": "(1, 1)", 
        "stride": "(1, 1)"
      }, 
      "inputs": [[371, 0, 0], [372, 0, 0], [373, 0, 0]]
    }, 
    {
      "op": "LeakyReLU", 
      "name": "leakyrelu58", 
      "attrs": {"slope": "0.20000000298023224"}, 
      "inputs": [[374, 0, 0]]
    }, 
    {
      "op": "Concat", 
      "name": "concat58", 
      "attrs": {
        "dim": "1", 
        "num_args": "4"
      }, 
      "inputs": [[361, 0, 0], [365, 0, 0], [370, 0, 0], [375, 0, 0]]
    }, 
    {
      "op": "null", 
      "name": "learned_148", 
      "attrs": {"__shape__": "(32, 160, 3, 3)"}, 
      "inputs": []
    }, 
    {
      "op": "null", 
      "name": "learned_149", 
      "attrs": {"__shape__": "(32,)"}, 
      "inputs": []
    }, 
    {
      "op": "Convolution", 
      "name": "convolution74", 
      "attrs": {
        "dilate": "(1, 1)", 
        "kernel": "(3, 3)", 
        "layout": "NCHW", 
        "no_bias": "False", 
        "num_filter": "32", 
        "num_group": "1", 
        "pad": "(1, 1)", 
        "stride": "(1, 1)"
      }, 
      "inputs": [[376, 0, 0], [377, 0, 0], [378, 0, 0]]
    }, 
    {
      "op": "LeakyReLU", 
      "name": "leakyrelu59", 
      "attrs": {"slope": "0.20000000298023224"}, 
      "inputs": [[379, 0, 0]]
    }, 
    {
      "op": "Concat", 
      "name": "concat59", 
      "attrs": {
        "dim": "1", 
        "num_args": "5"
      }, 
      "inputs": [[361, 0, 0], [365, 0, 0], [370, 0, 0], [375, 0, 0], [380, 0, 0]]
    }, 
    {
      "op": "null", 
      "name": "learned_150", 
      "attrs": {"__shape__": "(64, 192, 3, 3)"}, 
      "inputs": []
    }, 
    {
      "op": "null", 
      "name": "learned_151", 
      "attrs": {"__shape__": "(64,)"}, 
      "inputs": []
    }, 
    {
      "op": "Convolution", 
      "name": "convolution75", 
      "attrs": {
        "dilate": "(1, 1)", 
        "kernel": "(3, 3)", 
        "layout": "NCHW", 
        "no_bias": "False", 
        "num_filter": "64", 
        "num_group": "1", 
        "pad": "(1, 1)", 
        "stride": "(1, 1)"
      }, 
      "inputs": [[381, 0, 0], [382, 0, 0], [383, 0, 0]]
    }, 
    {
      "op": "_mul_scalar", 
      "name": "_mulscalar18", 
      "attrs": {"scalar": "0.2"}, 
      "inputs": [[384, 0, 0]]
    }, 
    {
      "op": "broadcast_add", 
      "name": "broadcast_add18", 
      "inputs": [[385, 0, 0], [361, 0, 0]]
    }, 
    {
      "op": "_mul_scalar", 
      "name": "_mulscalar19", 
      "attrs": {"scalar": "0.2"}, 
      "inputs": [[386, 0, 0]]
    }, 
    {
      "op": "broadcast_add", 
      "name": "broadcast_add19", 
      "inputs": [[387, 0, 0], [311, 0, 0]]
    }, 
    {
      "op": "null", 
      "name": "learned_152", 
      "attrs": {"__shape__": "(32, 64, 3, 3)"}, 
      "inputs": []
    }, 
    {
      "op": "null", 
      "name": "learned_153", 
      "attrs": {"__shape__": "(32,)"}, 
      "inputs": []
    }, 
    {
      "op": "Convolution", 
      "name": "convolution76", 
      "attrs": {
        "dilate": "(1, 1)", 
        "kernel": "(3, 3)", 
        "layout": "NCHW", 
        "no_bias": "False", 
        "num_filter": "32", 
        "num_group": "1", 
        "pad": "(1, 1)", 
        "stride": "(1, 1)"
      }, 
      "inputs": [[388, 0, 0], [389, 0, 0], [390, 0, 0]]
    }, 
    {
      "op": "LeakyReLU", 
      "name": "leakyrelu60", 
      "attrs": {"slope": "0.20000000298023224"}, 
      "inputs": [[391, 0, 0]]
    }, 
    {
      "op": "Concat", 
      "name": "concat60", 
      "attrs": {
        "dim": "1", 
        "num_args": "2"
      }, 
      "inputs": [[388, 0, 0], [392, 0, 0]]
    }, 
    {
      "op": "null", 
      "name": "learned_154", 
      "attrs": {"__shape__": "(32, 96, 3, 3)"}, 
      "inputs": []
    }, 
    {
      "op": "null", 
      "name": "learned_155", 
      "attrs": {"__shape__": "(32,)"}, 
      "inputs": []
    }, 
    {
      "op": "Convolution", 
      "name": "convolution77", 
      "attrs": {
        "dilate": "(1, 1)", 
        "kernel": "(3, 3)", 
        "layout": "NCHW", 
        "no_bias": "False", 
        "num_filter": "32", 
        "num_group": "1", 
        "pad": "(1, 1)", 
        "stride": "(1, 1)"
      }, 
      "inputs": [[393, 0, 0], [394, 0, 0], [395, 0, 0]]
    }, 
    {
      "op": "LeakyReLU", 
      "name": "leakyrelu61", 
      "attrs": {"slope": "0.20000000298023224"}, 
      "inputs": [[396, 0, 0]]
    }, 
    {
      "op": "Concat", 
      "name": "concat61", 
      "attrs": {
        "dim": "1", 
        "num_args": "3"
      }, 
      "inputs": [[388, 0, 0], [392, 0, 0], [397, 0, 0]]
    }, 
    {
      "op": "null", 
      "name": "learned_156", 
      "attrs": {"__shape__": "(32, 128, 3, 3)"}, 
      "inputs": []
    }, 
    {
      "op": "null", 
      "name": "learned_157", 
      "attrs": {"__shape__": "(32,)"}, 
      "inputs": []
    }, 
    {
      "op": "Convolution", 
      "name": "convolution78", 
      "attrs": {
        "dilate": "(1, 1)", 
        "kernel": "(3, 3)", 
        "layout": "NCHW", 
        "no_bias": "False", 
        "num_filter": "32", 
        "num_group": "1", 
        "pad": "(1, 1)", 
        "stride": "(1, 1)"
      }, 
      "inputs": [[398, 0, 0], [399, 0, 0], [400, 0, 0]]
    }, 
    {
      "op": "LeakyReLU", 
      "name": "leakyrelu62", 
      "attrs": {"slope": "0.20000000298023224"}, 
      "inputs": [[401, 0, 0]]
    }, 
    {
      "op": "Concat", 
      "name": "concat62", 
      "attrs": {
        "dim": "1", 
        "num_args": "4"
      }, 
      "inputs": [[388, 0, 0], [392, 0, 0], [397, 0, 0], [402, 0, 0]]
    }, 
    {
      "op": "null", 
      "name": "learned_158", 
      "attrs": {"__shape__": "(32, 160, 3, 3)"}, 
      "inputs": []
    }, 
    {
      "op": "null", 
      "name": "learned_159", 
      "attrs": {"__shape__": "(32,)"}, 
      "inputs": []
    }, 
    {
      "op": "Convolution", 
      "name": "convolution79", 
      "attrs": {
        "dilate": "(1, 1)", 
        "kernel": "(3, 3)", 
        "layout": "NCHW", 
        "no_bias": "False", 
        "num_filter": "32", 
        "num_group": "1", 
        "pad": "(1, 1)", 
        "stride": "(1, 1)"
      }, 
      "inputs": [[403, 0, 0], [404, 0, 0], [405, 0, 0]]
    }, 
    {
      "op": "LeakyReLU", 
      "name": "leakyrelu63", 
      "attrs": {"slope": "0.20000000298023224"}, 
      "inputs": [[406, 0, 0]]
    }, 
    {
      "op": "Concat", 
      "name": "concat63", 
      "attrs": {
        "dim": "1", 
        "num_args": "5"
      }, 
      "inputs": [[388, 0, 0], [392, 0, 0], [397, 0, 0], [402, 0, 0], [407, 0, 0]]
    }, 
    {
      "op": "null", 
      "name": "learned_160", 
      "attrs": {"__shape__": "(64, 192, 3, 3)"}, 
      "inputs": []
    }, 
    {
      "op": "null", 
      "name": "learned_161", 
      "attrs": {"__shape__": "(64,)"}, 
      "inputs": []
    }, 
    {
      "op": "Convolution", 
      "name": "convolution80", 
      "attrs": {
        "dilate": "(1, 1)", 
        "kernel": "(3, 3)", 
        "layout": "NCHW", 
        "no_bias": "False", 
        "num_filter": "64", 
        "num_group": "1", 
        "pad": "(1, 1)", 
        "stride": "(1, 1)"
      }, 
      "inputs": [[408, 0, 0], [409, 0, 0], [410, 0, 0]]
    }, 
    {
      "op": "_mul_scalar", 
      "name": "_mulscalar20", 
      "attrs": {"scalar": "0.2"}, 
      "inputs": [[411, 0, 0]]
    }, 
    {
      "op": "broadcast_add", 
      "name": "broadcast_add20", 
      "inputs": [[412, 0, 0], [388, 0, 0]]
    }, 
    {
      "op": "null", 
      "name": "learned_162", 
      "attrs": {"__shape__": "(32, 64, 3, 3)"}, 
      "inputs": []
    }, 
    {
      "op": "null", 
      "name": "learned_163", 
      "attrs": {"__shape__": "(32,)"}, 
      "inputs": []
    }, 
    {
      "op": "Convolution", 
      "name": "convolution81", 
      "attrs": {
        "dilate": "(1, 1)", 
        "kernel": "(3, 3)", 
        "layout": "NCHW", 
        "no_bias": "False", 
        "num_filter": "32", 
        "num_group": "1", 
        "pad": "(1, 1)", 
        "stride": "(1, 1)"
      }, 
      "inputs": [[413, 0, 0], [414, 0, 0], [415, 0, 0]]
    }, 
    {
      "op": "LeakyReLU", 
      "name": "leakyrelu64", 
      "attrs": {"slope": "0.20000000298023224"}, 
      "inputs": [[416, 0, 0]]
    }, 
    {
      "op": "Concat", 
      "name": "concat64", 
      "attrs": {
        "dim": "1", 
        "num_args": "2"
      }, 
      "inputs": [[413, 0, 0], [417, 0, 0]]
    }, 
    {
      "op": "null", 
      "name": "learned_164", 
      "attrs": {"__shape__": "(32, 96, 3, 3)"}, 
      "inputs": []
    }, 
    {
      "op": "null", 
      "name": "learned_165", 
      "attrs": {"__shape__": "(32,)"}, 
      "inputs": []
    }, 
    {
      "op": "Convolution", 
      "name": "convolution82", 
      "attrs": {
        "dilate": "(1, 1)", 
        "kernel": "(3, 3)", 
        "layout": "NCHW", 
        "no_bias": "False", 
        "num_filter": "32", 
        "num_group": "1", 
        "pad": "(1, 1)", 
        "stride": "(1, 1)"
      }, 
      "inputs": [[418, 0, 0], [419, 0, 0], [420, 0, 0]]
    }, 
    {
      "op": "LeakyReLU", 
      "name": "leakyrelu65", 
      "attrs": {"slope": "0.20000000298023224"}, 
      "inputs": [[421, 0, 0]]
    }, 
    {
      "op": "Concat", 
      "name": "concat65", 
      "attrs": {
        "dim": "1", 
        "num_args": "3"
      }, 
      "inputs": [[413, 0, 0], [417, 0, 0], [422, 0, 0]]
    }, 
    {
      "op": "null", 
      "name": "learned_166", 
      "attrs": {"__shape__": "(32, 128, 3, 3)"}, 
      "inputs": []
    }, 
    {
      "op": "null", 
      "name": "learned_167", 
      "attrs": {"__shape__": "(32,)"}, 
      "inputs": []
    }, 
    {
      "op": "Convolution", 
      "name": "convolution83", 
      "attrs": {
        "dilate": "(1, 1)", 
        "kernel": "(3, 3)", 
        "layout": "NCHW", 
        "no_bias": "False", 
        "num_filter": "32", 
        "num_group": "1", 
        "pad": "(1, 1)", 
        "stride": "(1, 1)"
      }, 
      "inputs": [[423, 0, 0], [424, 0, 0], [425, 0, 0]]
    }, 
    {
      "op": "LeakyReLU", 
      "name": "leakyrelu66", 
      "attrs": {"slope": "0.20000000298023224"}, 
      "inputs": [[426, 0, 0]]
    }, 
    {
      "op": "Concat", 
      "name": "concat66", 
      "attrs": {
        "dim": "1", 
        "num_args": "4"
      }, 
      "inputs": [[413, 0, 0], [417, 0, 0], [422, 0, 0], [427, 0, 0]]
    }, 
    {
      "op": "null", 
      "name": "learned_168", 
      "attrs": {"__shape__": "(32, 160, 3, 3)"}, 
      "inputs": []
    }, 
    {
      "op": "null", 
      "name": "learned_169", 
      "attrs": {"__shape__": "(32,)"}, 
      "inputs": []
    }, 
    {
      "op": "Convolution", 
      "name": "convolution84", 
      "attrs": {
        "dilate": "(1, 1)", 
        "kernel": "(3, 3)", 
        "layout": "NCHW", 
        "no_bias": "False", 
        "num_filter": "32", 
        "num_group": "1", 
        "pad": "(1, 1)", 
        "stride": "(1, 1)"
      }, 
      "inputs": [[428, 0, 0], [429, 0, 0], [430, 0, 0]]
    }, 
    {
      "op": "LeakyReLU", 
      "name": "leakyrelu67", 
      "attrs": {"slope": "0.20000000298023224"}, 
      "inputs": [[431, 0, 0]]
    }, 
    {
      "op": "Concat", 
      "name": "concat67", 
      "attrs": {
        "dim": "1", 
        "num_args": "5"
      }, 
      "inputs": [[413, 0, 0], [417, 0, 0], [422, 0, 0], [427, 0, 0], [432, 0, 0]]
    }, 
    {
      "op": "null", 
      "name": "learned_170", 
      "attrs": {"__shape__": "(64, 192, 3, 3)"}, 
      "inputs": []
    }, 
    {
      "op": "null", 
      "name": "learned_171", 
      "attrs": {"__shape__": "(64,)"}, 
      "inputs": []
    }, 
    {
      "op": "Convolution", 
      "name": "convolution85", 
      "attrs": {
        "dilate": "(1, 1)", 
        "kernel": "(3, 3)", 
        "layout": "NCHW", 
        "no_bias": "False", 
        "num_filter": "64", 
        "num_group": "1", 
        "pad": "(1, 1)", 
        "stride": "(1, 1)"
      }, 
      "inputs": [[433, 0, 0], [434, 0, 0], [435, 0, 0]]
    }, 
    {
      "op": "_mul_scalar", 
      "name": "_mulscalar21", 
      "attrs": {"scalar": "0.2"}, 
      "inputs": [[436, 0, 0]]
    }, 
    {
      "op": "broadcast_add", 
      "name": "broadcast_add21", 
      "inputs": [[437, 0, 0], [413, 0, 0]]
    }, 
    {
      "op": "null", 
      "name": "learned_172", 
      "attrs": {"__shape__": "(32, 64, 3, 3)"}, 
      "inputs": []
    }, 
    {
      "op": "null", 
      "name": "learned_173", 
      "attrs": {"__shape__": "(32,)"}, 
      "inputs": []
    }, 
    {
      "op": "Convolution", 
      "name": "convolution86", 
      "attrs": {
        "dilate": "(1, 1)", 
        "kernel": "(3, 3)", 
        "layout": "NCHW", 
        "no_bias": "False", 
        "num_filter": "32", 
        "num_group": "1", 
        "pad": "(1, 1)", 
        "stride": "(1, 1)"
      }, 
      "inputs": [[438, 0, 0], [439, 0, 0], [440, 0, 0]]
    }, 
    {
      "op": "LeakyReLU", 
      "name": "leakyrelu68", 
      "attrs": {"slope": "0.20000000298023224"}, 
      "inputs": [[441, 0, 0]]
    }, 
    {
      "op": "Concat", 
      "name": "concat68", 
      "attrs": {
        "dim": "1", 
        "num_args": "2"
      }, 
      "inputs": [[438, 0, 0], [442, 0, 0]]
    }, 
    {
      "op": "null", 
      "name": "learned_174", 
      "attrs": {"__shape__": "(32, 96, 3, 3)"}, 
      "inputs": []
    }, 
    {
      "op": "null", 
      "name": "learned_175", 
      "attrs": {"__shape__": "(32,)"}, 
      "inputs": []
    }, 
    {
      "op": "Convolution", 
      "name": "convolution87", 
      "attrs": {
        "dilate": "(1, 1)", 
        "kernel": "(3, 3)", 
        "layout": "NCHW", 
        "no_bias": "False", 
        "num_filter": "32", 
        "num_group": "1", 
        "pad": "(1, 1)", 
        "stride": "(1, 1)"
      }, 
      "inputs": [[443, 0, 0], [444, 0, 0], [445, 0, 0]]
    }, 
    {
      "op": "LeakyReLU", 
      "name": "leakyrelu69", 
      "attrs": {"slope": "0.20000000298023224"}, 
      "inputs": [[446, 0, 0]]
    }, 
    {
      "op": "Concat", 
      "name": "concat69", 
      "attrs": {
        "dim": "1", 
        "num_args": "3"
      }, 
      "inputs": [[438, 0, 0], [442, 0, 0], [447, 0, 0]]
    }, 
    {
      "op": "null", 
      "name": "learned_176", 
      "attrs": {"__shape__": "(32, 128, 3, 3)"}, 
      "inputs": []
    }, 
    {
      "op": "null", 
      "name": "learned_177", 
      "attrs": {"__shape__": "(32,)"}, 
      "inputs": []
    }, 
    {
      "op": "Convolution", 
      "name": "convolution88", 
      "attrs": {
        "dilate": "(1, 1)", 
        "kernel": "(3, 3)", 
        "layout": "NCHW", 
        "no_bias": "False", 
        "num_filter": "32", 
        "num_group": "1", 
        "pad": "(1, 1)", 
        "stride": "(1, 1)"
      }, 
      "inputs": [[448, 0, 0], [449, 0, 0], [450, 0, 0]]
    }, 
    {
      "op": "LeakyReLU", 
      "name": "leakyrelu70", 
      "attrs": {"slope": "0.20000000298023224"}, 
      "inputs": [[451, 0, 0]]
    }, 
    {
      "op": "Concat", 
      "name": "concat70", 
      "attrs": {
        "dim": "1", 
        "num_args": "4"
      }, 
      "inputs": [[438, 0, 0], [442, 0, 0], [447, 0, 0], [452, 0, 0]]
    }, 
    {
      "op": "null", 
      "name": "learned_178", 
      "attrs": {"__shape__": "(32, 160, 3, 3)"}, 
      "inputs": []
    }, 
    {
      "op": "null", 
      "name": "learned_179", 
      "attrs": {"__shape__": "(32,)"}, 
      "inputs": []
    }, 
    {
      "op": "Convolution", 
      "name": "convolution89", 
      "attrs": {
        "dilate": "(1, 1)", 
        "kernel": "(3, 3)", 
        "layout": "NCHW", 
        "no_bias": "False", 
        "num_filter": "32", 
        "num_group": "1", 
        "pad": "(1, 1)", 
        "stride": "(1, 1)"
      }, 
      "inputs": [[453, 0, 0], [454, 0, 0], [455, 0, 0]]
    }, 
    {
      "op": "LeakyReLU", 
      "name": "leakyrelu71", 
      "attrs": {"slope": "0.20000000298023224"}, 
      "inputs": [[456, 0, 0]]
    }, 
    {
      "op": "Concat", 
      "name": "concat71", 
      "attrs": {
        "dim": "1", 
        "num_args": "5"
      }, 
      "inputs": [[438, 0, 0], [442, 0, 0], [447, 0, 0], [452, 0, 0], [457, 0, 0]]
    }, 
    {
      "op": "null", 
      "name": "learned_180", 
      "attrs": {"__shape__": "(64, 192, 3, 3)"}, 
      "inputs": []
    }, 
    {
      "op": "null", 
      "name": "learned_181", 
      "attrs": {"__shape__": "(64,)"}, 
      "inputs": []
    }, 
    {
      "op": "Convolution", 
      "name": "convolution90", 
      "attrs": {
        "dilate": "(1, 1)", 
        "kernel": "(3, 3)", 
        "layout": "NCHW", 
        "no_bias": "False", 
        "num_filter": "64", 
        "num_group": "1", 
        "pad": "(1, 1)", 
        "stride": "(1, 1)"
      }, 
      "inputs": [[458, 0, 0], [459, 0, 0], [460, 0, 0]]
    }, 
    {
      "op": "_mul_scalar", 
      "name": "_mulscalar22", 
      "attrs": {"scalar": "0.2"}, 
      "inputs": [[461, 0, 0]]
    }, 
    {
      "op": "broadcast_add", 
      "name": "broadcast_add22", 
      "inputs": [[462, 0, 0], [438, 0, 0]]
    }, 
    {
      "op": "_mul_scalar", 
      "name": "_mulscalar23", 
      "attrs": {"scalar": "0.2"}, 
      "inputs": [[463, 0, 0]]
    }, 
    {
      "op": "broadcast_add", 
      "name": "broadcast_add23", 
      "inputs": [[464, 0, 0], [388, 0, 0]]
    }, 
    {
      "op": "null", 
      "name": "learned_182", 
      "attrs": {"__shape__": "(32, 64, 3, 3)"}, 
      "inputs": []
    }, 
    {
      "op": "null", 
      "name": "learned_183", 
      "attrs": {"__shape__": "(32,)"}, 
      "inputs": []
    }, 
    {
      "op": "Convolution", 
      "name": "convolution91", 
      "attrs": {
        "dilate": "(1, 1)", 
        "kernel": "(3, 3)", 
        "layout": "NCHW", 
        "no_bias": "False", 
        "num_filter": "32", 
        "num_group": "1", 
        "pad": "(1, 1)", 
        "stride": "(1, 1)"
      }, 
      "inputs": [[465, 0, 0], [466, 0, 0], [467, 0, 0]]
    }, 
    {
      "op": "LeakyReLU", 
      "name": "leakyrelu72", 
      "attrs": {"slope": "0.20000000298023224"}, 
      "inputs": [[468, 0, 0]]
    }, 
    {
      "op": "Concat", 
      "name": "concat72", 
      "attrs": {
        "dim": "1", 
        "num_args": "2"
      }, 
      "inputs": [[465, 0, 0], [469, 0, 0]]
    }, 
    {
      "op": "null", 
      "name": "learned_184", 
      "attrs": {"__shape__": "(32, 96, 3, 3)"}, 
      "inputs": []
    }, 
    {
      "op": "null", 
      "name": "learned_185", 
      "attrs": {"__shape__": "(32,)"}, 
      "inputs": []
    }, 
    {
      "op": "Convolution", 
      "name": "convolution92", 
      "attrs": {
        "dilate": "(1, 1)", 
        "kernel": "(3, 3)", 
        "layout": "NCHW", 
        "no_bias": "False", 
        "num_filter": "32", 
        "num_group": "1", 
        "pad": "(1, 1)", 
        "stride": "(1, 1)"
      }, 
      "inputs": [[470, 0, 0], [471, 0, 0], [472, 0, 0]]
    }, 
    {
      "op": "LeakyReLU", 
      "name": "leakyrelu73", 
      "attrs": {"slope": "0.20000000298023224"}, 
      "inputs": [[473, 0, 0]]
    }, 
    {
      "op": "Concat", 
      "name": "concat73", 
      "attrs": {
        "dim": "1", 
        "num_args": "3"
      }, 
      "inputs": [[465, 0, 0], [469, 0, 0], [474, 0, 0]]
    }, 
    {
      "op": "null", 
      "name": "learned_186", 
      "attrs": {"__shape__": "(32, 128, 3, 3)"}, 
      "inputs": []
    }, 
    {
      "op": "null", 
      "name": "learned_187", 
      "attrs": {"__shape__": "(32,)"}, 
      "inputs": []
    }, 
    {
      "op": "Convolution", 
      "name": "convolution93", 
      "attrs": {
        "dilate": "(1, 1)", 
        "kernel": "(3, 3)", 
        "layout": "NCHW", 
        "no_bias": "False", 
        "num_filter": "32", 
        "num_group": "1", 
        "pad": "(1, 1)", 
        "stride": "(1, 1)"
      }, 
      "inputs": [[475, 0, 0], [476, 0, 0], [477, 0, 0]]
    }, 
    {
      "op": "LeakyReLU", 
      "name": "leakyrelu74", 
      "attrs": {"slope": "0.20000000298023224"}, 
      "inputs": [[478, 0, 0]]
    }, 
    {
      "op": "Concat", 
      "name": "concat74", 
      "attrs": {
        "dim": "1", 
        "num_args": "4"
      }, 
      "inputs": [[465, 0, 0], [469, 0, 0], [474, 0, 0], [479, 0, 0]]
    }, 
    {
      "op": "null", 
      "name": "learned_188", 
      "attrs": {"__shape__": "(32, 160, 3, 3)"}, 
      "inputs": []
    }, 
    {
      "op": "null", 
      "name": "learned_189", 
      "attrs": {"__shape__": "(32,)"}, 
      "inputs": []
    }, 
    {
      "op": "Convolution", 
      "name": "convolution94", 
      "attrs": {
        "dilate": "(1, 1)", 
        "kernel": "(3, 3)", 
        "layout": "NCHW", 
        "no_bias": "False", 
        "num_filter": "32", 
        "num_group": "1", 
        "pad": "(1, 1)", 
        "stride": "(1, 1)"
      }, 
      "inputs": [[480, 0, 0], [481, 0, 0], [482, 0, 0]]
    }, 
    {
      "op": "LeakyReLU", 
      "name": "leakyrelu75", 
      "attrs": {"slope": "0.20000000298023224"}, 
      "inputs": [[483, 0, 0]]
    }, 
    {
      "op": "Concat", 
      "name": "concat75", 
      "attrs": {
        "dim": "1", 
        "num_args": "5"
      }, 
      "inputs": [[465, 0, 0], [469, 0, 0], [474, 0, 0], [479, 0, 0], [484, 0, 0]]
    }, 
    {
      "op": "null", 
      "name": "learned_190", 
      "attrs": {"__shape__": "(64, 192, 3, 3)"}, 
      "inputs": []
    }, 
    {
      "op": "null", 
      "name": "learned_191", 
      "attrs": {"__shape__": "(64,)"}, 
      "inputs": []
    }, 
    {
      "op": "Convolution", 
      "name": "convolution95", 
      "attrs": {
        "dilate": "(1, 1)", 
        "kernel": "(3, 3)", 
        "layout": "NCHW", 
        "no_bias": "False", 
        "num_filter": "64", 
        "num_group": "1", 
        "pad": "(1, 1)", 
        "stride": "(1, 1)"
      }, 
      "inputs": [[485, 0, 0], [486, 0, 0], [487, 0, 0]]
    }, 
    {
      "op": "_mul_scalar", 
      "name": "_mulscalar24", 
      "attrs": {"scalar": "0.2"}, 
      "inputs": [[488, 0, 0]]
    }, 
    {
      "op": "broadcast_add", 
      "name": "broadcast_add24", 
      "inputs": [[489, 0, 0], [465, 0, 0]]
    }, 
    {
      "op": "null", 
      "name": "learned_192", 
      "attrs": {"__shape__": "(32, 64, 3, 3)"}, 
      "inputs": []
    }, 
    {
      "op": "null", 
      "name": "learned_193", 
      "attrs": {"__shape__": "(32,)"}, 
      "inputs": []
    }, 
    {
      "op": "Convolution", 
      "name": "convolution96", 
      "attrs": {
        "dilate": "(1, 1)", 
        "kernel": "(3, 3)", 
        "layout": "NCHW", 
        "no_bias": "False", 
        "num_filter": "32", 
        "num_group": "1", 
        "pad": "(1, 1)", 
        "stride": "(1, 1)"
      }, 
      "inputs": [[490, 0, 0], [491, 0, 0], [492, 0, 0]]
    }, 
    {
      "op": "LeakyReLU", 
      "name": "leakyrelu76", 
      "attrs": {"slope": "0.20000000298023224"}, 
      "inputs": [[493, 0, 0]]
    }, 
    {
      "op": "Concat", 
      "name": "concat76", 
      "attrs": {
        "dim": "1", 
        "num_args": "2"
      }, 
      "inputs": [[490, 0, 0], [494, 0, 0]]
    }, 
    {
      "op": "null", 
      "name": "learned_194", 
      "attrs": {"__shape__": "(32, 96, 3, 3)"}, 
      "inputs": []
    }, 
    {
      "op": "null", 
      "name": "learned_195", 
      "attrs": {"__shape__": "(32,)"}, 
      "inputs": []
    }, 
    {
      "op": "Convolution", 
      "name": "convolution97", 
      "attrs": {
        "dilate": "(1, 1)", 
        "kernel": "(3, 3)", 
        "layout": "NCHW", 
        "no_bias": "False", 
        "num_filter": "32", 
        "num_group": "1", 
        "pad": "(1, 1)", 
        "stride": "(1, 1)"
      }, 
      "inputs": [[495, 0, 0], [496, 0, 0], [497, 0, 0]]
    }, 
    {
      "op": "LeakyReLU", 
      "name": "leakyrelu77", 
      "attrs": {"slope": "0.20000000298023224"}, 
      "inputs": [[498, 0, 0]]
    }, 
    {
      "op": "Concat", 
      "name": "concat77", 
      "attrs": {
        "dim": "1", 
        "num_args": "3"
      }, 
      "inputs": [[490, 0, 0], [494, 0, 0], [499, 0, 0]]
    }, 
    {
      "op": "null", 
      "name": "learned_196", 
      "attrs": {"__shape__": "(32, 128, 3, 3)"}, 
      "inputs": []
    }, 
    {
      "op": "null", 
      "name": "learned_197", 
      "attrs": {"__shape__": "(32,)"}, 
      "inputs": []
    }, 
    {
      "op": "Convolution", 
      "name": "convolution98", 
      "attrs": {
        "dilate": "(1, 1)", 
        "kernel": "(3, 3)", 
        "layout": "NCHW", 
        "no_bias": "False", 
        "num_filter": "32", 
        "num_group": "1", 
        "pad": "(1, 1)", 
        "stride": "(1, 1)"
      }, 
      "inputs": [[500, 0, 0], [501, 0, 0], [502, 0, 0]]
    }, 
    {
      "op": "LeakyReLU", 
      "name": "leakyrelu78", 
      "attrs": {"slope": "0.20000000298023224"}, 
      "inputs": [[503, 0, 0]]
    }, 
    {
      "op": "Concat", 
      "name": "concat78", 
      "attrs": {
        "dim": "1", 
        "num_args": "4"
      }, 
      "inputs": [[490, 0, 0], [494, 0, 0], [499, 0, 0], [504, 0, 0]]
    }, 
    {
      "op": "null", 
      "name": "learned_198", 
      "attrs": {"__shape__": "(32, 160, 3, 3)"}, 
      "inputs": []
    }, 
    {
      "op": "null", 
      "name": "learned_199", 
      "attrs": {"__shape__": "(32,)"}, 
      "inputs": []
    }, 
    {
      "op": "Convolution", 
      "name": "convolution99", 
      "attrs": {
        "dilate": "(1, 1)", 
        "kernel": "(3, 3)", 
        "layout": "NCHW", 
        "no_bias": "False", 
        "num_filter": "32", 
        "num_group": "1", 
        "pad": "(1, 1)", 
        "stride": "(1, 1)"
      }, 
      "inputs": [[505, 0, 0], [506, 0, 0], [507, 0, 0]]
    }, 
    {
      "op": "LeakyReLU", 
      "name": "leakyrelu79", 
      "attrs": {"slope": "0.20000000298023224"}, 
      "inputs": [[508, 0, 0]]
    }, 
    {
      "op": "Concat", 
      "name": "concat79", 
      "attrs": {
        "dim": "1", 
        "num_args": "5"
      }, 
      "inputs": [[490, 0, 0], [494, 0, 0], [499, 0, 0], [504, 0, 0], [509, 0, 0]]
    }, 
    {
      "op": "null", 
      "name": "learned_200", 
      "attrs": {"__shape__": "(64, 192, 3, 3)"}, 
      "inputs": []
    }, 
    {
      "op": "null", 
      "name": "learned_201", 
      "attrs": {"__shape__": "(64,)"}, 
      "inputs": []
    }, 
    {
      "op": "Convolution", 
      "name": "convolution100", 
      "attrs": {
        "dilate": "(1, 1)", 
        "kernel": "(3, 3)", 
        "layout": "NCHW", 
        "no_bias": "False", 
        "num_filter": "64", 
        "num_group": "1", 
        "pad": "(1, 1)", 
        "stride": "(1, 1)"
      }, 
      "inputs": [[510, 0, 0], [511, 0, 0], [512, 0, 0]]
    }, 
    {
      "op": "_mul_scalar", 
      "name": "_mulscalar25", 
      "attrs": {"scalar": "0.2"}, 
      "inputs": [[513, 0, 0]]
    }, 
    {
      "op": "broadcast_add", 
      "name": "broadcast_add25", 
      "inputs": [[514, 0, 0], [490, 0, 0]]
    }, 
    {
      "op": "null", 
      "name": "learned_202", 
      "attrs": {"__shape__": "(32, 64, 3, 3)"}, 
      "inputs": []
    }, 
    {
      "op": "null", 
      "name": "learned_203", 
      "attrs": {"__shape__": "(32,)"}, 
      "inputs": []
    }, 
    {
      "op": "Convolution", 
      "name": "convolution101", 
      "attrs": {
        "dilate": "(1, 1)", 
        "kernel": "(3, 3)", 
        "layout": "NCHW", 
        "no_bias": "False", 
        "num_filter": "32", 
        "num_group": "1", 
        "pad": "(1, 1)", 
        "stride": "(1, 1)"
      }, 
      "inputs": [[515, 0, 0], [516, 0, 0], [517, 0, 0]]
    }, 
    {
      "op": "LeakyReLU", 
      "name": "leakyrelu80", 
      "attrs": {"slope": "0.20000000298023224"}, 
      "inputs": [[518, 0, 0]]
    }, 
    {
      "op": "Concat", 
      "name": "concat80", 
      "attrs": {
        "dim": "1", 
        "num_args": "2"
      }, 
      "inputs": [[515, 0, 0], [519, 0, 0]]
    }, 
    {
      "op": "null", 
      "name": "learned_204", 
      "attrs": {"__shape__": "(32, 96, 3, 3)"}, 
      "inputs": []
    }, 
    {
      "op": "null", 
      "name": "learned_205", 
      "attrs": {"__shape__": "(32,)"}, 
      "inputs": []
    }, 
    {
      "op": "Convolution", 
      "name": "convolution102", 
      "attrs": {
        "dilate": "(1, 1)", 
        "kernel": "(3, 3)", 
        "layout": "NCHW", 
        "no_bias": "False", 
        "num_filter": "32", 
        "num_group": "1", 
        "pad": "(1, 1)", 
        "stride": "(1, 1)"
      }, 
      "inputs": [[520, 0, 0], [521, 0, 0], [522, 0, 0]]
    }, 
    {
      "op": "LeakyReLU", 
      "name": "leakyrelu81", 
      "attrs": {"slope": "0.20000000298023224"}, 
      "inputs": [[523, 0, 0]]
    }, 
    {
      "op": "Concat", 
      "name": "concat81", 
      "attrs": {
        "dim": "1", 
        "num_args": "3"
      }, 
      "inputs": [[515, 0, 0], [519, 0, 0], [524, 0, 0]]
    }, 
    {
      "op": "null", 
      "name": "learned_206", 
      "attrs": {"__shape__": "(32, 128, 3, 3)"}, 
      "inputs": []
    }, 
    {
      "op": "null", 
      "name": "learned_207", 
      "attrs": {"__shape__": "(32,)"}, 
      "inputs": []
    }, 
    {
      "op": "Convolution", 
      "name": "convolution103", 
      "attrs": {
        "dilate": "(1, 1)", 
        "kernel": "(3, 3)", 
        "layout": "NCHW", 
        "no_bias": "False", 
        "num_filter": "32", 
        "num_group": "1", 
        "pad": "(1, 1)", 
        "stride": "(1, 1)"
      }, 
      "inputs": [[525, 0, 0], [526, 0, 0], [527, 0, 0]]
    }, 
    {
      "op": "LeakyReLU", 
      "name": "leakyrelu82", 
      "attrs": {"slope": "0.20000000298023224"}, 
      "inputs": [[528, 0, 0]]
    }, 
    {
      "op": "Concat", 
      "name": "concat82", 
      "attrs": {
        "dim": "1", 
        "num_args": "4"
      }, 
      "inputs": [[515, 0, 0], [519, 0, 0], [524, 0, 0], [529, 0, 0]]
    }, 
    {
      "op": "null", 
      "name": "learned_208", 
      "attrs": {"__shape__": "(32, 160, 3, 3)"}, 
      "inputs": []
    }, 
    {
      "op": "null", 
      "name": "learned_209", 
      "attrs": {"__shape__": "(32,)"}, 
      "inputs": []
    }, 
    {
      "op": "Convolution", 
      "name": "convolution104", 
      "attrs": {
        "dilate": "(1, 1)", 
        "kernel": "(3, 3)", 
        "layout": "NCHW", 
        "no_bias": "False", 
        "num_filter": "32", 
        "num_group": "1", 
        "pad": "(1, 1)", 
        "stride": "(1, 1)"
      }, 
      "inputs": [[530, 0, 0], [531, 0, 0], [532, 0, 0]]
    }, 
    {
      "op": "LeakyReLU", 
      "name": "leakyrelu83", 
      "attrs": {"slope": "0.20000000298023224"}, 
      "inputs": [[533, 0, 0]]
    }, 
    {
      "op": "Concat", 
      "name": "concat83", 
      "attrs": {
        "dim": "1", 
        "num_args": "5"
      }, 
      "inputs": [[515, 0, 0], [519, 0, 0], [524, 0, 0], [529, 0, 0], [534, 0, 0]]
    }, 
    {
      "op": "null", 
      "name": "learned_210", 
      "attrs": {"__shape__": "(64, 192, 3, 3)"}, 
      "inputs": []
    }, 
    {
      "op": "null", 
      "name": "learned_211", 
      "attrs": {"__shape__": "(64,)"}, 
      "inputs": []
    }, 
    {
      "op": "Convolution", 
      "name": "convolution105", 
      "attrs": {
        "dilate": "(1, 1)", 
        "kernel": "(3, 3)", 
        "layout": "NCHW", 
        "no_bias": "False", 
        "num_filter": "64", 
        "num_group": "1", 
        "pad": "(1, 1)", 
        "stride": "(1, 1)"
      }, 
      "inputs": [[535, 0, 0], [536, 0, 0], [537, 0, 0]]
    }, 
    {
      "op": "_mul_scalar", 
      "name": "_mulscalar26", 
      "attrs": {"scalar": "0.2"}, 
      "inputs": [[538, 0, 0]]
    }, 
    {
      "op": "broadcast_add", 
      "name": "broadcast_add26", 
      "inputs": [[539, 0, 0], [515, 0, 0]]
    }, 
    {
      "op": "_mul_scalar", 
      "name": "_mulscalar27", 
      "attrs": {"scalar": "0.2"}, 
      "inputs": [[540, 0, 0]]
    }, 
    {
      "op": "broadcast_add", 
      "name": "broadcast_add27", 
      "inputs": [[541, 0, 0], [465, 0, 0]]
    }, 
    {
      "op": "null", 
      "name": "learned_212", 
      "attrs": {"__shape__": "(32, 64, 3, 3)"}, 
      "inputs": []
    }, 
    {
      "op": "null", 
      "name": "learned_213", 
      "attrs": {"__shape__": "(32,)"}, 
      "inputs": []
    }, 
    {
      "op": "Convolution", 
      "name": "convolution106", 
      "attrs": {
        "dilate": "(1, 1)", 
        "kernel": "(3, 3)", 
        "layout": "NCHW", 
        "no_bias": "False", 
        "num_filter": "32", 
        "num_group": "1", 
        "pad": "(1, 1)", 
        "stride": "(1, 1)"
      }, 
      "inputs": [[542, 0, 0], [543, 0, 0], [544, 0, 0]]
    }, 
    {
      "op": "LeakyReLU", 
      "name": "leakyrelu84", 
      "attrs": {"slope": "0.20000000298023224"}, 
      "inputs": [[545, 0, 0]]
    }, 
    {
      "op": "Concat", 
      "name": "concat84", 
      "attrs": {
        "dim": "1", 
        "num_args": "2"
      }, 
      "inputs": [[542, 0, 0], [546, 0, 0]]
    }, 
    {
      "op": "null", 
      "name": "learned_214", 
      "attrs": {"__shape__": "(32, 96, 3, 3)"}, 
      "inputs": []
    }, 
    {
      "op": "null", 
      "name": "learned_215", 
      "attrs": {"__shape__": "(32,)"}, 
      "inputs": []
    }, 
    {
      "op": "Convolution", 
      "name": "convolution107", 
      "attrs": {
        "dilate": "(1, 1)", 
        "kernel": "(3, 3)", 
        "layout": "NCHW", 
        "no_bias": "False", 
        "num_filter": "32", 
        "num_group": "1", 
        "pad": "(1, 1)", 
        "stride": "(1, 1)"
      }, 
      "inputs": [[547, 0, 0], [548, 0, 0], [549, 0, 0]]
    }, 
    {
      "op": "LeakyReLU", 
      "name": "leakyrelu85", 
      "attrs": {"slope": "0.20000000298023224"}, 
      "inputs": [[550, 0, 0]]
    }, 
    {
      "op": "Concat", 
      "name": "concat85", 
      "attrs": {
        "dim": "1", 
        "num_args": "3"
      }, 
      "inputs": [[542, 0, 0], [546, 0, 0], [551, 0, 0]]
    }, 
    {
      "op": "null", 
      "name": "learned_216", 
      "attrs": {"__shape__": "(32, 128, 3, 3)"}, 
      "inputs": []
    }, 
    {
      "op": "null", 
      "name": "learned_217", 
      "attrs": {"__shape__": "(32,)"}, 
      "inputs": []
    }, 
    {
      "op": "Convolution", 
      "name": "convolution108", 
      "attrs": {
        "dilate": "(1, 1)", 
        "kernel": "(3, 3)", 
        "layout": "NCHW", 
        "no_bias": "False", 
        "num_filter": "32", 
        "num_group": "1", 
        "pad": "(1, 1)", 
        "stride": "(1, 1)"
      }, 
      "inputs": [[552, 0, 0], [553, 0, 0], [554, 0, 0]]
    }, 
    {
      "op": "LeakyReLU", 
      "name": "leakyrelu86", 
      "attrs": {"slope": "0.20000000298023224"}, 
      "inputs": [[555, 0, 0]]
    }, 
    {
      "op": "Concat", 
      "name": "concat86", 
      "attrs": {
        "dim": "1", 
        "num_args": "4"
      }, 
      "inputs": [[542, 0, 0], [546, 0, 0], [551, 0, 0], [556, 0, 0]]
    }, 
    {
      "op": "null", 
      "name": "learned_218", 
      "attrs": {"__shape__": "(32, 160, 3, 3)"}, 
      "inputs": []
    }, 
    {
      "op": "null", 
      "name": "learned_219", 
      "attrs": {"__shape__": "(32,)"}, 
      "inputs": []
    }, 
    {
      "op": "Convolution", 
      "name": "convolution109", 
      "attrs": {
        "dilate": "(1, 1)", 
        "kernel": "(3, 3)", 
        "layout": "NCHW", 
        "no_bias": "False", 
        "num_filter": "32", 
        "num_group": "1", 
        "pad": "(1, 1)", 
        "stride": "(1, 1)"
      }, 
      "inputs": [[557, 0, 0], [558, 0, 0], [559, 0, 0]]
    }, 
    {
      "op": "LeakyReLU", 
      "name": "leakyrelu87", 
      "attrs": {"slope": "0.20000000298023224"}, 
      "inputs": [[560, 0, 0]]
    }, 
    {
      "op": "Concat", 
      "name": "concat87", 
      "attrs": {
        "dim": "1", 
        "num_args": "5"
      }, 
      "inputs": [[542, 0, 0], [546, 0, 0], [551, 0, 0], [556, 0, 0], [561, 0, 0]]
    }, 
    {
      "op": "null", 
      "name": "learned_220", 
      "attrs": {"__shape__": "(64, 192, 3, 3)"}, 
      "inputs": []
    }, 
    {
      "op": "null", 
      "name": "learned_221", 
      "attrs": {"__shape__": "(64,)"}, 
      "inputs": []
    }, 
    {
      "op": "Convolution", 
      "name": "convolution110", 
      "attrs": {
        "dilate": "(1, 1)", 
        "kernel": "(3, 3)", 
        "layout": "NCHW", 
        "no_bias": "False", 
        "num_filter": "64", 
        "num_group": "1", 
        "pad": "(1, 1)", 
        "stride": "(1, 1)"
      }, 
      "inputs": [[562, 0, 0], [563, 0, 0], [564, 0, 0]]
    }, 
    {
      "op": "_mul_scalar", 
      "name": "_mulscalar28", 
      "attrs": {"scalar": "0.2"}, 
      "inputs": [[565, 0, 0]]
    }, 
    {
      "op": "broadcast_add", 
      "name": "broadcast_add28", 
      "inputs": [[566, 0, 0], [542, 0, 0]]
    }, 
    {
      "op": "null", 
      "name": "learned_222", 
      "attrs": {"__shape__": "(32, 64, 3, 3)"}, 
      "inputs": []
    }, 
    {
      "op": "null", 
      "name": "learned_223", 
      "attrs": {"__shape__": "(32,)"}, 
      "inputs": []
    }, 
    {
      "op": "Convolution", 
      "name": "convolution111", 
      "attrs": {
        "dilate": "(1, 1)", 
        "kernel": "(3, 3)", 
        "layout": "NCHW", 
        "no_bias": "False", 
        "num_filter": "32", 
        "num_group": "1", 
        "pad": "(1, 1)", 
        "stride": "(1, 1)"
      }, 
      "inputs": [[567, 0, 0], [568, 0, 0], [569, 0, 0]]
    }, 
    {
      "op": "LeakyReLU", 
      "name": "leakyrelu88", 
      "attrs": {"slope": "0.20000000298023224"}, 
      "inputs": [[570, 0, 0]]
    }, 
    {
      "op": "Concat", 
      "name": "concat88", 
      "attrs": {
        "dim": "1", 
        "num_args": "2"
      }, 
      "inputs": [[567, 0, 0], [571, 0, 0]]
    }, 
    {
      "op": "null", 
      "name": "learned_224", 
      "attrs": {"__shape__": "(32, 96, 3, 3)"}, 
      "inputs": []
    }, 
    {
      "op": "null", 
      "name": "learned_225", 
      "attrs": {"__shape__": "(32,)"}, 
      "inputs": []
    }, 
    {
      "op": "Convolution", 
      "name": "convolution112", 
      "attrs": {
        "dilate": "(1, 1)", 
        "kernel": "(3, 3)", 
        "layout": "NCHW", 
        "no_bias": "False", 
        "num_filter": "32", 
        "num_group": "1", 
        "pad": "(1, 1)", 
        "stride": "(1, 1)"
      }, 
      "inputs": [[572, 0, 0], [573, 0, 0], [574, 0, 0]]
    }, 
    {
      "op": "LeakyReLU", 
      "name": "leakyrelu89", 
      "attrs": {"slope": "0.20000000298023224"}, 
      "inputs": [[575, 0, 0]]
    }, 
    {
      "op": "Concat", 
      "name": "concat89", 
      "attrs": {
        "dim": "1", 
        "num_args": "3"
      }, 
      "inputs": [[567, 0, 0], [571, 0, 0], [576, 0, 0]]
    }, 
    {
      "op": "null", 
      "name": "learned_226", 
      "attrs": {"__shape__": "(32, 128, 3, 3)"}, 
      "inputs": []
    }, 
    {
      "op": "null", 
      "name": "learned_227", 
      "attrs": {"__shape__": "(32,)"}, 
      "inputs": []
    }, 
    {
      "op": "Convolution", 
      "name": "convolution113", 
      "attrs": {
        "dilate": "(1, 1)", 
        "kernel": "(3, 3)", 
        "layout": "NCHW", 
        "no_bias": "False", 
        "num_filter": "32", 
        "num_group": "1", 
        "pad": "(1, 1)", 
        "stride": "(1, 1)"
      }, 
      "inputs": [[577, 0, 0], [578, 0, 0], [579, 0, 0]]
    }, 
    {
      "op": "LeakyReLU", 
      "name": "leakyrelu90", 
      "attrs": {"slope": "0.20000000298023224"}, 
      "inputs": [[580, 0, 0]]
    }, 
    {
      "op": "Concat", 
      "name": "concat90", 
      "attrs": {
        "dim": "1", 
        "num_args": "4"
      }, 
      "inputs": [[567, 0, 0], [571, 0, 0], [576, 0, 0], [581, 0, 0]]
    }, 
    {
      "op": "null", 
      "name": "learned_228", 
      "attrs": {"__shape__": "(32, 160, 3, 3)"}, 
      "inputs": []
    }, 
    {
      "op": "null", 
      "name": "learned_229", 
      "attrs": {"__shape__": "(32,)"}, 
      "inputs": []
    }, 
    {
      "op": "Convolution", 
      "name": "convolution114", 
      "attrs": {
        "dilate": "(1, 1)", 
        "kernel": "(3, 3)", 
        "layout": "NCHW", 
        "no_bias": "False", 
        "num_filter": "32", 
        "num_group": "1", 
        "pad": "(1, 1)", 
        "stride": "(1, 1)"
      }, 
      "inputs": [[582, 0, 0], [583, 0, 0], [584, 0, 0]]
    }, 
    {
      "op": "LeakyReLU", 
      "name": "leakyrelu91", 
      "attrs": {"slope": "0.20000000298023224"}, 
      "inputs": [[585, 0, 0]]
    }, 
    {
      "op": "Concat", 
      "name": "concat91", 
      "attrs": {
        "dim": "1", 
        "num_args": "5"
      }, 
      "inputs": [[567, 0, 0], [571, 0, 0], [576, 0, 0], [581, 0, 0], [586, 0, 0]]
    }, 
    {
      "op": "null", 
      "name": "learned_230", 
      "attrs": {"__shape__": "(64, 192, 3, 3)"}, 
      "inputs": []
    }, 
    {
      "op": "null", 
      "name": "learned_231", 
      "attrs": {"__shape__": "(64,)"}, 
      "inputs": []
    }, 
    {
      "op": "Convolution", 
      "name": "convolution115", 
      "attrs": {
        "dilate": "(1, 1)", 
        "kernel": "(3, 3)", 
        "layout": "NCHW", 
        "no_bias": "False", 
        "num_filter": "64", 
        "num_group": "1", 
        "pad": "(1, 1)", 
        "stride": "(1, 1)"
      }, 
      "inputs": [[587, 0, 0], [588, 0, 0], [589, 0, 0]]
    }, 
    {
      "op": "_mul_scalar", 
      "name": "_mulscalar29", 
      "attrs": {"scalar": "0.2"}, 
      "inputs": [[590, 0, 0]]
    }, 
    {
      "op": "broadcast_add", 
      "name": "broadcast_add29", 
      "inputs": [[591, 0, 0], [567, 0, 0]]
    }, 
    {
      "op": "null", 
      "name": "learned_232", 
      "attrs": {"__shape__": "(32, 64, 3, 3)"}, 
      "inputs": []
    }, 
    {
      "op": "null", 
      "name": "learned_233", 
      "attrs": {"__shape__": "(32,)"}, 
      "inputs": []
    }, 
    {
      "op": "Convolution", 
      "name": "convolution116", 
      "attrs": {
        "dilate": "(1, 1)", 
        "kernel": "(3, 3)", 
        "layout": "NCHW", 
        "no_bias": "False", 
        "num_filter": "32", 
        "num_group": "1", 
        "pad": "(1, 1)", 
        "stride": "(1, 1)"
      }, 
      "inputs": [[592, 0, 0], [593, 0, 0], [594, 0, 0]]
    }, 
    {
      "op": "LeakyReLU", 
      "name": "leakyrelu92", 
      "attrs": {"slope": "0.20000000298023224"}, 
      "inputs": [[595, 0, 0]]
    }, 
    {
      "op": "Concat", 
      "name": "concat92", 
      "attrs": {
        "dim": "1", 
        "num_args": "2"
      }, 
      "inputs": [[592, 0, 0], [596, 0, 0]]
    }, 
    {
      "op": "null", 
      "name": "learned_234", 
      "attrs": {"__shape__": "(32, 96, 3, 3)"}, 
      "inputs": []
    }, 
    {
      "op": "null", 
      "name": "learned_235", 
      "attrs": {"__shape__": "(32,)"}, 
      "inputs": []
    }, 
    {
      "op": "Convolution", 
      "name": "convolution117", 
      "attrs": {
        "dilate": "(1, 1)", 
        "kernel": "(3, 3)", 
        "layout": "NCHW", 
        "no_bias": "False", 
        "num_filter": "32", 
        "num_group": "1", 
        "pad": "(1, 1)", 
        "stride": "(1, 1)"
      }, 
      "inputs": [[597, 0, 0], [598, 0, 0], [599, 0, 0]]
    }, 
    {
      "op": "LeakyReLU", 
      "name": "leakyrelu93", 
      "attrs": {"slope": "0.20000000298023224"}, 
      "inputs": [[600, 0, 0]]
    }, 
    {
      "op": "Concat", 
      "name": "concat93", 
      "attrs": {
        "dim": "1", 
        "num_args": "3"
      }, 
      "inputs": [[592, 0, 0], [596, 0, 0], [601, 0, 0]]
    }, 
    {
      "op": "null", 
      "name": "learned_236", 
      "attrs": {"__shape__": "(32, 128, 3, 3)"}, 
      "inputs": []
    }, 
    {
      "op": "null", 
      "name": "learned_237", 
      "attrs": {"__shape__": "(32,)"}, 
      "inputs": []
    }, 
    {
      "op": "Convolution", 
      "name": "convolution118", 
      "attrs": {
        "dilate": "(1, 1)", 
        "kernel": "(3, 3)", 
        "layout": "NCHW", 
        "no_bias": "False", 
        "num_filter": "32", 
        "num_group": "1", 
        "pad": "(1, 1)", 
        "stride": "(1, 1)"
      }, 
      "inputs": [[602, 0, 0], [603, 0, 0], [604, 0, 0]]
    }, 
    {
      "op": "LeakyReLU", 
      "name": "leakyrelu94", 
      "attrs": {"slope": "0.20000000298023224"}, 
      "inputs": [[605, 0, 0]]
    }, 
    {
      "op": "Concat", 
      "name": "concat94", 
      "attrs": {
        "dim": "1", 
        "num_args": "4"
      }, 
      "inputs": [[592, 0, 0], [596, 0, 0], [601, 0, 0], [606, 0, 0]]
    }, 
    {
      "op": "null", 
      "name": "learned_238", 
      "attrs": {"__shape__": "(32, 160, 3, 3)"}, 
      "inputs": []
    }, 
    {
      "op": "null", 
      "name": "learned_239", 
      "attrs": {"__shape__": "(32,)"}, 
      "inputs": []
    }, 
    {
      "op": "Convolution", 
      "name": "convolution119", 
      "attrs": {
        "dilate": "(1, 1)", 
        "kernel": "(3, 3)", 
        "layout": "NCHW", 
        "no_bias": "False", 
        "num_filter": "32", 
        "num_group": "1", 
        "pad": "(1, 1)", 
        "stride": "(1, 1)"
      }, 
      "inputs": [[607, 0, 0], [608, 0, 0], [609, 0, 0]]
    }, 
    {
      "op": "LeakyReLU", 
      "name": "leakyrelu95", 
      "attrs": {"slope": "0.20000000298023224"}, 
      "inputs": [[610, 0, 0]]
    }, 
    {
      "op": "Concat", 
      "name": "concat95", 
      "attrs": {
        "dim": "1", 
        "num_args": "5"
      }, 
      "inputs": [[592, 0, 0], [596, 0, 0], [601, 0, 0], [606, 0, 0], [611, 0, 0]]
    }, 
    {
      "op": "null", 
      "name": "learned_240", 
      "attrs": {"__shape__": "(64, 192, 3, 3)"}, 
      "inputs": []
    }, 
    {
      "op": "null", 
      "name": "learned_241", 
      "attrs": {"__shape__": "(64,)"}, 
      "inputs": []
    }, 
    {
      "op": "Convolution", 
      "name": "convolution120", 
      "attrs": {
        "dilate": "(1, 1)", 
        "kernel": "(3, 3)", 
        "layout": "NCHW", 
        "no_bias": "False", 
        "num_filter": "64", 
        "num_group": "1", 
        "pad": "(1, 1)", 
        "stride": "(1, 1)"
      }, 
      "inputs": [[612, 0, 0], [613, 0, 0], [614, 0, 0]]
    }, 
    {
      "op": "_mul_scalar", 
      "name": "_mulscalar30", 
      "attrs": {"scalar": "0.2"}, 
      "inputs": [[615, 0, 0]]
    }, 
    {
      "op": "broadcast_add", 
      "name": "broadcast_add30", 
      "inputs": [[616, 0, 0], [592, 0, 0]]
    }, 
    {
      "op": "_mul_scalar", 
      "name": "_mulscalar31", 
      "attrs": {"scalar": "0.2"}, 
      "inputs": [[617, 0, 0]]
    }, 
    {
      "op": "broadcast_add", 
      "name": "broadcast_add31", 
      "inputs": [[618, 0, 0], [542, 0, 0]]
    }, 
    {
      "op": "null", 
      "name": "learned_242", 
      "attrs": {"__shape__": "(32, 64, 3, 3)"}, 
      "inputs": []
    }, 
    {
      "op": "null", 
      "name": "learned_243", 
      "attrs": {"__shape__": "(32,)"}, 
      "inputs": []
    }, 
    {
      "op": "Convolution", 
      "name": "convolution121", 
      "attrs": {
        "dilate": "(1, 1)", 
        "kernel": "(3, 3)", 
        "layout": "NCHW", 
        "no_bias": "False", 
        "num_filter": "32", 
        "num_group": "1", 
        "pad": "(1, 1)", 
        "stride": "(1, 1)"
      }, 
      "inputs": [[619, 0, 0], [620, 0, 0], [621, 0, 0]]
    }, 
    {
      "op": "LeakyReLU", 
      "name": "leakyrelu96", 
      "attrs": {"slope": "0.20000000298023224"}, 
      "inputs": [[622, 0, 0]]
    }, 
    {
      "op": "Concat", 
      "name": "concat96", 
      "attrs": {
        "dim": "1", 
        "num_args": "2"
      }, 
      "inputs": [[619, 0, 0], [623, 0, 0]]
    }, 
    {
      "op": "null", 
      "name": "learned_244", 
      "attrs": {"__shape__": "(32, 96, 3, 3)"}, 
      "inputs": []
    }, 
    {
      "op": "null", 
      "name": "learned_245", 
      "attrs": {"__shape__": "(32,)"}, 
      "inputs": []
    }, 
    {
      "op": "Convolution", 
      "name": "convolution122", 
      "attrs": {
        "dilate": "(1, 1)", 
        "kernel": "(3, 3)", 
        "layout": "NCHW", 
        "no_bias": "False", 
        "num_filter": "32", 
        "num_group": "1", 
        "pad": "(1, 1)", 
        "stride": "(1, 1)"
      }, 
      "inputs": [[624, 0, 0], [625, 0, 0], [626, 0, 0]]
    }, 
    {
      "op": "LeakyReLU", 
      "name": "leakyrelu97", 
      "attrs": {"slope": "0.20000000298023224"}, 
      "inputs": [[627, 0, 0]]
    }, 
    {
      "op": "Concat", 
      "name": "concat97", 
      "attrs": {
        "dim": "1", 
        "num_args": "3"
      }, 
      "inputs": [[619, 0, 0], [623, 0, 0], [628, 0, 0]]
    }, 
    {
      "op": "null", 
      "name": "learned_246", 
      "attrs": {"__shape__": "(32, 128, 3, 3)"}, 
      "inputs": []
    }, 
    {
      "op": "null", 
      "name": "learned_247", 
      "attrs": {"__shape__": "(32,)"}, 
      "inputs": []
    }, 
    {
      "op": "Convolution", 
      "name": "convolution123", 
      "attrs": {
        "dilate": "(1, 1)", 
        "kernel": "(3, 3)", 
        "layout": "NCHW", 
        "no_bias": "False", 
        "num_filter": "32", 
        "num_group": "1", 
        "pad": "(1, 1)", 
        "stride": "(1, 1)"
      }, 
      "inputs": [[629, 0, 0], [630, 0, 0], [631, 0, 0]]
    }, 
    {
      "op": "LeakyReLU", 
      "name": "leakyrelu98", 
      "attrs": {"slope": "0.20000000298023224"}, 
      "inputs": [[632, 0, 0]]
    }, 
    {
      "op": "Concat", 
      "name": "concat98", 
      "attrs": {
        "dim": "1", 
        "num_args": "4"
      }, 
      "inputs": [[619, 0, 0], [623, 0, 0], [628, 0, 0], [633, 0, 0]]
    }, 
    {
      "op": "null", 
      "name": "learned_248", 
      "attrs": {"__shape__": "(32, 160, 3, 3)"}, 
      "inputs": []
    }, 
    {
      "op": "null", 
      "name": "learned_249", 
      "attrs": {"__shape__": "(32,)"}, 
      "inputs": []
    }, 
    {
      "op": "Convolution", 
      "name": "convolution124", 
      "attrs": {
        "dilate": "(1, 1)", 
        "kernel": "(3, 3)", 
        "layout": "NCHW", 
        "no_bias": "False", 
        "num_filter": "32", 
        "num_group": "1", 
        "pad": "(1, 1)", 
        "stride": "(1, 1)"
      }, 
      "inputs": [[634, 0, 0], [635, 0, 0], [636, 0, 0]]
    }, 
    {
      "op": "LeakyReLU", 
      "name": "leakyrelu99", 
      "attrs": {"slope": "0.20000000298023224"}, 
      "inputs": [[637, 0, 0]]
    }, 
    {
      "op": "Concat", 
      "name": "concat99", 
      "attrs": {
        "dim": "1", 
        "num_args": "5"
      }, 
      "inputs": [[619, 0, 0], [623, 0, 0], [628, 0, 0], [633, 0, 0], [638, 0, 0]]
    }, 
    {
      "op": "null", 
      "name": "learned_250", 
      "attrs": {"__shape__": "(64, 192, 3, 3)"}, 
      "inputs": []
    }, 
    {
      "op": "null", 
      "name": "learned_251", 
      "attrs": {"__shape__": "(64,)"}, 
      "inputs": []
    }, 
    {
      "op": "Convolution", 
      "name": "convolution125", 
      "attrs": {
        "dilate": "(1, 1)", 
        "kernel": "(3, 3)", 
        "layout": "NCHW", 
        "no_bias": "False", 
        "num_filter": "64", 
        "num_group": "1", 
        "pad": "(1, 1)", 
        "stride": "(1, 1)"
      }, 
      "inputs": [[639, 0, 0], [640, 0, 0], [641, 0, 0]]
    }, 
    {
      "op": "_mul_scalar", 
      "name": "_mulscalar32", 
      "attrs": {"scalar": "0.2"}, 
      "inputs": [[642, 0, 0]]
    }, 
    {
      "op": "broadcast_add", 
      "name": "broadcast_add32", 
      "inputs": [[643, 0, 0], [619, 0, 0]]
    }, 
    {
      "op": "null", 
      "name": "learned_252", 
      "attrs": {"__shape__": "(32, 64, 3, 3)"}, 
      "inputs": []
    }, 
    {
      "op": "null", 
      "name": "learned_253", 
      "attrs": {"__shape__": "(32,)"}, 
      "inputs": []
    }, 
    {
      "op": "Convolution", 
      "name": "convolution126", 
      "attrs": {
        "dilate": "(1, 1)", 
        "kernel": "(3, 3)", 
        "layout": "NCHW", 
        "no_bias": "False", 
        "num_filter": "32", 
        "num_group": "1", 
        "pad": "(1, 1)", 
        "stride": "(1, 1)"
      }, 
      "inputs": [[644, 0, 0], [645, 0, 0], [646, 0, 0]]
    }, 
    {
      "op": "LeakyReLU", 
      "name": "leakyrelu100", 
      "attrs": {"slope": "0.20000000298023224"}, 
      "inputs": [[647, 0, 0]]
    }, 
    {
      "op": "Concat", 
      "name": "concat100", 
      "attrs": {
        "dim": "1", 
        "num_args": "2"
      }, 
      "inputs": [[644, 0, 0], [648, 0, 0]]
    }, 
    {
      "op": "null", 
      "name": "learned_254", 
      "attrs": {"__shape__": "(32, 96, 3, 3)"}, 
      "inputs": []
    }, 
    {
      "op": "null", 
      "name": "learned_255", 
      "attrs": {"__shape__": "(32,)"}, 
      "inputs": []
    }, 
    {
      "op": "Convolution", 
      "name": "convolution127", 
      "attrs": {
        "dilate": "(1, 1)", 
        "kernel": "(3, 3)", 
        "layout": "NCHW", 
        "no_bias": "False", 
        "num_filter": "32", 
        "num_group": "1", 
        "pad": "(1, 1)", 
        "stride": "(1, 1)"
      }, 
      "inputs": [[649, 0, 0], [650, 0, 0], [651, 0, 0]]
    }, 
    {
      "op": "LeakyReLU", 
      "name": "leakyrelu101", 
      "attrs": {"slope": "0.20000000298023224"}, 
      "inputs": [[652, 0, 0]]
    }, 
    {
      "op": "Concat", 
      "name": "concat101", 
      "attrs": {
        "dim": "1", 
        "num_args": "3"
      }, 
      "inputs": [[644, 0, 0], [648, 0, 0], [653, 0, 0]]
    }, 
    {
      "op": "null", 
      "name": "learned_256", 
      "attrs": {"__shape__": "(32, 128, 3, 3)"}, 
      "inputs": []
    }, 
    {
      "op": "null", 
      "name": "learned_257", 
      "attrs": {"__shape__": "(32,)"}, 
      "inputs": []
    }, 
    {
      "op": "Convolution", 
      "name": "convolution128", 
      "attrs": {
        "dilate": "(1, 1)", 
        "kernel": "(3, 3)", 
        "layout": "NCHW", 
        "no_bias": "False", 
        "num_filter": "32", 
        "num_group": "1", 
        "pad": "(1, 1)", 
        "stride": "(1, 1)"
      }, 
      "inputs": [[654, 0, 0], [655, 0, 0], [656, 0, 0]]
    }, 
    {
      "op": "LeakyReLU", 
      "name": "leakyrelu102", 
      "attrs": {"slope": "0.20000000298023224"}, 
      "inputs": [[657, 0, 0]]
    }, 
    {
      "op": "Concat", 
      "name": "concat102", 
      "attrs": {
        "dim": "1", 
        "num_args": "4"
      }, 
      "inputs": [[644, 0, 0], [648, 0, 0], [653, 0, 0], [658, 0, 0]]
    }, 
    {
      "op": "null", 
      "name": "learned_258", 
      "attrs": {"__shape__": "(32, 160, 3, 3)"}, 
      "inputs": []
    }, 
    {
      "op": "null", 
      "name": "learned_259", 
      "attrs": {"__shape__": "(32,)"}, 
      "inputs": []
    }, 
    {
      "op": "Convolution", 
      "name": "convolution129", 
      "attrs": {
        "dilate": "(1, 1)", 
        "kernel": "(3, 3)", 
        "layout": "NCHW", 
        "no_bias": "False", 
        "num_filter": "32", 
        "num_group": "1", 
        "pad": "(1, 1)", 
        "stride": "(1, 1)"
      }, 
      "inputs": [[659, 0, 0], [660, 0, 0], [661, 0, 0]]
    }, 
    {
      "op": "LeakyReLU", 
      "name": "leakyrelu103", 
      "attrs": {"slope": "0.20000000298023224"}, 
      "inputs": [[662, 0, 0]]
    }, 
    {
      "op": "Concat", 
      "name": "concat103", 
      "attrs": {
        "dim": "1", 
        "num_args": "5"
      }, 
      "inputs": [[644, 0, 0], [648, 0, 0], [653, 0, 0], [658, 0, 0], [663, 0, 0]]
    }, 
    {
      "op": "null", 
      "name": "learned_260", 
      "attrs": {"__shape__": "(64, 192, 3, 3)"}, 
      "inputs": []
    }, 
    {
      "op": "null", 
      "name": "learned_261", 
      "attrs": {"__shape__": "(64,)"}, 
      "inputs": []
    }, 
    {
      "op": "Convolution", 
      "name": "convolution130", 
      "attrs": {
        "dilate": "(1, 1)", 
        "kernel": "(3, 3)", 
        "layout": "NCHW", 
        "no_bias": "False", 
        "num_filter": "64", 
        "num_group": "1", 
        "pad": "(1, 1)", 
        "stride": "(1, 1)"
      }, 
      "inputs": [[664, 0, 0], [665, 0, 0], [666, 0, 0]]
    }, 
    {
      "op": "_mul_scalar", 
      "name": "_mulscalar33", 
      "attrs": {"scalar": "0.2"}, 
      "inputs": [[667, 0, 0]]
    }, 
    {
      "op": "broadcast_add", 
      "name": "broadcast_add33", 
      "inputs": [[668, 0, 0], [644, 0, 0]]
    }, 
    {
      "op": "null", 
      "name": "learned_262", 
      "attrs": {"__shape__": "(32, 64, 3, 3)"}, 
      "inputs": []
    }, 
    {
      "op": "null", 
      "name": "learned_263", 
      "attrs": {"__shape__": "(32,)"}, 
      "inputs": []
    }, 
    {
      "op": "Convolution", 
      "name": "convolution131", 
      "attrs": {
        "dilate": "(1, 1)", 
        "kernel": "(3, 3)", 
        "layout": "NCHW", 
        "no_bias": "False", 
        "num_filter": "32", 
        "num_group": "1", 
        "pad": "(1, 1)", 
        "stride": "(1, 1)"
      }, 
      "inputs": [[669, 0, 0], [670, 0, 0], [671, 0, 0]]
    }, 
    {
      "op": "LeakyReLU", 
      "name": "leakyrelu104", 
      "attrs": {"slope": "0.20000000298023224"}, 
      "inputs": [[672, 0, 0]]
    }, 
    {
      "op": "Concat", 
      "name": "concat104", 
      "attrs": {
        "dim": "1", 
        "num_args": "2"
      }, 
      "inputs": [[669, 0, 0], [673, 0, 0]]
    }, 
    {
      "op": "null", 
      "name": "learned_264", 
      "attrs": {"__shape__": "(32, 96, 3, 3)"}, 
      "inputs": []
    }, 
    {
      "op": "null", 
      "name": "learned_265", 
      "attrs": {"__shape__": "(32,)"}, 
      "inputs": []
    }, 
    {
      "op": "Convolution", 
      "name": "convolution132", 
      "attrs": {
        "dilate": "(1, 1)", 
        "kernel": "(3, 3)", 
        "layout": "NCHW", 
        "no_bias": "False", 
        "num_filter": "32", 
        "num_group": "1", 
        "pad": "(1, 1)", 
        "stride": "(1, 1)"
      }, 
      "inputs": [[674, 0, 0], [675, 0, 0], [676, 0, 0]]
    }, 
    {
      "op": "LeakyReLU", 
      "name": "leakyrelu105", 
      "attrs": {"slope": "0.20000000298023224"}, 
      "inputs": [[677, 0, 0]]
    }, 
    {
      "op": "Concat", 
      "name": "concat105", 
      "attrs": {
        "dim": "1", 
        "num_args": "3"
      }, 
      "inputs": [[669, 0, 0], [673, 0, 0], [678, 0, 0]]
    }, 
    {
      "op": "null", 
      "name": "learned_266", 
      "attrs": {"__shape__": "(32, 128, 3, 3)"}, 
      "inputs": []
    }, 
    {
      "op": "null", 
      "name": "learned_267", 
      "attrs": {"__shape__": "(32,)"}, 
      "inputs": []
    }, 
    {
      "op": "Convolution", 
      "name": "convolution133", 
      "attrs": {
        "dilate": "(1, 1)", 
        "kernel": "(3, 3)", 
        "layout": "NCHW", 
        "no_bias": "False", 
        "num_filter": "32", 
        "num_group": "1", 
        "pad": "(1, 1)", 
        "stride": "(1, 1)"
      }, 
      "inputs": [[679, 0, 0], [680, 0, 0], [681, 0, 0]]
    }, 
    {
      "op": "LeakyReLU", 
      "name": "leakyrelu106", 
      "attrs": {"slope": "0.20000000298023224"}, 
      "inputs": [[682, 0, 0]]
    }, 
    {
      "op": "Concat", 
      "name": "concat106", 
      "attrs": {
        "dim": "1", 
        "num_args": "4"
      }, 
      "inputs": [[669, 0, 0], [673, 0, 0], [678, 0, 0], [683, 0, 0]]
    }, 
    {
      "op": "null", 
      "name": "learned_268", 
      "attrs": {"__shape__": "(32, 160, 3, 3)"}, 
      "inputs": []
    }, 
    {
      "op": "null", 
      "name": "learned_269", 
      "attrs": {"__shape__": "(32,)"}, 
      "inputs": []
    }, 
    {
      "op": "Convolution", 
      "name": "convolution134", 
      "attrs": {
        "dilate": "(1, 1)", 
        "kernel": "(3, 3)", 
        "layout": "NCHW", 
        "no_bias": "False", 
        "num_filter": "32", 
        "num_group": "1", 
        "pad": "(1, 1)", 
        "stride": "(1, 1)"
      }, 
      "inputs": [[684, 0, 0], [685, 0, 0], [686, 0, 0]]
    }, 
    {
      "op": "LeakyReLU", 
      "name": "leakyrelu107", 
      "attrs": {"slope": "0.20000000298023224"}, 
      "inputs": [[687, 0, 0]]
    }, 
    {
      "op": "Concat", 
      "name": "concat107", 
      "attrs": {
        "dim": "1", 
        "num_args": "5"
      }, 
      "inputs": [[669, 0, 0], [673, 0, 0], [678, 0, 0], [683, 0, 0], [688, 0, 0]]
    }, 
    {
      "op": "null", 
      "name": "learned_270", 
      "attrs": {"__shape__": "(64, 192, 3, 3)"}, 
      "inputs": []
    }, 
    {
      "op": "null", 
      "name": "learned_271", 
      "attrs": {"__shape__": "(64,)"}, 
      "inputs": []
    }, 
    {
      "op": "Convolution", 
      "name": "convolution135", 
      "attrs": {
        "dilate": "(1, 1)", 
        "kernel": "(3, 3)", 
        "layout": "NCHW", 
        "no_bias": "False", 
        "num_filter": "64", 
        "num_group": "1", 
        "pad": "(1, 1)", 
        "stride": "(1, 1)"
      }, 
      "inputs": [[689, 0, 0], [690, 0, 0], [691, 0, 0]]
    }, 
    {
      "op": "_mul_scalar", 
      "name": "_mulscalar34", 
      "attrs": {"scalar": "0.2"}, 
      "inputs": [[692, 0, 0]]
    }, 
    {
      "op": "broadcast_add", 
      "name": "broadcast_add34", 
      "inputs": [[693, 0, 0], [669, 0, 0]]
    }, 
    {
      "op": "_mul_scalar", 
      "name": "_mulscalar35", 
      "attrs": {"scalar": "0.2"}, 
      "inputs": [[694, 0, 0]]
    }, 
    {
      "op": "broadcast_add", 
      "name": "broadcast_add35", 
      "inputs": [[695, 0, 0], [619, 0, 0]]
    }, 
    {
      "op": "null", 
      "name": "learned_272", 
      "attrs": {"__shape__": "(32, 64, 3, 3)"}, 
      "inputs": []
    }, 
    {
      "op": "null", 
      "name": "learned_273", 
      "attrs": {"__shape__": "(32,)"}, 
      "inputs": []
    }, 
    {
      "op": "Convolution", 
      "name": "convolution136", 
      "attrs": {
        "dilate": "(1, 1)", 
        "kernel": "(3, 3)", 
        "layout": "NCHW", 
        "no_bias": "False", 
        "num_filter": "32", 
        "num_group": "1", 
        "pad": "(1, 1)", 
        "stride": "(1, 1)"
      }, 
      "inputs": [[696, 0, 0], [697, 0, 0], [698, 0, 0]]
    }, 
    {
      "op": "LeakyReLU", 
      "name": "leakyrelu108", 
      "attrs": {"slope": "0.20000000298023224"}, 
      "inputs": [[699, 0, 0]]
    }, 
    {
      "op": "Concat", 
      "name": "concat108", 
      "attrs": {
        "dim": "1", 
        "num_args": "2"
      }, 
      "inputs": [[696, 0, 0], [700, 0, 0]]
    }, 
    {
      "op": "null", 
      "name": "learned_274", 
      "attrs": {"__shape__": "(32, 96, 3, 3)"}, 
      "inputs": []
    }, 
    {
      "op": "null", 
      "name": "learned_275", 
      "attrs": {"__shape__": "(32,)"}, 
      "inputs": []
    }, 
    {
      "op": "Convolution", 
      "name": "convolution137", 
      "attrs": {
        "dilate": "(1, 1)", 
        "kernel": "(3, 3)", 
        "layout": "NCHW", 
        "no_bias": "False", 
        "num_filter": "32", 
        "num_group": "1", 
        "pad": "(1, 1)", 
        "stride": "(1, 1)"
      }, 
      "inputs": [[701, 0, 0], [702, 0, 0], [703, 0, 0]]
    }, 
    {
      "op": "LeakyReLU", 
      "name": "leakyrelu109", 
      "attrs": {"slope": "0.20000000298023224"}, 
      "inputs": [[704, 0, 0]]
    }, 
    {
      "op": "Concat", 
      "name": "concat109", 
      "attrs": {
        "dim": "1", 
        "num_args": "3"
      }, 
      "inputs": [[696, 0, 0], [700, 0, 0], [705, 0, 0]]
    }, 
    {
      "op": "null", 
      "name": "learned_276", 
      "attrs": {"__shape__": "(32, 128, 3, 3)"}, 
      "inputs": []
    }, 
    {
      "op": "null", 
      "name": "learned_277", 
      "attrs": {"__shape__": "(32,)"}, 
      "inputs": []
    }, 
    {
      "op": "Convolution", 
      "name": "convolution138", 
      "attrs": {
        "dilate": "(1, 1)", 
        "kernel": "(3, 3)", 
        "layout": "NCHW", 
        "no_bias": "False", 
        "num_filter": "32", 
        "num_group": "1", 
        "pad": "(1, 1)", 
        "stride": "(1, 1)"
      }, 
      "inputs": [[706, 0, 0], [707, 0, 0], [708, 0, 0]]
    }, 
    {
      "op": "LeakyReLU", 
      "name": "leakyrelu110", 
      "attrs": {"slope": "0.20000000298023224"}, 
      "inputs": [[709, 0, 0]]
    }, 
    {
      "op": "Concat", 
      "name": "concat110", 
      "attrs": {
        "dim": "1", 
        "num_args": "4"
      }, 
      "inputs": [[696, 0, 0], [700, 0, 0], [705, 0, 0], [710, 0, 0]]
    }, 
    {
      "op": "null", 
      "name": "learned_278", 
      "attrs": {"__shape__": "(32, 160, 3, 3)"}, 
      "inputs": []
    }, 
    {
      "op": "null", 
      "name": "learned_279", 
      "attrs": {"__shape__": "(32,)"}, 
      "inputs": []
    }, 
    {
      "op": "Convolution", 
      "name": "convolution139", 
      "attrs": {
        "dilate": "(1, 1)", 
        "kernel": "(3, 3)", 
        "layout": "NCHW", 
        "no_bias": "False", 
        "num_filter": "32", 
        "num_group": "1", 
        "pad": "(1, 1)", 
        "stride": "(1, 1)"
      }, 
      "inputs": [[711, 0, 0], [712, 0, 0], [713, 0, 0]]
    }, 
    {
      "op": "LeakyReLU", 
      "name": "leakyrelu111", 
      "attrs": {"slope": "0.20000000298023224"}, 
      "inputs": [[714, 0, 0]]
    }, 
    {
      "op": "Concat", 
      "name": "concat111", 
      "attrs": {
        "dim": "1", 
        "num_args": "5"
      }, 
      "inputs": [[696, 0, 0], [700, 0, 0], [705, 0, 0], [710, 0, 0], [715, 0, 0]]
    }, 
    {
      "op": "null", 
      "name": "learned_280", 
      "attrs": {"__shape__": "(64, 192, 3, 3)"}, 
      "inputs": []
    }, 
    {
      "op": "null", 
      "name": "learned_281", 
      "attrs": {"__shape__": "(64,)"}, 
      "inputs": []
    }, 
    {
      "op": "Convolution", 
      "name": "convolution140", 
      "attrs": {
        "dilate": "(1, 1)", 
        "kernel": "(3, 3)", 
        "layout": "NCHW", 
        "no_bias": "False", 
        "num_filter": "64", 
        "num_group": "1", 
        "pad": "(1, 1)", 
        "stride": "(1, 1)"
      }, 
      "inputs": [[716, 0, 0], [717, 0, 0], [718, 0, 0]]
    }, 
    {
      "op": "_mul_scalar", 
      "name": "_mulscalar36", 
      "attrs": {"scalar": "0.2"}, 
      "inputs": [[719, 0, 0]]
    }, 
    {
      "op": "broadcast_add", 
      "name": "broadcast_add36", 
      "inputs": [[720, 0, 0], [696, 0, 0]]
    }, 
    {
      "op": "null", 
      "name": "learned_282", 
      "attrs": {"__shape__": "(32, 64, 3, 3)"}, 
      "inputs": []
    }, 
    {
      "op": "null", 
      "name": "learned_283", 
      "attrs": {"__shape__": "(32,)"}, 
      "inputs": []
    }, 
    {
      "op": "Convolution", 
      "name": "convolution141", 
      "attrs": {
        "dilate": "(1, 1)", 
        "kernel": "(3, 3)", 
        "layout": "NCHW", 
        "no_bias": "False", 
        "num_filter": "32", 
        "num_group": "1", 
        "pad": "(1, 1)", 
        "stride": "(1, 1)"
      }, 
      "inputs": [[721, 0, 0], [722, 0, 0], [723, 0, 0]]
    }, 
    {
      "op": "LeakyReLU", 
      "name": "leakyrelu112", 
      "attrs": {"slope": "0.20000000298023224"}, 
      "inputs": [[724, 0, 0]]
    }, 
    {
      "op": "Concat", 
      "name": "concat112", 
      "attrs": {
        "dim": "1", 
        "num_args": "2"
      }, 
      "inputs": [[721, 0, 0], [725, 0, 0]]
    }, 
    {
      "op": "null", 
      "name": "learned_284", 
      "attrs": {"__shape__": "(32, 96, 3, 3)"}, 
      "inputs": []
    }, 
    {
      "op": "null", 
      "name": "learned_285", 
      "attrs": {"__shape__": "(32,)"}, 
      "inputs": []
    }, 
    {
      "op": "Convolution", 
      "name": "convolution142", 
      "attrs": {
        "dilate": "(1, 1)", 
        "kernel": "(3, 3)", 
        "layout": "NCHW", 
        "no_bias": "False", 
        "num_filter": "32", 
        "num_group": "1", 
        "pad": "(1, 1)", 
        "stride": "(1, 1)"
      }, 
      "inputs": [[726, 0, 0], [727, 0, 0], [728, 0, 0]]
    }, 
    {
      "op": "LeakyReLU", 
      "name": "leakyrelu113", 
      "attrs": {"slope": "0.20000000298023224"}, 
      "inputs": [[729, 0, 0]]
    }, 
    {
      "op": "Concat", 
      "name": "concat113", 
      "attrs": {
        "dim": "1", 
        "num_args": "3"
      }, 
      "inputs": [[721, 0, 0], [725, 0, 0], [730, 0, 0]]
    }, 
    {
      "op": "null", 
      "name": "learned_286", 
      "attrs": {"__shape__": "(32, 128, 3, 3)"}, 
      "inputs": []
    }, 
    {
      "op": "null", 
      "name": "learned_287", 
      "attrs": {"__shape__": "(32,)"}, 
      "inputs": []
    }, 
    {
      "op": "Convolution", 
      "name": "convolution143", 
      "attrs": {
        "dilate": "(1, 1)", 
        "kernel": "(3, 3)", 
        "layout": "NCHW", 
        "no_bias": "False", 
        "num_filter": "32", 
        "num_group": "1", 
        "pad": "(1, 1)", 
        "stride": "(1, 1)"
      }, 
      "inputs": [[731, 0, 0], [732, 0, 0], [733, 0, 0]]
    }, 
    {
      "op": "LeakyReLU", 
      "name": "leakyrelu114", 
      "attrs": {"slope": "0.20000000298023224"}, 
      "inputs": [[734, 0, 0]]
    }, 
    {
      "op": "Concat", 
      "name": "concat114", 
      "attrs": {
        "dim": "1", 
        "num_args": "4"
      }, 
      "inputs": [[721, 0, 0], [725, 0, 0], [730, 0, 0], [735, 0, 0]]
    }, 
    {
      "op": "null", 
      "name": "learned_288", 
      "attrs": {"__shape__": "(32, 160, 3, 3)"}, 
      "inputs": []
    }, 
    {
      "op": "null", 
      "name": "learned_289", 
      "attrs": {"__shape__": "(32,)"}, 
      "inputs": []
    }, 
    {
      "op": "Convolution", 
      "name": "convolution144", 
      "attrs": {
        "dilate": "(1, 1)", 
        "kernel": "(3, 3)", 
        "layout": "NCHW", 
        "no_bias": "False", 
        "num_filter": "32", 
        "num_group": "1", 
        "pad": "(1, 1)", 
        "stride": "(1, 1)"
      }, 
      "inputs": [[736, 0, 0], [737, 0, 0], [738, 0, 0]]
    }, 
    {
      "op": "LeakyReLU", 
      "name": "leakyrelu115", 
      "attrs": {"slope": "0.20000000298023224"}, 
      "inputs": [[739, 0, 0]]
    }, 
    {
      "op": "Concat", 
      "name": "concat115", 
      "attrs": {
        "dim": "1", 
        "num_args": "5"
      }, 
      "inputs": [[721, 0, 0], [725, 0, 0], [730, 0, 0], [735, 0, 0], [740, 0, 0]]
    }, 
    {
      "op": "null", 
      "name": "learned_290", 
      "attrs": {"__shape__": "(64, 192, 3, 3)"}, 
      "inputs": []
    }, 
    {
      "op": "null", 
      "name": "learned_291", 
      "attrs": {"__shape__": "(64,)"}, 
      "inputs": []
    }, 
    {
      "op": "Convolution", 
      "name": "convolution145", 
      "attrs": {
        "dilate": "(1, 1)", 
        "kernel": "(3, 3)", 
        "layout": "NCHW", 
        "no_bias": "False", 
        "num_filter": "64", 
        "num_group": "1", 
        "pad": "(1, 1)", 
        "stride": "(1, 1)"
      }, 
      "inputs": [[741, 0, 0], [742, 0, 0], [743, 0, 0]]
    }, 
    {
      "op": "_mul_scalar", 
      "name": "_mulscalar37", 
      "attrs": {"scalar": "0.2"}, 
      "inputs": [[744, 0, 0]]
    }, 
    {
      "op": "broadcast_add", 
      "name": "broadcast_add37", 
      "inputs": [[745, 0, 0], [721, 0, 0]]
    }, 
    {
      "op": "null", 
      "name": "learned_292", 
      "attrs": {"__shape__": "(32, 64, 3, 3)"}, 
      "inputs": []
    }, 
    {
      "op": "null", 
      "name": "learned_293", 
      "attrs": {"__shape__": "(32,)"}, 
      "inputs": []
    }, 
    {
      "op": "Convolution", 
      "name": "convolution146", 
      "attrs": {
        "dilate": "(1, 1)", 
        "kernel": "(3, 3)", 
        "layout": "NCHW", 
        "no_bias": "False", 
        "num_filter": "32", 
        "num_group": "1", 
        "pad": "(1, 1)", 
        "stride": "(1, 1)"
      }, 
      "inputs": [[746, 0, 0], [747, 0, 0], [748, 0, 0]]
    }, 
    {
      "op": "LeakyReLU", 
      "name": "leakyrelu116", 
      "attrs": {"slope": "0.20000000298023224"}, 
      "inputs": [[749, 0, 0]]
    }, 
    {
      "op": "Concat", 
      "name": "concat116", 
      "attrs": {
        "dim": "1", 
        "num_args": "2"
      }, 
      "inputs": [[746, 0, 0], [750, 0, 0]]
    }, 
    {
      "op": "null", 
      "name": "learned_294", 
      "attrs": {"__shape__": "(32, 96, 3, 3)"}, 
      "inputs": []
    }, 
    {
      "op": "null", 
      "name": "learned_295", 
      "attrs": {"__shape__": "(32,)"}, 
      "inputs": []
    }, 
    {
      "op": "Convolution", 
      "name": "convolution147", 
      "attrs": {
        "dilate": "(1, 1)", 
        "kernel": "(3, 3)", 
        "layout": "NCHW", 
        "no_bias": "False", 
        "num_filter": "32", 
        "num_group": "1", 
        "pad": "(1, 1)", 
        "stride": "(1, 1)"
      }, 
      "inputs": [[751, 0, 0], [752, 0, 0], [753, 0, 0]]
    }, 
    {
      "op": "LeakyReLU", 
      "name": "leakyrelu117", 
      "attrs": {"slope": "0.20000000298023224"}, 
      "inputs": [[754, 0, 0]]
    }, 
    {
      "op": "Concat", 
      "name": "concat117", 
      "attrs": {
        "dim": "1", 
        "num_args": "3"
      }, 
      "inputs": [[746, 0, 0], [750, 0, 0], [755, 0, 0]]
    }, 
    {
      "op": "null", 
      "name": "learned_296", 
      "attrs": {"__shape__": "(32, 128, 3, 3)"}, 
      "inputs": []
    }, 
    {
      "op": "null", 
      "name": "learned_297", 
      "attrs": {"__shape__": "(32,)"}, 
      "inputs": []
    }, 
    {
      "op": "Convolution", 
      "name": "convolution148", 
      "attrs": {
        "dilate": "(1, 1)", 
        "kernel": "(3, 3)", 
        "layout": "NCHW", 
        "no_bias": "False", 
        "num_filter": "32", 
        "num_group": "1", 
        "pad": "(1, 1)", 
        "stride": "(1, 1)"
      }, 
      "inputs": [[756, 0, 0], [757, 0, 0], [758, 0, 0]]
    }, 
    {
      "op": "LeakyReLU", 
      "name": "leakyrelu118", 
      "attrs": {"slope": "0.20000000298023224"}, 
      "inputs": [[759, 0, 0]]
    }, 
    {
      "op": "Concat", 
      "name": "concat118", 
      "attrs": {
        "dim": "1", 
        "num_args": "4"
      }, 
      "inputs": [[746, 0, 0], [750, 0, 0], [755, 0, 0], [760, 0, 0]]
    }, 
    {
      "op": "null", 
      "name": "learned_298", 
      "attrs": {"__shape__": "(32, 160, 3, 3)"}, 
      "inputs": []
    }, 
    {
      "op": "null", 
      "name": "learned_299", 
      "attrs": {"__shape__": "(32,)"}, 
      "inputs": []
    }, 
    {
      "op": "Convolution", 
      "name": "convolution149", 
      "attrs": {
        "dilate": "(1, 1)", 
        "kernel": "(3, 3)", 
        "layout": "NCHW", 
        "no_bias": "False", 
        "num_filter": "32", 
        "num_group": "1", 
        "pad": "(1, 1)", 
        "stride": "(1, 1)"
      }, 
      "inputs": [[761, 0, 0], [762, 0, 0], [763, 0, 0]]
    }, 
    {
      "op": "LeakyReLU", 
      "name": "leakyrelu119", 
      "attrs": {"slope": "0.20000000298023224"}, 
      "inputs": [[764, 0, 0]]
    }, 
    {
      "op": "Concat", 
      "name": "concat119", 
      "attrs": {
        "dim": "1", 
        "num_args": "5"
      }, 
      "inputs": [[746, 0, 0], [750, 0, 0], [755, 0, 0], [760, 0, 0], [765, 0, 0]]
    }, 
    {
      "op": "null", 
      "name": "learned_300", 
      "attrs": {"__shape__": "(64, 192, 3, 3)"}, 
      "inputs": []
    }, 
    {
      "op": "null", 
      "name": "learned_301", 
      "attrs": {"__shape__": "(64,)"}, 
      "inputs": []
    }, 
    {
      "op": "Convolution", 
      "name": "convolution150", 
      "attrs": {
        "dilate": "(1, 1)", 
        "kernel": "(3, 3)", 
        "layout": "NCHW", 
        "no_bias": "False", 
        "num_filter": "64", 
        "num_group": "1", 
        "pad": "(1, 1)", 
        "stride": "(1, 1)"
      }, 
      "inputs": [[766, 0, 0], [767, 0, 0], [768, 0, 0]]
    }, 
    {
      "op": "_mul_scalar", 
      "name": "_mulscalar38", 
      "attrs": {"scalar": "0.2"}, 
      "inputs": [[769, 0, 0]]
    }, 
    {
      "op": "broadcast_add", 
      "name": "broadcast_add38", 
      "inputs": [[770, 0, 0], [746, 0, 0]]
    }, 
    {
      "op": "_mul_scalar", 
      "name": "_mulscalar39", 
      "attrs": {"scalar": "0.2"}, 
      "inputs": [[771, 0, 0]]
    }, 
    {
      "op": "broadcast_add", 
      "name": "broadcast_add39", 
      "inputs": [[772, 0, 0], [696, 0, 0]]
    }, 
    {
      "op": "null", 
      "name": "learned_302", 
      "attrs": {"__shape__": "(32, 64, 3, 3)"}, 
      "inputs": []
    }, 
    {
      "op": "null", 
      "name": "learned_303", 
      "attrs": {"__shape__": "(32,)"}, 
      "inputs": []
    }, 
    {
      "op": "Convolution", 
      "name": "convolution151", 
      "attrs": {
        "dilate": "(1, 1)", 
        "kernel": "(3, 3)", 
        "layout": "NCHW", 
        "no_bias": "False", 
        "num_filter": "32", 
        "num_group": "1", 
        "pad": "(1, 1)", 
        "stride": "(1, 1)"
      }, 
      "inputs": [[773, 0, 0], [774, 0, 0], [775, 0, 0]]
    }, 
    {
      "op": "LeakyReLU", 
      "name": "leakyrelu120", 
      "attrs": {"slope": "0.20000000298023224"}, 
      "inputs": [[776, 0, 0]]
    }, 
    {
      "op": "Concat", 
      "name": "concat120", 
      "attrs": {
        "dim": "1", 
        "num_args": "2"
      }, 
      "inputs": [[773, 0, 0], [777, 0, 0]]
    }, 
    {
      "op": "null", 
      "name": "learned_304", 
      "attrs": {"__shape__": "(32, 96, 3, 3)"}, 
      "inputs": []
    }, 
    {
      "op": "null", 
      "name": "learned_305", 
      "attrs": {"__shape__": "(32,)"}, 
      "inputs": []
    }, 
    {
      "op": "Convolution", 
      "name": "convolution152", 
      "attrs": {
        "dilate": "(1, 1)", 
        "kernel": "(3, 3)", 
        "layout": "NCHW", 
        "no_bias": "False", 
        "num_filter": "32", 
        "num_group": "1", 
        "pad": "(1, 1)", 
        "stride": "(1, 1)"
      }, 
      "inputs": [[778, 0, 0], [779, 0, 0], [780, 0, 0]]
    }, 
    {
      "op": "LeakyReLU", 
      "name": "leakyrelu121", 
…
        "dilate": "(1, 1)", 
        "kernel": "(3, 3)", 
        "layout": "NCHW", 
        "no_bias": "False", 
        "num_filter": "32", 
        "num_group": "1", 
        "pad": "(1, 1)", 
        "stride": "(1, 1)"
      }, 
      "inputs": [[1670, 0, 0], [1671, 0, 0], [1672, 0, 0]]
    }, 
    {
      "op": "LeakyReLU", 
      "name": "leakyrelu260", 
      "attrs": {"slope": "0.20000000298023224"}, 
      "inputs": [[1673, 0, 0]]
    }, 
    {
      "op": "Concat", 
      "name": "concat260", 
      "attrs": {
        "dim": "1", 
        "num_args": "2"
      }, 
      "inputs": [[1670, 0, 0], [1674, 0, 0]]
    }, 
    {
      "op": "null", 
      "name": "learned_654", 
      "attrs": {"__shape__": "(32, 96, 3, 3)"}, 
      "inputs": []
    }, 
    {
      "op": "null", 
      "name": "learned_655", 
      "attrs": {"__shape__": "(32,)"}, 
      "inputs": []
    }, 
    {
      "op": "Convolution", 
      "name": "convolution327", 
      "attrs": {
        "dilate": "(1, 1)", 
        "kernel": "(3, 3)", 
        "layout": "NCHW", 
        "no_bias": "False", 
        "num_filter": "32", 
        "num_group": "1", 
        "pad": "(1, 1)", 
        "stride": "(1, 1)"
      }, 
      "inputs": [[1675, 0, 0], [1676, 0, 0], [1677, 0, 0]]
    }, 
    {
      "op": "LeakyReLU", 
      "name": "leakyrelu261", 
      "attrs": {"slope": "0.20000000298023224"}, 
      "inputs": [[1678, 0, 0]]
    }, 
    {
      "op": "Concat", 
      "name": "concat261", 
      "attrs": {
        "dim": "1", 
        "num_args": "3"
      }, 
      "inputs": [[1670, 0, 0], [1674, 0, 0], [1679, 0, 0]]
    }, 
    {
      "op": "null", 
      "name": "learned_656", 
      "attrs": {"__shape__": "(32, 128, 3, 3)"}, 
      "inputs": []
    }, 
    {
      "op": "null", 
      "name": "learned_657", 
      "attrs": {"__shape__": "(32,)"}, 
      "inputs": []
    }, 
    {
      "op": "Convolution", 
      "name": "convolution328", 
      "attrs": {
        "dilate": "(1, 1)", 
        "kernel": "(3, 3)", 
        "layout": "NCHW", 
        "no_bias": "False", 
        "num_filter": "32", 
        "num_group": "1", 
        "pad": "(1, 1)", 
        "stride": "(1, 1)"
      }, 
      "inputs": [[1680, 0, 0], [1681, 0, 0], [1682, 0, 0]]
    }, 
    {
      "op": "LeakyReLU", 
      "name": "leakyrelu262", 
      "attrs": {"slope": "0.20000000298023224"}, 
      "inputs": [[1683, 0, 0]]
    }, 
    {
      "op": "Concat", 
      "name": "concat262", 
      "attrs": {
        "dim": "1", 
        "num_args": "4"
      }, 
      "inputs": [[1670, 0, 0], [1674, 0, 0], [1679, 0, 0], [1684, 0, 0]]
    }, 
    {
      "op": "null", 
      "name": "learned_658", 
      "attrs": {"__shape__": "(32, 160, 3, 3)"}, 
      "inputs": []
    }, 
    {
      "op": "null", 
      "name": "learned_659", 
      "attrs": {"__shape__": "(32,)"}, 
      "inputs": []
    }, 
    {
      "op": "Convolution", 
      "name": "convolution329", 
      "attrs": {
        "dilate": "(1, 1)", 
        "kernel": "(3, 3)", 
        "layout": "NCHW", 
        "no_bias": "False", 
        "num_filter": "32", 
        "num_group": "1", 
        "pad": "(1, 1)", 
        "stride": "(1, 1)"
      }, 
      "inputs": [[1685, 0, 0], [1686, 0, 0], [1687, 0, 0]]
    }, 
    {
      "op": "LeakyReLU", 
      "name": "leakyrelu263", 
      "attrs": {"slope": "0.20000000298023224"}, 
      "inputs": [[1688, 0, 0]]
    }, 
    {
      "op": "Concat", 
      "name": "concat263", 
      "attrs": {
        "dim": "1", 
        "num_args": "5"
      }, 
      "inputs": [[1670, 0, 0], [1674, 0, 0], [1679, 0, 0], [1684, 0, 0], [1689, 0, 0]]
    }, 
    {
      "op": "null", 
      "name": "learned_660", 
      "attrs": {"__shape__": "(64, 192, 3, 3)"}, 
      "inputs": []
    }, 
    {
      "op": "null", 
      "name": "learned_661", 
      "attrs": {"__shape__": "(64,)"}, 
      "inputs": []
    }, 
    {
      "op": "Convolution", 
      "name": "convolution330", 
      "attrs": {
        "dilate": "(1, 1)", 
        "kernel": "(3, 3)", 
        "layout": "NCHW", 
        "no_bias": "False", 
        "num_filter": "64", 
        "num_group": "1", 
        "pad": "(1, 1)", 
        "stride": "(1, 1)"
      }, 
      "inputs": [[1690, 0, 0], [1691, 0, 0], [1692, 0, 0]]
    }, 
    {
      "op": "_mul_scalar", 
      "name": "_mulscalar86", 
      "attrs": {"scalar": "0.2"}, 
      "inputs": [[1693, 0, 0]]
    }, 
    {
      "op": "broadcast_add", 
      "name": "broadcast_add86", 
      "inputs": [[1694, 0, 0], [1670, 0, 0]]
    }, 
    {
      "op": "_mul_scalar", 
      "name": "_mulscalar87", 
      "attrs": {"scalar": "0.2"}, 
      "inputs": [[1695, 0, 0]]
    }, 
    {
      "op": "broadcast_add", 
      "name": "broadcast_add87", 
      "inputs": [[1696, 0, 0], [1620, 0, 0]]
    }, 
    {
      "op": "null", 
      "name": "learned_662", 
      "attrs": {"__shape__": "(32, 64, 3, 3)"}, 
      "inputs": []
    }, 
    {
      "op": "null", 
      "name": "learned_663", 
      "attrs": {"__shape__": "(32,)"}, 
      "inputs": []
    }, 
    {
      "op": "Convolution", 
      "name": "convolution331", 
      "attrs": {
        "dilate": "(1, 1)", 
        "kernel": "(3, 3)", 
        "layout": "NCHW", 
        "no_bias": "False", 
        "num_filter": "32", 
        "num_group": "1", 
        "pad": "(1, 1)", 
        "stride": "(1, 1)"
      }, 
      "inputs": [[1697, 0, 0], [1698, 0, 0], [1699, 0, 0]]
    }, 
    {
      "op": "LeakyReLU", 
      "name": "leakyrelu264", 
      "attrs": {"slope": "0.20000000298023224"}, 
      "inputs": [[1700, 0, 0]]
    }, 
    {
      "op": "Concat", 
      "name": "concat264", 
      "attrs": {
        "dim": "1", 
        "num_args": "2"
      }, 
      "inputs": [[1697, 0, 0], [1701, 0, 0]]
    }, 
    {
      "op": "null", 
      "name": "learned_664", 
      "attrs": {"__shape__": "(32, 96, 3, 3)"}, 
      "inputs": []
    }, 
    {
      "op": "null", 
      "name": "learned_665", 
      "attrs": {"__shape__": "(32,)"}, 
      "inputs": []
    }, 
    {
      "op": "Convolution", 
      "name": "convolution332", 
      "attrs": {
        "dilate": "(1, 1)", 
        "kernel": "(3, 3)", 
        "layout": "NCHW", 
        "no_bias": "False", 
        "num_filter": "32", 
        "num_group": "1", 
        "pad": "(1, 1)", 
        "stride": "(1, 1)"
      }, 
      "inputs": [[1702, 0, 0], [1703, 0, 0], [1704, 0, 0]]
    }, 
    {
      "op": "LeakyReLU", 
      "name": "leakyrelu265", 
      "attrs": {"slope": "0.20000000298023224"}, 
      "inputs": [[1705, 0, 0]]
    }, 
    {
      "op": "Concat", 
      "name": "concat265", 
      "attrs": {
        "dim": "1", 
        "num_args": "3"
      }, 
      "inputs": [[1697, 0, 0], [1701, 0, 0], [1706, 0, 0]]
    }, 
    {
      "op": "null", 
      "name": "learned_666", 
      "attrs": {"__shape__": "(32, 128, 3, 3)"}, 
      "inputs": []
    }, 
    {
      "op": "null", 
      "name": "learned_667", 
      "attrs": {"__shape__": "(32,)"}, 
      "inputs": []
    }, 
    {
      "op": "Convolution", 
      "name": "convolution333", 
      "attrs": {
        "dilate": "(1, 1)", 
        "kernel": "(3, 3)", 
        "layout": "NCHW", 
        "no_bias": "False", 
        "num_filter": "32", 
        "num_group": "1", 
        "pad": "(1, 1)", 
        "stride": "(1, 1)"
      }, 
      "inputs": [[1707, 0, 0], [1708, 0, 0], [1709, 0, 0]]
    }, 
    {
      "op": "LeakyReLU", 
      "name": "leakyrelu266", 
      "attrs": {"slope": "0.20000000298023224"}, 
      "inputs": [[1710, 0, 0]]
    }, 
    {
      "op": "Concat", 
      "name": "concat266", 
      "attrs": {
        "dim": "1", 
        "num_args": "4"
      }, 
      "inputs": [[1697, 0, 0], [1701, 0, 0], [1706, 0, 0], [1711, 0, 0]]
    }, 
    {
      "op": "null", 
      "name": "learned_668", 
      "attrs": {"__shape__": "(32, 160, 3, 3)"}, 
      "inputs": []
    }, 
    {
      "op": "null", 
      "name": "learned_669", 
      "attrs": {"__shape__": "(32,)"}, 
      "inputs": []
    }, 
    {
      "op": "Convolution", 
      "name": "convolution334", 
      "attrs": {
        "dilate": "(1, 1)", 
        "kernel": "(3, 3)", 
        "layout": "NCHW", 
        "no_bias": "False", 
        "num_filter": "32", 
        "num_group": "1", 
        "pad": "(1, 1)", 
        "stride": "(1, 1)"
      }, 
      "inputs": [[1712, 0, 0], [1713, 0, 0], [1714, 0, 0]]
    }, 
    {
      "op": "LeakyReLU", 
      "name": "leakyrelu267", 
      "attrs": {"slope": "0.20000000298023224"}, 
      "inputs": [[1715, 0, 0]]
    }, 
    {
      "op": "Concat", 
      "name": "concat267", 
      "attrs": {
        "dim": "1", 
        "num_args": "5"
      }, 
      "inputs": [[1697, 0, 0], [1701, 0, 0], [1706, 0, 0], [1711, 0, 0], [1716, 0, 0]]
    }, 
    {
      "op": "null", 
      "name": "learned_670", 
      "attrs": {"__shape__": "(64, 192, 3, 3)"}, 
      "inputs": []
    }, 
    {
      "op": "null", 
      "name": "learned_671", 
      "attrs": {"__shape__": "(64,)"}, 
      "inputs": []
    }, 
    {
      "op": "Convolution", 
      "name": "convolution335", 
      "attrs": {
        "dilate": "(1, 1)", 
        "kernel": "(3, 3)", 
        "layout": "NCHW", 
        "no_bias": "False", 
        "num_filter": "64", 
        "num_group": "1", 
        "pad": "(1, 1)", 
        "stride": "(1, 1)"
      }, 
      "inputs": [[1717, 0, 0], [1718, 0, 0], [1719, 0, 0]]
    }, 
    {
      "op": "_mul_scalar", 
      "name": "_mulscalar88", 
      "attrs": {"scalar": "0.2"}, 
      "inputs": [[1720, 0, 0]]
    }, 
    {
      "op": "broadcast_add", 
      "name": "broadcast_add88", 
      "inputs": [[1721, 0, 0], [1697, 0, 0]]
    }, 
    {
      "op": "null", 
      "name": "learned_672", 
      "attrs": {"__shape__": "(32, 64, 3, 3)"}, 
      "inputs": []
    }, 
    {
      "op": "null", 
      "name": "learned_673", 
      "attrs": {"__shape__": "(32,)"}, 
      "inputs": []
    }, 
    {
      "op": "Convolution", 
      "name": "convolution336", 
      "attrs": {
        "dilate": "(1, 1)", 
        "kernel": "(3, 3)", 
        "layout": "NCHW", 
        "no_bias": "False", 
        "num_filter": "32", 
        "num_group": "1", 
        "pad": "(1, 1)", 
        "stride": "(1, 1)"
      }, 
      "inputs": [[1722, 0, 0], [1723, 0, 0], [1724, 0, 0]]
    }, 
    {
      "op": "LeakyReLU", 
      "name": "leakyrelu268", 
      "attrs": {"slope": "0.20000000298023224"}, 
      "inputs": [[1725, 0, 0]]
    }, 
    {
      "op": "Concat", 
      "name": "concat268", 
      "attrs": {
        "dim": "1", 
        "num_args": "2"
      }, 
      "inputs": [[1722, 0, 0], [1726, 0, 0]]
    }, 
    {
      "op": "null", 
      "name": "learned_674", 
      "attrs": {"__shape__": "(32, 96, 3, 3)"}, 
      "inputs": []
    }, 
    {
      "op": "null", 
      "name": "learned_675", 
      "attrs": {"__shape__": "(32,)"}, 
      "inputs": []
    }, 
    {
      "op": "Convolution", 
      "name": "convolution337", 
      "attrs": {
        "dilate": "(1, 1)", 
        "kernel": "(3, 3)", 
        "layout": "NCHW", 
        "no_bias": "False", 
        "num_filter": "32", 
        "num_group": "1", 
        "pad": "(1, 1)", 
        "stride": "(1, 1)"
      }, 
      "inputs": [[1727, 0, 0], [1728, 0, 0], [1729, 0, 0]]
    }, 
    {
      "op": "LeakyReLU", 
      "name": "leakyrelu269", 
      "attrs": {"slope": "0.20000000298023224"}, 
      "inputs": [[1730, 0, 0]]
    }, 
    {
      "op": "Concat", 
      "name": "concat269", 
      "attrs": {
        "dim": "1", 
        "num_args": "3"
      }, 
      "inputs": [[1722, 0, 0], [1726, 0, 0], [1731, 0, 0]]
    }, 
    {
      "op": "null", 
      "name": "learned_676", 
      "attrs": {"__shape__": "(32, 128, 3, 3)"}, 
      "inputs": []
    }, 
    {
      "op": "null", 
      "name": "learned_677", 
      "attrs": {"__shape__": "(32,)"}, 
      "inputs": []
    }, 
    {
      "op": "Convolution", 
      "name": "convolution338", 
      "attrs": {
        "dilate": "(1, 1)", 
        "kernel": "(3, 3)", 
        "layout": "NCHW", 
        "no_bias": "False", 
        "num_filter": "32", 
        "num_group": "1", 
        "pad": "(1, 1)", 
        "stride": "(1, 1)"
      }, 
      "inputs": [[1732, 0, 0], [1733, 0, 0], [1734, 0, 0]]
    }, 
    {
      "op": "LeakyReLU", 
      "name": "leakyrelu270", 
      "attrs": {"slope": "0.20000000298023224"}, 
      "inputs": [[1735, 0, 0]]
    }, 
    {
      "op": "Concat", 
      "name": "concat270", 
      "attrs": {
        "dim": "1", 
        "num_args": "4"
      }, 
      "inputs": [[1722, 0, 0], [1726, 0, 0], [1731, 0, 0], [1736, 0, 0]]
    }, 
    {
      "op": "null", 
      "name": "learned_678", 
      "attrs": {"__shape__": "(32, 160, 3, 3)"}, 
      "inputs": []
    }, 
    {
      "op": "null", 
      "name": "learned_679", 
      "attrs": {"__shape__": "(32,)"}, 
      "inputs": []
    }, 
    {
      "op": "Convolution", 
      "name": "convolution339", 
      "attrs": {
        "dilate": "(1, 1)", 
        "kernel": "(3, 3)", 
        "layout": "NCHW", 
        "no_bias": "False", 
        "num_filter": "32", 
        "num_group": "1", 
        "pad": "(1, 1)", 
        "stride": "(1, 1)"
      }, 
      "inputs": [[1737, 0, 0], [1738, 0, 0], [1739, 0, 0]]
    }, 
    {
      "op": "LeakyReLU", 
      "name": "leakyrelu271", 
      "attrs": {"slope": "0.20000000298023224"}, 
      "inputs": [[1740, 0, 0]]
    }, 
    {
      "op": "Concat", 
      "name": "concat271", 
      "attrs": {
        "dim": "1", 
        "num_args": "5"
      }, 
      "inputs": [[1722, 0, 0], [1726, 0, 0], [1731, 0, 0], [1736, 0, 0], [1741, 0, 0]]
    }, 
    {
      "op": "null", 
      "name": "learned_680", 
      "attrs": {"__shape__": "(64, 192, 3, 3)"}, 
      "inputs": []
    }, 
    {
      "op": "null", 
      "name": "learned_681", 
      "attrs": {"__shape__": "(64,)"}, 
      "inputs": []
    }, 
    {
      "op": "Convolution", 
      "name": "convolution340", 
      "attrs": {
        "dilate": "(1, 1)", 
        "kernel": "(3, 3)", 
        "layout": "NCHW", 
        "no_bias": "False", 
        "num_filter": "64", 
        "num_group": "1", 
        "pad": "(1, 1)", 
        "stride": "(1, 1)"
      }, 
      "inputs": [[1742, 0, 0], [1743, 0, 0], [1744, 0, 0]]
    }, 
    {
      "op": "_mul_scalar", 
      "name": "_mulscalar89", 
      "attrs": {"scalar": "0.2"}, 
      "inputs": [[1745, 0, 0]]
    }, 
    {
      "op": "broadcast_add", 
      "name": "broadcast_add89", 
      "inputs": [[1746, 0, 0], [1722, 0, 0]]
    }, 
    {
      "op": "null", 
      "name": "learned_682", 
      "attrs": {"__shape__": "(32, 64, 3, 3)"}, 
      "inputs": []
    }, 
    {
      "op": "null", 
      "name": "learned_683", 
      "attrs": {"__shape__": "(32,)"}, 
      "inputs": []
    }, 
    {
      "op": "Convolution", 
      "name": "convolution341", 
      "attrs": {
        "dilate": "(1, 1)", 
        "kernel": "(3, 3)", 
        "layout": "NCHW", 
        "no_bias": "False", 
        "num_filter": "32", 
        "num_group": "1", 
        "pad": "(1, 1)", 
        "stride": "(1, 1)"
      }, 
      "inputs": [[1747, 0, 0], [1748, 0, 0], [1749, 0, 0]]
    }, 
    {
      "op": "LeakyReLU", 
      "name": "leakyrelu272", 
      "attrs": {"slope": "0.20000000298023224"}, 
      "inputs": [[1750, 0, 0]]
    }, 
    {
      "op": "Concat", 
      "name": "concat272", 
      "attrs": {
        "dim": "1", 
        "num_args": "2"
      }, 
      "inputs": [[1747, 0, 0], [1751, 0, 0]]
    }, 
    {
      "op": "null", 
      "name": "learned_684", 
      "attrs": {"__shape__": "(32, 96, 3, 3)"}, 
      "inputs": []
    }, 
    {
      "op": "null", 
      "name": "learned_685", 
      "attrs": {"__shape__": "(32,)"}, 
      "inputs": []
    }, 
    {
      "op": "Convolution", 
      "name": "convolution342", 
      "attrs": {
        "dilate": "(1, 1)", 
        "kernel": "(3, 3)", 
        "layout": "NCHW", 
        "no_bias": "False", 
        "num_filter": "32", 
        "num_group": "1", 
        "pad": "(1, 1)", 
        "stride": "(1, 1)"
      }, 
      "inputs": [[1752, 0, 0], [1753, 0, 0], [1754, 0, 0]]
    }, 
    {
      "op": "LeakyReLU", 
      "name": "leakyrelu273", 
      "attrs": {"slope": "0.20000000298023224"}, 
      "inputs": [[1755, 0, 0]]
    }, 
    {
      "op": "Concat", 
      "name": "concat273", 
      "attrs": {
        "dim": "1", 
        "num_args": "3"
      }, 
      "inputs": [[1747, 0, 0], [1751, 0, 0], [1756, 0, 0]]
    }, 
    {
      "op": "null", 
      "name": "learned_686", 
      "attrs": {"__shape__": "(32, 128, 3, 3)"}, 
      "inputs": []
    }, 
    {
      "op": "null", 
      "name": "learned_687", 
      "attrs": {"__shape__": "(32,)"}, 
      "inputs": []
    }, 
    {
      "op": "Convolution", 
      "name": "convolution343", 
      "attrs": {
        "dilate": "(1, 1)", 
        "kernel": "(3, 3)", 
        "layout": "NCHW", 
        "no_bias": "False", 
        "num_filter": "32", 
        "num_group": "1", 
        "pad": "(1, 1)", 
        "stride": "(1, 1)"
      }, 
      "inputs": [[1757, 0, 0], [1758, 0, 0], [1759, 0, 0]]
    }, 
    {
      "op": "LeakyReLU", 
      "name": "leakyrelu274", 
      "attrs": {"slope": "0.20000000298023224"}, 
      "inputs": [[1760, 0, 0]]
    }, 
    {
      "op": "Concat", 
      "name": "concat274", 
      "attrs": {
        "dim": "1", 
        "num_args": "4"
      }, 
      "inputs": [[1747, 0, 0], [1751, 0, 0], [1756, 0, 0], [1761, 0, 0]]
    }, 
    {
      "op": "null", 
      "name": "learned_688", 
      "attrs": {"__shape__": "(32, 160, 3, 3)"}, 
      "inputs": []
    }, 
    {
      "op": "null", 
      "name": "learned_689", 
      "attrs": {"__shape__": "(32,)"}, 
      "inputs": []
    }, 
    {
      "op": "Convolution", 
      "name": "convolution344", 
      "attrs": {
        "dilate": "(1, 1)", 
        "kernel": "(3, 3)", 
        "layout": "NCHW", 
        "no_bias": "False", 
        "num_filter": "32", 
        "num_group": "1", 
        "pad": "(1, 1)", 
        "stride": "(1, 1)"
      }, 
      "inputs": [[1762, 0, 0], [1763, 0, 0], [1764, 0, 0]]
    }, 
    {
      "op": "LeakyReLU", 
      "name": "leakyrelu275", 
      "attrs": {"slope": "0.20000000298023224"}, 
      "inputs": [[1765, 0, 0]]
    }, 
    {
      "op": "Concat", 
      "name": "concat275", 
      "attrs": {
        "dim": "1", 
        "num_args": "5"
      }, 
      "inputs": [[1747, 0, 0], [1751, 0, 0], [1756, 0, 0], [1761, 0, 0], [1766, 0, 0]]
    }, 
    {
      "op": "null", 
      "name": "learned_690", 
      "attrs": {"__shape__": "(64, 192, 3, 3)"}, 
      "inputs": []
    }, 
    {
      "op": "null", 
      "name": "learned_691", 
      "attrs": {"__shape__": "(64,)"}, 
      "inputs": []
    }, 
    {
      "op": "Convolution", 
      "name": "convolution345", 
      "attrs": {
        "dilate": "(1, 1)", 
        "kernel": "(3, 3)", 
        "layout": "NCHW", 
        "no_bias": "False", 
        "num_filter": "64", 
        "num_group": "1", 
        "pad": "(1, 1)", 
        "stride": "(1, 1)"
      }, 
      "inputs": [[1767, 0, 0], [1768, 0, 0], [1769, 0, 0]]
    }, 
    {
      "op": "_mul_scalar", 
      "name": "_mulscalar90", 
      "attrs": {"scalar": "0.2"}, 
      "inputs": [[1770, 0, 0]]
    }, 
    {
      "op": "broadcast_add", 
      "name": "broadcast_add90", 
      "inputs": [[1771, 0, 0], [1747, 0, 0]]
    }, 
    {
      "op": "_mul_scalar", 
      "name": "_mulscalar91", 
      "attrs": {"scalar": "0.2"}, 
      "inputs": [[1772, 0, 0]]
    }, 
    {
      "op": "broadcast_add", 
      "name": "broadcast_add91", 
      "inputs": [[1773, 0, 0], [1697, 0, 0]]
    }, 
    {
      "op": "null", 
      "name": "learned_692", 
      "attrs": {"__shape__": "(64, 64, 3, 3)"}, 
      "inputs": []
    }, 
    {
      "op": "null", 
      "name": "learned_693", 
      "attrs": {"__shape__": "(64,)"}, 
      "inputs": []
    }, 
    {
      "op": "Convolution", 
      "name": "convolution346", 
      "attrs": {
        "dilate": "(1, 1)", 
        "kernel": "(3, 3)", 
        "layout": "NCHW", 
        "no_bias": "False", 
        "num_filter": "64", 
        "num_group": "1", 
        "pad": "(1, 1)", 
        "stride": "(1, 1)"
      }, 
      "inputs": [[1774, 0, 0], [1775, 0, 0], [1776, 0, 0]]
    }, 
    {
      "op": "broadcast_add", 
      "name": "broadcast_add92", 
      "inputs": [[3, 0, 0], [1777, 0, 0]]
    }, 
    {
      "op": "UpSampling", 
      "name": "upsampling0", 
      "attrs": {
        "num_args": "1", 
        "sample_type": "nearest", 
        "scale": "2"
      }, 
      "inputs": [[1778, 0, 0]]
    }, 
    {
      "op": "null", 
      "name": "learned_694", 
      "attrs": {"__shape__": "(64, 64, 3, 3)"}, 
      "inputs": []
    }, 
    {
      "op": "null", 
      "name": "learned_695", 
      "attrs": {"__shape__": "(64,)"}, 
      "inputs": []
    }, 
    {
      "op": "Convolution", 
      "name": "convolution347", 
      "attrs": {
        "dilate": "(1, 1)", 
        "kernel": "(3, 3)", 
        "layout": "NCHW", 
        "no_bias": "False", 
        "num_filter": "64", 
        "num_group": "1", 
        "pad": "(1, 1)", 
        "stride": "(1, 1)"
      }, 
      "inputs": [[1779, 0, 0], [1780, 0, 0], [1781, 0, 0]]
    }, 
    {
      "op": "LeakyReLU", 
      "name": "leakyrelu276", 
      "attrs": {"slope": "0.20000000298023224"}, 
      "inputs": [[1782, 0, 0]]
    }, 
    {
      "op": "UpSampling", 
      "name": "upsampling1", 
      "attrs": {
        "num_args": "1", 
        "sample_type": "nearest", 
        "scale": "2"
      }, 
      "inputs": [[1783, 0, 0]]
    }, 
    {
      "op": "null", 
      "name": "learned_696", 
      "attrs": {"__shape__": "(64, 64, 3, 3)"}, 
      "inputs": []
    }, 
    {
      "op": "null", 
      "name": "learned_697", 
      "attrs": {"__shape__": "(64,)"}, 
      "inputs": []
    }, 
    {
      "op": "Convolution", 
      "name": "convolution348", 
      "attrs": {
        "dilate": "(1, 1)", 
        "kernel": "(3, 3)", 
        "layout": "NCHW", 
        "no_bias": "False", 
        "num_filter": "64", 
        "num_group": "1", 
        "pad": "(1, 1)", 
        "stride": "(1, 1)"
      }, 
      "inputs": [[1784, 0, 0], [1785, 0, 0], [1786, 0, 0]]
    }, 
    {
      "op": "LeakyReLU", 
      "name": "leakyrelu277", 
      "attrs": {"slope": "0.20000000298023224"}, 
      "inputs": [[1787, 0, 0]]
    }, 
    {
      "op": "null", 
      "name": "learned_698", 
      "attrs": {"__shape__": "(64, 64, 3, 3)"}, 
      "inputs": []
    }, 
    {
      "op": "null", 
      "name": "learned_699", 
      "attrs": {"__shape__": "(64,)"}, 
      "inputs": []
    }, 
    {
      "op": "Convolution", 
      "name": "convolution349", 
      "attrs": {
        "dilate": "(1, 1)", 
        "kernel": "(3, 3)", 
        "layout": "NCHW", 
        "no_bias": "False", 
        "num_filter": "64", 
        "num_group": "1", 
        "pad": "(1, 1)", 
        "stride": "(1, 1)"
      }, 
      "inputs": [[1788, 0, 0], [1789, 0, 0], [1790, 0, 0]]
    }, 
    {
      "op": "LeakyReLU", 
      "name": "leakyrelu278", 
      "attrs": {"slope": "0.20000000298023224"}, 
      "inputs": [[1791, 0, 0]]
    }, 
    {
      "op": "null", 
      "name": "learned_700", 
      "attrs": {"__shape__": "(3, 64, 3, 3)"}, 
      "inputs": []
    }, 
    {
      "op": "null", 
      "name": "learned_701", 
      "attrs": {"__shape__": "(3,)"}, 
      "inputs": []
    }, 
    {
      "op": "Convolution", 
      "name": "convolution350", 
      "attrs": {
        "dilate": "(1, 1)", 
        "kernel": "(3, 3)", 
        "layout": "NCHW", 
        "no_bias": "False", 
        "num_filter": "3", 
        "num_group": "1", 
        "pad": "(1, 1)", 
        "stride": "(1, 1)"
      }, 
      "inputs": [[1792, 0, 0], [1793, 0, 0], [1794, 0, 0]]
    }
  ], 
  "arg_nodes": [
    0, 
    1, 
    2, 
    4, 
    5, 
    9, 
    10, 
    14, 
    15, 
    19, 
    20, 
    24, 
    25, 
    29, 
    30, 
    34, 
    35, 
    39, 
    40, 
    44, 
    45, 
    49, 
    50, 
    54, 
    55, 
    59, 
    60, 
    64, 
    65, 
    69, 
    70, 
    74, 
    75, 
    81, 
    82, 
    86, 
    87, 
    91, 
    92, 
    96, 
    97, 
    101, 
    102, 
    106, 
    107, 
    111, 
    112, 
    116, 
    117, 
    121, 
    122, 
    126, 
    127, 
    131, 
    132, 
    136, 
    137, 
    141, 
    142, 
    146, 
    147, 
    151, 
    152, 
    158, 
    159, 
    163, 
    164, 
    168, 
    169, 
    173, 
    174, 
    178, 
    179, 
    183, 
    184, 
    188, 
    189, 
    193, 
    194, 
    198, 
    199, 
    203, 
    204, 
    208, 
    209, 
    213, 
    214, 
    218, 
    219, 
    223, 
    224, 
    228, 
    229, 
    235, 
    236, 
    240, 
    241, 
    245, 
    246, 
    250, 
    251, 
    255, 
    256, 
    260, 
    261, 
    265, 
    266, 
    270, 
    271, 
    275, 
    276, 
    280, 
    281, 
    285, 
    286, 
    290, 
    291, 
    295, 
    296, 
    300, 
    301, 
    305, 
    306, 
    312, 
    313, 
    317, 
    318, 
    322, 
    323, 
    327, 
    328, 
    332, 
    333, 
    337, 
    338, 
    342, 
    343, 
    347, 
    348, 
    352, 
    353, 
    357, 
    358, 
    362, 
    363, 
    367, 
    368, 
    372, 
    373, 
    377, 
    378, 
    382, 
    383, 
    389, 
    390, 
    394, 
    395, 
    399, 
    400, 
    404, 
    405, 
    409, 
    410, 
    414, 
    415, 
    419, 
    420, 
    424, 
    425, 
    429, 
    430, 
    434, 
    435, 
    439, 
    440, 
    444, 
    445, 
    449, 
    450, 
    454, 
    455, 
    459, 
    460, 
    466, 
    467, 
    471, 
    472, 
    476, 
    477, 
    481, 
    482, 
    486, 
    487, 
    491, 
    492, 
    496, 
    497, 
    501, 
    502, 
    506, 
    507, 
    511, 
    512, 
    516, 
    517, 
    521, 
    522, 
    526, 
    527, 
    531, 
    532, 
    536, 
    537, 
    543, 
    544, 
    548, 
    549, 
    553, 
    554, 
    558, 
    559, 
    563, 
    564, 
    568, 
    569, 
    573, 
    574, 
    578, 
    579, 
    583, 
    584, 
    588, 
    589, 
    593, 
    594, 
    598, 
    599, 
    603, 
    604, 
    608, 
    609, 
    613, 
    614, 
    620, 
    621, 
    625, 
    626, 
    630, 
    631, 
    635, 
    636, 
    640, 
    641, 
    645, 
    646, 
    650, 
    651, 
    655, 
    656, 
    660, 
    661, 
    665, 
    666, 
    670, 
    671, 
    675, 
    676, 
    680, 
    681, 
    685, 
    686, 
    690, 
    691, 
    697, 
    698, 
    702, 
    703, 
    707, 
    708, 
    712, 
    713, 
    717, 
    718, 
    722, 
    723, 
    727, 
    728, 
    732, 
    733, 
    737, 
    738, 
    742, 
    743, 
    747, 
    748, 
    752, 
    753, 
    757, 
    758, 
    762, 
    763, 
    767, 
    768, 
    774, 
    775, 
    779, 
    780, 
    784, 
    785, 
    789, 
    790, 
    794, 
    795, 
    799, 
    800, 
    804, 
    805, 
    809, 
    810, 
    814, 
    815, 
    819, 
    820, 
    824, 
    825, 
    829, 
    830, 
    834, 
    835, 
    839, 
    840, 
    844, 
    845, 
    851, 
    852, 
    856, 
    857, 
    861, 
    862, 
    866, 
    867, 
    871, 
    872, 
    876, 
    877, 
    881, 
    882, 
    886, 
    887, 
    891, 
    892, 
    896, 
    897, 
    901, 
    902, 
    906, 
    907, 
    911, 
    912, 
    916, 
    917, 
    921, 
    922, 
    928, 
    929, 
    933, 
    934, 
    938, 
    939, 
    943, 
    944, 
    948, 
    949, 
    953, 
    954, 
    958, 
    959, 
    963, 
    964, 
    968, 
    969, 
    973, 
    974, 
    978, 
    979, 
    983, 
    984, 
    988, 
    989, 
    993, 
    994, 
    998, 
    999, 
    1005, 
    1006, 
    1010, 
    1011, 
    1015, 
    1016, 
    1020, 
    1021, 
    1025, 
    1026, 
    1030, 
    1031, 
    1035, 
    1036, 
    1040, 
    1041, 
    1045, 
    1046, 
    1050, 
    1051, 
    1055, 
    1056, 
    1060, 
    1061, 
    1065, 
    1066, 
    1070, 
    1071, 
    1075, 
    1076, 
    1082, 
    1083, 
    1087, 
    1088, 
    1092, 
    1093, 
    1097, 
    1098, 
    1102, 
    1103, 
    1107, 
    1108, 
    1112, 
    1113, 
    1117, 
    1118, 
    1122, 
    1123, 
    1127, 
    1128, 
    1132, 
    1133, 
    1137, 
    1138, 
    1142, 
    1143, 
    1147, 
    1148, 
    1152, 
    1153, 
    1159, 
    1160, 
    1164, 
    1165, 
    1169, 
    1170, 
    1174, 
    1175, 
    1179, 
    1180, 
    1184, 
    1185, 
    1189, 
    1190, 
    1194, 
    1195, 
    1199, 
    1200, 
    1204, 
    1205, 
    1209, 
    1210, 
    1214, 
    1215, 
    1219, 
    1220, 
    1224, 
    1225, 
    1229, 
    1230, 
    1236, 
    1237, 
    1241, 
    1242, 
    1246, 
    1247, 
    1251, 
    1252, 
    1256, 
    1257, 
    1261, 
    1262, 
    1266, 
    1267, 
    1271, 
    1272, 
    1276, 
    1277, 
    1281, 
    1282, 
    1286, 
    1287, 
    1291, 
    1292, 
    1296, 
    1297, 
    1301, 
    1302, 
    1306, 
    1307, 
    1313, 
    1314, 
    1318, 
    1319, 
    1323, 
    1324, 
    1328, 
    1329, 
    1333, 
    1334, 
    1338, 
    1339, 
    1343, 
    1344, 
    1348, 
    1349, 
    1353, 
    1354, 
    1358, 
    1359, 
    1363, 
    1364, 
    1368, 
    1369, 
    1373, 
    1374, 
    1378, 
    1379, 
    1383, 
    1384, 
    1390, 
    1391, 
    1395, 
    1396, 
    1400, 
    1401, 
    1405, 
    1406, 
    1410, 
    1411, 
    1415, 
    1416, 
    1420, 
    1421, 
    1425, 
    1426, 
    1430, 
    1431, 
    1435, 
    1436, 
    1440, 
    1441, 
    1445, 
    1446, 
    1450, 
    1451, 
    1455, 
    1456, 
    1460, 
    1461, 
    1467, 
    1468, 
    1472, 
    1473, 
    1477, 
    1478, 
    1482, 
    1483, 
    1487, 
    1488, 
    1492, 
    1493, 
    1497, 
    1498, 
    1502, 
    1503, 
    1507, 
    1508, 
    1512, 
    1513, 
    1517, 
    1518, 
    1522, 
    1523, 
    1527, 
    1528, 
    1532, 
    1533, 
    1537, 
    1538, 
    1544, 
    1545, 
    1549, 
    1550, 
    1554, 
    1555, 
    1559, 
    1560, 
    1564, 
    1565, 
    1569, 
    1570, 
    1574, 
    1575, 
    1579, 
    1580, 
    1584, 
    1585, 
    1589, 
    1590, 
    1594, 
    1595, 
    1599, 
    1600, 
    1604, 
    1605, 
    1609, 
    1610, 
    1614, 
    1615, 
    1621, 
    1622, 
    1626, 
    1627, 
    1631, 
    1632, 
    1636, 
    1637, 
    1641, 
    1642, 
    1646, 
    1647, 
    1651, 
    1652, 
    1656, 
    1657, 
    1661, 
    1662, 
    1666, 
    1667, 
    1671, 
    1672, 
    1676, 
    1677, 
    1681, 
    1682, 
    1686, 
    1687, 
    1691, 
    1692, 
    1698, 
    1699, 
    1703, 
    1704, 
    1708, 
    1709, 
    1713, 
    1714, 
    1718, 
    1719, 
    1723, 
    1724, 
    1728, 
    1729, 
    1733, 
    1734, 
    1738, 
    1739, 
    1743, 
    1744, 
    1748, 
    1749, 
    1753, 
    1754, 
    1758, 
    1759, 
    1763, 
    1764, 
    1768, 
    1769, 
    1775, 
    1776, 
    1780, 
    1781, 
    1785, 
    1786, 
    1789, 
    1790, 
    1793, 
    1794
  ], 
  "node_row_ptr": [
    0, 
    1, 
    2, 
    3, 
    4, 
    5, 
    6, 
    7, 
    8, 
    9, 
    10, 
    11, 
    12, 
    13, 
    14, 
    15, 
    16, 
    17, 
    18, 
    19, 
    20, 
    21, 
    22, 
    23, 
    24, 
    25, 
    26, 
    27, 
    28, 
    29, 
    30, 
    31, 
    32, 
    33, 
    34, 
    35, 
    36, 
    37, 
    38, 
    39, 
    40, 
    41, 
    42, 
    43, 
    44, 
    45, 
    46, 
    47, 
    48, 
    49, 
    50, 
    51, 
    52, 
    53, 
    54, 
    55, 
    56, 
    57, 
    58, 
    59, 
    60, 
    61, 
    62, 
    63, 
    64, 
    65, 
    66, 
    67, 
    68, 
    69, 
    70, 
    71, 
    72, 
    73, 
    74, 
    75, 
    76, 
    77, 
    78, 
    79, 
    80, 
    81, 
    82, 
    83, 
    84, 
    85, 
    86, 
    87, 
    88, 
    89, 
    90, 
    91, 
    92, 
    93, 
    94, 
    95, 
    96, 
    97, 
    98, 
    99, 
    100, 
    101, 
    102, 
    103, 
    104, 
    105, 
    106, 
    107, 
    108, 
    109, 
    110, 
    111, 
    112, 
    113, 
    114, 
    115, 
    116, 
    117, 
    118, 
    119, 
    120, 
    121, 
    122, 
    123, 
    124, 
    125, 
    126, 
    127, 
    128, 
    129, 
    130, 
    131, 
    132, 
    133, 
    134, 
    135, 
    136, 
    137, 
    138, 
    139, 
    140, 
    141, 
    142, 
    143, 
    144, 
    145, 
    146, 
    147, 
    148, 
    149, 
    150, 
    151, 
    152, 
    153, 
    154, 
    155, 
    156, 
    157, 
    158, 
    159, 
    160, 
    161, 
    162, 
    163, 
    164, 
    165, 
    166, 
    167, 
    168, 
    169, 
    170, 
    171, 
    172, 
    173, 
    174, 
    175, 
    176, 
    177, 
    178, 
    179, 
    180, 
    181, 
    182, 
    183, 
    184, 
    185, 
    186, 
    187, 
    188, 
    189, 
    190, 
    191, 
    192, 
    193, 
    194, 
    195, 
    196, 
    197, 
    198, 
    199, 
    200, 
    201, 
    202, 
    203, 
    204, 
    205, 
    206, 
    207, 
    208, 
    209, 
    210, 
    211, 
    212, 
    213, 
    214, 
    215, 
    216, 
    217, 
    218, 
    219, 
    220, 
    221, 
    222, 
    223, 
    224, 
    225, 
    226, 
    227, 
    228, 
    229, 
    230, 
    231, 
    232, 
    233, 
    234, 
    235, 
    236, 
    237, 
    238, 
    239, 
    240, 
    241, 
    242, 
    243, 
    244, 
    245, 
    246, 
    247, 
    248, 
    249, 
    250, 
    251, 
    252, 
    253, 
    254, 
    255, 
    256, 
    257, 
    258, 
    259, 
    260, 
    261, 
    262, 
    263, 
    264, 
    265, 
    266, 
    267, 
    268, 
    269, 
    270, 
    271, 
    272, 
    273, 
    274, 
    275, 
    276, 
    277, 
    278, 
    279, 
    280, 
    281, 
    282, 
    283, 
    284, 
    285, 
    286, 
    287, 
    288, 
    289, 
    290, 
    291, 
    292, 
    293, 
    294, 
    295, 
    296, 
    297, 
    298, 
    299, 
    300, 
    301, 
    302, 
    303, 
    304, 
    305, 
    306, 
    307, 
    308, 
    309, 
    310, 
    311, 
    312, 
    313, 
    314, 
    315, 
    316, 
    317, 
    318, 
    319, 
    320, 
    321, 
    322, 
    323, 
    324, 
    325, 
    326, 
    327, 
    328, 
    329, 
    330, 
    331, 
    332, 
    333, 
    334, 
    335, 
    336, 
    337, 
    338, 
    339, 
    340, 
    341, 
    342, 
    343, 
    344, 
    345, 
    346, 
    347, 
    348, 
    349, 
    350, 
    351, 
    352, 
    353, 
    354, 
    355, 
    356, 
    357, 
    358, 
    359, 
    360, 
    361, 
    362, 
    363, 
    364, 
    365, 
    366, 
    367, 
    368, 
    369, 
    370, 
    371, 
    372, 
    373, 
    374, 
    375, 
    376, 
    377, 
    378, 
    379, 
    380, 
    381, 
    382, 
    383, 
    384, 
    385, 
    386, 
    387, 
    388, 
    389, 
    390, 
    391, 
    392, 
    393, 
    394, 
    395, 
    396, 
    397, 
    398, 
    399, 
    400, 
    401, 
    402, 
    403, 
    404, 
    405, 
    406, 
    407, 
    408, 
    409, 
    410, 
    411, 
    412, 
    413, 
    414, 
    415, 
    416, 
    417, 
    418, 
    419, 
    420, 
    421, 
    422, 
    423, 
    424, 
    425, 
    426, 
    427, 
    428, 
    429, 
    430, 
    431, 
    432, 
    433, 
    434, 
    435, 
    436, 
    437, 
    438, 
    439, 
    440, 
    441, 
    442, 
    443, 
    444, 
    445, 
    446, 
    447, 
    448, 
    449, 
    450, 
    451, 
    452, 
    453, 
    454, 
    455, 
    456, 
    457, 
    458, 
    459, 
    460, 
    461, 
    462, 
    463, 
    464, 
    465, 
    466, 
    467, 
    468, 
    469, 
    470, 
    471, 
    472, 
    473, 
    474, 
    475, 
    476, 
    477, 
    478, 
    479, 
    480, 
    481, 
    482, 
    483, 
    484, 
    485, 
    486, 
    487, 
    488, 
    489, 
    490, 
    491, 
    492, 
    493, 
    494, 
    495, 
    496, 
    497, 
    498, 
    499, 
    500, 
    501, 
    502, 
    503, 
    504, 
    505, 
    506, 
    507, 
    508, 
    509, 
    510, 
    511, 
    512, 
    513, 
    514, 
    515, 
    516, 
    517, 
    518, 
    519, 
    520, 
    521, 
    522, 
    523, 
    524, 
    525, 
    526, 
    527, 
    528, 
    529, 
    530, 
    531, 
    532, 
    533, 
    534, 
    535, 
    536, 
    537, 
    538, 
    539, 
    540, 
    541, 
    542, 
    543, 
    544, 
    545, 
    546, 
    547, 
    548, 
    549, 
    550, 
    551, 
    552, 
    553, 
    554, 
    555, 
    556, 
    557, 
    558, 
    559, 
    560, 
    561, 
    562, 
    563, 
    564, 
    565, 
    566, 
    567, 
    568, 
    569, 
    570, 
    571, 
    572, 
    573, 
    574, 
    575, 
    576, 
    577, 
    578, 
    579, 
    580, 
    581, 
    582, 
    583, 
    584, 
    585, 
    586, 
    587, 
    588, 
    589, 
    590, 
    591, 
    592, 
    593, 
    594, 
    595, 
    596, 
    597, 
    598, 
    599, 
    600, 
    601, 
    602, 
    603, 
    604, 
    605, 
    606, 
    607, 
    608, 
    609, 
    610, 
    611, 
    612, 
    613, 
    614, 
    615, 
    616, 
    617, 
    618, 
    619, 
    620, 
    621, 
    622, 
    623, 
    624, 
    625, 
    626, 
    627, 
    628, 
    629, 
    630, 
    631, 
    632, 
    633, 
    634, 
    635, 
    636, 
    637, 
    638, 
    639, 
    640, 
    641, 
    642, 
    643, 
    644, 
    645, 
    646, 
    647, 
    648, 
    649, 
    650, 
    651, 
    652, 
    653, 
    654, 
    655, 
    656, 
    657, 
    658, 
    659, 
    660, 
    661, 
    662, 
    663, 
    664, 
    665, 
    666, 
    667, 
    668, 
    669, 
    670, 
    671, 
    672, 
    673, 
    674, 
    675, 
    676, 
    677, 
    678, 
    679, 
    680, 
    681, 
    682, 
    683, 
    684, 
    685, 
    686, 
    687, 
    688, 
    689, 
    690, 
    691, 
    692, 
    693, 
    694, 
    695, 
    696, 
    697, 
    698, 
    699, 
    700, 
    701, 
    702, 
    703, 
    704, 
    705, 
    706, 
    707, 
    708, 
    709, 
    710, 
    711, 
    712, 
    713, 
    714, 
    715, 
    716, 
    717, 
    718, 
    719, 
    720, 
    721, 
    722, 
    723, 
    724, 
    725, 
    726, 
    727, 
    728, 
    729, 
    730, 
    731, 
    732, 
    733, 
    734, 
    735, 
    736, 
    737, 
    738, 
    739, 
    740, 
    741, 
    742, 
    743, 
    744, 
    745, 
    746, 
    747, 
    748, 
    749, 
    750, 
    751, 
    752, 
    753, 
    754, 
    755, 
    756, 
    757, 
    758, 
    759, 
    760, 
    761, 
    762, 
    763, 
    764, 
    765, 
    766, 
    767, 
    768, 
    769, 
    770, 
    771, 
    772, 
    773, 
    774, 
    775, 
    776, 
    777, 
    778, 
    779, 
    780, 
    781, 
    782, 
    783, 
    784, 
    785, 
    786, 
    787, 
    788, 
    789, 
    790, 
    791, 
    792, 
    793, 
    794, 
    795, 
    796, 
    797, 
    798, 
    799, 
    800, 
    801, 
    802, 
    803, 
    804, 
    805, 
    806, 
    807, 
    808, 
    809, 
    810, 
    811, 
    812, 
    813, 
    814, 
    815, 
    816, 
    817, 
    818, 
    819, 
    820, 
    821, 
    822, 
    823, 
    824, 
    825, 
    826, 
    827, 
    828, 
    829, 
    830, 
    831, 
    832, 
    833, 
    834, 
    835, 
    836, 
    837, 
    838, 
    839, 
    840, 
    841, 
    842, 
    843, 
    844, 
    845, 
    846, 
    847, 
    848, 
    849, 
    850, 
    851, 
    852, 
    853, 
    854, 
    855, 
    856, 
    857, 
    858, 
    859, 
    860, 
    861, 
    862, 
    863, 
    864, 
    865, 
    866, 
    867, 
    868, 
    869, 
    870, 
    871, 
    872, 
    873, 
    874, 
    875, 
    876, 
    877, 
    878, 
    879, 
    880, 
    881, 
    882, 
    883, 
    884, 
    885, 
    886, 
    887, 
    888, 
    889, 
    890, 
    891, 
    892, 
    893, 
    894, 
    895, 
    896, 
    897, 
    898, 
    899, 
    900, 
    901, 
    902, 
    903, 
    904, 
    905, 
    906, 
    907, 
    908, 
    909, 
    910, 
    911, 
    912, 
    913, 
    914, 
    915, 
    916, 
    917, 
    918, 
    919, 
    920, 
    921, 
    922, 
    923, 
    924, 
    925, 
    926, 
    927, 
    928, 
    929, 
    930, 
    931, 
    932, 
    933, 
    934, 
    935, 
    936, 
    937, 
    938, 
    939, 
    940, 
    941, 
    942, 
    943, 
    944, 
    945, 
    946, 
    947, 
    948, 
    949, 
    950, 
    951, 
    952, 
    953, 
    954, 
    955, 
    956, 
    957, 
    958, 
    959, 
    960, 
    961, 
    962, 
    963, 
    964, 
    965, 
    966, 
    967, 
    968, 
    969, 
    970, 
    971, 
    972, 
    973, 
    974, 
    975, 
    976, 
    977, 
    978, 
    979, 
    980, 
    981, 
    982, 
    983, 
    984, 
    985, 
    986, 
    987, 
    988, 
    989, 
    990, 
    991, 
    992, 
    993, 
    994, 
    995, 
    996, 
    997, 
    998, 
    999, 
    1000, 
    1001, 
    1002, 
    1003, 
    1004, 
    1005, 
    1006, 
    1007, 
    1008, 
    1009, 
    1010, 
    1011, 
    1012, 
    1013, 
    1014, 
    1015, 
    1016, 
    1017, 
    1018, 
    1019, 
    1020, 
    1021, 
    1022, 
    1023, 
    1024, 
    1025, 
    1026, 
    1027, 
    1028, 
    1029, 
    1030, 
    1031, 
    1032, 
    1033, 
    1034, 
    1035, 
    1036, 
    1037, 
    1038, 
    1039, 
    1040, 
    1041, 
    1042, 
    1043, 
    1044, 
    1045, 
    1046, 
    1047, 
    1048, 
    1049, 
    1050, 
    1051, 
    1052, 
    1053, 
    1054, 
    1055, 
    1056, 
    1057, 
    1058, 
    1059, 
    1060, 
    1061, 
    1062, 
    1063, 
    1064, 
    1065, 
    1066, 
    1067, 
    1068, 
    1069, 
    1070, 
    1071, 
    1072, 
    1073, 
    1074, 
    1075, 
    1076, 
    1077, 
    1078, 
    1079, 
    1080, 
    1081, 
    1082, 
    1083, 
    1084, 
    1085, 
    1086, 
    1087, 
    1088, 
    1089, 
    1090, 
    1091, 
    1092, 
    1093, 
    1094, 
    1095, 
    1096, 
    1097, 
    1098, 
    1099, 
    1100, 
    1101, 
    1102, 
    1103, 
    1104, 
    1105, 
    1106, 
    1107, 
    1108, 
    1109, 
    1110, 
    1111, 
    1112, 
    1113, 
    1114, 
    1115, 
    1116, 
    1117, 
    1118, 
    1119, 
    1120, 
    1121, 
    1122, 
    1123, 
    1124, 
    1125, 
    1126, 
    1127, 
    1128, 
    1129, 
    1130, 
    1131, 
    1132, 
    1133, 
    1134, 
    1135, 
    1136, 
    1137, 
    1138, 
    1139, 
    1140, 
    1141, 
    1142, 
    1143, 
    1144, 
    1145, 
    1146, 
    1147, 
    1148, 
    1149, 
    1150, 
    1151, 
    1152, 
    1153, 
    1154, 
    1155, 
    1156, 
    1157, 
    1158, 
    1159, 
    1160, 
    1161, 
    1162, 
    1163, 
    1164, 
    1165, 
    1166, 
    1167, 
    1168, 
    1169, 
    1170, 
    1171, 
    1172, 
    1173, 
    1174, 
    1175, 
    1176, 
    1177, 
    1178, 
    1179, 
    1180, 
    1181, 
    1182, 
    1183, 
    1184, 
    1185, 
    1186, 
    1187, 
    1188, 
    1189, 
    1190, 
    1191, 
    1192, 
    1193, 
    1194, 
    1195, 
    1196, 
    1197, 
    1198, 
    1199, 
    1200, 
    1201, 
    1202, 
    1203, 
    1204, 
    1205, 
    1206, 
    1207, 
    1208, 
    1209, 
    1210, 
    1211, 
    1212, 
    1213, 
    1214, 
    1215, 
    1216, 
    1217, 
    1218, 
    1219, 
    1220, 
    1221, 
    1222, 
    1223, 
    1224, 
    1225, 
    1226, 
    1227, 
    1228, 
    1229, 
    1230, 
    1231, 
    1232, 
    1233, 
    1234, 
    1235, 
    1236, 
    1237, 
    1238, 
    1239, 
    1240, 
    1241, 
    1242, 
    1243, 
    1244, 
    1245, 
    1246, 
    1247, 
    1248, 
    1249, 
    1250, 
    1251, 
    1252, 
    1253, 
    1254, 
    1255, 
    1256, 
    1257, 
    1258, 
    1259, 
    1260, 
    1261, 
    1262, 
    1263, 
    1264, 
    1265, 
    1266, 
    1267, 
    1268, 
    1269, 
    1270, 
    1271, 
    1272, 
    1273, 
    1274, 
    1275, 
    1276, 
    1277, 
    1278, 
    1279, 
    1280, 
    1281, 
    1282, 
    1283, 
    1284, 
    1285, 
    1286, 
    1287, 
    1288, 
    1289, 
    1290, 
    1291, 
    1292, 
    1293, 
    1294, 
    1295, 
    1296, 
    1297, 
    1298, 
    1299, 
    1300, 
    1301, 
    1302, 
    1303, 
    1304, 
    1305, 
    1306, 
    1307, 
    1308, 
    1309, 
    1310, 
    1311, 
    1312, 
    1313, 
    1314, 
    1315, 
    1316, 
    1317, 
    1318, 
    1319, 
    1320, 
    1321, 
    1322, 
    1323, 
    1324, 
    1325, 
    1326, 
    1327, 
    1328, 
    1329, 
    1330, 
    1331, 
    1332, 
    1333, 
    1334, 
    1335, 
    1336, 
    1337, 
    1338, 
    1339, 
    1340, 
    1341, 
    1342, 
    1343, 
    1344, 
    1345, 
    1346, 
    1347, 
    1348, 
    1349, 
    1350, 
    1351, 
    1352, 
    1353, 
    1354, 
    1355, 
    1356, 
    1357, 
    1358, 
    1359, 
    1360, 
    1361, 
    1362, 
    1363, 
    1364, 
    1365, 
    1366, 
    1367, 
    1368, 
    1369, 
    1370, 
    1371, 
    1372, 
    1373, 
    1374, 
    1375, 
    1376, 
    1377, 
    1378, 
    1379, 
    1380, 
    1381, 
    1382, 
    1383, 
    1384, 
    1385, 
    1386, 
    1387, 
    1388, 
    1389, 
    1390, 
    1391, 
    1392, 
    1393, 
    1394, 
    1395, 
    1396, 
    1397, 
    1398, 
    1399, 
    1400, 
    1401, 
    1402, 
    1403, 
    1404, 
    1405, 
    1406, 
    1407, 
    1408, 
    1409, 
    1410, 
    1411, 
    1412, 
    1413, 
    1414, 
    1415, 
    1416, 
    1417, 
    1418, 
    1419, 
    1420, 
    1421, 
    1422, 
    1423, 
    1424, 
    1425, 
    1426, 
    1427, 
    1428, 
    1429, 
    1430, 
    1431, 
    1432, 
    1433, 
    1434, 
    1435, 
    1436, 
    1437, 
    1438, 
    1439, 
    1440, 
    1441, 
    1442, 
    1443, 
    1444, 
    1445, 
    1446, 
    1447, 
    1448, 
    1449, 
    1450, 
    1451, 
    1452, 
    1453, 
    1454, 
    1455, 
    1456, 
    1457, 
    1458, 
    1459, 
    1460, 
    1461, 
    1462, 
    1463, 
    1464, 
    1465, 
    1466, 
    1467, 
    1468, 
    1469, 
    1470, 
    1471, 
    1472, 
    1473, 
    1474, 
    1475, 
    1476, 
    1477, 
    1478, 
    1479, 
    1480, 
    1481, 
    1482, 
    1483, 
    1484, 
    1485, 
    1486, 
    1487, 
    1488, 
    1489, 
    1490, 
    1491, 
    1492, 
    1493, 
    1494, 
    1495, 
    1496, 
    1497, 
    1498, 
    1499, 
    1500, 
    1501, 
    1502, 
    1503, 
    1504, 
    1505, 
    1506, 
    1507, 
    1508, 
    1509, 
    1510, 
    1511, 
    1512, 
    1513, 
    1514, 
    1515, 
    1516, 
    1517, 
    1518, 
    1519, 
    1520, 
    1521, 
    1522, 
    1523, 
    1524, 
    1525, 
    1526, 
    1527, 
    1528, 
    1529, 
    1530, 
    1531, 
    1532, 
    1533, 
    1534, 
    1535, 
    1536, 
    1537, 
    1538, 
    1539, 
    1540, 
    1541, 
    1542, 
    1543, 
    1544, 
    1545, 
    1546, 
    1547, 
    1548, 
    1549, 
    1550, 
    1551, 
    1552, 
    1553, 
    1554, 
    1555, 
    1556, 
    1557, 
    1558, 
    1559, 
    1560, 
    1561, 
    1562, 
    1563, 
    1564, 
    1565, 
    1566, 
    1567, 
    1568, 
    1569, 
    1570, 
    1571, 
    1572, 
    1573, 
    1574, 
    1575, 
    1576, 
    1577, 
    1578, 
    1579, 
    1580, 
    1581, 
    1582, 
    1583, 
    1584, 
    1585, 
    1586, 
    1587, 
    1588, 
    1589, 
    1590, 
    1591, 
    1592, 
    1593, 
    1594, 
    1595, 
    1596, 
    1597, 
    1598, 
    1599, 
    1600, 
    1601, 
    1602, 
    1603, 
    1604, 
    1605, 
    1606, 
    1607, 
    1608, 
    1609, 
    1610, 
    1611, 
    1612, 
    1613, 
    1614, 
    1615, 
    1616, 
    1617, 
    1618, 
    1619, 
    1620, 
    1621, 
    1622, 
    1623, 
    1624, 
    1625, 
    1626, 
    1627, 
    1628, 
    1629, 
    1630, 
    1631, 
    1632, 
    1633, 
    1634, 
    1635, 
    1636, 
    1637, 
    1638, 
    1639, 
    1640, 
    1641, 
    1642, 
    1643, 
    1644, 
    1645, 
    1646, 
    1647, 
    1648, 
    1649, 
    1650, 
    1651, 
    1652, 
    1653, 
    1654, 
    1655, 
    1656, 
    1657, 
    1658, 
    1659, 
    1660, 
    1661, 
    1662, 
    1663, 
    1664, 
    1665, 
    1666, 
    1667, 
    1668, 
    1669, 
    1670, 
    1671, 
    1672, 
    1673, 
    1674, 
    1675, 
    1676, 
    1677, 
    1678, 
    1679, 
    1680, 
    1681, 
    1682, 
    1683, 
    1684, 
    1685, 
    1686, 
    1687, 
    1688, 
    1689, 
    1690, 
    1691, 
    1692, 
    1693, 
    1694, 
    1695, 
    1696, 
    1697, 
    1698, 
    1699, 
    1700, 
    1701, 
    1702, 
    1703, 
    1704, 
    1705, 
    1706, 
    1707, 
    1708, 
    1709, 
    1710, 
    1711, 
    1712, 
    1713, 
    1714, 
    1715, 
    1716, 
    1717, 
    1718, 
    1719, 
    1720, 
    1721, 
    1722, 
    1723, 
    1724, 
    1725, 
    1726, 
    1727, 
    1728, 
    1729, 
    1730, 
    1731, 
    1732, 
    1733, 
    1734, 
    1735, 
    1736, 
    1737, 
    1738, 
    1739, 
    1740, 
    1741, 
    1742, 
    1743, 
    1744, 
    1745, 
    1746, 
    1747, 
    1748, 
    1749, 
    1750, 
    1751, 
    1752, 
    1753, 
    1754, 
    1755, 
    1756, 
    1757, 
    1758, 
    1759, 
    1760, 
    1761, 
    1762, 
    1763, 
    1764, 
    1765, 
    1766, 
    1767, 
    1768, 
    1769, 
    1770, 
    1771, 
    1772, 
    1773, 
    1774, 
    1775, 
    1776, 
    1777, 
    1778, 
    1779, 
    1780, 
    1781, 
    1782, 
    1783, 
    1784, 
    1785, 
    1786, 
    1787, 
    1788, 
    1789, 
    1790, 
    1791, 
    1792, 
    1793, 
    1794, 
    1795, 
    1796
  ], 
  "heads": [[1795, 0, 0]], 
  "attrs": {"mxnet_version": ["int", 10300]}
}