{
  "nodes": [
    {
      "op": "null", 
      "name": "data", 
      "inputs": []
    }, 
    {
      "op": "null", 
      "name": "learned_0", 
      "attrs": {"__shape__": "(64, 1, 3, 3)"}, 
      "inputs": []
    }, 
    {
      "op": "null", 
      "name": "learned_1", 
      "attrs": {"__shape__": "(64,)"}, 
      "inputs": []
    }, 
    {
      "op": "Convolution", 
      "name": "convolution0", 
      "attrs": {
        "dilate": "(1, 1)", 
        "kernel": "(3, 3)", 
        "layout": "NCHW", 
        "no_bias": "False", 
        "num_filter": "64", 
        "num_group": "1", 
        "pad": "(1, 1)", 
        "stride": "(1, 1)"
      }, 
      "inputs": [[0, 0, 0], [1, 0, 0], [2, 0, 0]]
    }, 
    {
      "op": "relu", 
      "name": "relu0", 
      "inputs": [[3, 0, 0]]
    }, 
    {
      "op": "null", 
      "name": "learned_2", 
      "attrs": {"__shape__": "(64, 64, 3, 3)"}, 
      "inputs": []
    }, 
    {
      "op": "Convolution", 
      "name": "convolution1", 
      "attrs": {
        "dilate": "(1, 1)", 
        "kernel": "(3, 3)", 
        "layout": "NCHW", 
        "no_bias": "True", 
        "num_filter": "64", 
        "num_group": "1", 
        "pad": "(1, 1)", 
        "stride": "(1, 1)"
      }, 
      "inputs": [[4, 0, 0], [5, 0, 0]]
    }, 
    {
      "op": "null", 
      "name": "learned_3", 
      "attrs": {"__shape__": "(64,)"}, 
      "inputs": []
    }, 
    {
      "op": "null", 
      "name": "learned_4", 
      "attrs": {"__shape__": "(64,)"}, 
      "inputs": []
    }, 
    {
      "op": "null", 
      "name": "learned_5", 
      "attrs": {
        "__init__": "[\"zero\", {}]", 
        "__shape__": "(64,)"
      }, 
      "inputs": []
    }, 
    {
      "op": "null", 
      "name": "learned_6", 
      "attrs": {
        "__init__": "[\"one\", {}]", 
        "__shape__": "(64,)"
      }, 
      "inputs": []
    }, 
    {
      "op": "BatchNorm", 
      "name": "batchnorm0", 
      "attrs": {
        "cudnn_off": "0", 
        "eps": "9.999999747378752e-05", 
        "fix_gamma": "False", 
        "momentum": "0.05000000074505806"
      }, 
      "inputs": [[6, 0, 0], [7, 0, 0], [8, 0, 0], [9, 0, 1], [10, 0, 1]]
    }, 
    {
      "op": "relu", 
      "name": "relu1", 
      "inputs": [[11, 0, 0]]
    }, 
    {
      "op": "null", 
      "name": "learned_7", 
      "attrs": {"__shape__": "(64, 64, 3, 3)"}, 
      "inputs": []
    }, 
    {
      "op": "Convolution", 
      "name": "convolution2", 
      "attrs": {
        "dilate": "(1, 1)", 
        "kernel": "(3, 3)", 
        "layout": "NCHW", 
        "no_bias": "True", 
        "num_filter": "64", 
        "num_group": "1", 
        "pad": "(1, 1)", 
        "stride": "(1, 1)"
      }, 
      "inputs": [[12, 0, 0], [13, 0, 0]]
    }, 
    {
      "op": "null", 
      "name": "learned_8", 
      "attrs": {"__shape__": "(64,)"}, 
      "inputs": []
    }, 
    {
      "op": "null", 
      "name": "learned_9", 
      "attrs": {"__shape__": "(64,)"}, 
      "inputs": []
    }, 
    {
      "op": "null", 
      "name": "learned_10", 
      "attrs": {
        "__init__": "[\"zero\", {}]", 
        "__shape__": "(64,)"
      }, 
      "inputs": []
    }, 
    {
      "op": "null", 
      "name": "learned_11", 
      "attrs": {
        "__init__": "[\"one\", {}]", 
        "__shape__": "(64,)"
      }, 
      "inputs": []
    }, 
    {
      "op": "BatchNorm", 
      "name": "batchnorm1", 
      "attrs": {
        "cudnn_off": "0", 
        "eps": "9.999999747378752e-05", 
        "fix_gamma": "False", 
        "momentum": "0.05000000074505806"
      }, 
      "inputs": [[14, 0, 0], [15, 0, 0], [16, 0, 0], [17, 0, 1], [18, 0, 1]]
    }, 
    {
      "op": "relu", 
      "name": "relu2", 
      "inputs": [[19, 0, 0]]
    }, 
    {
      "op": "null", 
      "name": "learned_12", 
      "attrs": {"__shape__": "(64, 64, 3, 3)"}, 
      "inputs": []
    }, 
    {
      "op": "Convolution", 
      "name": "convolution3", 
      "attrs": {
        "dilate": "(1, 1)", 
        "kernel": "(3, 3)", 
        "layout": "NCHW", 
        "no_bias": "True", 
        "num_filter": "64", 
        "num_group": "1", 
        "pad": "(1, 1)", 
        "stride": "(1, 1)"
      }, 
      "inputs": [[20, 0, 0], [21, 0, 0]]
    }, 
    {
      "op": "null", 
      "name": "learned_13", 
      "attrs": {"__shape__": "(64,)"}, 
      "inputs": []
    }, 
    {
      "op": "null", 
      "name": "learned_14", 
      "attrs": {"__shape__": "(64,)"}, 
      "inputs": []
    }, 
    {
      "op": "null", 
      "name": "learned_15", 
      "attrs": {
        "__init__": "[\"zero\", {}]", 
        "__shape__": "(64,)"
      }, 
      "inputs": []
    }, 
    {
      "op": "null", 
      "name": "learned_16", 
      "attrs": {
        "__init__": "[\"one\", {}]", 
        "__shape__": "(64,)"
      }, 
      "inputs": []
    }, 
    {
      "op": "BatchNorm", 
      "name": "batchnorm2", 
      "attrs": {
        "cudnn_off": "0", 
        "eps": "9.999999747378752e-05", 
        "fix_gamma": "False", 
        "momentum": "0.05000000074505806"
      }, 
      "inputs": [[22, 0, 0], [23, 0, 0], [24, 0, 0], [25, 0, 1], [26, 0, 1]]
    }, 
    {
      "op": "relu", 
      "name": "relu3", 
      "inputs": [[27, 0, 0]]
    }, 
    {
      "op": "null", 
      "name": "learned_17", 
      "attrs": {"__shape__": "(64, 64, 3, 3)"}, 
      "inputs": []
    }, 
    {
      "op": "Convolution", 
      "name": "convolution4", 
      "attrs": {
        "dilate": "(1, 1)", 
        "kernel": "(3, 3)", 
        "layout": "NCHW", 
        "no_bias": "True", 
        "num_filter": "64", 
        "num_group": "1", 
        "pad": "(1, 1)", 
        "stride": "(1, 1)"
      }, 
      "inputs": [[28, 0, 0], [29, 0, 0]]
    }, 
    {
      "op": "null", 
      "name": "learned_18", 
      "attrs": {"__shape__": "(64,)"}, 
      "inputs": []
    }, 
    {
      "op": "null", 
      "name": "learned_19", 
      "attrs": {"__shape__": "(64,)"}, 
      "inputs": []
    }, 
    {
      "op": "null", 
      "name": "learned_20", 
      "attrs": {
        "__init__": "[\"zero\", {}]", 
        "__shape__": "(64,)"
      }, 
      "inputs": []
    }, 
    {
      "op": "null", 
      "name": "learned_21", 
      "attrs": {
        "__init__": "[\"one\", {}]", 
        "__shape__": "(64,)"
      }, 
      "inputs": []
    }, 
    {
      "op": "BatchNorm", 
      "name": "batchnorm3", 
      "attrs": {
        "cudnn_off": "0", 
        "eps": "9.999999747378752e-05", 
        "fix_gamma": "False", 
        "momentum": "0.05000000074505806"
      }, 
      "inputs": [[30, 0, 0], [31, 0, 0], [32, 0, 0], [33, 0, 1], [34, 0, 1]]
    }, 
    {
      "op": "relu", 
      "name": "relu4", 
      "inputs": [[35, 0, 0]]
    }, 
    {
      "op": "null", 
      "name": "learned_22", 
      "attrs": {"__shape__": "(64, 64, 3, 3)"}, 
      "inputs": []
    }, 
    {
      "op": "Convolution", 
      "name": "convolution5", 
      "attrs": {
        "dilate": "(1, 1)", 
        "kernel": "(3, 3)", 
        "layout": "NCHW", 
        "no_bias": "True", 
        "num_filter": "64", 
        "num_group": "1", 
        "pad": "(1, 1)", 
        "stride": "(1, 1)"
      }, 
      "inputs": [[36, 0, 0], [37, 0, 0]]
    }, 
    {
      "op": "null", 
      "name": "learned_23", 
      "attrs": {"__shape__": "(64,)"}, 
      "inputs": []
    }, 
    {
      "op": "null", 
      "name": "learned_24", 
      "attrs": {"__shape__": "(64,)"}, 
      "inputs": []
    }, 
    {
      "op": "null", 
      "name": "learned_25", 
      "attrs": {
        "__init__": "[\"zero\", {}]", 
        "__shape__": "(64,)"
      }, 
      "inputs": []
    }, 
    {
      "op": "null", 
      "name": "learned_26", 
      "attrs": {
        "__init__": "[\"one\", {}]", 
        "__shape__": "(64,)"
      }, 
      "inputs": []
    }, 
    {
      "op": "BatchNorm", 
      "name": "batchnorm4", 
      "attrs": {
        "cudnn_off": "0", 
        "eps": "9.999999747378752e-05", 
        "fix_gamma": "False", 
        "momentum": "0.05000000074505806"
      }, 
      "inputs": [[38, 0, 0], [39, 0, 0], [40, 0, 0], [41, 0, 1], [42, 0, 1]]
    }, 
    {
      "op": "relu", 
      "name": "relu5", 
      "inputs": [[43, 0, 0]]
    }, 
    {
      "op": "null", 
      "name": "learned_27", 
      "attrs": {"__shape__": "(64, 64, 3, 3)"}, 
      "inputs": []
    }, 
    {
      "op": "Convolution", 
      "name": "convolution6", 
      "attrs": {
        "dilate": "(1, 1)", 
        "kernel": "(3, 3)", 
        "layout": "NCHW", 
        "no_bias": "True", 
        "num_filter": "64", 
        "num_group": "1", 
        "pad": "(1, 1)", 
        "stride": "(1, 1)"
      }, 
      "inputs": [[44, 0, 0], [45, 0, 0]]
    }, 
    {
      "op": "null", 
      "name": "learned_28", 
      "attrs": {"__shape__": "(64,)"}, 
      "inputs": []
    }, 
    {
      "op": "null", 
      "name": "learned_29", 
      "attrs": {"__shape__": "(64,)"}, 
      "inputs": []
    }, 
    {
      "op": "null", 
      "name": "learned_30", 
      "attrs": {
        "__init__": "[\"zero\", {}]", 
        "__shape__": "(64,)"
      }, 
      "inputs": []
    }, 
    {
      "op": "null", 
      "name": "learned_31", 
      "attrs": {
        "__init__": "[\"one\", {}]", 
        "__shape__": "(64,)"
      }, 
      "inputs": []
    }, 
    {
      "op": "BatchNorm", 
      "name": "batchnorm5", 
      "attrs": {
        "cudnn_off": "0", 
        "eps": "9.999999747378752e-05", 
        "fix_gamma": "False", 
        "momentum": "0.05000000074505806"
      }, 
      "inputs": [[46, 0, 0], [47, 0, 0], [48, 0, 0], [49, 0, 1], [50, 0, 1]]
    }, 
    {
      "op": "relu", 
      "name": "relu6", 
      "inputs": [[51, 0, 0]]
    }, 
    {
      "op": "null", 
      "name": "learned_32", 
      "attrs": {"__shape__": "(64, 64, 3, 3)"}, 
      "inputs": []
    }, 
    {
      "op": "Convolution", 
      "name": "convolution7", 
      "attrs": {
        "dilate": "(1, 1)", 
        "kernel": "(3, 3)", 
        "layout": "NCHW", 
        "no_bias": "True", 
        "num_filter": "64", 
        "num_group": "1", 
        "pad": "(1, 1)", 
        "stride": "(1, 1)"
      }, 
      "inputs": [[52, 0, 0], [53, 0, 0]]
    }, 
    {
      "op": "null", 
      "name": "learned_33", 
      "attrs": {"__shape__": "(64,)"}, 
      "inputs": []
    }, 
    {
      "op": "null", 
      "name": "learned_34", 
      "attrs": {"__shape__": "(64,)"}, 
      "inputs": []
    }, 
    {
      "op": "null", 
      "name": "learned_35", 
      "attrs": {
        "__init__": "[\"zero\", {}]", 
        "__shape__": "(64,)"
      }, 
      "inputs": []
    }, 
    {
      "op": "null", 
      "name": "learned_36", 
      "attrs": {
        "__init__": "[\"one\", {}]", 
        "__shape__": "(64,)"
      }, 
      "inputs": []
    }, 
    {
      "op": "BatchNorm", 
      "name": "batchnorm6", 
      "attrs": {
        "cudnn_off": "0", 
        "eps": "9.999999747378752e-05", 
        "fix_gamma": "False", 
        "momentum": "0.05000000074505806"
      }, 
      "inputs": [[54, 0, 0], [55, 0, 0], [56, 0, 0], [57, 0, 1], [58, 0, 1]]
    }, 
    {
      "op": "relu", 
      "name": "relu7", 
      "inputs": [[59, 0, 0]]
    }, 
    {
      "op": "null", 
      "name": "learned_37", 
      "attrs": {"__shape__": "(64, 64, 3, 3)"}, 
      "inputs": []
    }, 
    {
      "op": "Convolution", 
      "name": "convolution8", 
      "attrs": {
        "dilate": "(1, 1)", 
        "kernel": "(3, 3)", 
        "layout": "NCHW", 
        "no_bias": "True", 
        "num_filter": "64", 
        "num_group": "1", 
        "pad": "(1, 1)", 
        "stride": "(1, 1)"
      }, 
      "inputs": [[60, 0, 0], [61, 0, 0]]
    }, 
    {
      "op": "null", 
      "name": "learned_38", 
      "attrs": {"__shape__": "(64,)"}, 
      "inputs": []
    }, 
    {
      "op": "null", 
      "name": "learned_39", 
      "attrs": {"__shape__": "(64,)"}, 
      "inputs": []
    }, 
    {
      "op": "null", 
      "name": "learned_40", 
      "attrs": {
        "__init__": "[\"zero\", {}]", 
        "__shape__": "(64,)"
      }, 
      "inputs": []
    }, 
    {
      "op": "null", 
      "name": "learned_41", 
      "attrs": {
        "__init__": "[\"one\", {}]", 
        "__shape__": "(64,)"
      }, 
      "inputs": []
    }, 
    {
      "op": "BatchNorm", 
      "name": "batchnorm7", 
      "attrs": {
        "cudnn_off": "0", 
        "eps": "9.999999747378752e-05", 
        "fix_gamma": "False", 
        "momentum": "0.05000000074505806"
      }, 
      "inputs": [[62, 0, 0], [63, 0, 0], [64, 0, 0], [65, 0, 1], [66, 0, 1]]
    }, 
    {
      "op": "relu", 
      "name": "relu8", 
      "inputs": [[67, 0, 0]]
    }, 
    {
      "op": "null", 
      "name": "learned_42", 
      "attrs": {"__shape__": "(64, 64, 3, 3)"}, 
      "inputs": []
    }, 
    {
      "op": "Convolution", 
      "name": "convolution9", 
      "attrs": {
        "dilate": "(1, 1)", 
        "kernel": "(3, 3)", 
        "layout": "NCHW", 
        "no_bias": "True", 
        "num_filter": "64", 
        "num_group": "1", 
        "pad": "(1, 1)", 
        "stride": "(1, 1)"
      }, 
      "inputs": [[68, 0, 0], [69, 0, 0]]
    }, 
    {
      "op": "null", 
      "name": "learned_43", 
      "attrs": {"__shape__": "(64,)"}, 
      "inputs": []
    }, 
    {
      "op": "null", 
      "name": "learned_44", 
      "attrs": {"__shape__": "(64,)"}, 
      "inputs": []
    }, 
    {
      "op": "null", 
      "name": "learned_45", 
      "attrs": {
        "__init__": "[\"zero\", {}]", 
        "__shape__": "(64,)"
      }, 
      "inputs": []
    }, 
    {
      "op": "null", 
      "name": "learned_46", 
      "attrs": {
        "__init__": "[\"one\", {}]", 
        "__shape__": "(64,)"
      }, 
      "inputs": []
    }, 
    {
      "op": "BatchNorm", 
      "name": "batchnorm8", 
      "attrs": {
        "cudnn_off": "0", 
        "eps": "9.999999747378752e-05", 
        "fix_gamma": "False", 
        "momentum": "0.05000000074505806"
      }, 
      "inputs": [[70, 0, 0], [71, 0, 0], [72, 0, 0], [73, 0, 1], [74, 0, 1]]
    }, 
    {
      "op": "relu", 
      "name": "relu9", 
      "inputs": [[75, 0, 0]]
    }, 
    {
      "op": "null", 
      "name": "learned_47", 
      "attrs": {"__shape__": "(64, 64, 3, 3)"}, 
      "inputs": []
    }, 
    {
      "op": "Convolution", 
      "name": "convolution10", 
      "attrs": {
        "dilate": "(1, 1)", 
        "kernel": "(3, 3)", 
        "layout": "NCHW", 
        "no_bias": "True", 
        "num_filter": "64", 
        "num_group": "1", 
        "pad": "(1, 1)", 
        "stride": "(1, 1)"
      }, 
      "inputs": [[76, 0, 0], [77, 0, 0]]
    }, 
    {
      "op": "null", 
      "name": "learned_48", 
      "attrs": {"__shape__": "(64,)"}, 
      "inputs": []
    }, 
    {
      "op": "null", 
      "name": "learned_49", 
      "attrs": {"__shape__": "(64,)"}, 
      "inputs": []
    }, 
    {
      "op": "null", 
      "name": "learned_50", 
      "attrs": {
        "__init__": "[\"zero\", {}]", 
        "__shape__": "(64,)"
      }, 
      "inputs": []
    }, 
    {
      "op": "null", 
      "name": "learned_51", 
      "attrs": {
        "__init__": "[\"one\", {}]", 
        "__shape__": "(64,)"
      }, 
      "inputs": []
    }, 
    {
      "op": "BatchNorm", 
      "name": "batchnorm9", 
      "attrs": {
        "cudnn_off": "0", 
        "eps": "9.999999747378752e-05", 
        "fix_gamma": "False", 
        "momentum": "0.05000000074505806"
      }, 
      "inputs": [[78, 0, 0], [79, 0, 0], [80, 0, 0], [81, 0, 1], [82, 0, 1]]
    }, 
    {
      "op": "relu", 
      "name": "relu10", 
      "inputs": [[83, 0, 0]]
    }, 
    {
      "op": "null", 
      "name": "learned_52", 
      "attrs": {"__shape__": "(64, 64, 3, 3)"}, 
      "inputs": []
    }, 
    {
      "op": "Convolution", 
      "name": "convolution11", 
      "attrs": {
        "dilate": "(1, 1)", 
        "kernel": "(3, 3)", 
        "layout": "NCHW", 
        "no_bias": "True", 
        "num_filter": "64", 
        "num_group": "1", 
        "pad": "(1, 1)", 
        "stride": "(1, 1)"
      }, 
      "inputs": [[84, 0, 0], [85, 0, 0]]
    }, 
    {
      "op": "null", 
      "name": "learned_53", 
      "attrs": {"__shape__": "(64,)"}, 
      "inputs": []
    }, 
    {
      "op": "null", 
      "name": "learned_54", 
      "attrs": {"__shape__": "(64,)"}, 
      "inputs": []
    }, 
    {
      "op": "null", 
      "name": "learned_55", 
      "attrs": {
        "__init__": "[\"zero\", {}]", 
        "__shape__": "(64,)"
      }, 
      "inputs": []
    }, 
    {
      "op": "null", 
      "name": "learned_56", 
      "attrs": {
        "__init__": "[\"one\", {}]", 
        "__shape__": "(64,)"
      }, 
      "inputs": []
    }, 
    {
      "op": "BatchNorm", 
      "name": "batchnorm10", 
      "attrs": {
        "cudnn_off": "0", 
        "eps": "9.999999747378752e-05", 
        "fix_gamma": "False", 
        "momentum": "0.05000000074505806"
      }, 
      "inputs": [[86, 0, 0], [87, 0, 0], [88, 0, 0], [89, 0, 1], [90, 0, 1]]
    }, 
    {
      "op": "relu", 
      "name": "relu11", 
      "inputs": [[91, 0, 0]]
    }, 
    {
      "op": "null", 
      "name": "learned_57", 
      "attrs": {"__shape__": "(64, 64, 3, 3)"}, 
      "inputs": []
    }, 
    {
      "op": "Convolution", 
      "name": "convolution12", 
      "attrs": {
        "dilate": "(1, 1)", 
        "kernel": "(3, 3)", 
        "layout": "NCHW", 
        "no_bias": "True", 
        "num_filter": "64", 
        "num_group": "1", 
        "pad": "(1, 1)", 
        "stride": "(1, 1)"
      }, 
      "inputs": [[92, 0, 0], [93, 0, 0]]
    }, 
    {
      "op": "null", 
      "name": "learned_58", 
      "attrs": {"__shape__": "(64,)"}, 
      "inputs": []
    }, 
    {
      "op": "null", 
      "name": "learned_59", 
      "attrs": {"__shape__": "(64,)"}, 
      "inputs": []
    }, 
    {
      "op": "null", 
      "name": "learned_60", 
      "attrs": {
        "__init__": "[\"zero\", {}]", 
        "__shape__": "(64,)"
      }, 
      "inputs": []
    }, 
    {
      "op": "null", 
      "name": "learned_61", 
      "attrs": {
        "__init__": "[\"one\", {}]", 
        "__shape__": "(64,)"
      }, 
      "inputs": []
    }, 
    {
      "op": "BatchNorm", 
      "name": "batchnorm11", 
      "attrs": {
        "cudnn_off": "0", 
        "eps": "9.999999747378752e-05", 
        "fix_gamma": "False", 
        "momentum": "0.05000000074505806"
      }, 
      "inputs": [[94, 0, 0], [95, 0, 0], [96, 0, 0], [97, 0, 1], [98, 0, 1]]
    }, 
    {
      "op": "relu", 
      "name": "relu12", 
      "inputs": [[99, 0, 0]]
    }, 
    {
      "op": "null", 
      "name": "learned_62", 
      "attrs": {"__shape__": "(64, 64, 3, 3)"}, 
      "inputs": []
    }, 
    {
      "op": "Convolution", 
      "name": "convolution13", 
      "attrs": {
        "dilate": "(1, 1)", 
        "kernel": "(3, 3)", 
        "layout": "NCHW", 
        "no_bias": "True", 
        "num_filter": "64", 
        "num_group": "1", 
        "pad": "(1, 1)", 
        "stride": "(1, 1)"
      }, 
      "inputs": [[100, 0, 0], [101, 0, 0]]
    }, 
    {
      "op": "null", 
      "name": "learned_63", 
      "attrs": {"__shape__": "(64,)"}, 
      "inputs": []
    }, 
    {
      "op": "null", 
      "name": "learned_64", 
      "attrs": {"__shape__": "(64,)"}, 
      "inputs": []
    }, 
    {
      "op": "null", 
      "name": "learned_65", 
      "attrs": {
        "__init__": "[\"zero\", {}]", 
        "__shape__": "(64,)"
      }, 
      "inputs": []
    }, 
    {
      "op": "null", 
      "name": "learned_66", 
      "attrs": {
        "__init__": "[\"one\", {}]", 
        "__shape__": "(64,)"
      }, 
      "inputs": []
    }, 
    {
      "op": "BatchNorm", 
      "name": "batchnorm12", 
      "attrs": {
        "cudnn_off": "0", 
        "eps": "9.999999747378752e-05", 
        "fix_gamma": "False", 
        "momentum": "0.05000000074505806"
      }, 
      "inputs": [[102, 0, 0], [103, 0, 0], [104, 0, 0], [105, 0, 1], [106, 0, 1]]
    }, 
    {
      "op": "relu", 
      "name": "relu13", 
      "inputs": [[107, 0, 0]]
    }, 
    {
      "op": "null", 
      "name": "learned_67", 
      "attrs": {"__shape__": "(64, 64, 3, 3)"}, 
      "inputs": []
    }, 
    {
      "op": "Convolution", 
      "name": "convolution14", 
      "attrs": {
        "dilate": "(1, 1)", 
        "kernel": "(3, 3)", 
        "layout": "NCHW", 
        "no_bias": "True", 
        "num_filter": "64", 
        "num_group": "1", 
        "pad": "(1, 1)", 
        "stride": "(1, 1)"
      }, 
      "inputs": [[108, 0, 0], [109, 0, 0]]
    }, 
    {
      "op": "null", 
      "name": "learned_68", 
      "attrs": {"__shape__": "(64,)"}, 
      "inputs": []
    }, 
    {
      "op": "null", 
      "name": "learned_69", 
      "attrs": {"__shape__": "(64,)"}, 
      "inputs": []
    }, 
    {
      "op": "null", 
      "name": "learned_70", 
      "attrs": {
        "__init__": "[\"zero\", {}]", 
        "__shape__": "(64,)"
      }, 
      "inputs": []
    }, 
    {
      "op": "null", 
      "name": "learned_71", 
      "attrs": {
        "__init__": "[\"one\", {}]", 
        "__shape__": "(64,)"
      }, 
      "inputs": []
    }, 
    {
      "op": "BatchNorm", 
      "name": "batchnorm13", 
      "attrs": {
        "cudnn_off": "0", 
        "eps": "9.999999747378752e-05", 
        "fix_gamma": "False", 
        "momentum": "0.05000000074505806"
      }, 
      "inputs": [[110, 0, 0], [111, 0, 0], [112, 0, 0], [113, 0, 1], [114, 0, 1]]
    }, 
    {
      "op": "relu", 
      "name": "relu14", 
      "inputs": [[115, 0, 0]]
    }, 
    {
      "op": "null", 
      "name": "learned_72", 
      "attrs": {"__shape__": "(64, 64, 3, 3)"}, 
      "inputs": []
    }, 
    {
      "op": "Convolution", 
      "name": "convolution15", 
      "attrs": {
        "dilate": "(1, 1)", 
        "kernel": "(3, 3)", 
        "layout": "NCHW", 
        "no_bias": "True", 
        "num_filter": "64", 
        "num_group": "1", 
        "pad": "(1, 1)", 
        "stride": "(1, 1)"
      }, 
      "inputs": [[116, 0, 0], [117, 0, 0]]
    }, 
    {
      "op": "null", 
      "name": "learned_73", 
      "attrs": {"__shape__": "(64,)"}, 
      "inputs": []
    }, 
    {
      "op": "null", 
      "name": "learned_74", 
      "attrs": {"__shape__": "(64,)"}, 
      "inputs": []
    }, 
    {
      "op": "null", 
      "name": "learned_75", 
      "attrs": {
        "__init__": "[\"zero\", {}]", 
        "__shape__": "(64,)"
      }, 
      "inputs": []
    }, 
    {
      "op": "null", 
      "name": "learned_76", 
      "attrs": {
        "__init__": "[\"one\", {}]", 
        "__shape__": "(64,)"
      }, 
      "inputs": []
    }, 
    {
      "op": "BatchNorm", 
      "name": "batchnorm14", 
      "attrs": {
        "cudnn_off": "0", 
        "eps": "9.999999747378752e-05", 
        "fix_gamma": "False", 
        "momentum": "0.05000000074505806"
      }, 
      "inputs": [[118, 0, 0], [119, 0, 0], [120, 0, 0], [121, 0, 1], [122, 0, 1]]
    }, 
    {
      "op": "relu", 
      "name": "relu15", 
      "inputs": [[123, 0, 0]]
    }, 
    {
      "op": "null", 
      "name": "learned_77", 
      "attrs": {"__shape__": "(1, 64, 3, 3)"}, 
      "inputs": []
    }, 
    {
      "op": "Convolution", 
      "name": "convolution16", 
      "attrs": {
        "dilate": "(1, 1)", 
        "kernel": "(3, 3)", 
        "layout": "NCHW", 
        "no_bias": "True", 
        "num_filter": "1", 
        "num_group": "1", 
        "pad": "(1, 1)", 
        "stride": "(1, 1)"
      }, 
      "inputs": [[124, 0, 0], [125, 0, 0]]
    }, 
    {
      "op": "broadcast_sub", 
      "name": "broadcast_sub0", 
      "inputs": [[0, 0, 0], [126, 0, 0]]
    }
  ], 
  "arg_nodes": [
    0, 
    1, 
    2, 
    5, 
    7, 
    8, 
    9, 
    10, 
    13, 
    15, 
    16, 
    17, 
    18, 
    21, 
    23, 
    24, 
    25, 
    26, 
    29, 
    31, 
    32, 
    33, 
    34, 
    37, 
    39, 
    40, 
    41, 
    42, 
    45, 
    47, 
    48, 
    49, 
    50, 
    53, 
    55, 
    56, 
    57, 
    58, 
    61, 
    63, 
    64, 
    65, 
    66, 
    69, 
    71, 
    72, 
    73, 
    74, 
    77, 
    79, 
    80, 
    81, 
    82, 
    85, 
    87, 
    88, 
    89, 
    90, 
    93, 
    95, 
    96, 
    97, 
    98, 
    101, 
    103, 
    104, 
    105, 
    106, 
    109, 
    111, 
    112, 
    113, 
    114, 
    117, 
    119, 
    120, 
    121, 
    122, 
    125
  ], 
  "node_row_ptr": [
    0, 
    1, 
    2, 
    3, 
    4, 
    5, 
    6, 
    7, 
    8, 
    9, 
    10, 
    11, 
    14, 
    15, 
    16, 
    17, 
    18, 
    19, 
    20, 
    21, 
    24, 
    25, 
    26, 
    27, 
    28, 
    29, 
    30, 
    31, 
    34, 
    35, 
    36, 
    37, 
    38, 
    39, 
    40, 
    41, 
    44, 
    45, 
    46, 
    47, 
    48, 
    49, 
    50, 
    51, 
    54, 
    55, 
    56, 
    57, 
    58, 
    59, 
    60, 
    61, 
    64, 
    65, 
    66, 
    67, 
    68, 
    69, 
    70, 
    71, 
    74, 
    75, 
    76, 
    77, 
    78, 
    79, 
    80, 
    81, 
    84, 
    85, 
    86, 
    87, 
    88, 
    89, 
    90, 
    91, 
    94, 
    95, 
    96, 
    97, 
    98, 
    99, 
    100, 
    101, 
    104, 
    105, 
    106, 
    107, 
    108, 
    109, 
    110, 
    111, 
    114, 
    115, 
    116, 
    117, 
    118, 
    119, 
    120, 
    121, 
    124, 
    125, 
    126, 
    127, 
    128, 
    129, 
    130, 
    131, 
    134, 
    135, 
    136, 
    137, 
    138, 
    139, 
    140, 
    141, 
    144, 
    145, 
    146, 
    147, 
    148, 
    149, 
    150, 
    151, 
    154, 
    155, 
    156, 
    157, 
    158
  ], 
  "heads": [[127, 0, 0]], 
  "attrs": {"mxnet_version": ["int", 10300]}
}