{
  "nodes": [
    {
      "op": "null", 
      "name": "data", 
      "inputs": []
    }, 
    {
      "op": "null", 
      "name": "bn_conv1_gamma", 
      "attrs": {
        "eps": "0.0001", 
        "fix_gamma": "False", 
        "use_global_stats": "True"
      }, 
      "inputs": []
    }, 
    {
      "op": "null", 
      "name": "bn_conv1_beta", 
      "attrs": {
        "eps": "0.0001", 
        "fix_gamma": "False", 
        "use_global_stats": "True"
      }, 
      "inputs": []
    }, 
    {
      "op": "null", 
      "name": "bn_conv1_moving_mean", 
      "attrs": {
        "__init__": "[\"zero\", {}]", 
        "eps": "0.0001", 
        "fix_gamma": "False", 
        "use_global_stats": "True"
      }, 
      "inputs": []
    }, 
    {
      "op": "null", 
      "name": "bn_conv1_moving_var", 
      "attrs": {
        "__init__": "[\"one\", {}]", 
        "eps": "0.0001", 
        "fix_gamma": "False", 
        "use_global_stats": "True"
      }, 
      "inputs": []
    }, 
    {
      "op": "BatchNorm", 
      "name": "bn_conv1", 
      "attrs": {
        "eps": "0.0001", 
        "fix_gamma": "False", 
        "use_global_stats": "True"
      }, 
      "inputs": [[0, 0, 0], [1, 0, 0], [2, 0, 0], [3, 0, 1], [4, 0, 1]]
    }, 
    {
      "op": "Activation", 
      "name": "relu1", 
      "attrs": {"act_type": "relu"}, 
      "inputs": [[5, 0, 0]]
    }, 
    {
      "op": "null", 
      "name": "conv1_weight", 
      "attrs": {
        "kernel": "(3, 3)", 
        "no_bias": "False", 
        "num_filter": "128", 
        "pad": "(1, 1)", 
        "stride": "(1, 1)"
      }, 
      "inputs": []
    }, 
    {
      "op": "null", 
      "name": "conv1_bias", 
      "attrs": {
        "kernel": "(3, 3)", 
        "no_bias": "False", 
        "num_filter": "128", 
        "pad": "(1, 1)", 
        "stride": "(1, 1)"
      }, 
      "inputs": []
    }, 
    {
      "op": "Convolution", 
      "name": "conv1", 
      "attrs": {
        "kernel": "(3, 3)", 
        "no_bias": "False", 
        "num_filter": "128", 
        "pad": "(1, 1)", 
        "stride": "(1, 1)"
      }, 
      "inputs": [[6, 0, 0], [7, 0, 0], [8, 0, 0]]
    }, 
    {
      "op": "null", 
      "name": "bn_conv1_1a_gamma", 
      "attrs": {
        "eps": "0.0001", 
        "fix_gamma": "False", 
        "use_global_stats": "True"
      }, 
      "inputs": []
    }, 
    {
      "op": "null", 
      "name": "bn_conv1_1a_beta", 
      "attrs": {
        "eps": "0.0001", 
        "fix_gamma": "False", 
        "use_global_stats": "True"
      }, 
      "inputs": []
    }, 
    {
      "op": "null", 
      "name": "bn_conv1_1a_moving_mean", 
      "attrs": {
        "__init__": "[\"zero\", {}]", 
        "eps": "0.0001", 
        "fix_gamma": "False", 
        "use_global_stats": "True"
      }, 
      "inputs": []
    }, 
    {
      "op": "null", 
      "name": "bn_conv1_1a_moving_var", 
      "attrs": {
        "__init__": "[\"one\", {}]", 
        "eps": "0.0001", 
        "fix_gamma": "False", 
        "use_global_stats": "True"
      }, 
      "inputs": []
    }, 
    {
      "op": "BatchNorm", 
      "name": "bn_conv1_1a", 
      "attrs": {
        "eps": "0.0001", 
        "fix_gamma": "False", 
        "use_global_stats": "True"
      }, 
      "inputs": [[9, 0, 0], [10, 0, 0], [11, 0, 0], [12, 0, 1], [13, 0, 1]]
    }, 
    {
      "op": "Activation", 
      "name": "relu1_1a", 
      "attrs": {"act_type": "relu"}, 
      "inputs": [[14, 0, 0]]
    }, 
    {
      "op": "null", 
      "name": "conv1_1a_weight", 
      "attrs": {
        "kernel": "(3, 3)", 
        "no_bias": "False", 
        "num_filter": "128", 
        "pad": "(1, 1)", 
        "stride": "(1, 1)"
      }, 
      "inputs": []
    }, 
    {
      "op": "null", 
      "name": "conv1_1a_bias", 
      "attrs": {
        "kernel": "(3, 3)", 
        "no_bias": "False", 
        "num_filter": "128", 
        "pad": "(1, 1)", 
        "stride": "(1, 1)"
      }, 
      "inputs": []
    }, 
    {
      "op": "Convolution", 
      "name": "conv1_1a", 
      "attrs": {
        "kernel": "(3, 3)", 
        "no_bias": "False", 
        "num_filter": "128", 
        "pad": "(1, 1)", 
        "stride": "(1, 1)"
      }, 
      "inputs": [[15, 0, 0], [16, 0, 0], [17, 0, 0]]
    }, 
    {
      "op": "null", 
      "name": "bn_conv1_1b_gamma", 
      "attrs": {
        "eps": "0.0001", 
        "fix_gamma": "False", 
        "use_global_stats": "True"
      }, 
      "inputs": []
    }, 
    {
      "op": "null", 
      "name": "bn_conv1_1b_beta", 
      "attrs": {
        "eps": "0.0001", 
        "fix_gamma": "False", 
        "use_global_stats": "True"
      }, 
      "inputs": []
    }, 
    {
      "op": "null", 
      "name": "bn_conv1_1b_moving_mean", 
      "attrs": {
        "__init__": "[\"zero\", {}]", 
        "eps": "0.0001", 
        "fix_gamma": "False", 
        "use_global_stats": "True"
      }, 
      "inputs": []
    }, 
    {
      "op": "null", 
      "name": "bn_conv1_1b_moving_var", 
      "attrs": {
        "__init__": "[\"one\", {}]", 
        "eps": "0.0001", 
        "fix_gamma": "False", 
        "use_global_stats": "True"
      }, 
      "inputs": []
    }, 
    {
      "op": "BatchNorm", 
      "name": "bn_conv1_1b", 
      "attrs": {
        "eps": "0.0001", 
        "fix_gamma": "False", 
        "use_global_stats": "True"
      }, 
      "inputs": [[18, 0, 0], [19, 0, 0], [20, 0, 0], [21, 0, 1], [22, 0, 1]]
    }, 
    {
      "op": "Activation", 
      "name": "relu1_1b", 
      "attrs": {"act_type": "relu"}, 
      "inputs": [[23, 0, 0]]
    }, 
    {
      "op": "null", 
      "name": "conv1_1b_weight", 
      "attrs": {
        "kernel": "(3, 3)", 
        "no_bias": "False", 
        "num_filter": "128", 
        "pad": "(1, 1)", 
        "stride": "(1, 1)"
      }, 
      "inputs": []
    }, 
    {
      "op": "null", 
      "name": "conv1_1b_bias", 
      "attrs": {
        "kernel": "(3, 3)", 
        "no_bias": "False", 
        "num_filter": "128", 
        "pad": "(1, 1)", 
        "stride": "(1, 1)"
      }, 
      "inputs": []
    }, 
    {
      "op": "Convolution", 
      "name": "conv1_1b", 
      "attrs": {
        "kernel": "(3, 3)", 
        "no_bias": "False", 
        "num_filter": "128", 
        "pad": "(1, 1)", 
        "stride": "(1, 1)"
      }, 
      "inputs": [[24, 0, 0], [25, 0, 0], [26, 0, 0]]
    }, 
    {
      "op": "broadcast_add", 
      "name": "eltwise1_1", 
      "inputs": [[9, 0, 0], [27, 0, 0]]
    }, 
    {
      "op": "null", 
      "name": "bn_conv1_2a_gamma", 
      "attrs": {
        "eps": "0.0001", 
        "fix_gamma": "False", 
        "use_global_stats": "True"
      }, 
      "inputs": []
    }, 
    {
      "op": "null", 
      "name": "bn_conv1_2a_beta", 
      "attrs": {
        "eps": "0.0001", 
        "fix_gamma": "False", 
        "use_global_stats": "True"
      }, 
      "inputs": []
    }, 
    {
      "op": "null", 
      "name": "bn_conv1_2a_moving_mean", 
      "attrs": {
        "__init__": "[\"zero\", {}]", 
        "eps": "0.0001", 
        "fix_gamma": "False", 
        "use_global_stats": "True"
      }, 
      "inputs": []
    }, 
    {
      "op": "null", 
      "name": "bn_conv1_2a_moving_var", 
      "attrs": {
        "__init__": "[\"one\", {}]", 
        "eps": "0.0001", 
        "fix_gamma": "False", 
        "use_global_stats": "True"
      }, 
      "inputs": []
    }, 
    {
      "op": "BatchNorm", 
      "name": "bn_conv1_2a", 
      "attrs": {
        "eps": "0.0001", 
        "fix_gamma": "False", 
        "use_global_stats": "True"
      }, 
      "inputs": [[28, 0, 0], [29, 0, 0], [30, 0, 0], [31, 0, 1], [32, 0, 1]]
    }, 
    {
      "op": "Activation", 
      "name": "relu1_2a", 
      "attrs": {"act_type": "relu"}, 
      "inputs": [[33, 0, 0]]
    }, 
    {
      "op": "null", 
      "name": "conv1_2a_weight", 
      "attrs": {
        "kernel": "(3, 3)", 
        "no_bias": "False", 
        "num_filter": "128", 
        "pad": "(1, 1)", 
        "stride": "(1, 1)"
      }, 
      "inputs": []
    }, 
    {
      "op": "null", 
      "name": "conv1_2a_bias", 
      "attrs": {
        "kernel": "(3, 3)", 
        "no_bias": "False", 
        "num_filter": "128", 
        "pad": "(1, 1)", 
        "stride": "(1, 1)"
      }, 
      "inputs": []
    }, 
    {
      "op": "Convolution", 
      "name": "conv1_2a", 
      "attrs": {
        "kernel": "(3, 3)", 
        "no_bias": "False", 
        "num_filter": "128", 
        "pad": "(1, 1)", 
        "stride": "(1, 1)"
      }, 
      "inputs": [[34, 0, 0], [35, 0, 0], [36, 0, 0]]
    }, 
    {
      "op": "null", 
      "name": "bn_conv1_2b_gamma", 
      "attrs": {
        "eps": "0.0001", 
        "fix_gamma": "False", 
        "use_global_stats": "True"
      }, 
      "inputs": []
    }, 
    {
      "op": "null", 
      "name": "bn_conv1_2b_beta", 
      "attrs": {
        "eps": "0.0001", 
        "fix_gamma": "False", 
        "use_global_stats": "True"
      }, 
      "inputs": []
    }, 
    {
      "op": "null", 
      "name": "bn_conv1_2b_moving_mean", 
      "attrs": {
        "__init__": "[\"zero\", {}]", 
        "eps": "0.0001", 
        "fix_gamma": "False", 
        "use_global_stats": "True"
      }, 
      "inputs": []
    }, 
    {
      "op": "null", 
      "name": "bn_conv1_2b_moving_var", 
      "attrs": {
        "__init__": "[\"one\", {}]", 
        "eps": "0.0001", 
        "fix_gamma": "False", 
        "use_global_stats": "True"
      }, 
      "inputs": []
    }, 
    {
      "op": "BatchNorm", 
      "name": "bn_conv1_2b", 
      "attrs": {
        "eps": "0.0001", 
        "fix_gamma": "False", 
        "use_global_stats": "True"
      }, 
      "inputs": [[37, 0, 0], [38, 0, 0], [39, 0, 0], [40, 0, 1], [41, 0, 1]]
    }, 
    {
      "op": "Activation", 
      "name": "relu1_2b", 
      "attrs": {"act_type": "relu"}, 
      "inputs": [[42, 0, 0]]
    }, 
    {
      "op": "null", 
      "name": "conv1_2b_weight", 
      "attrs": {
        "kernel": "(3, 3)", 
        "no_bias": "False", 
        "num_filter": "128", 
        "pad": "(1, 1)", 
        "stride": "(1, 1)"
      }, 
      "inputs": []
    }, 
    {
      "op": "null", 
      "name": "conv1_2b_bias", 
      "attrs": {
        "kernel": "(3, 3)", 
        "no_bias": "False", 
        "num_filter": "128", 
        "pad": "(1, 1)", 
        "stride": "(1, 1)"
      }, 
      "inputs": []
    }, 
    {
      "op": "Convolution", 
      "name": "conv1_2b", 
      "attrs": {
        "kernel": "(3, 3)", 
        "no_bias": "False", 
        "num_filter": "128", 
        "pad": "(1, 1)", 
        "stride": "(1, 1)"
      }, 
      "inputs": [[43, 0, 0], [44, 0, 0], [45, 0, 0]]
    }, 
    {
      "op": "broadcast_add", 
      "name": "eltwise1_2", 
      "inputs": [[9, 0, 0], [46, 0, 0]]
    }, 
    {
      "op": "null", 
      "name": "bn_conv1_3a_gamma", 
      "attrs": {
        "eps": "0.0001", 
        "fix_gamma": "False", 
        "use_global_stats": "True"
      }, 
      "inputs": []
    }, 
    {
      "op": "null", 
      "name": "bn_conv1_3a_beta", 
      "attrs": {
        "eps": "0.0001", 
        "fix_gamma": "False", 
        "use_global_stats": "True"
      }, 
      "inputs": []
    }, 
    {
      "op": "null", 
      "name": "bn_conv1_3a_moving_mean", 
      "attrs": {
        "__init__": "[\"zero\", {}]", 
        "eps": "0.0001", 
        "fix_gamma": "False", 
        "use_global_stats": "True"
      }, 
      "inputs": []
    }, 
    {
      "op": "null", 
      "name": "bn_conv1_3a_moving_var", 
      "attrs": {
        "__init__": "[\"one\", {}]", 
        "eps": "0.0001", 
        "fix_gamma": "False", 
        "use_global_stats": "True"
      }, 
      "inputs": []
    }, 
    {
      "op": "BatchNorm", 
      "name": "bn_conv1_3a", 
      "attrs": {
        "eps": "0.0001", 
        "fix_gamma": "False", 
        "use_global_stats": "True"
      }, 
      "inputs": [[47, 0, 0], [48, 0, 0], [49, 0, 0], [50, 0, 1], [51, 0, 1]]
    }, 
    {
      "op": "Activation", 
      "name": "relu1_3a", 
      "attrs": {"act_type": "relu"}, 
      "inputs": [[52, 0, 0]]
    }, 
    {
      "op": "null", 
      "name": "conv1_3a_weight", 
      "attrs": {
        "kernel": "(3, 3)", 
        "no_bias": "False", 
        "num_filter": "128", 
        "pad": "(1, 1)", 
        "stride": "(1, 1)"
      }, 
      "inputs": []
    }, 
    {
      "op": "null", 
      "name": "conv1_3a_bias", 
      "attrs": {
        "kernel": "(3, 3)", 
        "no_bias": "False", 
        "num_filter": "128", 
        "pad": "(1, 1)", 
        "stride": "(1, 1)"
      }, 
      "inputs": []
    }, 
    {
      "op": "Convolution", 
      "name": "conv1_3a", 
      "attrs": {
        "kernel": "(3, 3)", 
        "no_bias": "False", 
        "num_filter": "128", 
        "pad": "(1, 1)", 
        "stride": "(1, 1)"
      }, 
      "inputs": [[53, 0, 0], [54, 0, 0], [55, 0, 0]]
    }, 
    {
      "op": "null", 
      "name": "bn_conv1_3b_gamma", 
      "attrs": {
        "eps": "0.0001", 
        "fix_gamma": "False", 
        "use_global_stats": "True"
      }, 
      "inputs": []
    }, 
    {
      "op": "null", 
      "name": "bn_conv1_3b_beta", 
      "attrs": {
        "eps": "0.0001", 
        "fix_gamma": "False", 
        "use_global_stats": "True"
      }, 
      "inputs": []
    }, 
    {
      "op": "null", 
      "name": "bn_conv1_3b_moving_mean", 
      "attrs": {
        "__init__": "[\"zero\", {}]", 
        "eps": "0.0001", 
        "fix_gamma": "False", 
        "use_global_stats": "True"
      }, 
      "inputs": []
    }, 
    {
      "op": "null", 
      "name": "bn_conv1_3b_moving_var", 
      "attrs": {
        "__init__": "[\"one\", {}]", 
        "eps": "0.0001", 
        "fix_gamma": "False", 
        "use_global_stats": "True"
      }, 
      "inputs": []
    }, 
    {
      "op": "BatchNorm", 
      "name": "bn_conv1_3b", 
      "attrs": {
        "eps": "0.0001", 
        "fix_gamma": "False", 
        "use_global_stats": "True"
      }, 
      "inputs": [[56, 0, 0], [57, 0, 0], [58, 0, 0], [59, 0, 1], [60, 0, 1]]
    }, 
    {
      "op": "Activation", 
      "name": "relu1_3b", 
      "attrs": {"act_type": "relu"}, 
      "inputs": [[61, 0, 0]]
    }, 
    {
      "op": "null", 
      "name": "conv1_3b_weight", 
      "attrs": {
        "kernel": "(3, 3)", 
        "no_bias": "False", 
        "num_filter": "128", 
        "pad": "(1, 1)", 
        "stride": "(1, 1)"
      }, 
      "inputs": []
    }, 
    {
      "op": "null", 
      "name": "conv1_3b_bias", 
      "attrs": {
        "kernel": "(3, 3)", 
        "no_bias": "False", 
        "num_filter": "128", 
        "pad": "(1, 1)", 
        "stride": "(1, 1)"
      }, 
      "inputs": []
    }, 
    {
      "op": "Convolution", 
      "name": "conv1_3b", 
      "attrs": {
        "kernel": "(3, 3)", 
        "no_bias": "False", 
        "num_filter": "128", 
        "pad": "(1, 1)", 
        "stride": "(1, 1)"
      }, 
      "inputs": [[62, 0, 0], [63, 0, 0], [64, 0, 0]]
    }, 
    {
      "op": "broadcast_add", 
      "name": "eltwise1_3", 
      "inputs": [[9, 0, 0], [65, 0, 0]]
    }, 
    {
      "op": "null", 
      "name": "bn_conv1_4a_gamma", 
      "attrs": {
        "eps": "0.0001", 
        "fix_gamma": "False", 
        "use_global_stats": "True"
      }, 
      "inputs": []
    }, 
    {
      "op": "null", 
      "name": "bn_conv1_4a_beta", 
      "attrs": {
        "eps": "0.0001", 
        "fix_gamma": "False", 
        "use_global_stats": "True"
      }, 
      "inputs": []
    }, 
    {
      "op": "null", 
      "name": "bn_conv1_4a_moving_mean", 
      "attrs": {
        "__init__": "[\"zero\", {}]", 
        "eps": "0.0001", 
        "fix_gamma": "False", 
        "use_global_stats": "True"
      }, 
      "inputs": []
    }, 
    {
      "op": "null", 
      "name": "bn_conv1_4a_moving_var", 
      "attrs": {
        "__init__": "[\"one\", {}]", 
        "eps": "0.0001", 
        "fix_gamma": "False", 
        "use_global_stats": "True"
      }, 
      "inputs": []
    }, 
    {
      "op": "BatchNorm", 
      "name": "bn_conv1_4a", 
      "attrs": {
        "eps": "0.0001", 
        "fix_gamma": "False", 
        "use_global_stats": "True"
      }, 
      "inputs": [[66, 0, 0], [67, 0, 0], [68, 0, 0], [69, 0, 1], [70, 0, 1]]
    }, 
    {
      "op": "Activation", 
      "name": "relu1_4a", 
      "attrs": {"act_type": "relu"}, 
      "inputs": [[71, 0, 0]]
    }, 
    {
      "op": "null", 
      "name": "conv1_4a_weight", 
      "attrs": {
        "kernel": "(3, 3)", 
        "no_bias": "False", 
        "num_filter": "128", 
        "pad": "(1, 1)", 
        "stride": "(1, 1)"
      }, 
      "inputs": []
    }, 
    {
      "op": "null", 
      "name": "conv1_4a_bias", 
      "attrs": {
        "kernel": "(3, 3)", 
        "no_bias": "False", 
        "num_filter": "128", 
        "pad": "(1, 1)", 
        "stride": "(1, 1)"
      }, 
      "inputs": []
    }, 
    {
      "op": "Convolution", 
      "name": "conv1_4a", 
      "attrs": {
        "kernel": "(3, 3)", 
        "no_bias": "False", 
        "num_filter": "128", 
        "pad": "(1, 1)", 
        "stride": "(1, 1)"
      }, 
      "inputs": [[72, 0, 0], [73, 0, 0], [74, 0, 0]]
    }, 
    {
      "op": "null", 
      "name": "bn_conv1_4b_gamma", 
      "attrs": {
        "eps": "0.0001", 
        "fix_gamma": "False", 
        "use_global_stats": "True"
      }, 
      "inputs": []
    }, 
    {
      "op": "null", 
      "name": "bn_conv1_4b_beta", 
      "attrs": {
        "eps": "0.0001", 
        "fix_gamma": "False", 
        "use_global_stats": "True"
      }, 
      "inputs": []
    }, 
    {
      "op": "null", 
      "name": "bn_conv1_4b_moving_mean", 
      "attrs": {
        "__init__": "[\"zero\", {}]", 
        "eps": "0.0001", 
        "fix_gamma": "False", 
        "use_global_stats": "True"
      }, 
      "inputs": []
    }, 
    {
      "op": "null", 
      "name": "bn_conv1_4b_moving_var", 
      "attrs": {
        "__init__": "[\"one\", {}]", 
        "eps": "0.0001", 
        "fix_gamma": "False", 
        "use_global_stats": "True"
      }, 
      "inputs": []
    }, 
    {
      "op": "BatchNorm", 
      "name": "bn_conv1_4b", 
      "attrs": {
        "eps": "0.0001", 
        "fix_gamma": "False", 
        "use_global_stats": "True"
      }, 
      "inputs": [[75, 0, 0], [76, 0, 0], [77, 0, 0], [78, 0, 1], [79, 0, 1]]
    }, 
    {
      "op": "Activation", 
      "name": "relu1_4b", 
      "attrs": {"act_type": "relu"}, 
      "inputs": [[80, 0, 0]]
    }, 
    {
      "op": "null", 
      "name": "conv1_4b_weight", 
      "attrs": {
        "kernel": "(3, 3)", 
        "no_bias": "False", 
        "num_filter": "128", 
        "pad": "(1, 1)", 
        "stride": "(1, 1)"
      }, 
      "inputs": []
    }, 
    {
      "op": "null", 
      "name": "conv1_4b_bias", 
      "attrs": {
        "kernel": "(3, 3)", 
        "no_bias": "False", 
        "num_filter": "128", 
        "pad": "(1, 1)", 
        "stride": "(1, 1)"
      }, 
      "inputs": []
    }, 
    {
      "op": "Convolution", 
      "name": "conv1_4b", 
      "attrs": {
        "kernel": "(3, 3)", 
        "no_bias": "False", 
        "num_filter": "128", 
        "pad": "(1, 1)", 
        "stride": "(1, 1)"
      }, 
      "inputs": [[81, 0, 0], [82, 0, 0], [83, 0, 0]]
    }, 
    {
      "op": "broadcast_add", 
      "name": "eltwise1_4", 
      "inputs": [[9, 0, 0], [84, 0, 0]]
    }, 
    {
      "op": "null", 
      "name": "bn_conv1_5a_gamma", 
      "attrs": {
        "eps": "0.0001", 
        "fix_gamma": "False", 
        "use_global_stats": "True"
      }, 
      "inputs": []
    }, 
    {
      "op": "null", 
      "name": "bn_conv1_5a_beta", 
      "attrs": {
        "eps": "0.0001", 
        "fix_gamma": "False", 
        "use_global_stats": "True"
      }, 
      "inputs": []
    }, 
    {
      "op": "null", 
      "name": "bn_conv1_5a_moving_mean", 
      "attrs": {
        "__init__": "[\"zero\", {}]", 
        "eps": "0.0001", 
        "fix_gamma": "False", 
        "use_global_stats": "True"
      }, 
      "inputs": []
    }, 
    {
      "op": "null", 
      "name": "bn_conv1_5a_moving_var", 
      "attrs": {
        "__init__": "[\"one\", {}]", 
        "eps": "0.0001", 
        "fix_gamma": "False", 
        "use_global_stats": "True"
      }, 
      "inputs": []
    }, 
    {
      "op": "BatchNorm", 
      "name": "bn_conv1_5a", 
      "attrs": {
        "eps": "0.0001", 
        "fix_gamma": "False", 
        "use_global_stats": "True"
      }, 
      "inputs": [[85, 0, 0], [86, 0, 0], [87, 0, 0], [88, 0, 1], [89, 0, 1]]
    }, 
    {
      "op": "Activation", 
      "name": "relu1_5a", 
      "attrs": {"act_type": "relu"}, 
      "inputs": [[90, 0, 0]]
    }, 
    {
      "op": "null", 
      "name": "conv1_5a_weight", 
      "attrs": {
        "kernel": "(3, 3)", 
        "no_bias": "False", 
        "num_filter": "128", 
        "pad": "(1, 1)", 
        "stride": "(1, 1)"
      }, 
      "inputs": []
    }, 
    {
      "op": "null", 
      "name": "conv1_5a_bias", 
      "attrs": {
        "kernel": "(3, 3)", 
        "no_bias": "False", 
        "num_filter": "128", 
        "pad": "(1, 1)", 
        "stride": "(1, 1)"
      }, 
      "inputs": []
    }, 
    {
      "op": "Convolution", 
      "name": "conv1_5a", 
      "attrs": {
        "kernel": "(3, 3)", 
        "no_bias": "False", 
        "num_filter": "128", 
        "pad": "(1, 1)", 
        "stride": "(1, 1)"
      }, 
      "inputs": [[91, 0, 0], [92, 0, 0], [93, 0, 0]]
    }, 
    {
      "op": "null", 
      "name": "bn_conv1_5b_gamma", 
      "attrs": {
        "eps": "0.0001", 
        "fix_gamma": "False", 
        "use_global_stats": "True"
      }, 
      "inputs": []
    }, 
    {
      "op": "null", 
      "name": "bn_conv1_5b_beta", 
      "attrs": {
        "eps": "0.0001", 
        "fix_gamma": "False", 
        "use_global_stats": "True"
      }, 
      "inputs": []
    }, 
    {
      "op": "null", 
      "name": "bn_conv1_5b_moving_mean", 
      "attrs": {
        "__init__": "[\"zero\", {}]", 
        "eps": "0.0001", 
        "fix_gamma": "False", 
        "use_global_stats": "True"
      }, 
      "inputs": []
    }, 
    {
      "op": "null", 
      "name": "bn_conv1_5b_moving_var", 
      "attrs": {
        "__init__": "[\"one\", {}]", 
        "eps": "0.0001", 
        "fix_gamma": "False", 
        "use_global_stats": "True"
      }, 
      "inputs": []
    }, 
    {
      "op": "BatchNorm", 
      "name": "bn_conv1_5b", 
      "attrs": {
        "eps": "0.0001", 
        "fix_gamma": "False", 
        "use_global_stats": "True"
      }, 
      "inputs": [[94, 0, 0], [95, 0, 0], [96, 0, 0], [97, 0, 1], [98, 0, 1]]
    }, 
    {
      "op": "Activation", 
      "name": "relu1_5b", 
      "attrs": {"act_type": "relu"}, 
      "inputs": [[99, 0, 0]]
    }, 
    {
      "op": "null", 
      "name": "conv1_5b_weight", 
      "attrs": {
        "kernel": "(3, 3)", 
        "no_bias": "False", 
        "num_filter": "128", 
        "pad": "(1, 1)", 
        "stride": "(1, 1)"
      }, 
      "inputs": []
    }, 
    {
      "op": "null", 
      "name": "conv1_5b_bias", 
      "attrs": {
        "kernel": "(3, 3)", 
        "no_bias": "False", 
        "num_filter": "128", 
        "pad": "(1, 1)", 
        "stride": "(1, 1)"
      }, 
      "inputs": []
    }, 
    {
      "op": "Convolution", 
      "name": "conv1_5b", 
      "attrs": {
        "kernel": "(3, 3)", 
        "no_bias": "False", 
        "num_filter": "128", 
        "pad": "(1, 1)", 
        "stride": "(1, 1)"
      }, 
      "inputs": [[100, 0, 0], [101, 0, 0], [102, 0, 0]]
    }, 
    {
      "op": "broadcast_add", 
      "name": "eltwise1_5", 
      "inputs": [[9, 0, 0], [103, 0, 0]]
    }, 
    {
      "op": "null", 
      "name": "bn_conv1_6a_gamma", 
      "attrs": {
        "eps": "0.0001", 
        "fix_gamma": "False", 
        "use_global_stats": "True"
      }, 
      "inputs": []
    }, 
    {
      "op": "null", 
      "name": "bn_conv1_6a_beta", 
      "attrs": {
        "eps": "0.0001", 
        "fix_gamma": "False", 
        "use_global_stats": "True"
      }, 
      "inputs": []
    }, 
    {
      "op": "null", 
      "name": "bn_conv1_6a_moving_mean", 
      "attrs": {
        "__init__": "[\"zero\", {}]", 
        "eps": "0.0001", 
        "fix_gamma": "False", 
        "use_global_stats": "True"
      }, 
      "inputs": []
    }, 
    {
      "op": "null", 
      "name": "bn_conv1_6a_moving_var", 
      "attrs": {
        "__init__": "[\"one\", {}]", 
        "eps": "0.0001", 
        "fix_gamma": "False", 
        "use_global_stats": "True"
      }, 
      "inputs": []
    }, 
    {
      "op": "BatchNorm", 
      "name": "bn_conv1_6a", 
      "attrs": {
        "eps": "0.0001", 
        "fix_gamma": "False", 
        "use_global_stats": "True"
      }, 
      "inputs": [[104, 0, 0], [105, 0, 0], [106, 0, 0], [107, 0, 1], [108, 0, 1]]
    }, 
    {
      "op": "Activation", 
      "name": "relu1_6a", 
      "attrs": {"act_type": "relu"}, 
      "inputs": [[109, 0, 0]]
    }, 
    {
      "op": "null", 
      "name": "conv1_6a_weight", 
      "attrs": {
        "kernel": "(3, 3)", 
        "no_bias": "False", 
        "num_filter": "128", 
        "pad": "(1, 1)", 
        "stride": "(1, 1)"
      }, 
      "inputs": []
    }, 
    {
      "op": "null", 
      "name": "conv1_6a_bias", 
      "attrs": {
        "kernel": "(3, 3)", 
        "no_bias": "False", 
        "num_filter": "128", 
        "pad": "(1, 1)", 
        "stride": "(1, 1)"
      }, 
      "inputs": []
    }, 
    {
      "op": "Convolution", 
      "name": "conv1_6a", 
      "attrs": {
        "kernel": "(3, 3)", 
        "no_bias": "False", 
        "num_filter": "128", 
        "pad": "(1, 1)", 
        "stride": "(1, 1)"
      }, 
      "inputs": [[110, 0, 0], [111, 0, 0], [112, 0, 0]]
    }, 
    {
      "op": "null", 
      "name": "bn_conv1_6b_gamma", 
      "attrs": {
        "eps": "0.0001", 
        "fix_gamma": "False", 
        "use_global_stats": "True"
      }, 
      "inputs": []
    }, 
    {
      "op": "null", 
      "name": "bn_conv1_6b_beta", 
      "attrs": {
        "eps": "0.0001", 
        "fix_gamma": "False", 
        "use_global_stats": "True"
      }, 
      "inputs": []
    }, 
    {
      "op": "null", 
      "name": "bn_conv1_6b_moving_mean", 
      "attrs": {
        "__init__": "[\"zero\", {}]", 
        "eps": "0.0001", 
        "fix_gamma": "False", 
        "use_global_stats": "True"
      }, 
      "inputs": []
    }, 
    {
      "op": "null", 
      "name": "bn_conv1_6b_moving_var", 
      "attrs": {
        "__init__": "[\"one\", {}]", 
        "eps": "0.0001", 
        "fix_gamma": "False", 
        "use_global_stats": "True"
      }, 
      "inputs": []
    }, 
    {
      "op": "BatchNorm", 
      "name": "bn_conv1_6b", 
      "attrs": {
        "eps": "0.0001", 
        "fix_gamma": "False", 
        "use_global_stats": "True"
      }, 
      "inputs": [[113, 0, 0], [114, 0, 0], [115, 0, 0], [116, 0, 1], [117, 0, 1]]
    }, 
    {
      "op": "Activation", 
      "name": "relu1_6b", 
      "attrs": {"act_type": "relu"}, 
      "inputs": [[118, 0, 0]]
    }, 
    {
      "op": "null", 
      "name": "conv1_6b_weight", 
      "attrs": {
        "kernel": "(3, 3)", 
        "no_bias": "False", 
        "num_filter": "128", 
        "pad": "(1, 1)", 
        "stride": "(1, 1)"
      }, 
      "inputs": []
    }, 
    {
      "op": "null", 
      "name": "conv1_6b_bias", 
      "attrs": {
        "kernel": "(3, 3)", 
        "no_bias": "False", 
        "num_filter": "128", 
        "pad": "(1, 1)", 
        "stride": "(1, 1)"
      }, 
      "inputs": []
    }, 
    {
      "op": "Convolution", 
      "name": "conv1_6b", 
      "attrs": {
        "kernel": "(3, 3)", 
        "no_bias": "False", 
        "num_filter": "128", 
        "pad": "(1, 1)", 
        "stride": "(1, 1)"
      }, 
      "inputs": [[119, 0, 0], [120, 0, 0], [121, 0, 0]]
    }, 
    {
      "op": "broadcast_add", 
      "name": "eltwise1_6", 
      "inputs": [[9, 0, 0], [122, 0, 0]]
    }, 
    {
      "op": "null", 
      "name": "bn_conv1_7a_gamma", 
      "attrs": {
        "eps": "0.0001", 
        "fix_gamma": "False", 
        "use_global_stats": "True"
      }, 
      "inputs": []
    }, 
    {
      "op": "null", 
      "name": "bn_conv1_7a_beta", 
      "attrs": {
        "eps": "0.0001", 
        "fix_gamma": "False", 
        "use_global_stats": "True"
      }, 
      "inputs": []
    }, 
    {
      "op": "null", 
      "name": "bn_conv1_7a_moving_mean", 
      "attrs": {
        "__init__": "[\"zero\", {}]", 
        "eps": "0.0001", 
        "fix_gamma": "False", 
        "use_global_stats": "True"
      }, 
      "inputs": []
    }, 
    {
      "op": "null", 
      "name": "bn_conv1_7a_moving_var", 
      "attrs": {
        "__init__": "[\"one\", {}]", 
        "eps": "0.0001", 
        "fix_gamma": "False", 
        "use_global_stats": "True"
      }, 
      "inputs": []
    }, 
    {
      "op": "BatchNorm", 
      "name": "bn_conv1_7a", 
      "attrs": {
        "eps": "0.0001", 
        "fix_gamma": "False", 
        "use_global_stats": "True"
      }, 
      "inputs": [[123, 0, 0], [124, 0, 0], [125, 0, 0], [126, 0, 1], [127, 0, 1]]
    }, 
    {
      "op": "Activation", 
      "name": "relu1_7a", 
      "attrs": {"act_type": "relu"}, 
      "inputs": [[128, 0, 0]]
    }, 
    {
      "op": "null", 
      "name": "conv1_7a_weight", 
      "attrs": {
        "kernel": "(3, 3)", 
        "no_bias": "False", 
        "num_filter": "128", 
        "pad": "(1, 1)", 
        "stride": "(1, 1)"
      }, 
      "inputs": []
    }, 
    {
      "op": "null", 
      "name": "conv1_7a_bias", 
      "attrs": {
        "kernel": "(3, 3)", 
        "no_bias": "False", 
        "num_filter": "128", 
        "pad": "(1, 1)", 
        "stride": "(1, 1)"
      }, 
      "inputs": []
    }, 
    {
      "op": "Convolution", 
      "name": "conv1_7a", 
      "attrs": {
        "kernel": "(3, 3)", 
        "no_bias": "False", 
        "num_filter": "128", 
        "pad": "(1, 1)", 
        "stride": "(1, 1)"
      }, 
      "inputs": [[129, 0, 0], [130, 0, 0], [131, 0, 0]]
    }, 
    {
      "op": "null", 
      "name": "bn_conv1_7b_gamma", 
      "attrs": {
        "eps": "0.0001", 
        "fix_gamma": "False", 
        "use_global_stats": "True"
      }, 
      "inputs": []
    }, 
    {
      "op": "null", 
      "name": "bn_conv1_7b_beta", 
      "attrs": {
        "eps": "0.0001", 
        "fix_gamma": "False", 
        "use_global_stats": "True"
      }, 
      "inputs": []
    }, 
    {
      "op": "null", 
      "name": "bn_conv1_7b_moving_mean", 
      "attrs": {
        "__init__": "[\"zero\", {}]", 
        "eps": "0.0001", 
        "fix_gamma": "False", 
        "use_global_stats": "True"
      }, 
      "inputs": []
    }, 
    {
      "op": "null", 
      "name": "bn_conv1_7b_moving_var", 
      "attrs": {
        "__init__": "[\"one\", {}]", 
        "eps": "0.0001", 
        "fix_gamma": "False", 
        "use_global_stats": "True"
      }, 
      "inputs": []
    }, 
    {
      "op": "BatchNorm", 
      "name": "bn_conv1_7b", 
      "attrs": {
        "eps": "0.0001", 
        "fix_gamma": "False", 
        "use_global_stats": "True"
      }, 
      "inputs": [[132, 0, 0], [133, 0, 0], [134, 0, 0], [135, 0, 1], [136, 0, 1]]
    }, 
    {
      "op": "Activation", 
      "name": "relu1_7b", 
      "attrs": {"act_type": "relu"}, 
      "inputs": [[137, 0, 0]]
    }, 
    {
      "op": "null", 
      "name": "conv1_7b_weight", 
      "attrs": {
        "kernel": "(3, 3)", 
        "no_bias": "False", 
        "num_filter": "128", 
        "pad": "(1, 1)", 
        "stride": "(1, 1)"
      }, 
      "inputs": []
    }, 
    {
      "op": "null", 
      "name": "conv1_7b_bias", 
      "attrs": {
        "kernel": "(3, 3)", 
        "no_bias": "False", 
        "num_filter": "128", 
        "pad": "(1, 1)", 
        "stride": "(1, 1)"
      }, 
      "inputs": []
    }, 
    {
      "op": "Convolution", 
      "name": "conv1_7b", 
      "attrs": {
        "kernel": "(3, 3)", 
        "no_bias": "False", 
        "num_filter": "128", 
        "pad": "(1, 1)", 
        "stride": "(1, 1)"
      }, 
      "inputs": [[138, 0, 0], [139, 0, 0], [140, 0, 0]]
    }, 
    {
      "op": "broadcast_add", 
      "name": "eltwise1_7", 
      "inputs": [[9, 0, 0], [141, 0, 0]]
    }, 
    {
      "op": "null", 
      "name": "bn_conv1_8a_gamma", 
      "attrs": {
        "eps": "0.0001", 
        "fix_gamma": "False", 
        "use_global_stats": "True"
      }, 
      "inputs": []
    }, 
    {
      "op": "null", 
      "name": "bn_conv1_8a_beta", 
      "attrs": {
        "eps": "0.0001", 
        "fix_gamma": "False", 
        "use_global_stats": "True"
      }, 
      "inputs": []
    }, 
    {
      "op": "null", 
      "name": "bn_conv1_8a_moving_mean", 
      "attrs": {
        "__init__": "[\"zero\", {}]", 
        "eps": "0.0001", 
        "fix_gamma": "False", 
        "use_global_stats": "True"
      }, 
      "inputs": []
    }, 
    {
      "op": "null", 
      "name": "bn_conv1_8a_moving_var", 
      "attrs": {
        "__init__": "[\"one\", {}]", 
        "eps": "0.0001", 
        "fix_gamma": "False", 
        "use_global_stats": "True"
      }, 
      "inputs": []
    }, 
    {
      "op": "BatchNorm", 
      "name": "bn_conv1_8a", 
      "attrs": {
        "eps": "0.0001", 
        "fix_gamma": "False", 
        "use_global_stats": "True"
      }, 
      "inputs": [[142, 0, 0], [143, 0, 0], [144, 0, 0], [145, 0, 1], [146, 0, 1]]
    }, 
    {
      "op": "Activation", 
      "name": "relu1_8a", 
      "attrs": {"act_type": "relu"}, 
      "inputs": [[147, 0, 0]]
    }, 
    {
      "op": "null", 
      "name": "conv1_8a_weight", 
      "attrs": {
        "kernel": "(3, 3)", 
        "no_bias": "False", 
        "num_filter": "128", 
        "pad": "(1, 1)", 
        "stride": "(1, 1)"
      }, 
      "inputs": []
    }, 
    {
      "op": "null", 
      "name": "conv1_8a_bias", 
      "attrs": {
        "kernel": "(3, 3)", 
        "no_bias": "False", 
        "num_filter": "128", 
        "pad": "(1, 1)", 
        "stride": "(1, 1)"
      }, 
      "inputs": []
    }, 
    {
      "op": "Convolution", 
      "name": "conv1_8a", 
      "attrs": {
        "kernel": "(3, 3)", 
        "no_bias": "False", 
        "num_filter": "128", 
        "pad": "(1, 1)", 
        "stride": "(1, 1)"
      }, 
      "inputs": [[148, 0, 0], [149, 0, 0], [150, 0, 0]]
    }, 
    {
      "op": "null", 
      "name": "bn_conv1_8b_gamma", 
      "attrs": {
        "eps": "0.0001", 
        "fix_gamma": "False", 
        "use_global_stats": "True"
      }, 
      "inputs": []
    }, 
    {
      "op": "null", 
      "name": "bn_conv1_8b_beta", 
      "attrs": {
        "eps": "0.0001", 
        "fix_gamma": "False", 
        "use_global_stats": "True"
      }, 
      "inputs": []
    }, 
    {
      "op": "null", 
      "name": "bn_conv1_8b_moving_mean", 
      "attrs": {
        "__init__": "[\"zero\", {}]", 
        "eps": "0.0001", 
        "fix_gamma": "False", 
        "use_global_stats": "True"
      }, 
      "inputs": []
    }, 
    {
      "op": "null", 
      "name": "bn_conv1_8b_moving_var", 
      "attrs": {
        "__init__": "[\"one\", {}]", 
        "eps": "0.0001", 
        "fix_gamma": "False", 
        "use_global_stats": "True"
      }, 
      "inputs": []
    }, 
    {
      "op": "BatchNorm", 
      "name": "bn_conv1_8b", 
      "attrs": {
        "eps": "0.0001", 
        "fix_gamma": "False", 
        "use_global_stats": "True"
      }, 
      "inputs": [[151, 0, 0], [152, 0, 0], [153, 0, 0], [154, 0, 1], [155, 0, 1]]
    }, 
    {
      "op": "Activation", 
      "name": "relu1_8b", 
      "attrs": {"act_type": "relu"}, 
      "inputs": [[156, 0, 0]]
    }, 
    {
      "op": "null", 
      "name": "conv1_8b_weight", 
      "attrs": {
        "kernel": "(3, 3)", 
        "no_bias": "False", 
        "num_filter": "128", 
        "pad": "(1, 1)", 
        "stride": "(1, 1)"
      }, 
      "inputs": []
    }, 
    {
      "op": "null", 
      "name": "conv1_8b_bias", 
      "attrs": {
        "kernel": "(3, 3)", 
        "no_bias": "False", 
        "num_filter": "128", 
        "pad": "(1, 1)", 
        "stride": "(1, 1)"
      }, 
      "inputs": []
    }, 
    {
      "op": "Convolution", 
      "name": "conv1_8b", 
      "attrs": {
        "kernel": "(3, 3)", 
        "no_bias": "False", 
        "num_filter": "128", 
        "pad": "(1, 1)", 
        "stride": "(1, 1)"
      }, 
      "inputs": [[157, 0, 0], [158, 0, 0], [159, 0, 0]]
    }, 
    {
      "op": "broadcast_add", 
      "name": "eltwise1_8", 
      "inputs": [[9, 0, 0], [160, 0, 0]]
    }, 
    {
      "op": "null", 
      "name": "bn_conv1_9a_gamma", 
      "attrs": {
        "eps": "0.0001", 
        "fix_gamma": "False", 
        "use_global_stats": "True"
      }, 
      "inputs": []
    }, 
    {
      "op": "null", 
      "name": "bn_conv1_9a_beta", 
      "attrs": {
        "eps": "0.0001", 
        "fix_gamma": "False", 
        "use_global_stats": "True"
      }, 
      "inputs": []
    }, 
    {
      "op": "null", 
      "name": "bn_conv1_9a_moving_mean", 
      "attrs": {
        "__init__": "[\"zero\", {}]", 
        "eps": "0.0001", 
        "fix_gamma": "False", 
        "use_global_stats": "True"
      }, 
      "inputs": []
    }, 
    {
      "op": "null", 
      "name": "bn_conv1_9a_moving_var", 
      "attrs": {
        "__init__": "[\"one\", {}]", 
        "eps": "0.0001", 
        "fix_gamma": "False", 
        "use_global_stats": "True"
      }, 
      "inputs": []
    }, 
    {
      "op": "BatchNorm", 
      "name": "bn_conv1_9a", 
      "attrs": {
        "eps": "0.0001", 
        "fix_gamma": "False", 
        "use_global_stats": "True"
      }, 
      "inputs": [[161, 0, 0], [162, 0, 0], [163, 0, 0], [164, 0, 1], [165, 0, 1]]
    }, 
    {
      "op": "Activation", 
      "name": "relu1_9a", 
      "attrs": {"act_type": "relu"}, 
      "inputs": [[166, 0, 0]]
    }, 
    {
      "op": "null", 
      "name": "conv1_9a_weight", 
      "attrs": {
        "kernel": "(3, 3)", 
        "no_bias": "False", 
        "num_filter": "128", 
        "pad": "(1, 1)", 
        "stride": "(1, 1)"
      }, 
      "inputs": []
    }, 
    {
      "op": "null", 
      "name": "conv1_9a_bias", 
      "attrs": {
        "kernel": "(3, 3)", 
        "no_bias": "False", 
        "num_filter": "128", 
        "pad": "(1, 1)", 
        "stride": "(1, 1)"
      }, 
      "inputs": []
    }, 
    {
      "op": "Convolution", 
      "name": "conv1_9a", 
      "attrs": {
        "kernel": "(3, 3)", 
        "no_bias": "False", 
        "num_filter": "128", 
        "pad": "(1, 1)", 
        "stride": "(1, 1)"
      }, 
      "inputs": [[167, 0, 0], [168, 0, 0], [169, 0, 0]]
    }, 
    {
      "op": "null", 
      "name": "bn_conv1_9b_gamma", 
      "attrs": {
        "eps": "0.0001", 
        "fix_gamma": "False", 
        "use_global_stats": "True"
      }, 
      "inputs": []
    }, 
    {
      "op": "null", 
      "name": "bn_conv1_9b_beta", 
      "attrs": {
        "eps": "0.0001", 
        "fix_gamma": "False", 
        "use_global_stats": "True"
      }, 
      "inputs": []
    }, 
    {
      "op": "null", 
      "name": "bn_conv1_9b_moving_mean", 
      "attrs": {
        "__init__": "[\"zero\", {}]", 
        "eps": "0.0001", 
        "fix_gamma": "False", 
        "use_global_stats": "True"
      }, 
      "inputs": []
    }, 
    {
      "op": "null", 
      "name": "bn_conv1_9b_moving_var", 
      "attrs": {
        "__init__": "[\"one\", {}]", 
        "eps": "0.0001", 
        "fix_gamma": "False", 
        "use_global_stats": "True"
      }, 
      "inputs": []
    }, 
    {
      "op": "BatchNorm", 
      "name": "bn_conv1_9b", 
      "attrs": {
        "eps": "0.0001", 
        "fix_gamma": "False", 
        "use_global_stats": "True"
      }, 
      "inputs": [[170, 0, 0], [171, 0, 0], [172, 0, 0], [173, 0, 1], [174, 0, 1]]
    }, 
    {
      "op": "Activation", 
      "name": "relu1_9b", 
      "attrs": {"act_type": "relu"}, 
      "inputs": [[175, 0, 0]]
    }, 
    {
      "op": "null", 
      "name": "conv1_9b_weight", 
      "attrs": {
        "kernel": "(3, 3)", 
        "no_bias": "False", 
        "num_filter": "128", 
        "pad": "(1, 1)", 
        "stride": "(1, 1)"
      }, 
      "inputs": []
    }, 
    {
      "op": "null", 
      "name": "conv1_9b_bias", 
      "attrs": {
        "kernel": "(3, 3)", 
        "no_bias": "False", 
        "num_filter": "128", 
        "pad": "(1, 1)", 
        "stride": "(1, 1)"
      }, 
      "inputs": []
    }, 
    {
      "op": "Convolution", 
      "name": "conv1_9b", 
      "attrs": {
        "kernel": "(3, 3)", 
        "no_bias": "False", 
        "num_filter": "128", 
        "pad": "(1, 1)", 
        "stride": "(1, 1)"
      }, 
      "inputs": [[176, 0, 0], [177, 0, 0], [178, 0, 0]]
    }, 
    {
      "op": "broadcast_add", 
      "name": "eltwise1_9", 
      "inputs": [[9, 0, 0], [179, 0, 0]]
    }, 
    {
      "op": "null", 
      "name": "bn_conv_end_gamma", 
      "attrs": {
        "eps": "0.0001", 
        "fix_gamma": "False", 
        "use_global_stats": "True"
      }, 
      "inputs": []
    }, 
    {
      "op": "null", 
      "name": "bn_conv_end_beta", 
      "attrs": {
        "eps": "0.0001", 
        "fix_gamma": "False", 
        "use_global_stats": "True"
      }, 
      "inputs": []
    }, 
    {
      "op": "null", 
      "name": "bn_conv_end_moving_mean", 
      "attrs": {
        "__init__": "[\"zero\", {}]", 
        "eps": "0.0001", 
        "fix_gamma": "False", 
        "use_global_stats": "True"
      }, 
      "inputs": []
    }, 
    {
      "op": "null", 
      "name": "bn_conv_end_moving_var", 
      "attrs": {
        "__init__": "[\"one\", {}]", 
        "eps": "0.0001", 
        "fix_gamma": "False", 
        "use_global_stats": "True"
      }, 
      "inputs": []
    }, 
    {
      "op": "BatchNorm", 
      "name": "bn_conv_end", 
      "attrs": {
        "eps": "0.0001", 
        "fix_gamma": "False", 
        "use_global_stats": "True"
      }, 
      "inputs": [[180, 0, 0], [181, 0, 0], [182, 0, 0], [183, 0, 1], [184, 0, 1]]
    }, 
    {
      "op": "Activation", 
      "name": "relu_end", 
      "attrs": {"act_type": "relu"}, 
      "inputs": [[185, 0, 0]]
    }, 
    {
      "op": "null", 
      "name": "conv_end_weight", 
      "attrs": {
        "kernel": "(3, 3)", 
        "no_bias": "False", 
        "num_filter": "1", 
        "pad": "(1, 1)", 
        "stride": "(1, 1)"
      }, 
      "inputs": []
    }, 
    {
      "op": "null", 
      "name": "conv_end_bias", 
      "attrs": {
        "kernel": "(3, 3)", 
        "no_bias": "False", 
        "num_filter": "1", 
        "pad": "(1, 1)", 
        "stride": "(1, 1)"
      }, 
      "inputs": []
    }, 
    {
      "op": "Convolution", 
      "name": "conv_end", 
      "attrs": {
        "kernel": "(3, 3)", 
        "no_bias": "False", 
        "num_filter": "1", 
        "pad": "(1, 1)", 
        "stride": "(1, 1)"
      }, 
      "inputs": [[186, 0, 0], [187, 0, 0], [188, 0, 0]]
    }, 
    {
      "op": "broadcast_add", 
      "name": "HR_recovery", 
      "inputs": [[0, 0, 0], [189, 0, 0]]
    }
  ], 
  "arg_nodes": [
    0, 
    1, 
    2, 
    3, 
    4, 
    7, 
    8, 
    10, 
    11, 
    12, 
    13, 
    16, 
    17, 
    19, 
    20, 
    21, 
    22, 
    25, 
    26, 
    29, 
    30, 
    31, 
    32, 
    35, 
    36, 
    38, 
    39, 
    40, 
    41, 
    44, 
    45, 
    48, 
    49, 
    50, 
    51, 
    54, 
    55, 
    57, 
    58, 
    59, 
    60, 
    63, 
    64, 
    67, 
    68, 
    69, 
    70, 
    73, 
    74, 
    76, 
    77, 
    78, 
    79, 
    82, 
    83, 
    86, 
    87, 
    88, 
    89, 
    92, 
    93, 
    95, 
    96, 
    97, 
    98, 
    101, 
    102, 
    105, 
    106, 
    107, 
    108, 
    111, 
    112, 
    114, 
    115, 
    116, 
    117, 
    120, 
    121, 
    124, 
    125, 
    126, 
    127, 
    130, 
    131, 
    133, 
    134, 
    135, 
    136, 
    139, 
    140, 
    143, 
    144, 
    145, 
    146, 
    149, 
    150, 
    152, 
    153, 
    154, 
    155, 
    158, 
    159, 
    162, 
    163, 
    164, 
    165, 
    168, 
    169, 
    171, 
    172, 
    173, 
    174, 
    177, 
    178, 
    181, 
    182, 
    183, 
    184, 
    187, 
    188
  ], 
  "node_row_ptr": [
    0, 
    1, 
    2, 
    3, 
    4, 
    5, 
    8, 
    9, 
    10, 
    11, 
    12, 
    13, 
    14, 
    15, 
    16, 
    19, 
    20, 
    21, 
    22, 
    23, 
    24, 
    25, 
    26, 
    27, 
    30, 
    31, 
    32, 
    33, 
    34, 
    35, 
    36, 
    37, 
    38, 
    39, 
    42, 
    43, 
    44, 
    45, 
    46, 
    47, 
    48, 
    49, 
    50, 
    53, 
    54, 
    55, 
    56, 
    57, 
    58, 
    59, 
    60, 
    61, 
    62, 
    65, 
    66, 
    67, 
    68, 
    69, 
    70, 
    71, 
    72, 
    73, 
    76, 
    77, 
    78, 
    79, 
    80, 
    81, 
    82, 
    83, 
    84, 
    85, 
    88, 
    89, 
    90, 
    91, 
    92, 
    93, 
    94, 
    95, 
    96, 
    99, 
    100, 
    101, 
    102, 
    103, 
    104, 
    105, 
    106, 
    107, 
    108, 
    111, 
    112, 
    113, 
    114, 
    115, 
    116, 
    117, 
    118, 
    119, 
    122, 
    123, 
    124, 
    125, 
    126, 
    127, 
    128, 
    129, 
    130, 
    131, 
    134, 
    135, 
    136, 
    137, 
    138, 
    139, 
    140, 
    141, 
    142, 
    145, 
    146, 
    147, 
    148, 
    149, 
    150, 
    151, 
    152, 
    153, 
    154, 
    157, 
    158, 
    159, 
    160, 
    161, 
    162, 
    163, 
    164, 
    165, 
    168, 
    169, 
    170, 
    171, 
    172, 
    173, 
    174, 
    175, 
    176, 
    177, 
    180, 
    181, 
    182, 
    183, 
    184, 
    185, 
    186, 
    187, 
    188, 
    191, 
    192, 
    193, 
    194, 
    195, 
    196, 
    197, 
    198, 
    199, 
    200, 
    203, 
    204, 
    205, 
    206, 
    207, 
    208, 
    209, 
    210, 
    211, 
    214, 
    215, 
    216, 
    217, 
    218, 
    219, 
    220, 
    221, 
    222, 
    223, 
    226, 
    227, 
    228, 
    229, 
    230, 
    231
  ], 
  "heads": [[190, 0, 0]], 
  "attrs": {"mxnet_version": ["int", 10300]}
}