{
  "nodes": [
    {
      "op": "null", 
      "name": "data", 
      "inputs": []
    }, 
    {
      "op": "reverse", 
      "name": "reverse_channels_for_caffe_model", 
      "attrs": {"axis": "1"}, 
      "inputs": [[0, 0, 0]]
    }, 
    {
      "op": "null", 
      "name": "_conv_pre_weight", 
      "attrs": {
        "dilate": "(1, 1)", 
        "kernel": "(3, 3)", 
        "layout": "NCHW", 
        "no_bias": "False", 
        "num_filter": "64", 
        "num_group": "1", 
        "pad": "(0, 0)", 
        "stride": "(1, 1)"
      }, 
      "inputs": []
    }, 
    {
      "op": "null", 
      "name": "_conv_pre_bias", 
      "attrs": {
        "dilate": "(1, 1)", 
        "kernel": "(3, 3)", 
        "layout": "NCHW", 
        "no_bias": "False", 
        "num_filter": "64", 
        "num_group": "1", 
        "pad": "(0, 0)", 
        "stride": "(1, 1)"
      }, 
      "inputs": []
    }, 
    {
      "op": "Convolution", 
      "name": "_conv_pre", 
      "attrs": {
        "dilate": "(1, 1)", 
        "kernel": "(3, 3)", 
        "layout": "NCHW", 
        "no_bias": "False", 
        "num_filter": "64", 
        "num_group": "1", 
        "pad": "(0, 0)", 
        "stride": "(1, 1)"
      }, 
      "inputs": [[1, 0, 0], [2, 0, 0], [3, 0, 0]]
    }, 
    {
      "op": "LeakyReLU", 
      "name": "_conv_pre_relu", 
      "attrs": {
        "act_type": "leaky", 
        "slope": "0.1"
      }, 
      "inputs": [[4, 0, 0]]
    }, 
    {
      "op": "null", 
      "name": "_res1_conv1_weight", 
      "attrs": {
        "dilate": "(1, 1)", 
        "kernel": "(3, 3)", 
        "layout": "NCHW", 
        "no_bias": "False", 
        "num_filter": "64", 
        "num_group": "1", 
        "pad": "(0, 0)", 
        "stride": "(1, 1)"
      }, 
      "inputs": []
    }, 
    {
      "op": "null", 
      "name": "_res1_conv1_bias", 
      "attrs": {
        "dilate": "(1, 1)", 
        "kernel": "(3, 3)", 
        "layout": "NCHW", 
        "no_bias": "False", 
        "num_filter": "64", 
        "num_group": "1", 
        "pad": "(0, 0)", 
        "stride": "(1, 1)"
      }, 
      "inputs": []
    }, 
    {
      "op": "Convolution", 
      "name": "_res1_conv1", 
      "attrs": {
        "dilate": "(1, 1)", 
        "kernel": "(3, 3)", 
        "layout": "NCHW", 
        "no_bias": "False", 
        "num_filter": "64", 
        "num_group": "1", 
        "pad": "(0, 0)", 
        "stride": "(1, 1)"
      }, 
      "inputs": [[5, 0, 0], [6, 0, 0], [7, 0, 0]]
    }, 
    {
      "op": "LeakyReLU", 
      "name": "_res1_conv1_relu", 
      "attrs": {
        "act_type": "leaky", 
        "slope": "0.1"
      }, 
      "inputs": [[8, 0, 0]]
    }, 
    {
      "op": "null", 
      "name": "_res1_conv2_weight", 
      "attrs": {
        "dilate": "(1, 1)", 
        "kernel": "(3, 3)", 
        "layout": "NCHW", 
        "no_bias": "False", 
        "num_filter": "64", 
        "num_group": "1", 
        "pad": "(0, 0)", 
        "stride": "(1, 1)"
      }, 
      "inputs": []
    }, 
    {
      "op": "null", 
      "name": "_res1_conv2_bias", 
      "attrs": {
        "dilate": "(1, 1)", 
        "kernel": "(3, 3)", 
        "layout": "NCHW", 
        "no_bias": "False", 
        "num_filter": "64", 
        "num_group": "1", 
        "pad": "(0, 0)", 
        "stride": "(1, 1)"
      }, 
      "inputs": []
    }, 
    {
      "op": "Convolution", 
      "name": "_res1_conv2", 
      "attrs": {
        "dilate": "(1, 1)", 
        "kernel": "(3, 3)", 
        "layout": "NCHW", 
        "no_bias": "False", 
        "num_filter": "64", 
        "num_group": "1", 
        "pad": "(0, 0)", 
        "stride": "(1, 1)"
      }, 
      "inputs": [[9, 0, 0], [10, 0, 0], [11, 0, 0]]
    }, 
    {
      "op": "LeakyReLU", 
      "name": "_res1_conv2_relu", 
      "attrs": {
        "act_type": "leaky", 
        "slope": "0.1"
      }, 
      "inputs": [[12, 0, 0]]
    }, 
    {
      "op": "Pooling", 
      "name": "_res1_fc1_globalavgpool", 
      "attrs": {
        "global_pool": "True", 
        "kernel": "(1, 1)", 
        "pool_type": "avg", 
        "pooling_convention": "full"
      }, 
      "inputs": [[13, 0, 0]]
    }, 
    {
      "op": "null", 
      "name": "_res1_fc1_weight", 
      "attrs": {
        "no_bias": "False", 
        "num_hidden": "16"
      }, 
      "inputs": []
    }, 
    {
      "op": "null", 
      "name": "_res1_fc1_bias", 
      "attrs": {
        "no_bias": "False", 
        "num_hidden": "16"
      }, 
      "inputs": []
    }, 
    {
      "op": "FullyConnected", 
      "name": "_res1_fc1", 
      "attrs": {
        "no_bias": "False", 
        "num_hidden": "16"
      }, 
      "inputs": [[14, 0, 0], [15, 0, 0], [16, 0, 0]]
    }, 
    {
      "op": "Activation", 
      "name": "_res1_fc1_relu", 
      "attrs": {"act_type": "relu"}, 
      "inputs": [[17, 0, 0]]
    }, 
    {
      "op": "null", 
      "name": "_res1_fc2_weight", 
      "attrs": {
        "no_bias": "False", 
        "num_hidden": "64"
      }, 
      "inputs": []
    }, 
    {
      "op": "null", 
      "name": "_res1_fc2_bias", 
      "attrs": {
        "no_bias": "False", 
        "num_hidden": "64"
      }, 
      "inputs": []
    }, 
    {
      "op": "FullyConnected", 
      "name": "_res1_fc2", 
      "attrs": {
        "no_bias": "False", 
        "num_hidden": "64"
      }, 
      "inputs": [[18, 0, 0], [19, 0, 0], [20, 0, 0]]
    }, 
    {
      "op": "Activation", 
      "name": "_res1_fc2_sigmoid", 
      "attrs": {"act_type": "sigmoid"}, 
      "inputs": [[21, 0, 0]]
    }, 
    {
      "op": "Reshape", 
      "name": "reshape0", 
      "attrs": {"shape": "(1, -1, 1, 1)"}, 
      "inputs": [[22, 0, 0]]
    }, 
    {
      "op": "broadcast_mul", 
      "name": "broadcast_mul0", 
      "inputs": [[23, 0, 0], [13, 0, 0]]
    }, 
    {
      "op": "slice", 
      "name": "slice0", 
      "attrs": {
        "begin": "(0, 0, 2, 2)", 
        "end": "(0, 0, -2, -2)"
      }, 
      "inputs": [[5, 0, 0]]
    }, 
    {
      "op": "broadcast_add", 
      "name": "broadcast_add0", 
      "inputs": [[24, 0, 0], [25, 0, 0]]
    }, 
    {
      "op": "null", 
      "name": "_res2_conv1_weight", 
      "attrs": {
        "dilate": "(1, 1)", 
        "kernel": "(3, 3)", 
        "layout": "NCHW", 
        "no_bias": "False", 
        "num_filter": "64", 
        "num_group": "1", 
        "pad": "(0, 0)", 
        "stride": "(1, 1)"
      }, 
      "inputs": []
    }, 
    {
      "op": "null", 
      "name": "_res2_conv1_bias", 
      "attrs": {
        "dilate": "(1, 1)", 
        "kernel": "(3, 3)", 
        "layout": "NCHW", 
        "no_bias": "False", 
        "num_filter": "64", 
        "num_group": "1", 
        "pad": "(0, 0)", 
        "stride": "(1, 1)"
      }, 
      "inputs": []
    }, 
    {
      "op": "Convolution", 
      "name": "_res2_conv1", 
      "attrs": {
        "dilate": "(1, 1)", 
        "kernel": "(3, 3)", 
        "layout": "NCHW", 
        "no_bias": "False", 
        "num_filter": "64", 
        "num_group": "1", 
        "pad": "(0, 0)", 
        "stride": "(1, 1)"
      }, 
      "inputs": [[26, 0, 0], [27, 0, 0], [28, 0, 0]]
    }, 
    {
      "op": "LeakyReLU", 
      "name": "_res2_conv1_relu", 
      "attrs": {
        "act_type": "leaky", 
        "slope": "0.1"
      }, 
      "inputs": [[29, 0, 0]]
    }, 
    {
      "op": "null", 
      "name": "_res2_conv2_weight", 
      "attrs": {
        "dilate": "(1, 1)", 
        "kernel": "(3, 3)", 
        "layout": "NCHW", 
        "no_bias": "False", 
        "num_filter": "64", 
        "num_group": "1", 
        "pad": "(0, 0)", 
        "stride": "(1, 1)"
      }, 
      "inputs": []
    }, 
    {
      "op": "null", 
      "name": "_res2_conv2_bias", 
      "attrs": {
        "dilate": "(1, 1)", 
        "kernel": "(3, 3)", 
        "layout": "NCHW", 
        "no_bias": "False", 
        "num_filter": "64", 
        "num_group": "1", 
        "pad": "(0, 0)", 
        "stride": "(1, 1)"
      }, 
      "inputs": []
    }, 
    {
      "op": "Convolution", 
      "name": "_res2_conv2", 
      "attrs": {
        "dilate": "(1, 1)", 
        "kernel": "(3, 3)", 
        "layout": "NCHW", 
        "no_bias": "False", 
        "num_filter": "64", 
        "num_group": "1", 
        "pad": "(0, 0)", 
        "stride": "(1, 1)"
      }, 
      "inputs": [[30, 0, 0], [31, 0, 0], [32, 0, 0]]
    }, 
    {
      "op": "LeakyReLU", 
      "name": "_res2_conv2_relu", 
      "attrs": {
        "act_type": "leaky", 
        "slope": "0.1"
      }, 
      "inputs": [[33, 0, 0]]
    }, 
    {
      "op": "Pooling", 
      "name": "_res2_fc1_globalavgpool", 
      "attrs": {
        "global_pool": "True", 
        "kernel": "(1, 1)", 
        "pool_type": "avg", 
        "pooling_convention": "full"
      }, 
      "inputs": [[34, 0, 0]]
    }, 
    {
      "op": "null", 
      "name": "_res2_fc1_weight", 
      "attrs": {
        "no_bias": "False", 
        "num_hidden": "16"
      }, 
      "inputs": []
    }, 
    {
      "op": "null", 
      "name": "_res2_fc1_bias", 
      "attrs": {
        "no_bias": "False", 
        "num_hidden": "16"
      }, 
      "inputs": []
    }, 
    {
      "op": "FullyConnected", 
      "name": "_res2_fc1", 
      "attrs": {
        "no_bias": "False", 
        "num_hidden": "16"
      }, 
      "inputs": [[35, 0, 0], [36, 0, 0], [37, 0, 0]]
    }, 
    {
      "op": "Activation", 
      "name": "_res2_fc1_relu", 
      "attrs": {"act_type": "relu"}, 
      "inputs": [[38, 0, 0]]
    }, 
    {
      "op": "null", 
      "name": "_res2_fc2_weight", 
      "attrs": {
        "no_bias": "False", 
        "num_hidden": "64"
      }, 
      "inputs": []
    }, 
    {
      "op": "null", 
      "name": "_res2_fc2_bias", 
      "attrs": {
        "no_bias": "False", 
        "num_hidden": "64"
      }, 
      "inputs": []
    }, 
    {
      "op": "FullyConnected", 
      "name": "_res2_fc2", 
      "attrs": {
        "no_bias": "False", 
        "num_hidden": "64"
      }, 
      "inputs": [[39, 0, 0], [40, 0, 0], [41, 0, 0]]
    }, 
    {
      "op": "Activation", 
      "name": "_res2_fc2_sigmoid", 
      "attrs": {"act_type": "sigmoid"}, 
      "inputs": [[42, 0, 0]]
    }, 
    {
      "op": "Reshape", 
      "name": "reshape1", 
      "attrs": {"shape": "(1, -1, 1, 1)"}, 
      "inputs": [[43, 0, 0]]
    }, 
    {
      "op": "broadcast_mul", 
      "name": "broadcast_mul1", 
      "inputs": [[44, 0, 0], [34, 0, 0]]
    }, 
    {
      "op": "slice", 
      "name": "slice1", 
      "attrs": {
        "begin": "(0, 0, 2, 2)", 
        "end": "(0, 0, -2, -2)"
      }, 
      "inputs": [[26, 0, 0]]
    }, 
    {
      "op": "broadcast_add", 
      "name": "broadcast_add1", 
      "inputs": [[45, 0, 0], [46, 0, 0]]
    }, 
    {
      "op": "null", 
      "name": "_res3_conv1_weight", 
      "attrs": {
        "dilate": "(1, 1)", 
        "kernel": "(3, 3)", 
        "layout": "NCHW", 
        "no_bias": "False", 
        "num_filter": "64", 
        "num_group": "1", 
        "pad": "(0, 0)", 
        "stride": "(1, 1)"
      }, 
      "inputs": []
    }, 
    {
      "op": "null", 
      "name": "_res3_conv1_bias", 
      "attrs": {
        "dilate": "(1, 1)", 
        "kernel": "(3, 3)", 
        "layout": "NCHW", 
        "no_bias": "False", 
        "num_filter": "64", 
        "num_group": "1", 
        "pad": "(0, 0)", 
        "stride": "(1, 1)"
      }, 
      "inputs": []
    }, 
    {
      "op": "Convolution", 
      "name": "_res3_conv1", 
      "attrs": {
        "dilate": "(1, 1)", 
        "kernel": "(3, 3)", 
        "layout": "NCHW", 
        "no_bias": "False", 
        "num_filter": "64", 
        "num_group": "1", 
        "pad": "(0, 0)", 
        "stride": "(1, 1)"
      }, 
      "inputs": [[47, 0, 0], [48, 0, 0], [49, 0, 0]]
    }, 
    {
      "op": "LeakyReLU", 
      "name": "_res3_conv1_relu", 
      "attrs": {
        "act_type": "leaky", 
        "slope": "0.1"
      }, 
      "inputs": [[50, 0, 0]]
    }, 
    {
      "op": "null", 
      "name": "_res3_conv2_weight", 
      "attrs": {
        "dilate": "(1, 1)", 
        "kernel": "(3, 3)", 
        "layout": "NCHW", 
        "no_bias": "False", 
        "num_filter": "64", 
        "num_group": "1", 
        "pad": "(0, 0)", 
        "stride": "(1, 1)"
      }, 
      "inputs": []
    }, 
    {
      "op": "null", 
      "name": "_res3_conv2_bias", 
      "attrs": {
        "dilate": "(1, 1)", 
        "kernel": "(3, 3)", 
        "layout": "NCHW", 
        "no_bias": "False", 
        "num_filter": "64", 
        "num_group": "1", 
        "pad": "(0, 0)", 
        "stride": "(1, 1)"
      }, 
      "inputs": []
    }, 
    {
      "op": "Convolution", 
      "name": "_res3_conv2", 
      "attrs": {
        "dilate": "(1, 1)", 
        "kernel": "(3, 3)", 
        "layout": "NCHW", 
        "no_bias": "False", 
        "num_filter": "64", 
        "num_group": "1", 
        "pad": "(0, 0)", 
        "stride": "(1, 1)"
      }, 
      "inputs": [[51, 0, 0], [52, 0, 0], [53, 0, 0]]
    }, 
    {
      "op": "LeakyReLU", 
      "name": "_res3_conv2_relu", 
      "attrs": {
        "act_type": "leaky", 
        "slope": "0.1"
      }, 
      "inputs": [[54, 0, 0]]
    }, 
    {
      "op": "Pooling", 
      "name": "_res3_fc1_globalavgpool", 
      "attrs": {
        "global_pool": "True", 
        "kernel": "(1, 1)", 
        "pool_type": "avg", 
        "pooling_convention": "full"
      }, 
      "inputs": [[55, 0, 0]]
    }, 
    {
      "op": "null", 
      "name": "_res3_fc1_weight", 
      "attrs": {
        "no_bias": "False", 
        "num_hidden": "16"
      }, 
      "inputs": []
    }, 
    {
      "op": "null", 
      "name": "_res3_fc1_bias", 
      "attrs": {
        "no_bias": "False", 
        "num_hidden": "16"
      }, 
      "inputs": []
    }, 
    {
      "op": "FullyConnected", 
      "name": "_res3_fc1", 
      "attrs": {
        "no_bias": "False", 
        "num_hidden": "16"
      }, 
      "inputs": [[56, 0, 0], [57, 0, 0], [58, 0, 0]]
    }, 
    {
      "op": "Activation", 
      "name": "_res3_fc1_relu", 
      "attrs": {"act_type": "relu"}, 
      "inputs": [[59, 0, 0]]
    }, 
    {
      "op": "null", 
      "name": "_res3_fc2_weight", 
      "attrs": {
        "no_bias": "False", 
        "num_hidden": "64"
      }, 
      "inputs": []
    }, 
    {
      "op": "null", 
      "name": "_res3_fc2_bias", 
      "attrs": {
        "no_bias": "False", 
        "num_hidden": "64"
      }, 
      "inputs": []
    }, 
    {
      "op": "FullyConnected", 
      "name": "_res3_fc2", 
      "attrs": {
        "no_bias": "False", 
        "num_hidden": "64"
      }, 
      "inputs": [[60, 0, 0], [61, 0, 0], [62, 0, 0]]
    }, 
    {
      "op": "Activation", 
      "name": "_res3_fc2_sigmoid", 
      "attrs": {"act_type": "sigmoid"}, 
      "inputs": [[63, 0, 0]]
    }, 
    {
      "op": "Reshape", 
      "name": "reshape2", 
      "attrs": {"shape": "(1, -1, 1, 1)"}, 
      "inputs": [[64, 0, 0]]
    }, 
    {
      "op": "broadcast_mul", 
      "name": "broadcast_mul2", 
      "inputs": [[65, 0, 0], [55, 0, 0]]
    }, 
    {
      "op": "slice", 
      "name": "slice2", 
      "attrs": {
        "begin": "(0, 0, 2, 2)", 
        "end": "(0, 0, -2, -2)"
      }, 
      "inputs": [[47, 0, 0]]
    }, 
    {
      "op": "broadcast_add", 
      "name": "broadcast_add2", 
      "inputs": [[66, 0, 0], [67, 0, 0]]
    }, 
    {
      "op": "null", 
      "name": "_res4_conv1_weight", 
      "attrs": {
        "dilate": "(1, 1)", 
        "kernel": "(3, 3)", 
        "layout": "NCHW", 
        "no_bias": "False", 
        "num_filter": "64", 
        "num_group": "1", 
        "pad": "(0, 0)", 
        "stride": "(1, 1)"
      }, 
      "inputs": []
    }, 
    {
      "op": "null", 
      "name": "_res4_conv1_bias", 
      "attrs": {
        "dilate": "(1, 1)", 
        "kernel": "(3, 3)", 
        "layout": "NCHW", 
        "no_bias": "False", 
        "num_filter": "64", 
        "num_group": "1", 
        "pad": "(0, 0)", 
        "stride": "(1, 1)"
      }, 
      "inputs": []
    }, 
    {
      "op": "Convolution", 
      "name": "_res4_conv1", 
      "attrs": {
        "dilate": "(1, 1)", 
        "kernel": "(3, 3)", 
        "layout": "NCHW", 
        "no_bias": "False", 
        "num_filter": "64", 
        "num_group": "1", 
        "pad": "(0, 0)", 
        "stride": "(1, 1)"
      }, 
      "inputs": [[68, 0, 0], [69, 0, 0], [70, 0, 0]]
    }, 
    {
      "op": "LeakyReLU", 
      "name": "_res4_conv1_relu", 
      "attrs": {
        "act_type": "leaky", 
        "slope": "0.1"
      }, 
      "inputs": [[71, 0, 0]]
    }, 
    {
      "op": "null", 
      "name": "_res4_conv2_weight", 
      "attrs": {
        "dilate": "(1, 1)", 
        "kernel": "(3, 3)", 
        "layout": "NCHW", 
        "no_bias": "False", 
        "num_filter": "64", 
        "num_group": "1", 
        "pad": "(0, 0)", 
        "stride": "(1, 1)"
      }, 
      "inputs": []
    }, 
    {
      "op": "null", 
      "name": "_res4_conv2_bias", 
      "attrs": {
        "dilate": "(1, 1)", 
        "kernel": "(3, 3)", 
        "layout": "NCHW", 
        "no_bias": "False", 
        "num_filter": "64", 
        "num_group": "1", 
        "pad": "(0, 0)", 
        "stride": "(1, 1)"
      }, 
      "inputs": []
    }, 
    {
      "op": "Convolution", 
      "name": "_res4_conv2", 
      "attrs": {
        "dilate": "(1, 1)", 
        "kernel": "(3, 3)", 
        "layout": "NCHW", 
        "no_bias": "False", 
        "num_filter": "64", 
        "num_group": "1", 
        "pad": "(0, 0)", 
        "stride": "(1, 1)"
      }, 
      "inputs": [[72, 0, 0], [73, 0, 0], [74, 0, 0]]
    }, 
    {
      "op": "LeakyReLU", 
      "name": "_res4_conv2_relu", 
      "attrs": {
        "act_type": "leaky", 
        "slope": "0.1"
      }, 
      "inputs": [[75, 0, 0]]
    }, 
    {
      "op": "Pooling", 
      "name": "_res4_fc1_globalavgpool", 
      "attrs": {
        "global_pool": "True", 
        "kernel": "(1, 1)", 
        "pool_type": "avg", 
        "pooling_convention": "full"
      }, 
      "inputs": [[76, 0, 0]]
    }, 
    {
      "op": "null", 
      "name": "_res4_fc1_weight", 
      "attrs": {
        "no_bias": "False", 
        "num_hidden": "16"
      }, 
      "inputs": []
    }, 
    {
      "op": "null", 
      "name": "_res4_fc1_bias", 
      "attrs": {
        "no_bias": "False", 
        "num_hidden": "16"
      }, 
      "inputs": []
    }, 
    {
      "op": "FullyConnected", 
      "name": "_res4_fc1", 
      "attrs": {
        "no_bias": "False", 
        "num_hidden": "16"
      }, 
      "inputs": [[77, 0, 0], [78, 0, 0], [79, 0, 0]]
    }, 
    {
      "op": "Activation", 
      "name": "_res4_fc1_relu", 
      "attrs": {"act_type": "relu"}, 
      "inputs": [[80, 0, 0]]
    }, 
    {
      "op": "null", 
      "name": "_res4_fc2_weight", 
      "attrs": {
        "no_bias": "False", 
        "num_hidden": "64"
      }, 
      "inputs": []
    }, 
    {
      "op": "null", 
      "name": "_res4_fc2_bias", 
      "attrs": {
        "no_bias": "False", 
        "num_hidden": "64"
      }, 
      "inputs": []
    }, 
    {
      "op": "FullyConnected", 
      "name": "_res4_fc2", 
      "attrs": {
        "no_bias": "False", 
        "num_hidden": "64"
      }, 
      "inputs": [[81, 0, 0], [82, 0, 0], [83, 0, 0]]
    }, 
    {
      "op": "Activation", 
      "name": "_res4_fc2_sigmoid", 
      "attrs": {"act_type": "sigmoid"}, 
      "inputs": [[84, 0, 0]]
    }, 
    {
      "op": "Reshape", 
      "name": "reshape3", 
      "attrs": {"shape": "(1, -1, 1, 1)"}, 
      "inputs": [[85, 0, 0]]
    }, 
    {
      "op": "broadcast_mul", 
      "name": "broadcast_mul3", 
      "inputs": [[86, 0, 0], [76, 0, 0]]
    }, 
    {
      "op": "slice", 
      "name": "slice3", 
      "attrs": {
        "begin": "(0, 0, 2, 2)", 
        "end": "(0, 0, -2, -2)"
      }, 
      "inputs": [[68, 0, 0]]
    }, 
    {
      "op": "broadcast_add", 
      "name": "broadcast_add3", 
      "inputs": [[87, 0, 0], [88, 0, 0]]
    }, 
    {
      "op": "null", 
      "name": "_res5_conv1_weight", 
      "attrs": {
        "dilate": "(1, 1)", 
        "kernel": "(3, 3)", 
        "layout": "NCHW", 
        "no_bias": "False", 
        "num_filter": "64", 
        "num_group": "1", 
        "pad": "(0, 0)", 
        "stride": "(1, 1)"
      }, 
      "inputs": []
    }, 
    {
      "op": "null", 
      "name": "_res5_conv1_bias", 
      "attrs": {
        "dilate": "(1, 1)", 
        "kernel": "(3, 3)", 
        "layout": "NCHW", 
        "no_bias": "False", 
        "num_filter": "64", 
        "num_group": "1", 
        "pad": "(0, 0)", 
        "stride": "(1, 1)"
      }, 
      "inputs": []
    }, 
    {
      "op": "Convolution", 
      "name": "_res5_conv1", 
      "attrs": {
        "dilate": "(1, 1)", 
        "kernel": "(3, 3)", 
        "layout": "NCHW", 
        "no_bias": "False", 
        "num_filter": "64", 
        "num_group": "1", 
        "pad": "(0, 0)", 
        "stride": "(1, 1)"
      }, 
      "inputs": [[89, 0, 0], [90, 0, 0], [91, 0, 0]]
    }, 
    {
      "op": "LeakyReLU", 
      "name": "_res5_conv1_relu", 
      "attrs": {
        "act_type": "leaky", 
        "slope": "0.1"
      }, 
      "inputs": [[92, 0, 0]]
    }, 
    {
      "op": "null", 
      "name": "_res5_conv2_weight", 
      "attrs": {
        "dilate": "(1, 1)", 
        "kernel": "(3, 3)", 
        "layout": "NCHW", 
        "no_bias": "False", 
        "num_filter": "64", 
        "num_group": "1", 
        "pad": "(0, 0)", 
        "stride": "(1, 1)"
      }, 
      "inputs": []
    }, 
    {
      "op": "null", 
      "name": "_res5_conv2_bias", 
      "attrs": {
        "dilate": "(1, 1)", 
        "kernel": "(3, 3)", 
        "layout": "NCHW", 
        "no_bias": "False", 
        "num_filter": "64", 
        "num_group": "1", 
        "pad": "(0, 0)", 
        "stride": "(1, 1)"
      }, 
      "inputs": []
    }, 
    {
      "op": "Convolution", 
      "name": "_res5_conv2", 
      "attrs": {
        "dilate": "(1, 1)", 
        "kernel": "(3, 3)", 
        "layout": "NCHW", 
        "no_bias": "False", 
        "num_filter": "64", 
        "num_group": "1", 
        "pad": "(0, 0)", 
        "stride": "(1, 1)"
      }, 
      "inputs": [[93, 0, 0], [94, 0, 0], [95, 0, 0]]
    }, 
    {
      "op": "LeakyReLU", 
      "name": "_res5_conv2_relu", 
      "attrs": {
        "act_type": "leaky", 
        "slope": "0.1"
      }, 
      "inputs": [[96, 0, 0]]
    }, 
    {
      "op": "Pooling", 
      "name": "_res5_fc1_globalavgpool", 
      "attrs": {
        "global_pool": "True", 
        "kernel": "(1, 1)", 
        "pool_type": "avg", 
        "pooling_convention": "full"
      }, 
      "inputs": [[97, 0, 0]]
    }, 
    {
      "op": "null", 
      "name": "_res5_fc1_weight", 
      "attrs": {
        "no_bias": "False", 
        "num_hidden": "16"
      }, 
      "inputs": []
    }, 
    {
      "op": "null", 
      "name": "_res5_fc1_bias", 
      "attrs": {
        "no_bias": "False", 
        "num_hidden": "16"
      }, 
      "inputs": []
    }, 
    {
      "op": "FullyConnected", 
      "name": "_res5_fc1", 
      "attrs": {
        "no_bias": "False", 
        "num_hidden": "16"
      }, 
      "inputs": [[98, 0, 0], [99, 0, 0], [100, 0, 0]]
    }, 
    {
      "op": "Activation", 
      "name": "_res5_fc1_relu", 
      "attrs": {"act_type": "relu"}, 
      "inputs": [[101, 0, 0]]
    }, 
    {
      "op": "null", 
      "name": "_res5_fc2_weight", 
      "attrs": {
        "no_bias": "False", 
        "num_hidden": "64"
      }, 
      "inputs": []
    }, 
    {
      "op": "null", 
      "name": "_res5_fc2_bias", 
      "attrs": {
        "no_bias": "False", 
        "num_hidden": "64"
      }, 
      "inputs": []
    }, 
    {
      "op": "FullyConnected", 
      "name": "_res5_fc2", 
      "attrs": {
        "no_bias": "False", 
        "num_hidden": "64"
      }, 
      "inputs": [[102, 0, 0], [103, 0, 0], [104, 0, 0]]
    }, 
    {
      "op": "Activation", 
      "name": "_res5_fc2_sigmoid", 
      "attrs": {"act_type": "sigmoid"}, 
      "inputs": [[105, 0, 0]]
    }, 
    {
      "op": "Reshape", 
      "name": "reshape4", 
      "attrs": {"shape": "(1, -1, 1, 1)"}, 
      "inputs": [[106, 0, 0]]
    }, 
    {
      "op": "broadcast_mul", 
      "name": "broadcast_mul4", 
      "inputs": [[107, 0, 0], [97, 0, 0]]
    }, 
    {
      "op": "slice", 
      "name": "slice4", 
      "attrs": {
        "begin": "(0, 0, 2, 2)", 
        "end": "(0, 0, -2, -2)"
      }, 
      "inputs": [[89, 0, 0]]
    }, 
    {
      "op": "broadcast_add", 
      "name": "broadcast_add4", 
      "inputs": [[108, 0, 0], [109, 0, 0]]
    }, 
    {
      "op": "null", 
      "name": "_conv_bridge_weight", 
      "attrs": {
        "dilate": "(1, 1)", 
        "kernel": "(3, 3)", 
        "layout": "NCHW", 
        "no_bias": "False", 
        "num_filter": "64", 
        "num_group": "1", 
        "pad": "(0, 0)", 
        "stride": "(1, 1)"
      }, 
      "inputs": []
    }, 
    {
      "op": "null", 
      "name": "_conv_bridge_bias", 
      "attrs": {
        "dilate": "(1, 1)", 
        "kernel": "(3, 3)", 
        "layout": "NCHW", 
        "no_bias": "False", 
        "num_filter": "64", 
        "num_group": "1", 
        "pad": "(0, 0)", 
        "stride": "(1, 1)"
      }, 
      "inputs": []
    }, 
    {
      "op": "Convolution", 
      "name": "_conv_bridge", 
      "attrs": {
        "dilate": "(1, 1)", 
        "kernel": "(3, 3)", 
        "layout": "NCHW", 
        "no_bias": "False", 
        "num_filter": "64", 
        "num_group": "1", 
        "pad": "(0, 0)", 
        "stride": "(1, 1)"
      }, 
      "inputs": [[110, 0, 0], [111, 0, 0], [112, 0, 0]]
    }, 
    {
      "op": "LeakyReLU", 
      "name": "_conv_bridge_relu", 
      "attrs": {
        "act_type": "leaky", 
        "slope": "0.1"
      }, 
      "inputs": [[113, 0, 0]]
    }, 
    {
      "op": "slice", 
      "name": "slice5", 
      "attrs": {
        "begin": "(0, 0, 11, 11)", 
        "end": "(0, 0, -11, -11)"
      }, 
      "inputs": [[5, 0, 0]]
    }, 
    {
      "op": "broadcast_add", 
      "name": "_add", 
      "inputs": [[114, 0, 0], [115, 0, 0]]
    }, 
    {
      "op": "null", 
      "name": "_conv_post_weight", 
      "attrs": {
        "dilate": "(1, 1)", 
        "kernel": "(4, 4)", 
        "layout": "NCHW", 
        "no_bias": "True", 
        "num_filter": "3", 
        "num_group": "1", 
        "pad": "(3, 3)", 
        "stride": "(2, 2)"
      }, 
      "inputs": []
    }, 
    {
      "op": "Deconvolution", 
      "name": "_conv_post", 
      "attrs": {
        "dilate": "(1, 1)", 
        "kernel": "(4, 4)", 
        "layout": "NCHW", 
        "no_bias": "True", 
        "num_filter": "3", 
        "num_group": "1", 
        "pad": "(3, 3)", 
        "stride": "(2, 2)"
      }, 
      "inputs": [[116, 0, 0], [117, 0, 0]]
    }
  ], 
  "arg_nodes": [
    0, 
    2, 
    3, 
    6, 
    7, 
    10, 
    11, 
    15, 
    16, 
    19, 
    20, 
    27, 
    28, 
    31, 
    32, 
    36, 
    37, 
    40, 
    41, 
    48, 
    49, 
    52, 
    53, 
    57, 
    58, 
    61, 
    62, 
    69, 
    70, 
    73, 
    74, 
    78, 
    79, 
    82, 
    83, 
    90, 
    91, 
    94, 
    95, 
    99, 
    100, 
    103, 
    104, 
    111, 
    112, 
    117
  ], 
  "node_row_ptr": [
    0, 
    1, 
    2, 
    3, 
    4, 
    5, 
    6, 
    7, 
    8, 
    9, 
    10, 
    11, 
    12, 
    13, 
    14, 
    15, 
    16, 
    17, 
    18, 
    19, 
    20, 
    21, 
    22, 
    23, 
    24, 
    25, 
    26, 
    27, 
    28, 
    29, 
    30, 
    31, 
    32, 
    33, 
    34, 
    35, 
    36, 
    37, 
    38, 
    39, 
    40, 
    41, 
    42, 
    43, 
    44, 
    45, 
    46, 
    47, 
    48, 
    49, 
    50, 
    51, 
    52, 
    53, 
    54, 
    55, 
    56, 
    57, 
    58, 
    59, 
    60, 
    61, 
    62, 
    63, 
    64, 
    65, 
    66, 
    67, 
    68, 
    69, 
    70, 
    71, 
    72, 
    73, 
    74, 
    75, 
    76, 
    77, 
    78, 
    79, 
    80, 
    81, 
    82, 
    83, 
    84, 
    85, 
    86, 
    87, 
    88, 
    89, 
    90, 
    91, 
    92, 
    93, 
    94, 
    95, 
    96, 
    97, 
    98, 
    99, 
    100, 
    101, 
    102, 
    103, 
    104, 
    105, 
    106, 
    107, 
    108, 
    109, 
    110, 
    111, 
    112, 
    113, 
    114, 
    115, 
    116, 
    117, 
    118, 
    119
  ], 
  "heads": [[118, 0, 0]], 
  "attrs": {"mxnet_version": ["int", 10300]}
}