{
  "nodes": [
    {
      "op": "null", 
      "name": "data", 
      "inputs": []
    }, 
    {
      "op": "null", 
      "name": "neg_dataset_mean", 
      "attrs": {"__shape__": "(1, 3, 1, 1)"}, 
      "inputs": []
    }, 
    {
      "op": "broadcast_add", 
      "name": "pre_mean_shift", 
      "inputs": [[0, 0, 0], [1, 0, 0]]
    }, 
    {
      "op": "null", 
      "name": "inv_dataset_std", 
      "attrs": {"__shape__": "(1, 3, 1, 1)"}, 
      "inputs": []
    }, 
    {
      "op": "broadcast_mul", 
      "name": "pre_scale", 
      "inputs": [[2, 0, 0], [3, 0, 0]]
    }, 
    {
      "op": "Pad", 
      "name": "pad0", 
      "attrs": {
        "mode": "constant", 
        "pad_width": "(0, 0, 0, 0, 4, 4, 4, 4)"
      }, 
      "inputs": [[4, 0, 0]]
    }, 
    {
      "op": "null", 
      "name": "learned_0", 
      "attrs": {"__shape__": "(64, 3, 9, 9)"}, 
      "inputs": []
    }, 
    {
      "op": "null", 
      "name": "learned_1", 
      "attrs": {"__shape__": "(64,)"}, 
      "inputs": []
    }, 
    {
      "op": "Convolution", 
      "name": "convolution0", 
      "attrs": {
        "dilate": "(1, 1)", 
        "kernel": "(9, 9)", 
        "no_bias": "False", 
        "num_filter": "64", 
        "num_group": "1", 
        "stride": "(1, 1)"
      }, 
      "inputs": [[5, 0, 0], [6, 0, 0], [7, 0, 0]]
    }, 
    {
      "op": "sigmoid", 
      "name": "sigmoid0", 
      "inputs": [[8, 0, 0]]
    }, 
    {
      "op": "broadcast_mul", 
      "name": "broadcast_mul0", 
      "inputs": [[8, 0, 0], [9, 0, 0]]
    }, 
    {
      "op": "Pad", 
      "name": "pad1", 
      "attrs": {
        "mode": "constant", 
        "pad_width": "(0, 0, 0, 0, 1, 1, 1, 1)"
      }, 
      "inputs": [[10, 0, 0]]
    }, 
    {
      "op": "null", 
      "name": "learned_2", 
      "attrs": {"__shape__": "(64, 64, 3, 3)"}, 
      "inputs": []
    }, 
    {
      "op": "null", 
      "name": "learned_3", 
      "attrs": {"__shape__": "(64,)"}, 
      "inputs": []
    }, 
    {
      "op": "Convolution", 
      "name": "convolution1", 
      "attrs": {
        "dilate": "(1, 1)", 
        "kernel": "(3, 3)", 
        "no_bias": "False", 
        "num_filter": "64", 
        "num_group": "1", 
        "stride": "(1, 1)"
      }, 
      "inputs": [[11, 0, 0], [12, 0, 0], [13, 0, 0]]
    }, 
    {
      "op": "null", 
      "name": "learned_4", 
      "attrs": {"__shape__": "(64,)"}, 
      "inputs": []
    }, 
    {
      "op": "null", 
      "name": "learned_5", 
      "attrs": {"__shape__": "(64,)"}, 
      "inputs": []
    }, 
    {
      "op": "null", 
      "name": "learned_6", 
      "attrs": {
        "__init__": "[\"zero\", {}]", 
        "__shape__": "(64,)"
      }, 
      "inputs": []
    }, 
    {
      "op": "null", 
      "name": "learned_7", 
      "attrs": {
        "__init__": "[\"one\", {}]", 
        "__shape__": "(64,)"
      }, 
      "inputs": []
    }, 
    {
      "op": "BatchNorm", 
      "name": "batchnorm0", 
      "attrs": {
        "cudnn_off": "1", 
        "eps": "9.999999747378752e-06", 
        "fix_gamma": "False", 
        "momentum": "0.8999999761581421"
      }, 
      "inputs": [[14, 0, 0], [15, 0, 0], [16, 0, 0], [17, 0, 1], [18, 0, 1]]
    }, 
    {
      "op": "sigmoid", 
      "name": "sigmoid1", 
      "inputs": [[19, 0, 0]]
    }, 
    {
      "op": "broadcast_mul", 
      "name": "broadcast_mul1", 
      "inputs": [[19, 0, 0], [20, 0, 0]]
    }, 
    {
      "op": "Pad", 
      "name": "pad2", 
      "attrs": {
        "mode": "constant", 
        "pad_width": "(0, 0, 0, 0, 1, 1, 1, 1)"
      }, 
      "inputs": [[21, 0, 0]]
    }, 
    {
      "op": "null", 
      "name": "learned_8", 
      "attrs": {"__shape__": "(64, 64, 3, 3)"}, 
      "inputs": []
    }, 
    {
      "op": "null", 
      "name": "learned_9", 
      "attrs": {"__shape__": "(64,)"}, 
      "inputs": []
    }, 
    {
      "op": "Convolution", 
      "name": "convolution2", 
      "attrs": {
        "dilate": "(1, 1)", 
        "kernel": "(3, 3)", 
        "no_bias": "False", 
        "num_filter": "64", 
        "num_group": "1", 
        "stride": "(1, 1)"
      }, 
      "inputs": [[22, 0, 0], [23, 0, 0], [24, 0, 0]]
    }, 
    {
      "op": "null", 
      "name": "learned_10", 
      "attrs": {"__shape__": "(64,)"}, 
      "inputs": []
    }, 
    {
      "op": "null", 
      "name": "learned_11", 
      "attrs": {"__shape__": "(64,)"}, 
      "inputs": []
    }, 
    {
      "op": "null", 
      "name": "learned_12", 
      "attrs": {
        "__init__": "[\"zero\", {}]", 
        "__shape__": "(64,)"
      }, 
      "inputs": []
    }, 
    {
      "op": "null", 
      "name": "learned_13", 
      "attrs": {
        "__init__": "[\"one\", {}]", 
        "__shape__": "(64,)"
      }, 
      "inputs": []
    }, 
    {
      "op": "BatchNorm", 
      "name": "batchnorm1", 
      "attrs": {
        "cudnn_off": "1", 
        "eps": "9.999999747378752e-06", 
        "fix_gamma": "False", 
        "momentum": "0.8999999761581421"
      }, 
      "inputs": [[25, 0, 0], [26, 0, 0], [27, 0, 0], [28, 0, 1], [29, 0, 1]]
    }, 
    {
      "op": "broadcast_add", 
      "name": "broadcast_add0", 
      "inputs": [[30, 0, 0], [10, 0, 0]]
    }, 
    {
      "op": "Pad", 
      "name": "pad3", 
      "attrs": {
        "mode": "constant", 
        "pad_width": "(0, 0, 0, 0, 1, 1, 1, 1)"
      }, 
      "inputs": [[31, 0, 0]]
    }, 
    {
      "op": "null", 
      "name": "learned_14", 
      "attrs": {"__shape__": "(64, 64, 3, 3)"}, 
      "inputs": []
    }, 
    {
      "op": "null", 
      "name": "learned_15", 
      "attrs": {"__shape__": "(64,)"}, 
      "inputs": []
    }, 
    {
      "op": "Convolution", 
      "name": "convolution3", 
      "attrs": {
        "dilate": "(1, 1)", 
        "kernel": "(3, 3)", 
        "no_bias": "False", 
        "num_filter": "64", 
        "num_group": "1", 
        "stride": "(1, 1)"
      }, 
      "inputs": [[32, 0, 0], [33, 0, 0], [34, 0, 0]]
    }, 
    {
      "op": "null", 
      "name": "learned_16", 
      "attrs": {"__shape__": "(64,)"}, 
      "inputs": []
    }, 
    {
      "op": "null", 
      "name": "learned_17", 
      "attrs": {"__shape__": "(64,)"}, 
      "inputs": []
    }, 
    {
      "op": "null", 
      "name": "learned_18", 
      "attrs": {
        "__init__": "[\"zero\", {}]", 
        "__shape__": "(64,)"
      }, 
      "inputs": []
    }, 
    {
      "op": "null", 
      "name": "learned_19", 
      "attrs": {
        "__init__": "[\"one\", {}]", 
        "__shape__": "(64,)"
      }, 
      "inputs": []
    }, 
    {
      "op": "BatchNorm", 
      "name": "batchnorm2", 
      "attrs": {
        "cudnn_off": "1", 
        "eps": "9.999999747378752e-06", 
        "fix_gamma": "False", 
        "momentum": "0.8999999761581421"
      }, 
      "inputs": [[35, 0, 0], [36, 0, 0], [37, 0, 0], [38, 0, 1], [39, 0, 1]]
    }, 
    {
      "op": "sigmoid", 
      "name": "sigmoid2", 
      "inputs": [[40, 0, 0]]
    }, 
    {
      "op": "broadcast_mul", 
      "name": "broadcast_mul2", 
      "inputs": [[40, 0, 0], [41, 0, 0]]
    }, 
    {
      "op": "Pad", 
      "name": "pad4", 
      "attrs": {
        "mode": "constant", 
        "pad_width": "(0, 0, 0, 0, 1, 1, 1, 1)"
      }, 
      "inputs": [[42, 0, 0]]
    }, 
    {
      "op": "null", 
      "name": "learned_20", 
      "attrs": {"__shape__": "(64, 64, 3, 3)"}, 
      "inputs": []
    }, 
    {
      "op": "null", 
      "name": "learned_21", 
      "attrs": {"__shape__": "(64,)"}, 
      "inputs": []
    }, 
    {
      "op": "Convolution", 
      "name": "convolution4", 
      "attrs": {
        "dilate": "(1, 1)", 
        "kernel": "(3, 3)", 
        "no_bias": "False", 
        "num_filter": "64", 
        "num_group": "1", 
        "stride": "(1, 1)"
      }, 
      "inputs": [[43, 0, 0], [44, 0, 0], [45, 0, 0]]
    }, 
    {
      "op": "null", 
      "name": "learned_22", 
      "attrs": {"__shape__": "(64,)"}, 
      "inputs": []
    }, 
    {
      "op": "null", 
      "name": "learned_23", 
      "attrs": {"__shape__": "(64,)"}, 
      "inputs": []
    }, 
    {
      "op": "null", 
      "name": "learned_24", 
      "attrs": {
        "__init__": "[\"zero\", {}]", 
        "__shape__": "(64,)"
      }, 
      "inputs": []
    }, 
    {
      "op": "null", 
      "name": "learned_25", 
      "attrs": {
        "__init__": "[\"one\", {}]", 
        "__shape__": "(64,)"
      }, 
      "inputs": []
    }, 
    {
      "op": "BatchNorm", 
      "name": "batchnorm3", 
      "attrs": {
        "cudnn_off": "1", 
        "eps": "9.999999747378752e-06", 
        "fix_gamma": "False", 
        "momentum": "0.8999999761581421"
      }, 
      "inputs": [[46, 0, 0], [47, 0, 0], [48, 0, 0], [49, 0, 1], [50, 0, 1]]
    }, 
    {
      "op": "broadcast_add", 
      "name": "broadcast_add1", 
      "inputs": [[51, 0, 0], [31, 0, 0]]
    }, 
    {
      "op": "Pad", 
      "name": "pad5", 
      "attrs": {
        "mode": "constant", 
        "pad_width": "(0, 0, 0, 0, 1, 1, 1, 1)"
      }, 
      "inputs": [[52, 0, 0]]
    }, 
    {
      "op": "null", 
      "name": "learned_26", 
      "attrs": {"__shape__": "(64, 64, 3, 3)"}, 
      "inputs": []
    }, 
    {
      "op": "null", 
      "name": "learned_27", 
      "attrs": {"__shape__": "(64,)"}, 
      "inputs": []
    }, 
    {
      "op": "Convolution", 
      "name": "convolution5", 
      "attrs": {
        "dilate": "(1, 1)", 
        "kernel": "(3, 3)", 
        "no_bias": "False", 
        "num_filter": "64", 
        "num_group": "1", 
        "stride": "(1, 1)"
      }, 
      "inputs": [[53, 0, 0], [54, 0, 0], [55, 0, 0]]
    }, 
    {
      "op": "null", 
      "name": "learned_28", 
      "attrs": {"__shape__": "(64,)"}, 
      "inputs": []
    }, 
    {
      "op": "null", 
      "name": "learned_29", 
      "attrs": {"__shape__": "(64,)"}, 
      "inputs": []
    }, 
    {
      "op": "null", 
      "name": "learned_30", 
      "attrs": {
        "__init__": "[\"zero\", {}]", 
        "__shape__": "(64,)"
      }, 
      "inputs": []
    }, 
    {
      "op": "null", 
      "name": "learned_31", 
      "attrs": {
        "__init__": "[\"one\", {}]", 
        "__shape__": "(64,)"
      }, 
      "inputs": []
    }, 
    {
      "op": "BatchNorm", 
      "name": "batchnorm4", 
      "attrs": {
        "cudnn_off": "1", 
        "eps": "9.999999747378752e-06", 
        "fix_gamma": "False", 
        "momentum": "0.8999999761581421"
      }, 
      "inputs": [[56, 0, 0], [57, 0, 0], [58, 0, 0], [59, 0, 1], [60, 0, 1]]
    }, 
    {
      "op": "sigmoid", 
      "name": "sigmoid3", 
      "inputs": [[61, 0, 0]]
    }, 
    {
      "op": "broadcast_mul", 
      "name": "broadcast_mul3", 
      "inputs": [[61, 0, 0], [62, 0, 0]]
    }, 
    {
      "op": "Pad", 
      "name": "pad6", 
      "attrs": {
        "mode": "constant", 
        "pad_width": "(0, 0, 0, 0, 1, 1, 1, 1)"
      }, 
      "inputs": [[63, 0, 0]]
    }, 
    {
      "op": "null", 
      "name": "learned_32", 
      "attrs": {"__shape__": "(64, 64, 3, 3)"}, 
      "inputs": []
    }, 
    {
      "op": "null", 
      "name": "learned_33", 
      "attrs": {"__shape__": "(64,)"}, 
      "inputs": []
    }, 
    {
      "op": "Convolution", 
      "name": "convolution6", 
      "attrs": {
        "dilate": "(1, 1)", 
        "kernel": "(3, 3)", 
        "no_bias": "False", 
        "num_filter": "64", 
        "num_group": "1", 
        "stride": "(1, 1)"
      }, 
      "inputs": [[64, 0, 0], [65, 0, 0], [66, 0, 0]]
    }, 
    {
      "op": "null", 
      "name": "learned_34", 
      "attrs": {"__shape__": "(64,)"}, 
      "inputs": []
    }, 
    {
      "op": "null", 
      "name": "learned_35", 
      "attrs": {"__shape__": "(64,)"}, 
      "inputs": []
    }, 
    {
      "op": "null", 
      "name": "learned_36", 
      "attrs": {
        "__init__": "[\"zero\", {}]", 
        "__shape__": "(64,)"
      }, 
      "inputs": []
    }, 
    {
      "op": "null", 
      "name": "learned_37", 
      "attrs": {
        "__init__": "[\"one\", {}]", 
        "__shape__": "(64,)"
      }, 
      "inputs": []
    }, 
    {
      "op": "BatchNorm", 
      "name": "batchnorm5", 
      "attrs": {
        "cudnn_off": "1", 
        "eps": "9.999999747378752e-06", 
        "fix_gamma": "False", 
        "momentum": "0.8999999761581421"
      }, 
      "inputs": [[67, 0, 0], [68, 0, 0], [69, 0, 0], [70, 0, 1], [71, 0, 1]]
    }, 
    {
      "op": "broadcast_add", 
      "name": "broadcast_add2", 
      "inputs": [[72, 0, 0], [52, 0, 0]]
    }, 
    {
      "op": "Pad", 
      "name": "pad7", 
      "attrs": {
        "mode": "constant", 
        "pad_width": "(0, 0, 0, 0, 1, 1, 1, 1)"
      }, 
      "inputs": [[73, 0, 0]]
    }, 
    {
      "op": "null", 
      "name": "learned_38", 
      "attrs": {"__shape__": "(64, 64, 3, 3)"}, 
      "inputs": []
    }, 
    {
      "op": "null", 
      "name": "learned_39", 
      "attrs": {"__shape__": "(64,)"}, 
      "inputs": []
    }, 
    {
      "op": "Convolution", 
      "name": "convolution7", 
      "attrs": {
        "dilate": "(1, 1)", 
        "kernel": "(3, 3)", 
        "no_bias": "False", 
        "num_filter": "64", 
        "num_group": "1", 
        "stride": "(1, 1)"
      }, 
      "inputs": [[74, 0, 0], [75, 0, 0], [76, 0, 0]]
    }, 
    {
      "op": "null", 
      "name": "learned_40", 
      "attrs": {"__shape__": "(64,)"}, 
      "inputs": []
    }, 
    {
      "op": "null", 
      "name": "learned_41", 
      "attrs": {"__shape__": "(64,)"}, 
      "inputs": []
    }, 
    {
      "op": "null", 
      "name": "learned_42", 
      "attrs": {
        "__init__": "[\"zero\", {}]", 
        "__shape__": "(64,)"
      }, 
      "inputs": []
    }, 
    {
      "op": "null", 
      "name": "learned_43", 
      "attrs": {
        "__init__": "[\"one\", {}]", 
        "__shape__": "(64,)"
      }, 
      "inputs": []
    }, 
    {
      "op": "BatchNorm", 
      "name": "batchnorm6", 
      "attrs": {
        "cudnn_off": "1", 
        "eps": "9.999999747378752e-06", 
        "fix_gamma": "False", 
        "momentum": "0.8999999761581421"
      }, 
      "inputs": [[77, 0, 0], [78, 0, 0], [79, 0, 0], [80, 0, 1], [81, 0, 1]]
    }, 
    {
      "op": "sigmoid", 
      "name": "sigmoid4", 
      "inputs": [[82, 0, 0]]
    }, 
    {
      "op": "broadcast_mul", 
      "name": "broadcast_mul4", 
      "inputs": [[82, 0, 0], [83, 0, 0]]
    }, 
    {
      "op": "Pad", 
      "name": "pad8", 
      "attrs": {
        "mode": "constant", 
        "pad_width": "(0, 0, 0, 0, 1, 1, 1, 1)"
      }, 
      "inputs": [[84, 0, 0]]
    }, 
    {
      "op": "null", 
      "name": "learned_44", 
      "attrs": {"__shape__": "(64, 64, 3, 3)"}, 
      "inputs": []
    }, 
    {
      "op": "null", 
      "name": "learned_45", 
      "attrs": {"__shape__": "(64,)"}, 
      "inputs": []
    }, 
    {
      "op": "Convolution", 
      "name": "convolution8", 
      "attrs": {
        "dilate": "(1, 1)", 
        "kernel": "(3, 3)", 
        "no_bias": "False", 
        "num_filter": "64", 
        "num_group": "1", 
        "stride": "(1, 1)"
      }, 
      "inputs": [[85, 0, 0], [86, 0, 0], [87, 0, 0]]
    }, 
    {
      "op": "null", 
      "name": "learned_46", 
      "attrs": {"__shape__": "(64,)"}, 
      "inputs": []
    }, 
    {
      "op": "null", 
      "name": "learned_47", 
      "attrs": {"__shape__": "(64,)"}, 
      "inputs": []
    }, 
    {
      "op": "null", 
      "name": "learned_48", 
      "attrs": {
        "__init__": "[\"zero\", {}]", 
        "__shape__": "(64,)"
      }, 
      "inputs": []
    }, 
    {
      "op": "null", 
      "name": "learned_49", 
      "attrs": {
        "__init__": "[\"one\", {}]", 
        "__shape__": "(64,)"
      }, 
      "inputs": []
    }, 
    {
      "op": "BatchNorm", 
      "name": "batchnorm7", 
      "attrs": {
        "cudnn_off": "1", 
        "eps": "9.999999747378752e-06", 
        "fix_gamma": "False", 
        "momentum": "0.8999999761581421"
      }, 
      "inputs": [[88, 0, 0], [89, 0, 0], [90, 0, 0], [91, 0, 1], [92, 0, 1]]
    }, 
    {
      "op": "broadcast_add", 
      "name": "broadcast_add3", 
      "inputs": [[93, 0, 0], [73, 0, 0]]
    }, 
    {
      "op": "Pad", 
      "name": "pad9", 
      "attrs": {
        "mode": "constant", 
        "pad_width": "(0, 0, 0, 0, 1, 1, 1, 1)"
      }, 
      "inputs": [[94, 0, 0]]
    }, 
    {
      "op": "null", 
      "name": "learned_50", 
      "attrs": {"__shape__": "(64, 64, 3, 3)"}, 
      "inputs": []
    }, 
    {
      "op": "null", 
      "name": "learned_51", 
      "attrs": {"__shape__": "(64,)"}, 
      "inputs": []
    }, 
    {
      "op": "Convolution", 
      "name": "convolution9", 
      "attrs": {
        "dilate": "(1, 1)", 
        "kernel": "(3, 3)", 
        "no_bias": "False", 
        "num_filter": "64", 
        "num_group": "1", 
        "stride": "(1, 1)"
      }, 
      "inputs": [[95, 0, 0], [96, 0, 0], [97, 0, 0]]
    }, 
    {
      "op": "null", 
      "name": "learned_52", 
      "attrs": {"__shape__": "(64,)"}, 
      "inputs": []
    }, 
    {
      "op": "null", 
      "name": "learned_53", 
      "attrs": {"__shape__": "(64,)"}, 
      "inputs": []
    }, 
    {
      "op": "null", 
      "name": "learned_54", 
      "attrs": {
        "__init__": "[\"zero\", {}]", 
        "__shape__": "(64,)"
      }, 
      "inputs": []
    }, 
    {
      "op": "null", 
      "name": "learned_55", 
      "attrs": {
        "__init__": "[\"one\", {}]", 
        "__shape__": "(64,)"
      }, 
      "inputs": []
    }, 
    {
      "op": "BatchNorm", 
      "name": "batchnorm8", 
      "attrs": {
        "cudnn_off": "1", 
        "eps": "9.999999747378752e-06", 
        "fix_gamma": "False", 
        "momentum": "0.8999999761581421"
      }, 
      "inputs": [[98, 0, 0], [99, 0, 0], [100, 0, 0], [101, 0, 1], [102, 0, 1]]
    }, 
    {
      "op": "sigmoid", 
      "name": "sigmoid5", 
      "inputs": [[103, 0, 0]]
    }, 
    {
      "op": "broadcast_mul", 
      "name": "broadcast_mul5", 
      "inputs": [[103, 0, 0], [104, 0, 0]]
    }, 
    {
      "op": "Pad", 
      "name": "pad10", 
      "attrs": {
        "mode": "constant", 
        "pad_width": "(0, 0, 0, 0, 1, 1, 1, 1)"
      }, 
      "inputs": [[105, 0, 0]]
    }, 
    {
      "op": "null", 
      "name": "learned_56", 
      "attrs": {"__shape__": "(64, 64, 3, 3)"}, 
      "inputs": []
    }, 
    {
      "op": "null", 
      "name": "learned_57", 
      "attrs": {"__shape__": "(64,)"}, 
      "inputs": []
    }, 
    {
      "op": "Convolution", 
      "name": "convolution10", 
      "attrs": {
        "dilate": "(1, 1)", 
        "kernel": "(3, 3)", 
        "no_bias": "False", 
        "num_filter": "64", 
        "num_group": "1", 
        "stride": "(1, 1)"
      }, 
      "inputs": [[106, 0, 0], [107, 0, 0], [108, 0, 0]]
    }, 
    {
      "op": "null", 
      "name": "learned_58", 
      "attrs": {"__shape__": "(64,)"}, 
      "inputs": []
    }, 
    {
      "op": "null", 
      "name": "learned_59", 
      "attrs": {"__shape__": "(64,)"}, 
      "inputs": []
    }, 
    {
      "op": "null", 
      "name": "learned_60", 
      "attrs": {
        "__init__": "[\"zero\", {}]", 
        "__shape__": "(64,)"
      }, 
      "inputs": []
    }, 
    {
      "op": "null", 
      "name": "learned_61", 
      "attrs": {
        "__init__": "[\"one\", {}]", 
        "__shape__": "(64,)"
      }, 
      "inputs": []
    }, 
    {
      "op": "BatchNorm", 
      "name": "batchnorm9", 
      "attrs": {
        "cudnn_off": "1", 
        "eps": "9.999999747378752e-06", 
        "fix_gamma": "False", 
        "momentum": "0.8999999761581421"
      }, 
      "inputs": [[109, 0, 0], [110, 0, 0], [111, 0, 0], [112, 0, 1], [113, 0, 1]]
    }, 
    {
      "op": "broadcast_add", 
      "name": "broadcast_add4", 
      "inputs": [[114, 0, 0], [94, 0, 0]]
    }, 
    {
      "op": "Pad", 
      "name": "pad11", 
      "attrs": {
        "mode": "constant", 
        "pad_width": "(0, 0, 0, 0, 1, 1, 1, 1)"
      }, 
      "inputs": [[115, 0, 0]]
    }, 
    {
      "op": "null", 
      "name": "learned_62", 
      "attrs": {"__shape__": "(64, 64, 3, 3)"}, 
      "inputs": []
    }, 
    {
      "op": "null", 
      "name": "learned_63", 
      "attrs": {"__shape__": "(64,)"}, 
      "inputs": []
    }, 
    {
      "op": "Convolution", 
      "name": "convolution11", 
      "attrs": {
        "dilate": "(1, 1)", 
        "kernel": "(3, 3)", 
        "no_bias": "False", 
        "num_filter": "64", 
        "num_group": "1", 
        "stride": "(1, 1)"
      }, 
      "inputs": [[116, 0, 0], [117, 0, 0], [118, 0, 0]]
    }, 
    {
      "op": "null", 
      "name": "learned_64", 
      "attrs": {"__shape__": "(64,)"}, 
      "inputs": []
    }, 
    {
      "op": "null", 
      "name": "learned_65", 
      "attrs": {"__shape__": "(64,)"}, 
      "inputs": []
    }, 
    {
      "op": "null", 
      "name": "learned_66", 
      "attrs": {
        "__init__": "[\"zero\", {}]", 
        "__shape__": "(64,)"
      }, 
      "inputs": []
    }, 
    {
      "op": "null", 
      "name": "learned_67", 
      "attrs": {
        "__init__": "[\"one\", {}]", 
        "__shape__": "(64,)"
      }, 
      "inputs": []
    }, 
    {
      "op": "BatchNorm", 
      "name": "batchnorm10", 
      "attrs": {
        "cudnn_off": "1", 
        "eps": "9.999999747378752e-06", 
        "fix_gamma": "False", 
        "momentum": "0.8999999761581421"
      }, 
      "inputs": [[119, 0, 0], [120, 0, 0], [121, 0, 0], [122, 0, 1], [123, 0, 1]]
    }, 
    {
      "op": "sigmoid", 
      "name": "sigmoid6", 
      "inputs": [[124, 0, 0]]
    }, 
    {
      "op": "broadcast_mul", 
      "name": "broadcast_mul6", 
      "inputs": [[124, 0, 0], [125, 0, 0]]
    }, 
    {
      "op": "Pad", 
      "name": "pad12", 
      "attrs": {
        "mode": "constant", 
        "pad_width": "(0, 0, 0, 0, 1, 1, 1, 1)"
      }, 
      "inputs": [[126, 0, 0]]
    }, 
    {
      "op": "null", 
      "name": "learned_68", 
      "attrs": {"__shape__": "(64, 64, 3, 3)"}, 
      "inputs": []
    }, 
    {
      "op": "null", 
      "name": "learned_69", 
      "attrs": {"__shape__": "(64,)"}, 
      "inputs": []
    }, 
    {
      "op": "Convolution", 
      "name": "convolution12", 
      "attrs": {
        "dilate": "(1, 1)", 
        "kernel": "(3, 3)", 
        "no_bias": "False", 
        "num_filter": "64", 
        "num_group": "1", 
        "stride": "(1, 1)"
      }, 
      "inputs": [[127, 0, 0], [128, 0, 0], [129, 0, 0]]
    }, 
    {
      "op": "null", 
      "name": "learned_70", 
      "attrs": {"__shape__": "(64,)"}, 
      "inputs": []
    }, 
    {
      "op": "null", 
      "name": "learned_71", 
      "attrs": {"__shape__": "(64,)"}, 
      "inputs": []
    }, 
    {
      "op": "null", 
      "name": "learned_72", 
      "attrs": {
        "__init__": "[\"zero\", {}]", 
        "__shape__": "(64,)"
      }, 
      "inputs": []
    }, 
    {
      "op": "null", 
      "name": "learned_73", 
      "attrs": {
        "__init__": "[\"one\", {}]", 
        "__shape__": "(64,)"
      }, 
      "inputs": []
    }, 
    {
      "op": "BatchNorm", 
      "name": "batchnorm11", 
      "attrs": {
        "cudnn_off": "1", 
        "eps": "9.999999747378752e-06", 
        "fix_gamma": "False", 
        "momentum": "0.8999999761581421"
      }, 
      "inputs": [[130, 0, 0], [131, 0, 0], [132, 0, 0], [133, 0, 1], [134, 0, 1]]
    }, 
    {
      "op": "broadcast_add", 
      "name": "broadcast_add5", 
      "inputs": [[135, 0, 0], [115, 0, 0]]
    }, 
    {
      "op": "Pad", 
      "name": "pad13", 
      "attrs": {
        "mode": "constant", 
        "pad_width": "(0, 0, 0, 0, 1, 1, 1, 1)"
      }, 
      "inputs": [[136, 0, 0]]
    }, 
    {
      "op": "null", 
      "name": "learned_74", 
      "attrs": {"__shape__": "(64, 64, 3, 3)"}, 
      "inputs": []
    }, 
    {
      "op": "null", 
      "name": "learned_75", 
      "attrs": {"__shape__": "(64,)"}, 
      "inputs": []
    }, 
    {
      "op": "Convolution", 
      "name": "convolution13", 
      "attrs": {
        "dilate": "(1, 1)", 
        "kernel": "(3, 3)", 
        "no_bias": "False", 
        "num_filter": "64", 
        "num_group": "1", 
        "stride": "(1, 1)"
      }, 
      "inputs": [[137, 0, 0], [138, 0, 0], [139, 0, 0]]
    }, 
    {
      "op": "null", 
      "name": "learned_76", 
      "attrs": {"__shape__": "(64,)"}, 
      "inputs": []
    }, 
    {
      "op": "null", 
      "name": "learned_77", 
      "attrs": {"__shape__": "(64,)"}, 
      "inputs": []
    }, 
    {
      "op": "null", 
      "name": "learned_78", 
      "attrs": {
        "__init__": "[\"zero\", {}]", 
        "__shape__": "(64,)"
      }, 
      "inputs": []
    }, 
    {
      "op": "null", 
      "name": "learned_79", 
      "attrs": {
        "__init__": "[\"one\", {}]", 
        "__shape__": "(64,)"
      }, 
      "inputs": []
    }, 
    {
      "op": "BatchNorm", 
      "name": "batchnorm12", 
      "attrs": {
        "cudnn_off": "1", 
        "eps": "9.999999747378752e-06", 
        "fix_gamma": "False", 
        "momentum": "0.8999999761581421"
      }, 
      "inputs": [[140, 0, 0], [141, 0, 0], [142, 0, 0], [143, 0, 1], [144, 0, 1]]
    }, 
    {
      "op": "sigmoid", 
      "name": "sigmoid7", 
      "inputs": [[145, 0, 0]]
    }, 
    {
      "op": "broadcast_mul", 
      "name": "broadcast_mul7", 
      "inputs": [[145, 0, 0], [146, 0, 0]]
    }, 
    {
      "op": "Pad", 
      "name": "pad14", 
      "attrs": {
        "mode": "constant", 
        "pad_width": "(0, 0, 0, 0, 1, 1, 1, 1)"
      }, 
      "inputs": [[147, 0, 0]]
    }, 
    {
      "op": "null", 
      "name": "learned_80", 
      "attrs": {"__shape__": "(64, 64, 3, 3)"}, 
      "inputs": []
    }, 
    {
      "op": "null", 
      "name": "learned_81", 
      "attrs": {"__shape__": "(64,)"}, 
      "inputs": []
    }, 
    {
      "op": "Convolution", 
      "name": "convolution14", 
      "attrs": {
        "dilate": "(1, 1)", 
        "kernel": "(3, 3)", 
        "no_bias": "False", 
        "num_filter": "64", 
        "num_group": "1", 
        "stride": "(1, 1)"
      }, 
      "inputs": [[148, 0, 0], [149, 0, 0], [150, 0, 0]]
    }, 
    {
      "op": "null", 
      "name": "learned_82", 
      "attrs": {"__shape__": "(64,)"}, 
      "inputs": []
    }, 
    {
      "op": "null", 
      "name": "learned_83", 
      "attrs": {"__shape__": "(64,)"}, 
      "inputs": []
    }, 
    {
      "op": "null", 
      "name": "learned_84", 
      "attrs": {
        "__init__": "[\"zero\", {}]", 
        "__shape__": "(64,)"
      }, 
      "inputs": []
    }, 
    {
      "op": "null", 
      "name": "learned_85", 
      "attrs": {
        "__init__": "[\"one\", {}]", 
        "__shape__": "(64,)"
      }, 
      "inputs": []
    }, 
    {
      "op": "BatchNorm", 
      "name": "batchnorm13", 
      "attrs": {
        "cudnn_off": "1", 
        "eps": "9.999999747378752e-06", 
        "fix_gamma": "False", 
        "momentum": "0.8999999761581421"
      }, 
      "inputs": [[151, 0, 0], [152, 0, 0], [153, 0, 0], [154, 0, 1], [155, 0, 1]]
    }, 
    {
      "op": "broadcast_add", 
      "name": "broadcast_add6", 
      "inputs": [[156, 0, 0], [136, 0, 0]]
    }, 
    {
      "op": "Pad", 
      "name": "pad15", 
      "attrs": {
        "mode": "constant", 
        "pad_width": "(0, 0, 0, 0, 1, 1, 1, 1)"
      }, 
      "inputs": [[157, 0, 0]]
    }, 
    {
      "op": "null", 
      "name": "learned_86", 
      "attrs": {"__shape__": "(64, 64, 3, 3)"}, 
      "inputs": []
    }, 
    {
      "op": "null", 
      "name": "learned_87", 
      "attrs": {"__shape__": "(64,)"}, 
      "inputs": []
    }, 
    {
      "op": "Convolution", 
      "name": "convolution15", 
      "attrs": {
        "dilate": "(1, 1)", 
        "kernel": "(3, 3)", 
        "no_bias": "False", 
        "num_filter": "64", 
        "num_group": "1", 
        "stride": "(1, 1)"
      }, 
      "inputs": [[158, 0, 0], [159, 0, 0], [160, 0, 0]]
    }, 
    {
      "op": "null", 
      "name": "learned_88", 
      "attrs": {"__shape__": "(64,)"}, 
      "inputs": []
    }, 
    {
      "op": "null", 
      "name": "learned_89", 
      "attrs": {"__shape__": "(64,)"}, 
      "inputs": []
    }, 
    {
      "op": "null", 
      "name": "learned_90", 
      "attrs": {
        "__init__": "[\"zero\", {}]", 
        "__shape__": "(64,)"
      }, 
      "inputs": []
    }, 
    {
      "op": "null", 
      "name": "learned_91", 
      "attrs": {
        "__init__": "[\"one\", {}]", 
        "__shape__": "(64,)"
      }, 
      "inputs": []
    }, 
    {
      "op": "BatchNorm", 
      "name": "batchnorm14", 
      "attrs": {
        "cudnn_off": "1", 
        "eps": "9.999999747378752e-06", 
        "fix_gamma": "False", 
        "momentum": "0.8999999761581421"
      }, 
      "inputs": [[161, 0, 0], [162, 0, 0], [163, 0, 0], [164, 0, 1], [165, 0, 1]]
    }, 
    {
      "op": "sigmoid", 
      "name": "sigmoid8", 
      "inputs": [[166, 0, 0]]
    }, 
    {
      "op": "broadcast_mul", 
      "name": "broadcast_mul8", 
      "inputs": [[166, 0, 0], [167, 0, 0]]
    }, 
    {
      "op": "Pad", 
      "name": "pad16", 
      "attrs": {
        "mode": "constant", 
        "pad_width": "(0, 0, 0, 0, 1, 1, 1, 1)"
      }, 
      "inputs": [[168, 0, 0]]
    }, 
    {
      "op": "null", 
      "name": "learned_92", 
      "attrs": {"__shape__": "(64, 64, 3, 3)"}, 
      "inputs": []
    }, 
    {
      "op": "null", 
      "name": "learned_93", 
      "attrs": {"__shape__": "(64,)"}, 
      "inputs": []
    }, 
    {
      "op": "Convolution", 
      "name": "convolution16", 
      "attrs": {
        "dilate": "(1, 1)", 
        "kernel": "(3, 3)", 
        "no_bias": "False", 
        "num_filter": "64", 
        "num_group": "1", 
        "stride": "(1, 1)"
      }, 
      "inputs": [[169, 0, 0], [170, 0, 0], [171, 0, 0]]
    }, 
    {
      "op": "null", 
      "name": "learned_94", 
      "attrs": {"__shape__": "(64,)"}, 
      "inputs": []
    }, 
    {
      "op": "null", 
      "name": "learned_95", 
      "attrs": {"__shape__": "(64,)"}, 
      "inputs": []
    }, 
    {
      "op": "null", 
      "name": "learned_96", 
      "attrs": {
        "__init__": "[\"zero\", {}]", 
        "__shape__": "(64,)"
      }, 
      "inputs": []
    }, 
    {
      "op": "null", 
      "name": "learned_97", 
      "attrs": {
        "__init__": "[\"one\", {}]", 
        "__shape__": "(64,)"
      }, 
      "inputs": []
    }, 
    {
      "op": "BatchNorm", 
      "name": "batchnorm15", 
      "attrs": {
        "cudnn_off": "1", 
        "eps": "9.999999747378752e-06", 
        "fix_gamma": "False", 
        "momentum": "0.8999999761581421"
      }, 
      "inputs": [[172, 0, 0], [173, 0, 0], [174, 0, 0], [175, 0, 1], [176, 0, 1]]
    }, 
    {
      "op": "broadcast_add", 
      "name": "broadcast_add7", 
      "inputs": [[177, 0, 0], [157, 0, 0]]
    }, 
    {
      "op": "Pad", 
      "name": "pad17", 
      "attrs": {
        "mode": "constant", 
        "pad_width": "(0, 0, 0, 0, 1, 1, 1, 1)"
      }, 
      "inputs": [[178, 0, 0]]
    }, 
    {
      "op": "null", 
      "name": "learned_98", 
      "attrs": {"__shape__": "(64, 64, 3, 3)"}, 
      "inputs": []
    }, 
    {
      "op": "null", 
      "name": "learned_99", 
      "attrs": {"__shape__": "(64,)"}, 
      "inputs": []
    }, 
    {
      "op": "Convolution", 
      "name": "convolution17", 
      "attrs": {
        "dilate": "(1, 1)", 
        "kernel": "(3, 3)", 
        "no_bias": "False", 
        "num_filter": "64", 
        "num_group": "1", 
        "stride": "(1, 1)"
      }, 
      "inputs": [[179, 0, 0], [180, 0, 0], [181, 0, 0]]
    }, 
    {
      "op": "null", 
      "name": "learned_100", 
      "attrs": {"__shape__": "(64,)"}, 
      "inputs": []
    }, 
    {
      "op": "null", 
      "name": "learned_101", 
      "attrs": {"__shape__": "(64,)"}, 
      "inputs": []
    }, 
    {
      "op": "null", 
      "name": "learned_102", 
      "attrs": {
        "__init__": "[\"zero\", {}]", 
        "__shape__": "(64,)"
      }, 
      "inputs": []
    }, 
    {
      "op": "null", 
      "name": "learned_103", 
      "attrs": {
        "__init__": "[\"one\", {}]", 
        "__shape__": "(64,)"
      }, 
      "inputs": []
    }, 
    {
      "op": "BatchNorm", 
      "name": "batchnorm16", 
      "attrs": {
        "cudnn_off": "1", 
        "eps": "9.999999747378752e-06", 
        "fix_gamma": "False", 
        "momentum": "0.8999999761581421"
      }, 
      "inputs": [[182, 0, 0], [183, 0, 0], [184, 0, 0], [185, 0, 1], [186, 0, 1]]
    }, 
    {
      "op": "sigmoid", 
      "name": "sigmoid9", 
      "inputs": [[187, 0, 0]]
    }, 
    {
      "op": "broadcast_mul", 
      "name": "broadcast_mul9", 
      "inputs": [[187, 0, 0], [188, 0, 0]]
    }, 
    {
      "op": "Pad", 
      "name": "pad18", 
      "attrs": {
        "mode": "constant", 
        "pad_width": "(0, 0, 0, 0, 1, 1, 1, 1)"
      }, 
      "inputs": [[189, 0, 0]]
    }, 
    {
      "op": "null", 
      "name": "learned_104", 
      "attrs": {"__shape__": "(64, 64, 3, 3)"}, 
      "inputs": []
    }, 
    {
      "op": "null", 
      "name": "learned_105", 
      "attrs": {"__shape__": "(64,)"}, 
      "inputs": []
    }, 
    {
      "op": "Convolution", 
      "name": "convolution18", 
      "attrs": {
        "dilate": "(1, 1)", 
        "kernel": "(3, 3)", 
        "no_bias": "False", 
        "num_filter": "64", 
        "num_group": "1", 
        "stride": "(1, 1)"
      }, 
      "inputs": [[190, 0, 0], [191, 0, 0], [192, 0, 0]]
    }, 
    {
      "op": "null", 
      "name": "learned_106", 
      "attrs": {"__shape__": "(64,)"}, 
      "inputs": []
    }, 
    {
      "op": "null", 
      "name": "learned_107", 
      "attrs": {"__shape__": "(64,)"}, 
      "inputs": []
    }, 
    {
      "op": "null", 
      "name": "learned_108", 
      "attrs": {
        "__init__": "[\"zero\", {}]", 
        "__shape__": "(64,)"
      }, 
      "inputs": []
    }, 
    {
      "op": "null", 
      "name": "learned_109", 
      "attrs": {
        "__init__": "[\"one\", {}]", 
        "__shape__": "(64,)"
      }, 
      "inputs": []
    }, 
    {
      "op": "BatchNorm", 
      "name": "batchnorm17", 
      "attrs": {
        "cudnn_off": "1", 
        "eps": "9.999999747378752e-06", 
        "fix_gamma": "False", 
        "momentum": "0.8999999761581421"
      }, 
      "inputs": [[193, 0, 0], [194, 0, 0], [195, 0, 0], [196, 0, 1], [197, 0, 1]]
    }, 
    {
      "op": "broadcast_add", 
      "name": "broadcast_add8", 
      "inputs": [[198, 0, 0], [178, 0, 0]]
    }, 
    {
      "op": "Pad", 
      "name": "pad19", 
      "attrs": {
        "mode": "constant", 
        "pad_width": "(0, 0, 0, 0, 1, 1, 1, 1)"
      }, 
      "inputs": [[199, 0, 0]]
    }, 
    {
      "op": "null", 
      "name": "learned_110", 
      "attrs": {"__shape__": "(64, 64, 3, 3)"}, 
      "inputs": []
    }, 
    {
      "op": "null", 
      "name": "learned_111", 
      "attrs": {"__shape__": "(64,)"}, 
      "inputs": []
    }, 
    {
      "op": "Convolution", 
      "name": "convolution19", 
      "attrs": {
        "dilate": "(1, 1)", 
        "kernel": "(3, 3)", 
        "no_bias": "False", 
        "num_filter": "64", 
        "num_group": "1", 
        "stride": "(1, 1)"
      }, 
      "inputs": [[200, 0, 0], [201, 0, 0], [202, 0, 0]]
    }, 
    {
      "op": "null", 
      "name": "learned_112", 
      "attrs": {"__shape__": "(64,)"}, 
      "inputs": []
    }, 
    {
      "op": "null", 
      "name": "learned_113", 
      "attrs": {"__shape__": "(64,)"}, 
      "inputs": []
    }, 
    {
      "op": "null", 
      "name": "learned_114", 
      "attrs": {
        "__init__": "[\"zero\", {}]", 
        "__shape__": "(64,)"
      }, 
      "inputs": []
    }, 
    {
      "op": "null", 
      "name": "learned_115", 
      "attrs": {
        "__init__": "[\"one\", {}]", 
        "__shape__": "(64,)"
      }, 
      "inputs": []
    }, 
    {
      "op": "BatchNorm", 
      "name": "batchnorm18", 
      "attrs": {
        "cudnn_off": "1", 
        "eps": "9.999999747378752e-06", 
        "fix_gamma": "False", 
        "momentum": "0.8999999761581421"
      }, 
      "inputs": [[203, 0, 0], [204, 0, 0], [205, 0, 0], [206, 0, 1], [207, 0, 1]]
    }, 
    {
      "op": "sigmoid", 
      "name": "sigmoid10", 
      "inputs": [[208, 0, 0]]
    }, 
    {
      "op": "broadcast_mul", 
      "name": "broadcast_mul10", 
      "inputs": [[208, 0, 0], [209, 0, 0]]
    }, 
    {
      "op": "Pad", 
      "name": "pad20", 
      "attrs": {
        "mode": "constant", 
        "pad_width": "(0, 0, 0, 0, 1, 1, 1, 1)"
      }, 
      "inputs": [[210, 0, 0]]
    }, 
    {
      "op": "null", 
      "name": "learned_116", 
      "attrs": {"__shape__": "(64, 64, 3, 3)"}, 
      "inputs": []
    }, 
    {
      "op": "null", 
      "name": "learned_117", 
      "attrs": {"__shape__": "(64,)"}, 
      "inputs": []
    }, 
    {
      "op": "Convolution", 
      "name": "convolution20", 
      "attrs": {
        "dilate": "(1, 1)", 
        "kernel": "(3, 3)", 
        "no_bias": "False", 
        "num_filter": "64", 
        "num_group": "1", 
        "stride": "(1, 1)"
      }, 
      "inputs": [[211, 0, 0], [212, 0, 0], [213, 0, 0]]
    }, 
    {
      "op": "null", 
      "name": "learned_118", 
      "attrs": {"__shape__": "(64,)"}, 
      "inputs": []
    }, 
    {
      "op": "null", 
      "name": "learned_119", 
      "attrs": {"__shape__": "(64,)"}, 
      "inputs": []
    }, 
    {
      "op": "null", 
      "name": "learned_120", 
      "attrs": {
        "__init__": "[\"zero\", {}]", 
        "__shape__": "(64,)"
      }, 
      "inputs": []
    }, 
    {
      "op": "null", 
      "name": "learned_121", 
      "attrs": {
        "__init__": "[\"one\", {}]", 
        "__shape__": "(64,)"
      }, 
      "inputs": []
    }, 
    {
      "op": "BatchNorm", 
      "name": "batchnorm19", 
      "attrs": {
        "cudnn_off": "1", 
        "eps": "9.999999747378752e-06", 
        "fix_gamma": "False", 
        "momentum": "0.8999999761581421"
      }, 
      "inputs": [[214, 0, 0], [215, 0, 0], [216, 0, 0], [217, 0, 1], [218, 0, 1]]
    }, 
    {
      "op": "broadcast_add", 
      "name": "broadcast_add9", 
      "inputs": [[219, 0, 0], [199, 0, 0]]
    }, 
    {
      "op": "Pad", 
      "name": "pad21", 
      "attrs": {
        "mode": "constant", 
        "pad_width": "(0, 0, 0, 0, 1, 1, 1, 1)"
      }, 
      "inputs": [[220, 0, 0]]
    }, 
    {
      "op": "null", 
      "name": "learned_122", 
      "attrs": {"__shape__": "(64, 64, 3, 3)"}, 
      "inputs": []
    }, 
    {
      "op": "null", 
      "name": "learned_123", 
      "attrs": {"__shape__": "(64,)"}, 
      "inputs": []
    }, 
    {
      "op": "Convolution", 
      "name": "convolution21", 
      "attrs": {
        "dilate": "(1, 1)", 
        "kernel": "(3, 3)", 
        "no_bias": "False", 
        "num_filter": "64", 
        "num_group": "1", 
        "stride": "(1, 1)"
      }, 
      "inputs": [[221, 0, 0], [222, 0, 0], [223, 0, 0]]
    }, 
    {
      "op": "null", 
      "name": "learned_124", 
      "attrs": {"__shape__": "(64,)"}, 
      "inputs": []
    }, 
    {
      "op": "null", 
      "name": "learned_125", 
      "attrs": {"__shape__": "(64,)"}, 
      "inputs": []
    }, 
    {
      "op": "null", 
      "name": "learned_126", 
      "attrs": {
        "__init__": "[\"zero\", {}]", 
        "__shape__": "(64,)"
      }, 
      "inputs": []
    }, 
    {
      "op": "null", 
      "name": "learned_127", 
      "attrs": {
        "__init__": "[\"one\", {}]", 
        "__shape__": "(64,)"
      }, 
      "inputs": []
    }, 
    {
      "op": "BatchNorm", 
      "name": "batchnorm20", 
      "attrs": {
        "cudnn_off": "1", 
        "eps": "9.999999747378752e-06", 
        "fix_gamma": "False", 
        "momentum": "0.8999999761581421"
      }, 
      "inputs": [[224, 0, 0], [225, 0, 0], [226, 0, 0], [227, 0, 1], [228, 0, 1]]
    }, 
    {
      "op": "sigmoid", 
      "name": "sigmoid11", 
      "inputs": [[229, 0, 0]]
    }, 
    {
      "op": "broadcast_mul", 
      "name": "broadcast_mul11", 
      "inputs": [[229, 0, 0], [230, 0, 0]]
    }, 
    {
      "op": "Pad", 
      "name": "pad22", 
      "attrs": {
        "mode": "constant", 
        "pad_width": "(0, 0, 0, 0, 1, 1, 1, 1)"
      }, 
      "inputs": [[231, 0, 0]]
    }, 
    {
      "op": "null", 
      "name": "learned_128", 
      "attrs": {"__shape__": "(64, 64, 3, 3)"}, 
      "inputs": []
    }, 
    {
      "op": "null", 
      "name": "learned_129", 
      "attrs": {"__shape__": "(64,)"}, 
      "inputs": []
    }, 
    {
      "op": "Convolution", 
      "name": "convolution22", 
      "attrs": {
        "dilate": "(1, 1)", 
        "kernel": "(3, 3)", 
        "no_bias": "False", 
        "num_filter": "64", 
        "num_group": "1", 
        "stride": "(1, 1)"
      }, 
      "inputs": [[232, 0, 0], [233, 0, 0], [234, 0, 0]]
    }, 
    {
      "op": "null", 
      "name": "learned_130", 
      "attrs": {"__shape__": "(64,)"}, 
      "inputs": []
    }, 
    {
      "op": "null", 
      "name": "learned_131", 
      "attrs": {"__shape__": "(64,)"}, 
      "inputs": []
    }, 
    {
      "op": "null", 
      "name": "learned_132", 
      "attrs": {
        "__init__": "[\"zero\", {}]", 
        "__shape__": "(64,)"
      }, 
      "inputs": []
    }, 
    {
      "op": "null", 
      "name": "learned_133", 
      "attrs": {
        "__init__": "[\"one\", {}]", 
        "__shape__": "(64,)"
      }, 
      "inputs": []
    }, 
    {
      "op": "BatchNorm", 
      "name": "batchnorm21", 
      "attrs": {
        "cudnn_off": "1", 
        "eps": "9.999999747378752e-06", 
        "fix_gamma": "False", 
        "momentum": "0.8999999761581421"
      }, 
      "inputs": [[235, 0, 0], [236, 0, 0], [237, 0, 0], [238, 0, 1], [239, 0, 1]]
    }, 
    {
      "op": "broadcast_add", 
      "name": "broadcast_add10", 
      "inputs": [[240, 0, 0], [220, 0, 0]]
    }, 
    {
      "op": "Pad", 
      "name": "pad23", 
      "attrs": {
        "mode": "constant", 
        "pad_width": "(0, 0, 0, 0, 1, 1, 1, 1)"
      }, 
      "inputs": [[241, 0, 0]]
    }, 
    {
      "op": "null", 
      "name": "learned_134", 
      "attrs": {"__shape__": "(64, 64, 3, 3)"}, 
      "inputs": []
    }, 
    {
      "op": "null", 
      "name": "learned_135", 
      "attrs": {"__shape__": "(64,)"}, 
      "inputs": []
    }, 
    {
      "op": "Convolution", 
      "name": "convolution23", 
      "attrs": {
        "dilate": "(1, 1)", 
        "kernel": "(3, 3)", 
        "no_bias": "False", 
        "num_filter": "64", 
        "num_group": "1", 
        "stride": "(1, 1)"
      }, 
      "inputs": [[242, 0, 0], [243, 0, 0], [244, 0, 0]]
    }, 
    {
      "op": "null", 
      "name": "learned_136", 
      "attrs": {"__shape__": "(64,)"}, 
      "inputs": []
    }, 
    {
      "op": "null", 
      "name": "learned_137", 
      "attrs": {"__shape__": "(64,)"}, 
      "inputs": []
    }, 
    {
      "op": "null", 
      "name": "learned_138", 
      "attrs": {
        "__init__": "[\"zero\", {}]", 
        "__shape__": "(64,)"
      }, 
      "inputs": []
    }, 
    {
      "op": "null", 
      "name": "learned_139", 
      "attrs": {
        "__init__": "[\"one\", {}]", 
        "__shape__": "(64,)"
      }, 
      "inputs": []
    }, 
    {
      "op": "BatchNorm", 
      "name": "batchnorm22", 
      "attrs": {
        "cudnn_off": "1", 
        "eps": "9.999999747378752e-06", 
        "fix_gamma": "False", 
        "momentum": "0.8999999761581421"
      }, 
      "inputs": [[245, 0, 0], [246, 0, 0], [247, 0, 0], [248, 0, 1], [249, 0, 1]]
    }, 
    {
      "op": "sigmoid", 
      "name": "sigmoid12", 
      "inputs": [[250, 0, 0]]
    }, 
    {
      "op": "broadcast_mul", 
      "name": "broadcast_mul12", 
      "inputs": [[250, 0, 0], [251, 0, 0]]
    }, 
    {
      "op": "Pad", 
      "name": "pad24", 
      "attrs": {
        "mode": "constant", 
        "pad_width": "(0, 0, 0, 0, 1, 1, 1, 1)"
      }, 
      "inputs": [[252, 0, 0]]
    }, 
    {
      "op": "null", 
      "name": "learned_140", 
      "attrs": {"__shape__": "(64, 64, 3, 3)"}, 
      "inputs": []
    }, 
    {
      "op": "null", 
      "name": "learned_141", 
      "attrs": {"__shape__": "(64,)"}, 
      "inputs": []
    }, 
    {
      "op": "Convolution", 
      "name": "convolution24", 
      "attrs": {
        "dilate": "(1, 1)", 
        "kernel": "(3, 3)", 
        "no_bias": "False", 
        "num_filter": "64", 
        "num_group": "1", 
        "stride": "(1, 1)"
      }, 
      "inputs": [[253, 0, 0], [254, 0, 0], [255, 0, 0]]
    }, 
    {
      "op": "null", 
      "name": "learned_142", 
      "attrs": {"__shape__": "(64,)"}, 
      "inputs": []
    }, 
    {
      "op": "null", 
      "name": "learned_143", 
      "attrs": {"__shape__": "(64,)"}, 
      "inputs": []
    }, 
    {
      "op": "null", 
      "name": "learned_144", 
      "attrs": {
        "__init__": "[\"zero\", {}]", 
        "__shape__": "(64,)"
      }, 
      "inputs": []
    }, 
    {
      "op": "null", 
      "name": "learned_145", 
      "attrs": {
        "__init__": "[\"one\", {}]", 
        "__shape__": "(64,)"
      }, 
      "inputs": []
    }, 
    {
      "op": "BatchNorm", 
      "name": "batchnorm23", 
      "attrs": {
        "cudnn_off": "1", 
        "eps": "9.999999747378752e-06", 
        "fix_gamma": "False", 
        "momentum": "0.8999999761581421"
      }, 
      "inputs": [[256, 0, 0], [257, 0, 0], [258, 0, 0], [259, 0, 1], [260, 0, 1]]
    }, 
    {
      "op": "broadcast_add", 
      "name": "broadcast_add11", 
      "inputs": [[261, 0, 0], [241, 0, 0]]
    }, 
    {
      "op": "Pad", 
      "name": "pad25", 
      "attrs": {
        "mode": "constant", 
        "pad_width": "(0, 0, 0, 0, 1, 1, 1, 1)"
      }, 
      "inputs": [[262, 0, 0]]
    }, 
    {
      "op": "null", 
      "name": "learned_146", 
      "attrs": {"__shape__": "(64, 64, 3, 3)"}, 
      "inputs": []
    }, 
    {
      "op": "null", 
      "name": "learned_147", 
      "attrs": {"__shape__": "(64,)"}, 
      "inputs": []
    }, 
    {
      "op": "Convolution", 
      "name": "convolution25", 
      "attrs": {
        "dilate": "(1, 1)", 
        "kernel": "(3, 3)", 
        "no_bias": "False", 
        "num_filter": "64", 
        "num_group": "1", 
        "stride": "(1, 1)"
      }, 
      "inputs": [[263, 0, 0], [264, 0, 0], [265, 0, 0]]
    }, 
    {
      "op": "null", 
      "name": "learned_148", 
      "attrs": {"__shape__": "(64,)"}, 
      "inputs": []
    }, 
    {
      "op": "null", 
      "name": "learned_149", 
      "attrs": {"__shape__": "(64,)"}, 
      "inputs": []
    }, 
    {
      "op": "null", 
      "name": "learned_150", 
      "attrs": {
        "__init__": "[\"zero\", {}]", 
        "__shape__": "(64,)"
      }, 
      "inputs": []
    }, 
    {
      "op": "null", 
      "name": "learned_151", 
      "attrs": {
        "__init__": "[\"one\", {}]", 
        "__shape__": "(64,)"
      }, 
      "inputs": []
    }, 
    {
      "op": "BatchNorm", 
      "name": "batchnorm24", 
      "attrs": {
        "cudnn_off": "1", 
        "eps": "9.999999747378752e-06", 
        "fix_gamma": "False", 
        "momentum": "0.8999999761581421"
      }, 
      "inputs": [[266, 0, 0], [267, 0, 0], [268, 0, 0], [269, 0, 1], [270, 0, 1]]
    }, 
    {
      "op": "sigmoid", 
      "name": "sigmoid13", 
      "inputs": [[271, 0, 0]]
    }, 
    {
      "op": "broadcast_mul", 
      "name": "broadcast_mul13", 
      "inputs": [[271, 0, 0], [272, 0, 0]]
    }, 
    {
      "op": "Pad", 
      "name": "pad26", 
      "attrs": {
        "mode": "constant", 
        "pad_width": "(0, 0, 0, 0, 1, 1, 1, 1)"
      }, 
      "inputs": [[273, 0, 0]]
    }, 
    {
      "op": "null", 
      "name": "learned_152", 
      "attrs": {"__shape__": "(64, 64, 3, 3)"}, 
      "inputs": []
    }, 
    {
      "op": "null", 
      "name": "learned_153", 
      "attrs": {"__shape__": "(64,)"}, 
      "inputs": []
    }, 
    {
      "op": "Convolution", 
      "name": "convolution26", 
      "attrs": {
        "dilate": "(1, 1)", 
        "kernel": "(3, 3)", 
        "no_bias": "False", 
        "num_filter": "64", 
        "num_group": "1", 
        "stride": "(1, 1)"
      }, 
      "inputs": [[274, 0, 0], [275, 0, 0], [276, 0, 0]]
    }, 
    {
      "op": "null", 
      "name": "learned_154", 
      "attrs": {"__shape__": "(64,)"}, 
      "inputs": []
    }, 
    {
      "op": "null", 
      "name": "learned_155", 
      "attrs": {"__shape__": "(64,)"}, 
      "inputs": []
    }, 
    {
      "op": "null", 
      "name": "learned_156", 
      "attrs": {
        "__init__": "[\"zero\", {}]", 
        "__shape__": "(64,)"
      }, 
      "inputs": []
    }, 
    {
      "op": "null", 
      "name": "learned_157", 
      "attrs": {
        "__init__": "[\"one\", {}]", 
        "__shape__": "(64,)"
      }, 
      "inputs": []
    }, 
    {
      "op": "BatchNorm", 
      "name": "batchnorm25", 
      "attrs": {
        "cudnn_off": "1", 
        "eps": "9.999999747378752e-06", 
        "fix_gamma": "False", 
        "momentum": "0.8999999761581421"
      }, 
      "inputs": [[277, 0, 0], [278, 0, 0], [279, 0, 0], [280, 0, 1], [281, 0, 1]]
    }, 
    {
      "op": "broadcast_add", 
      "name": "broadcast_add12", 
      "inputs": [[282, 0, 0], [262, 0, 0]]
    }, 
    {
      "op": "Pad", 
      "name": "pad27", 
      "attrs": {
        "mode": "constant", 
        "pad_width": "(0, 0, 0, 0, 1, 1, 1, 1)"
      }, 
      "inputs": [[283, 0, 0]]
    }, 
    {
      "op": "null", 
      "name": "learned_158", 
      "attrs": {"__shape__": "(64, 64, 3, 3)"}, 
      "inputs": []
    }, 
    {
      "op": "null", 
      "name": "learned_159", 
      "attrs": {"__shape__": "(64,)"}, 
      "inputs": []
    }, 
    {
      "op": "Convolution", 
      "name": "convolution27", 
      "attrs": {
        "dilate": "(1, 1)", 
        "kernel": "(3, 3)", 
        "no_bias": "False", 
        "num_filter": "64", 
        "num_group": "1", 
        "stride": "(1, 1)"
      }, 
      "inputs": [[284, 0, 0], [285, 0, 0], [286, 0, 0]]
    }, 
    {
      "op": "null", 
      "name": "learned_160", 
      "attrs": {"__shape__": "(64,)"}, 
      "inputs": []
    }, 
    {
      "op": "null", 
      "name": "learned_161", 
      "attrs": {"__shape__": "(64,)"}, 
      "inputs": []
    }, 
    {
      "op": "null", 
      "name": "learned_162", 
      "attrs": {
        "__init__": "[\"zero\", {}]", 
        "__shape__": "(64,)"
      }, 
      "inputs": []
    }, 
    {
      "op": "null", 
      "name": "learned_163", 
      "attrs": {
        "__init__": "[\"one\", {}]", 
        "__shape__": "(64,)"
      }, 
      "inputs": []
    }, 
    {
      "op": "BatchNorm", 
      "name": "batchnorm26", 
      "attrs": {
        "cudnn_off": "1", 
        "eps": "9.999999747378752e-06", 
        "fix_gamma": "False", 
        "momentum": "0.8999999761581421"
      }, 
      "inputs": [[287, 0, 0], [288, 0, 0], [289, 0, 0], [290, 0, 1], [291, 0, 1]]
    }, 
    {
      "op": "sigmoid", 
      "name": "sigmoid14", 
      "inputs": [[292, 0, 0]]
    }, 
    {
      "op": "broadcast_mul", 
      "name": "broadcast_mul14", 
      "inputs": [[292, 0, 0], [293, 0, 0]]
    }, 
    {
      "op": "Pad", 
      "name": "pad28", 
      "attrs": {
        "mode": "constant", 
        "pad_width": "(0, 0, 0, 0, 1, 1, 1, 1)"
      }, 
      "inputs": [[294, 0, 0]]
    }, 
    {
      "op": "null", 
      "name": "learned_164", 
      "attrs": {"__shape__": "(64, 64, 3, 3)"}, 
      "inputs": []
    }, 
    {
      "op": "null", 
      "name": "learned_165", 
      "attrs": {"__shape__": "(64,)"}, 
      "inputs": []
    }, 
    {
      "op": "Convolution", 
      "name": "convolution28", 
      "attrs": {
        "dilate": "(1, 1)", 
        "kernel": "(3, 3)", 
        "no_bias": "False", 
        "num_filter": "64", 
        "num_group": "1", 
        "stride": "(1, 1)"
      }, 
      "inputs": [[295, 0, 0], [296, 0, 0], [297, 0, 0]]
    }, 
    {
      "op": "null", 
      "name": "learned_166", 
      "attrs": {"__shape__": "(64,)"}, 
      "inputs": []
    }, 
    {
      "op": "null", 
      "name": "learned_167", 
      "attrs": {"__shape__": "(64,)"}, 
      "inputs": []
    }, 
    {
      "op": "null", 
      "name": "learned_168", 
      "attrs": {
        "__init__": "[\"zero\", {}]", 
        "__shape__": "(64,)"
      }, 
      "inputs": []
    }, 
    {
      "op": "null", 
      "name": "learned_169", 
      "attrs": {
        "__init__": "[\"one\", {}]", 
        "__shape__": "(64,)"
      }, 
      "inputs": []
    }, 
    {
      "op": "BatchNorm", 
      "name": "batchnorm27", 
      "attrs": {
        "cudnn_off": "1", 
        "eps": "9.999999747378752e-06", 
        "fix_gamma": "False", 
        "momentum": "0.8999999761581421"
      }, 
      "inputs": [[298, 0, 0], [299, 0, 0], [300, 0, 0], [301, 0, 1], [302, 0, 1]]
    }, 
    {
      "op": "broadcast_add", 
      "name": "broadcast_add13", 
      "inputs": [[303, 0, 0], [283, 0, 0]]
    }, 
    {
      "op": "Pad", 
      "name": "pad29", 
      "attrs": {
        "mode": "constant", 
        "pad_width": "(0, 0, 0, 0, 1, 1, 1, 1)"
      }, 
      "inputs": [[304, 0, 0]]
    }, 
    {
      "op": "null", 
      "name": "learned_170", 
      "attrs": {"__shape__": "(64, 64, 3, 3)"}, 
      "inputs": []
    }, 
    {
      "op": "null", 
      "name": "learned_171", 
      "attrs": {"__shape__": "(64,)"}, 
      "inputs": []
    }, 
    {
      "op": "Convolution", 
      "name": "convolution29", 
      "attrs": {
        "dilate": "(1, 1)", 
        "kernel": "(3, 3)", 
        "no_bias": "False", 
        "num_filter": "64", 
        "num_group": "1", 
        "stride": "(1, 1)"
      }, 
      "inputs": [[305, 0, 0], [306, 0, 0], [307, 0, 0]]
    }, 
    {
      "op": "null", 
      "name": "learned_172", 
      "attrs": {"__shape__": "(64,)"}, 
      "inputs": []
    }, 
    {
      "op": "null", 
      "name": "learned_173", 
      "attrs": {"__shape__": "(64,)"}, 
      "inputs": []
    }, 
    {
      "op": "null", 
      "name": "learned_174", 
      "attrs": {
        "__init__": "[\"zero\", {}]", 
        "__shape__": "(64,)"
      }, 
      "inputs": []
    }, 
    {
      "op": "null", 
      "name": "learned_175", 
      "attrs": {
        "__init__": "[\"one\", {}]", 
        "__shape__": "(64,)"
      }, 
      "inputs": []
    }, 
    {
      "op": "BatchNorm", 
      "name": "batchnorm28", 
      "attrs": {
        "cudnn_off": "1", 
        "eps": "9.999999747378752e-06", 
        "fix_gamma": "False", 
        "momentum": "0.8999999761581421"
      }, 
      "inputs": [[308, 0, 0], [309, 0, 0], [310, 0, 0], [311, 0, 1], [312, 0, 1]]
    }, 
    {
      "op": "sigmoid", 
      "name": "sigmoid15", 
      "inputs": [[313, 0, 0]]
    }, 
    {
      "op": "broadcast_mul", 
      "name": "broadcast_mul15", 
      "inputs": [[313, 0, 0], [314, 0, 0]]
    }, 
    {
      "op": "Pad", 
      "name": "pad30", 
      "attrs": {
        "mode": "constant", 
        "pad_width": "(0, 0, 0, 0, 1, 1, 1, 1)"
      }, 
      "inputs": [[315, 0, 0]]
    }, 
    {
      "op": "null", 
      "name": "learned_176", 
      "attrs": {"__shape__": "(64, 64, 3, 3)"}, 
      "inputs": []
    }, 
    {
      "op": "null", 
      "name": "learned_177", 
      "attrs": {"__shape__": "(64,)"}, 
      "inputs": []
    }, 
    {
      "op": "Convolution", 
      "name": "convolution30", 
      "attrs": {
        "dilate": "(1, 1)", 
        "kernel": "(3, 3)", 
        "no_bias": "False", 
        "num_filter": "64", 
        "num_group": "1", 
        "stride": "(1, 1)"
      }, 
      "inputs": [[316, 0, 0], [317, 0, 0], [318, 0, 0]]
    }, 
    {
      "op": "null", 
      "name": "learned_178", 
      "attrs": {"__shape__": "(64,)"}, 
      "inputs": []
    }, 
    {
      "op": "null", 
      "name": "learned_179", 
      "attrs": {"__shape__": "(64,)"}, 
      "inputs": []
    }, 
    {
      "op": "null", 
      "name": "learned_180", 
      "attrs": {
        "__init__": "[\"zero\", {}]", 
        "__shape__": "(64,)"
      }, 
      "inputs": []
    }, 
    {
      "op": "null", 
      "name": "learned_181", 
      "attrs": {
        "__init__": "[\"one\", {}]", 
        "__shape__": "(64,)"
      }, 
      "inputs": []
    }, 
    {
      "op": "BatchNorm", 
      "name": "batchnorm29", 
      "attrs": {
        "cudnn_off": "1", 
        "eps": "9.999999747378752e-06", 
        "fix_gamma": "False", 
        "momentum": "0.8999999761581421"
      }, 
      "inputs": [[319, 0, 0], [320, 0, 0], [321, 0, 0], [322, 0, 1], [323, 0, 1]]
    }, 
    {
      "op": "broadcast_add", 
      "name": "broadcast_add14", 
      "inputs": [[324, 0, 0], [304, 0, 0]]
    }, 
    {
      "op": "Pad", 
      "name": "pad31", 
      "attrs": {
        "mode": "constant", 
        "pad_width": "(0, 0, 0, 0, 1, 1, 1, 1)"
      }, 
      "inputs": [[325, 0, 0]]
    }, 
    {
      "op": "null", 
      "name": "learned_182", 
      "attrs": {"__shape__": "(64, 64, 3, 3)"}, 
      "inputs": []
    }, 
    {
      "op": "null", 
      "name": "learned_183", 
      "attrs": {"__shape__": "(64,)"}, 
      "inputs": []
    }, 
    {
      "op": "Convolution", 
      "name": "convolution31", 
      "attrs": {
        "dilate": "(1, 1)", 
        "kernel": "(3, 3)", 
        "no_bias": "False", 
        "num_filter": "64", 
        "num_group": "1", 
        "stride": "(1, 1)"
      }, 
      "inputs": [[326, 0, 0], [327, 0, 0], [328, 0, 0]]
    }, 
    {
      "op": "null", 
      "name": "learned_184", 
      "attrs": {"__shape__": "(64,)"}, 
      "inputs": []
    }, 
    {
      "op": "null", 
      "name": "learned_185", 
      "attrs": {"__shape__": "(64,)"}, 
      "inputs": []
    }, 
    {
      "op": "null", 
      "name": "learned_186", 
      "attrs": {
        "__init__": "[\"zero\", {}]", 
        "__shape__": "(64,)"
      }, 
      "inputs": []
    }, 
    {
      "op": "null", 
      "name": "learned_187", 
      "attrs": {
        "__init__": "[\"one\", {}]", 
        "__shape__": "(64,)"
      }, 
      "inputs": []
    }, 
    {
      "op": "BatchNorm", 
      "name": "batchnorm30", 
      "attrs": {
        "cudnn_off": "1", 
        "eps": "9.999999747378752e-06", 
        "fix_gamma": "False", 
        "momentum": "0.8999999761581421"
      }, 
      "inputs": [[329, 0, 0], [330, 0, 0], [331, 0, 0], [332, 0, 1], [333, 0, 1]]
    }, 
    {
      "op": "sigmoid", 
      "name": "sigmoid16", 
      "inputs": [[334, 0, 0]]
    }, 
    {
      "op": "broadcast_mul", 
      "name": "broadcast_mul16", 
      "inputs": [[334, 0, 0], [335, 0, 0]]
    }, 
    {
      "op": "Pad", 
      "name": "pad32", 
      "attrs": {
        "mode": "constant", 
        "pad_width": "(0, 0, 0, 0, 1, 1, 1, 1)"
      }, 
      "inputs": [[336, 0, 0]]
    }, 
    {
      "op": "null", 
      "name": "learned_188", 
      "attrs": {"__shape__": "(64, 64, 3, 3)"}, 
      "inputs": []
    }, 
    {
      "op": "null", 
      "name": "learned_189", 
      "attrs": {"__shape__": "(64,)"}, 
      "inputs": []
    }, 
    {
      "op": "Convolution", 
      "name": "convolution32", 
      "attrs": {
        "dilate": "(1, 1)", 
        "kernel": "(3, 3)", 
        "no_bias": "False", 
        "num_filter": "64", 
        "num_group": "1", 
        "stride": "(1, 1)"
      }, 
      "inputs": [[337, 0, 0], [338, 0, 0], [339, 0, 0]]
    }, 
    {
      "op": "null", 
      "name": "learned_190", 
      "attrs": {"__shape__": "(64,)"}, 
      "inputs": []
    }, 
    {
      "op": "null", 
      "name": "learned_191", 
      "attrs": {"__shape__": "(64,)"}, 
      "inputs": []
    }, 
    {
      "op": "null", 
      "name": "learned_192", 
      "attrs": {
        "__init__": "[\"zero\", {}]", 
        "__shape__": "(64,)"
      }, 
      "inputs": []
    }, 
    {
      "op": "null", 
      "name": "learned_193", 
      "attrs": {
        "__init__": "[\"one\", {}]", 
        "__shape__": "(64,)"
      }, 
      "inputs": []
    }, 
    {
      "op": "BatchNorm", 
      "name": "batchnorm31", 
      "attrs": {
        "cudnn_off": "1", 
        "eps": "9.999999747378752e-06", 
        "fix_gamma": "False", 
        "momentum": "0.8999999761581421"
      }, 
      "inputs": [[340, 0, 0], [341, 0, 0], [342, 0, 0], [343, 0, 1], [344, 0, 1]]
    }, 
    {
      "op": "broadcast_add", 
      "name": "broadcast_add15", 
      "inputs": [[345, 0, 0], [325, 0, 0]]
    }, 
    {
      "op": "Pad", 
      "name": "pad33", 
      "attrs": {
        "mode": "constant", 
        "pad_width": "(0, 0, 0, 0, 1, 1, 1, 1)"
      }, 
      "inputs": [[346, 0, 0]]
    }, 
    {
      "op": "null", 
      "name": "learned_194", 
      "attrs": {"__shape__": "(64, 64, 3, 3)"}, 
      "inputs": []
    }, 
    {
      "op": "null", 
      "name": "learned_195", 
      "attrs": {"__shape__": "(64,)"}, 
      "inputs": []
    }, 
    {
      "op": "Convolution", 
      "name": "convolution33", 
      "attrs": {
        "dilate": "(1, 1)", 
        "kernel": "(3, 3)", 
        "no_bias": "False", 
        "num_filter": "64", 
        "num_group": "1", 
        "stride": "(1, 1)"
      }, 
      "inputs": [[347, 0, 0], [348, 0, 0], [349, 0, 0]]
    }, 
    {
      "op": "null", 
      "name": "learned_196", 
      "attrs": {"__shape__": "(64,)"}, 
      "inputs": []
    }, 
    {
      "op": "null", 
      "name": "learned_197", 
      "attrs": {"__shape__": "(64,)"}, 
      "inputs": []
    }, 
    {
      "op": "null", 
      "name": "learned_198", 
      "attrs": {
        "__init__": "[\"zero\", {}]", 
        "__shape__": "(64,)"
      }, 
      "inputs": []
    }, 
    {
      "op": "null", 
      "name": "learned_199", 
      "attrs": {
        "__init__": "[\"one\", {}]", 
        "__shape__": "(64,)"
      }, 
      "inputs": []
    }, 
    {
      "op": "BatchNorm", 
      "name": "batchnorm32", 
      "attrs": {
        "cudnn_off": "1", 
        "eps": "9.999999747378752e-06", 
        "fix_gamma": "False", 
        "momentum": "0.8999999761581421"
      }, 
      "inputs": [[350, 0, 0], [351, 0, 0], [352, 0, 0], [353, 0, 1], [354, 0, 1]]
    }, 
    {
      "op": "broadcast_add", 
      "name": "broadcast_add16", 
      "inputs": [[355, 0, 0], [10, 0, 0]]
    }, 
    {
      "op": "Pad", 
      "name": "pad34", 
      "attrs": {
        "mode": "constant", 
        "pad_width": "(0, 0, 0, 0, 1, 1, 1, 1)"
      }, 
      "inputs": [[356, 0, 0]]
    }, 
    {
      "op": "null", 
      "name": "learned_200", 
      "attrs": {"__shape__": "(256, 64, 3, 3)"}, 
      "inputs": []
    }, 
    {
      "op": "null", 
      "name": "learned_201", 
      "attrs": {"__shape__": "(256,)"}, 
      "inputs": []
    }, 
    {
      "op": "Convolution", 
      "name": "convolution34", 
      "attrs": {
        "dilate": "(1, 1)", 
        "kernel": "(3, 3)", 
        "no_bias": "False", 
        "num_filter": "256", 
        "num_group": "1", 
        "stride": "(1, 1)"
      }, 
      "inputs": [[357, 0, 0], [358, 0, 0], [359, 0, 0]]
    }, 
    {
      "op": "Reshape", 
      "name": "reshape0", 
      "attrs": {"shape": "(0, -4, -1, 4, 0, 0)"}, 
      "inputs": [[360, 0, 0]]
    }, 
    {
      "op": "Reshape", 
      "name": "reshape1", 
      "attrs": {"shape": "(0, 0, -4, 2, 2, 0, 0)"}, 
      "inputs": [[361, 0, 0]]
    }, 
    {
      "op": "transpose", 
      "name": "transpose0", 
      "attrs": {"axes": "(0, 1, 4, 2, 5, 3)"}, 
      "inputs": [[362, 0, 0]]
    }, 
    {
      "op": "Reshape", 
      "name": "reshape2", 
      "attrs": {"shape": "(0, 0, -3, -3)"}, 
      "inputs": [[363, 0, 0]]
    }, 
    {
      "op": "sigmoid", 
      "name": "sigmoid17", 
      "inputs": [[364, 0, 0]]
    }, 
    {
      "op": "broadcast_mul", 
      "name": "broadcast_mul17", 
      "inputs": [[364, 0, 0], [365, 0, 0]]
    }, 
    {
      "op": "null", 
      "name": "learned_202", 
      "attrs": {"__shape__": "(256, 64, 3, 3)"}, 
      "inputs": []
    }, 
    {
      "op": "null", 
      "name": "learned_203", 
      "attrs": {"__shape__": "(256,)"}, 
      "inputs": []
    }, 
    {
      "op": "Convolution", 
      "name": "convolution35", 
      "attrs": {
        "dilate": "(1, 1)", 
        "kernel": "(3, 3)", 
        "no_bias": "False", 
        "num_filter": "256", 
        "num_group": "1", 
        "pad": "(1, 1)", 
        "stride": "(1, 1)"
      }, 
      "inputs": [[366, 0, 0], [367, 0, 0], [368, 0, 0]]
    }, 
    {
      "op": "Reshape", 
      "name": "reshape3", 
      "attrs": {"shape": "(0, -4, -1, 4, 0, 0)"}, 
      "inputs": [[369, 0, 0]]
    }, 
    {
      "op": "Reshape", 
      "name": "reshape4", 
      "attrs": {"shape": "(0, 0, -4, 2, 2, 0, 0)"}, 
      "inputs": [[370, 0, 0]]
    }, 
    {
      "op": "transpose", 
      "name": "transpose1", 
      "attrs": {"axes": "(0, 1, 4, 2, 5, 3)"}, 
      "inputs": [[371, 0, 0]]
    }, 
    {
      "op": "Reshape", 
      "name": "reshape5", 
      "attrs": {"shape": "(0, 0, -3, -3)"}, 
      "inputs": [[372, 0, 0]]
    }, 
    {
      "op": "sigmoid", 
      "name": "sigmoid18", 
      "inputs": [[373, 0, 0]]
    }, 
    {
      "op": "broadcast_mul", 
      "name": "broadcast_mul18", 
      "inputs": [[373, 0, 0], [374, 0, 0]]
    }, 
    {
      "op": "null", 
      "name": "learned_204", 
      "attrs": {"__shape__": "(3, 64, 9, 9)"}, 
      "inputs": []
    }, 
    {
      "op": "null", 
      "name": "learned_205", 
      "attrs": {"__shape__": "(3,)"}, 
      "inputs": []
    }, 
    {
      "op": "Convolution", 
      "name": "convolution36", 
      "attrs": {
        "dilate": "(1, 1)", 
        "kernel": "(9, 9)", 
        "no_bias": "False", 
        "num_filter": "3", 
        "num_group": "1", 
        "pad": "(4, 4)", 
        "stride": "(1, 1)"
      }, 
      "inputs": [[375, 0, 0], [376, 0, 0], [377, 0, 0]]
    }, 
    {
      "op": "null", 
      "name": "dataset_std", 
      "attrs": {"__shape__": "(1, 3, 1, 1)"}, 
      "inputs": []
    }, 
    {
      "op": "broadcast_mul", 
      "name": "post_scale", 
      "inputs": [[378, 0, 0], [379, 0, 0]]
    }, 
    {
      "op": "null", 
      "name": "dataset_mean", 
      "attrs": {"__shape__": "(1, 3, 1, 1)"}, 
      "inputs": []
    }, 
    {
      "op": "broadcast_add", 
      "name": "post_mean_shift", 
      "inputs": [[380, 0, 0], [381, 0, 0]]
    }
  ], 
  "arg_nodes": [
    0, 
    1, 
    3, 
    6, 
    7, 
    12, 
    13, 
    15, 
    16, 
    17, 
    18, 
    23, 
    24, 
    26, 
    27, 
    28, 
    29, 
    33, 
    34, 
    36, 
    37, 
    38, 
    39, 
    44, 
    45, 
    47, 
    48, 
    49, 
    50, 
    54, 
    55, 
    57, 
    58, 
    59, 
    60, 
    65, 
    66, 
    68, 
    69, 
    70, 
    71, 
    75, 
    76, 
    78, 
    79, 
    80, 
    81, 
    86, 
    87, 
    89, 
    90, 
    91, 
    92, 
    96, 
    97, 
    99, 
    100, 
    101, 
    102, 
    107, 
    108, 
    110, 
    111, 
    112, 
    113, 
    117, 
    118, 
    120, 
    121, 
    122, 
    123, 
    128, 
    129, 
    131, 
    132, 
    133, 
    134, 
    138, 
    139, 
    141, 
    142, 
    143, 
    144, 
    149, 
    150, 
    152, 
    153, 
    154, 
    155, 
    159, 
    160, 
    162, 
    163, 
    164, 
    165, 
    170, 
    171, 
    173, 
    174, 
    175, 
    176, 
    180, 
    181, 
    183, 
    184, 
    185, 
    186, 
    191, 
    192, 
    194, 
    195, 
    196, 
    197, 
    201, 
    202, 
    204, 
    205, 
    206, 
    207, 
    212, 
    213, 
    215, 
    216, 
    217, 
    218, 
    222, 
    223, 
    225, 
    226, 
    227, 
    228, 
    233, 
    234, 
    236, 
    237, 
    238, 
    239, 
    243, 
    244, 
    246, 
    247, 
    248, 
    249, 
    254, 
    255, 
    257, 
    258, 
    259, 
    260, 
    264, 
    265, 
    267, 
    268, 
    269, 
    270, 
    275, 
    276, 
    278, 
    279, 
    280, 
    281, 
    285, 
    286, 
    288, 
    289, 
    290, 
    291, 
    296, 
    297, 
    299, 
    300, 
    301, 
    302, 
    306, 
    307, 
    309, 
    310, 
    311, 
    312, 
    317, 
    318, 
    320, 
    321, 
    322, 
    323, 
    327, 
    328, 
    330, 
    331, 
    332, 
    333, 
    338, 
    339, 
    341, 
    342, 
    343, 
    344, 
    348, 
    349, 
    351, 
    352, 
    353, 
    354, 
    358, 
    359, 
    367, 
    368, 
    376, 
    377, 
    379, 
    381
  ], 
  "node_row_ptr": [
    0, 
    1, 
    2, 
    3, 
    4, 
    5, 
    6, 
    7, 
    8, 
    9, 
    10, 
    11, 
    12, 
    13, 
    14, 
    15, 
    16, 
    17, 
    18, 
    19, 
    22, 
    23, 
    24, 
    25, 
    26, 
    27, 
    28, 
    29, 
    30, 
    31, 
    32, 
    35, 
    36, 
    37, 
    38, 
    39, 
    40, 
    41, 
    42, 
    43, 
    44, 
    47, 
    48, 
    49, 
    50, 
    51, 
    52, 
    53, 
    54, 
    55, 
    56, 
    57, 
    60, 
    61, 
    62, 
    63, 
    64, 
    65, 
    66, 
    67, 
    68, 
    69, 
    72, 
    73, 
    74, 
    75, 
    76, 
    77, 
    78, 
    79, 
    80, 
    81, 
    82, 
    85, 
    86, 
    87, 
    88, 
    89, 
    90, 
    91, 
    92, 
    93, 
    94, 
    97, 
    98, 
    99, 
    100, 
    101, 
    102, 
    103, 
    104, 
    105, 
    106, 
    107, 
    110, 
    111, 
    112, 
    113, 
    114, 
    115, 
    116, 
    117, 
    118, 
    119, 
    122, 
    123, 
    124, 
    125, 
    126, 
    127, 
    128, 
    129, 
    130, 
    131, 
    132, 
    135, 
    136, 
    137, 
    138, 
    139, 
    140, 
    141, 
    142, 
    143, 
    144, 
    147, 
    148, 
    149, 
    150, 
    151, 
    152, 
    153, 
    154, 
    155, 
    156, 
    157, 
    160, 
    161, 
    162, 
    163, 
    164, 
    165, 
    166, 
    167, 
    168, 
    169, 
    172, 
    173, 
    174, 
    175, 
    176, 
    177, 
    178, 
    179, 
    180, 
    181, 
    182, 
    185, 
    186, 
    187, 
    188, 
    189, 
    190, 
    191, 
    192, 
    193, 
    194, 
    197, 
    198, 
    199, 
    200, 
    201, 
    202, 
    203, 
    204, 
    205, 
    206, 
    207, 
    210, 
    211, 
    212, 
    213, 
    214, 
    215, 
    216, 
    217, 
    218, 
    219, 
    222, 
    223, 
    224, 
    225, 
    226, 
    227, 
    228, 
    229, 
    230, 
    231, 
    232, 
    235, 
    236, 
    237, 
    238, 
    239, 
    240, 
    241, 
    242, 
    243, 
    244, 
    247, 
    248, 
    249, 
    250, 
    251, 
    252, 
    253, 
    254, 
    255, 
    256, 
    257, 
    260, 
    261, 
    262, 
    263, 
    264, 
    265, 
    266, 
    267, 
    268, 
    269, 
    272, 
    273, 
    274, 
    275, 
    276, 
    277, 
    278, 
    279, 
    280, 
    281, 
    282, 
    285, 
    286, 
    287, 
    288, 
    289, 
    290, 
    291, 
    292, 
    293, 
    294, 
    297, 
    298, 
    299, 
    300, 
    301, 
    302, 
    303, 
    304, 
    305, 
    306, 
    307, 
    310, 
    311, 
    312, 
    313, 
    314, 
    315, 
    316, 
    317, 
    318, 
    319, 
    322, 
    323, 
    324, 
    325, 
    326, 
    327, 
    328, 
    329, 
    330, 
    331, 
    332, 
    335, 
    336, 
    337, 
    338, 
    339, 
    340, 
    341, 
    342, 
    343, 
    344, 
    347, 
    348, 
    349, 
    350, 
    351, 
    352, 
    353, 
    354, 
    355, 
    356, 
    357, 
    360, 
    361, 
    362, 
    363, 
    364, 
    365, 
    366, 
    367, 
    368, 
    369, 
    372, 
    373, 
    374, 
    375, 
    376, 
    377, 
    378, 
    379, 
    380, 
    381, 
    382, 
    385, 
    386, 
    387, 
    388, 
    389, 
    390, 
    391, 
    392, 
    393, 
    394, 
    397, 
    398, 
    399, 
    400, 
    401, 
    402, 
    403, 
    404, 
    405, 
    406, 
    407, 
    410, 
    411, 
    412, 
    413, 
    414, 
    415, 
    416, 
    417, 
    418, 
    419, 
    422, 
    423, 
    424, 
    425, 
    426, 
    427, 
    428, 
    429, 
    430, 
    431, 
    432, 
    433, 
    434, 
    435, 
    436, 
    437, 
    438, 
    439, 
    440, 
    441, 
    442, 
    443, 
    444, 
    445, 
    446, 
    447, 
    448, 
    449
  ], 
  "heads": [[382, 0, 0]], 
  "attrs": {"mxnet_version": ["int", 10300]}
}