{
  "nodes": [
    {
      "op": "null", 
      "name": "data", 
      "inputs": []
    }, 
    {
      "op": "null", 
      "name": "sub_mean.weight", 
      "attrs": {"__shape__": "(3, 3, 1, 1)"}, 
      "inputs": []
    }, 
    {
      "op": "null", 
      "name": "sub_mean.bias", 
      "attrs": {"__shape__": "(3,)"}, 
      "inputs": []
    }, 
    {
      "op": "Convolution", 
      "name": "convolution0", 
      "attrs": {
        "dilate": "(1, 1)", 
        "kernel": "(1, 1)", 
        "layout": "NCHW", 
        "no_bias": "False", 
        "num_filter": "3", 
        "num_group": "1", 
        "pad": "(0, 0)", 
        "stride": "(1, 1)"
      }, 
      "inputs": [[0, 0, 0], [1, 0, 0], [2, 0, 0]]
    }, 
    {
      "op": "Pad", 
      "name": "pad0", 
      "attrs": {
        "mode": "reflect", 
        "pad_width": "(0, 0, 0, 0, 1, 1, 1, 1)"
      }, 
      "inputs": [[3, 0, 0]]
    }, 
    {
      "op": "null", 
      "name": "init_conv_1.conv.1.weight", 
      "attrs": {"__shape__": "(160, 3, 3, 3)"}, 
      "inputs": []
    }, 
    {
      "op": "null", 
      "name": "init_conv_1.conv.1.bias", 
      "attrs": {"__shape__": "(160,)"}, 
      "inputs": []
    }, 
    {
      "op": "Convolution", 
      "name": "convolution1", 
      "attrs": {
        "dilate": "(1, 1)", 
        "kernel": "(3, 3)", 
        "layout": "NCHW", 
        "no_bias": "False", 
        "num_filter": "160", 
        "num_group": "1", 
        "pad": "(0, 0)", 
        "stride": "(1, 1)"
      }, 
      "inputs": [[4, 0, 0], [5, 0, 0], [6, 0, 0]]
    }, 
    {
      "op": "null", 
      "name": "pyramid_residual_1.residual_denseblock_1.dense_block.denselayer1.conv_1.weight", 
      "attrs": {"__shape__": "(160, 160, 1, 1)"}, 
      "inputs": []
    }, 
    {
      "op": "null", 
      "name": "pyramid_residual_1.residual_denseblock_1.dense_block.denselayer1.conv_1.bias", 
      "attrs": {"__shape__": "(160,)"}, 
      "inputs": []
    }, 
    {
      "op": "Convolution", 
      "name": "convolution2", 
      "attrs": {
        "dilate": "(1, 1)", 
        "kernel": "(1, 1)", 
        "layout": "NCHW", 
        "no_bias": "False", 
        "num_filter": "160", 
        "num_group": "1", 
        "pad": "(0, 0)", 
        "stride": "(1, 1)"
      }, 
      "inputs": [[7, 0, 0], [8, 0, 0], [9, 0, 0]]
    }, 
    {
      "op": "relu", 
      "name": "relu0", 
      "inputs": [[10, 0, 0]]
    }, 
    {
      "op": "Pad", 
      "name": "pad1", 
      "attrs": {
        "mode": "reflect", 
        "pad_width": "(0, 0, 0, 0, 1, 1, 1, 1)"
      }, 
      "inputs": [[11, 0, 0]]
    }, 
    {
      "op": "null", 
      "name": "pyramid_residual_1.residual_denseblock_1.dense_block.denselayer1.conv_2.conv.1.weight", 
      "attrs": {"__shape__": "(40, 160, 3, 3)"}, 
      "inputs": []
    }, 
    {
      "op": "null", 
      "name": "pyramid_residual_1.residual_denseblock_1.dense_block.denselayer1.conv_2.conv.1.bias", 
      "attrs": {"__shape__": "(40,)"}, 
      "inputs": []
    }, 
    {
      "op": "Convolution", 
      "name": "convolution3", 
      "attrs": {
        "dilate": "(1, 1)", 
        "kernel": "(3, 3)", 
        "layout": "NCHW", 
        "no_bias": "False", 
        "num_filter": "40", 
        "num_group": "1", 
        "pad": "(0, 0)", 
        "stride": "(1, 1)"
      }, 
      "inputs": [[12, 0, 0], [13, 0, 0], [14, 0, 0]]
    }, 
    {
      "op": "Concat", 
      "name": "concat0", 
      "attrs": {
        "dim": "1", 
        "num_args": "2"
      }, 
      "inputs": [[7, 0, 0], [15, 0, 0]]
    }, 
    {
      "op": "null", 
      "name": "pyramid_residual_1.residual_denseblock_1.dense_block.denselayer2.conv_1.weight", 
      "attrs": {"__shape__": "(160, 200, 1, 1)"}, 
      "inputs": []
    }, 
    {
      "op": "null", 
      "name": "pyramid_residual_1.residual_denseblock_1.dense_block.denselayer2.conv_1.bias", 
      "attrs": {"__shape__": "(160,)"}, 
      "inputs": []
    }, 
    {
      "op": "Convolution", 
      "name": "convolution4", 
      "attrs": {
        "dilate": "(1, 1)", 
        "kernel": "(1, 1)", 
        "layout": "NCHW", 
        "no_bias": "False", 
        "num_filter": "160", 
        "num_group": "1", 
        "pad": "(0, 0)", 
        "stride": "(1, 1)"
      }, 
      "inputs": [[16, 0, 0], [17, 0, 0], [18, 0, 0]]
    }, 
    {
      "op": "relu", 
      "name": "relu1", 
      "inputs": [[19, 0, 0]]
    }, 
    {
      "op": "Pad", 
      "name": "pad2", 
      "attrs": {
        "mode": "reflect", 
        "pad_width": "(0, 0, 0, 0, 1, 1, 1, 1)"
      }, 
      "inputs": [[20, 0, 0]]
    }, 
    {
      "op": "null", 
      "name": "pyramid_residual_1.residual_denseblock_1.dense_block.denselayer2.conv_2.conv.1.weight", 
      "attrs": {"__shape__": "(40, 160, 3, 3)"}, 
      "inputs": []
    }, 
    {
      "op": "null", 
      "name": "pyramid_residual_1.residual_denseblock_1.dense_block.denselayer2.conv_2.conv.1.bias", 
      "attrs": {"__shape__": "(40,)"}, 
      "inputs": []
    }, 
    {
      "op": "Convolution", 
      "name": "convolution5", 
      "attrs": {
        "dilate": "(1, 1)", 
        "kernel": "(3, 3)", 
        "layout": "NCHW", 
        "no_bias": "False", 
        "num_filter": "40", 
        "num_group": "1", 
        "pad": "(0, 0)", 
        "stride": "(1, 1)"
      }, 
      "inputs": [[21, 0, 0], [22, 0, 0], [23, 0, 0]]
    }, 
    {
      "op": "Concat", 
      "name": "concat1", 
      "attrs": {
        "dim": "1", 
        "num_args": "2"
      }, 
      "inputs": [[16, 0, 0], [24, 0, 0]]
    }, 
    {
      "op": "null", 
      "name": "pyramid_residual_1.residual_denseblock_1.dense_block.denselayer3.conv_1.weight", 
      "attrs": {"__shape__": "(160, 240, 1, 1)"}, 
      "inputs": []
    }, 
    {
      "op": "null", 
      "name": "pyramid_residual_1.residual_denseblock_1.dense_block.denselayer3.conv_1.bias", 
      "attrs": {"__shape__": "(160,)"}, 
      "inputs": []
    }, 
    {
      "op": "Convolution", 
      "name": "convolution6", 
      "attrs": {
        "dilate": "(1, 1)", 
        "kernel": "(1, 1)", 
        "layout": "NCHW", 
        "no_bias": "False", 
        "num_filter": "160", 
        "num_group": "1", 
        "pad": "(0, 0)", 
        "stride": "(1, 1)"
      }, 
      "inputs": [[25, 0, 0], [26, 0, 0], [27, 0, 0]]
    }, 
    {
      "op": "relu", 
      "name": "relu2", 
      "inputs": [[28, 0, 0]]
    }, 
    {
      "op": "Pad", 
      "name": "pad3", 
      "attrs": {
        "mode": "reflect", 
        "pad_width": "(0, 0, 0, 0, 1, 1, 1, 1)"
      }, 
      "inputs": [[29, 0, 0]]
    }, 
    {
      "op": "null", 
      "name": "pyramid_residual_1.residual_denseblock_1.dense_block.denselayer3.conv_2.conv.1.weight", 
      "attrs": {"__shape__": "(40, 160, 3, 3)"}, 
      "inputs": []
    }, 
    {
      "op": "null", 
      "name": "pyramid_residual_1.residual_denseblock_1.dense_block.denselayer3.conv_2.conv.1.bias", 
      "attrs": {"__shape__": "(40,)"}, 
      "inputs": []
    }, 
    {
      "op": "Convolution", 
      "name": "convolution7", 
      "attrs": {
        "dilate": "(1, 1)", 
        "kernel": "(3, 3)", 
        "layout": "NCHW", 
        "no_bias": "False", 
        "num_filter": "40", 
        "num_group": "1", 
        "pad": "(0, 0)", 
        "stride": "(1, 1)"
      }, 
      "inputs": [[30, 0, 0], [31, 0, 0], [32, 0, 0]]
    }, 
    {
      "op": "Concat", 
      "name": "concat2", 
      "attrs": {
        "dim": "1", 
        "num_args": "2"
      }, 
      "inputs": [[25, 0, 0], [33, 0, 0]]
    }, 
    {
      "op": "null", 
      "name": "pyramid_residual_1.residual_denseblock_1.dense_block.denselayer4.conv_1.weight", 
      "attrs": {"__shape__": "(160, 280, 1, 1)"}, 
      "inputs": []
    }, 
    {
      "op": "null", 
      "name": "pyramid_residual_1.residual_denseblock_1.dense_block.denselayer4.conv_1.bias", 
      "attrs": {"__shape__": "(160,)"}, 
      "inputs": []
    }, 
    {
      "op": "Convolution", 
      "name": "convolution8", 
      "attrs": {
        "dilate": "(1, 1)", 
        "kernel": "(1, 1)", 
        "layout": "NCHW", 
        "no_bias": "False", 
        "num_filter": "160", 
        "num_group": "1", 
        "pad": "(0, 0)", 
        "stride": "(1, 1)"
      }, 
      "inputs": [[34, 0, 0], [35, 0, 0], [36, 0, 0]]
    }, 
    {
      "op": "relu", 
      "name": "relu3", 
      "inputs": [[37, 0, 0]]
    }, 
    {
      "op": "Pad", 
      "name": "pad4", 
      "attrs": {
        "mode": "reflect", 
        "pad_width": "(0, 0, 0, 0, 1, 1, 1, 1)"
      }, 
      "inputs": [[38, 0, 0]]
    }, 
    {
      "op": "null", 
      "name": "pyramid_residual_1.residual_denseblock_1.dense_block.denselayer4.conv_2.conv.1.weight", 
      "attrs": {"__shape__": "(40, 160, 3, 3)"}, 
      "inputs": []
    }, 
    {
      "op": "null", 
      "name": "pyramid_residual_1.residual_denseblock_1.dense_block.denselayer4.conv_2.conv.1.bias", 
      "attrs": {"__shape__": "(40,)"}, 
      "inputs": []
    }, 
    {
      "op": "Convolution", 
      "name": "convolution9", 
      "attrs": {
        "dilate": "(1, 1)", 
        "kernel": "(3, 3)", 
        "layout": "NCHW", 
        "no_bias": "False", 
        "num_filter": "40", 
        "num_group": "1", 
        "pad": "(0, 0)", 
        "stride": "(1, 1)"
      }, 
      "inputs": [[39, 0, 0], [40, 0, 0], [41, 0, 0]]
    }, 
    {
      "op": "Concat", 
      "name": "concat3", 
      "attrs": {
        "dim": "1", 
        "num_args": "2"
      }, 
      "inputs": [[34, 0, 0], [42, 0, 0]]
    }, 
    {
      "op": "null", 
      "name": "pyramid_residual_1.residual_denseblock_1.dense_block.denselayer5.conv_1.weight", 
      "attrs": {"__shape__": "(160, 320, 1, 1)"}, 
      "inputs": []
    }, 
    {
      "op": "null", 
      "name": "pyramid_residual_1.residual_denseblock_1.dense_block.denselayer5.conv_1.bias", 
      "attrs": {"__shape__": "(160,)"}, 
      "inputs": []
    }, 
    {
      "op": "Convolution", 
      "name": "convolution10", 
      "attrs": {
        "dilate": "(1, 1)", 
        "kernel": "(1, 1)", 
        "layout": "NCHW", 
        "no_bias": "False", 
        "num_filter": "160", 
        "num_group": "1", 
        "pad": "(0, 0)", 
        "stride": "(1, 1)"
      }, 
      "inputs": [[43, 0, 0], [44, 0, 0], [45, 0, 0]]
    }, 
    {
      "op": "relu", 
      "name": "relu4", 
      "inputs": [[46, 0, 0]]
    }, 
    {
      "op": "Pad", 
      "name": "pad5", 
      "attrs": {
        "mode": "reflect", 
        "pad_width": "(0, 0, 0, 0, 1, 1, 1, 1)"
      }, 
      "inputs": [[47, 0, 0]]
    }, 
    {
      "op": "null", 
      "name": "pyramid_residual_1.residual_denseblock_1.dense_block.denselayer5.conv_2.conv.1.weight", 
      "attrs": {"__shape__": "(40, 160, 3, 3)"}, 
      "inputs": []
    }, 
    {
      "op": "null", 
      "name": "pyramid_residual_1.residual_denseblock_1.dense_block.denselayer5.conv_2.conv.1.bias", 
      "attrs": {"__shape__": "(40,)"}, 
      "inputs": []
    }, 
    {
      "op": "Convolution", 
      "name": "convolution11", 
      "attrs": {
        "dilate": "(1, 1)", 
        "kernel": "(3, 3)", 
        "layout": "NCHW", 
        "no_bias": "False", 
        "num_filter": "40", 
        "num_group": "1", 
        "pad": "(0, 0)", 
        "stride": "(1, 1)"
      }, 
      "inputs": [[48, 0, 0], [49, 0, 0], [50, 0, 0]]
    }, 
    {
      "op": "Concat", 
      "name": "concat4", 
      "attrs": {
        "dim": "1", 
        "num_args": "2"
      }, 
      "inputs": [[43, 0, 0], [51, 0, 0]]
    }, 
    {
      "op": "null", 
      "name": "pyramid_residual_1.residual_denseblock_1.dense_block.denselayer6.conv_1.weight", 
      "attrs": {"__shape__": "(160, 360, 1, 1)"}, 
      "inputs": []
    }, 
    {
      "op": "null", 
      "name": "pyramid_residual_1.residual_denseblock_1.dense_block.denselayer6.conv_1.bias", 
      "attrs": {"__shape__": "(160,)"}, 
      "inputs": []
    }, 
    {
      "op": "Convolution", 
      "name": "convolution12", 
      "attrs": {
        "dilate": "(1, 1)", 
        "kernel": "(1, 1)", 
        "layout": "NCHW", 
        "no_bias": "False", 
        "num_filter": "160", 
        "num_group": "1", 
        "pad": "(0, 0)", 
        "stride": "(1, 1)"
      }, 
      "inputs": [[52, 0, 0], [53, 0, 0], [54, 0, 0]]
    }, 
    {
      "op": "relu", 
      "name": "relu5", 
      "inputs": [[55, 0, 0]]
    }, 
    {
      "op": "Pad", 
      "name": "pad6", 
      "attrs": {
        "mode": "reflect", 
        "pad_width": "(0, 0, 0, 0, 1, 1, 1, 1)"
      }, 
      "inputs": [[56, 0, 0]]
    }, 
    {
      "op": "null", 
      "name": "pyramid_residual_1.residual_denseblock_1.dense_block.denselayer6.conv_2.conv.1.weight", 
      "attrs": {"__shape__": "(40, 160, 3, 3)"}, 
      "inputs": []
    }, 
    {
      "op": "null", 
      "name": "pyramid_residual_1.residual_denseblock_1.dense_block.denselayer6.conv_2.conv.1.bias", 
      "attrs": {"__shape__": "(40,)"}, 
      "inputs": []
    }, 
    {
      "op": "Convolution", 
      "name": "convolution13", 
      "attrs": {
        "dilate": "(1, 1)", 
        "kernel": "(3, 3)", 
        "layout": "NCHW", 
        "no_bias": "False", 
        "num_filter": "40", 
        "num_group": "1", 
        "pad": "(0, 0)", 
        "stride": "(1, 1)"
      }, 
      "inputs": [[57, 0, 0], [58, 0, 0], [59, 0, 0]]
    }, 
    {
      "op": "Concat", 
      "name": "concat5", 
      "attrs": {
        "dim": "1", 
        "num_args": "2"
      }, 
      "inputs": [[52, 0, 0], [60, 0, 0]]
    }, 
    {
      "op": "null", 
      "name": "pyramid_residual_1.residual_denseblock_1.dense_block.denselayer7.conv_1.weight", 
      "attrs": {"__shape__": "(160, 400, 1, 1)"}, 
      "inputs": []
    }, 
    {
      "op": "null", 
      "name": "pyramid_residual_1.residual_denseblock_1.dense_block.denselayer7.conv_1.bias", 
      "attrs": {"__shape__": "(160,)"}, 
      "inputs": []
    }, 
    {
      "op": "Convolution", 
      "name": "convolution14", 
      "attrs": {
        "dilate": "(1, 1)", 
        "kernel": "(1, 1)", 
        "layout": "NCHW", 
        "no_bias": "False", 
        "num_filter": "160", 
        "num_group": "1", 
        "pad": "(0, 0)", 
        "stride": "(1, 1)"
      }, 
      "inputs": [[61, 0, 0], [62, 0, 0], [63, 0, 0]]
    }, 
    {
      "op": "relu", 
      "name": "relu6", 
      "inputs": [[64, 0, 0]]
    }, 
    {
      "op": "Pad", 
      "name": "pad7", 
      "attrs": {
        "mode": "reflect", 
        "pad_width": "(0, 0, 0, 0, 1, 1, 1, 1)"
      }, 
      "inputs": [[65, 0, 0]]
    }, 
    {
      "op": "null", 
      "name": "pyramid_residual_1.residual_denseblock_1.dense_block.denselayer7.conv_2.conv.1.weight", 
      "attrs": {"__shape__": "(40, 160, 3, 3)"}, 
      "inputs": []
    }, 
    {
      "op": "null", 
      "name": "pyramid_residual_1.residual_denseblock_1.dense_block.denselayer7.conv_2.conv.1.bias", 
      "attrs": {"__shape__": "(40,)"}, 
      "inputs": []
    }, 
    {
      "op": "Convolution", 
      "name": "convolution15", 
      "attrs": {
        "dilate": "(1, 1)", 
        "kernel": "(3, 3)", 
        "layout": "NCHW", 
        "no_bias": "False", 
        "num_filter": "40", 
        "num_group": "1", 
        "pad": "(0, 0)", 
        "stride": "(1, 1)"
      }, 
      "inputs": [[66, 0, 0], [67, 0, 0], [68, 0, 0]]
    }, 
    {
      "op": "Concat", 
      "name": "concat6", 
      "attrs": {
        "dim": "1", 
        "num_args": "2"
      }, 
      "inputs": [[61, 0, 0], [69, 0, 0]]
    }, 
    {
      "op": "null", 
      "name": "pyramid_residual_1.residual_denseblock_1.dense_block.denselayer8.conv_1.weight", 
      "attrs": {"__shape__": "(160, 440, 1, 1)"}, 
      "inputs": []
    }, 
    {
      "op": "null", 
      "name": "pyramid_residual_1.residual_denseblock_1.dense_block.denselayer8.conv_1.bias", 
      "attrs": {"__shape__": "(160,)"}, 
      "inputs": []
    }, 
    {
      "op": "Convolution", 
      "name": "convolution16", 
      "attrs": {
        "dilate": "(1, 1)", 
        "kernel": "(1, 1)", 
        "layout": "NCHW", 
        "no_bias": "False", 
        "num_filter": "160", 
        "num_group": "1", 
        "pad": "(0, 0)", 
        "stride": "(1, 1)"
      }, 
      "inputs": [[70, 0, 0], [71, 0, 0], [72, 0, 0]]
    }, 
    {
      "op": "relu", 
      "name": "relu7", 
      "inputs": [[73, 0, 0]]
    }, 
    {
      "op": "Pad", 
      "name": "pad8", 
      "attrs": {
        "mode": "reflect", 
        "pad_width": "(0, 0, 0, 0, 1, 1, 1, 1)"
      }, 
      "inputs": [[74, 0, 0]]
    }, 
    {
      "op": "null", 
      "name": "pyramid_residual_1.residual_denseblock_1.dense_block.denselayer8.conv_2.conv.1.weight", 
      "attrs": {"__shape__": "(40, 160, 3, 3)"}, 
      "inputs": []
    }, 
    {
      "op": "null", 
      "name": "pyramid_residual_1.residual_denseblock_1.dense_block.denselayer8.conv_2.conv.1.bias", 
      "attrs": {"__shape__": "(40,)"}, 
      "inputs": []
    }, 
    {
      "op": "Convolution", 
      "name": "convolution17", 
      "attrs": {
        "dilate": "(1, 1)", 
        "kernel": "(3, 3)", 
        "layout": "NCHW", 
        "no_bias": "False", 
        "num_filter": "40", 
        "num_group": "1", 
        "pad": "(0, 0)", 
        "stride": "(1, 1)"
      }, 
      "inputs": [[75, 0, 0], [76, 0, 0], [77, 0, 0]]
    }, 
    {
      "op": "Concat", 
      "name": "concat7", 
      "attrs": {
        "dim": "1", 
        "num_args": "2"
      }, 
      "inputs": [[70, 0, 0], [78, 0, 0]]
    }, 
    {
      "op": "null", 
      "name": "pyramid_residual_1.residual_denseblock_1.comp.conv1.weight", 
      "attrs": {"__shape__": "(160, 480, 1, 1)"}, 
      "inputs": []
    }, 
    {
      "op": "Convolution", 
      "name": "convolution18", 
      "attrs": {
        "dilate": "(1, 1)", 
        "kernel": "(1, 1)", 
        "layout": "NCHW", 
        "no_bias": "True", 
        "num_filter": "160", 
        "num_group": "1", 
        "pad": "(0, 0)", 
        "stride": "(1, 1)"
      }, 
      "inputs": [[79, 0, 0], [80, 0, 0]]
    }, 
    {
      "op": "_mul_scalar", 
      "name": "_mulscalar0", 
      "attrs": {"scalar": "0.2"}, 
      "inputs": [[81, 0, 0]]
    }, 
    {
      "op": "broadcast_add", 
      "name": "broadcast_add0", 
      "inputs": [[82, 0, 0], [7, 0, 0]]
    }, 
    {
      "op": "null", 
      "name": "pyramid_residual_1.residual_denseblock_2.dense_block.denselayer1.conv_1.weight", 
      "attrs": {"__shape__": "(160, 160, 1, 1)"}, 
      "inputs": []
    }, 
    {
      "op": "null", 
      "name": "pyramid_residual_1.residual_denseblock_2.dense_block.denselayer1.conv_1.bias", 
      "attrs": {"__shape__": "(160,)"}, 
      "inputs": []
    }, 
    {
      "op": "Convolution", 
      "name": "convolution19", 
      "attrs": {
        "dilate": "(1, 1)", 
        "kernel": "(1, 1)", 
        "layout": "NCHW", 
        "no_bias": "False", 
        "num_filter": "160", 
        "num_group": "1", 
        "pad": "(0, 0)", 
        "stride": "(1, 1)"
      }, 
      "inputs": [[83, 0, 0], [84, 0, 0], [85, 0, 0]]
    }, 
    {
      "op": "relu", 
      "name": "relu8", 
      "inputs": [[86, 0, 0]]
    }, 
    {
      "op": "Pad", 
      "name": "pad9", 
      "attrs": {
        "mode": "reflect", 
        "pad_width": "(0, 0, 0, 0, 1, 1, 1, 1)"
      }, 
      "inputs": [[87, 0, 0]]
    }, 
    {
      "op": "null", 
      "name": "pyramid_residual_1.residual_denseblock_2.dense_block.denselayer1.conv_2.conv.1.weight", 
      "attrs": {"__shape__": "(40, 160, 3, 3)"}, 
      "inputs": []
    }, 
    {
      "op": "null", 
      "name": "pyramid_residual_1.residual_denseblock_2.dense_block.denselayer1.conv_2.conv.1.bias", 
      "attrs": {"__shape__": "(40,)"}, 
      "inputs": []
    }, 
    {
      "op": "Convolution", 
      "name": "convolution20", 
      "attrs": {
        "dilate": "(1, 1)", 
        "kernel": "(3, 3)", 
        "layout": "NCHW", 
        "no_bias": "False", 
        "num_filter": "40", 
        "num_group": "1", 
        "pad": "(0, 0)", 
        "stride": "(1, 1)"
      }, 
      "inputs": [[88, 0, 0], [89, 0, 0], [90, 0, 0]]
    }, 
    {
      "op": "Concat", 
      "name": "concat8", 
      "attrs": {
        "dim": "1", 
        "num_args": "2"
      }, 
      "inputs": [[83, 0, 0], [91, 0, 0]]
    }, 
    {
      "op": "null", 
      "name": "pyramid_residual_1.residual_denseblock_2.dense_block.denselayer2.conv_1.weight", 
      "attrs": {"__shape__": "(160, 200, 1, 1)"}, 
      "inputs": []
    }, 
    {
      "op": "null", 
      "name": "pyramid_residual_1.residual_denseblock_2.dense_block.denselayer2.conv_1.bias", 
      "attrs": {"__shape__": "(160,)"}, 
      "inputs": []
    }, 
    {
      "op": "Convolution", 
      "name": "convolution21", 
      "attrs": {
        "dilate": "(1, 1)", 
        "kernel": "(1, 1)", 
        "layout": "NCHW", 
        "no_bias": "False", 
        "num_filter": "160", 
        "num_group": "1", 
        "pad": "(0, 0)", 
        "stride": "(1, 1)"
      }, 
      "inputs": [[92, 0, 0], [93, 0, 0], [94, 0, 0]]
    }, 
    {
      "op": "relu", 
      "name": "relu9", 
      "inputs": [[95, 0, 0]]
    }, 
    {
      "op": "Pad", 
      "name": "pad10", 
      "attrs": {
        "mode": "reflect", 
        "pad_width": "(0, 0, 0, 0, 1, 1, 1, 1)"
      }, 
      "inputs": [[96, 0, 0]]
    }, 
    {
      "op": "null", 
      "name": "pyramid_residual_1.residual_denseblock_2.dense_block.denselayer2.conv_2.conv.1.weight", 
      "attrs": {"__shape__": "(40, 160, 3, 3)"}, 
      "inputs": []
    }, 
    {
      "op": "null", 
      "name": "pyramid_residual_1.residual_denseblock_2.dense_block.denselayer2.conv_2.conv.1.bias", 
      "attrs": {"__shape__": "(40,)"}, 
      "inputs": []
    }, 
    {
      "op": "Convolution", 
      "name": "convolution22", 
      "attrs": {
        "dilate": "(1, 1)", 
        "kernel": "(3, 3)", 
        "layout": "NCHW", 
        "no_bias": "False", 
        "num_filter": "40", 
        "num_group": "1", 
        "pad": "(0, 0)", 
        "stride": "(1, 1)"
      }, 
      "inputs": [[97, 0, 0], [98, 0, 0], [99, 0, 0]]
    }, 
    {
      "op": "Concat", 
      "name": "concat9", 
      "attrs": {
        "dim": "1", 
        "num_args": "2"
      }, 
      "inputs": [[92, 0, 0], [100, 0, 0]]
    }, 
    {
      "op": "null", 
      "name": "pyramid_residual_1.residual_denseblock_2.dense_block.denselayer3.conv_1.weight", 
      "attrs": {"__shape__": "(160, 240, 1, 1)"}, 
      "inputs": []
    }, 
    {
      "op": "null", 
      "name": "pyramid_residual_1.residual_denseblock_2.dense_block.denselayer3.conv_1.bias", 
      "attrs": {"__shape__": "(160,)"}, 
      "inputs": []
    }, 
    {
      "op": "Convolution", 
      "name": "convolution23", 
      "attrs": {
        "dilate": "(1, 1)", 
        "kernel": "(1, 1)", 
        "layout": "NCHW", 
        "no_bias": "False", 
        "num_filter": "160", 
        "num_group": "1", 
        "pad": "(0, 0)", 
        "stride": "(1, 1)"
      }, 
      "inputs": [[101, 0, 0], [102, 0, 0], [103, 0, 0]]
    }, 
    {
      "op": "relu", 
      "name": "relu10", 
      "inputs": [[104, 0, 0]]
    }, 
    {
      "op": "Pad", 
      "name": "pad11", 
      "attrs": {
        "mode": "reflect", 
        "pad_width": "(0, 0, 0, 0, 1, 1, 1, 1)"
      }, 
      "inputs": [[105, 0, 0]]
    }, 
    {
      "op": "null", 
      "name": "pyramid_residual_1.residual_denseblock_2.dense_block.denselayer3.conv_2.conv.1.weight", 
      "attrs": {"__shape__": "(40, 160, 3, 3)"}, 
      "inputs": []
    }, 
    {
      "op": "null", 
      "name": "pyramid_residual_1.residual_denseblock_2.dense_block.denselayer3.conv_2.conv.1.bias", 
      "attrs": {"__shape__": "(40,)"}, 
      "inputs": []
    }, 
    {
      "op": "Convolution", 
      "name": "convolution24", 
      "attrs": {
        "dilate": "(1, 1)", 
        "kernel": "(3, 3)", 
        "layout": "NCHW", 
        "no_bias": "False", 
        "num_filter": "40", 
        "num_group": "1", 
        "pad": "(0, 0)", 
        "stride": "(1, 1)"
      }, 
      "inputs": [[106, 0, 0], [107, 0, 0], [108, 0, 0]]
    }, 
    {
      "op": "Concat", 
      "name": "concat10", 
      "attrs": {
        "dim": "1", 
        "num_args": "2"
      }, 
      "inputs": [[101, 0, 0], [109, 0, 0]]
    }, 
    {
      "op": "null", 
      "name": "pyramid_residual_1.residual_denseblock_2.dense_block.denselayer4.conv_1.weight", 
      "attrs": {"__shape__": "(160, 280, 1, 1)"}, 
      "inputs": []
    }, 
    {
      "op": "null", 
      "name": "pyramid_residual_1.residual_denseblock_2.dense_block.denselayer4.conv_1.bias", 
      "attrs": {"__shape__": "(160,)"}, 
      "inputs": []
    }, 
    {
      "op": "Convolution", 
      "name": "convolution25", 
      "attrs": {
        "dilate": "(1, 1)", 
        "kernel": "(1, 1)", 
        "layout": "NCHW", 
        "no_bias": "False", 
        "num_filter": "160", 
        "num_group": "1", 
        "pad": "(0, 0)", 
        "stride": "(1, 1)"
      }, 
      "inputs": [[110, 0, 0], [111, 0, 0], [112, 0, 0]]
    }, 
    {
      "op": "relu", 
      "name": "relu11", 
      "inputs": [[113, 0, 0]]
    }, 
    {
      "op": "Pad", 
      "name": "pad12", 
      "attrs": {
        "mode": "reflect", 
        "pad_width": "(0, 0, 0, 0, 1, 1, 1, 1)"
      }, 
      "inputs": [[114, 0, 0]]
    }, 
    {
      "op": "null", 
      "name": "pyramid_residual_1.residual_denseblock_2.dense_block.denselayer4.conv_2.conv.1.weight", 
      "attrs": {"__shape__": "(40, 160, 3, 3)"}, 
      "inputs": []
    }, 
    {
      "op": "null", 
      "name": "pyramid_residual_1.residual_denseblock_2.dense_block.denselayer4.conv_2.conv.1.bias", 
      "attrs": {"__shape__": "(40,)"}, 
      "inputs": []
    }, 
    {
      "op": "Convolution", 
      "name": "convolution26", 
      "attrs": {
        "dilate": "(1, 1)", 
        "kernel": "(3, 3)", 
        "layout": "NCHW", 
        "no_bias": "False", 
        "num_filter": "40", 
        "num_group": "1", 
        "pad": "(0, 0)", 
        "stride": "(1, 1)"
      }, 
      "inputs": [[115, 0, 0], [116, 0, 0], [117, 0, 0]]
    }, 
    {
      "op": "Concat", 
      "name": "concat11", 
      "attrs": {
        "dim": "1", 
        "num_args": "2"
      }, 
      "inputs": [[110, 0, 0], [118, 0, 0]]
    }, 
    {
      "op": "null", 
      "name": "pyramid_residual_1.residual_denseblock_2.dense_block.denselayer5.conv_1.weight", 
      "attrs": {"__shape__": "(160, 320, 1, 1)"}, 
      "inputs": []
    }, 
    {
      "op": "null", 
      "name": "pyramid_residual_1.residual_denseblock_2.dense_block.denselayer5.conv_1.bias", 
      "attrs": {"__shape__": "(160,)"}, 
      "inputs": []
    }, 
    {
      "op": "Convolution", 
      "name": "convolution27", 
      "attrs": {
        "dilate": "(1, 1)", 
        "kernel": "(1, 1)", 
        "layout": "NCHW", 
        "no_bias": "False", 
        "num_filter": "160", 
        "num_group": "1", 
        "pad": "(0, 0)", 
        "stride": "(1, 1)"
      }, 
      "inputs": [[119, 0, 0], [120, 0, 0], [121, 0, 0]]
    }, 
    {
      "op": "relu", 
      "name": "relu12", 
      "inputs": [[122, 0, 0]]
    }, 
    {
      "op": "Pad", 
      "name": "pad13", 
      "attrs": {
        "mode": "reflect", 
        "pad_width": "(0, 0, 0, 0, 1, 1, 1, 1)"
      }, 
      "inputs": [[123, 0, 0]]
    }, 
    {
      "op": "null", 
      "name": "pyramid_residual_1.residual_denseblock_2.dense_block.denselayer5.conv_2.conv.1.weight", 
      "attrs": {"__shape__": "(40, 160, 3, 3)"}, 
      "inputs": []
    }, 
    {
      "op": "null", 
      "name": "pyramid_residual_1.residual_denseblock_2.dense_block.denselayer5.conv_2.conv.1.bias", 
      "attrs": {"__shape__": "(40,)"}, 
      "inputs": []
    }, 
    {
      "op": "Convolution", 
      "name": "convolution28", 
      "attrs": {
        "dilate": "(1, 1)", 
        "kernel": "(3, 3)", 
        "layout": "NCHW", 
        "no_bias": "False", 
        "num_filter": "40", 
        "num_group": "1", 
        "pad": "(0, 0)", 
        "stride": "(1, 1)"
      }, 
      "inputs": [[124, 0, 0], [125, 0, 0], [126, 0, 0]]
    }, 
    {
      "op": "Concat", 
      "name": "concat12", 
      "attrs": {
        "dim": "1", 
        "num_args": "2"
      }, 
      "inputs": [[119, 0, 0], [127, 0, 0]]
    }, 
    {
      "op": "null", 
      "name": "pyramid_residual_1.residual_denseblock_2.dense_block.denselayer6.conv_1.weight", 
      "attrs": {"__shape__": "(160, 360, 1, 1)"}, 
      "inputs": []
    }, 
    {
      "op": "null", 
      "name": "pyramid_residual_1.residual_denseblock_2.dense_block.denselayer6.conv_1.bias", 
      "attrs": {"__shape__": "(160,)"}, 
      "inputs": []
    }, 
    {
      "op": "Convolution", 
      "name": "convolution29", 
      "attrs": {
        "dilate": "(1, 1)", 
        "kernel": "(1, 1)", 
        "layout": "NCHW", 
        "no_bias": "False", 
        "num_filter": "160", 
        "num_group": "1", 
        "pad": "(0, 0)", 
        "stride": "(1, 1)"
      }, 
      "inputs": [[128, 0, 0], [129, 0, 0], [130, 0, 0]]
    }, 
    {
      "op": "relu", 
      "name": "relu13", 
      "inputs": [[131, 0, 0]]
    }, 
    {
      "op": "Pad", 
      "name": "pad14", 
      "attrs": {
        "mode": "reflect", 
        "pad_width": "(0, 0, 0, 0, 1, 1, 1, 1)"
      }, 
      "inputs": [[132, 0, 0]]
    }, 
    {
      "op": "null", 
      "name": "pyramid_residual_1.residual_denseblock_2.dense_block.denselayer6.conv_2.conv.1.weight", 
      "attrs": {"__shape__": "(40, 160, 3, 3)"}, 
      "inputs": []
    }, 
    {
      "op": "null", 
      "name": "pyramid_residual_1.residual_denseblock_2.dense_block.denselayer6.conv_2.conv.1.bias", 
      "attrs": {"__shape__": "(40,)"}, 
      "inputs": []
    }, 
    {
      "op": "Convolution", 
      "name": "convolution30", 
      "attrs": {
        "dilate": "(1, 1)", 
        "kernel": "(3, 3)", 
        "layout": "NCHW", 
        "no_bias": "False", 
        "num_filter": "40", 
        "num_group": "1", 
        "pad": "(0, 0)", 
        "stride": "(1, 1)"
      }, 
      "inputs": [[133, 0, 0], [134, 0, 0], [135, 0, 0]]
    }, 
    {
      "op": "Concat", 
      "name": "concat13", 
      "attrs": {
        "dim": "1", 
        "num_args": "2"
      }, 
      "inputs": [[128, 0, 0], [136, 0, 0]]
    }, 
    {
      "op": "null", 
      "name": "pyramid_residual_1.residual_denseblock_2.dense_block.denselayer7.conv_1.weight", 
      "attrs": {"__shape__": "(160, 400, 1, 1)"}, 
      "inputs": []
    }, 
    {
      "op": "null", 
      "name": "pyramid_residual_1.residual_denseblock_2.dense_block.denselayer7.conv_1.bias", 
      "attrs": {"__shape__": "(160,)"}, 
      "inputs": []
    }, 
    {
      "op": "Convolution", 
      "name": "convolution31", 
      "attrs": {
        "dilate": "(1, 1)", 
        "kernel": "(1, 1)", 
        "layout": "NCHW", 
        "no_bias": "False", 
        "num_filter": "160", 
        "num_group": "1", 
        "pad": "(0, 0)", 
        "stride": "(1, 1)"
      }, 
      "inputs": [[137, 0, 0], [138, 0, 0], [139, 0, 0]]
    }, 
    {
      "op": "relu", 
      "name": "relu14", 
      "inputs": [[140, 0, 0]]
    }, 
    {
      "op": "Pad", 
      "name": "pad15", 
      "attrs": {
        "mode": "reflect", 
        "pad_width": "(0, 0, 0, 0, 1, 1, 1, 1)"
      }, 
      "inputs": [[141, 0, 0]]
    }, 
    {
      "op": "null", 
      "name": "pyramid_residual_1.residual_denseblock_2.dense_block.denselayer7.conv_2.conv.1.weight", 
      "attrs": {"__shape__": "(40, 160, 3, 3)"}, 
      "inputs": []
    }, 
    {
      "op": "null", 
      "name": "pyramid_residual_1.residual_denseblock_2.dense_block.denselayer7.conv_2.conv.1.bias", 
      "attrs": {"__shape__": "(40,)"}, 
      "inputs": []
    }, 
    {
      "op": "Convolution", 
      "name": "convolution32", 
      "attrs": {
        "dilate": "(1, 1)", 
        "kernel": "(3, 3)", 
        "layout": "NCHW", 
        "no_bias": "False", 
        "num_filter": "40", 
        "num_group": "1", 
        "pad": "(0, 0)", 
        "stride": "(1, 1)"
      }, 
      "inputs": [[142, 0, 0], [143, 0, 0], [144, 0, 0]]
    }, 
    {
      "op": "Concat", 
      "name": "concat14", 
      "attrs": {
        "dim": "1", 
        "num_args": "2"
      }, 
      "inputs": [[137, 0, 0], [145, 0, 0]]
    }, 
    {
      "op": "null", 
      "name": "pyramid_residual_1.residual_denseblock_2.dense_block.denselayer8.conv_1.weight", 
      "attrs": {"__shape__": "(160, 440, 1, 1)"}, 
      "inputs": []
    }, 
    {
      "op": "null", 
      "name": "pyramid_residual_1.residual_denseblock_2.dense_block.denselayer8.conv_1.bias", 
      "attrs": {"__shape__": "(160,)"}, 
      "inputs": []
    }, 
    {
      "op": "Convolution", 
      "name": "convolution33", 
      "attrs": {
        "dilate": "(1, 1)", 
        "kernel": "(1, 1)", 
        "layout": "NCHW", 
        "no_bias": "False", 
        "num_filter": "160", 
        "num_group": "1", 
        "pad": "(0, 0)", 
        "stride": "(1, 1)"
      }, 
      "inputs": [[146, 0, 0], [147, 0, 0], [148, 0, 0]]
    }, 
    {
      "op": "relu", 
      "name": "relu15", 
      "inputs": [[149, 0, 0]]
    }, 
    {
      "op": "Pad", 
      "name": "pad16", 
      "attrs": {
        "mode": "reflect", 
        "pad_width": "(0, 0, 0, 0, 1, 1, 1, 1)"
      }, 
      "inputs": [[150, 0, 0]]
    }, 
    {
      "op": "null", 
      "name": "pyramid_residual_1.residual_denseblock_2.dense_block.denselayer8.conv_2.conv.1.weight", 
      "attrs": {"__shape__": "(40, 160, 3, 3)"}, 
      "inputs": []
    }, 
    {
      "op": "null", 
      "name": "pyramid_residual_1.residual_denseblock_2.dense_block.denselayer8.conv_2.conv.1.bias", 
      "attrs": {"__shape__": "(40,)"}, 
      "inputs": []
    }, 
    {
      "op": "Convolution", 
      "name": "convolution34", 
      "attrs": {
        "dilate": "(1, 1)", 
        "kernel": "(3, 3)", 
        "layout": "NCHW", 
        "no_bias": "False", 
        "num_filter": "40", 
        "num_group": "1", 
        "pad": "(0, 0)", 
        "stride": "(1, 1)"
      }, 
      "inputs": [[151, 0, 0], [152, 0, 0], [153, 0, 0]]
    }, 
    {
      "op": "Concat", 
      "name": "concat15", 
      "attrs": {
        "dim": "1", 
        "num_args": "2"
      }, 
      "inputs": [[146, 0, 0], [154, 0, 0]]
    }, 
    {
      "op": "null", 
      "name": "pyramid_residual_1.residual_denseblock_2.comp.conv1.weight", 
      "attrs": {"__shape__": "(160, 480, 1, 1)"}, 
      "inputs": []
    }, 
    {
      "op": "Convolution", 
      "name": "convolution35", 
      "attrs": {
        "dilate": "(1, 1)", 
        "kernel": "(1, 1)", 
        "layout": "NCHW", 
        "no_bias": "True", 
        "num_filter": "160", 
        "num_group": "1", 
        "pad": "(0, 0)", 
        "stride": "(1, 1)"
      }, 
      "inputs": [[155, 0, 0], [156, 0, 0]]
    }, 
    {
      "op": "_mul_scalar", 
      "name": "_mulscalar1", 
      "attrs": {"scalar": "0.2"}, 
      "inputs": [[157, 0, 0]]
    }, 
    {
      "op": "broadcast_add", 
      "name": "broadcast_add1", 
      "inputs": [[158, 0, 0], [83, 0, 0]]
    }, 
    {
      "op": "null", 
      "name": "pyramid_residual_1.residual_denseblock_3.dense_block.denselayer1.conv_1.weight", 
      "attrs": {"__shape__": "(160, 160, 1, 1)"}, 
      "inputs": []
    }, 
    {
      "op": "null", 
      "name": "pyramid_residual_1.residual_denseblock_3.dense_block.denselayer1.conv_1.bias", 
      "attrs": {"__shape__": "(160,)"}, 
      "inputs": []
    }, 
    {
      "op": "Convolution", 
      "name": "convolution36", 
      "attrs": {
        "dilate": "(1, 1)", 
        "kernel": "(1, 1)", 
        "layout": "NCHW", 
        "no_bias": "False", 
        "num_filter": "160", 
        "num_group": "1", 
        "pad": "(0, 0)", 
        "stride": "(1, 1)"
      }, 
      "inputs": [[159, 0, 0], [160, 0, 0], [161, 0, 0]]
    }, 
    {
      "op": "relu", 
      "name": "relu16", 
      "inputs": [[162, 0, 0]]
    }, 
    {
      "op": "Pad", 
      "name": "pad17", 
      "attrs": {
        "mode": "reflect", 
        "pad_width": "(0, 0, 0, 0, 1, 1, 1, 1)"
      }, 
      "inputs": [[163, 0, 0]]
    }, 
    {
      "op": "null", 
      "name": "pyramid_residual_1.residual_denseblock_3.dense_block.denselayer1.conv_2.conv.1.weight", 
      "attrs": {"__shape__": "(40, 160, 3, 3)"}, 
      "inputs": []
    }, 
    {
      "op": "null", 
      "name": "pyramid_residual_1.residual_denseblock_3.dense_block.denselayer1.conv_2.conv.1.bias", 
      "attrs": {"__shape__": "(40,)"}, 
      "inputs": []
    }, 
    {
      "op": "Convolution", 
      "name": "convolution37", 
      "attrs": {
        "dilate": "(1, 1)", 
        "kernel": "(3, 3)", 
        "layout": "NCHW", 
        "no_bias": "False", 
        "num_filter": "40", 
        "num_group": "1", 
        "pad": "(0, 0)", 
        "stride": "(1, 1)"
      }, 
      "inputs": [[164, 0, 0], [165, 0, 0], [166, 0, 0]]
    }, 
    {
      "op": "Concat", 
      "name": "concat16", 
      "attrs": {
        "dim": "1", 
        "num_args": "2"
      }, 
      "inputs": [[159, 0, 0], [167, 0, 0]]
    }, 
    {
      "op": "null", 
      "name": "pyramid_residual_1.residual_denseblock_3.dense_block.denselayer2.conv_1.weight", 
      "attrs": {"__shape__": "(160, 200, 1, 1)"}, 
      "inputs": []
    }, 
    {
      "op": "null", 
      "name": "pyramid_residual_1.residual_denseblock_3.dense_block.denselayer2.conv_1.bias", 
      "attrs": {"__shape__": "(160,)"}, 
      "inputs": []
    }, 
    {
      "op": "Convolution", 
      "name": "convolution38", 
      "attrs": {
        "dilate": "(1, 1)", 
        "kernel": "(1, 1)", 
        "layout": "NCHW", 
        "no_bias": "False", 
        "num_filter": "160", 
        "num_group": "1", 
        "pad": "(0, 0)", 
        "stride": "(1, 1)"
      }, 
      "inputs": [[168, 0, 0], [169, 0, 0], [170, 0, 0]]
    }, 
    {
      "op": "relu", 
      "name": "relu17", 
      "inputs": [[171, 0, 0]]
    }, 
    {
      "op": "Pad", 
      "name": "pad18", 
      "attrs": {
        "mode": "reflect", 
        "pad_width": "(0, 0, 0, 0, 1, 1, 1, 1)"
      }, 
      "inputs": [[172, 0, 0]]
    }, 
    {
      "op": "null", 
      "name": "pyramid_residual_1.residual_denseblock_3.dense_block.denselayer2.conv_2.conv.1.weight", 
      "attrs": {"__shape__": "(40, 160, 3, 3)"}, 
      "inputs": []
    }, 
    {
      "op": "null", 
      "name": "pyramid_residual_1.residual_denseblock_3.dense_block.denselayer2.conv_2.conv.1.bias", 
      "attrs": {"__shape__": "(40,)"}, 
      "inputs": []
    }, 
    {
      "op": "Convolution", 
      "name": "convolution39", 
      "attrs": {
        "dilate": "(1, 1)", 
        "kernel": "(3, 3)", 
        "layout": "NCHW", 
        "no_bias": "False", 
        "num_filter": "40", 
        "num_group": "1", 
        "pad": "(0, 0)", 
        "stride": "(1, 1)"
      }, 
      "inputs": [[173, 0, 0], [174, 0, 0], [175, 0, 0]]
    }, 
    {
      "op": "Concat", 
      "name": "concat17", 
      "attrs": {
        "dim": "1", 
        "num_args": "2"
      }, 
      "inputs": [[168, 0, 0], [176, 0, 0]]
    }, 
    {
      "op": "null", 
      "name": "pyramid_residual_1.residual_denseblock_3.dense_block.denselayer3.conv_1.weight", 
      "attrs": {"__shape__": "(160, 240, 1, 1)"}, 
      "inputs": []
    }, 
    {
      "op": "null", 
      "name": "pyramid_residual_1.residual_denseblock_3.dense_block.denselayer3.conv_1.bias", 
      "attrs": {"__shape__": "(160,)"}, 
      "inputs": []
    }, 
    {
      "op": "Convolution", 
      "name": "convolution40", 
      "attrs": {
        "dilate": "(1, 1)", 
        "kernel": "(1, 1)", 
        "layout": "NCHW", 
        "no_bias": "False", 
        "num_filter": "160", 
        "num_group": "1", 
        "pad": "(0, 0)", 
        "stride": "(1, 1)"
      }, 
      "inputs": [[177, 0, 0], [178, 0, 0], [179, 0, 0]]
    }, 
    {
      "op": "relu", 
      "name": "relu18", 
      "inputs": [[180, 0, 0]]
    }, 
    {
      "op": "Pad", 
      "name": "pad19", 
      "attrs": {
        "mode": "reflect", 
        "pad_width": "(0, 0, 0, 0, 1, 1, 1, 1)"
      }, 
      "inputs": [[181, 0, 0]]
    }, 
    {
      "op": "null", 
      "name": "pyramid_residual_1.residual_denseblock_3.dense_block.denselayer3.conv_2.conv.1.weight", 
      "attrs": {"__shape__": "(40, 160, 3, 3)"}, 
      "inputs": []
    }, 
    {
      "op": "null", 
      "name": "pyramid_residual_1.residual_denseblock_3.dense_block.denselayer3.conv_2.conv.1.bias", 
      "attrs": {"__shape__": "(40,)"}, 
      "inputs": []
    }, 
    {
      "op": "Convolution", 
      "name": "convolution41", 
      "attrs": {
        "dilate": "(1, 1)", 
        "kernel": "(3, 3)", 
        "layout": "NCHW", 
        "no_bias": "False", 
        "num_filter": "40", 
        "num_group": "1", 
        "pad": "(0, 0)", 
        "stride": "(1, 1)"
      }, 
      "inputs": [[182, 0, 0], [183, 0, 0], [184, 0, 0]]
    }, 
    {
      "op": "Concat", 
      "name": "concat18", 
      "attrs": {
        "dim": "1", 
        "num_args": "2"
      }, 
      "inputs": [[177, 0, 0], [185, 0, 0]]
    }, 
    {
      "op": "null", 
      "name": "pyramid_residual_1.residual_denseblock_3.dense_block.denselayer4.conv_1.weight", 
      "attrs": {"__shape__": "(160, 280, 1, 1)"}, 
      "inputs": []
    }, 
    {
      "op": "null", 
      "name": "pyramid_residual_1.residual_denseblock_3.dense_block.denselayer4.conv_1.bias", 
      "attrs": {"__shape__": "(160,)"}, 
      "inputs": []
    }, 
    {
      "op": "Convolution", 
      "name": "convolution42", 
      "attrs": {
        "dilate": "(1, 1)", 
        "kernel": "(1, 1)", 
        "layout": "NCHW", 
        "no_bias": "False", 
        "num_filter": "160", 
        "num_group": "1", 
        "pad": "(0, 0)", 
        "stride": "(1, 1)"
      }, 
      "inputs": [[186, 0, 0], [187, 0, 0], [188, 0, 0]]
    }, 
    {
      "op": "relu", 
      "name": "relu19", 
      "inputs": [[189, 0, 0]]
    }, 
    {
      "op": "Pad", 
      "name": "pad20", 
      "attrs": {
        "mode": "reflect", 
        "pad_width": "(0, 0, 0, 0, 1, 1, 1, 1)"
      }, 
      "inputs": [[190, 0, 0]]
    }, 
    {
      "op": "null", 
      "name": "pyramid_residual_1.residual_denseblock_3.dense_block.denselayer4.conv_2.conv.1.weight", 
      "attrs": {"__shape__": "(40, 160, 3, 3)"}, 
      "inputs": []
    }, 
    {
      "op": "null", 
      "name": "pyramid_residual_1.residual_denseblock_3.dense_block.denselayer4.conv_2.conv.1.bias", 
      "attrs": {"__shape__": "(40,)"}, 
      "inputs": []
    }, 
    {
      "op": "Convolution", 
      "name": "convolution43", 
      "attrs": {
        "dilate": "(1, 1)", 
        "kernel": "(3, 3)", 
        "layout": "NCHW", 
        "no_bias": "False", 
        "num_filter": "40", 
        "num_group": "1", 
        "pad": "(0, 0)", 
        "stride": "(1, 1)"
      }, 
      "inputs": [[191, 0, 0], [192, 0, 0], [193, 0, 0]]
    }, 
    {
      "op": "Concat", 
      "name": "concat19", 
      "attrs": {
        "dim": "1", 
        "num_args": "2"
      }, 
      "inputs": [[186, 0, 0], [194, 0, 0]]
    }, 
    {
      "op": "null", 
      "name": "pyramid_residual_1.residual_denseblock_3.dense_block.denselayer5.conv_1.weight", 
      "attrs": {"__shape__": "(160, 320, 1, 1)"}, 
      "inputs": []
    }, 
    {
      "op": "null", 
      "name": "pyramid_residual_1.residual_denseblock_3.dense_block.denselayer5.conv_1.bias", 
      "attrs": {"__shape__": "(160,)"}, 
      "inputs": []
    }, 
    {
      "op": "Convolution", 
      "name": "convolution44", 
      "attrs": {
        "dilate": "(1, 1)", 
        "kernel": "(1, 1)", 
        "layout": "NCHW", 
        "no_bias": "False", 
        "num_filter": "160", 
        "num_group": "1", 
        "pad": "(0, 0)", 
        "stride": "(1, 1)"
      }, 
      "inputs": [[195, 0, 0], [196, 0, 0], [197, 0, 0]]
    }, 
    {
      "op": "relu", 
      "name": "relu20", 
      "inputs": [[198, 0, 0]]
    }, 
    {
      "op": "Pad", 
      "name": "pad21", 
      "attrs": {
        "mode": "reflect", 
        "pad_width": "(0, 0, 0, 0, 1, 1, 1, 1)"
      }, 
      "inputs": [[199, 0, 0]]
    }, 
    {
      "op": "null", 
      "name": "pyramid_residual_1.residual_denseblock_3.dense_block.denselayer5.conv_2.conv.1.weight", 
      "attrs": {"__shape__": "(40, 160, 3, 3)"}, 
      "inputs": []
    }, 
    {
      "op": "null", 
      "name": "pyramid_residual_1.residual_denseblock_3.dense_block.denselayer5.conv_2.conv.1.bias", 
      "attrs": {"__shape__": "(40,)"}, 
      "inputs": []
    }, 
    {
      "op": "Convolution", 
      "name": "convolution45", 
      "attrs": {
        "dilate": "(1, 1)", 
        "kernel": "(3, 3)", 
        "layout": "NCHW", 
        "no_bias": "False", 
        "num_filter": "40", 
        "num_group": "1", 
        "pad": "(0, 0)", 
        "stride": "(1, 1)"
      }, 
      "inputs": [[200, 0, 0], [201, 0, 0], [202, 0, 0]]
    }, 
    {
      "op": "Concat", 
      "name": "concat20", 
      "attrs": {
        "dim": "1", 
        "num_args": "2"
      }, 
      "inputs": [[195, 0, 0], [203, 0, 0]]
    }, 
    {
      "op": "null", 
      "name": "pyramid_residual_1.residual_denseblock_3.dense_block.denselayer6.conv_1.weight", 
      "attrs": {"__shape__": "(160, 360, 1, 1)"}, 
      "inputs": []
    }, 
    {
      "op": "null", 
      "name": "pyramid_residual_1.residual_denseblock_3.dense_block.denselayer6.conv_1.bias", 
      "attrs": {"__shape__": "(160,)"}, 
      "inputs": []
    }, 
    {
      "op": "Convolution", 
      "name": "convolution46", 
      "attrs": {
        "dilate": "(1, 1)", 
        "kernel": "(1, 1)", 
        "layout": "NCHW", 
        "no_bias": "False", 
        "num_filter": "160", 
        "num_group": "1", 
        "pad": "(0, 0)", 
        "stride": "(1, 1)"
      }, 
      "inputs": [[204, 0, 0], [205, 0, 0], [206, 0, 0]]
    }, 
    {
      "op": "relu", 
      "name": "relu21", 
      "inputs": [[207, 0, 0]]
    }, 
    {
      "op": "Pad", 
      "name": "pad22", 
      "attrs": {
        "mode": "reflect", 
        "pad_width": "(0, 0, 0, 0, 1, 1, 1, 1)"
      }, 
      "inputs": [[208, 0, 0]]
    }, 
    {
      "op": "null", 
      "name": "pyramid_residual_1.residual_denseblock_3.dense_block.denselayer6.conv_2.conv.1.weight", 
      "attrs": {"__shape__": "(40, 160, 3, 3)"}, 
      "inputs": []
    }, 
    {
      "op": "null", 
      "name": "pyramid_residual_1.residual_denseblock_3.dense_block.denselayer6.conv_2.conv.1.bias", 
      "attrs": {"__shape__": "(40,)"}, 
      "inputs": []
    }, 
    {
      "op": "Convolution", 
      "name": "convolution47", 
      "attrs": {
        "dilate": "(1, 1)", 
        "kernel": "(3, 3)", 
        "layout": "NCHW", 
        "no_bias": "False", 
        "num_filter": "40", 
        "num_group": "1", 
        "pad": "(0, 0)", 
        "stride": "(1, 1)"
      }, 
      "inputs": [[209, 0, 0], [210, 0, 0], [211, 0, 0]]
    }, 
    {
      "op": "Concat", 
      "name": "concat21", 
      "attrs": {
        "dim": "1", 
        "num_args": "2"
      }, 
      "inputs": [[204, 0, 0], [212, 0, 0]]
    }, 
    {
      "op": "null", 
      "name": "pyramid_residual_1.residual_denseblock_3.dense_block.denselayer7.conv_1.weight", 
      "attrs": {"__shape__": "(160, 400, 1, 1)"}, 
      "inputs": []
    }, 
    {
      "op": "null", 
      "name": "pyramid_residual_1.residual_denseblock_3.dense_block.denselayer7.conv_1.bias", 
      "attrs": {"__shape__": "(160,)"}, 
      "inputs": []
    }, 
    {
      "op": "Convolution", 
      "name": "convolution48", 
      "attrs": {
        "dilate": "(1, 1)", 
        "kernel": "(1, 1)", 
        "layout": "NCHW", 
        "no_bias": "False", 
        "num_filter": "160", 
        "num_group": "1", 
        "pad": "(0, 0)", 
        "stride": "(1, 1)"
      }, 
      "inputs": [[213, 0, 0], [214, 0, 0], [215, 0, 0]]
    }, 
    {
      "op": "relu", 
      "name": "relu22", 
      "inputs": [[216, 0, 0]]
    }, 
    {
      "op": "Pad", 
      "name": "pad23", 
      "attrs": {
        "mode": "reflect", 
        "pad_width": "(0, 0, 0, 0, 1, 1, 1, 1)"
      }, 
      "inputs": [[217, 0, 0]]
    }, 
    {
      "op": "null", 
      "name": "pyramid_residual_1.residual_denseblock_3.dense_block.denselayer7.conv_2.conv.1.weight", 
      "attrs": {"__shape__": "(40, 160, 3, 3)"}, 
      "inputs": []
    }, 
    {
      "op": "null", 
      "name": "pyramid_residual_1.residual_denseblock_3.dense_block.denselayer7.conv_2.conv.1.bias", 
      "attrs": {"__shape__": "(40,)"}, 
      "inputs": []
    }, 
    {
      "op": "Convolution", 
      "name": "convolution49", 
      "attrs": {
        "dilate": "(1, 1)", 
        "kernel": "(3, 3)", 
        "layout": "NCHW", 
        "no_bias": "False", 
        "num_filter": "40", 
        "num_group": "1", 
        "pad": "(0, 0)", 
        "stride": "(1, 1)"
      }, 
      "inputs": [[218, 0, 0], [219, 0, 0], [220, 0, 0]]
    }, 
    {
      "op": "Concat", 
      "name": "concat22", 
      "attrs": {
        "dim": "1", 
        "num_args": "2"
      }, 
      "inputs": [[213, 0, 0], [221, 0, 0]]
    }, 
    {
      "op": "null", 
      "name": "pyramid_residual_1.residual_denseblock_3.dense_block.denselayer8.conv_1.weight", 
      "attrs": {"__shape__": "(160, 440, 1, 1)"}, 
      "inputs": []
    }, 
    {
      "op": "null", 
      "name": "pyramid_residual_1.residual_denseblock_3.dense_block.denselayer8.conv_1.bias", 
      "attrs": {"__shape__": "(160,)"}, 
      "inputs": []
    }, 
    {
      "op": "Convolution", 
      "name": "convolution50", 
      "attrs": {
        "dilate": "(1, 1)", 
        "kernel": "(1, 1)", 
        "layout": "NCHW", 
        "no_bias": "False", 
        "num_filter": "160", 
        "num_group": "1", 
        "pad": "(0, 0)", 
        "stride": "(1, 1)"
      }, 
      "inputs": [[222, 0, 0], [223, 0, 0], [224, 0, 0]]
    }, 
    {
      "op": "relu", 
      "name": "relu23", 
      "inputs": [[225, 0, 0]]
    }, 
    {
      "op": "Pad", 
      "name": "pad24", 
      "attrs": {
        "mode": "reflect", 
        "pad_width": "(0, 0, 0, 0, 1, 1, 1, 1)"
      }, 
      "inputs": [[226, 0, 0]]
    }, 
    {
      "op": "null", 
      "name": "pyramid_residual_1.residual_denseblock_3.dense_block.denselayer8.conv_2.conv.1.weight", 
      "attrs": {"__shape__": "(40, 160, 3, 3)"}, 
      "inputs": []
    }, 
    {
      "op": "null", 
      "name": "pyramid_residual_1.residual_denseblock_3.dense_block.denselayer8.conv_2.conv.1.bias", 
      "attrs": {"__shape__": "(40,)"}, 
      "inputs": []
    }, 
    {
      "op": "Convolution", 
      "name": "convolution51", 
      "attrs": {
        "dilate": "(1, 1)", 
        "kernel": "(3, 3)", 
        "layout": "NCHW", 
        "no_bias": "False", 
        "num_filter": "40", 
        "num_group": "1", 
        "pad": "(0, 0)", 
        "stride": "(1, 1)"
      }, 
      "inputs": [[227, 0, 0], [228, 0, 0], [229, 0, 0]]
    }, 
    {
      "op": "Concat", 
      "name": "concat23", 
      "attrs": {
        "dim": "1", 
        "num_args": "2"
      }, 
      "inputs": [[222, 0, 0], [230, 0, 0]]
    }, 
    {
      "op": "null", 
      "name": "pyramid_residual_1.residual_denseblock_3.comp.conv1.weight", 
      "attrs": {"__shape__": "(160, 480, 1, 1)"}, 
      "inputs": []
    }, 
    {
      "op": "Convolution", 
      "name": "convolution52", 
      "attrs": {
        "dilate": "(1, 1)", 
        "kernel": "(1, 1)", 
        "layout": "NCHW", 
        "no_bias": "True", 
        "num_filter": "160", 
        "num_group": "1", 
        "pad": "(0, 0)", 
        "stride": "(1, 1)"
      }, 
      "inputs": [[231, 0, 0], [232, 0, 0]]
    }, 
    {
      "op": "_mul_scalar", 
      "name": "_mulscalar2", 
      "attrs": {"scalar": "0.2"}, 
      "inputs": [[233, 0, 0]]
    }, 
    {
      "op": "broadcast_add", 
      "name": "broadcast_add2", 
      "inputs": [[234, 0, 0], [159, 0, 0]]
    }, 
    {
      "op": "null", 
      "name": "pyramid_residual_1.residual_denseblock_4.dense_block.denselayer1.conv_1.weight", 
      "attrs": {"__shape__": "(160, 160, 1, 1)"}, 
      "inputs": []
    }, 
    {
      "op": "null", 
      "name": "pyramid_residual_1.residual_denseblock_4.dense_block.denselayer1.conv_1.bias", 
      "attrs": {"__shape__": "(160,)"}, 
      "inputs": []
    }, 
    {
      "op": "Convolution", 
      "name": "convolution53", 
      "attrs": {
        "dilate": "(1, 1)", 
        "kernel": "(1, 1)", 
        "layout": "NCHW", 
        "no_bias": "False", 
        "num_filter": "160", 
        "num_group": "1", 
        "pad": "(0, 0)", 
        "stride": "(1, 1)"
      }, 
      "inputs": [[235, 0, 0], [236, 0, 0], [237, 0, 0]]
    }, 
    {
      "op": "relu", 
      "name": "relu24", 
      "inputs": [[238, 0, 0]]
    }, 
    {
      "op": "Pad", 
      "name": "pad25", 
      "attrs": {
        "mode": "reflect", 
        "pad_width": "(0, 0, 0, 0, 1, 1, 1, 1)"
      }, 
      "inputs": [[239, 0, 0]]
    }, 
    {
      "op": "null", 
      "name": "pyramid_residual_1.residual_denseblock_4.dense_block.denselayer1.conv_2.conv.1.weight", 
      "attrs": {"__shape__": "(40, 160, 3, 3)"}, 
      "inputs": []
    }, 
    {
      "op": "null", 
      "name": "pyramid_residual_1.residual_denseblock_4.dense_block.denselayer1.conv_2.conv.1.bias", 
      "attrs": {"__shape__": "(40,)"}, 
      "inputs": []
    }, 
    {
      "op": "Convolution", 
      "name": "convolution54", 
      "attrs": {
        "dilate": "(1, 1)", 
        "kernel": "(3, 3)", 
        "layout": "NCHW", 
        "no_bias": "False", 
        "num_filter": "40", 
        "num_group": "1", 
        "pad": "(0, 0)", 
        "stride": "(1, 1)"
      }, 
      "inputs": [[240, 0, 0], [241, 0, 0], [242, 0, 0]]
    }, 
    {
      "op": "Concat", 
      "name": "concat24", 
      "attrs": {
        "dim": "1", 
        "num_args": "2"
      }, 
      "inputs": [[235, 0, 0], [243, 0, 0]]
    }, 
    {
      "op": "null", 
      "name": "pyramid_residual_1.residual_denseblock_4.dense_block.denselayer2.conv_1.weight", 
      "attrs": {"__shape__": "(160, 200, 1, 1)"}, 
      "inputs": []
    }, 
    {
      "op": "null", 
      "name": "pyramid_residual_1.residual_denseblock_4.dense_block.denselayer2.conv_1.bias", 
      "attrs": {"__shape__": "(160,)"}, 
      "inputs": []
    }, 
    {
      "op": "Convolution", 
      "name": "convolution55", 
      "attrs": {
        "dilate": "(1, 1)", 
        "kernel": "(1, 1)", 
        "layout": "NCHW", 
        "no_bias": "False", 
        "num_filter": "160", 
        "num_group": "1", 
        "pad": "(0, 0)", 
        "stride": "(1, 1)"
      }, 
      "inputs": [[244, 0, 0], [245, 0, 0], [246, 0, 0]]
    }, 
    {
      "op": "relu", 
      "name": "relu25", 
      "inputs": [[247, 0, 0]]
    }, 
    {
      "op": "Pad", 
      "name": "pad26", 
      "attrs": {
        "mode": "reflect", 
        "pad_width": "(0, 0, 0, 0, 1, 1, 1, 1)"
      }, 
      "inputs": [[248, 0, 0]]
    }, 
    {
      "op": "null", 
      "name": "pyramid_residual_1.residual_denseblock_4.dense_block.denselayer2.conv_2.conv.1.weight", 
      "attrs": {"__shape__": "(40, 160, 3, 3)"}, 
      "inputs": []
    }, 
    {
      "op": "null", 
      "name": "pyramid_residual_1.residual_denseblock_4.dense_block.denselayer2.conv_2.conv.1.bias", 
      "attrs": {"__shape__": "(40,)"}, 
      "inputs": []
    }, 
    {
      "op": "Convolution", 
      "name": "convolution56", 
      "attrs": {
        "dilate": "(1, 1)", 
        "kernel": "(3, 3)", 
        "layout": "NCHW", 
        "no_bias": "False", 
        "num_filter": "40", 
        "num_group": "1", 
        "pad": "(0, 0)", 
        "stride": "(1, 1)"
      }, 
      "inputs": [[249, 0, 0], [250, 0, 0], [251, 0, 0]]
    }, 
    {
      "op": "Concat", 
      "name": "concat25", 
      "attrs": {
        "dim": "1", 
        "num_args": "2"
      }, 
      "inputs": [[244, 0, 0], [252, 0, 0]]
    }, 
    {
      "op": "null", 
      "name": "pyramid_residual_1.residual_denseblock_4.dense_block.denselayer3.conv_1.weight", 
      "attrs": {"__shape__": "(160, 240, 1, 1)"}, 
      "inputs": []
    }, 
    {
      "op": "null", 
      "name": "pyramid_residual_1.residual_denseblock_4.dense_block.denselayer3.conv_1.bias", 
      "attrs": {"__shape__": "(160,)"}, 
      "inputs": []
    }, 
    {
      "op": "Convolution", 
      "name": "convolution57", 
      "attrs": {
        "dilate": "(1, 1)", 
        "kernel": "(1, 1)", 
        "layout": "NCHW", 
        "no_bias": "False", 
        "num_filter": "160", 
        "num_group": "1", 
        "pad": "(0, 0)", 
        "stride": "(1, 1)"
      }, 
      "inputs": [[253, 0, 0], [254, 0, 0], [255, 0, 0]]
    }, 
    {
      "op": "relu", 
      "name": "relu26", 
      "inputs": [[256, 0, 0]]
    }, 
    {
      "op": "Pad", 
      "name": "pad27", 
      "attrs": {
        "mode": "reflect", 
        "pad_width": "(0, 0, 0, 0, 1, 1, 1, 1)"
      }, 
      "inputs": [[257, 0, 0]]
    }, 
    {
      "op": "null", 
      "name": "pyramid_residual_1.residual_denseblock_4.dense_block.denselayer3.conv_2.conv.1.weight", 
      "attrs": {"__shape__": "(40, 160, 3, 3)"}, 
      "inputs": []
    }, 
    {
      "op": "null", 
      "name": "pyramid_residual_1.residual_denseblock_4.dense_block.denselayer3.conv_2.conv.1.bias", 
      "attrs": {"__shape__": "(40,)"}, 
      "inputs": []
    }, 
    {
      "op": "Convolution", 
      "name": "convolution58", 
      "attrs": {
        "dilate": "(1, 1)", 
        "kernel": "(3, 3)", 
        "layout": "NCHW", 
        "no_bias": "False", 
        "num_filter": "40", 
        "num_group": "1", 
        "pad": "(0, 0)", 
        "stride": "(1, 1)"
      }, 
      "inputs": [[258, 0, 0], [259, 0, 0], [260, 0, 0]]
    }, 
    {
      "op": "Concat", 
      "name": "concat26", 
      "attrs": {
        "dim": "1", 
        "num_args": "2"
      }, 
      "inputs": [[253, 0, 0], [261, 0, 0]]
    }, 
    {
      "op": "null", 
      "name": "pyramid_residual_1.residual_denseblock_4.dense_block.denselayer4.conv_1.weight", 
      "attrs": {"__shape__": "(160, 280, 1, 1)"}, 
      "inputs": []
    }, 
    {
      "op": "null", 
      "name": "pyramid_residual_1.residual_denseblock_4.dense_block.denselayer4.conv_1.bias", 
      "attrs": {"__shape__": "(160,)"}, 
      "inputs": []
    }, 
    {
      "op": "Convolution", 
      "name": "convolution59", 
      "attrs": {
        "dilate": "(1, 1)", 
        "kernel": "(1, 1)", 
        "layout": "NCHW", 
        "no_bias": "False", 
        "num_filter": "160", 
        "num_group": "1", 
        "pad": "(0, 0)", 
        "stride": "(1, 1)"
      }, 
      "inputs": [[262, 0, 0], [263, 0, 0], [264, 0, 0]]
    }, 
    {
      "op": "relu", 
      "name": "relu27", 
      "inputs": [[265, 0, 0]]
    }, 
    {
      "op": "Pad", 
      "name": "pad28", 
      "attrs": {
        "mode": "reflect", 
        "pad_width": "(0, 0, 0, 0, 1, 1, 1, 1)"
      }, 
      "inputs": [[266, 0, 0]]
    }, 
    {
      "op": "null", 
      "name": "pyramid_residual_1.residual_denseblock_4.dense_block.denselayer4.conv_2.conv.1.weight", 
      "attrs": {"__shape__": "(40, 160, 3, 3)"}, 
      "inputs": []
    }, 
    {
      "op": "null", 
      "name": "pyramid_residual_1.residual_denseblock_4.dense_block.denselayer4.conv_2.conv.1.bias", 
      "attrs": {"__shape__": "(40,)"}, 
      "inputs": []
    }, 
    {
      "op": "Convolution", 
      "name": "convolution60", 
      "attrs": {
        "dilate": "(1, 1)", 
        "kernel": "(3, 3)", 
        "layout": "NCHW", 
        "no_bias": "False", 
        "num_filter": "40", 
        "num_group": "1", 
        "pad": "(0, 0)", 
        "stride": "(1, 1)"
      }, 
      "inputs": [[267, 0, 0], [268, 0, 0], [269, 0, 0]]
    }, 
    {
      "op": "Concat", 
      "name": "concat27", 
      "attrs": {
        "dim": "1", 
        "num_args": "2"
      }, 
      "inputs": [[262, 0, 0], [270, 0, 0]]
    }, 
    {
      "op": "null", 
      "name": "pyramid_residual_1.residual_denseblock_4.dense_block.denselayer5.conv_1.weight", 
      "attrs": {"__shape__": "(160, 320, 1, 1)"}, 
      "inputs": []
    }, 
    {
      "op": "null", 
      "name": "pyramid_residual_1.residual_denseblock_4.dense_block.denselayer5.conv_1.bias", 
      "attrs": {"__shape__": "(160,)"}, 
      "inputs": []
    }, 
    {
      "op": "Convolution", 
      "name": "convolution61", 
      "attrs": {
        "dilate": "(1, 1)", 
        "kernel": "(1, 1)", 
        "layout": "NCHW", 
        "no_bias": "False", 
        "num_filter": "160", 
        "num_group": "1", 
        "pad": "(0, 0)", 
        "stride": "(1, 1)"
      }, 
      "inputs": [[271, 0, 0], [272, 0, 0], [273, 0, 0]]
    }, 
    {
      "op": "relu", 
      "name": "relu28", 
      "inputs": [[274, 0, 0]]
    }, 
    {
      "op": "Pad", 
      "name": "pad29", 
      "attrs": {
        "mode": "reflect", 
        "pad_width": "(0, 0, 0, 0, 1, 1, 1, 1)"
      }, 
      "inputs": [[275, 0, 0]]
    }, 
    {
      "op": "null", 
      "name": "pyramid_residual_1.residual_denseblock_4.dense_block.denselayer5.conv_2.conv.1.weight", 
      "attrs": {"__shape__": "(40, 160, 3, 3)"}, 
      "inputs": []
    }, 
    {
      "op": "null", 
      "name": "pyramid_residual_1.residual_denseblock_4.dense_block.denselayer5.conv_2.conv.1.bias", 
      "attrs": {"__shape__": "(40,)"}, 
      "inputs": []
    }, 
    {
      "op": "Convolution", 
      "name": "convolution62", 
      "attrs": {
        "dilate": "(1, 1)", 
        "kernel": "(3, 3)", 
        "layout": "NCHW", 
        "no_bias": "False", 
        "num_filter": "40", 
        "num_group": "1", 
        "pad": "(0, 0)", 
        "stride": "(1, 1)"
      }, 
      "inputs": [[276, 0, 0], [277, 0, 0], [278, 0, 0]]
    }, 
    {
      "op": "Concat", 
      "name": "concat28", 
      "attrs": {
        "dim": "1", 
        "num_args": "2"
      }, 
      "inputs": [[271, 0, 0], [279, 0, 0]]
    }, 
    {
      "op": "null", 
      "name": "pyramid_residual_1.residual_denseblock_4.dense_block.denselayer6.conv_1.weight", 
      "attrs": {"__shape__": "(160, 360, 1, 1)"}, 
      "inputs": []
    }, 
    {
      "op": "null", 
      "name": "pyramid_residual_1.residual_denseblock_4.dense_block.denselayer6.conv_1.bias", 
      "attrs": {"__shape__": "(160,)"}, 
      "inputs": []
    }, 
    {
      "op": "Convolution", 
      "name": "convolution63", 
      "attrs": {
        "dilate": "(1, 1)", 
        "kernel": "(1, 1)", 
        "layout": "NCHW", 
        "no_bias": "False", 
        "num_filter": "160", 
        "num_group": "1", 
        "pad": "(0, 0)", 
        "stride": "(1, 1)"
      }, 
      "inputs": [[280, 0, 0], [281, 0, 0], [282, 0, 0]]
    }, 
    {
      "op": "relu", 
      "name": "relu29", 
      "inputs": [[283, 0, 0]]
    }, 
    {
      "op": "Pad", 
      "name": "pad30", 
      "attrs": {
        "mode": "reflect", 
        "pad_width": "(0, 0, 0, 0, 1, 1, 1, 1)"
      }, 
      "inputs": [[284, 0, 0]]
    }, 
    {
      "op": "null", 
      "name": "pyramid_residual_1.residual_denseblock_4.dense_block.denselayer6.conv_2.conv.1.weight", 
      "attrs": {"__shape__": "(40, 160, 3, 3)"}, 
      "inputs": []
    }, 
    {
      "op": "null", 
      "name": "pyramid_residual_1.residual_denseblock_4.dense_block.denselayer6.conv_2.conv.1.bias", 
      "attrs": {"__shape__": "(40,)"}, 
      "inputs": []
    }, 
    {
      "op": "Convolution", 
      "name": "convolution64", 
      "attrs": {
        "dilate": "(1, 1)", 
        "kernel": "(3, 3)", 
        "layout": "NCHW", 
        "no_bias": "False", 
        "num_filter": "40", 
        "num_group": "1", 
        "pad": "(0, 0)", 
        "stride": "(1, 1)"
      }, 
      "inputs": [[285, 0, 0], [286, 0, 0], [287, 0, 0]]
    }, 
    {
      "op": "Concat", 
      "name": "concat29", 
      "attrs": {
        "dim": "1", 
        "num_args": "2"
      }, 
      "inputs": [[280, 0, 0], [288, 0, 0]]
    }, 
    {
      "op": "null", 
      "name": "pyramid_residual_1.residual_denseblock_4.dense_block.denselayer7.conv_1.weight", 
      "attrs": {"__shape__": "(160, 400, 1, 1)"}, 
      "inputs": []
    }, 
    {
      "op": "null", 
      "name": "pyramid_residual_1.residual_denseblock_4.dense_block.denselayer7.conv_1.bias", 
      "attrs": {"__shape__": "(160,)"}, 
      "inputs": []
    }, 
    {
      "op": "Convolution", 
      "name": "convolution65", 
      "attrs": {
        "dilate": "(1, 1)", 
        "kernel": "(1, 1)", 
        "layout": "NCHW", 
        "no_bias": "False", 
        "num_filter": "160", 
        "num_group": "1", 
        "pad": "(0, 0)", 
        "stride": "(1, 1)"
      }, 
      "inputs": [[289, 0, 0], [290, 0, 0], [291, 0, 0]]
    }, 
    {
      "op": "relu", 
      "name": "relu30", 
      "inputs": [[292, 0, 0]]
    }, 
    {
      "op": "Pad", 
      "name": "pad31", 
      "attrs": {
        "mode": "reflect", 
        "pad_width": "(0, 0, 0, 0, 1, 1, 1, 1)"
      }, 
      "inputs": [[293, 0, 0]]
    }, 
    {
      "op": "null", 
      "name": "pyramid_residual_1.residual_denseblock_4.dense_block.denselayer7.conv_2.conv.1.weight", 
      "attrs": {"__shape__": "(40, 160, 3, 3)"}, 
      "inputs": []
    }, 
    {
      "op": "null", 
      "name": "pyramid_residual_1.residual_denseblock_4.dense_block.denselayer7.conv_2.conv.1.bias", 
      "attrs": {"__shape__": "(40,)"}, 
      "inputs": []
    }, 
    {
      "op": "Convolution", 
      "name": "convolution66", 
      "attrs": {
        "dilate": "(1, 1)", 
        "kernel": "(3, 3)", 
        "layout": "NCHW", 
        "no_bias": "False", 
        "num_filter": "40", 
        "num_group": "1", 
        "pad": "(0, 0)", 
        "stride": "(1, 1)"
      }, 
      "inputs": [[294, 0, 0], [295, 0, 0], [296, 0, 0]]
    }, 
    {
      "op": "Concat", 
      "name": "concat30", 
      "attrs": {
        "dim": "1", 
        "num_args": "2"
      }, 
      "inputs": [[289, 0, 0], [297, 0, 0]]
    }, 
    {
      "op": "null", 
      "name": "pyramid_residual_1.residual_denseblock_4.dense_block.denselayer8.conv_1.weight", 
      "attrs": {"__shape__": "(160, 440, 1, 1)"}, 
      "inputs": []
    }, 
    {
      "op": "null", 
      "name": "pyramid_residual_1.residual_denseblock_4.dense_block.denselayer8.conv_1.bias", 
      "attrs": {"__shape__": "(160,)"}, 
      "inputs": []
    }, 
    {
      "op": "Convolution", 
      "name": "convolution67", 
      "attrs": {
        "dilate": "(1, 1)", 
        "kernel": "(1, 1)", 
        "layout": "NCHW", 
        "no_bias": "False", 
        "num_filter": "160", 
        "num_group": "1", 
        "pad": "(0, 0)", 
        "stride": "(1, 1)"
      }, 
      "inputs": [[298, 0, 0], [299, 0, 0], [300, 0, 0]]
    }, 
    {
      "op": "relu", 
      "name": "relu31", 
      "inputs": [[301, 0, 0]]
    }, 
    {
      "op": "Pad", 
      "name": "pad32", 
      "attrs": {
        "mode": "reflect", 
        "pad_width": "(0, 0, 0, 0, 1, 1, 1, 1)"
      }, 
      "inputs": [[302, 0, 0]]
    }, 
    {
      "op": "null", 
      "name": "pyramid_residual_1.residual_denseblock_4.dense_block.denselayer8.conv_2.conv.1.weight", 
      "attrs": {"__shape__": "(40, 160, 3, 3)"}, 
      "inputs": []
    }, 
    {
      "op": "null", 
      "name": "pyramid_residual_1.residual_denseblock_4.dense_block.denselayer8.conv_2.conv.1.bias", 
      "attrs": {"__shape__": "(40,)"}, 
      "inputs": []
    }, 
    {
      "op": "Convolution", 
      "name": "convolution68", 
      "attrs": {
        "dilate": "(1, 1)", 
        "kernel": "(3, 3)", 
        "layout": "NCHW", 
        "no_bias": "False", 
        "num_filter": "40", 
        "num_group": "1", 
        "pad": "(0, 0)", 
        "stride": "(1, 1)"
      }, 
      "inputs": [[303, 0, 0], [304, 0, 0], [305, 0, 0]]
    }, 
    {
      "op": "Concat", 
      "name": "concat31", 
      "attrs": {
        "dim": "1", 
        "num_args": "2"
      }, 
      "inputs": [[298, 0, 0], [306, 0, 0]]
    }, 
    {
      "op": "null", 
      "name": "pyramid_residual_1.residual_denseblock_4.comp.conv1.weight", 
      "attrs": {"__shape__": "(160, 480, 1, 1)"}, 
      "inputs": []
    }, 
    {
      "op": "Convolution", 
      "name": "convolution69", 
      "attrs": {
        "dilate": "(1, 1)", 
        "kernel": "(1, 1)", 
        "layout": "NCHW", 
        "no_bias": "True", 
        "num_filter": "160", 
        "num_group": "1", 
        "pad": "(0, 0)", 
        "stride": "(1, 1)"
      }, 
      "inputs": [[307, 0, 0], [308, 0, 0]]
    }, 
    {
      "op": "_mul_scalar", 
      "name": "_mulscalar3", 
      "attrs": {"scalar": "0.2"}, 
      "inputs": [[309, 0, 0]]
    }, 
    {
      "op": "broadcast_add", 
      "name": "broadcast_add3", 
      "inputs": [[310, 0, 0], [235, 0, 0]]
    }, 
    {
      "op": "null", 
      "name": "pyramid_residual_1.residual_denseblock_5.dense_block.denselayer1.conv_1.weight", 
      "attrs": {"__shape__": "(160, 160, 1, 1)"}, 
      "inputs": []
    }, 
    {
      "op": "null", 
      "name": "pyramid_residual_1.residual_denseblock_5.dense_block.denselayer1.conv_1.bias", 
      "attrs": {"__shape__": "(160,)"}, 
      "inputs": []
    }, 
    {
      "op": "Convolution", 
      "name": "convolution70", 
      "attrs": {
        "dilate": "(1, 1)", 
        "kernel": "(1, 1)", 
        "layout": "NCHW", 
        "no_bias": "False", 
        "num_filter": "160", 
        "num_group": "1", 
        "pad": "(0, 0)", 
        "stride": "(1, 1)"
      }, 
      "inputs": [[311, 0, 0], [312, 0, 0], [313, 0, 0]]
    }, 
    {
      "op": "relu", 
      "name": "relu32", 
      "inputs": [[314, 0, 0]]
    }, 
    {
      "op": "Pad", 
      "name": "pad33", 
      "attrs": {
        "mode": "reflect", 
        "pad_width": "(0, 0, 0, 0, 1, 1, 1, 1)"
      }, 
      "inputs": [[315, 0, 0]]
    }, 
    {
      "op": "null", 
      "name": "pyramid_residual_1.residual_denseblock_5.dense_block.denselayer1.conv_2.conv.1.weight", 
      "attrs": {"__shape__": "(40, 160, 3, 3)"}, 
      "inputs": []
    }, 
    {
      "op": "null", 
      "name": "pyramid_residual_1.residual_denseblock_5.dense_block.denselayer1.conv_2.conv.1.bias", 
      "attrs": {"__shape__": "(40,)"}, 
      "inputs": []
    }, 
    {
      "op": "Convolution", 
      "name": "convolution71", 
      "attrs": {
        "dilate": "(1, 1)", 
        "kernel": "(3, 3)", 
        "layout": "NCHW", 
        "no_bias": "False", 
        "num_filter": "40", 
        "num_group": "1", 
        "pad": "(0, 0)", 
        "stride": "(1, 1)"
      }, 
      "inputs": [[316, 0, 0], [317, 0, 0], [318, 0, 0]]
    }, 
    {
      "op": "Concat", 
      "name": "concat32", 
      "attrs": {
        "dim": "1", 
        "num_args": "2"
      }, 
      "inputs": [[311, 0, 0], [319, 0, 0]]
    }, 
    {
      "op": "null", 
      "name": "pyramid_residual_1.residual_denseblock_5.dense_block.denselayer2.conv_1.weight", 
      "attrs": {"__shape__": "(160, 200, 1, 1)"}, 
      "inputs": []
    }, 
    {
      "op": "null", 
      "name": "pyramid_residual_1.residual_denseblock_5.dense_block.denselayer2.conv_1.bias", 
      "attrs": {"__shape__": "(160,)"}, 
      "inputs": []
    }, 
    {
      "op": "Convolution", 
      "name": "convolution72", 
      "attrs": {
        "dilate": "(1, 1)", 
        "kernel": "(1, 1)", 
        "layout": "NCHW", 
        "no_bias": "False", 
        "num_filter": "160", 
        "num_group": "1", 
        "pad": "(0, 0)", 
        "stride": "(1, 1)"
      }, 
      "inputs": [[320, 0, 0], [321, 0, 0], [322, 0, 0]]
    }, 
    {
      "op": "relu", 
      "name": "relu33", 
      "inputs": [[323, 0, 0]]
    }, 
    {
      "op": "Pad", 
      "name": "pad34", 
      "attrs": {
        "mode": "reflect", 
        "pad_width": "(0, 0, 0, 0, 1, 1, 1, 1)"
      }, 
      "inputs": [[324, 0, 0]]
    }, 
    {
      "op": "null", 
      "name": "pyramid_residual_1.residual_denseblock_5.dense_block.denselayer2.conv_2.conv.1.weight", 
      "attrs": {"__shape__": "(40, 160, 3, 3)"}, 
      "inputs": []
    }, 
    {
      "op": "null", 
      "name": "pyramid_residual_1.residual_denseblock_5.dense_block.denselayer2.conv_2.conv.1.bias", 
      "attrs": {"__shape__": "(40,)"}, 
      "inputs": []
    }, 
    {
      "op": "Convolution", 
      "name": "convolution73", 
      "attrs": {
        "dilate": "(1, 1)", 
        "kernel": "(3, 3)", 
        "layout": "NCHW", 
        "no_bias": "False", 
        "num_filter": "40", 
        "num_group": "1", 
        "pad": "(0, 0)", 
        "stride": "(1, 1)"
      }, 
      "inputs": [[325, 0, 0], [326, 0, 0], [327, 0, 0]]
    }, 
    {
      "op": "Concat", 
      "name": "concat33", 
      "attrs": {
        "dim": "1", 
        "num_args": "2"
      }, 
      "inputs": [[320, 0, 0], [328, 0, 0]]
    }, 
    {
      "op": "null", 
      "name": "pyramid_residual_1.residual_denseblock_5.dense_block.denselayer3.conv_1.weight", 
      "attrs": {"__shape__": "(160, 240, 1, 1)"}, 
      "inputs": []
    }, 
    {
      "op": "null", 
      "name": "pyramid_residual_1.residual_denseblock_5.dense_block.denselayer3.conv_1.bias", 
      "attrs": {"__shape__": "(160,)"}, 
      "inputs": []
    }, 
    {
      "op": "Convolution", 
      "name": "convolution74", 
      "attrs": {
        "dilate": "(1, 1)", 
        "kernel": "(1, 1)", 
        "layout": "NCHW", 
        "no_bias": "False", 
        "num_filter": "160", 
        "num_group": "1", 
        "pad": "(0, 0)", 
        "stride": "(1, 1)"
      }, 
      "inputs": [[329, 0, 0], [330, 0, 0], [331, 0, 0]]
    }, 
    {
      "op": "relu", 
      "name": "relu34", 
      "inputs": [[332, 0, 0]]
    }, 
    {
      "op": "Pad", 
      "name": "pad35", 
      "attrs": {
        "mode": "reflect", 
        "pad_width": "(0, 0, 0, 0, 1, 1, 1, 1)"
      }, 
      "inputs": [[333, 0, 0]]
    }, 
    {
      "op": "null", 
      "name": "pyramid_residual_1.residual_denseblock_5.dense_block.denselayer3.conv_2.conv.1.weight", 
      "attrs": {"__shape__": "(40, 160, 3, 3)"}, 
      "inputs": []
    }, 
    {
      "op": "null", 
      "name": "pyramid_residual_1.residual_denseblock_5.dense_block.denselayer3.conv_2.conv.1.bias", 
      "attrs": {"__shape__": "(40,)"}, 
      "inputs": []
    }, 
    {
      "op": "Convolution", 
      "name": "convolution75", 
      "attrs": {
        "dilate": "(1, 1)", 
        "kernel": "(3, 3)", 
        "layout": "NCHW", 
        "no_bias": "False", 
        "num_filter": "40", 
        "num_group": "1", 
        "pad": "(0, 0)", 
        "stride": "(1, 1)"
      }, 
      "inputs": [[334, 0, 0], [335, 0, 0], [336, 0, 0]]
    }, 
    {
      "op": "Concat", 
      "name": "concat34", 
      "attrs": {
        "dim": "1", 
        "num_args": "2"
      }, 
      "inputs": [[329, 0, 0], [337, 0, 0]]
    }, 
    {
      "op": "null", 
      "name": "pyramid_residual_1.residual_denseblock_5.dense_block.denselayer4.conv_1.weight", 
      "attrs": {"__shape__": "(160, 280, 1, 1)"}, 
      "inputs": []
    }, 
    {
      "op": "null", 
      "name": "pyramid_residual_1.residual_denseblock_5.dense_block.denselayer4.conv_1.bias", 
      "attrs": {"__shape__": "(160,)"}, 
      "inputs": []
    }, 
    {
      "op": "Convolution", 
      "name": "convolution76", 
      "attrs": {
        "dilate": "(1, 1)", 
        "kernel": "(1, 1)", 
        "layout": "NCHW", 
        "no_bias": "False", 
        "num_filter": "160", 
        "num_group": "1", 
        "pad": "(0, 0)", 
        "stride": "(1, 1)"
      }, 
      "inputs": [[338, 0, 0], [339, 0, 0], [340, 0, 0]]
    }, 
    {
      "op": "relu", 
      "name": "relu35", 
      "inputs": [[341, 0, 0]]
    }, 
    {
      "op": "Pad", 
      "name": "pad36", 
      "attrs": {
        "mode": "reflect", 
        "pad_width": "(0, 0, 0, 0, 1, 1, 1, 1)"
      }, 
      "inputs": [[342, 0, 0]]
    }, 
    {
      "op": "null", 
      "name": "pyramid_residual_1.residual_denseblock_5.dense_block.denselayer4.conv_2.conv.1.weight", 
      "attrs": {"__shape__": "(40, 160, 3, 3)"}, 
      "inputs": []
    }, 
    {
      "op": "null", 
      "name": "pyramid_residual_1.residual_denseblock_5.dense_block.denselayer4.conv_2.conv.1.bias", 
      "attrs": {"__shape__": "(40,)"}, 
      "inputs": []
    }, 
    {
      "op": "Convolution", 
      "name": "convolution77", 
      "attrs": {
        "dilate": "(1, 1)", 
        "kernel": "(3, 3)", 
        "layout": "NCHW", 
        "no_bias": "False", 
        "num_filter": "40", 
        "num_group": "1", 
        "pad": "(0, 0)", 
        "stride": "(1, 1)"
      }, 
      "inputs": [[343, 0, 0], [344, 0, 0], [345, 0, 0]]
    }, 
    {
      "op": "Concat", 
      "name": "concat35", 
      "attrs": {
        "dim": "1", 
        "num_args": "2"
      }, 
      "inputs": [[338, 0, 0], [346, 0, 0]]
    }, 
    {
      "op": "null", 
      "name": "pyramid_residual_1.residual_denseblock_5.dense_block.denselayer5.conv_1.weight", 
      "attrs": {"__shape__": "(160, 320, 1, 1)"}, 
      "inputs": []
    }, 
    {
      "op": "null", 
      "name": "pyramid_residual_1.residual_denseblock_5.dense_block.denselayer5.conv_1.bias", 
      "attrs": {"__shape__": "(160,)"}, 
      "inputs": []
    }, 
    {
      "op": "Convolution", 
      "name": "convolution78", 
      "attrs": {
        "dilate": "(1, 1)", 
        "kernel": "(1, 1)", 
        "layout": "NCHW", 
        "no_bias": "False", 
        "num_filter": "160", 
        "num_group": "1", 
        "pad": "(0, 0)", 
        "stride": "(1, 1)"
      }, 
      "inputs": [[347, 0, 0], [348, 0, 0], [349, 0, 0]]
    }, 
    {
      "op": "relu", 
      "name": "relu36", 
      "inputs": [[350, 0, 0]]
    }, 
    {
      "op": "Pad", 
      "name": "pad37", 
      "attrs": {
        "mode": "reflect", 
        "pad_width": "(0, 0, 0, 0, 1, 1, 1, 1)"
      }, 
      "inputs": [[351, 0, 0]]
    }, 
    {
      "op": "null", 
      "name": "pyramid_residual_1.residual_denseblock_5.dense_block.denselayer5.conv_2.conv.1.weight", 
      "attrs": {"__shape__": "(40, 160, 3, 3)"}, 
      "inputs": []
    }, 
    {
      "op": "null", 
      "name": "pyramid_residual_1.residual_denseblock_5.dense_block.denselayer5.conv_2.conv.1.bias", 
      "attrs": {"__shape__": "(40,)"}, 
      "inputs": []
    }, 
    {
      "op": "Convolution", 
      "name": "convolution79", 
      "attrs": {
        "dilate": "(1, 1)", 
        "kernel": "(3, 3)", 
        "layout": "NCHW", 
        "no_bias": "False", 
        "num_filter": "40", 
        "num_group": "1", 
        "pad": "(0, 0)", 
        "stride": "(1, 1)"
      }, 
      "inputs": [[352, 0, 0], [353, 0, 0], [354, 0, 0]]
    }, 
    {
      "op": "Concat", 
      "name": "concat36", 
      "attrs": {
        "dim": "1", 
        "num_args": "2"
      }, 
      "inputs": [[347, 0, 0], [355, 0, 0]]
    }, 
    {
      "op": "null", 
      "name": "pyramid_residual_1.residual_denseblock_5.dense_block.denselayer6.conv_1.weight", 
      "attrs": {"__shape__": "(160, 360, 1, 1)"}, 
      "inputs": []
    }, 
    {
      "op": "null", 
      "name": "pyramid_residual_1.residual_denseblock_5.dense_block.denselayer6.conv_1.bias", 
      "attrs": {"__shape__": "(160,)"}, 
      "inputs": []
    }, 
    {
      "op": "Convolution", 
      "name": "convolution80", 
      "attrs": {
        "dilate": "(1, 1)", 
        "kernel": "(1, 1)", 
        "layout": "NCHW", 
        "no_bias": "False", 
        "num_filter": "160", 
        "num_group": "1", 
        "pad": "(0, 0)", 
        "stride": "(1, 1)"
      }, 
      "inputs": [[356, 0, 0], [357, 0, 0], [358, 0, 0]]
    }, 
    {
      "op": "relu", 
      "name": "relu37", 
      "inputs": [[359, 0, 0]]
    }, 
    {
      "op": "Pad", 
      "name": "pad38", 
      "attrs": {
        "mode": "reflect", 
        "pad_width": "(0, 0, 0, 0, 1, 1, 1, 1)"
      }, 
      "inputs": [[360, 0, 0]]
    }, 
    {
      "op": "null", 
      "name": "pyramid_residual_1.residual_denseblock_5.dense_block.denselayer6.conv_2.conv.1.weight", 
      "attrs": {"__shape__": "(40, 160, 3, 3)"}, 
      "inputs": []
    }, 
    {
      "op": "null", 
      "name": "pyramid_residual_1.residual_denseblock_5.dense_block.denselayer6.conv_2.conv.1.bias", 
      "attrs": {"__shape__": "(40,)"}, 
      "inputs": []
    }, 
    {
      "op": "Convolution", 
      "name": "convolution81", 
      "attrs": {
        "dilate": "(1, 1)", 
        "kernel": "(3, 3)", 
        "layout": "NCHW", 
        "no_bias": "False", 
        "num_filter": "40", 
        "num_group": "1", 
        "pad": "(0, 0)", 
        "stride": "(1, 1)"
      }, 
      "inputs": [[361, 0, 0], [362, 0, 0], [363, 0, 0]]
    }, 
    {
      "op": "Concat", 
      "name": "concat37", 
      "attrs": {
        "dim": "1", 
        "num_args": "2"
      }, 
      "inputs": [[356, 0, 0], [364, 0, 0]]
    }, 
    {
      "op": "null", 
      "name": "pyramid_residual_1.residual_denseblock_5.dense_block.denselayer7.conv_1.weight", 
      "attrs": {"__shape__": "(160, 400, 1, 1)"}, 
      "inputs": []
    }, 
    {
      "op": "null", 
      "name": "pyramid_residual_1.residual_denseblock_5.dense_block.denselayer7.conv_1.bias", 
      "attrs": {"__shape__": "(160,)"}, 
      "inputs": []
    }, 
    {
      "op": "Convolution", 
      "name": "convolution82", 
      "attrs": {
        "dilate": "(1, 1)", 
        "kernel": "(1, 1)", 
        "layout": "NCHW", 
        "no_bias": "False", 
        "num_filter": "160", 
        "num_group": "1", 
        "pad": "(0, 0)", 
        "stride": "(1, 1)"
      }, 
      "inputs": [[365, 0, 0], [366, 0, 0], [367, 0, 0]]
    }, 
    {
      "op": "relu", 
      "name": "relu38", 
      "inputs": [[368, 0, 0]]
    }, 
    {
      "op": "Pad", 
      "name": "pad39", 
      "attrs": {
        "mode": "reflect", 
        "pad_width": "(0, 0, 0, 0, 1, 1, 1, 1)"
      }, 
      "inputs": [[369, 0, 0]]
    }, 
    {
      "op": "null", 
      "name": "pyramid_residual_1.residual_denseblock_5.dense_block.denselayer7.conv_2.conv.1.weight", 
      "attrs": {"__shape__": "(40, 160, 3, 3)"}, 
      "inputs": []
    }, 
    {
      "op": "null", 
      "name": "pyramid_residual_1.residual_denseblock_5.dense_block.denselayer7.conv_2.conv.1.bias", 
      "attrs": {"__shape__": "(40,)"}, 
      "inputs": []
    }, 
    {
      "op": "Convolution", 
      "name": "convolution83", 
      "attrs": {
        "dilate": "(1, 1)", 
        "kernel": "(3, 3)", 
        "layout": "NCHW", 
        "no_bias": "False", 
        "num_filter": "40", 
        "num_group": "1", 
        "pad": "(0, 0)", 
        "stride": "(1, 1)"
      }, 
      "inputs": [[370, 0, 0], [371, 0, 0], [372, 0, 0]]
    }, 
    {
      "op": "Concat", 
      "name": "concat38", 
      "attrs": {
        "dim": "1", 
        "num_args": "2"
      }, 
      "inputs": [[365, 0, 0], [373, 0, 0]]
    }, 
    {
      "op": "null", 
      "name": "pyramid_residual_1.residual_denseblock_5.dense_block.denselayer8.conv_1.weight", 
      "attrs": {"__shape__": "(160, 440, 1, 1)"}, 
      "inputs": []
    }, 
    {
      "op": "null", 
      "name": "pyramid_residual_1.residual_denseblock_5.dense_block.denselayer8.conv_1.bias", 
      "attrs": {"__shape__": "(160,)"}, 
      "inputs": []
    }, 
    {
      "op": "Convolution", 
      "name": "convolution84", 
      "attrs": {
        "dilate": "(1, 1)", 
        "kernel": "(1, 1)", 
        "layout": "NCHW", 
        "no_bias": "False", 
        "num_filter": "160", 
        "num_group": "1", 
        "pad": "(0, 0)", 
        "stride": "(1, 1)"
      }, 
      "inputs": [[374, 0, 0], [375, 0, 0], [376, 0, 0]]
    }, 
    {
      "op": "relu", 
      "name": "relu39", 
      "inputs": [[377, 0, 0]]
    }, 
    {
      "op": "Pad", 
      "name": "pad40", 
      "attrs": {
        "mode": "reflect", 
        "pad_width": "(0, 0, 0, 0, 1, 1, 1, 1)"
      }, 
      "inputs": [[378, 0, 0]]
    }, 
    {
      "op": "null", 
      "name": "pyramid_residual_1.residual_denseblock_5.dense_block.denselayer8.conv_2.conv.1.weight", 
      "attrs": {"__shape__": "(40, 160, 3, 3)"}, 
      "inputs": []
    }, 
    {
      "op": "null", 
      "name": "pyramid_residual_1.residual_denseblock_5.dense_block.denselayer8.conv_2.conv.1.bias", 
      "attrs": {"__shape__": "(40,)"}, 
      "inputs": []
    }, 
    {
      "op": "Convolution", 
      "name": "convolution85", 
      "attrs": {
        "dilate": "(1, 1)", 
        "kernel": "(3, 3)", 
        "layout": "NCHW", 
        "no_bias": "False", 
        "num_filter": "40", 
        "num_group": "1", 
        "pad": "(0, 0)", 
        "stride": "(1, 1)"
      }, 
      "inputs": [[379, 0, 0], [380, 0, 0], [381, 0, 0]]
    }, 
    {
      "op": "Concat", 
      "name": "concat39", 
      "attrs": {
        "dim": "1", 
        "num_args": "2"
      }, 
      "inputs": [[374, 0, 0], [382, 0, 0]]
    }, 
    {
      "op": "null", 
      "name": "pyramid_residual_1.residual_denseblock_5.comp.conv1.weight", 
      "attrs": {"__shape__": "(160, 480, 1, 1)"}, 
      "inputs": []
    }, 
    {
      "op": "Convolution", 
      "name": "convolution86", 
      "attrs": {
        "dilate": "(1, 1)", 
        "kernel": "(1, 1)", 
        "layout": "NCHW", 
        "no_bias": "True", 
        "num_filter": "160", 
        "num_group": "1", 
        "pad": "(0, 0)", 
        "stride": "(1, 1)"
      }, 
      "inputs": [[383, 0, 0], [384, 0, 0]]
    }, 
    {
      "op": "_mul_scalar", 
      "name": "_mulscalar4", 
      "attrs": {"scalar": "0.2"}, 
      "inputs": [[385, 0, 0]]
    }, 
    {
      "op": "broadcast_add", 
      "name": "broadcast_add4", 
      "inputs": [[386, 0, 0], [311, 0, 0]]
    }, 
    {
      "op": "null", 
      "name": "pyramid_residual_1.residual_denseblock_6.dense_block.denselayer1.conv_1.weight", 
      "attrs": {"__shape__": "(160, 160, 1, 1)"}, 
      "inputs": []
    }, 
    {
      "op": "null", 
      "name": "pyramid_residual_1.residual_denseblock_6.dense_block.denselayer1.conv_1.bias", 
      "attrs": {"__shape__": "(160,)"}, 
      "inputs": []
    }, 
    {
      "op": "Convolution", 
      "name": "convolution87", 
      "attrs": {
        "dilate": "(1, 1)", 
        "kernel": "(1, 1)", 
        "layout": "NCHW", 
        "no_bias": "False", 
        "num_filter": "160", 
        "num_group": "1", 
        "pad": "(0, 0)", 
        "stride": "(1, 1)"
      }, 
      "inputs": [[387, 0, 0], [388, 0, 0], [389, 0, 0]]
    }, 
    {
      "op": "relu", 
      "name": "relu40", 
      "inputs": [[390, 0, 0]]
    }, 
    {
      "op": "Pad", 
      "name": "pad41", 
      "attrs": {
        "mode": "reflect", 
        "pad_width": "(0, 0, 0, 0, 1, 1, 1, 1)"
      }, 
      "inputs": [[391, 0, 0]]
    }, 
    {
      "op": "null", 
      "name": "pyramid_residual_1.residual_denseblock_6.dense_block.denselayer1.conv_2.conv.1.weight", 
      "attrs": {"__shape__": "(40, 160, 3, 3)"}, 
      "inputs": []
    }, 
    {
      "op": "null", 
      "name": "pyramid_residual_1.residual_denseblock_6.dense_block.denselayer1.conv_2.conv.1.bias", 
      "attrs": {"__shape__": "(40,)"}, 
      "inputs": []
    }, 
    {
      "op": "Convolution", 
      "name": "convolution88", 
      "attrs": {
        "dilate": "(1, 1)", 
        "kernel": "(3, 3)", 
        "layout": "NCHW", 
        "no_bias": "False", 
        "num_filter": "40", 
        "num_group": "1", 
        "pad": "(0, 0)", 
        "stride": "(1, 1)"
      }, 
      "inputs": [[392, 0, 0], [393, 0, 0], [394, 0, 0]]
    }, 
    {
      "op": "Concat", 
      "name": "concat40", 
      "attrs": {
        "dim": "1", 
        "num_args": "2"
      }, 
      "inputs": [[387, 0, 0], [395, 0, 0]]
    }, 
    {
      "op": "null", 
      "name": "pyramid_residual_1.residual_denseblock_6.dense_block.denselayer2.conv_1.weight", 
      "attrs": {"__shape__": "(160, 200, 1, 1)"}, 
      "inputs": []
    }, 
    {
      "op": "null", 
      "name": "pyramid_residual_1.residual_denseblock_6.dense_block.denselayer2.conv_1.bias", 
      "attrs": {"__shape__": "(160,)"}, 
      "inputs": []
    }, 
    {
      "op": "Convolution", 
      "name": "convolution89", 
      "attrs": {
        "dilate": "(1, 1)", 
        "kernel": "(1, 1)", 
        "layout": "NCHW", 
        "no_bias": "False", 
        "num_filter": "160", 
        "num_group": "1", 
        "pad": "(0, 0)", 
        "stride": "(1, 1)"
      }, 
      "inputs": [[396, 0, 0], [397, 0, 0], [398, 0, 0]]
    }, 
    {
      "op": "relu", 
      "name": "relu41", 
      "inputs": [[399, 0, 0]]
    }, 
    {
      "op": "Pad", 
      "name": "pad42", 
      "attrs": {
        "mode": "reflect", 
        "pad_width": "(0, 0, 0, 0, 1, 1, 1, 1)"
      }, 
      "inputs": [[400, 0, 0]]
    }, 
    {
      "op": "null", 
      "name": "pyramid_residual_1.residual_denseblock_6.dense_block.denselayer2.conv_2.conv.1.weight", 
      "attrs": {"__shape__": "(40, 160, 3, 3)"}, 
      "inputs": []
    }, 
    {
      "op": "null", 
      "name": "pyramid_residual_1.residual_denseblock_6.dense_block.denselayer2.conv_2.conv.1.bias", 
      "attrs": {"__shape__": "(40,)"}, 
      "inputs": []
    }, 
    {
      "op": "Convolution", 
      "name": "convolution90", 
      "attrs": {
        "dilate": "(1, 1)", 
        "kernel": "(3, 3)", 
        "layout": "NCHW", 
        "no_bias": "False", 
        "num_filter": "40", 
        "num_group": "1", 
        "pad": "(0, 0)", 
        "stride": "(1, 1)"
      }, 
      "inputs": [[401, 0, 0], [402, 0, 0], [403, 0, 0]]
    }, 
    {
      "op": "Concat", 
      "name": "concat41", 
      "attrs": {
        "dim": "1", 
        "num_args": "2"
      }, 
      "inputs": [[396, 0, 0], [404, 0, 0]]
    }, 
    {
      "op": "null", 
      "name": "pyramid_residual_1.residual_denseblock_6.dense_block.denselayer3.conv_1.weight", 
      "attrs": {"__shape__": "(160, 240, 1, 1)"}, 
      "inputs": []
    }, 
    {
      "op": "null", 
      "name": "pyramid_residual_1.residual_denseblock_6.dense_block.denselayer3.conv_1.bias", 
      "attrs": {"__shape__": "(160,)"}, 
      "inputs": []
    }, 
    {
      "op": "Convolution", 
      "name": "convolution91", 
      "attrs": {
        "dilate": "(1, 1)", 
        "kernel": "(1, 1)", 
        "layout": "NCHW", 
        "no_bias": "False", 
        "num_filter": "160", 
        "num_group": "1", 
        "pad": "(0, 0)", 
        "stride": "(1, 1)"
      }, 
      "inputs": [[405, 0, 0], [406, 0, 0], [407, 0, 0]]
    }, 
    {
      "op": "relu", 
      "name": "relu42", 
      "inputs": [[408, 0, 0]]
    }, 
    {
      "op": "Pad", 
      "name": "pad43", 
      "attrs": {
        "mode": "reflect", 
        "pad_width": "(0, 0, 0, 0, 1, 1, 1, 1)"
      }, 
      "inputs": [[409, 0, 0]]
    }, 
    {
      "op": "null", 
      "name": "pyramid_residual_1.residual_denseblock_6.dense_block.denselayer3.conv_2.conv.1.weight", 
      "attrs": {"__shape__": "(40, 160, 3, 3)"}, 
      "inputs": []
    }, 
    {
      "op": "null", 
      "name": "pyramid_residual_1.residual_denseblock_6.dense_block.denselayer3.conv_2.conv.1.bias", 
      "attrs": {"__shape__": "(40,)"}, 
      "inputs": []
    }, 
    {
      "op": "Convolution", 
      "name": "convolution92", 
      "attrs": {
        "dilate": "(1, 1)", 
        "kernel": "(3, 3)", 
        "layout": "NCHW", 
        "no_bias": "False", 
        "num_filter": "40", 
        "num_group": "1", 
        "pad": "(0, 0)", 
        "stride": "(1, 1)"
      }, 
      "inputs": [[410, 0, 0], [411, 0, 0], [412, 0, 0]]
    }, 
    {
      "op": "Concat", 
      "name": "concat42", 
      "attrs": {
        "dim": "1", 
        "num_args": "2"
      }, 
      "inputs": [[405, 0, 0], [413, 0, 0]]
    }, 
    {
      "op": "null", 
      "name": "pyramid_residual_1.residual_denseblock_6.dense_block.denselayer4.conv_1.weight", 
      "attrs": {"__shape__": "(160, 280, 1, 1)"}, 
      "inputs": []
    }, 
    {
      "op": "null", 
      "name": "pyramid_residual_1.residual_denseblock_6.dense_block.denselayer4.conv_1.bias", 
      "attrs": {"__shape__": "(160,)"}, 
      "inputs": []
    }, 
    {
      "op": "Convolution", 
      "name": "convolution93", 
      "attrs": {
        "dilate": "(1, 1)", 
        "kernel": "(1, 1)", 
        "layout": "NCHW", 
        "no_bias": "False", 
        "num_filter": "160", 
        "num_group": "1", 
        "pad": "(0, 0)", 
        "stride": "(1, 1)"
      }, 
      "inputs": [[414, 0, 0], [415, 0, 0], [416, 0, 0]]
    }, 
    {
      "op": "relu", 
      "name": "relu43", 
      "inputs": [[417, 0, 0]]
    }, 
    {
      "op": "Pad", 
      "name": "pad44", 
      "attrs": {
        "mode": "reflect", 
        "pad_width": "(0, 0, 0, 0, 1, 1, 1, 1)"
      }, 
      "inputs": [[418, 0, 0]]
    }, 
    {
      "op": "null", 
      "name": "pyramid_residual_1.residual_denseblock_6.dense_block.denselayer4.conv_2.conv.1.weight", 
      "attrs": {"__shape__": "(40, 160, 3, 3)"}, 
      "inputs": []
    }, 
    {
      "op": "null", 
      "name": "pyramid_residual_1.residual_denseblock_6.dense_block.denselayer4.conv_2.conv.1.bias", 
      "attrs": {"__shape__": "(40,)"}, 
      "inputs": []
    }, 
    {
      "op": "Convolution", 
      "name": "convolution94", 
      "attrs": {
        "dilate": "(1, 1)", 
        "kernel": "(3, 3)", 
        "layout": "NCHW", 
        "no_bias": "False", 
        "num_filter": "40", 
        "num_group": "1", 
        "pad": "(0, 0)", 
        "stride": "(1, 1)"
      }, 
      "inputs": [[419, 0, 0], [420, 0, 0], [421, 0, 0]]
    }, 
    {
      "op": "Concat", 
      "name": "concat43", 
      "attrs": {
        "dim": "1", 
        "num_args": "2"
      }, 
      "inputs": [[414, 0, 0], [422, 0, 0]]
    }, 
    {
      "op": "null", 
      "name": "pyramid_residual_1.residual_denseblock_6.dense_block.denselayer5.conv_1.weight", 
      "attrs": {"__shape__": "(160, 320, 1, 1)"}, 
      "inputs": []
    }, 
    {
      "op": "null", 
      "name": "pyramid_residual_1.residual_denseblock_6.dense_block.denselayer5.conv_1.bias", 
      "attrs": {"__shape__": "(160,)"}, 
      "inputs": []
    }, 
    {
      "op": "Convolution", 
      "name": "convolution95", 
      "attrs": {
        "dilate": "(1, 1)", 
        "kernel": "(1, 1)", 
        "layout": "NCHW", 
        "no_bias": "False", 
        "num_filter": "160", 
        "num_group": "1", 
        "pad": "(0, 0)", 
        "stride": "(1, 1)"
      }, 
      "inputs": [[423, 0, 0], [424, 0, 0], [425, 0, 0]]
    }, 
    {
      "op": "relu", 
      "name": "relu44", 
      "inputs": [[426, 0, 0]]
    }, 
    {
      "op": "Pad", 
      "name": "pad45", 
      "attrs": {
        "mode": "reflect", 
        "pad_width": "(0, 0, 0, 0, 1, 1, 1, 1)"
      }, 
      "inputs": [[427, 0, 0]]
    }, 
    {
      "op": "null", 
      "name": "pyramid_residual_1.residual_denseblock_6.dense_block.denselayer5.conv_2.conv.1.weight", 
      "attrs": {"__shape__": "(40, 160, 3, 3)"}, 
      "inputs": []
    }, 
    {
      "op": "null", 
      "name": "pyramid_residual_1.residual_denseblock_6.dense_block.denselayer5.conv_2.conv.1.bias", 
      "attrs": {"__shape__": "(40,)"}, 
      "inputs": []
    }, 
    {
      "op": "Convolution", 
      "name": "convolution96", 
      "attrs": {
        "dilate": "(1, 1)", 
        "kernel": "(3, 3)", 
        "layout": "NCHW", 
        "no_bias": "False", 
        "num_filter": "40", 
        "num_group": "1", 
        "pad": "(0, 0)", 
        "stride": "(1, 1)"
      }, 
      "inputs": [[428, 0, 0], [429, 0, 0], [430, 0, 0]]
    }, 
    {
      "op": "Concat", 
      "name": "concat44", 
      "attrs": {
        "dim": "1", 
        "num_args": "2"
      }, 
      "inputs": [[423, 0, 0], [431, 0, 0]]
    }, 
    {
      "op": "null", 
      "name": "pyramid_residual_1.residual_denseblock_6.dense_block.denselayer6.conv_1.weight", 
      "attrs": {"__shape__": "(160, 360, 1, 1)"}, 
      "inputs": []
    }, 
    {
      "op": "null", 
      "name": "pyramid_residual_1.residual_denseblock_6.dense_block.denselayer6.conv_1.bias", 
      "attrs": {"__shape__": "(160,)"}, 
      "inputs": []
    }, 
    {
      "op": "Convolution", 
      "name": "convolution97", 
      "attrs": {
        "dilate": "(1, 1)", 
        "kernel": "(1, 1)", 
        "layout": "NCHW", 
        "no_bias": "False", 
        "num_filter": "160", 
        "num_group": "1", 
        "pad": "(0, 0)", 
        "stride": "(1, 1)"
      }, 
      "inputs": [[432, 0, 0], [433, 0, 0], [434, 0, 0]]
    }, 
    {
      "op": "relu", 
      "name": "relu45", 
      "inputs": [[435, 0, 0]]
    }, 
    {
      "op": "Pad", 
      "name": "pad46", 
      "attrs": {
        "mode": "reflect", 
        "pad_width": "(0, 0, 0, 0, 1, 1, 1, 1)"
      }, 
      "inputs": [[436, 0, 0]]
    }, 
    {
      "op": "null", 
      "name": "pyramid_residual_1.residual_denseblock_6.dense_block.denselayer6.conv_2.conv.1.weight", 
      "attrs": {"__shape__": "(40, 160, 3, 3)"}, 
      "inputs": []
    }, 
    {
      "op": "null", 
      "name": "pyramid_residual_1.residual_denseblock_6.dense_block.denselayer6.conv_2.conv.1.bias", 
      "attrs": {"__shape__": "(40,)"}, 
      "inputs": []
    }, 
    {
      "op": "Convolution", 
      "name": "convolution98", 
      "attrs": {
        "dilate": "(1, 1)", 
        "kernel": "(3, 3)", 
        "layout": "NCHW", 
        "no_bias": "False", 
        "num_filter": "40", 
        "num_group": "1", 
        "pad": "(0, 0)", 
        "stride": "(1, 1)"
      }, 
      "inputs": [[437, 0, 0], [438, 0, 0], [439, 0, 0]]
    }, 
    {
      "op": "Concat", 
      "name": "concat45", 
      "attrs": {
        "dim": "1", 
        "num_args": "2"
      }, 
      "inputs": [[432, 0, 0], [440, 0, 0]]
    }, 
    {
      "op": "null", 
      "name": "pyramid_residual_1.residual_denseblock_6.dense_block.denselayer7.conv_1.weight", 
      "attrs": {"__shape__": "(160, 400, 1, 1)"}, 
      "inputs": []
    }, 
    {
      "op": "null", 
      "name": "pyramid_residual_1.residual_denseblock_6.dense_block.denselayer7.conv_1.bias", 
      "attrs": {"__shape__": "(160,)"}, 
      "inputs": []
    }, 
    {
      "op": "Convolution", 
      "name": "convolution99", 
      "attrs": {
        "dilate": "(1, 1)", 
        "kernel": "(1, 1)", 
        "layout": "NCHW", 
        "no_bias": "False", 
        "num_filter": "160", 
        "num_group": "1", 
        "pad": "(0, 0)", 
        "stride": "(1, 1)"
      }, 
      "inputs": [[441, 0, 0], [442, 0, 0], [443, 0, 0]]
    }, 
    {
      "op": "relu", 
      "name": "relu46", 
      "inputs": [[444, 0, 0]]
    }, 
    {
      "op": "Pad", 
      "name": "pad47", 
      "attrs": {
        "mode": "reflect", 
        "pad_width": "(0, 0, 0, 0, 1, 1, 1, 1)"
      }, 
      "inputs": [[445, 0, 0]]
    }, 
    {
      "op": "null", 
      "name": "pyramid_residual_1.residual_denseblock_6.dense_block.denselayer7.conv_2.conv.1.weight", 
      "attrs": {"__shape__": "(40, 160, 3, 3)"}, 
      "inputs": []
    }, 
    {
      "op": "null", 
      "name": "pyramid_residual_1.residual_denseblock_6.dense_block.denselayer7.conv_2.conv.1.bias", 
      "attrs": {"__shape__": "(40,)"}, 
      "inputs": []
    }, 
    {
      "op": "Convolution", 
      "name": "convolution100", 
      "attrs": {
        "dilate": "(1, 1)", 
        "kernel": "(3, 3)", 
        "layout": "NCHW", 
        "no_bias": "False", 
        "num_filter": "40", 
        "num_group": "1", 
        "pad": "(0, 0)", 
        "stride": "(1, 1)"
      }, 
      "inputs": [[446, 0, 0], [447, 0, 0], [448, 0, 0]]
    }, 
    {
      "op": "Concat", 
      "name": "concat46", 
      "attrs": {
        "dim": "1", 
        "num_args": "2"
      }, 
      "inputs": [[441, 0, 0], [449, 0, 0]]
    }, 
    {
      "op": "null", 
      "name": "pyramid_residual_1.residual_denseblock_6.dense_block.denselayer8.conv_1.weight", 
      "attrs": {"__shape__": "(160, 440, 1, 1)"}, 
      "inputs": []
    }, 
    {
      "op": "null", 
      "name": "pyramid_residual_1.residual_denseblock_6.dense_block.denselayer8.conv_1.bias", 
      "attrs": {"__shape__": "(160,)"}, 
      "inputs": []
    }, 
    {
      "op": "Convolution", 
      "name": "convolution101", 
      "attrs": {
        "dilate": "(1, 1)", 
        "kernel": "(1, 1)", 
        "layout": "NCHW", 
        "no_bias": "False", 
        "num_filter": "160", 
        "num_group": "1", 
        "pad": "(0, 0)", 
        "stride": "(1, 1)"
      }, 
      "inputs": [[450, 0, 0], [451, 0, 0], [452, 0, 0]]
    }, 
    {
      "op": "relu", 
      "name": "relu47", 
      "inputs": [[453, 0, 0]]
    }, 
    {
      "op": "Pad", 
      "name": "pad48", 
      "attrs": {
        "mode": "reflect", 
        "pad_width": "(0, 0, 0, 0, 1, 1, 1, 1)"
      }, 
      "inputs": [[454, 0, 0]]
    }, 
    {
      "op": "null", 
      "name": "pyramid_residual_1.residual_denseblock_6.dense_block.denselayer8.conv_2.conv.1.weight", 
      "attrs": {"__shape__": "(40, 160, 3, 3)"}, 
      "inputs": []
    }, 
    {
      "op": "null", 
      "name": "pyramid_residual_1.residual_denseblock_6.dense_block.denselayer8.conv_2.conv.1.bias", 
      "attrs": {"__shape__": "(40,)"}, 
      "inputs": []
    }, 
    {
      "op": "Convolution", 
      "name": "convolution102", 
      "attrs": {
        "dilate": "(1, 1)", 
        "kernel": "(3, 3)", 
        "layout": "NCHW", 
        "no_bias": "False", 
        "num_filter": "40", 
        "num_group": "1", 
        "pad": "(0, 0)", 
        "stride": "(1, 1)"
      }, 
      "inputs": [[455, 0, 0], [456, 0, 0], [457, 0, 0]]
    }, 
    {
      "op": "Concat", 
      "name": "concat47", 
      "attrs": {
        "dim": "1", 
        "num_args": "2"
      }, 
      "inputs": [[450, 0, 0], [458, 0, 0]]
    }, 
    {
      "op": "null", 
      "name": "pyramid_residual_1.residual_denseblock_6.comp.conv1.weight", 
      "attrs": {"__shape__": "(160, 480, 1, 1)"}, 
      "inputs": []
    }, 
    {
      "op": "Convolution", 
      "name": "convolution103", 
      "attrs": {
        "dilate": "(1, 1)", 
        "kernel": "(1, 1)", 
        "layout": "NCHW", 
        "no_bias": "True", 
        "num_filter": "160", 
        "num_group": "1", 
        "pad": "(0, 0)", 
        "stride": "(1, 1)"
      }, 
      "inputs": [[459, 0, 0], [460, 0, 0]]
    }, 
    {
      "op": "_mul_scalar", 
      "name": "_mulscalar5", 
      "attrs": {"scalar": "0.2"}, 
      "inputs": [[461, 0, 0]]
    }, 
    {
      "op": "broadcast_add", 
      "name": "broadcast_add5", 
      "inputs": [[462, 0, 0], [387, 0, 0]]
    }, 
    {
      "op": "null", 
      "name": "pyramid_residual_1.residual_denseblock_7.dense_block.denselayer1.conv_1.weight", 
      "attrs": {"__shape__": "(160, 160, 1, 1)"}, 
      "inputs": []
    }, 
    {
      "op": "null", 
      "name": "pyramid_residual_1.residual_denseblock_7.dense_block.denselayer1.conv_1.bias", 
      "attrs": {"__shape__": "(160,)"}, 
      "inputs": []
    }, 
    {
      "op": "Convolution", 
      "name": "convolution104", 
      "attrs": {
        "dilate": "(1, 1)", 
        "kernel": "(1, 1)", 
        "layout": "NCHW", 
        "no_bias": "False", 
        "num_filter": "160", 
        "num_group": "1", 
        "pad": "(0, 0)", 
        "stride": "(1, 1)"
      }, 
      "inputs": [[463, 0, 0], [464, 0, 0], [465, 0, 0]]
    }, 
    {
      "op": "relu", 
      "name": "relu48", 
      "inputs": [[466, 0, 0]]
    }, 
    {
      "op": "Pad", 
      "name": "pad49", 
      "attrs": {
        "mode": "reflect", 
        "pad_width": "(0, 0, 0, 0, 1, 1, 1, 1)"
      }, 
      "inputs": [[467, 0, 0]]
    }, 
    {
      "op": "null", 
      "name": "pyramid_residual_1.residual_denseblock_7.dense_block.denselayer1.conv_2.conv.1.weight", 
      "attrs": {"__shape__": "(40, 160, 3, 3)"}, 
      "inputs": []
    }, 
    {
      "op": "null", 
      "name": "pyramid_residual_1.residual_denseblock_7.dense_block.denselayer1.conv_2.conv.1.bias", 
      "attrs": {"__shape__": "(40,)"}, 
      "inputs": []
    }, 
    {
      "op": "Convolution", 
      "name": "convolution105", 
      "attrs": {
        "dilate": "(1, 1)", 
        "kernel": "(3, 3)", 
        "layout": "NCHW", 
        "no_bias": "False", 
        "num_filter": "40", 
        "num_group": "1", 
        "pad": "(0, 0)", 
        "stride": "(1, 1)"
      }, 
      "inputs": [[468, 0, 0], [469, 0, 0], [470, 0, 0]]
    }, 
    {
      "op": "Concat", 
      "name": "concat48", 
      "attrs": {
        "dim": "1", 
        "num_args": "2"
      }, 
      "inputs": [[463, 0, 0], [471, 0, 0]]
    }, 
    {
      "op": "null", 
      "name": "pyramid_residual_1.residual_denseblock_7.dense_block.denselayer2.conv_1.weight", 
      "attrs": {"__shape__": "(160, 200, 1, 1)"}, 
      "inputs": []
    }, 
    {
      "op": "null", 
      "name": "pyramid_residual_1.residual_denseblock_7.dense_block.denselayer2.conv_1.bias", 
      "attrs": {"__shape__": "(160,)"}, 
      "inputs": []
    }, 
    {
      "op": "Convolution", 
      "name": "convolution106", 
      "attrs": {
        "dilate": "(1, 1)", 
        "kernel": "(1, 1)", 
        "layout": "NCHW", 
        "no_bias": "False", 
        "num_filter": "160", 
        "num_group": "1", 
        "pad": "(0, 0)", 
        "stride": "(1, 1)"
      }, 
      "inputs": [[472, 0, 0], [473, 0, 0], [474, 0, 0]]
    }, 
    {
      "op": "relu", 
      "name": "relu49", 
      "inputs": [[475, 0, 0]]
    }, 
    {
      "op": "Pad", 
      "name": "pad50", 
      "attrs": {
        "mode": "reflect", 
        "pad_width": "(0, 0, 0, 0, 1, 1, 1, 1)"
      }, 
      "inputs": [[476, 0, 0]]
    }, 
    {
      "op": "null", 
      "name": "pyramid_residual_1.residual_denseblock_7.dense_block.denselayer2.conv_2.conv.1.weight", 
      "attrs": {"__shape__": "(40, 160, 3, 3)"}, 
      "inputs": []
    }, 
    {
      "op": "null", 
      "name": "pyramid_residual_1.residual_denseblock_7.dense_block.denselayer2.conv_2.conv.1.bias", 
      "attrs": {"__shape__": "(40,)"}, 
      "inputs": []
    }, 
    {
      "op": "Convolution", 
      "name": "convolution107", 
      "attrs": {
        "dilate": "(1, 1)", 
        "kernel": "(3, 3)", 
        "layout": "NCHW", 
        "no_bias": "False", 
        "num_filter": "40", 
        "num_group": "1", 
        "pad": "(0, 0)", 
        "stride": "(1, 1)"
      }, 
      "inputs": [[477, 0, 0], [478, 0, 0], [479, 0, 0]]
    }, 
    {
      "op": "Concat", 
      "name": "concat49", 
      "attrs": {
        "dim": "1", 
        "num_args": "2"
      }, 
      "inputs": [[472, 0, 0], [480, 0, 0]]
    }, 
    {
      "op": "null", 
      "name": "pyramid_residual_1.residual_denseblock_7.dense_block.denselayer3.conv_1.weight", 
      "attrs": {"__shape__": "(160, 240, 1, 1)"}, 
      "inputs": []
    }, 
    {
      "op": "null", 
      "name": "pyramid_residual_1.residual_denseblock_7.dense_block.denselayer3.conv_1.bias", 
      "attrs": {"__shape__": "(160,)"}, 
      "inputs": []
    }, 
    {
      "op": "Convolution", 
      "name": "convolution108", 
      "attrs": {
        "dilate": "(1, 1)", 
        "kernel": "(1, 1)", 
        "layout": "NCHW", 
        "no_bias": "False", 
        "num_filter": "160", 
        "num_group": "1", 
        "pad": "(0, 0)", 
        "stride": "(1, 1)"
      }, 
      "inputs": [[481, 0, 0], [482, 0, 0], [483, 0, 0]]
    }, 
    {
      "op": "relu", 
      "name": "relu50", 
      "inputs": [[484, 0, 0]]
    }, 
    {
      "op": "Pad", 
      "name": "pad51", 
      "attrs": {
        "mode": "reflect", 
        "pad_width": "(0, 0, 0, 0, 1, 1, 1, 1)"
      }, 
      "inputs": [[485, 0, 0]]
    }, 
    {
      "op": "null", 
      "name": "pyramid_residual_1.residual_denseblock_7.dense_block.denselayer3.conv_2.conv.1.weight", 
      "attrs": {"__shape__": "(40, 160, 3, 3)"}, 
      "inputs": []
    }, 
    {
      "op": "null", 
      "name": "pyramid_residual_1.residual_denseblock_7.dense_block.denselayer3.conv_2.conv.1.bias", 
      "attrs": {"__shape__": "(40,)"}, 
      "inputs": []
    }, 
    {
      "op": "Convolution", 
      "name": "convolution109", 
      "attrs": {
        "dilate": "(1, 1)", 
        "kernel": "(3, 3)", 
        "layout": "NCHW", 
        "no_bias": "False", 
        "num_filter": "40", 
        "num_group": "1", 
        "pad": "(0, 0)", 
        "stride": "(1, 1)"
      }, 
      "inputs": [[486, 0, 0], [487, 0, 0], [488, 0, 0]]
    }, 
    {
      "op": "Concat", 
      "name": "concat50", 
      "attrs": {
        "dim": "1", 
        "num_args": "2"
      }, 
      "inputs": [[481, 0, 0], [489, 0, 0]]
    }, 
    {
      "op": "null", 
      "name": "pyramid_residual_1.residual_denseblock_7.dense_block.denselayer4.conv_1.weight", 
      "attrs": {"__shape__": "(160, 280, 1, 1)"}, 
      "inputs": []
    }, 
    {
      "op": "null", 
      "name": "pyramid_residual_1.residual_denseblock_7.dense_block.denselayer4.conv_1.bias", 
      "attrs": {"__shape__": "(160,)"}, 
      "inputs": []
    }, 
    {
      "op": "Convolution", 
      "name": "convolution110", 
      "attrs": {
        "dilate": "(1, 1)", 
        "kernel": "(1, 1)", 
        "layout": "NCHW", 
        "no_bias": "False", 
        "num_filter": "160", 
        "num_group": "1", 
        "pad": "(0, 0)", 
        "stride": "(1, 1)"
      }, 
      "inputs": [[490, 0, 0], [491, 0, 0], [492, 0, 0]]
    }, 
    {
      "op": "relu", 
      "name": "relu51", 
      "inputs": [[493, 0, 0]]
    }, 
    {
      "op": "Pad", 
      "name": "pad52", 
      "attrs": {
        "mode": "reflect", 
        "pad_width": "(0, 0, 0, 0, 1, 1, 1, 1)"
      }, 
      "inputs": [[494, 0, 0]]
    }, 
    {
      "op": "null", 
      "name": "pyramid_residual_1.residual_denseblock_7.dense_block.denselayer4.conv_2.conv.1.weight", 
      "attrs": {"__shape__": "(40, 160, 3, 3)"}, 
      "inputs": []
    }, 
    {
      "op": "null", 
      "name": "pyramid_residual_1.residual_denseblock_7.dense_block.denselayer4.conv_2.conv.1.bias", 
      "attrs": {"__shape__": "(40,)"}, 
      "inputs": []
    }, 
    {
      "op": "Convolution", 
      "name": "convolution111", 
      "attrs": {
        "dilate": "(1, 1)", 
        "kernel": "(3, 3)", 
        "layout": "NCHW", 
        "no_bias": "False", 
        "num_filter": "40", 
        "num_group": "1", 
        "pad": "(0, 0)", 
        "stride": "(1, 1)"
      }, 
      "inputs": [[495, 0, 0], [496, 0, 0], [497, 0, 0]]
    }, 
    {
      "op": "Concat", 
      "name": "concat51", 
      "attrs": {
        "dim": "1", 
        "num_args": "2"
      }, 
      "inputs": [[490, 0, 0], [498, 0, 0]]
    }, 
    {
      "op": "null", 
      "name": "pyramid_residual_1.residual_denseblock_7.dense_block.denselayer5.conv_1.weight", 
      "attrs": {"__shape__": "(160, 320, 1, 1)"}, 
      "inputs": []
    }, 
    {
      "op": "null", 
      "name": "pyramid_residual_1.residual_denseblock_7.dense_block.denselayer5.conv_1.bias", 
      "attrs": {"__shape__": "(160,)"}, 
      "inputs": []
    }, 
    {
      "op": "Convolution", 
      "name": "convolution112", 
      "attrs": {
        "dilate": "(1, 1)", 
        "kernel": "(1, 1)", 
        "layout": "NCHW", 
        "no_bias": "False", 
        "num_filter": "160", 
        "num_group": "1", 
        "pad": "(0, 0)", 
        "stride": "(1, 1)"
      }, 
      "inputs": [[499, 0, 0], [500, 0, 0], [501, 0, 0]]
    }, 
    {
      "op": "relu", 
      "name": "relu52", 
      "inputs": [[502, 0, 0]]
    }, 
    {
      "op": "Pad", 
      "name": "pad53", 
      "attrs": {
        "mode": "reflect", 
        "pad_width": "(0, 0, 0, 0, 1, 1, 1, 1)"
      }, 
      "inputs": [[503, 0, 0]]
    }, 
    {
      "op": "null", 
      "name": "pyramid_residual_1.residual_denseblock_7.dense_block.denselayer5.conv_2.conv.1.weight", 
      "attrs": {"__shape__": "(40, 160, 3, 3)"}, 
      "inputs": []
    }, 
    {
      "op": "null", 
      "name": "pyramid_residual_1.residual_denseblock_7.dense_block.denselayer5.conv_2.conv.1.bias", 
      "attrs": {"__shape__": "(40,)"}, 
      "inputs": []
    }, 
    {
      "op": "Convolution", 
      "name": "convolution113", 
      "attrs": {
        "dilate": "(1, 1)", 
        "kernel": "(3, 3)", 
        "layout": "NCHW", 
        "no_bias": "False", 
        "num_filter": "40", 
        "num_group": "1", 
        "pad": "(0, 0)", 
        "stride": "(1, 1)"
      }, 
      "inputs": [[504, 0, 0], [505, 0, 0], [506, 0, 0]]
    }, 
    {
      "op": "Concat", 
      "name": "concat52", 
      "attrs": {
        "dim": "1", 
        "num_args": "2"
      }, 
      "inputs": [[499, 0, 0], [507, 0, 0]]
    }, 
    {
      "op": "null", 
      "name": "pyramid_residual_1.residual_denseblock_7.dense_block.denselayer6.conv_1.weight", 
      "attrs": {"__shape__": "(160, 360, 1, 1)"}, 
      "inputs": []
    }, 
    {
      "op": "null", 
      "name": "pyramid_residual_1.residual_denseblock_7.dense_block.denselayer6.conv_1.bias", 
      "attrs": {"__shape__": "(160,)"}, 
      "inputs": []
    }, 
    {
      "op": "Convolution", 
      "name": "convolution114", 
      "attrs": {
        "dilate": "(1, 1)", 
        "kernel": "(1, 1)", 
        "layout": "NCHW", 
        "no_bias": "False", 
        "num_filter": "160", 
        "num_group": "1", 
        "pad": "(0, 0)", 
        "stride": "(1, 1)"
      }, 
      "inputs": [[508, 0, 0], [509, 0, 0], [510, 0, 0]]
    }, 
    {
      "op": "relu", 
      "name": "relu53", 
      "inputs": [[511, 0, 0]]
    }, 
    {
      "op": "Pad", 
      "name": "pad54", 
      "attrs": {
        "mode": "reflect", 
        "pad_width": "(0, 0, 0, 0, 1, 1, 1, 1)"
      }, 
      "inputs": [[512, 0, 0]]
    }, 
    {
      "op": "null", 
      "name": "pyramid_residual_1.residual_denseblock_7.dense_block.denselayer6.conv_2.conv.1.weight", 
      "attrs": {"__shape__": "(40, 160, 3, 3)"}, 
      "inputs": []
    }, 
    {
      "op": "null", 
      "name": "pyramid_residual_1.residual_denseblock_7.dense_block.denselayer6.conv_2.conv.1.bias", 
      "attrs": {"__shape__": "(40,)"}, 
      "inputs": []
    }, 
    {
      "op": "Convolution", 
      "name": "convolution115", 
      "attrs": {
        "dilate": "(1, 1)", 
        "kernel": "(3, 3)", 
        "layout": "NCHW", 
        "no_bias": "False", 
        "num_filter": "40", 
        "num_group": "1", 
        "pad": "(0, 0)", 
        "stride": "(1, 1)"
      }, 
      "inputs": [[513, 0, 0], [514, 0, 0], [515, 0, 0]]
    }, 
    {
      "op": "Concat", 
      "name": "concat53", 
      "attrs": {
        "dim": "1", 
        "num_args": "2"
      }, 
      "inputs": [[508, 0, 0], [516, 0, 0]]
    }, 
    {
      "op": "null", 
      "name": "pyramid_residual_1.residual_denseblock_7.dense_block.denselayer7.conv_1.weight", 
      "attrs": {"__shape__": "(160, 400, 1, 1)"}, 
      "inputs": []
    }, 
    {
      "op": "null", 
      "name": "pyramid_residual_1.residual_denseblock_7.dense_block.denselayer7.conv_1.bias", 
      "attrs": {"__shape__": "(160,)"}, 
      "inputs": []
    }, 
    {
      "op": "Convolution", 
      "name": "convolution116", 
      "attrs": {
        "dilate": "(1, 1)", 
        "kernel": "(1, 1)", 
        "layout": "NCHW", 
        "no_bias": "False", 
        "num_filter": "160", 
        "num_group": "1", 
        "pad": "(0, 0)", 
        "stride": "(1, 1)"
      }, 
      "inputs": [[517, 0, 0], [518, 0, 0], [519, 0, 0]]
    }, 
    {
      "op": "relu", 
      "name": "relu54", 
      "inputs": [[520, 0, 0]]
    }, 
    {
      "op": "Pad", 
      "name": "pad55", 
      "attrs": {
        "mode": "reflect", 
        "pad_width": "(0, 0, 0, 0, 1, 1, 1, 1)"
      }, 
      "inputs": [[521, 0, 0]]
    }, 
    {
      "op": "null", 
      "name": "pyramid_residual_1.residual_denseblock_7.dense_block.denselayer7.conv_2.conv.1.weight", 
      "attrs": {"__shape__": "(40, 160, 3, 3)"}, 
      "inputs": []
    }, 
    {
      "op": "null", 
      "name": "pyramid_residual_1.residual_denseblock_7.dense_block.denselayer7.conv_2.conv.1.bias", 
      "attrs": {"__shape__": "(40,)"}, 
      "inputs": []
    }, 
    {
      "op": "Convolution", 
      "name": "convolution117", 
      "attrs": {
        "dilate": "(1, 1)", 
        "kernel": "(3, 3)", 
        "layout": "NCHW", 
        "no_bias": "False", 
        "num_filter": "40", 
        "num_group": "1", 
        "pad": "(0, 0)", 
        "stride": "(1, 1)"
      }, 
      "inputs": [[522, 0, 0], [523, 0, 0], [524, 0, 0]]
    }, 
    {
      "op": "Concat", 
      "name": "concat54", 
      "attrs": {
        "dim": "1", 
        "num_args": "2"
      }, 
      "inputs": [[517, 0, 0], [525, 0, 0]]
    }, 
    {
      "op": "null", 
      "name": "pyramid_residual_1.residual_denseblock_7.dense_block.denselayer8.conv_1.weight", 
      "attrs": {"__shape__": "(160, 440, 1, 1)"}, 
      "inputs": []
    }, 
    {
      "op": "null", 
      "name": "pyramid_residual_1.residual_denseblock_7.dense_block.denselayer8.conv_1.bias", 
      "attrs": {"__shape__": "(160,)"}, 
      "inputs": []
    }, 
    {
      "op": "Convolution", 
      "name": "convolution118", 
      "attrs": {
        "dilate": "(1, 1)", 
        "kernel": "(1, 1)", 
        "layout": "NCHW", 
        "no_bias": "False", 
        "num_filter": "160", 
        "num_group": "1", 
        "pad": "(0, 0)", 
        "stride": "(1, 1)"
      }, 
      "inputs": [[526, 0, 0], [527, 0, 0], [528, 0, 0]]
    }, 
    {
      "op": "relu", 
      "name": "relu55", 
      "inputs": [[529, 0, 0]]
    }, 
    {
      "op": "Pad", 
      "name": "pad56", 
      "attrs": {
        "mode": "reflect", 
        "pad_width": "(0, 0, 0, 0, 1, 1, 1, 1)"
      }, 
      "inputs": [[530, 0, 0]]
    }, 
    {
      "op": "null", 
      "name": "pyramid_residual_1.residual_denseblock_7.dense_block.denselayer8.conv_2.conv.1.weight", 
      "attrs": {"__shape__": "(40, 160, 3, 3)"}, 
      "inputs": []
    }, 
    {
      "op": "null", 
      "name": "pyramid_residual_1.residual_denseblock_7.dense_block.denselayer8.conv_2.conv.1.bias", 
      "attrs": {"__shape__": "(40,)"}, 
      "inputs": []
    }, 
    {
      "op": "Convolution", 
      "name": "convolution119", 
      "attrs": {
        "dilate": "(1, 1)", 
        "kernel": "(3, 3)", 
        "layout": "NCHW", 
        "no_bias": "False", 
        "num_filter": "40", 
        "num_group": "1", 
        "pad": "(0, 0)", 
        "stride": "(1, 1)"
      }, 
      "inputs": [[531, 0, 0], [532, 0, 0], [533, 0, 0]]
    }, 
    {
      "op": "Concat", 
      "name": "concat55", 
      "attrs": {
        "dim": "1", 
        "num_args": "2"
      }, 
      "inputs": [[526, 0, 0], [534, 0, 0]]
    }, 
    {
      "op": "null", 
      "name": "pyramid_residual_1.residual_denseblock_7.comp.conv1.weight", 
      "attrs": {"__shape__": "(160, 480, 1, 1)"}, 
      "inputs": []
    }, 
    {
      "op": "Convolution", 
      "name": "convolution120", 
      "attrs": {
        "dilate": "(1, 1)", 
        "kernel": "(1, 1)", 
        "layout": "NCHW", 
        "no_bias": "True", 
        "num_filter": "160", 
        "num_group": "1", 
        "pad": "(0, 0)", 
        "stride": "(1, 1)"
      }, 
      "inputs": [[535, 0, 0], [536, 0, 0]]
    }, 
    {
      "op": "_mul_scalar", 
      "name": "_mulscalar6", 
      "attrs": {"scalar": "0.2"}, 
      "inputs": [[537, 0, 0]]
    }, 
    {
      "op": "broadcast_add", 
      "name": "broadcast_add6", 
      "inputs": [[538, 0, 0], [463, 0, 0]]
    }, 
    {
      "op": "null", 
      "name": "pyramid_residual_1.residual_denseblock_8.dense_block.denselayer1.conv_1.weight", 
      "attrs": {"__shape__": "(160, 160, 1, 1)"}, 
      "inputs": []
    }, 
    {
      "op": "null", 
      "name": "pyramid_residual_1.residual_denseblock_8.dense_block.denselayer1.conv_1.bias", 
      "attrs": {"__shape__": "(160,)"}, 
      "inputs": []
    }, 
    {
      "op": "Convolution", 
      "name": "convolution121", 
      "attrs": {
        "dilate": "(1, 1)", 
        "kernel": "(1, 1)", 
        "layout": "NCHW", 
        "no_bias": "False", 
        "num_filter": "160", 
        "num_group": "1", 
        "pad": "(0, 0)", 
        "stride": "(1, 1)"
      }, 
      "inputs": [[539, 0, 0], [540, 0, 0], [541, 0, 0]]
    }, 
    {
      "op": "relu", 
      "name": "relu56", 
      "inputs": [[542, 0, 0]]
    }, 
    {
      "op": "Pad", 
      "name": "pad57", 
      "attrs": {
        "mode": "reflect", 
        "pad_width": "(0, 0, 0, 0, 1, 1, 1, 1)"
      }, 
      "inputs": [[543, 0, 0]]
    }, 
    {
      "op": "null", 
      "name": "pyramid_residual_1.residual_denseblock_8.dense_block.denselayer1.conv_2.conv.1.weight", 
      "attrs": {"__shape__": "(40, 160, 3, 3)"}, 
      "inputs": []
    }, 
    {
      "op": "null", 
      "name": "pyramid_residual_1.residual_denseblock_8.dense_block.denselayer1.conv_2.conv.1.bias", 
      "attrs": {"__shape__": "(40,)"}, 
      "inputs": []
    }, 
    {
      "op": "Convolution", 
      "name": "convolution122", 
      "attrs": {
        "dilate": "(1, 1)", 
        "kernel": "(3, 3)", 
        "layout": "NCHW", 
        "no_bias": "False", 
        "num_filter": "40", 
        "num_group": "1", 
        "pad": "(0, 0)", 
        "stride": "(1, 1)"
      }, 
      "inputs": [[544, 0, 0], [545, 0, 0], [546, 0, 0]]
    }, 
    {
      "op": "Concat", 
      "name": "concat56", 
      "attrs": {
        "dim": "1", 
        "num_args": "2"
      }, 
      "inputs": [[539, 0, 0], [547, 0, 0]]
    }, 
    {
      "op": "null", 
      "name": "pyramid_residual_1.residual_denseblock_8.dense_block.denselayer2.conv_1.weight", 
      "attrs": {"__shape__": "(160, 200, 1, 1)"}, 
      "inputs": []
    }, 
    {
      "op": "null", 
      "name": "pyramid_residual_1.residual_denseblock_8.dense_block.denselayer2.conv_1.bias", 
      "attrs": {"__shape__": "(160,)"}, 
      "inputs": []
    }, 
    {
      "op": "Convolution", 
      "name": "convolution123", 
      "attrs": {
        "dilate": "(1, 1)", 
        "kernel": "(1, 1)", 
        "layout": "NCHW", 
        "no_bias": "False", 
        "num_filter": "160", 
        "num_group": "1", 
        "pad": "(0, 0)", 
        "stride": "(1, 1)"
      }, 
      "inputs": [[548, 0, 0], [549, 0, 0], [550, 0, 0]]
    }, 
    {
      "op": "relu", 
      "name": "relu57", 
      "inputs": [[551, 0, 0]]
    }, 
    {
      "op": "Pad", 
      "name": "pad58", 
      "attrs": {
        "mode": "reflect", 
        "pad_width": "(0, 0, 0, 0, 1, 1, 1, 1)"
      }, 
      "inputs": [[552, 0, 0]]
    }, 
    {
      "op": "null", 
      "name": "pyramid_residual_1.residual_denseblock_8.dense_block.denselayer2.conv_2.conv.1.weight", 
      "attrs": {"__shape__": "(40, 160, 3, 3)"}, 
      "inputs": []
    }, 
    {
      "op": "null", 
      "name": "pyramid_residual_1.residual_denseblock_8.dense_block.denselayer2.conv_2.conv.1.bias", 
      "attrs": {"__shape__": "(40,)"}, 
      "inputs": []
    }, 
    {
      "op": "Convolution", 
      "name": "convolution124", 
      "attrs": {
        "dilate": "(1, 1)", 
        "kernel": "(3, 3)", 
        "layout": "NCHW", 
        "no_bias": "False", 
        "num_filter": "40", 
        "num_group": "1", 
        "pad": "(0, 0)", 
        "stride": "(1, 1)"
      }, 
      "inputs": [[553, 0, 0], [554, 0, 0], [555, 0, 0]]
    }, 
    {
      "op": "Concat", 
      "name": "concat57", 
      "attrs": {
        "dim": "1", 
        "num_args": "2"
      }, 
      "inputs": [[548, 0, 0], [556, 0, 0]]
    }, 
    {
      "op": "null", 
      "name": "pyramid_residual_1.residual_denseblock_8.dense_block.denselayer3.conv_1.weight", 
      "attrs": {"__shape__": "(160, 240, 1, 1)"}, 
      "inputs": []
    }, 
    {
      "op": "null", 
      "name": "pyramid_residual_1.residual_denseblock_8.dense_block.denselayer3.conv_1.bias", 
      "attrs": {"__shape__": "(160,)"}, 
      "inputs": []
    }, 
    {
      "op": "Convolution", 
      "name": "convolution125", 
      "attrs": {
        "dilate": "(1, 1)", 
        "kernel": "(1, 1)", 
        "layout": "NCHW", 
        "no_bias": "False", 
        "num_filter": "160", 
        "num_group": "1", 
        "pad": "(0, 0)", 
        "stride": "(1, 1)"
      }, 
      "inputs": [[557, 0, 0], [558, 0, 0], [559, 0, 0]]
    }, 
    {
      "op": "relu", 
      "name": "relu58", 
      "inputs": [[560, 0, 0]]
    }, 
    {
      "op": "Pad", 
      "name": "pad59", 
      "attrs": {
        "mode": "reflect", 
        "pad_width": "(0, 0, 0, 0, 1, 1, 1, 1)"
      }, 
      "inputs": [[561, 0, 0]]
    }, 
    {
      "op": "null", 
      "name": "pyramid_residual_1.residual_denseblock_8.dense_block.denselayer3.conv_2.conv.1.weight", 
      "attrs": {"__shape__": "(40, 160, 3, 3)"}, 
      "inputs": []
    }, 
    {
      "op": "null", 
      "name": "pyramid_residual_1.residual_denseblock_8.dense_block.denselayer3.conv_2.conv.1.bias", 
      "attrs": {"__shape__": "(40,)"}, 
      "inputs": []
    }, 
    {
      "op": "Convolution", 
      "name": "convolution126", 
      "attrs": {
        "dilate": "(1, 1)", 
        "kernel": "(3, 3)", 
        "layout": "NCHW", 
        "no_bias": "False", 
        "num_filter": "40", 
        "num_group": "1", 
        "pad": "(0, 0)", 
        "stride": "(1, 1)"
      }, 
      "inputs": [[562, 0, 0], [563, 0, 0], [564, 0, 0]]
    }, 
    {
      "op": "Concat", 
      "name": "concat58", 
      "attrs": {
        "dim": "1", 
        "num_args": "2"
      }, 
      "inputs": [[557, 0, 0], [565, 0, 0]]
    }, 
    {
      "op": "null", 
      "name": "pyramid_residual_1.residual_denseblock_8.dense_block.denselayer4.conv_1.weight", 
      "attrs": {"__shape__": "(160, 280, 1, 1)"}, 
      "inputs": []
    }, 
    {
      "op": "null", 
      "name": "pyramid_residual_1.residual_denseblock_8.dense_block.denselayer4.conv_1.bias", 
      "attrs": {"__shape__": "(160,)"}, 
      "inputs": []
    }, 
    {
      "op": "Convolution", 
      "name": "convolution127", 
      "attrs": {
        "dilate": "(1, 1)", 
        "kernel": "(1, 1)", 
        "layout": "NCHW", 
        "no_bias": "False", 
        "num_filter": "160", 
        "num_group": "1", 
        "pad": "(0, 0)", 
        "stride": "(1, 1)"
      }, 
      "inputs": [[566, 0, 0], [567, 0, 0], [568, 0, 0]]
    }, 
    {
      "op": "relu", 
      "name": "relu59", 
      "inputs": [[569, 0, 0]]
    }, 
    {
      "op": "Pad", 
      "name": "pad60", 
      "attrs": {
        "mode": "reflect", 
        "pad_width": "(0, 0, 0, 0, 1, 1, 1, 1)"
      }, 
      "inputs": [[570, 0, 0]]
    }, 
    {
      "op": "null", 
      "name": "pyramid_residual_1.residual_denseblock_8.dense_block.denselayer4.conv_2.conv.1.weight", 
      "attrs": {"__shape__": "(40, 160, 3, 3)"}, 
      "inputs": []
    }, 
    {
      "op": "null", 
      "name": "pyramid_residual_1.residual_denseblock_8.dense_block.denselayer4.conv_2.conv.1.bias", 
      "attrs": {"__shape__": "(40,)"}, 
      "inputs": []
    }, 
    {
      "op": "Convolution", 
      "name": "convolution128", 
      "attrs": {
        "dilate": "(1, 1)", 
        "kernel": "(3, 3)", 
        "layout": "NCHW", 
        "no_bias": "False", 
        "num_filter": "40", 
        "num_group": "1", 
        "pad": "(0, 0)", 
        "stride": "(1, 1)"
      }, 
      "inputs": [[571, 0, 0], [572, 0, 0], [573, 0, 0]]
    }, 
    {
      "op": "Concat", 
      "name": "concat59", 
      "attrs": {
        "dim": "1", 
        "num_args": "2"
      }, 
      "inputs": [[566, 0, 0], [574, 0, 0]]
    }, 
    {
      "op": "null", 
      "name": "pyramid_residual_1.residual_denseblock_8.dense_block.denselayer5.conv_1.weight", 
      "attrs": {"__shape__": "(160, 320, 1, 1)"}, 
      "inputs": []
    }, 
    {
      "op": "null", 
      "name": "pyramid_residual_1.residual_denseblock_8.dense_block.denselayer5.conv_1.bias", 
      "attrs": {"__shape__": "(160,)"}, 
      "inputs": []
    }, 
    {
      "op": "Convolution", 
      "name": "convolution129", 
      "attrs": {
        "dilate": "(1, 1)", 
        "kernel": "(1, 1)", 
        "layout": "NCHW", 
        "no_bias": "False", 
        "num_filter": "160", 
        "num_group": "1", 
        "pad": "(0, 0)", 
        "stride": "(1, 1)"
      }, 
      "inputs": [[575, 0, 0], [576, 0, 0], [577, 0, 0]]
    }, 
    {
      "op": "relu", 
      "name": "relu60", 
      "inputs": [[578, 0, 0]]
    }, 
    {
      "op": "Pad", 
      "name": "pad61", 
      "attrs": {
        "mode": "reflect", 
        "pad_width": "(0, 0, 0, 0, 1, 1, 1, 1)"
      }, 
      "inputs": [[579, 0, 0]]
    }, 
    {
      "op": "null", 
      "name": "pyramid_residual_1.residual_denseblock_8.dense_block.denselayer5.conv_2.conv.1.weight", 
      "attrs": {"__shape__": "(40, 160, 3, 3)"}, 
      "inputs": []
    }, 
    {
      "op": "null", 
      "name": "pyramid_residual_1.residual_denseblock_8.dense_block.denselayer5.conv_2.conv.1.bias", 
      "attrs": {"__shape__": "(40,)"}, 
      "inputs": []
    }, 
    {
      "op": "Convolution", 
      "name": "convolution130", 
      "attrs": {
        "dilate": "(1, 1)", 
        "kernel": "(3, 3)", 
        "layout": "NCHW", 
        "no_bias": "False", 
        "num_filter": "40", 
        "num_group": "1", 
        "pad": "(0, 0)", 
        "stride": "(1, 1)"
      }, 
      "inputs": [[580, 0, 0], [581, 0, 0], [582, 0, 0]]
    }, 
    {
      "op": "Concat", 
      "name": "concat60", 
      "attrs": {
        "dim": "1", 
        "num_args": "2"
      }, 
      "inputs": [[575, 0, 0], [583, 0, 0]]
    }, 
    {
      "op": "null", 
      "name": "pyramid_residual_1.residual_denseblock_8.dense_block.denselayer6.conv_1.weight", 
      "attrs": {"__shape__": "(160, 360, 1, 1)"}, 
      "inputs": []
    }, 
    {
      "op": "null", 
      "name": "pyramid_residual_1.residual_denseblock_8.dense_block.denselayer6.conv_1.bias", 
      "attrs": {"__shape__": "(160,)"}, 
      "inputs": []
    }, 
    {
      "op": "Convolution", 
      "name": "convolution131", 
      "attrs": {
        "dilate": "(1, 1)", 
        "kernel": "(1, 1)", 
        "layout": "NCHW", 
        "no_bias": "False", 
        "num_filter": "160", 
        "num_group": "1", 
        "pad": "(0, 0)", 
        "stride": "(1, 1)"
      }, 
      "inputs": [[584, 0, 0], [585, 0, 0], [586, 0, 0]]
    }, 
    {
      "op": "relu", 
      "name": "relu61", 
      "inputs": [[587, 0, 0]]
    }, 
    {
      "op": "Pad", 
      "name": "pad62", 
      "attrs": {
        "mode": "reflect", 
        "pad_width": "(0, 0, 0, 0, 1, 1, 1, 1)"
      }, 
      "inputs": [[588, 0, 0]]
    }, 
    {
      "op": "null", 
      "name": "pyramid_residual_1.residual_denseblock_8.dense_block.denselayer6.conv_2.conv.1.weight", 
      "attrs": {"__shape__": "(40, 160, 3, 3)"}, 
      "inputs": []
    }, 
    {
      "op": "null", 
      "name": "pyramid_residual_1.residual_denseblock_8.dense_block.denselayer6.conv_2.conv.1.bias", 
      "attrs": {"__shape__": "(40,)"}, 
      "inputs": []
    }, 
    {
      "op": "Convolution", 
      "name": "convolution132", 
      "attrs": {
        "dilate": "(1, 1)", 
        "kernel": "(3, 3)", 
        "layout": "NCHW", 
        "no_bias": "False", 
        "num_filter": "40", 
        "num_group": "1", 
        "pad": "(0, 0)", 
        "stride": "(1, 1)"
      }, 
      "inputs": [[589, 0, 0], [590, 0, 0], [591, 0, 0]]
    }, 
    {
      "op": "Concat", 
      "name": "concat61", 
      "attrs": {
        "dim": "1", 
        "num_args": "2"
      }, 
      "inputs": [[584, 0, 0], [592, 0, 0]]
    }, 
    {
      "op": "null", 
      "name": "pyramid_residual_1.residual_denseblock_8.dense_block.denselayer7.conv_1.weight", 
      "attrs": {"__shape__": "(160, 400, 1, 1)"}, 
      "inputs": []
    }, 
    {
      "op": "null", 
      "name": "pyramid_residual_1.residual_denseblock_8.dense_block.denselayer7.conv_1.bias", 
      "attrs": {"__shape__": "(160,)"}, 
      "inputs": []
    }, 
    {
      "op": "Convolution", 
      "name": "convolution133", 
      "attrs": {
        "dilate": "(1, 1)", 
        "kernel": "(1, 1)", 
        "layout": "NCHW", 
        "no_bias": "False", 
        "num_filter": "160", 
        "num_group": "1", 
        "pad": "(0, 0)", 
        "stride": "(1, 1)"
      }, 
      "inputs": [[593, 0, 0], [594, 0, 0], [595, 0, 0]]
    }, 
    {
      "op": "relu", 
      "name": "relu62", 
      "inputs": [[596, 0, 0]]
    }, 
    {
      "op": "Pad", 
      "name": "pad63", 
      "attrs": {
        "mode": "reflect", 
        "pad_width": "(0, 0, 0, 0, 1, 1, 1, 1)"
      }, 
      "inputs": [[597, 0, 0]]
    }, 
    {
      "op": "null", 
      "name": "pyramid_residual_1.residual_denseblock_8.dense_block.denselayer7.conv_2.conv.1.weight", 
      "attrs": {"__shape__": "(40, 160, 3, 3)"}, 
      "inputs": []
    }, 
    {
      "op": "null", 
      "name": "pyramid_residual_1.residual_denseblock_8.dense_block.denselayer7.conv_2.conv.1.bias", 
      "attrs": {"__shape__": "(40,)"}, 
      "inputs": []
    }, 
    {
      "op": "Convolution", 
      "name": "convolution134", 
      "attrs": {
        "dilate": "(1, 1)", 
        "kernel": "(3, 3)", 
        "layout": "NCHW", 
        "no_bias": "False", 
        "num_filter": "40", 
        "num_group": "1", 
        "pad": "(0, 0)", 
        "stride": "(1, 1)"
      }, 
      "inputs": [[598, 0, 0], [599, 0, 0], [600, 0, 0]]
    }, 
    {
      "op": "Concat", 
      "name": "concat62", 
      "attrs": {
        "dim": "1", 
        "num_args": "2"
      }, 
      "inputs": [[593, 0, 0], [601, 0, 0]]
    }, 
    {
      "op": "null", 
      "name": "pyramid_residual_1.residual_denseblock_8.dense_block.denselayer8.conv_1.weight", 
      "attrs": {"__shape__": "(160, 440, 1, 1)"}, 
      "inputs": []
    }, 
    {
      "op": "null", 
      "name": "pyramid_residual_1.residual_denseblock_8.dense_block.denselayer8.conv_1.bias", 
      "attrs": {"__shape__": "(160,)"}, 
      "inputs": []
    }, 
    {
      "op": "Convolution", 
      "name": "convolution135", 
      "attrs": {
        "dilate": "(1, 1)", 
        "kernel": "(1, 1)", 
        "layout": "NCHW", 
        "no_bias": "False", 
        "num_filter": "160", 
        "num_group": "1", 
        "pad": "(0, 0)", 
        "stride": "(1, 1)"
      }, 
      "inputs": [[602, 0, 0], [603, 0, 0], [604, 0, 0]]
    }, 
    {
      "op": "relu", 
      "name": "relu63", 
      "inputs": [[605, 0, 0]]
    }, 
    {
      "op": "Pad", 
      "name": "pad64", 
      "attrs": {
        "mode": "reflect", 
        "pad_width": "(0, 0, 0, 0, 1, 1, 1, 1)"
      }, 
      "inputs": [[606, 0, 0]]
    }, 
    {
      "op": "null", 
      "name": "pyramid_residual_1.residual_denseblock_8.dense_block.denselayer8.conv_2.conv.1.weight", 
      "attrs": {"__shape__": "(40, 160, 3, 3)"}, 
      "inputs": []
    }, 
    {
      "op": "null", 
      "name": "pyramid_residual_1.residual_denseblock_8.dense_block.denselayer8.conv_2.conv.1.bias", 
      "attrs": {"__shape__": "(40,)"}, 
      "inputs": []
    }, 
    {
      "op": "Convolution", 
      "name": "convolution136", 
      "attrs": {
        "dilate": "(1, 1)", 
        "kernel": "(3, 3)", 
        "layout": "NCHW", 
        "no_bias": "False", 
        "num_filter": "40", 
        "num_group": "1", 
        "pad": "(0, 0)", 
        "stride": "(1, 1)"
      }, 
      "inputs": [[607, 0, 0], [608, 0, 0], [609, 0, 0]]
    }, 
    {
      "op": "Concat", 
      "name": "concat63", 
      "attrs": {
        "dim": "1", 
        "num_args": "2"
      }, 
      "inputs": [[602, 0, 0], [610, 0, 0]]
    }, 
    {
      "op": "null", 
      "name": "pyramid_residual_1.residual_denseblock_8.comp.conv1.weight", 
      "attrs": {"__shape__": "(160, 480, 1, 1)"}, 
      "inputs": []
    }, 
    {
      "op": "Convolution", 
      "name": "convolution137", 
      "attrs": {
        "dilate": "(1, 1)", 
        "kernel": "(1, 1)", 
        "layout": "NCHW", 
        "no_bias": "True", 
        "num_filter": "160", 
        "num_group": "1", 
        "pad": "(0, 0)", 
        "stride": "(1, 1)"
      }, 
      "inputs": [[611, 0, 0], [612, 0, 0]]
    }, 
    {
      "op": "_mul_scalar", 
      "name": "_mulscalar7", 
      "attrs": {"scalar": "0.2"}, 
      "inputs": [[613, 0, 0]]
    }, 
    {
      "op": "broadcast_add", 
      "name": "broadcast_add7", 
      "inputs": [[614, 0, 0], [539, 0, 0]]
    }, 
    {
      "op": "null", 
      "name": "pyramid_residual_1.residual_denseblock_9.dense_block.denselayer1.conv_1.weight", 
      "attrs": {"__shape__": "(160, 160, 1, 1)"}, 
      "inputs": []
    }, 
    {
      "op": "null", 
      "name": "pyramid_residual_1.residual_denseblock_9.dense_block.denselayer1.conv_1.bias", 
      "attrs": {"__shape__": "(160,)"}, 
      "inputs": []
    }, 
    {
      "op": "Convolution", 
      "name": "convolution138", 
      "attrs": {
        "dilate": "(1, 1)", 
        "kernel": "(1, 1)", 
        "layout": "NCHW", 
        "no_bias": "False", 
        "num_filter": "160", 
        "num_group": "1", 
        "pad": "(0, 0)", 
        "stride": "(1, 1)"
      }, 
      "inputs": [[615, 0, 0], [616, 0, 0], [617, 0, 0]]
    }, 
    {
      "op": "relu", 
      "name": "relu64", 
      "inputs": [[618, 0, 0]]
    }, 
    {
      "op": "Pad", 
      "name": "pad65", 
      "attrs": {
        "mode": "reflect", 
        "pad_width": "(0, 0, 0, 0, 1, 1, 1, 1)"
      }, 
      "inputs": [[619, 0, 0]]
    }, 
    {
      "op": "null", 
      "name": "pyramid_residual_1.residual_denseblock_9.dense_block.denselayer1.conv_2.conv.1.weight", 
      "attrs": {"__shape__": "(40, 160, 3, 3)"}, 
      "inputs": []
    }, 
    {
      "op": "null", 
      "name": "pyramid_residual_1.residual_denseblock_9.dense_block.denselayer1.conv_2.conv.1.bias", 
      "attrs": {"__shape__": "(40,)"}, 
      "inputs": []
    }, 
    {
      "op": "Convolution", 
      "name": "convolution139", 
      "attrs": {
        "dilate": "(1, 1)", 
        "kernel": "(3, 3)", 
        "layout": "NCHW", 
        "no_bias": "False", 
        "num_filter": "40", 
        "num_group": "1", 
        "pad": "(0, 0)", 
        "stride": "(1, 1)"
      }, 
      "inputs": [[620, 0, 0], [621, 0, 0], [622, 0, 0]]
    }, 
    {
      "op": "Concat", 
      "name": "concat64", 
      "attrs": {
        "dim": "1", 
        "num_args": "2"
      }, 
      "inputs": [[615, 0, 0], [623, 0, 0]]
    }, 
    {
      "op": "null", 
      "name": "pyramid_residual_1.residual_denseblock_9.dense_block.denselayer2.conv_1.weight", 
      "attrs": {"__shape__": "(160, 200, 1, 1)"}, 
      "inputs": []
    }, 
    {
      "op": "null", 
      "name": "pyramid_residual_1.residual_denseblock_9.dense_block.denselayer2.conv_1.bias", 
      "attrs": {"__shape__": "(160,)"}, 
      "inputs": []
    }, 
    {
      "op": "Convolution", 
      "name": "convolution140", 
      "attrs": {
        "dilate": "(1, 1)", 
        "kernel": "(1, 1)", 
        "layout": "NCHW", 
        "no_bias": "False", 
        "num_filter": "160", 
        "num_group": "1", 
        "pad": "(0, 0)", 
        "stride": "(1, 1)"
      }, 
      "inputs": [[624, 0, 0], [625, 0, 0], [626, 0, 0]]
    }, 
    {
      "op": "relu", 
      "name": "relu65", 
      "inputs": [[627, 0, 0]]
    }, 
    {
      "op": "Pad", 
      "name": "pad66", 
      "attrs": {
        "mode": "reflect", 
        "pad_width": "(0, 0, 0, 0, 1, 1, 1, 1)"
      }, 
      "inputs": [[628, 0, 0]]
    }, 
    {
      "op": "null", 
      "name": "pyramid_residual_1.residual_denseblock_9.dense_block.denselayer2.conv_2.conv.1.weight", 
      "attrs": {"__shape__": "(40, 160, 3, 3)"}, 
      "inputs": []
    }, 
    {
      "op": "null", 
      "name": "pyramid_residual_1.residual_denseblock_9.dense_block.denselayer2.conv_2.conv.1.bias", 
      "attrs": {"__shape__": "(40,)"}, 
      "inputs": []
    }, 
    {
      "op": "Convolution", 
      "name": "convolution141", 
      "attrs": {
        "dilate": "(1, 1)", 
        "kernel": "(3, 3)", 
        "layout": "NCHW", 
        "no_bias": "False", 
        "num_filter": "40", 
        "num_group": "1", 
        "pad": "(0, 0)", 
        "stride": "(1, 1)"
      }, 
      "inputs": [[629, 0, 0], [630, 0, 0], [631, 0, 0]]
    }, 
    {
      "op": "Concat", 
      "name": "concat65", 
      "attrs": {
        "dim": "1", 
        "num_args": "2"
      }, 
      "inputs": [[624, 0, 0], [632, 0, 0]]
    }, 
    {
      "op": "null", 
      "name": "pyramid_residual_1.residual_denseblock_9.dense_block.denselayer3.conv_1.weight", 
      "attrs": {"__shape__": "(160, 240, 1, 1)"}, 
      "inputs": []
    }, 
    {
      "op": "null", 
      "name": "pyramid_residual_1.residual_denseblock_9.dense_block.denselayer3.conv_1.bias", 
      "attrs": {"__shape__": "(160,)"}, 
      "inputs": []
    }, 
    {
      "op": "Convolution", 
      "name": "convolution142", 
      "attrs": {
        "dilate": "(1, 1)", 
        "kernel": "(1, 1)", 
        "layout": "NCHW", 
        "no_bias": "False", 
        "num_filter": "160", 
        "num_group": "1", 
        "pad": "(0, 0)", 
        "stride": "(1, 1)"
      }, 
      "inputs": [[633, 0, 0], [634, 0, 0], [635, 0, 0]]
    }, 
    {
      "op": "relu", 
      "name": "relu66", 
      "inputs": [[636, 0, 0]]
    }, 
    {
      "op": "Pad", 
      "name": "pad67", 
      "attrs": {
        "mode": "reflect", 
        "pad_width": "(0, 0, 0, 0, 1, 1, 1, 1)"
      }, 
      "inputs": [[637, 0, 0]]
    }, 
    {
      "op": "null", 
      "name": "pyramid_residual_1.residual_denseblock_9.dense_block.denselayer3.conv_2.conv.1.weight", 
      "attrs": {"__shape__": "(40, 160, 3, 3)"}, 
      "inputs": []
    }, 
    {
      "op": "null", 
      "name": "pyramid_residual_1.residual_denseblock_9.dense_block.denselayer3.conv_2.conv.1.bias", 
      "attrs": {"__shape__": "(40,)"}, 
      "inputs": []
    }, 
    {
      "op": "Convolution", 
      "name": "convolution143", 
      "attrs": {
        "dilate": "(1, 1)", 
        "kernel": "(3, 3)", 
        "layout": "NCHW", 
        "no_bias": "False", 
        "num_filter": "40", 
        "num_group": "1", 
        "pad": "(0, 0)", 
        "stride": "(1, 1)"
      }, 
      "inputs": [[638, 0, 0], [639, 0, 0], [640, 0, 0]]
    }, 
    {
      "op": "Concat", 
      "name": "concat66", 
      "attrs": {
        "dim": "1", 
        "num_args": "2"
      }, 
      "inputs": [[633, 0, 0], [641, 0, 0]]
    }, 
    {
      "op": "null", 
      "name": "pyramid_residual_1.residual_denseblock_9.dense_block.denselayer4.conv_1.weight", 
      "attrs": {"__shape__": "(160, 280, 1, 1)"}, 
      "inputs": []
    }, 
    {
      "op": "null", 
      "name": "pyramid_residual_1.residual_denseblock_9.dense_block.denselayer4.conv_1.bias", 
      "attrs": {"__shape__": "(160,)"}, 
      "inputs": []
    }, 
    {
      "op": "Convolution", 
      "name": "convolution144", 
      "attrs": {
        "dilate": "(1, 1)", 
        "kernel": "(1, 1)", 
        "layout": "NCHW", 
        "no_bias": "False", 
        "num_filter": "160", 
        "num_group": "1", 
        "pad": "(0, 0)", 
        "stride": "(1, 1)"
      }, 
      "inputs": [[642, 0, 0], [643, 0, 0], [644, 0, 0]]
    }, 
    {
      "op": "relu", 
      "name": "relu67", 
      "inputs": [[645, 0, 0]]
    }, 
    {
      "op": "Pad", 
      "name": "pad68", 
      "attrs": {
        "mode": "reflect", 
        "pad_width": "(0, 0, 0, 0, 1, 1, 1, 1)"
      }, 
      "inputs": [[646, 0, 0]]
    }, 
    {
      "op": "null", 
      "name": "pyramid_residual_1.residual_denseblock_9.dense_block.denselayer4.conv_2.conv.1.weight", 
      "attrs": {"__shape__": "(40, 160, 3, 3)"}, 
      "inputs": []
    }, 
    {
      "op": "null", 
      "name": "pyramid_residual_1.residual_denseblock_9.dense_block.denselayer4.conv_2.conv.1.bias", 
      "attrs": {"__shape__": "(40,)"}, 
      "inputs": []
    }, 
    {
      "op": "Convolution", 
      "name": "convolution145", 
      "attrs": {
        "dilate": "(1, 1)", 
        "kernel": "(3, 3)", 
        "layout": "NCHW", 
        "no_bias": "False", 
        "num_filter": "40", 
        "num_group": "1", 
        "pad": "(0, 0)", 
        "stride": "(1, 1)"
      }, 
      "inputs": [[647, 0, 0], [648, 0, 0], [649, 0, 0]]
    }, 
    {
      "op": "Concat", 
      "name": "concat67", 
      "attrs": {
        "dim": "1", 
        "num_args": "2"
      }, 
      "inputs": [[642, 0, 0], [650, 0, 0]]
    }, 
    {
      "op": "null", 
      "name": "pyramid_residual_1.residual_denseblock_9.dense_block.denselayer5.conv_1.weight", 
      "attrs": {"__shape__": "(160, 320, 1, 1)"}, 
      "inputs": []
    }, 
    {
      "op": "null", 
      "name": "pyramid_residual_1.residual_denseblock_9.dense_block.denselayer5.conv_1.bias", 
      "attrs": {"__shape__": "(160,)"}, 
      "inputs": []
    }, 
    {
      "op": "Convolution", 
      "name": "convolution146", 
      "attrs": {
        "dilate": "(1, 1)", 
        "kernel": "(1, 1)", 
        "layout": "NCHW", 
        "no_bias": "False", 
        "num_filter": "160", 
        "num_group": "1", 
        "pad": "(0, 0)", 
        "stride": "(1, 1)"
      }, 
      "inputs": [[651, 0, 0], [652, 0, 0], [653, 0, 0]]
    }, 
    {
      "op": "relu", 
      "name": "relu68", 
      "inputs": [[654, 0, 0]]
    }, 
    {
      "op": "Pad", 
      "name": "pad69", 
      "attrs": {
        "mode": "reflect", 
        "pad_width": "(0, 0, 0, 0, 1, 1, 1, 1)"
      }, 
      "inputs": [[655, 0, 0]]
    }, 
    {
      "op": "null", 
      "name": "pyramid_residual_1.residual_denseblock_9.dense_block.denselayer5.conv_2.conv.1.weight", 
      "attrs": {"__shape__": "(40, 160, 3, 3)"}, 
      "inputs": []
    }, 
    {
      "op": "null", 
      "name": "pyramid_residual_1.residual_denseblock_9.dense_block.denselayer5.conv_2.conv.1.bias", 
      "attrs": {"__shape__": "(40,)"}, 
      "inputs": []
    }, 
    {
      "op": "Convolution", 
      "name": "convolution147", 
      "attrs": {
        "dilate": "(1, 1)", 
        "kernel": "(3, 3)", 
        "layout": "NCHW", 
        "no_bias": "False", 
        "num_filter": "40", 
        "num_group": "1", 
        "pad": "(0, 0)", 
        "stride": "(1, 1)"
      }, 
      "inputs": [[656, 0, 0], [657, 0, 0], [658, 0, 0]]
    }, 
    {
      "op": "Concat", 
      "name": "concat68", 
      "attrs": {
        "dim": "1", 
        "num_args": "2"
      }, 
      "inputs": [[651, 0, 0], [659, 0, 0]]
    }, 
    {
      "op": "null", 
      "name": "pyramid_residual_1.residual_denseblock_9.dense_block.denselayer6.conv_1.weight", 
      "attrs": {"__shape__": "(160, 360, 1, 1)"}, 
      "inputs": []
    }, 
    {
      "op": "null", 
      "name": "pyramid_residual_1.residual_denseblock_9.dense_block.denselayer6.conv_1.bias", 
      "attrs": {"__shape__": "(160,)"}, 
      "inputs": []
    }, 
    {
      "op": "Convolution", 
      "name": "convolution148", 
      "attrs": {
        "dilate": "(1, 1)", 
        "kernel": "(1, 1)", 
        "layout": "NCHW", 
        "no_bias": "False", 
        "num_filter": "160", 
        "num_group": "1", 
        "pad": "(0, 0)", 
        "stride": "(1, 1)"
      }, 
      "inputs": [[660, 0, 0], [661, 0, 0], [662, 0, 0]]
    }, 
    {
      "op": "relu", 
      "name": "relu69", 
      "inputs": [[663, 0, 0]]
    }, 
    {
      "op": "Pad", 
      "name": "pad70", 
      "attrs": {
        "mode": "reflect", 
        "pad_width": "(0, 0, 0, 0, 1, 1, 1, 1)"
      }, 
      "inputs": [[664, 0, 0]]
    }, 
    {
      "op": "null", 
      "name": "pyramid_residual_1.residual_denseblock_9.dense_block.denselayer6.conv_2.conv.1.weight", 
      "attrs": {"__shape__": "(40, 160, 3, 3)"}, 
      "inputs": []
    }, 
    {
      "op": "null", 
      "name": "pyramid_residual_1.residual_denseblock_9.dense_block.denselayer6.conv_2.conv.1.bias", 
      "attrs": {"__shape__": "(40,)"}, 
      "inputs": []
    }, 
    {
      "op": "Convolution", 
      "name": "convolution149", 
      "attrs": {
        "dilate": "(1, 1)", 
        "kernel": "(3, 3)", 
        "layout": "NCHW", 
        "no_bias": "False", 
        "num_filter": "40", 
        "num_group": "1", 
        "pad": "(0, 0)", 
        "stride": "(1, 1)"
      }, 
      "inputs": [[665, 0, 0], [666, 0, 0], [667, 0, 0]]
    }, 
    {
      "op": "Concat", 
      "name": "concat69", 
      "attrs": {
        "dim": "1", 
        "num_args": "2"
      }, 
      "inputs": [[660, 0, 0], [668, 0, 0]]
    }, 
    {
      "op": "null", 
      "name": "pyramid_residual_1.residual_denseblock_9.dense_block.denselayer7.conv_1.weight", 
      "attrs": {"__shape__": "(160, 400, 1, 1)"}, 
      "inputs": []
    }, 
    {
      "op": "null", 
      "name": "pyramid_residual_1.residual_denseblock_9.dense_block.denselayer7.conv_1.bias", 
      "attrs": {"__shape__": "(160,)"}, 
      "inputs": []
    }, 
    {
      "op": "Convolution", 
      "name": "convolution150", 
      "attrs": {
        "dilate": "(1, 1)", 
        "kernel": "(1, 1)", 
        "layout": "NCHW", 
        "no_bias": "False", 
        "num_filter": "160", 
        "num_group": "1", 
        "pad": "(0, 0)", 
        "stride": "(1, 1)"
      }, 
      "inputs": [[669, 0, 0], [670, 0, 0], [671, 0, 0]]
    }, 
    {
      "op": "relu", 
      "name": "relu70", 
      "inputs": [[672, 0, 0]]
    }, 
    {
      "op": "Pad", 
      "name": "pad71", 
      "attrs": {
        "mode": "reflect", 
        "pad_width": "(0, 0, 0, 0, 1, 1, 1, 1)"
      }, 
      "inputs": [[673, 0, 0]]
    }, 
    {
      "op": "null", 
      "name": "pyramid_residual_1.residual_denseblock_9.dense_block.denselayer7.conv_2.conv.1.weight", 
      "attrs": {"__shape__": "(40, 160, 3, 3)"}, 
      "inputs": []
    }, 
    {
      "op": "null", 
      "name": "pyramid_residual_1.residual_denseblock_9.dense_block.denselayer7.conv_2.conv.1.bias", 
      "attrs": {"__shape__": "(40,)"}, 
      "inputs": []
    }, 
    {
      "op": "Convolution", 
      "name": "convolution151", 
      "attrs": {
        "dilate": "(1, 1)", 
        "kernel": "(3, 3)", 
        "layout": "NCHW", 
        "no_bias": "False", 
        "num_filter": "40", 
        "num_group": "1", 
        "pad": "(0, 0)", 
        "stride": "(1, 1)"
      }, 
      "inputs": [[674, 0, 0], [675, 0, 0], [676, 0, 0]]
    }, 
    {
      "op": "Concat", 
      "name": "concat70", 
      "attrs": {
        "dim": "1", 
        "num_args": "2"
      }, 
      "inputs": [[669, 0, 0], [677, 0, 0]]
    }, 
    {
      "op": "null", 
      "name": "pyramid_residual_1.residual_denseblock_9.dense_block.denselayer8.conv_1.weight", 
      "attrs": {"__shape__": "(160, 440, 1, 1)"}, 
      "inputs": []
    }, 
    {
      "op": "null", 
      "name": "pyramid_residual_1.residual_denseblock_9.dense_block.denselayer8.conv_1.bias", 
      "attrs": {"__shape__": "(160,)"}, 
      "inputs": []
    }, 
    {
      "op": "Convolution", 
      "name": "convolution152", 
      "attrs": {
        "dilate": "(1, 1)", 
        "kernel": "(1, 1)", 
        "layout": "NCHW", 
        "no_bias": "False", 
        "num_filter": "160", 
        "num_group": "1", 
        "pad": "(0, 0)", 
        "stride": "(1, 1)"
      }, 
      "inputs": [[678, 0, 0], [679, 0, 0], [680, 0, 0]]
    }, 
    {
      "op": "relu", 
      "name": "relu71", 
      "inputs": [[681, 0, 0]]
    }, 
    {
      "op": "Pad", 
      "name": "pad72", 
      "attrs": {
        "mode": "reflect", 
        "pad_width": "(0, 0, 0, 0, 1, 1, 1, 1)"
      }, 
      "inputs": [[682, 0, 0]]
    }, 
    {
      "op": "null", 
      "name": "pyramid_residual_1.residual_denseblock_9.dense_block.denselayer8.conv_2.conv.1.weight", 
      "attrs": {"__shape__": "(40, 160, 3, 3)"}, 
      "inputs": []
    }, 
    {
      "op": "null", 
      "name": "pyramid_residual_1.residual_denseblock_9.dense_block.denselayer8.conv_2.conv.1.bias", 
      "attrs": {"__shape__": "(40,)"}, 
      "inputs": []
    }, 
    {
      "op": "Convolution", 
      "name": "convolution153", 
      "attrs": {
        "dilate": "(1, 1)", 
        "kernel": "(3, 3)", 
        "layout": "NCHW", 
        "no_bias": "False", 
        "num_filter": "40", 
        "num_group": "1", 
        "pad": "(0, 0)", 
        "stride": "(1, 1)"
      }, 
      "inputs": [[683, 0, 0], [684, 0, 0], [685, 0, 0]]
    }, 
    {
      "op": "Concat", 
      "name": "concat71", 
      "attrs": {
        "dim": "1", 
        "num_args": "2"
      }, 
      "inputs": [[678, 0, 0], [686, 0, 0]]
    }, 
    {
      "op": "null", 
      "name": "pyramid_residual_1.residual_denseblock_9.comp.conv1.weight", 
      "attrs": {"__shape__": "(160, 480, 1, 1)"}, 
      "inputs": []
    }, 
    {
      "op": "Convolution", 
      "name": "convolution154", 
      "attrs": {
        "dilate": "(1, 1)", 
        "kernel": "(1, 1)", 
        "layout": "NCHW", 
        "no_bias": "True", 
        "num_filter": "160", 
        "num_group": "1", 
        "pad": "(0, 0)", 
        "stride": "(1, 1)"
      }, 
      "inputs": [[687, 0, 0], [688, 0, 0]]
    }, 
    {
      "op": "_mul_scalar", 
      "name": "_mulscalar8", 
      "attrs": {"scalar": "0.2"}, 
      "inputs": [[689, 0, 0]]
    }, 
    {
      "op": "broadcast_add", 
      "name": "broadcast_add8", 
      "inputs": [[690, 0, 0], [615, 0, 0]]
    }, 
    {
      "op": "Pad", 
      "name": "pad73", 
      "attrs": {
        "mode": "reflect", 
        "pad_width": "(0, 0, 0, 0, 1, 1, 1, 1)"
      }, 
      "inputs": [[691, 0, 0]]
    }, 
    {
      "op": "null", 
      "name": "pyramid_residual_1.final_conv.final_conv.conv.1.weight", 
      "attrs": {"__shape__": "(160, 160, 3, 3)"}, 
      "inputs": []
    }, 
    {
      "op": "null", 
      "name": "pyramid_residual_1.final_conv.final_conv.conv.1.bias", 
      "attrs": {"__shape__": "(160,)"}, 
      "inputs": []
    }, 
    {
      "op": "Convolution", 
      "name": "convolution155", 
      "attrs": {
        "dilate": "(1, 1)", 
        "kernel": "(3, 3)", 
        "layout": "NCHW", 
        "no_bias": "False", 
        "num_filter": "160", 
        "num_group": "1", 
        "pad": "(0, 0)", 
        "stride": "(1, 1)"
      }, 
      "inputs": [[692, 0, 0], [693, 0, 0], [694, 0, 0]]
    }, 
    {
      "op": "broadcast_add", 
      "name": "broadcast_add9", 
      "inputs": [[695, 0, 0], [7, 0, 0]]
    }, 
    {
      "op": "Pad", 
      "name": "pad74", 
      "attrs": {
        "mode": "reflect", 
        "pad_width": "(0, 0, 0, 0, 1, 1, 1, 1)"
      }, 
      "inputs": [[696, 0, 0]]
    }, 
    {
      "op": "null", 
      "name": "pyramid_residual_1_residual_upsampler.m.0.conv.1.weight", 
      "attrs": {"__shape__": "(640, 160, 3, 3)"}, 
      "inputs": []
    }, 
    {
      "op": "null", 
      "name": "pyramid_residual_1_residual_upsampler.m.0.conv.1.bias", 
      "attrs": {"__shape__": "(640,)"}, 
      "inputs": []
    }, 
    {
      "op": "Convolution", 
      "name": "convolution156", 
      "attrs": {
        "dilate": "(1, 1)", 
        "kernel": "(3, 3)", 
        "layout": "NCHW", 
        "no_bias": "False", 
        "num_filter": "640", 
        "num_group": "1", 
        "pad": "(0, 0)", 
        "stride": "(1, 1)"
      }, 
      "inputs": [[697, 0, 0], [698, 0, 0], [699, 0, 0]]
    }, 
    {
      "op": "Reshape", 
      "name": "reshape0", 
      "attrs": {"shape": "(0, -4, -1, 4, 0, 0)"}, 
      "inputs": [[700, 0, 0]]
    }, 
    {
      "op": "Reshape", 
      "name": "reshape1", 
      "attrs": {"shape": "(0, 0, -4, 2, 2, 0, 0)"}, 
      "inputs": [[701, 0, 0]]
    }, 
    {
      "op": "transpose", 
      "name": "transpose0", 
      "attrs": {"axes": "(0, 1, 4, 2, 5, 3)"}, 
      "inputs": [[702, 0, 0]]
    }, 
    {
      "op": "Reshape", 
      "name": "reshape2", 
      "attrs": {"shape": "(0, 0, -3, -3)"}, 
      "inputs": [[703, 0, 0]]
    }, 
    {
      "op": "relu", 
      "name": "relu72", 
      "inputs": [[704, 0, 0]]
    }, 
    {
      "op": "Pad", 
      "name": "pad75", 
      "attrs": {
        "mode": "reflect", 
        "pad_width": "(0, 0, 0, 0, 1, 1, 1, 1)"
      }, 
      "inputs": [[705, 0, 0]]
    }, 
    {
      "op": "null", 
      "name": "reconst_1.final_conv.conv.1.weight", 
      "attrs": {"__shape__": "(3, 160, 3, 3)"}, 
      "inputs": []
    }, 
    {
      "op": "null", 
      "name": "reconst_1.final_conv.conv.1.bias", 
      "attrs": {"__shape__": "(3,)"}, 
      "inputs": []
    }, 
    {
      "op": "Convolution", 
      "name": "convolution157", 
      "attrs": {
        "dilate": "(1, 1)", 
        "kernel": "(3, 3)", 
        "layout": "NCHW", 
        "no_bias": "False", 
        "num_filter": "3", 
        "num_group": "1", 
        "pad": "(0, 0)", 
        "stride": "(1, 1)"
      }, 
      "inputs": [[706, 0, 0], [707, 0, 0], [708, 0, 0]]
    }, 
    {
      "op": "_mul_scalar", 
      "name": "restore_dynamic_range", 
      "attrs": {"scalar": "0.00392156862745098"}, 
      "inputs": [[709, 0, 0]]
    }
  ], 
  "arg_nodes": [
    0, 
    1, 
    2, 
    5, 
    6, 
    8, 
    9, 
    13, 
    14, 
    17, 
    18, 
    22, 
    23, 
    26, 
    27, 
    31, 
    32, 
    35, 
    36, 
    40, 
    41, 
    44, 
    45, 
    49, 
    50, 
    53, 
    54, 
    58, 
    59, 
    62, 
    63, 
    67, 
    68, 
    71, 
    72, 
    76, 
    77, 
    80, 
    84, 
    85, 
    89, 
    90, 
    93, 
    94, 
    98, 
    99, 
    102, 
    103, 
    107, 
    108, 
    111, 
    112, 
    116, 
    117, 
    120, 
    121, 
    125, 
    126, 
    129, 
    130, 
    134, 
    135, 
    138, 
    139, 
    143, 
    144, 
    147, 
    148, 
    152, 
    153, 
    156, 
    160, 
    161, 
    165, 
    166, 
    169, 
    170, 
    174, 
    175, 
    178, 
    179, 
    183, 
    184, 
    187, 
    188, 
    192, 
    193, 
    196, 
    197, 
    201, 
    202, 
    205, 
    206, 
    210, 
    211, 
    214, 
    215, 
    219, 
    220, 
    223, 
    224, 
    228, 
    229, 
    232, 
    236, 
    237, 
    241, 
    242, 
    245, 
    246, 
    250, 
    251, 
    254, 
    255, 
    259, 
    260, 
    263, 
    264, 
    268, 
    269, 
    272, 
    273, 
    277, 
    278, 
    281, 
    282, 
    286, 
    287, 
    290, 
    291, 
    295, 
    296, 
    299, 
    300, 
    304, 
    305, 
    308, 
    312, 
    313, 
    317, 
    318, 
    321, 
    322, 
    326, 
    327, 
    330, 
    331, 
    335, 
    336, 
    339, 
    340, 
    344, 
    345, 
    348, 
    349, 
    353, 
    354, 
    357, 
    358, 
    362, 
    363, 
    366, 
    367, 
    371, 
    372, 
    375, 
    376, 
    380, 
    381, 
    384, 
    388, 
    389, 
    393, 
    394, 
    397, 
    398, 
    402, 
    403, 
    406, 
    407, 
    411, 
    412, 
    415, 
    416, 
    420, 
    421, 
    424, 
    425, 
    429, 
    430, 
    433, 
    434, 
    438, 
    439, 
    442, 
    443, 
    447, 
    448, 
    451, 
    452, 
    456, 
    457, 
    460, 
    464, 
    465, 
    469, 
    470, 
    473, 
    474, 
    478, 
    479, 
    482, 
    483, 
    487, 
    488, 
    491, 
    492, 
    496, 
    497, 
    500, 
    501, 
    505, 
    506, 
    509, 
    510, 
    514, 
    515, 
    518, 
    519, 
    523, 
    524, 
    527, 
    528, 
    532, 
    533, 
    536, 
    540, 
    541, 
    545, 
    546, 
    549, 
    550, 
    554, 
    555, 
    558, 
    559, 
    563, 
    564, 
    567, 
    568, 
    572, 
    573, 
    576, 
    577, 
    581, 
    582, 
    585, 
    586, 
    590, 
    591, 
    594, 
    595, 
    599, 
    600, 
    603, 
    604, 
    608, 
    609, 
    612, 
    616, 
    617, 
    621, 
    622, 
    625, 
    626, 
    630, 
    631, 
    634, 
    635, 
    639, 
    640, 
    643, 
    644, 
    648, 
    649, 
    652, 
    653, 
    657, 
    658, 
    661, 
    662, 
    666, 
    667, 
    670, 
    671, 
    675, 
    676, 
    679, 
    680, 
    684, 
    685, 
    688, 
    693, 
    694, 
    698, 
    699, 
    707, 
    708
  ], 
  "node_row_ptr": [
    0, 
    1, 
    2, 
    3, 
    4, 
    5, 
    6, 
    7, 
    8, 
    9, 
    10, 
    11, 
    12, 
    13, 
    14, 
    15, 
    16, 
    17, 
    18, 
    19, 
    20, 
    21, 
    22, 
    23, 
    24, 
    25, 
    26, 
    27, 
    28, 
    29, 
    30, 
    31, 
    32, 
    33, 
    34, 
    35, 
    36, 
    37, 
    38, 
    39, 
    40, 
    41, 
    42, 
    43, 
    44, 
    45, 
    46, 
    47, 
    48, 
    49, 
    50, 
    51, 
    52, 
    53, 
    54, 
    55, 
    56, 
    57, 
    58, 
    59, 
    60, 
    61, 
    62, 
    63, 
    64, 
    65, 
    66, 
    67, 
    68, 
    69, 
    70, 
    71, 
    72, 
    73, 
    74, 
    75, 
    76, 
    77, 
    78, 
    79, 
    80, 
    81, 
    82, 
    83, 
    84, 
    85, 
    86, 
    87, 
    88, 
    89, 
    90, 
    91, 
    92, 
    93, 
    94, 
    95, 
    96, 
    97, 
    98, 
    99, 
    100, 
    101, 
    102, 
    103, 
    104, 
    105, 
    106, 
    107, 
    108, 
    109, 
    110, 
    111, 
    112, 
    113, 
    114, 
    115, 
    116, 
    117, 
    118, 
    119, 
    120, 
    121, 
    122, 
    123, 
    124, 
    125, 
    126, 
    127, 
    128, 
    129, 
    130, 
    131, 
    132, 
    133, 
    134, 
    135, 
    136, 
    137, 
    138, 
    139, 
    140, 
    141, 
    142, 
    143, 
    144, 
    145, 
    146, 
    147, 
    148, 
    149, 
    150, 
    151, 
    152, 
    153, 
    154, 
    155, 
    156, 
    157, 
    158, 
    159, 
    160, 
    161, 
    162, 
    163, 
    164, 
    165, 
    166, 
    167, 
    168, 
    169, 
    170, 
    171, 
    172, 
    173, 
    174, 
    175, 
    176, 
    177, 
    178, 
    179, 
    180, 
    181, 
    182, 
    183, 
    184, 
    185, 
    186, 
    187, 
    188, 
    189, 
    190, 
    191, 
    192, 
    193, 
    194, 
    195, 
    196, 
    197, 
    198, 
    199, 
    200, 
    201, 
    202, 
    203, 
    204, 
    205, 
    206, 
    207, 
    208, 
    209, 
    210, 
    211, 
    212, 
    213, 
    214, 
    215, 
    216, 
    217, 
    218, 
    219, 
    220, 
    221, 
    222, 
    223, 
    224, 
    225, 
    226, 
    227, 
    228, 
    229, 
    230, 
    231, 
    232, 
    233, 
    234, 
    235, 
    236, 
    237, 
    238, 
    239, 
    240, 
    241, 
    242, 
    243, 
    244, 
    245, 
    246, 
    247, 
    248, 
    249, 
    250, 
    251, 
    252, 
    253, 
    254, 
    255, 
    256, 
    257, 
    258, 
    259, 
    260, 
    261, 
    262, 
    263, 
    264, 
    265, 
    266, 
    267, 
    268, 
    269, 
    270, 
    271, 
    272, 
    273, 
    274, 
    275, 
    276, 
    277, 
    278, 
    279, 
    280, 
    281, 
    282, 
    283, 
    284, 
    285, 
    286, 
    287, 
    288, 
    289, 
    290, 
    291, 
    292, 
    293, 
    294, 
    295, 
    296, 
    297, 
    298, 
    299, 
    300, 
    301, 
    302, 
    303, 
    304, 
    305, 
    306, 
    307, 
    308, 
    309, 
    310, 
    311, 
    312, 
    313, 
    314, 
    315, 
    316, 
    317, 
    318, 
    319, 
    320, 
    321, 
    322, 
    323, 
    324, 
    325, 
    326, 
    327, 
    328, 
    329, 
    330, 
    331, 
    332, 
    333, 
    334, 
    335, 
    336, 
    337, 
    338, 
    339, 
    340, 
    341, 
    342, 
    343, 
    344, 
    345, 
    346, 
    347, 
    348, 
    349, 
    350, 
    351, 
    352, 
    353, 
    354, 
    355, 
    356, 
    357, 
    358, 
    359, 
    360, 
    361, 
    362, 
    363, 
    364, 
    365, 
    366, 
    367, 
    368, 
    369, 
    370, 
    371, 
    372, 
    373, 
    374, 
    375, 
    376, 
    377, 
    378, 
    379, 
    380, 
    381, 
    382, 
    383, 
    384, 
    385, 
    386, 
    387, 
    388, 
    389, 
    390, 
    391, 
    392, 
    393, 
    394, 
    395, 
    396, 
    397, 
    398, 
    399, 
    400, 
    401, 
    402, 
    403, 
    404, 
    405, 
    406, 
    407, 
    408, 
    409, 
    410, 
    411, 
    412, 
    413, 
    414, 
    415, 
    416, 
    417, 
    418, 
    419, 
    420, 
    421, 
    422, 
    423, 
    424, 
    425, 
    426, 
    427, 
    428, 
    429, 
    430, 
    431, 
    432, 
    433, 
    434, 
    435, 
    436, 
    437, 
    438, 
    439, 
    440, 
    441, 
    442, 
    443, 
    444, 
    445, 
    446, 
    447, 
    448, 
    449, 
    450, 
    451, 
    452, 
    453, 
    454, 
    455, 
    456, 
    457, 
    458, 
    459, 
    460, 
    461, 
    462, 
    463, 
    464, 
    465, 
    466, 
    467, 
    468, 
    469, 
    470, 
    471, 
    472, 
    473, 
    474, 
    475, 
    476, 
    477, 
    478, 
    479, 
    480, 
    481, 
    482, 
    483, 
    484, 
    485, 
    486, 
    487, 
    488, 
    489, 
    490, 
    491, 
    492, 
    493, 
    494, 
    495, 
    496, 
    497, 
    498, 
    499, 
    500, 
    501, 
    502, 
    503, 
    504, 
    505, 
    506, 
    507, 
    508, 
    509, 
    510, 
    511, 
    512, 
    513, 
    514, 
    515, 
    516, 
    517, 
    518, 
    519, 
    520, 
    521, 
    522, 
    523, 
    524, 
    525, 
    526, 
    527, 
    528, 
    529, 
    530, 
    531, 
    532, 
    533, 
    534, 
    535, 
    536, 
    537, 
    538, 
    539, 
    540, 
    541, 
    542, 
    543, 
    544, 
    545, 
    546, 
    547, 
    548, 
    549, 
    550, 
    551, 
    552, 
    553, 
    554, 
    555, 
    556, 
    557, 
    558, 
    559, 
    560, 
    561, 
    562, 
    563, 
    564, 
    565, 
    566, 
    567, 
    568, 
    569, 
    570, 
    571, 
    572, 
    573, 
    574, 
    575, 
    576, 
    577, 
    578, 
    579, 
    580, 
    581, 
    582, 
    583, 
    584, 
    585, 
    586, 
    587, 
    588, 
    589, 
    590, 
    591, 
    592, 
    593, 
    594, 
    595, 
    596, 
    597, 
    598, 
    599, 
    600, 
    601, 
    602, 
    603, 
    604, 
    605, 
    606, 
    607, 
    608, 
    609, 
    610, 
    611, 
    612, 
    613, 
    614, 
    615, 
    616, 
    617, 
    618, 
    619, 
    620, 
    621, 
    622, 
    623, 
    624, 
    625, 
    626, 
    627, 
    628, 
    629, 
    630, 
    631, 
    632, 
    633, 
    634, 
    635, 
    636, 
    637, 
    638, 
    639, 
    640, 
    641, 
    642, 
    643, 
    644, 
    645, 
    646, 
    647, 
    648, 
    649, 
    650, 
    651, 
    652, 
    653, 
    654, 
    655, 
    656, 
    657, 
    658, 
    659, 
    660, 
    661, 
    662, 
    663, 
    664, 
    665, 
    666, 
    667, 
    668, 
    669, 
    670, 
    671, 
    672, 
    673, 
    674, 
    675, 
    676, 
    677, 
    678, 
    679, 
    680, 
    681, 
    682, 
    683, 
    684, 
    685, 
    686, 
    687, 
    688, 
    689, 
    690, 
    691, 
    692, 
    693, 
    694, 
    695, 
    696, 
    697, 
    698, 
    699, 
    700, 
    701, 
    702, 
    703, 
    704, 
    705, 
    706, 
    707, 
    708, 
    709, 
    710, 
    711
  ], 
  "heads": [[710, 0, 0]], 
  "attrs": {"mxnet_version": ["int", 10300]}
}