{
  "nodes": [
    {
      "op": "null", 
      "name": "data", 
      "inputs": []
    }, 
    {
      "op": "null", 
      "name": "neg_DIV2K_mean", 
      "attrs": {"__shape__": "(1, 3, 1, 1)"}, 
      "inputs": []
    }, 
    {
      "op": "broadcast_add", 
      "name": "pre_mean_shift", 
      "inputs": [[0, 0, 0], [1, 0, 0]]
    }, 
    {
      "op": "null", 
      "name": "dynamic_range_multiplier", 
      "attrs": {"__shape__": "(1, 1, 1, 1)"}, 
      "inputs": []
    }, 
    {
      "op": "broadcast_mul", 
      "name": "scale_to_dynamic_range", 
      "inputs": [[2, 0, 0], [3, 0, 0]]
    }, 
    {
      "op": "Pad", 
      "name": "upsampling_padding", 
      "attrs": {
        "mode": "edge", 
        "pad_width": "(0, 0, 0, 0, 1, 1, 1, 1)"
      }, 
      "inputs": [[4, 0, 0]]
    }, 
    {
      "op": "null", 
      "name": "upsampling0_weight", 
      "attrs": {
        "kernel": "(16, 16)", 
        "no_bias": "True", 
        "num_filter": "3", 
        "num_group": "3", 
        "pad": "(12, 12)", 
        "stride": "(8, 8)"
      }, 
      "inputs": []
    }, 
    {
      "op": "Deconvolution", 
      "name": "upsampling0", 
      "attrs": {
        "kernel": "(16, 16)", 
        "no_bias": "True", 
        "num_filter": "3", 
        "num_group": "3", 
        "pad": "(12, 12)", 
        "stride": "(8, 8)"
      }, 
      "inputs": [[5, 0, 0], [6, 0, 0]]
    }, 
    {
      "op": "Pad", 
      "name": "pad0", 
      "attrs": {
        "mode": "reflect", 
        "pad_width": "(0, 0, 0, 0, 1, 1, 1, 1)"
      }, 
      "inputs": [[4, 0, 0]]
    }, 
    {
      "op": "Pad", 
      "name": "pad1", 
      "attrs": {
        "mode": "constant", 
        "pad_width": "(0, 0, 0, 0, 0, 0, 0, 0)"
      }, 
      "inputs": [[8, 0, 0]]
    }, 
    {
      "op": "null", 
      "name": "learned_4", 
      "attrs": {"__shape__": "(160, 3, 3, 3)"}, 
      "inputs": []
    }, 
    {
      "op": "null", 
      "name": "learned_5", 
      "attrs": {"__shape__": "(160,)"}, 
      "inputs": []
    }, 
    {
      "op": "Convolution", 
      "name": "convolution0", 
      "attrs": {
        "dilate": "(1, 1)", 
        "kernel": "(3, 3)", 
        "no_bias": "False", 
        "num_filter": "160", 
        "num_group": "1", 
        "stride": "(1, 1)"
      }, 
      "inputs": [[9, 0, 0], [10, 0, 0], [11, 0, 0]]
    }, 
    {
      "op": "Pad", 
      "name": "pad2", 
      "attrs": {
        "mode": "constant", 
        "pad_width": "(0, 0, 0, 0, 0, 0, 0, 0)"
      }, 
      "inputs": [[12, 0, 0]]
    }, 
    {
      "op": "null", 
      "name": "learned_6", 
      "attrs": {"__shape__": "(160, 160, 1, 1)"}, 
      "inputs": []
    }, 
    {
      "op": "null", 
      "name": "learned_7", 
      "attrs": {"__shape__": "(160,)"}, 
      "inputs": []
    }, 
    {
      "op": "Convolution", 
      "name": "convolution1", 
      "attrs": {
        "dilate": "(1, 1)", 
        "kernel": "(1, 1)", 
        "no_bias": "False", 
        "num_filter": "160", 
        "num_group": "1", 
        "stride": "(1, 1)"
      }, 
      "inputs": [[13, 0, 0], [14, 0, 0], [15, 0, 0]]
    }, 
    {
      "op": "relu", 
      "name": "relu0", 
      "inputs": [[16, 0, 0]]
    }, 
    {
      "op": "Pad", 
      "name": "pad3", 
      "attrs": {
        "mode": "reflect", 
        "pad_width": "(0, 0, 0, 0, 1, 1, 1, 1)"
      }, 
      "inputs": [[17, 0, 0]]
    }, 
    {
      "op": "Pad", 
      "name": "pad4", 
      "attrs": {
        "mode": "constant", 
        "pad_width": "(0, 0, 0, 0, 0, 0, 0, 0)"
      }, 
      "inputs": [[18, 0, 0]]
    }, 
    {
      "op": "null", 
      "name": "learned_8", 
      "attrs": {"__shape__": "(40, 160, 3, 3)"}, 
      "inputs": []
    }, 
    {
      "op": "null", 
      "name": "learned_9", 
      "attrs": {"__shape__": "(40,)"}, 
      "inputs": []
    }, 
    {
      "op": "Convolution", 
      "name": "convolution2", 
      "attrs": {
        "dilate": "(1, 1)", 
        "kernel": "(3, 3)", 
        "no_bias": "False", 
        "num_filter": "40", 
        "num_group": "1", 
        "stride": "(1, 1)"
      }, 
      "inputs": [[19, 0, 0], [20, 0, 0], [21, 0, 0]]
    }, 
    {
      "op": "Concat", 
      "name": "concat0", 
      "attrs": {
        "dim": "1", 
        "num_args": "2"
      }, 
      "inputs": [[12, 0, 0], [22, 0, 0]]
    }, 
    {
      "op": "Pad", 
      "name": "pad5", 
      "attrs": {
        "mode": "constant", 
        "pad_width": "(0, 0, 0, 0, 0, 0, 0, 0)"
      }, 
      "inputs": [[23, 0, 0]]
    }, 
    {
      "op": "null", 
      "name": "learned_10", 
      "attrs": {"__shape__": "(160, 200, 1, 1)"}, 
      "inputs": []
    }, 
    {
      "op": "null", 
      "name": "learned_11", 
      "attrs": {"__shape__": "(160,)"}, 
      "inputs": []
    }, 
    {
      "op": "Convolution", 
      "name": "convolution3", 
      "attrs": {
        "dilate": "(1, 1)", 
        "kernel": "(1, 1)", 
        "no_bias": "False", 
        "num_filter": "160", 
        "num_group": "1", 
        "stride": "(1, 1)"
      }, 
      "inputs": [[24, 0, 0], [25, 0, 0], [26, 0, 0]]
    }, 
    {
      "op": "relu", 
      "name": "relu1", 
      "inputs": [[27, 0, 0]]
    }, 
    {
      "op": "Pad", 
      "name": "pad6", 
      "attrs": {
        "mode": "reflect", 
        "pad_width": "(0, 0, 0, 0, 1, 1, 1, 1)"
      }, 
      "inputs": [[28, 0, 0]]
    }, 
    {
      "op": "Pad", 
      "name": "pad7", 
      "attrs": {
        "mode": "constant", 
        "pad_width": "(0, 0, 0, 0, 0, 0, 0, 0)"
      }, 
      "inputs": [[29, 0, 0]]
    }, 
    {
      "op": "null", 
      "name": "learned_12", 
      "attrs": {"__shape__": "(40, 160, 3, 3)"}, 
      "inputs": []
    }, 
    {
      "op": "null", 
      "name": "learned_13", 
      "attrs": {"__shape__": "(40,)"}, 
      "inputs": []
    }, 
    {
      "op": "Convolution", 
      "name": "convolution4", 
      "attrs": {
        "dilate": "(1, 1)", 
        "kernel": "(3, 3)", 
        "no_bias": "False", 
        "num_filter": "40", 
        "num_group": "1", 
        "stride": "(1, 1)"
      }, 
      "inputs": [[30, 0, 0], [31, 0, 0], [32, 0, 0]]
    }, 
    {
      "op": "Concat", 
      "name": "concat1", 
      "attrs": {
        "dim": "1", 
        "num_args": "2"
      }, 
      "inputs": [[23, 0, 0], [33, 0, 0]]
    }, 
    {
      "op": "Pad", 
      "name": "pad8", 
      "attrs": {
        "mode": "constant", 
        "pad_width": "(0, 0, 0, 0, 0, 0, 0, 0)"
      }, 
      "inputs": [[34, 0, 0]]
    }, 
    {
      "op": "null", 
      "name": "learned_14", 
      "attrs": {"__shape__": "(160, 240, 1, 1)"}, 
      "inputs": []
    }, 
    {
      "op": "null", 
      "name": "learned_15", 
      "attrs": {"__shape__": "(160,)"}, 
      "inputs": []
    }, 
    {
      "op": "Convolution", 
      "name": "convolution5", 
      "attrs": {
        "dilate": "(1, 1)", 
        "kernel": "(1, 1)", 
        "no_bias": "False", 
        "num_filter": "160", 
        "num_group": "1", 
        "stride": "(1, 1)"
      }, 
      "inputs": [[35, 0, 0], [36, 0, 0], [37, 0, 0]]
    }, 
    {
      "op": "relu", 
      "name": "relu2", 
      "inputs": [[38, 0, 0]]
    }, 
    {
      "op": "Pad", 
      "name": "pad9", 
      "attrs": {
        "mode": "reflect", 
        "pad_width": "(0, 0, 0, 0, 1, 1, 1, 1)"
      }, 
      "inputs": [[39, 0, 0]]
    }, 
    {
      "op": "Pad", 
      "name": "pad10", 
      "attrs": {
        "mode": "constant", 
        "pad_width": "(0, 0, 0, 0, 0, 0, 0, 0)"
      }, 
      "inputs": [[40, 0, 0]]
    }, 
    {
      "op": "null", 
      "name": "learned_16", 
      "attrs": {"__shape__": "(40, 160, 3, 3)"}, 
      "inputs": []
    }, 
    {
      "op": "null", 
      "name": "learned_17", 
      "attrs": {"__shape__": "(40,)"}, 
      "inputs": []
    }, 
    {
      "op": "Convolution", 
      "name": "convolution6", 
      "attrs": {
        "dilate": "(1, 1)", 
        "kernel": "(3, 3)", 
        "no_bias": "False", 
        "num_filter": "40", 
        "num_group": "1", 
        "stride": "(1, 1)"
      }, 
      "inputs": [[41, 0, 0], [42, 0, 0], [43, 0, 0]]
    }, 
    {
      "op": "Concat", 
      "name": "concat2", 
      "attrs": {
        "dim": "1", 
        "num_args": "2"
      }, 
      "inputs": [[34, 0, 0], [44, 0, 0]]
    }, 
    {
      "op": "Pad", 
      "name": "pad11", 
      "attrs": {
        "mode": "constant", 
        "pad_width": "(0, 0, 0, 0, 0, 0, 0, 0)"
      }, 
      "inputs": [[45, 0, 0]]
    }, 
    {
      "op": "null", 
      "name": "learned_18", 
      "attrs": {"__shape__": "(160, 280, 1, 1)"}, 
      "inputs": []
    }, 
    {
      "op": "null", 
      "name": "learned_19", 
      "attrs": {"__shape__": "(160,)"}, 
      "inputs": []
    }, 
    {
      "op": "Convolution", 
      "name": "convolution7", 
      "attrs": {
        "dilate": "(1, 1)", 
        "kernel": "(1, 1)", 
        "no_bias": "False", 
        "num_filter": "160", 
        "num_group": "1", 
        "stride": "(1, 1)"
      }, 
      "inputs": [[46, 0, 0], [47, 0, 0], [48, 0, 0]]
    }, 
    {
      "op": "relu", 
      "name": "relu3", 
      "inputs": [[49, 0, 0]]
    }, 
    {
      "op": "Pad", 
      "name": "pad12", 
      "attrs": {
        "mode": "reflect", 
        "pad_width": "(0, 0, 0, 0, 1, 1, 1, 1)"
      }, 
      "inputs": [[50, 0, 0]]
    }, 
    {
      "op": "Pad", 
      "name": "pad13", 
      "attrs": {
        "mode": "constant", 
        "pad_width": "(0, 0, 0, 0, 0, 0, 0, 0)"
      }, 
      "inputs": [[51, 0, 0]]
    }, 
    {
      "op": "null", 
      "name": "learned_20", 
      "attrs": {"__shape__": "(40, 160, 3, 3)"}, 
      "inputs": []
    }, 
    {
      "op": "null", 
      "name": "learned_21", 
      "attrs": {"__shape__": "(40,)"}, 
      "inputs": []
    }, 
    {
      "op": "Convolution", 
      "name": "convolution8", 
      "attrs": {
        "dilate": "(1, 1)", 
        "kernel": "(3, 3)", 
        "no_bias": "False", 
        "num_filter": "40", 
        "num_group": "1", 
        "stride": "(1, 1)"
      }, 
      "inputs": [[52, 0, 0], [53, 0, 0], [54, 0, 0]]
    }, 
    {
      "op": "Concat", 
      "name": "concat3", 
      "attrs": {
        "dim": "1", 
        "num_args": "2"
      }, 
      "inputs": [[45, 0, 0], [55, 0, 0]]
    }, 
    {
      "op": "Pad", 
      "name": "pad14", 
      "attrs": {
        "mode": "constant", 
        "pad_width": "(0, 0, 0, 0, 0, 0, 0, 0)"
      }, 
      "inputs": [[56, 0, 0]]
    }, 
    {
      "op": "null", 
      "name": "learned_22", 
      "attrs": {"__shape__": "(160, 320, 1, 1)"}, 
      "inputs": []
    }, 
    {
      "op": "null", 
      "name": "learned_23", 
      "attrs": {"__shape__": "(160,)"}, 
      "inputs": []
    }, 
    {
      "op": "Convolution", 
      "name": "convolution9", 
      "attrs": {
        "dilate": "(1, 1)", 
        "kernel": "(1, 1)", 
        "no_bias": "False", 
        "num_filter": "160", 
        "num_group": "1", 
        "stride": "(1, 1)"
      }, 
      "inputs": [[57, 0, 0], [58, 0, 0], [59, 0, 0]]
    }, 
    {
      "op": "relu", 
      "name": "relu4", 
      "inputs": [[60, 0, 0]]
    }, 
    {
      "op": "Pad", 
      "name": "pad15", 
      "attrs": {
        "mode": "reflect", 
        "pad_width": "(0, 0, 0, 0, 1, 1, 1, 1)"
      }, 
      "inputs": [[61, 0, 0]]
    }, 
    {
      "op": "Pad", 
      "name": "pad16", 
      "attrs": {
        "mode": "constant", 
        "pad_width": "(0, 0, 0, 0, 0, 0, 0, 0)"
      }, 
      "inputs": [[62, 0, 0]]
    }, 
    {
      "op": "null", 
      "name": "learned_24", 
      "attrs": {"__shape__": "(40, 160, 3, 3)"}, 
      "inputs": []
    }, 
    {
      "op": "null", 
      "name": "learned_25", 
      "attrs": {"__shape__": "(40,)"}, 
      "inputs": []
    }, 
    {
      "op": "Convolution", 
      "name": "convolution10", 
      "attrs": {
        "dilate": "(1, 1)", 
        "kernel": "(3, 3)", 
        "no_bias": "False", 
        "num_filter": "40", 
        "num_group": "1", 
        "stride": "(1, 1)"
      }, 
      "inputs": [[63, 0, 0], [64, 0, 0], [65, 0, 0]]
    }, 
    {
      "op": "Concat", 
      "name": "concat4", 
      "attrs": {
        "dim": "1", 
        "num_args": "2"
      }, 
      "inputs": [[56, 0, 0], [66, 0, 0]]
    }, 
    {
      "op": "Pad", 
      "name": "pad17", 
      "attrs": {
        "mode": "constant", 
        "pad_width": "(0, 0, 0, 0, 0, 0, 0, 0)"
      }, 
      "inputs": [[67, 0, 0]]
    }, 
    {
      "op": "null", 
      "name": "learned_26", 
      "attrs": {"__shape__": "(160, 360, 1, 1)"}, 
      "inputs": []
    }, 
    {
      "op": "null", 
      "name": "learned_27", 
      "attrs": {"__shape__": "(160,)"}, 
      "inputs": []
    }, 
    {
      "op": "Convolution", 
      "name": "convolution11", 
      "attrs": {
        "dilate": "(1, 1)", 
        "kernel": "(1, 1)", 
        "no_bias": "False", 
        "num_filter": "160", 
        "num_group": "1", 
        "stride": "(1, 1)"
      }, 
      "inputs": [[68, 0, 0], [69, 0, 0], [70, 0, 0]]
    }, 
    {
      "op": "relu", 
      "name": "relu5", 
      "inputs": [[71, 0, 0]]
    }, 
    {
      "op": "Pad", 
      "name": "pad18", 
      "attrs": {
        "mode": "reflect", 
        "pad_width": "(0, 0, 0, 0, 1, 1, 1, 1)"
      }, 
      "inputs": [[72, 0, 0]]
    }, 
    {
      "op": "Pad", 
      "name": "pad19", 
      "attrs": {
        "mode": "constant", 
        "pad_width": "(0, 0, 0, 0, 0, 0, 0, 0)"
      }, 
      "inputs": [[73, 0, 0]]
    }, 
    {
      "op": "null", 
      "name": "learned_28", 
      "attrs": {"__shape__": "(40, 160, 3, 3)"}, 
      "inputs": []
    }, 
    {
      "op": "null", 
      "name": "learned_29", 
      "attrs": {"__shape__": "(40,)"}, 
      "inputs": []
    }, 
    {
      "op": "Convolution", 
      "name": "convolution12", 
      "attrs": {
        "dilate": "(1, 1)", 
        "kernel": "(3, 3)", 
        "no_bias": "False", 
        "num_filter": "40", 
        "num_group": "1", 
        "stride": "(1, 1)"
      }, 
      "inputs": [[74, 0, 0], [75, 0, 0], [76, 0, 0]]
    }, 
    {
      "op": "Concat", 
      "name": "concat5", 
      "attrs": {
        "dim": "1", 
        "num_args": "2"
      }, 
      "inputs": [[67, 0, 0], [77, 0, 0]]
    }, 
    {
      "op": "Pad", 
      "name": "pad20", 
      "attrs": {
        "mode": "constant", 
        "pad_width": "(0, 0, 0, 0, 0, 0, 0, 0)"
      }, 
      "inputs": [[78, 0, 0]]
    }, 
    {
      "op": "null", 
      "name": "learned_30", 
      "attrs": {"__shape__": "(160, 400, 1, 1)"}, 
      "inputs": []
    }, 
    {
      "op": "null", 
      "name": "learned_31", 
      "attrs": {"__shape__": "(160,)"}, 
      "inputs": []
    }, 
    {
      "op": "Convolution", 
      "name": "convolution13", 
      "attrs": {
        "dilate": "(1, 1)", 
        "kernel": "(1, 1)", 
        "no_bias": "False", 
        "num_filter": "160", 
        "num_group": "1", 
        "stride": "(1, 1)"
      }, 
      "inputs": [[79, 0, 0], [80, 0, 0], [81, 0, 0]]
    }, 
    {
      "op": "relu", 
      "name": "relu6", 
      "inputs": [[82, 0, 0]]
    }, 
    {
      "op": "Pad", 
      "name": "pad21", 
      "attrs": {
        "mode": "reflect", 
        "pad_width": "(0, 0, 0, 0, 1, 1, 1, 1)"
      }, 
      "inputs": [[83, 0, 0]]
    }, 
    {
      "op": "Pad", 
      "name": "pad22", 
      "attrs": {
        "mode": "constant", 
        "pad_width": "(0, 0, 0, 0, 0, 0, 0, 0)"
      }, 
      "inputs": [[84, 0, 0]]
    }, 
    {
      "op": "null", 
      "name": "learned_32", 
      "attrs": {"__shape__": "(40, 160, 3, 3)"}, 
      "inputs": []
    }, 
    {
      "op": "null", 
      "name": "learned_33", 
      "attrs": {"__shape__": "(40,)"}, 
      "inputs": []
    }, 
    {
      "op": "Convolution", 
      "name": "convolution14", 
      "attrs": {
        "dilate": "(1, 1)", 
        "kernel": "(3, 3)", 
        "no_bias": "False", 
        "num_filter": "40", 
        "num_group": "1", 
        "stride": "(1, 1)"
      }, 
      "inputs": [[85, 0, 0], [86, 0, 0], [87, 0, 0]]
    }, 
    {
      "op": "Concat", 
      "name": "concat6", 
      "attrs": {
        "dim": "1", 
        "num_args": "2"
      }, 
      "inputs": [[78, 0, 0], [88, 0, 0]]
    }, 
    {
      "op": "Pad", 
      "name": "pad23", 
      "attrs": {
        "mode": "constant", 
        "pad_width": "(0, 0, 0, 0, 0, 0, 0, 0)"
      }, 
      "inputs": [[89, 0, 0]]
    }, 
    {
      "op": "null", 
      "name": "learned_34", 
      "attrs": {"__shape__": "(160, 440, 1, 1)"}, 
      "inputs": []
    }, 
    {
      "op": "null", 
      "name": "learned_35", 
      "attrs": {"__shape__": "(160,)"}, 
      "inputs": []
    }, 
    {
      "op": "Convolution", 
      "name": "convolution15", 
      "attrs": {
        "dilate": "(1, 1)", 
        "kernel": "(1, 1)", 
        "no_bias": "False", 
        "num_filter": "160", 
        "num_group": "1", 
        "stride": "(1, 1)"
      }, 
      "inputs": [[90, 0, 0], [91, 0, 0], [92, 0, 0]]
    }, 
    {
      "op": "relu", 
      "name": "relu7", 
      "inputs": [[93, 0, 0]]
    }, 
    {
      "op": "Pad", 
      "name": "pad24", 
      "attrs": {
        "mode": "reflect", 
        "pad_width": "(0, 0, 0, 0, 1, 1, 1, 1)"
      }, 
      "inputs": [[94, 0, 0]]
    }, 
    {
      "op": "Pad", 
      "name": "pad25", 
      "attrs": {
        "mode": "constant", 
        "pad_width": "(0, 0, 0, 0, 0, 0, 0, 0)"
      }, 
      "inputs": [[95, 0, 0]]
    }, 
    {
      "op": "null", 
      "name": "learned_36", 
      "attrs": {"__shape__": "(40, 160, 3, 3)"}, 
      "inputs": []
    }, 
    {
      "op": "null", 
      "name": "learned_37", 
      "attrs": {"__shape__": "(40,)"}, 
      "inputs": []
    }, 
    {
      "op": "Convolution", 
      "name": "convolution16", 
      "attrs": {
        "dilate": "(1, 1)", 
        "kernel": "(3, 3)", 
        "no_bias": "False", 
        "num_filter": "40", 
        "num_group": "1", 
        "stride": "(1, 1)"
      }, 
      "inputs": [[96, 0, 0], [97, 0, 0], [98, 0, 0]]
    }, 
    {
      "op": "Concat", 
      "name": "concat7", 
      "attrs": {
        "dim": "1", 
        "num_args": "2"
      }, 
      "inputs": [[89, 0, 0], [99, 0, 0]]
    }, 
    {
      "op": "Pad", 
      "name": "pad26", 
      "attrs": {
        "mode": "constant", 
        "pad_width": "(0, 0, 0, 0, 0, 0, 0, 0)"
      }, 
      "inputs": [[100, 0, 0]]
    }, 
    {
      "op": "null", 
      "name": "learned_38", 
      "attrs": {"__shape__": "(160, 480, 1, 1)"}, 
      "inputs": []
    }, 
    {
      "op": "Convolution", 
      "name": "convolution17", 
      "attrs": {
        "dilate": "(1, 1)", 
        "kernel": "(1, 1)", 
        "no_bias": "True", 
        "num_filter": "160", 
        "num_group": "1", 
        "stride": "(1, 1)"
      }, 
      "inputs": [[101, 0, 0], [102, 0, 0]]
    }, 
    {
      "op": "_mul_scalar", 
      "name": "_mulscalar0", 
      "attrs": {"scalar": "0.2"}, 
      "inputs": [[103, 0, 0]]
    }, 
    {
      "op": "broadcast_add", 
      "name": "broadcast_add0", 
      "inputs": [[104, 0, 0], [12, 0, 0]]
    }, 
    {
      "op": "Pad", 
      "name": "pad27", 
      "attrs": {
        "mode": "constant", 
        "pad_width": "(0, 0, 0, 0, 0, 0, 0, 0)"
      }, 
      "inputs": [[105, 0, 0]]
    }, 
    {
      "op": "null", 
      "name": "learned_39", 
      "attrs": {"__shape__": "(160, 160, 1, 1)"}, 
      "inputs": []
    }, 
    {
      "op": "null", 
      "name": "learned_40", 
      "attrs": {"__shape__": "(160,)"}, 
      "inputs": []
    }, 
    {
      "op": "Convolution", 
      "name": "convolution18", 
      "attrs": {
        "dilate": "(1, 1)", 
        "kernel": "(1, 1)", 
        "no_bias": "False", 
        "num_filter": "160", 
        "num_group": "1", 
        "stride": "(1, 1)"
      }, 
      "inputs": [[106, 0, 0], [107, 0, 0], [108, 0, 0]]
    }, 
    {
      "op": "relu", 
      "name": "relu8", 
      "inputs": [[109, 0, 0]]
    }, 
    {
      "op": "Pad", 
      "name": "pad28", 
      "attrs": {
        "mode": "reflect", 
        "pad_width": "(0, 0, 0, 0, 1, 1, 1, 1)"
      }, 
      "inputs": [[110, 0, 0]]
    }, 
    {
      "op": "Pad", 
      "name": "pad29", 
      "attrs": {
        "mode": "constant", 
        "pad_width": "(0, 0, 0, 0, 0, 0, 0, 0)"
      }, 
      "inputs": [[111, 0, 0]]
    }, 
    {
      "op": "null", 
      "name": "learned_41", 
      "attrs": {"__shape__": "(40, 160, 3, 3)"}, 
      "inputs": []
    }, 
    {
      "op": "null", 
      "name": "learned_42", 
      "attrs": {"__shape__": "(40,)"}, 
      "inputs": []
    }, 
    {
      "op": "Convolution", 
      "name": "convolution19", 
      "attrs": {
        "dilate": "(1, 1)", 
        "kernel": "(3, 3)", 
        "no_bias": "False", 
        "num_filter": "40", 
        "num_group": "1", 
        "stride": "(1, 1)"
      }, 
      "inputs": [[112, 0, 0], [113, 0, 0], [114, 0, 0]]
    }, 
    {
      "op": "Concat", 
      "name": "concat8", 
      "attrs": {
        "dim": "1", 
        "num_args": "2"
      }, 
      "inputs": [[105, 0, 0], [115, 0, 0]]
    }, 
    {
      "op": "Pad", 
      "name": "pad30", 
      "attrs": {
        "mode": "constant", 
        "pad_width": "(0, 0, 0, 0, 0, 0, 0, 0)"
      }, 
      "inputs": [[116, 0, 0]]
    }, 
    {
      "op": "null", 
      "name": "learned_43", 
      "attrs": {"__shape__": "(160, 200, 1, 1)"}, 
      "inputs": []
    }, 
    {
      "op": "null", 
      "name": "learned_44", 
      "attrs": {"__shape__": "(160,)"}, 
      "inputs": []
    }, 
    {
      "op": "Convolution", 
      "name": "convolution20", 
      "attrs": {
        "dilate": "(1, 1)", 
        "kernel": "(1, 1)", 
        "no_bias": "False", 
        "num_filter": "160", 
        "num_group": "1", 
        "stride": "(1, 1)"
      }, 
      "inputs": [[117, 0, 0], [118, 0, 0], [119, 0, 0]]
    }, 
    {
      "op": "relu", 
      "name": "relu9", 
      "inputs": [[120, 0, 0]]
    }, 
    {
      "op": "Pad", 
      "name": "pad31", 
      "attrs": {
        "mode": "reflect", 
        "pad_width": "(0, 0, 0, 0, 1, 1, 1, 1)"
      }, 
      "inputs": [[121, 0, 0]]
    }, 
    {
      "op": "Pad", 
      "name": "pad32", 
      "attrs": {
        "mode": "constant", 
        "pad_width": "(0, 0, 0, 0, 0, 0, 0, 0)"
      }, 
      "inputs": [[122, 0, 0]]
    }, 
    {
      "op": "null", 
      "name": "learned_45", 
      "attrs": {"__shape__": "(40, 160, 3, 3)"}, 
      "inputs": []
    }, 
    {
      "op": "null", 
      "name": "learned_46", 
      "attrs": {"__shape__": "(40,)"}, 
      "inputs": []
    }, 
    {
      "op": "Convolution", 
      "name": "convolution21", 
      "attrs": {
        "dilate": "(1, 1)", 
        "kernel": "(3, 3)", 
        "no_bias": "False", 
        "num_filter": "40", 
        "num_group": "1", 
        "stride": "(1, 1)"
      }, 
      "inputs": [[123, 0, 0], [124, 0, 0], [125, 0, 0]]
    }, 
    {
      "op": "Concat", 
      "name": "concat9", 
      "attrs": {
        "dim": "1", 
        "num_args": "2"
      }, 
      "inputs": [[116, 0, 0], [126, 0, 0]]
    }, 
    {
      "op": "Pad", 
      "name": "pad33", 
      "attrs": {
        "mode": "constant", 
        "pad_width": "(0, 0, 0, 0, 0, 0, 0, 0)"
      }, 
      "inputs": [[127, 0, 0]]
    }, 
    {
      "op": "null", 
      "name": "learned_47", 
      "attrs": {"__shape__": "(160, 240, 1, 1)"}, 
      "inputs": []
    }, 
    {
      "op": "null", 
      "name": "learned_48", 
      "attrs": {"__shape__": "(160,)"}, 
      "inputs": []
    }, 
    {
      "op": "Convolution", 
      "name": "convolution22", 
      "attrs": {
        "dilate": "(1, 1)", 
        "kernel": "(1, 1)", 
        "no_bias": "False", 
        "num_filter": "160", 
        "num_group": "1", 
        "stride": "(1, 1)"
      }, 
      "inputs": [[128, 0, 0], [129, 0, 0], [130, 0, 0]]
    }, 
    {
      "op": "relu", 
      "name": "relu10", 
      "inputs": [[131, 0, 0]]
    }, 
    {
      "op": "Pad", 
      "name": "pad34", 
      "attrs": {
        "mode": "reflect", 
        "pad_width": "(0, 0, 0, 0, 1, 1, 1, 1)"
      }, 
      "inputs": [[132, 0, 0]]
    }, 
    {
      "op": "Pad", 
      "name": "pad35", 
      "attrs": {
        "mode": "constant", 
        "pad_width": "(0, 0, 0, 0, 0, 0, 0, 0)"
      }, 
      "inputs": [[133, 0, 0]]
    }, 
    {
      "op": "null", 
      "name": "learned_49", 
      "attrs": {"__shape__": "(40, 160, 3, 3)"}, 
      "inputs": []
    }, 
    {
      "op": "null", 
      "name": "learned_50", 
      "attrs": {"__shape__": "(40,)"}, 
      "inputs": []
    }, 
    {
      "op": "Convolution", 
      "name": "convolution23", 
      "attrs": {
        "dilate": "(1, 1)", 
        "kernel": "(3, 3)", 
        "no_bias": "False", 
        "num_filter": "40", 
        "num_group": "1", 
        "stride": "(1, 1)"
      }, 
      "inputs": [[134, 0, 0], [135, 0, 0], [136, 0, 0]]
    }, 
    {
      "op": "Concat", 
      "name": "concat10", 
      "attrs": {
        "dim": "1", 
        "num_args": "2"
      }, 
      "inputs": [[127, 0, 0], [137, 0, 0]]
    }, 
    {
      "op": "Pad", 
      "name": "pad36", 
      "attrs": {
        "mode": "constant", 
        "pad_width": "(0, 0, 0, 0, 0, 0, 0, 0)"
      }, 
      "inputs": [[138, 0, 0]]
    }, 
    {
      "op": "null", 
      "name": "learned_51", 
      "attrs": {"__shape__": "(160, 280, 1, 1)"}, 
      "inputs": []
    }, 
    {
      "op": "null", 
      "name": "learned_52", 
      "attrs": {"__shape__": "(160,)"}, 
      "inputs": []
    }, 
    {
      "op": "Convolution", 
      "name": "convolution24", 
      "attrs": {
        "dilate": "(1, 1)", 
        "kernel": "(1, 1)", 
        "no_bias": "False", 
        "num_filter": "160", 
        "num_group": "1", 
        "stride": "(1, 1)"
      }, 
      "inputs": [[139, 0, 0], [140, 0, 0], [141, 0, 0]]
    }, 
    {
      "op": "relu", 
      "name": "relu11", 
      "inputs": [[142, 0, 0]]
    }, 
    {
      "op": "Pad", 
      "name": "pad37", 
      "attrs": {
        "mode": "reflect", 
        "pad_width": "(0, 0, 0, 0, 1, 1, 1, 1)"
      }, 
      "inputs": [[143, 0, 0]]
    }, 
    {
      "op": "Pad", 
      "name": "pad38", 
      "attrs": {
        "mode": "constant", 
        "pad_width": "(0, 0, 0, 0, 0, 0, 0, 0)"
      }, 
      "inputs": [[144, 0, 0]]
    }, 
    {
      "op": "null", 
      "name": "learned_53", 
      "attrs": {"__shape__": "(40, 160, 3, 3)"}, 
      "inputs": []
    }, 
    {
      "op": "null", 
      "name": "learned_54", 
      "attrs": {"__shape__": "(40,)"}, 
      "inputs": []
    }, 
    {
      "op": "Convolution", 
      "name": "convolution25", 
      "attrs": {
        "dilate": "(1, 1)", 
        "kernel": "(3, 3)", 
        "no_bias": "False", 
        "num_filter": "40", 
        "num_group": "1", 
        "stride": "(1, 1)"
      }, 
      "inputs": [[145, 0, 0], [146, 0, 0], [147, 0, 0]]
    }, 
    {
      "op": "Concat", 
      "name": "concat11", 
      "attrs": {
        "dim": "1", 
        "num_args": "2"
      }, 
      "inputs": [[138, 0, 0], [148, 0, 0]]
    }, 
    {
      "op": "Pad", 
      "name": "pad39", 
      "attrs": {
        "mode": "constant", 
        "pad_width": "(0, 0, 0, 0, 0, 0, 0, 0)"
      }, 
      "inputs": [[149, 0, 0]]
    }, 
    {
      "op": "null", 
      "name": "learned_55", 
      "attrs": {"__shape__": "(160, 320, 1, 1)"}, 
      "inputs": []
    }, 
    {
      "op": "null", 
      "name": "learned_56", 
      "attrs": {"__shape__": "(160,)"}, 
      "inputs": []
    }, 
    {
      "op": "Convolution", 
      "name": "convolution26", 
      "attrs": {
        "dilate": "(1, 1)", 
        "kernel": "(1, 1)", 
        "no_bias": "False", 
        "num_filter": "160", 
        "num_group": "1", 
        "stride": "(1, 1)"
      }, 
      "inputs": [[150, 0, 0], [151, 0, 0], [152, 0, 0]]
    }, 
    {
      "op": "relu", 
      "name": "relu12", 
      "inputs": [[153, 0, 0]]
    }, 
    {
      "op": "Pad", 
      "name": "pad40", 
      "attrs": {
        "mode": "reflect", 
        "pad_width": "(0, 0, 0, 0, 1, 1, 1, 1)"
      }, 
      "inputs": [[154, 0, 0]]
    }, 
    {
      "op": "Pad", 
      "name": "pad41", 
      "attrs": {
        "mode": "constant", 
        "pad_width": "(0, 0, 0, 0, 0, 0, 0, 0)"
      }, 
      "inputs": [[155, 0, 0]]
    }, 
    {
      "op": "null", 
      "name": "learned_57", 
      "attrs": {"__shape__": "(40, 160, 3, 3)"}, 
      "inputs": []
    }, 
    {
      "op": "null", 
      "name": "learned_58", 
      "attrs": {"__shape__": "(40,)"}, 
      "inputs": []
    }, 
    {
      "op": "Convolution", 
      "name": "convolution27", 
      "attrs": {
        "dilate": "(1, 1)", 
        "kernel": "(3, 3)", 
        "no_bias": "False", 
        "num_filter": "40", 
        "num_group": "1", 
        "stride": "(1, 1)"
      }, 
      "inputs": [[156, 0, 0], [157, 0, 0], [158, 0, 0]]
    }, 
    {
      "op": "Concat", 
      "name": "concat12", 
      "attrs": {
        "dim": "1", 
        "num_args": "2"
      }, 
      "inputs": [[149, 0, 0], [159, 0, 0]]
    }, 
    {
      "op": "Pad", 
      "name": "pad42", 
      "attrs": {
        "mode": "constant", 
        "pad_width": "(0, 0, 0, 0, 0, 0, 0, 0)"
      }, 
      "inputs": [[160, 0, 0]]
    }, 
    {
      "op": "null", 
      "name": "learned_59", 
      "attrs": {"__shape__": "(160, 360, 1, 1)"}, 
      "inputs": []
    }, 
    {
      "op": "null", 
      "name": "learned_60", 
      "attrs": {"__shape__": "(160,)"}, 
      "inputs": []
    }, 
    {
      "op": "Convolution", 
      "name": "convolution28", 
      "attrs": {
        "dilate": "(1, 1)", 
        "kernel": "(1, 1)", 
        "no_bias": "False", 
        "num_filter": "160", 
        "num_group": "1", 
        "stride": "(1, 1)"
      }, 
      "inputs": [[161, 0, 0], [162, 0, 0], [163, 0, 0]]
    }, 
    {
      "op": "relu", 
      "name": "relu13", 
      "inputs": [[164, 0, 0]]
    }, 
    {
      "op": "Pad", 
      "name": "pad43", 
      "attrs": {
        "mode": "reflect", 
        "pad_width": "(0, 0, 0, 0, 1, 1, 1, 1)"
      }, 
      "inputs": [[165, 0, 0]]
    }, 
    {
      "op": "Pad", 
      "name": "pad44", 
      "attrs": {
        "mode": "constant", 
        "pad_width": "(0, 0, 0, 0, 0, 0, 0, 0)"
      }, 
      "inputs": [[166, 0, 0]]
    }, 
    {
      "op": "null", 
      "name": "learned_61", 
      "attrs": {"__shape__": "(40, 160, 3, 3)"}, 
      "inputs": []
    }, 
    {
      "op": "null", 
      "name": "learned_62", 
      "attrs": {"__shape__": "(40,)"}, 
      "inputs": []
    }, 
    {
      "op": "Convolution", 
      "name": "convolution29", 
      "attrs": {
        "dilate": "(1, 1)", 
        "kernel": "(3, 3)", 
        "no_bias": "False", 
        "num_filter": "40", 
        "num_group": "1", 
        "stride": "(1, 1)"
      }, 
      "inputs": [[167, 0, 0], [168, 0, 0], [169, 0, 0]]
    }, 
    {
      "op": "Concat", 
      "name": "concat13", 
      "attrs": {
        "dim": "1", 
        "num_args": "2"
      }, 
      "inputs": [[160, 0, 0], [170, 0, 0]]
    }, 
    {
      "op": "Pad", 
      "name": "pad45", 
      "attrs": {
        "mode": "constant", 
        "pad_width": "(0, 0, 0, 0, 0, 0, 0, 0)"
      }, 
      "inputs": [[171, 0, 0]]
    }, 
    {
      "op": "null", 
      "name": "learned_63", 
      "attrs": {"__shape__": "(160, 400, 1, 1)"}, 
      "inputs": []
    }, 
    {
      "op": "null", 
      "name": "learned_64", 
      "attrs": {"__shape__": "(160,)"}, 
      "inputs": []
    }, 
    {
      "op": "Convolution", 
      "name": "convolution30", 
      "attrs": {
        "dilate": "(1, 1)", 
        "kernel": "(1, 1)", 
        "no_bias": "False", 
        "num_filter": "160", 
        "num_group": "1", 
        "stride": "(1, 1)"
      }, 
      "inputs": [[172, 0, 0], [173, 0, 0], [174, 0, 0]]
    }, 
    {
      "op": "relu", 
      "name": "relu14", 
      "inputs": [[175, 0, 0]]
    }, 
    {
      "op": "Pad", 
      "name": "pad46", 
      "attrs": {
        "mode": "reflect", 
        "pad_width": "(0, 0, 0, 0, 1, 1, 1, 1)"
      }, 
      "inputs": [[176, 0, 0]]
    }, 
    {
      "op": "Pad", 
      "name": "pad47", 
      "attrs": {
        "mode": "constant", 
        "pad_width": "(0, 0, 0, 0, 0, 0, 0, 0)"
      }, 
      "inputs": [[177, 0, 0]]
    }, 
    {
      "op": "null", 
      "name": "learned_65", 
      "attrs": {"__shape__": "(40, 160, 3, 3)"}, 
      "inputs": []
    }, 
    {
      "op": "null", 
      "name": "learned_66", 
      "attrs": {"__shape__": "(40,)"}, 
      "inputs": []
    }, 
    {
      "op": "Convolution", 
      "name": "convolution31", 
      "attrs": {
        "dilate": "(1, 1)", 
        "kernel": "(3, 3)", 
        "no_bias": "False", 
        "num_filter": "40", 
        "num_group": "1", 
        "stride": "(1, 1)"
      }, 
      "inputs": [[178, 0, 0], [179, 0, 0], [180, 0, 0]]
    }, 
    {
      "op": "Concat", 
      "name": "concat14", 
      "attrs": {
        "dim": "1", 
        "num_args": "2"
      }, 
      "inputs": [[171, 0, 0], [181, 0, 0]]
    }, 
    {
      "op": "Pad", 
      "name": "pad48", 
      "attrs": {
        "mode": "constant", 
        "pad_width": "(0, 0, 0, 0, 0, 0, 0, 0)"
      }, 
      "inputs": [[182, 0, 0]]
    }, 
    {
      "op": "null", 
      "name": "learned_67", 
      "attrs": {"__shape__": "(160, 440, 1, 1)"}, 
      "inputs": []
    }, 
    {
      "op": "null", 
      "name": "learned_68", 
      "attrs": {"__shape__": "(160,)"}, 
      "inputs": []
    }, 
    {
      "op": "Convolution", 
      "name": "convolution32", 
      "attrs": {
        "dilate": "(1, 1)", 
        "kernel": "(1, 1)", 
        "no_bias": "False", 
        "num_filter": "160", 
        "num_group": "1", 
        "stride": "(1, 1)"
      }, 
      "inputs": [[183, 0, 0], [184, 0, 0], [185, 0, 0]]
    }, 
    {
      "op": "relu", 
      "name": "relu15", 
      "inputs": [[186, 0, 0]]
    }, 
    {
      "op": "Pad", 
      "name": "pad49", 
      "attrs": {
        "mode": "reflect", 
        "pad_width": "(0, 0, 0, 0, 1, 1, 1, 1)"
      }, 
      "inputs": [[187, 0, 0]]
    }, 
    {
      "op": "Pad", 
      "name": "pad50", 
      "attrs": {
        "mode": "constant", 
        "pad_width": "(0, 0, 0, 0, 0, 0, 0, 0)"
      }, 
      "inputs": [[188, 0, 0]]
    }, 
    {
      "op": "null", 
      "name": "learned_69", 
      "attrs": {"__shape__": "(40, 160, 3, 3)"}, 
      "inputs": []
    }, 
    {
      "op": "null", 
      "name": "learned_70", 
      "attrs": {"__shape__": "(40,)"}, 
      "inputs": []
    }, 
    {
      "op": "Convolution", 
      "name": "convolution33", 
      "attrs": {
        "dilate": "(1, 1)", 
        "kernel": "(3, 3)", 
        "no_bias": "False", 
        "num_filter": "40", 
        "num_group": "1", 
        "stride": "(1, 1)"
      }, 
      "inputs": [[189, 0, 0], [190, 0, 0], [191, 0, 0]]
    }, 
    {
      "op": "Concat", 
      "name": "concat15", 
      "attrs": {
        "dim": "1", 
        "num_args": "2"
      }, 
      "inputs": [[182, 0, 0], [192, 0, 0]]
    }, 
    {
      "op": "Pad", 
      "name": "pad51", 
      "attrs": {
        "mode": "constant", 
        "pad_width": "(0, 0, 0, 0, 0, 0, 0, 0)"
      }, 
      "inputs": [[193, 0, 0]]
    }, 
    {
      "op": "null", 
      "name": "learned_71", 
      "attrs": {"__shape__": "(160, 480, 1, 1)"}, 
      "inputs": []
    }, 
    {
      "op": "Convolution", 
      "name": "convolution34", 
      "attrs": {
        "dilate": "(1, 1)", 
        "kernel": "(1, 1)", 
        "no_bias": "True", 
        "num_filter": "160", 
        "num_group": "1", 
        "stride": "(1, 1)"
      }, 
      "inputs": [[194, 0, 0], [195, 0, 0]]
    }, 
    {
      "op": "_mul_scalar", 
      "name": "_mulscalar1", 
      "attrs": {"scalar": "0.2"}, 
      "inputs": [[196, 0, 0]]
    }, 
    {
      "op": "broadcast_add", 
      "name": "broadcast_add1", 
      "inputs": [[197, 0, 0], [105, 0, 0]]
    }, 
    {
      "op": "Pad", 
      "name": "pad52", 
      "attrs": {
        "mode": "constant", 
        "pad_width": "(0, 0, 0, 0, 0, 0, 0, 0)"
      }, 
      "inputs": [[198, 0, 0]]
    }, 
    {
      "op": "null", 
      "name": "learned_72", 
      "attrs": {"__shape__": "(160, 160, 1, 1)"}, 
      "inputs": []
    }, 
    {
      "op": "null", 
      "name": "learned_73", 
      "attrs": {"__shape__": "(160,)"}, 
      "inputs": []
    }, 
    {
      "op": "Convolution", 
      "name": "convolution35", 
      "attrs": {
        "dilate": "(1, 1)", 
        "kernel": "(1, 1)", 
        "no_bias": "False", 
        "num_filter": "160", 
        "num_group": "1", 
        "stride": "(1, 1)"
      }, 
      "inputs": [[199, 0, 0], [200, 0, 0], [201, 0, 0]]
    }, 
    {
      "op": "relu", 
      "name": "relu16", 
      "inputs": [[202, 0, 0]]
    }, 
    {
      "op": "Pad", 
      "name": "pad53", 
      "attrs": {
        "mode": "reflect", 
        "pad_width": "(0, 0, 0, 0, 1, 1, 1, 1)"
      }, 
      "inputs": [[203, 0, 0]]
    }, 
    {
      "op": "Pad", 
      "name": "pad54", 
      "attrs": {
        "mode": "constant", 
        "pad_width": "(0, 0, 0, 0, 0, 0, 0, 0)"
      }, 
      "inputs": [[204, 0, 0]]
    }, 
    {
      "op": "null", 
      "name": "learned_74", 
      "attrs": {"__shape__": "(40, 160, 3, 3)"}, 
      "inputs": []
    }, 
    {
      "op": "null", 
      "name": "learned_75", 
      "attrs": {"__shape__": "(40,)"}, 
      "inputs": []
    }, 
    {
      "op": "Convolution", 
      "name": "convolution36", 
      "attrs": {
        "dilate": "(1, 1)", 
        "kernel": "(3, 3)", 
        "no_bias": "False", 
        "num_filter": "40", 
        "num_group": "1", 
        "stride": "(1, 1)"
      }, 
      "inputs": [[205, 0, 0], [206, 0, 0], [207, 0, 0]]
    }, 
    {
      "op": "Concat", 
      "name": "concat16", 
      "attrs": {
        "dim": "1", 
        "num_args": "2"
      }, 
      "inputs": [[198, 0, 0], [208, 0, 0]]
    }, 
    {
      "op": "Pad", 
      "name": "pad55", 
      "attrs": {
        "mode": "constant", 
        "pad_width": "(0, 0, 0, 0, 0, 0, 0, 0)"
      }, 
      "inputs": [[209, 0, 0]]
    }, 
    {
      "op": "null", 
      "name": "learned_76", 
      "attrs": {"__shape__": "(160, 200, 1, 1)"}, 
      "inputs": []
    }, 
    {
      "op": "null", 
      "name": "learned_77", 
      "attrs": {"__shape__": "(160,)"}, 
      "inputs": []
    }, 
    {
      "op": "Convolution", 
      "name": "convolution37", 
      "attrs": {
        "dilate": "(1, 1)", 
        "kernel": "(1, 1)", 
        "no_bias": "False", 
        "num_filter": "160", 
        "num_group": "1", 
        "stride": "(1, 1)"
      }, 
      "inputs": [[210, 0, 0], [211, 0, 0], [212, 0, 0]]
    }, 
    {
      "op": "relu", 
      "name": "relu17", 
      "inputs": [[213, 0, 0]]
    }, 
    {
      "op": "Pad", 
      "name": "pad56", 
      "attrs": {
        "mode": "reflect", 
        "pad_width": "(0, 0, 0, 0, 1, 1, 1, 1)"
      }, 
      "inputs": [[214, 0, 0]]
    }, 
    {
      "op": "Pad", 
      "name": "pad57", 
      "attrs": {
        "mode": "constant", 
        "pad_width": "(0, 0, 0, 0, 0, 0, 0, 0)"
      }, 
      "inputs": [[215, 0, 0]]
    }, 
    {
      "op": "null", 
      "name": "learned_78", 
      "attrs": {"__shape__": "(40, 160, 3, 3)"}, 
      "inputs": []
    }, 
    {
      "op": "null", 
      "name": "learned_79", 
      "attrs": {"__shape__": "(40,)"}, 
      "inputs": []
    }, 
    {
      "op": "Convolution", 
      "name": "convolution38", 
      "attrs": {
        "dilate": "(1, 1)", 
        "kernel": "(3, 3)", 
        "no_bias": "False", 
        "num_filter": "40", 
        "num_group": "1", 
        "stride": "(1, 1)"
      }, 
      "inputs": [[216, 0, 0], [217, 0, 0], [218, 0, 0]]
    }, 
    {
      "op": "Concat", 
      "name": "concat17", 
      "attrs": {
        "dim": "1", 
        "num_args": "2"
      }, 
      "inputs": [[209, 0, 0], [219, 0, 0]]
    }, 
    {
      "op": "Pad", 
      "name": "pad58", 
      "attrs": {
        "mode": "constant", 
        "pad_width": "(0, 0, 0, 0, 0, 0, 0, 0)"
      }, 
      "inputs": [[220, 0, 0]]
    }, 
    {
      "op": "null", 
      "name": "learned_80", 
      "attrs": {"__shape__": "(160, 240, 1, 1)"}, 
      "inputs": []
    }, 
    {
      "op": "null", 
      "name": "learned_81", 
      "attrs": {"__shape__": "(160,)"}, 
      "inputs": []
    }, 
    {
      "op": "Convolution", 
      "name": "convolution39", 
      "attrs": {
        "dilate": "(1, 1)", 
        "kernel": "(1, 1)", 
        "no_bias": "False", 
        "num_filter": "160", 
        "num_group": "1", 
        "stride": "(1, 1)"
      }, 
      "inputs": [[221, 0, 0], [222, 0, 0], [223, 0, 0]]
    }, 
    {
      "op": "relu", 
      "name": "relu18", 
      "inputs": [[224, 0, 0]]
    }, 
    {
      "op": "Pad", 
      "name": "pad59", 
      "attrs": {
        "mode": "reflect", 
        "pad_width": "(0, 0, 0, 0, 1, 1, 1, 1)"
      }, 
      "inputs": [[225, 0, 0]]
    }, 
    {
      "op": "Pad", 
      "name": "pad60", 
      "attrs": {
        "mode": "constant", 
        "pad_width": "(0, 0, 0, 0, 0, 0, 0, 0)"
      }, 
      "inputs": [[226, 0, 0]]
    }, 
    {
      "op": "null", 
      "name": "learned_82", 
      "attrs": {"__shape__": "(40, 160, 3, 3)"}, 
      "inputs": []
    }, 
    {
      "op": "null", 
      "name": "learned_83", 
      "attrs": {"__shape__": "(40,)"}, 
      "inputs": []
    }, 
    {
      "op": "Convolution", 
      "name": "convolution40", 
      "attrs": {
        "dilate": "(1, 1)", 
        "kernel": "(3, 3)", 
        "no_bias": "False", 
        "num_filter": "40", 
        "num_group": "1", 
        "stride": "(1, 1)"
      }, 
      "inputs": [[227, 0, 0], [228, 0, 0], [229, 0, 0]]
    }, 
    {
      "op": "Concat", 
      "name": "concat18", 
      "attrs": {
        "dim": "1", 
        "num_args": "2"
      }, 
      "inputs": [[220, 0, 0], [230, 0, 0]]
    }, 
    {
      "op": "Pad", 
      "name": "pad61", 
      "attrs": {
        "mode": "constant", 
        "pad_width": "(0, 0, 0, 0, 0, 0, 0, 0)"
      }, 
      "inputs": [[231, 0, 0]]
    }, 
    {
      "op": "null", 
      "name": "learned_84", 
      "attrs": {"__shape__": "(160, 280, 1, 1)"}, 
      "inputs": []
    }, 
    {
      "op": "null", 
      "name": "learned_85", 
      "attrs": {"__shape__": "(160,)"}, 
      "inputs": []
    }, 
    {
      "op": "Convolution", 
      "name": "convolution41", 
      "attrs": {
        "dilate": "(1, 1)", 
        "kernel": "(1, 1)", 
        "no_bias": "False", 
        "num_filter": "160", 
        "num_group": "1", 
        "stride": "(1, 1)"
      }, 
      "inputs": [[232, 0, 0], [233, 0, 0], [234, 0, 0]]
    }, 
    {
      "op": "relu", 
      "name": "relu19", 
      "inputs": [[235, 0, 0]]
    }, 
    {
      "op": "Pad", 
      "name": "pad62", 
      "attrs": {
        "mode": "reflect", 
        "pad_width": "(0, 0, 0, 0, 1, 1, 1, 1)"
      }, 
      "inputs": [[236, 0, 0]]
    }, 
    {
      "op": "Pad", 
      "name": "pad63", 
      "attrs": {
        "mode": "constant", 
        "pad_width": "(0, 0, 0, 0, 0, 0, 0, 0)"
      }, 
      "inputs": [[237, 0, 0]]
    }, 
    {
      "op": "null", 
      "name": "learned_86", 
      "attrs": {"__shape__": "(40, 160, 3, 3)"}, 
      "inputs": []
    }, 
    {
      "op": "null", 
      "name": "learned_87", 
      "attrs": {"__shape__": "(40,)"}, 
      "inputs": []
    }, 
    {
      "op": "Convolution", 
      "name": "convolution42", 
      "attrs": {
        "dilate": "(1, 1)", 
        "kernel": "(3, 3)", 
        "no_bias": "False", 
        "num_filter": "40", 
        "num_group": "1", 
        "stride": "(1, 1)"
      }, 
      "inputs": [[238, 0, 0], [239, 0, 0], [240, 0, 0]]
    }, 
    {
      "op": "Concat", 
      "name": "concat19", 
      "attrs": {
        "dim": "1", 
        "num_args": "2"
      }, 
      "inputs": [[231, 0, 0], [241, 0, 0]]
    }, 
    {
      "op": "Pad", 
      "name": "pad64", 
      "attrs": {
        "mode": "constant", 
        "pad_width": "(0, 0, 0, 0, 0, 0, 0, 0)"
      }, 
      "inputs": [[242, 0, 0]]
    }, 
    {
      "op": "null", 
      "name": "learned_88", 
      "attrs": {"__shape__": "(160, 320, 1, 1)"}, 
      "inputs": []
    }, 
    {
      "op": "null", 
      "name": "learned_89", 
      "attrs": {"__shape__": "(160,)"}, 
      "inputs": []
    }, 
    {
      "op": "Convolution", 
      "name": "convolution43", 
      "attrs": {
        "dilate": "(1, 1)", 
        "kernel": "(1, 1)", 
        "no_bias": "False", 
        "num_filter": "160", 
        "num_group": "1", 
        "stride": "(1, 1)"
      }, 
      "inputs": [[243, 0, 0], [244, 0, 0], [245, 0, 0]]
    }, 
    {
      "op": "relu", 
      "name": "relu20", 
      "inputs": [[246, 0, 0]]
    }, 
    {
      "op": "Pad", 
      "name": "pad65", 
      "attrs": {
        "mode": "reflect", 
        "pad_width": "(0, 0, 0, 0, 1, 1, 1, 1)"
      }, 
      "inputs": [[247, 0, 0]]
    }, 
    {
      "op": "Pad", 
      "name": "pad66", 
      "attrs": {
        "mode": "constant", 
        "pad_width": "(0, 0, 0, 0, 0, 0, 0, 0)"
      }, 
      "inputs": [[248, 0, 0]]
    }, 
    {
      "op": "null", 
      "name": "learned_90", 
      "attrs": {"__shape__": "(40, 160, 3, 3)"}, 
      "inputs": []
    }, 
    {
      "op": "null", 
      "name": "learned_91", 
      "attrs": {"__shape__": "(40,)"}, 
      "inputs": []
    }, 
    {
      "op": "Convolution", 
      "name": "convolution44", 
      "attrs": {
        "dilate": "(1, 1)", 
        "kernel": "(3, 3)", 
        "no_bias": "False", 
        "num_filter": "40", 
        "num_group": "1", 
        "stride": "(1, 1)"
      }, 
      "inputs": [[249, 0, 0], [250, 0, 0], [251, 0, 0]]
    }, 
    {
      "op": "Concat", 
      "name": "concat20", 
      "attrs": {
        "dim": "1", 
        "num_args": "2"
      }, 
      "inputs": [[242, 0, 0], [252, 0, 0]]
    }, 
    {
      "op": "Pad", 
      "name": "pad67", 
      "attrs": {
        "mode": "constant", 
        "pad_width": "(0, 0, 0, 0, 0, 0, 0, 0)"
      }, 
      "inputs": [[253, 0, 0]]
    }, 
    {
      "op": "null", 
      "name": "learned_92", 
      "attrs": {"__shape__": "(160, 360, 1, 1)"}, 
      "inputs": []
    }, 
    {
      "op": "null", 
      "name": "learned_93", 
      "attrs": {"__shape__": "(160,)"}, 
      "inputs": []
    }, 
    {
      "op": "Convolution", 
      "name": "convolution45", 
      "attrs": {
        "dilate": "(1, 1)", 
        "kernel": "(1, 1)", 
        "no_bias": "False", 
        "num_filter": "160", 
        "num_group": "1", 
        "stride": "(1, 1)"
      }, 
      "inputs": [[254, 0, 0], [255, 0, 0], [256, 0, 0]]
    }, 
    {
      "op": "relu", 
      "name": "relu21", 
      "inputs": [[257, 0, 0]]
    }, 
    {
      "op": "Pad", 
      "name": "pad68", 
      "attrs": {
        "mode": "reflect", 
        "pad_width": "(0, 0, 0, 0, 1, 1, 1, 1)"
      }, 
      "inputs": [[258, 0, 0]]
    }, 
    {
      "op": "Pad", 
      "name": "pad69", 
      "attrs": {
        "mode": "constant", 
        "pad_width": "(0, 0, 0, 0, 0, 0, 0, 0)"
      }, 
      "inputs": [[259, 0, 0]]
    }, 
    {
      "op": "null", 
      "name": "learned_94", 
      "attrs": {"__shape__": "(40, 160, 3, 3)"}, 
      "inputs": []
    }, 
    {
      "op": "null", 
      "name": "learned_95", 
      "attrs": {"__shape__": "(40,)"}, 
      "inputs": []
    }, 
    {
      "op": "Convolution", 
      "name": "convolution46", 
      "attrs": {
        "dilate": "(1, 1)", 
        "kernel": "(3, 3)", 
        "no_bias": "False", 
        "num_filter": "40", 
        "num_group": "1", 
        "stride": "(1, 1)"
      }, 
      "inputs": [[260, 0, 0], [261, 0, 0], [262, 0, 0]]
    }, 
    {
      "op": "Concat", 
      "name": "concat21", 
      "attrs": {
        "dim": "1", 
        "num_args": "2"
      }, 
      "inputs": [[253, 0, 0], [263, 0, 0]]
    }, 
    {
      "op": "Pad", 
      "name": "pad70", 
      "attrs": {
        "mode": "constant", 
        "pad_width": "(0, 0, 0, 0, 0, 0, 0, 0)"
      }, 
      "inputs": [[264, 0, 0]]
    }, 
    {
      "op": "null", 
      "name": "learned_96", 
      "attrs": {"__shape__": "(160, 400, 1, 1)"}, 
      "inputs": []
    }, 
    {
      "op": "null", 
      "name": "learned_97", 
      "attrs": {"__shape__": "(160,)"}, 
      "inputs": []
    }, 
    {
      "op": "Convolution", 
      "name": "convolution47", 
      "attrs": {
        "dilate": "(1, 1)", 
        "kernel": "(1, 1)", 
        "no_bias": "False", 
        "num_filter": "160", 
        "num_group": "1", 
        "stride": "(1, 1)"
      }, 
      "inputs": [[265, 0, 0], [266, 0, 0], [267, 0, 0]]
    }, 
    {
      "op": "relu", 
      "name": "relu22", 
      "inputs": [[268, 0, 0]]
    }, 
    {
      "op": "Pad", 
      "name": "pad71", 
      "attrs": {
        "mode": "reflect", 
        "pad_width": "(0, 0, 0, 0, 1, 1, 1, 1)"
      }, 
      "inputs": [[269, 0, 0]]
    }, 
    {
      "op": "Pad", 
      "name": "pad72", 
      "attrs": {
        "mode": "constant", 
        "pad_width": "(0, 0, 0, 0, 0, 0, 0, 0)"
      }, 
      "inputs": [[270, 0, 0]]
    }, 
    {
      "op": "null", 
      "name": "learned_98", 
      "attrs": {"__shape__": "(40, 160, 3, 3)"}, 
      "inputs": []
    }, 
    {
      "op": "null", 
      "name": "learned_99", 
      "attrs": {"__shape__": "(40,)"}, 
      "inputs": []
    }, 
    {
      "op": "Convolution", 
      "name": "convolution48", 
      "attrs": {
        "dilate": "(1, 1)", 
        "kernel": "(3, 3)", 
        "no_bias": "False", 
        "num_filter": "40", 
        "num_group": "1", 
        "stride": "(1, 1)"
      }, 
      "inputs": [[271, 0, 0], [272, 0, 0], [273, 0, 0]]
    }, 
    {
      "op": "Concat", 
      "name": "concat22", 
      "attrs": {
        "dim": "1", 
        "num_args": "2"
      }, 
      "inputs": [[264, 0, 0], [274, 0, 0]]
    }, 
    {
      "op": "Pad", 
      "name": "pad73", 
      "attrs": {
        "mode": "constant", 
        "pad_width": "(0, 0, 0, 0, 0, 0, 0, 0)"
      }, 
      "inputs": [[275, 0, 0]]
    }, 
    {
      "op": "null", 
      "name": "learned_100", 
      "attrs": {"__shape__": "(160, 440, 1, 1)"}, 
      "inputs": []
    }, 
    {
      "op": "null", 
      "name": "learned_101", 
      "attrs": {"__shape__": "(160,)"}, 
      "inputs": []
    }, 
    {
      "op": "Convolution", 
      "name": "convolution49", 
      "attrs": {
        "dilate": "(1, 1)", 
        "kernel": "(1, 1)", 
        "no_bias": "False", 
        "num_filter": "160", 
        "num_group": "1", 
        "stride": "(1, 1)"
      }, 
      "inputs": [[276, 0, 0], [277, 0, 0], [278, 0, 0]]
    }, 
    {
      "op": "relu", 
      "name": "relu23", 
      "inputs": [[279, 0, 0]]
    }, 
    {
      "op": "Pad", 
      "name": "pad74", 
      "attrs": {
        "mode": "reflect", 
        "pad_width": "(0, 0, 0, 0, 1, 1, 1, 1)"
      }, 
      "inputs": [[280, 0, 0]]
    }, 
    {
      "op": "Pad", 
      "name": "pad75", 
      "attrs": {
        "mode": "constant", 
        "pad_width": "(0, 0, 0, 0, 0, 0, 0, 0)"
      }, 
      "inputs": [[281, 0, 0]]
    }, 
    {
      "op": "null", 
      "name": "learned_102", 
      "attrs": {"__shape__": "(40, 160, 3, 3)"}, 
      "inputs": []
    }, 
    {
      "op": "null", 
      "name": "learned_103", 
      "attrs": {"__shape__": "(40,)"}, 
      "inputs": []
    }, 
    {
      "op": "Convolution", 
      "name": "convolution50", 
      "attrs": {
        "dilate": "(1, 1)", 
        "kernel": "(3, 3)", 
        "no_bias": "False", 
        "num_filter": "40", 
        "num_group": "1", 
        "stride": "(1, 1)"
      }, 
      "inputs": [[282, 0, 0], [283, 0, 0], [284, 0, 0]]
    }, 
    {
      "op": "Concat", 
      "name": "concat23", 
      "attrs": {
        "dim": "1", 
        "num_args": "2"
      }, 
      "inputs": [[275, 0, 0], [285, 0, 0]]
    }, 
    {
      "op": "Pad", 
      "name": "pad76", 
      "attrs": {
        "mode": "constant", 
        "pad_width": "(0, 0, 0, 0, 0, 0, 0, 0)"
      }, 
      "inputs": [[286, 0, 0]]
    }, 
    {
      "op": "null", 
      "name": "learned_104", 
      "attrs": {"__shape__": "(160, 480, 1, 1)"}, 
      "inputs": []
    }, 
    {
      "op": "Convolution", 
      "name": "convolution51", 
      "attrs": {
        "dilate": "(1, 1)", 
        "kernel": "(1, 1)", 
        "no_bias": "True", 
        "num_filter": "160", 
        "num_group": "1", 
        "stride": "(1, 1)"
      }, 
      "inputs": [[287, 0, 0], [288, 0, 0]]
    }, 
    {
      "op": "_mul_scalar", 
      "name": "_mulscalar2", 
      "attrs": {"scalar": "0.2"}, 
      "inputs": [[289, 0, 0]]
    }, 
    {
      "op": "broadcast_add", 
      "name": "broadcast_add2", 
      "inputs": [[290, 0, 0], [198, 0, 0]]
    }, 
    {
      "op": "Pad", 
      "name": "pad77", 
      "attrs": {
        "mode": "constant", 
        "pad_width": "(0, 0, 0, 0, 0, 0, 0, 0)"
      }, 
      "inputs": [[291, 0, 0]]
    }, 
    {
      "op": "null", 
      "name": "learned_105", 
      "attrs": {"__shape__": "(160, 160, 1, 1)"}, 
      "inputs": []
    }, 
    {
      "op": "null", 
      "name": "learned_106", 
      "attrs": {"__shape__": "(160,)"}, 
      "inputs": []
    }, 
    {
      "op": "Convolution", 
      "name": "convolution52", 
      "attrs": {
        "dilate": "(1, 1)", 
        "kernel": "(1, 1)", 
        "no_bias": "False", 
        "num_filter": "160", 
        "num_group": "1", 
        "stride": "(1, 1)"
      }, 
      "inputs": [[292, 0, 0], [293, 0, 0], [294, 0, 0]]
    }, 
    {
      "op": "relu", 
      "name": "relu24", 
      "inputs": [[295, 0, 0]]
    }, 
    {
      "op": "Pad", 
      "name": "pad78", 
      "attrs": {
        "mode": "reflect", 
        "pad_width": "(0, 0, 0, 0, 1, 1, 1, 1)"
      }, 
      "inputs": [[296, 0, 0]]
    }, 
    {
      "op": "Pad", 
      "name": "pad79", 
      "attrs": {
        "mode": "constant", 
        "pad_width": "(0, 0, 0, 0, 0, 0, 0, 0)"
      }, 
      "inputs": [[297, 0, 0]]
    }, 
    {
      "op": "null", 
      "name": "learned_107", 
      "attrs": {"__shape__": "(40, 160, 3, 3)"}, 
      "inputs": []
    }, 
    {
      "op": "null", 
      "name": "learned_108", 
      "attrs": {"__shape__": "(40,)"}, 
      "inputs": []
    }, 
    {
      "op": "Convolution", 
      "name": "convolution53", 
      "attrs": {
        "dilate": "(1, 1)", 
        "kernel": "(3, 3)", 
        "no_bias": "False", 
        "num_filter": "40", 
        "num_group": "1", 
        "stride": "(1, 1)"
      }, 
      "inputs": [[298, 0, 0], [299, 0, 0], [300, 0, 0]]
    }, 
    {
      "op": "Concat", 
      "name": "concat24", 
      "attrs": {
        "dim": "1", 
        "num_args": "2"
      }, 
      "inputs": [[291, 0, 0], [301, 0, 0]]
    }, 
    {
      "op": "Pad", 
      "name": "pad80", 
      "attrs": {
        "mode": "constant", 
        "pad_width": "(0, 0, 0, 0, 0, 0, 0, 0)"
      }, 
      "inputs": [[302, 0, 0]]
    }, 
    {
      "op": "null", 
      "name": "learned_109", 
      "attrs": {"__shape__": "(160, 200, 1, 1)"}, 
      "inputs": []
    }, 
    {
      "op": "null", 
      "name": "learned_110", 
      "attrs": {"__shape__": "(160,)"}, 
      "inputs": []
    }, 
    {
      "op": "Convolution", 
      "name": "convolution54", 
      "attrs": {
        "dilate": "(1, 1)", 
        "kernel": "(1, 1)", 
        "no_bias": "False", 
        "num_filter": "160", 
        "num_group": "1", 
        "stride": "(1, 1)"
      }, 
      "inputs": [[303, 0, 0], [304, 0, 0], [305, 0, 0]]
    }, 
    {
      "op": "relu", 
      "name": "relu25", 
      "inputs": [[306, 0, 0]]
    }, 
    {
      "op": "Pad", 
      "name": "pad81", 
      "attrs": {
        "mode": "reflect", 
        "pad_width": "(0, 0, 0, 0, 1, 1, 1, 1)"
      }, 
      "inputs": [[307, 0, 0]]
    }, 
    {
      "op": "Pad", 
      "name": "pad82", 
      "attrs": {
        "mode": "constant", 
        "pad_width": "(0, 0, 0, 0, 0, 0, 0, 0)"
      }, 
      "inputs": [[308, 0, 0]]
    }, 
    {
      "op": "null", 
      "name": "learned_111", 
      "attrs": {"__shape__": "(40, 160, 3, 3)"}, 
      "inputs": []
    }, 
    {
      "op": "null", 
      "name": "learned_112", 
      "attrs": {"__shape__": "(40,)"}, 
      "inputs": []
    }, 
    {
      "op": "Convolution", 
      "name": "convolution55", 
      "attrs": {
        "dilate": "(1, 1)", 
        "kernel": "(3, 3)", 
        "no_bias": "False", 
        "num_filter": "40", 
        "num_group": "1", 
        "stride": "(1, 1)"
      }, 
      "inputs": [[309, 0, 0], [310, 0, 0], [311, 0, 0]]
    }, 
    {
      "op": "Concat", 
      "name": "concat25", 
      "attrs": {
        "dim": "1", 
        "num_args": "2"
      }, 
      "inputs": [[302, 0, 0], [312, 0, 0]]
    }, 
    {
      "op": "Pad", 
      "name": "pad83", 
      "attrs": {
        "mode": "constant", 
        "pad_width": "(0, 0, 0, 0, 0, 0, 0, 0)"
      }, 
      "inputs": [[313, 0, 0]]
    }, 
    {
      "op": "null", 
      "name": "learned_113", 
      "attrs": {"__shape__": "(160, 240, 1, 1)"}, 
      "inputs": []
    }, 
    {
      "op": "null", 
      "name": "learned_114", 
      "attrs": {"__shape__": "(160,)"}, 
      "inputs": []
    }, 
    {
      "op": "Convolution", 
      "name": "convolution56", 
      "attrs": {
        "dilate": "(1, 1)", 
        "kernel": "(1, 1)", 
        "no_bias": "False", 
        "num_filter": "160", 
        "num_group": "1", 
        "stride": "(1, 1)"
      }, 
      "inputs": [[314, 0, 0], [315, 0, 0], [316, 0, 0]]
    }, 
    {
      "op": "relu", 
      "name": "relu26", 
      "inputs": [[317, 0, 0]]
    }, 
    {
      "op": "Pad", 
      "name": "pad84", 
      "attrs": {
        "mode": "reflect", 
        "pad_width": "(0, 0, 0, 0, 1, 1, 1, 1)"
      }, 
      "inputs": [[318, 0, 0]]
    }, 
    {
      "op": "Pad", 
      "name": "pad85", 
      "attrs": {
        "mode": "constant", 
        "pad_width": "(0, 0, 0, 0, 0, 0, 0, 0)"
      }, 
      "inputs": [[319, 0, 0]]
    }, 
    {
      "op": "null", 
      "name": "learned_115", 
      "attrs": {"__shape__": "(40, 160, 3, 3)"}, 
      "inputs": []
    }, 
    {
      "op": "null", 
      "name": "learned_116", 
      "attrs": {"__shape__": "(40,)"}, 
      "inputs": []
    }, 
    {
      "op": "Convolution", 
      "name": "convolution57", 
      "attrs": {
        "dilate": "(1, 1)", 
        "kernel": "(3, 3)", 
        "no_bias": "False", 
        "num_filter": "40", 
        "num_group": "1", 
        "stride": "(1, 1)"
      }, 
      "inputs": [[320, 0, 0], [321, 0, 0], [322, 0, 0]]
    }, 
    {
      "op": "Concat", 
      "name": "concat26", 
      "attrs": {
        "dim": "1", 
        "num_args": "2"
      }, 
      "inputs": [[313, 0, 0], [323, 0, 0]]
    }, 
    {
      "op": "Pad", 
      "name": "pad86", 
      "attrs": {
        "mode": "constant", 
        "pad_width": "(0, 0, 0, 0, 0, 0, 0, 0)"
      }, 
      "inputs": [[324, 0, 0]]
    }, 
    {
      "op": "null", 
      "name": "learned_117", 
      "attrs": {"__shape__": "(160, 280, 1, 1)"}, 
      "inputs": []
    }, 
    {
      "op": "null", 
      "name": "learned_118", 
      "attrs": {"__shape__": "(160,)"}, 
      "inputs": []
    }, 
    {
      "op": "Convolution", 
      "name": "convolution58", 
      "attrs": {
        "dilate": "(1, 1)", 
        "kernel": "(1, 1)", 
        "no_bias": "False", 
        "num_filter": "160", 
        "num_group": "1", 
        "stride": "(1, 1)"
      }, 
      "inputs": [[325, 0, 0], [326, 0, 0], [327, 0, 0]]
    }, 
    {
      "op": "relu", 
      "name": "relu27", 
      "inputs": [[328, 0, 0]]
    }, 
    {
      "op": "Pad", 
      "name": "pad87", 
      "attrs": {
        "mode": "reflect", 
        "pad_width": "(0, 0, 0, 0, 1, 1, 1, 1)"
      }, 
      "inputs": [[329, 0, 0]]
    }, 
    {
      "op": "Pad", 
      "name": "pad88", 
      "attrs": {
        "mode": "constant", 
        "pad_width": "(0, 0, 0, 0, 0, 0, 0, 0)"
      }, 
      "inputs": [[330, 0, 0]]
    }, 
    {
      "op": "null", 
      "name": "learned_119", 
      "attrs": {"__shape__": "(40, 160, 3, 3)"}, 
      "inputs": []
    }, 
    {
      "op": "null", 
      "name": "learned_120", 
      "attrs": {"__shape__": "(40,)"}, 
      "inputs": []
    }, 
    {
      "op": "Convolution", 
      "name": "convolution59", 
      "attrs": {
        "dilate": "(1, 1)", 
        "kernel": "(3, 3)", 
        "no_bias": "False", 
        "num_filter": "40", 
        "num_group": "1", 
        "stride": "(1, 1)"
      }, 
      "inputs": [[331, 0, 0], [332, 0, 0], [333, 0, 0]]
    }, 
    {
      "op": "Concat", 
      "name": "concat27", 
      "attrs": {
        "dim": "1", 
        "num_args": "2"
      }, 
      "inputs": [[324, 0, 0], [334, 0, 0]]
    }, 
    {
      "op": "Pad", 
      "name": "pad89", 
      "attrs": {
        "mode": "constant", 
        "pad_width": "(0, 0, 0, 0, 0, 0, 0, 0)"
      }, 
      "inputs": [[335, 0, 0]]
    }, 
    {
      "op": "null", 
      "name": "learned_121", 
      "attrs": {"__shape__": "(160, 320, 1, 1)"}, 
      "inputs": []
    }, 
    {
      "op": "null", 
      "name": "learned_122", 
      "attrs": {"__shape__": "(160,)"}, 
      "inputs": []
    }, 
    {
      "op": "Convolution", 
      "name": "convolution60", 
      "attrs": {
        "dilate": "(1, 1)", 
        "kernel": "(1, 1)", 
        "no_bias": "False", 
        "num_filter": "160", 
        "num_group": "1", 
        "stride": "(1, 1)"
      }, 
      "inputs": [[336, 0, 0], [337, 0, 0], [338, 0, 0]]
    }, 
    {
      "op": "relu", 
      "name": "relu28", 
      "inputs": [[339, 0, 0]]
    }, 
    {
      "op": "Pad", 
      "name": "pad90", 
      "attrs": {
        "mode": "reflect", 
        "pad_width": "(0, 0, 0, 0, 1, 1, 1, 1)"
      }, 
      "inputs": [[340, 0, 0]]
    }, 
    {
      "op": "Pad", 
      "name": "pad91", 
      "attrs": {
        "mode": "constant", 
        "pad_width": "(0, 0, 0, 0, 0, 0, 0, 0)"
      }, 
      "inputs": [[341, 0, 0]]
    }, 
    {
      "op": "null", 
      "name": "learned_123", 
      "attrs": {"__shape__": "(40, 160, 3, 3)"}, 
      "inputs": []
    }, 
    {
      "op": "null", 
      "name": "learned_124", 
      "attrs": {"__shape__": "(40,)"}, 
      "inputs": []
    }, 
    {
      "op": "Convolution", 
      "name": "convolution61", 
      "attrs": {
        "dilate": "(1, 1)", 
        "kernel": "(3, 3)", 
        "no_bias": "False", 
        "num_filter": "40", 
        "num_group": "1", 
        "stride": "(1, 1)"
      }, 
      "inputs": [[342, 0, 0], [343, 0, 0], [344, 0, 0]]
    }, 
    {
      "op": "Concat", 
      "name": "concat28", 
      "attrs": {
        "dim": "1", 
        "num_args": "2"
      }, 
      "inputs": [[335, 0, 0], [345, 0, 0]]
    }, 
    {
      "op": "Pad", 
      "name": "pad92", 
      "attrs": {
        "mode": "constant", 
        "pad_width": "(0, 0, 0, 0, 0, 0, 0, 0)"
      }, 
      "inputs": [[346, 0, 0]]
    }, 
    {
      "op": "null", 
      "name": "learned_125", 
      "attrs": {"__shape__": "(160, 360, 1, 1)"}, 
      "inputs": []
    }, 
    {
      "op": "null", 
      "name": "learned_126", 
      "attrs": {"__shape__": "(160,)"}, 
      "inputs": []
    }, 
    {
      "op": "Convolution", 
      "name": "convolution62", 
      "attrs": {
        "dilate": "(1, 1)", 
        "kernel": "(1, 1)", 
        "no_bias": "False", 
        "num_filter": "160", 
        "num_group": "1", 
        "stride": "(1, 1)"
      }, 
      "inputs": [[347, 0, 0], [348, 0, 0], [349, 0, 0]]
    }, 
    {
      "op": "relu", 
      "name": "relu29", 
      "inputs": [[350, 0, 0]]
    }, 
    {
      "op": "Pad", 
      "name": "pad93", 
      "attrs": {
        "mode": "reflect", 
        "pad_width": "(0, 0, 0, 0, 1, 1, 1, 1)"
      }, 
      "inputs": [[351, 0, 0]]
    }, 
    {
      "op": "Pad", 
      "name": "pad94", 
      "attrs": {
        "mode": "constant", 
        "pad_width": "(0, 0, 0, 0, 0, 0, 0, 0)"
      }, 
      "inputs": [[352, 0, 0]]
    }, 
    {
      "op": "null", 
      "name": "learned_127", 
      "attrs": {"__shape__": "(40, 160, 3, 3)"}, 
      "inputs": []
    }, 
    {
      "op": "null", 
      "name": "learned_128", 
      "attrs": {"__shape__": "(40,)"}, 
      "inputs": []
    }, 
    {
      "op": "Convolution", 
      "name": "convolution63", 
      "attrs": {
        "dilate": "(1, 1)", 
        "kernel": "(3, 3)", 
        "no_bias": "False", 
        "num_filter": "40", 
        "num_group": "1", 
        "stride": "(1, 1)"
      }, 
      "inputs": [[353, 0, 0], [354, 0, 0], [355, 0, 0]]
    }, 
    {
      "op": "Concat", 
      "name": "concat29", 
      "attrs": {
        "dim": "1", 
        "num_args": "2"
      }, 
      "inputs": [[346, 0, 0], [356, 0, 0]]
    }, 
    {
      "op": "Pad", 
      "name": "pad95", 
      "attrs": {
        "mode": "constant", 
        "pad_width": "(0, 0, 0, 0, 0, 0, 0, 0)"
      }, 
      "inputs": [[357, 0, 0]]
    }, 
    {
      "op": "null", 
      "name": "learned_129", 
      "attrs": {"__shape__": "(160, 400, 1, 1)"}, 
      "inputs": []
    }, 
    {
      "op": "null", 
      "name": "learned_130", 
      "attrs": {"__shape__": "(160,)"}, 
      "inputs": []
    }, 
    {
      "op": "Convolution", 
      "name": "convolution64", 
      "attrs": {
        "dilate": "(1, 1)", 
        "kernel": "(1, 1)", 
        "no_bias": "False", 
        "num_filter": "160", 
        "num_group": "1", 
        "stride": "(1, 1)"
      }, 
      "inputs": [[358, 0, 0], [359, 0, 0], [360, 0, 0]]
    }, 
    {
      "op": "relu", 
      "name": "relu30", 
      "inputs": [[361, 0, 0]]
    }, 
    {
      "op": "Pad", 
      "name": "pad96", 
      "attrs": {
        "mode": "reflect", 
        "pad_width": "(0, 0, 0, 0, 1, 1, 1, 1)"
      }, 
      "inputs": [[362, 0, 0]]
    }, 
    {
      "op": "Pad", 
      "name": "pad97", 
      "attrs": {
        "mode": "constant", 
        "pad_width": "(0, 0, 0, 0, 0, 0, 0, 0)"
      }, 
      "inputs": [[363, 0, 0]]
    }, 
    {
      "op": "null", 
      "name": "learned_131", 
      "attrs": {"__shape__": "(40, 160, 3, 3)"}, 
      "inputs": []
    }, 
    {
      "op": "null", 
      "name": "learned_132", 
      "attrs": {"__shape__": "(40,)"}, 
      "inputs": []
    }, 
    {
      "op": "Convolution", 
      "name": "convolution65", 
      "attrs": {
        "dilate": "(1, 1)", 
        "kernel": "(3, 3)", 
        "no_bias": "False", 
        "num_filter": "40", 
        "num_group": "1", 
        "stride": "(1, 1)"
      }, 
      "inputs": [[364, 0, 0], [365, 0, 0], [366, 0, 0]]
    }, 
    {
      "op": "Concat", 
      "name": "concat30", 
      "attrs": {
        "dim": "1", 
        "num_args": "2"
      }, 
      "inputs": [[357, 0, 0], [367, 0, 0]]
    }, 
    {
      "op": "Pad", 
      "name": "pad98", 
      "attrs": {
        "mode": "constant", 
        "pad_width": "(0, 0, 0, 0, 0, 0, 0, 0)"
      }, 
      "inputs": [[368, 0, 0]]
    }, 
    {
      "op": "null", 
      "name": "learned_133", 
      "attrs": {"__shape__": "(160, 440, 1, 1)"}, 
      "inputs": []
    }, 
    {
      "op": "null", 
      "name": "learned_134", 
      "attrs": {"__shape__": "(160,)"}, 
      "inputs": []
    }, 
    {
      "op": "Convolution", 
      "name": "convolution66", 
      "attrs": {
        "dilate": "(1, 1)", 
        "kernel": "(1, 1)", 
        "no_bias": "False", 
        "num_filter": "160", 
        "num_group": "1", 
        "stride": "(1, 1)"
      }, 
      "inputs": [[369, 0, 0], [370, 0, 0], [371, 0, 0]]
    }, 
    {
      "op": "relu", 
      "name": "relu31", 
      "inputs": [[372, 0, 0]]
    }, 
    {
      "op": "Pad", 
      "name": "pad99", 
      "attrs": {
        "mode": "reflect", 
        "pad_width": "(0, 0, 0, 0, 1, 1, 1, 1)"
      }, 
      "inputs": [[373, 0, 0]]
    }, 
    {
      "op": "Pad", 
      "name": "pad100", 
      "attrs": {
        "mode": "constant", 
        "pad_width": "(0, 0, 0, 0, 0, 0, 0, 0)"
      }, 
      "inputs": [[374, 0, 0]]
    }, 
    {
      "op": "null", 
      "name": "learned_135", 
      "attrs": {"__shape__": "(40, 160, 3, 3)"}, 
      "inputs": []
    }, 
    {
      "op": "null", 
      "name": "learned_136", 
      "attrs": {"__shape__": "(40,)"}, 
      "inputs": []
    }, 
    {
      "op": "Convolution", 
      "name": "convolution67", 
      "attrs": {
        "dilate": "(1, 1)", 
        "kernel": "(3, 3)", 
        "no_bias": "False", 
        "num_filter": "40", 
        "num_group": "1", 
        "stride": "(1, 1)"
      }, 
      "inputs": [[375, 0, 0], [376, 0, 0], [377, 0, 0]]
    }, 
    {
      "op": "Concat", 
      "name": "concat31", 
      "attrs": {
        "dim": "1", 
        "num_args": "2"
      }, 
      "inputs": [[368, 0, 0], [378, 0, 0]]
    }, 
    {
      "op": "Pad", 
      "name": "pad101", 
      "attrs": {
        "mode": "constant", 
        "pad_width": "(0, 0, 0, 0, 0, 0, 0, 0)"
      }, 
      "inputs": [[379, 0, 0]]
    }, 
    {
      "op": "null", 
      "name": "learned_137", 
      "attrs": {"__shape__": "(160, 480, 1, 1)"}, 
      "inputs": []
    }, 
    {
      "op": "Convolution", 
      "name": "convolution68", 
      "attrs": {
        "dilate": "(1, 1)", 
        "kernel": "(1, 1)", 
        "no_bias": "True", 
        "num_filter": "160", 
        "num_group": "1", 
        "stride": "(1, 1)"
      }, 
      "inputs": [[380, 0, 0], [381, 0, 0]]
    }, 
    {
      "op": "_mul_scalar", 
      "name": "_mulscalar3", 
      "attrs": {"scalar": "0.2"}, 
      "inputs": [[382, 0, 0]]
    }, 
    {
      "op": "broadcast_add", 
      "name": "broadcast_add3", 
      "inputs": [[383, 0, 0], [291, 0, 0]]
    }, 
    {
      "op": "Pad", 
      "name": "pad102", 
      "attrs": {
        "mode": "constant", 
        "pad_width": "(0, 0, 0, 0, 0, 0, 0, 0)"
      }, 
      "inputs": [[384, 0, 0]]
    }, 
    {
      "op": "null", 
      "name": "learned_138", 
      "attrs": {"__shape__": "(160, 160, 1, 1)"}, 
      "inputs": []
    }, 
    {
      "op": "null", 
      "name": "learned_139", 
      "attrs": {"__shape__": "(160,)"}, 
      "inputs": []
    }, 
    {
      "op": "Convolution", 
      "name": "convolution69", 
      "attrs": {
        "dilate": "(1, 1)", 
        "kernel": "(1, 1)", 
        "no_bias": "False", 
        "num_filter": "160", 
        "num_group": "1", 
        "stride": "(1, 1)"
      }, 
      "inputs": [[385, 0, 0], [386, 0, 0], [387, 0, 0]]
    }, 
    {
      "op": "relu", 
      "name": "relu32", 
      "inputs": [[388, 0, 0]]
    }, 
    {
      "op": "Pad", 
      "name": "pad103", 
      "attrs": {
        "mode": "reflect", 
        "pad_width": "(0, 0, 0, 0, 1, 1, 1, 1)"
      }, 
      "inputs": [[389, 0, 0]]
    }, 
    {
      "op": "Pad", 
      "name": "pad104", 
      "attrs": {
        "mode": "constant", 
        "pad_width": "(0, 0, 0, 0, 0, 0, 0, 0)"
      }, 
      "inputs": [[390, 0, 0]]
    }, 
    {
      "op": "null", 
      "name": "learned_140", 
      "attrs": {"__shape__": "(40, 160, 3, 3)"}, 
      "inputs": []
    }, 
    {
      "op": "null", 
      "name": "learned_141", 
      "attrs": {"__shape__": "(40,)"}, 
      "inputs": []
    }, 
    {
      "op": "Convolution", 
      "name": "convolution70", 
      "attrs": {
        "dilate": "(1, 1)", 
        "kernel": "(3, 3)", 
        "no_bias": "False", 
        "num_filter": "40", 
        "num_group": "1", 
        "stride": "(1, 1)"
      }, 
      "inputs": [[391, 0, 0], [392, 0, 0], [393, 0, 0]]
    }, 
    {
      "op": "Concat", 
      "name": "concat32", 
      "attrs": {
        "dim": "1", 
        "num_args": "2"
      }, 
      "inputs": [[384, 0, 0], [394, 0, 0]]
    }, 
    {
      "op": "Pad", 
      "name": "pad105", 
      "attrs": {
        "mode": "constant", 
        "pad_width": "(0, 0, 0, 0, 0, 0, 0, 0)"
      }, 
      "inputs": [[395, 0, 0]]
    }, 
    {
      "op": "null", 
      "name": "learned_142", 
      "attrs": {"__shape__": "(160, 200, 1, 1)"}, 
      "inputs": []
    }, 
    {
      "op": "null", 
      "name": "learned_143", 
      "attrs": {"__shape__": "(160,)"}, 
      "inputs": []
    }, 
    {
      "op": "Convolution", 
      "name": "convolution71", 
      "attrs": {
        "dilate": "(1, 1)", 
        "kernel": "(1, 1)", 
        "no_bias": "False", 
        "num_filter": "160", 
        "num_group": "1", 
        "stride": "(1, 1)"
      }, 
      "inputs": [[396, 0, 0], [397, 0, 0], [398, 0, 0]]
    }, 
    {
      "op": "relu", 
      "name": "relu33", 
      "inputs": [[399, 0, 0]]
    }, 
    {
      "op": "Pad", 
      "name": "pad106", 
      "attrs": {
        "mode": "reflect", 
        "pad_width": "(0, 0, 0, 0, 1, 1, 1, 1)"
      }, 
      "inputs": [[400, 0, 0]]
    }, 
    {
      "op": "Pad", 
      "name": "pad107", 
      "attrs": {
        "mode": "constant", 
        "pad_width": "(0, 0, 0, 0, 0, 0, 0, 0)"
      }, 
      "inputs": [[401, 0, 0]]
    }, 
    {
      "op": "null", 
      "name": "learned_144", 
      "attrs": {"__shape__": "(40, 160, 3, 3)"}, 
      "inputs": []
    }, 
    {
      "op": "null", 
      "name": "learned_145", 
      "attrs": {"__shape__": "(40,)"}, 
      "inputs": []
    }, 
    {
      "op": "Convolution", 
      "name": "convolution72", 
      "attrs": {
        "dilate": "(1, 1)", 
        "kernel": "(3, 3)", 
        "no_bias": "False", 
        "num_filter": "40", 
        "num_group": "1", 
        "stride": "(1, 1)"
      }, 
      "inputs": [[402, 0, 0], [403, 0, 0], [404, 0, 0]]
    }, 
    {
      "op": "Concat", 
      "name": "concat33", 
      "attrs": {
        "dim": "1", 
        "num_args": "2"
      }, 
      "inputs": [[395, 0, 0], [405, 0, 0]]
    }, 
    {
      "op": "Pad", 
      "name": "pad108", 
      "attrs": {
        "mode": "constant", 
        "pad_width": "(0, 0, 0, 0, 0, 0, 0, 0)"
      }, 
      "inputs": [[406, 0, 0]]
    }, 
    {
      "op": "null", 
      "name": "learned_146", 
      "attrs": {"__shape__": "(160, 240, 1, 1)"}, 
      "inputs": []
    }, 
    {
      "op": "null", 
      "name": "learned_147", 
      "attrs": {"__shape__": "(160,)"}, 
      "inputs": []
    }, 
    {
      "op": "Convolution", 
      "name": "convolution73", 
      "attrs": {
        "dilate": "(1, 1)", 
        "kernel": "(1, 1)", 
        "no_bias": "False", 
        "num_filter": "160", 
        "num_group": "1", 
        "stride": "(1, 1)"
      }, 
      "inputs": [[407, 0, 0], [408, 0, 0], [409, 0, 0]]
    }, 
    {
      "op": "relu", 
      "name": "relu34", 
      "inputs": [[410, 0, 0]]
    }, 
    {
      "op": "Pad", 
      "name": "pad109", 
      "attrs": {
        "mode": "reflect", 
        "pad_width": "(0, 0, 0, 0, 1, 1, 1, 1)"
      }, 
      "inputs": [[411, 0, 0]]
    }, 
    {
      "op": "Pad", 
      "name": "pad110", 
      "attrs": {
        "mode": "constant", 
        "pad_width": "(0, 0, 0, 0, 0, 0, 0, 0)"
      }, 
      "inputs": [[412, 0, 0]]
    }, 
    {
      "op": "null", 
      "name": "learned_148", 
      "attrs": {"__shape__": "(40, 160, 3, 3)"}, 
      "inputs": []
    }, 
    {
      "op": "null", 
      "name": "learned_149", 
      "attrs": {"__shape__": "(40,)"}, 
      "inputs": []
    }, 
    {
      "op": "Convolution", 
      "name": "convolution74", 
      "attrs": {
        "dilate": "(1, 1)", 
        "kernel": "(3, 3)", 
        "no_bias": "False", 
        "num_filter": "40", 
        "num_group": "1", 
        "stride": "(1, 1)"
      }, 
      "inputs": [[413, 0, 0], [414, 0, 0], [415, 0, 0]]
    }, 
    {
      "op": "Concat", 
      "name": "concat34", 
      "attrs": {
        "dim": "1", 
        "num_args": "2"
      }, 
      "inputs": [[406, 0, 0], [416, 0, 0]]
    }, 
    {
      "op": "Pad", 
      "name": "pad111", 
      "attrs": {
        "mode": "constant", 
        "pad_width": "(0, 0, 0, 0, 0, 0, 0, 0)"
      }, 
      "inputs": [[417, 0, 0]]
    }, 
    {
      "op": "null", 
      "name": "learned_150", 
      "attrs": {"__shape__": "(160, 280, 1, 1)"}, 
      "inputs": []
    }, 
    {
      "op": "null", 
      "name": "learned_151", 
      "attrs": {"__shape__": "(160,)"}, 
      "inputs": []
    }, 
    {
      "op": "Convolution", 
      "name": "convolution75", 
      "attrs": {
        "dilate": "(1, 1)", 
        "kernel": "(1, 1)", 
        "no_bias": "False", 
        "num_filter": "160", 
        "num_group": "1", 
        "stride": "(1, 1)"
      }, 
      "inputs": [[418, 0, 0], [419, 0, 0], [420, 0, 0]]
    }, 
    {
      "op": "relu", 
      "name": "relu35", 
      "inputs": [[421, 0, 0]]
    }, 
    {
      "op": "Pad", 
      "name": "pad112", 
      "attrs": {
        "mode": "reflect", 
        "pad_width": "(0, 0, 0, 0, 1, 1, 1, 1)"
      }, 
      "inputs": [[422, 0, 0]]
    }, 
    {
      "op": "Pad", 
      "name": "pad113", 
      "attrs": {
        "mode": "constant", 
        "pad_width": "(0, 0, 0, 0, 0, 0, 0, 0)"
      }, 
      "inputs": [[423, 0, 0]]
    }, 
    {
      "op": "null", 
      "name": "learned_152", 
      "attrs": {"__shape__": "(40, 160, 3, 3)"}, 
      "inputs": []
    }, 
    {
      "op": "null", 
      "name": "learned_153", 
      "attrs": {"__shape__": "(40,)"}, 
      "inputs": []
    }, 
    {
      "op": "Convolution", 
      "name": "convolution76", 
      "attrs": {
        "dilate": "(1, 1)", 
        "kernel": "(3, 3)", 
        "no_bias": "False", 
        "num_filter": "40", 
        "num_group": "1", 
        "stride": "(1, 1)"
      }, 
      "inputs": [[424, 0, 0], [425, 0, 0], [426, 0, 0]]
    }, 
    {
      "op": "Concat", 
      "name": "concat35", 
      "attrs": {
        "dim": "1", 
        "num_args": "2"
      }, 
      "inputs": [[417, 0, 0], [427, 0, 0]]
    }, 
    {
      "op": "Pad", 
      "name": "pad114", 
      "attrs": {
        "mode": "constant", 
        "pad_width": "(0, 0, 0, 0, 0, 0, 0, 0)"
      }, 
      "inputs": [[428, 0, 0]]
    }, 
    {
      "op": "null", 
      "name": "learned_154", 
      "attrs": {"__shape__": "(160, 320, 1, 1)"}, 
      "inputs": []
    }, 
    {
      "op": "null", 
      "name": "learned_155", 
      "attrs": {"__shape__": "(160,)"}, 
      "inputs": []
    }, 
    {
      "op": "Convolution", 
      "name": "convolution77", 
      "attrs": {
        "dilate": "(1, 1)", 
        "kernel": "(1, 1)", 
        "no_bias": "False", 
        "num_filter": "160", 
        "num_group": "1", 
        "stride": "(1, 1)"
      }, 
      "inputs": [[429, 0, 0], [430, 0, 0], [431, 0, 0]]
    }, 
    {
      "op": "relu", 
      "name": "relu36", 
      "inputs": [[432, 0, 0]]
    }, 
    {
      "op": "Pad", 
      "name": "pad115", 
      "attrs": {
        "mode": "reflect", 
        "pad_width": "(0, 0, 0, 0, 1, 1, 1, 1)"
      }, 
      "inputs": [[433, 0, 0]]
    }, 
    {
      "op": "Pad", 
      "name": "pad116", 
      "attrs": {
        "mode": "constant", 
        "pad_width": "(0, 0, 0, 0, 0, 0, 0, 0)"
      }, 
      "inputs": [[434, 0, 0]]
    }, 
    {
      "op": "null", 
      "name": "learned_156", 
      "attrs": {"__shape__": "(40, 160, 3, 3)"}, 
      "inputs": []
    }, 
    {
      "op": "null", 
      "name": "learned_157", 
      "attrs": {"__shape__": "(40,)"}, 
      "inputs": []
    }, 
    {
      "op": "Convolution", 
      "name": "convolution78", 
      "attrs": {
        "dilate": "(1, 1)", 
        "kernel": "(3, 3)", 
        "no_bias": "False", 
        "num_filter": "40", 
        "num_group": "1", 
        "stride": "(1, 1)"
      }, 
      "inputs": [[435, 0, 0], [436, 0, 0], [437, 0, 0]]
    }, 
    {
      "op": "Concat", 
      "name": "concat36", 
      "attrs": {
        "dim": "1", 
        "num_args": "2"
      }, 
      "inputs": [[428, 0, 0], [438, 0, 0]]
    }, 
    {
      "op": "Pad", 
      "name": "pad117", 
      "attrs": {
        "mode": "constant", 
        "pad_width": "(0, 0, 0, 0, 0, 0, 0, 0)"
      }, 
      "inputs": [[439, 0, 0]]
    }, 
    {
      "op": "null", 
      "name": "learned_158", 
      "attrs": {"__shape__": "(160, 360, 1, 1)"}, 
      "inputs": []
    }, 
    {
      "op": "null", 
      "name": "learned_159", 
      "attrs": {"__shape__": "(160,)"}, 
      "inputs": []
    }, 
    {
      "op": "Convolution", 
      "name": "convolution79", 
      "attrs": {
        "dilate": "(1, 1)", 
        "kernel": "(1, 1)", 
        "no_bias": "False", 
        "num_filter": "160", 
        "num_group": "1", 
        "stride": "(1, 1)"
      }, 
      "inputs": [[440, 0, 0], [441, 0, 0], [442, 0, 0]]
    }, 
    {
      "op": "relu", 
      "name": "relu37", 
      "inputs": [[443, 0, 0]]
    }, 
    {
      "op": "Pad", 
      "name": "pad118", 
      "attrs": {
        "mode": "reflect", 
        "pad_width": "(0, 0, 0, 0, 1, 1, 1, 1)"
      }, 
      "inputs": [[444, 0, 0]]
    }, 
    {
      "op": "Pad", 
      "name": "pad119", 
      "attrs": {
        "mode": "constant", 
        "pad_width": "(0, 0, 0, 0, 0, 0, 0, 0)"
      }, 
      "inputs": [[445, 0, 0]]
    }, 
    {
      "op": "null", 
      "name": "learned_160", 
      "attrs": {"__shape__": "(40, 160, 3, 3)"}, 
      "inputs": []
    }, 
    {
      "op": "null", 
      "name": "learned_161", 
      "attrs": {"__shape__": "(40,)"}, 
      "inputs": []
    }, 
    {
      "op": "Convolution", 
      "name": "convolution80", 
      "attrs": {
        "dilate": "(1, 1)", 
        "kernel": "(3, 3)", 
        "no_bias": "False", 
        "num_filter": "40", 
        "num_group": "1", 
        "stride": "(1, 1)"
      }, 
      "inputs": [[446, 0, 0], [447, 0, 0], [448, 0, 0]]
    }, 
    {
      "op": "Concat", 
      "name": "concat37", 
      "attrs": {
        "dim": "1", 
        "num_args": "2"
      }, 
      "inputs": [[439, 0, 0], [449, 0, 0]]
    }, 
    {
      "op": "Pad", 
      "name": "pad120", 
      "attrs": {
        "mode": "constant", 
        "pad_width": "(0, 0, 0, 0, 0, 0, 0, 0)"
      }, 
      "inputs": [[450, 0, 0]]
    }, 
    {
      "op": "null", 
      "name": "learned_162", 
      "attrs": {"__shape__": "(160, 400, 1, 1)"}, 
      "inputs": []
    }, 
    {
      "op": "null", 
      "name": "learned_163", 
      "attrs": {"__shape__": "(160,)"}, 
      "inputs": []
    }, 
    {
      "op": "Convolution", 
      "name": "convolution81", 
      "attrs": {
        "dilate": "(1, 1)", 
        "kernel": "(1, 1)", 
        "no_bias": "False", 
        "num_filter": "160", 
        "num_group": "1", 
        "stride": "(1, 1)"
      }, 
      "inputs": [[451, 0, 0], [452, 0, 0], [453, 0, 0]]
    }, 
    {
      "op": "relu", 
      "name": "relu38", 
      "inputs": [[454, 0, 0]]
    }, 
    {
      "op": "Pad", 
      "name": "pad121", 
      "attrs": {
        "mode": "reflect", 
        "pad_width": "(0, 0, 0, 0, 1, 1, 1, 1)"
      }, 
      "inputs": [[455, 0, 0]]
    }, 
    {
      "op": "Pad", 
      "name": "pad122", 
      "attrs": {
        "mode": "constant", 
        "pad_width": "(0, 0, 0, 0, 0, 0, 0, 0)"
      }, 
      "inputs": [[456, 0, 0]]
    }, 
    {
      "op": "null", 
      "name": "learned_164", 
      "attrs": {"__shape__": "(40, 160, 3, 3)"}, 
      "inputs": []
    }, 
    {
      "op": "null", 
      "name": "learned_165", 
      "attrs": {"__shape__": "(40,)"}, 
      "inputs": []
    }, 
    {
      "op": "Convolution", 
      "name": "convolution82", 
      "attrs": {
        "dilate": "(1, 1)", 
        "kernel": "(3, 3)", 
        "no_bias": "False", 
        "num_filter": "40", 
        "num_group": "1", 
        "stride": "(1, 1)"
      }, 
      "inputs": [[457, 0, 0], [458, 0, 0], [459, 0, 0]]
    }, 
    {
      "op": "Concat", 
      "name": "concat38", 
      "attrs": {
        "dim": "1", 
        "num_args": "2"
      }, 
      "inputs": [[450, 0, 0], [460, 0, 0]]
    }, 
    {
      "op": "Pad", 
      "name": "pad123", 
      "attrs": {
        "mode": "constant", 
        "pad_width": "(0, 0, 0, 0, 0, 0, 0, 0)"
      }, 
      "inputs": [[461, 0, 0]]
    }, 
    {
      "op": "null", 
      "name": "learned_166", 
      "attrs": {"__shape__": "(160, 440, 1, 1)"}, 
      "inputs": []
    }, 
    {
      "op": "null", 
      "name": "learned_167", 
      "attrs": {"__shape__": "(160,)"}, 
      "inputs": []
    }, 
    {
      "op": "Convolution", 
      "name": "convolution83", 
      "attrs": {
        "dilate": "(1, 1)", 
        "kernel": "(1, 1)", 
        "no_bias": "False", 
        "num_filter": "160", 
        "num_group": "1", 
        "stride": "(1, 1)"
      }, 
      "inputs": [[462, 0, 0], [463, 0, 0], [464, 0, 0]]
    }, 
    {
      "op": "relu", 
      "name": "relu39", 
      "inputs": [[465, 0, 0]]
    }, 
    {
      "op": "Pad", 
      "name": "pad124", 
      "attrs": {
        "mode": "reflect", 
        "pad_width": "(0, 0, 0, 0, 1, 1, 1, 1)"
      }, 
      "inputs": [[466, 0, 0]]
    }, 
    {
      "op": "Pad", 
      "name": "pad125", 
      "attrs": {
        "mode": "constant", 
        "pad_width": "(0, 0, 0, 0, 0, 0, 0, 0)"
      }, 
      "inputs": [[467, 0, 0]]
    }, 
    {
      "op": "null", 
      "name": "learned_168", 
      "attrs": {"__shape__": "(40, 160, 3, 3)"}, 
      "inputs": []
    }, 
    {
      "op": "null", 
      "name": "learned_169", 
      "attrs": {"__shape__": "(40,)"}, 
      "inputs": []
    }, 
    {
      "op": "Convolution", 
      "name": "convolution84", 
      "attrs": {
        "dilate": "(1, 1)", 
        "kernel": "(3, 3)", 
        "no_bias": "False", 
        "num_filter": "40", 
        "num_group": "1", 
        "stride": "(1, 1)"
      }, 
      "inputs": [[468, 0, 0], [469, 0, 0], [470, 0, 0]]
    }, 
    {
      "op": "Concat", 
      "name": "concat39", 
      "attrs": {
        "dim": "1", 
        "num_args": "2"
      }, 
      "inputs": [[461, 0, 0], [471, 0, 0]]
    }, 
    {
      "op": "Pad", 
      "name": "pad126", 
      "attrs": {
        "mode": "constant", 
        "pad_width": "(0, 0, 0, 0, 0, 0, 0, 0)"
      }, 
      "inputs": [[472, 0, 0]]
    }, 
    {
      "op": "null", 
      "name": "learned_170", 
      "attrs": {"__shape__": "(160, 480, 1, 1)"}, 
      "inputs": []
    }, 
    {
      "op": "Convolution", 
      "name": "convolution85", 
      "attrs": {
        "dilate": "(1, 1)", 
        "kernel": "(1, 1)", 
        "no_bias": "True", 
        "num_filter": "160", 
        "num_group": "1", 
        "stride": "(1, 1)"
      }, 
      "inputs": [[473, 0, 0], [474, 0, 0]]
    }, 
    {
      "op": "_mul_scalar", 
      "name": "_mulscalar4", 
      "attrs": {"scalar": "0.2"}, 
      "inputs": [[475, 0, 0]]
    }, 
    {
      "op": "broadcast_add", 
      "name": "broadcast_add4", 
      "inputs": [[476, 0, 0], [384, 0, 0]]
    }, 
    {
      "op": "Pad", 
      "name": "pad127", 
      "attrs": {
        "mode": "constant", 
        "pad_width": "(0, 0, 0, 0, 0, 0, 0, 0)"
      }, 
      "inputs": [[477, 0, 0]]
    }, 
    {
      "op": "null", 
      "name": "learned_171", 
      "attrs": {"__shape__": "(160, 160, 1, 1)"}, 
      "inputs": []
    }, 
    {
      "op": "null", 
      "name": "learned_172", 
      "attrs": {"__shape__": "(160,)"}, 
      "inputs": []
    }, 
    {
      "op": "Convolution", 
      "name": "convolution86", 
      "attrs": {
        "dilate": "(1, 1)", 
        "kernel": "(1, 1)", 
        "no_bias": "False", 
        "num_filter": "160", 
        "num_group": "1", 
        "stride": "(1, 1)"
      }, 
      "inputs": [[478, 0, 0], [479, 0, 0], [480, 0, 0]]
    }, 
    {
      "op": "relu", 
      "name": "relu40", 
      "inputs": [[481, 0, 0]]
    }, 
    {
      "op": "Pad", 
      "name": "pad128", 
      "attrs": {
        "mode": "reflect", 
        "pad_width": "(0, 0, 0, 0, 1, 1, 1, 1)"
      }, 
      "inputs": [[482, 0, 0]]
    }, 
    {
      "op": "Pad", 
      "name": "pad129", 
      "attrs": {
        "mode": "constant", 
        "pad_width": "(0, 0, 0, 0, 0, 0, 0, 0)"
      }, 
      "inputs": [[483, 0, 0]]
    }, 
    {
      "op": "null", 
      "name": "learned_173", 
      "attrs": {"__shape__": "(40, 160, 3, 3)"}, 
      "inputs": []
    }, 
    {
      "op": "null", 
      "name": "learned_174", 
      "attrs": {"__shape__": "(40,)"}, 
      "inputs": []
    }, 
    {
      "op": "Convolution", 
      "name": "convolution87", 
      "attrs": {
        "dilate": "(1, 1)", 
        "kernel": "(3, 3)", 
        "no_bias": "False", 
        "num_filter": "40", 
        "num_group": "1", 
        "stride": "(1, 1)"
      }, 
      "inputs": [[484, 0, 0], [485, 0, 0], [486, 0, 0]]
    }, 
    {
      "op": "Concat", 
      "name": "concat40", 
      "attrs": {
        "dim": "1", 
        "num_args": "2"
      }, 
      "inputs": [[477, 0, 0], [487, 0, 0]]
    }, 
    {
      "op": "Pad", 
      "name": "pad130", 
      "attrs": {
        "mode": "constant", 
        "pad_width": "(0, 0, 0, 0, 0, 0, 0, 0)"
      }, 
      "inputs": [[488, 0, 0]]
    }, 
    {
      "op": "null", 
      "name": "learned_175", 
      "attrs": {"__shape__": "(160, 200, 1, 1)"}, 
      "inputs": []
    }, 
    {
      "op": "null", 
      "name": "learned_176", 
      "attrs": {"__shape__": "(160,)"}, 
      "inputs": []
    }, 
    {
      "op": "Convolution", 
      "name": "convolution88", 
      "attrs": {
        "dilate": "(1, 1)", 
        "kernel": "(1, 1)", 
        "no_bias": "False", 
        "num_filter": "160", 
        "num_group": "1", 
        "stride": "(1, 1)"
      }, 
      "inputs": [[489, 0, 0], [490, 0, 0], [491, 0, 0]]
    }, 
    {
      "op": "relu", 
      "name": "relu41", 
      "inputs": [[492, 0, 0]]
    }, 
    {
      "op": "Pad", 
      "name": "pad131", 
      "attrs": {
        "mode": "reflect", 
        "pad_width": "(0, 0, 0, 0, 1, 1, 1, 1)"
      }, 
      "inputs": [[493, 0, 0]]
    }, 
    {
      "op": "Pad", 
      "name": "pad132", 
      "attrs": {
        "mode": "constant", 
        "pad_width": "(0, 0, 0, 0, 0, 0, 0, 0)"
      }, 
      "inputs": [[494, 0, 0]]
    }, 
    {
      "op": "null", 
      "name": "learned_177", 
      "attrs": {"__shape__": "(40, 160, 3, 3)"}, 
      "inputs": []
    }, 
    {
      "op": "null", 
      "name": "learned_178", 
      "attrs": {"__shape__": "(40,)"}, 
      "inputs": []
    }, 
    {
      "op": "Convolution", 
      "name": "convolution89", 
      "attrs": {
        "dilate": "(1, 1)", 
        "kernel": "(3, 3)", 
        "no_bias": "False", 
        "num_filter": "40", 
        "num_group": "1", 
        "stride": "(1, 1)"
      }, 
      "inputs": [[495, 0, 0], [496, 0, 0], [497, 0, 0]]
    }, 
    {
      "op": "Concat", 
      "name": "concat41", 
      "attrs": {
        "dim": "1", 
        "num_args": "2"
      }, 
      "inputs": [[488, 0, 0], [498, 0, 0]]
    }, 
    {
      "op": "Pad", 
      "name": "pad133", 
      "attrs": {
        "mode": "constant", 
        "pad_width": "(0, 0, 0, 0, 0, 0, 0, 0)"
      }, 
      "inputs": [[499, 0, 0]]
    }, 
    {
      "op": "null", 
      "name": "learned_179", 
      "attrs": {"__shape__": "(160, 240, 1, 1)"}, 
      "inputs": []
    }, 
    {
      "op": "null", 
      "name": "learned_180", 
      "attrs": {"__shape__": "(160,)"}, 
      "inputs": []
    }, 
    {
      "op": "Convolution", 
      "name": "convolution90", 
      "attrs": {
        "dilate": "(1, 1)", 
        "kernel": "(1, 1)", 
        "no_bias": "False", 
        "num_filter": "160", 
        "num_group": "1", 
        "stride": "(1, 1)"
      }, 
      "inputs": [[500, 0, 0], [501, 0, 0], [502, 0, 0]]
    }, 
    {
      "op": "relu", 
      "name": "relu42", 
      "inputs": [[503, 0, 0]]
    }, 
    {
      "op": "Pad", 
      "name": "pad134", 
      "attrs": {
        "mode": "reflect", 
        "pad_width": "(0, 0, 0, 0, 1, 1, 1, 1)"
      }, 
      "inputs": [[504, 0, 0]]
    }, 
    {
      "op": "Pad", 
      "name": "pad135", 
      "attrs": {
        "mode": "constant", 
        "pad_width": "(0, 0, 0, 0, 0, 0, 0, 0)"
      }, 
      "inputs": [[505, 0, 0]]
    }, 
    {
      "op": "null", 
      "name": "learned_181", 
      "attrs": {"__shape__": "(40, 160, 3, 3)"}, 
      "inputs": []
    }, 
    {
      "op": "null", 
      "name": "learned_182", 
      "attrs": {"__shape__": "(40,)"}, 
      "inputs": []
    }, 
    {
      "op": "Convolution", 
      "name": "convolution91", 
      "attrs": {
        "dilate": "(1, 1)", 
        "kernel": "(3, 3)", 
        "no_bias": "False", 
        "num_filter": "40", 
        "num_group": "1", 
        "stride": "(1, 1)"
      }, 
      "inputs": [[506, 0, 0], [507, 0, 0], [508, 0, 0]]
    }, 
    {
      "op": "Concat", 
      "name": "concat42", 
      "attrs": {
        "dim": "1", 
        "num_args": "2"
      }, 
      "inputs": [[499, 0, 0], [509, 0, 0]]
    }, 
    {
      "op": "Pad", 
      "name": "pad136", 
      "attrs": {
        "mode": "constant", 
        "pad_width": "(0, 0, 0, 0, 0, 0, 0, 0)"
      }, 
      "inputs": [[510, 0, 0]]
    }, 
    {
      "op": "null", 
      "name": "learned_183", 
      "attrs": {"__shape__": "(160, 280, 1, 1)"}, 
      "inputs": []
    }, 
    {
      "op": "null", 
      "name": "learned_184", 
      "attrs": {"__shape__": "(160,)"}, 
      "inputs": []
    }, 
    {
      "op": "Convolution", 
      "name": "convolution92", 
      "attrs": {
        "dilate": "(1, 1)", 
        "kernel": "(1, 1)", 
        "no_bias": "False", 
        "num_filter": "160", 
        "num_group": "1", 
        "stride": "(1, 1)"
      }, 
      "inputs": [[511, 0, 0], [512, 0, 0], [513, 0, 0]]
    }, 
    {
      "op": "relu", 
      "name": "relu43", 
      "inputs": [[514, 0, 0]]
    }, 
    {
      "op": "Pad", 
      "name": "pad137", 
      "attrs": {
        "mode": "reflect", 
        "pad_width": "(0, 0, 0, 0, 1, 1, 1, 1)"
      }, 
      "inputs": [[515, 0, 0]]
    }, 
    {
      "op": "Pad", 
      "name": "pad138", 
      "attrs": {
        "mode": "constant", 
        "pad_width": "(0, 0, 0, 0, 0, 0, 0, 0)"
      }, 
      "inputs": [[516, 0, 0]]
    }, 
    {
      "op": "null", 
      "name": "learned_185", 
      "attrs": {"__shape__": "(40, 160, 3, 3)"}, 
      "inputs": []
    }, 
    {
      "op": "null", 
      "name": "learned_186", 
      "attrs": {"__shape__": "(40,)"}, 
      "inputs": []
    }, 
    {
      "op": "Convolution", 
      "name": "convolution93", 
      "attrs": {
        "dilate": "(1, 1)", 
        "kernel": "(3, 3)", 
        "no_bias": "False", 
        "num_filter": "40", 
        "num_group": "1", 
        "stride": "(1, 1)"
      }, 
      "inputs": [[517, 0, 0], [518, 0, 0], [519, 0, 0]]
    }, 
    {
      "op": "Concat", 
      "name": "concat43", 
      "attrs": {
        "dim": "1", 
        "num_args": "2"
      }, 
      "inputs": [[510, 0, 0], [520, 0, 0]]
    }, 
    {
      "op": "Pad", 
      "name": "pad139", 
      "attrs": {
        "mode": "constant", 
        "pad_width": "(0, 0, 0, 0, 0, 0, 0, 0)"
      }, 
      "inputs": [[521, 0, 0]]
    }, 
    {
      "op": "null", 
      "name": "learned_187", 
      "attrs": {"__shape__": "(160, 320, 1, 1)"}, 
      "inputs": []
    }, 
    {
      "op": "null", 
      "name": "learned_188", 
      "attrs": {"__shape__": "(160,)"}, 
      "inputs": []
    }, 
    {
      "op": "Convolution", 
      "name": "convolution94", 
      "attrs": {
        "dilate": "(1, 1)", 
        "kernel": "(1, 1)", 
        "no_bias": "False", 
        "num_filter": "160", 
        "num_group": "1", 
        "stride": "(1, 1)"
      }, 
      "inputs": [[522, 0, 0], [523, 0, 0], [524, 0, 0]]
    }, 
    {
      "op": "relu", 
      "name": "relu44", 
      "inputs": [[525, 0, 0]]
    }, 
    {
      "op": "Pad", 
      "name": "pad140", 
      "attrs": {
        "mode": "reflect", 
        "pad_width": "(0, 0, 0, 0, 1, 1, 1, 1)"
      }, 
      "inputs": [[526, 0, 0]]
    }, 
    {
      "op": "Pad", 
      "name": "pad141", 
      "attrs": {
        "mode": "constant", 
        "pad_width": "(0, 0, 0, 0, 0, 0, 0, 0)"
      }, 
      "inputs": [[527, 0, 0]]
    }, 
    {
      "op": "null", 
      "name": "learned_189", 
      "attrs": {"__shape__": "(40, 160, 3, 3)"}, 
      "inputs": []
    }, 
    {
      "op": "null", 
      "name": "learned_190", 
      "attrs": {"__shape__": "(40,)"}, 
      "inputs": []
    }, 
    {
      "op": "Convolution", 
      "name": "convolution95", 
      "attrs": {
        "dilate": "(1, 1)", 
        "kernel": "(3, 3)", 
        "no_bias": "False", 
        "num_filter": "40", 
        "num_group": "1", 
        "stride": "(1, 1)"
      }, 
      "inputs": [[528, 0, 0], [529, 0, 0], [530, 0, 0]]
    }, 
    {
      "op": "Concat", 
      "name": "concat44", 
      "attrs": {
        "dim": "1", 
        "num_args": "2"
      }, 
      "inputs": [[521, 0, 0], [531, 0, 0]]
    }, 
    {
      "op": "Pad", 
      "name": "pad142", 
      "attrs": {
        "mode": "constant", 
        "pad_width": "(0, 0, 0, 0, 0, 0, 0, 0)"
      }, 
      "inputs": [[532, 0, 0]]
    }, 
    {
      "op": "null", 
      "name": "learned_191", 
      "attrs": {"__shape__": "(160, 360, 1, 1)"}, 
      "inputs": []
    }, 
    {
      "op": "null", 
      "name": "learned_192", 
      "attrs": {"__shape__": "(160,)"}, 
      "inputs": []
    }, 
    {
      "op": "Convolution", 
      "name": "convolution96", 
      "attrs": {
        "dilate": "(1, 1)", 
        "kernel": "(1, 1)", 
        "no_bias": "False", 
        "num_filter": "160", 
        "num_group": "1", 
        "stride": "(1, 1)"
      }, 
      "inputs": [[533, 0, 0], [534, 0, 0], [535, 0, 0]]
    }, 
    {
      "op": "relu", 
      "name": "relu45", 
      "inputs": [[536, 0, 0]]
    }, 
    {
      "op": "Pad", 
      "name": "pad143", 
      "attrs": {
        "mode": "reflect", 
        "pad_width": "(0, 0, 0, 0, 1, 1, 1, 1)"
      }, 
      "inputs": [[537, 0, 0]]
    }, 
    {
      "op": "Pad", 
      "name": "pad144", 
      "attrs": {
        "mode": "constant", 
        "pad_width": "(0, 0, 0, 0, 0, 0, 0, 0)"
      }, 
      "inputs": [[538, 0, 0]]
    }, 
    {
      "op": "null", 
      "name": "learned_193", 
      "attrs": {"__shape__": "(40, 160, 3, 3)"}, 
      "inputs": []
    }, 
    {
      "op": "null", 
      "name": "learned_194", 
      "attrs": {"__shape__": "(40,)"}, 
      "inputs": []
    }, 
    {
      "op": "Convolution", 
      "name": "convolution97", 
      "attrs": {
        "dilate": "(1, 1)", 
        "kernel": "(3, 3)", 
        "no_bias": "False", 
        "num_filter": "40", 
        "num_group": "1", 
        "stride": "(1, 1)"
      }, 
      "inputs": [[539, 0, 0], [540, 0, 0], [541, 0, 0]]
    }, 
    {
      "op": "Concat", 
      "name": "concat45", 
      "attrs": {
        "dim": "1", 
        "num_args": "2"
      }, 
      "inputs": [[532, 0, 0], [542, 0, 0]]
    }, 
    {
      "op": "Pad", 
      "name": "pad145", 
      "attrs": {
        "mode": "constant", 
        "pad_width": "(0, 0, 0, 0, 0, 0, 0, 0)"
      }, 
      "inputs": [[543, 0, 0]]
    }, 
    {
      "op": "null", 
      "name": "learned_195", 
      "attrs": {"__shape__": "(160, 400, 1, 1)"}, 
      "inputs": []
    }, 
    {
      "op": "null", 
      "name": "learned_196", 
      "attrs": {"__shape__": "(160,)"}, 
      "inputs": []
    }, 
    {
      "op": "Convolution", 
      "name": "convolution98", 
      "attrs": {
        "dilate": "(1, 1)", 
        "kernel": "(1, 1)", 
        "no_bias": "False", 
        "num_filter": "160", 
        "num_group": "1", 
        "stride": "(1, 1)"
      }, 
      "inputs": [[544, 0, 0], [545, 0, 0], [546, 0, 0]]
    }, 
    {
      "op": "relu", 
      "name": "relu46", 
      "inputs": [[547, 0, 0]]
    }, 
    {
      "op": "Pad", 
      "name": "pad146", 
      "attrs": {
        "mode": "reflect", 
        "pad_width": "(0, 0, 0, 0, 1, 1, 1, 1)"
      }, 
      "inputs": [[548, 0, 0]]
    }, 
    {
      "op": "Pad", 
      "name": "pad147", 
      "attrs": {
        "mode": "constant", 
        "pad_width": "(0, 0, 0, 0, 0, 0, 0, 0)"
      }, 
      "inputs": [[549, 0, 0]]
    }, 
    {
      "op": "null", 
      "name": "learned_197", 
      "attrs": {"__shape__": "(40, 160, 3, 3)"}, 
      "inputs": []
    }, 
    {
      "op": "null", 
      "name": "learned_198", 
      "attrs": {"__shape__": "(40,)"}, 
      "inputs": []
    }, 
    {
      "op": "Convolution", 
      "name": "convolution99", 
      "attrs": {
        "dilate": "(1, 1)", 
        "kernel": "(3, 3)", 
        "no_bias": "False", 
        "num_filter": "40", 
        "num_group": "1", 
        "stride": "(1, 1)"
      }, 
      "inputs": [[550, 0, 0], [551, 0, 0], [552, 0, 0]]
    }, 
    {
      "op": "Concat", 
      "name": "concat46", 
      "attrs": {
        "dim": "1", 
        "num_args": "2"
      }, 
      "inputs": [[543, 0, 0], [553, 0, 0]]
    }, 
    {
      "op": "Pad", 
      "name": "pad148", 
      "attrs": {
        "mode": "constant", 
        "pad_width": "(0, 0, 0, 0, 0, 0, 0, 0)"
      }, 
      "inputs": [[554, 0, 0]]
    }, 
    {
      "op": "null", 
      "name": "learned_199", 
      "attrs": {"__shape__": "(160, 440, 1, 1)"}, 
      "inputs": []
    }, 
    {
      "op": "null", 
      "name": "learned_200", 
      "attrs": {"__shape__": "(160,)"}, 
      "inputs": []
    }, 
    {
      "op": "Convolution", 
      "name": "convolution100", 
      "attrs": {
        "dilate": "(1, 1)", 
        "kernel": "(1, 1)", 
        "no_bias": "False", 
        "num_filter": "160", 
        "num_group": "1", 
        "stride": "(1, 1)"
      }, 
      "inputs": [[555, 0, 0], [556, 0, 0], [557, 0, 0]]
    }, 
    {
      "op": "relu", 
      "name": "relu47", 
      "inputs": [[558, 0, 0]]
    }, 
    {
      "op": "Pad", 
      "name": "pad149", 
      "attrs": {
        "mode": "reflect", 
        "pad_width": "(0, 0, 0, 0, 1, 1, 1, 1)"
      }, 
      "inputs": [[559, 0, 0]]
    }, 
    {
      "op": "Pad", 
      "name": "pad150", 
      "attrs": {
        "mode": "constant", 
        "pad_width": "(0, 0, 0, 0, 0, 0, 0, 0)"
      }, 
      "inputs": [[560, 0, 0]]
    }, 
    {
      "op": "null", 
      "name": "learned_201", 
      "attrs": {"__shape__": "(40, 160, 3, 3)"}, 
      "inputs": []
    }, 
    {
      "op": "null", 
      "name": "learned_202", 
      "attrs": {"__shape__": "(40,)"}, 
      "inputs": []
    }, 
    {
      "op": "Convolution", 
      "name": "convolution101", 
      "attrs": {
        "dilate": "(1, 1)", 
        "kernel": "(3, 3)", 
        "no_bias": "False", 
        "num_filter": "40", 
        "num_group": "1", 
        "stride": "(1, 1)"
      }, 
      "inputs": [[561, 0, 0], [562, 0, 0], [563, 0, 0]]
    }, 
    {
      "op": "Concat", 
      "name": "concat47", 
      "attrs": {
        "dim": "1", 
        "num_args": "2"
      }, 
      "inputs": [[554, 0, 0], [564, 0, 0]]
    }, 
    {
      "op": "Pad", 
      "name": "pad151", 
      "attrs": {
        "mode": "constant", 
        "pad_width": "(0, 0, 0, 0, 0, 0, 0, 0)"
      }, 
      "inputs": [[565, 0, 0]]
    }, 
    {
      "op": "null", 
      "name": "learned_203", 
      "attrs": {"__shape__": "(160, 480, 1, 1)"}, 
      "inputs": []
    }, 
    {
      "op": "Convolution", 
      "name": "convolution102", 
      "attrs": {
        "dilate": "(1, 1)", 
        "kernel": "(1, 1)", 
        "no_bias": "True", 
        "num_filter": "160", 
        "num_group": "1", 
        "stride": "(1, 1)"
      }, 
      "inputs": [[566, 0, 0], [567, 0, 0]]
    }, 
    {
      "op": "_mul_scalar", 
      "name": "_mulscalar5", 
      "attrs": {"scalar": "0.2"}, 
      "inputs": [[568, 0, 0]]
    }, 
    {
      "op": "broadcast_add", 
      "name": "broadcast_add5", 
      "inputs": [[569, 0, 0], [477, 0, 0]]
    }, 
    {
      "op": "Pad", 
      "name": "pad152", 
      "attrs": {
        "mode": "constant", 
        "pad_width": "(0, 0, 0, 0, 0, 0, 0, 0)"
      }, 
      "inputs": [[570, 0, 0]]
    }, 
    {
      "op": "null", 
      "name": "learned_204", 
      "attrs": {"__shape__": "(160, 160, 1, 1)"}, 
      "inputs": []
    }, 
    {
      "op": "null", 
      "name": "learned_205", 
      "attrs": {"__shape__": "(160,)"}, 
      "inputs": []
    }, 
    {
      "op": "Convolution", 
      "name": "convolution103", 
      "attrs": {
        "dilate": "(1, 1)", 
        "kernel": "(1, 1)", 
        "no_bias": "False", 
        "num_filter": "160", 
        "num_group": "1", 
        "stride": "(1, 1)"
      }, 
      "inputs": [[571, 0, 0], [572, 0, 0], [573, 0, 0]]
    }, 
    {
      "op": "relu", 
      "name": "relu48", 
      "inputs": [[574, 0, 0]]
    }, 
    {
      "op": "Pad", 
      "name": "pad153", 
      "attrs": {
        "mode": "reflect", 
        "pad_width": "(0, 0, 0, 0, 1, 1, 1, 1)"
      }, 
      "inputs": [[575, 0, 0]]
    }, 
    {
      "op": "Pad", 
      "name": "pad154", 
      "attrs": {
        "mode": "constant", 
        "pad_width": "(0, 0, 0, 0, 0, 0, 0, 0)"
      }, 
      "inputs": [[576, 0, 0]]
    }, 
    {
      "op": "null", 
      "name": "learned_206", 
      "attrs": {"__shape__": "(40, 160, 3, 3)"}, 
      "inputs": []
    }, 
    {
      "op": "null", 
      "name": "learned_207", 
      "attrs": {"__shape__": "(40,)"}, 
      "inputs": []
    }, 
    {
      "op": "Convolution", 
      "name": "convolution104", 
      "attrs": {
        "dilate": "(1, 1)", 
        "kernel": "(3, 3)", 
        "no_bias": "False", 
        "num_filter": "40", 
        "num_group": "1", 
        "stride": "(1, 1)"
      }, 
      "inputs": [[577, 0, 0], [578, 0, 0], [579, 0, 0]]
    }, 
    {
      "op": "Concat", 
      "name": "concat48", 
      "attrs": {
        "dim": "1", 
        "num_args": "2"
      }, 
      "inputs": [[570, 0, 0], [580, 0, 0]]
    }, 
    {
      "op": "Pad", 
      "name": "pad155", 
      "attrs": {
        "mode": "constant", 
        "pad_width": "(0, 0, 0, 0, 0, 0, 0, 0)"
      }, 
      "inputs": [[581, 0, 0]]
    }, 
    {
      "op": "null", 
      "name": "learned_208", 
      "attrs": {"__shape__": "(160, 200, 1, 1)"}, 
      "inputs": []
    }, 
    {
      "op": "null", 
      "name": "learned_209", 
      "attrs": {"__shape__": "(160,)"}, 
      "inputs": []
    }, 
    {
      "op": "Convolution", 
      "name": "convolution105", 
      "attrs": {
        "dilate": "(1, 1)", 
        "kernel": "(1, 1)", 
        "no_bias": "False", 
        "num_filter": "160", 
        "num_group": "1", 
        "stride": "(1, 1)"
      }, 
      "inputs": [[582, 0, 0], [583, 0, 0], [584, 0, 0]]
    }, 
    {
      "op": "relu", 
      "name": "relu49", 
      "inputs": [[585, 0, 0]]
    }, 
    {
      "op": "Pad", 
      "name": "pad156", 
      "attrs": {
        "mode": "reflect", 
        "pad_width": "(0, 0, 0, 0, 1, 1, 1, 1)"
      }, 
      "inputs": [[586, 0, 0]]
    }, 
    {
      "op": "Pad", 
      "name": "pad157", 
      "attrs": {
        "mode": "constant", 
        "pad_width": "(0, 0, 0, 0, 0, 0, 0, 0)"
      }, 
      "inputs": [[587, 0, 0]]
    }, 
    {
      "op": "null", 
      "name": "learned_210", 
      "attrs": {"__shape__": "(40, 160, 3, 3)"}, 
      "inputs": []
    }, 
    {
      "op": "null", 
      "name": "learned_211", 
      "attrs": {"__shape__": "(40,)"}, 
      "inputs": []
    }, 
    {
      "op": "Convolution", 
      "name": "convolution106", 
      "attrs": {
        "dilate": "(1, 1)", 
        "kernel": "(3, 3)", 
        "no_bias": "False", 
        "num_filter": "40", 
        "num_group": "1", 
        "stride": "(1, 1)"
      }, 
      "inputs": [[588, 0, 0], [589, 0, 0], [590, 0, 0]]
    }, 
    {
      "op": "Concat", 
      "name": "concat49", 
      "attrs": {
        "dim": "1", 
        "num_args": "2"
      }, 
      "inputs": [[581, 0, 0], [591, 0, 0]]
    }, 
    {
      "op": "Pad", 
      "name": "pad158", 
      "attrs": {
        "mode": "constant", 
        "pad_width": "(0, 0, 0, 0, 0, 0, 0, 0)"
      }, 
      "inputs": [[592, 0, 0]]
    }, 
    {
      "op": "null", 
      "name": "learned_212", 
      "attrs": {"__shape__": "(160, 240, 1, 1)"}, 
      "inputs": []
    }, 
    {
      "op": "null", 
      "name": "learned_213", 
      "attrs": {"__shape__": "(160,)"}, 
      "inputs": []
    }, 
    {
      "op": "Convolution", 
      "name": "convolution107", 
      "attrs": {
        "dilate": "(1, 1)", 
        "kernel": "(1, 1)", 
        "no_bias": "False", 
        "num_filter": "160", 
        "num_group": "1", 
        "stride": "(1, 1)"
      }, 
      "inputs": [[593, 0, 0], [594, 0, 0], [595, 0, 0]]
    }, 
    {
      "op": "relu", 
      "name": "relu50", 
      "inputs": [[596, 0, 0]]
    }, 
    {
      "op": "Pad", 
      "name": "pad159", 
      "attrs": {
        "mode": "reflect", 
        "pad_width": "(0, 0, 0, 0, 1, 1, 1, 1)"
      }, 
      "inputs": [[597, 0, 0]]
    }, 
    {
      "op": "Pad", 
      "name": "pad160", 
      "attrs": {
        "mode": "constant", 
        "pad_width": "(0, 0, 0, 0, 0, 0, 0, 0)"
      }, 
      "inputs": [[598, 0, 0]]
    }, 
    {
      "op": "null", 
      "name": "learned_214", 
      "attrs": {"__shape__": "(40, 160, 3, 3)"}, 
      "inputs": []
    }, 
    {
      "op": "null", 
      "name": "learned_215", 
      "attrs": {"__shape__": "(40,)"}, 
      "inputs": []
    }, 
    {
      "op": "Convolution", 
      "name": "convolution108", 
      "attrs": {
        "dilate": "(1, 1)", 
        "kernel": "(3, 3)", 
        "no_bias": "False", 
        "num_filter": "40", 
        "num_group": "1", 
        "stride": "(1, 1)"
      }, 
      "inputs": [[599, 0, 0], [600, 0, 0], [601, 0, 0]]
    }, 
    {
      "op": "Concat", 
      "name": "concat50", 
      "attrs": {
        "dim": "1", 
        "num_args": "2"
      }, 
      "inputs": [[592, 0, 0], [602, 0, 0]]
    }, 
    {
      "op": "Pad", 
      "name": "pad161", 
      "attrs": {
        "mode": "constant", 
        "pad_width": "(0, 0, 0, 0, 0, 0, 0, 0)"
      }, 
      "inputs": [[603, 0, 0]]
    }, 
    {
      "op": "null", 
      "name": "learned_216", 
      "attrs": {"__shape__": "(160, 280, 1, 1)"}, 
      "inputs": []
    }, 
    {
      "op": "null", 
      "name": "learned_217", 
      "attrs": {"__shape__": "(160,)"}, 
      "inputs": []
    }, 
    {
      "op": "Convolution", 
      "name": "convolution109", 
      "attrs": {
        "dilate": "(1, 1)", 
        "kernel": "(1, 1)", 
        "no_bias": "False", 
        "num_filter": "160", 
        "num_group": "1", 
        "stride": "(1, 1)"
      }, 
      "inputs": [[604, 0, 0], [605, 0, 0], [606, 0, 0]]
    }, 
    {
      "op": "relu", 
      "name": "relu51", 
      "inputs": [[607, 0, 0]]
    }, 
    {
      "op": "Pad", 
      "name": "pad162", 
      "attrs": {
        "mode": "reflect", 
        "pad_width": "(0, 0, 0, 0, 1, 1, 1, 1)"
      }, 
      "inputs": [[608, 0, 0]]
    }, 
    {
      "op": "Pad", 
      "name": "pad163", 
      "attrs": {
        "mode": "constant", 
        "pad_width": "(0, 0, 0, 0, 0, 0, 0, 0)"
      }, 
      "inputs": [[609, 0, 0]]
    }, 
    {
      "op": "null", 
      "name": "learned_218", 
      "attrs": {"__shape__": "(40, 160, 3, 3)"}, 
      "inputs": []
    }, 
    {
      "op": "null", 
      "name": "learned_219", 
      "attrs": {"__shape__": "(40,)"}, 
      "inputs": []
    }, 
    {
      "op": "Convolution", 
      "name": "convolution110", 
      "attrs": {
        "dilate": "(1, 1)", 
        "kernel": "(3, 3)", 
        "no_bias": "False", 
        "num_filter": "40", 
        "num_group": "1", 
        "stride": "(1, 1)"
      }, 
      "inputs": [[610, 0, 0], [611, 0, 0], [612, 0, 0]]
    }, 
    {
      "op": "Concat", 
      "name": "concat51", 
      "attrs": {
        "dim": "1", 
        "num_args": "2"
      }, 
      "inputs": [[603, 0, 0], [613, 0, 0]]
    }, 
    {
      "op": "Pad", 
      "name": "pad164", 
      "attrs": {
        "mode": "constant", 
        "pad_width": "(0, 0, 0, 0, 0, 0, 0, 0)"
      }, 
      "inputs": [[614, 0, 0]]
    }, 
    {
      "op": "null", 
      "name": "learned_220", 
      "attrs": {"__shape__": "(160, 320, 1, 1)"}, 
      "inputs": []
    }, 
    {
      "op": "null", 
      "name": "learned_221", 
      "attrs": {"__shape__": "(160,)"}, 
      "inputs": []
    }, 
    {
      "op": "Convolution", 
      "name": "convolution111", 
      "attrs": {
        "dilate": "(1, 1)", 
        "kernel": "(1, 1)", 
        "no_bias": "False", 
        "num_filter": "160", 
        "num_group": "1", 
        "stride": "(1, 1)"
      }, 
      "inputs": [[615, 0, 0], [616, 0, 0], [617, 0, 0]]
    }, 
    {
      "op": "relu", 
      "name": "relu52", 
      "inputs": [[618, 0, 0]]
    }, 
    {
      "op": "Pad", 
      "name": "pad165", 
      "attrs": {
        "mode": "reflect", 
        "pad_width": "(0, 0, 0, 0, 1, 1, 1, 1)"
      }, 
      "inputs": [[619, 0, 0]]
    }, 
    {
      "op": "Pad", 
      "name": "pad166", 
      "attrs": {
        "mode": "constant", 
        "pad_width": "(0, 0, 0, 0, 0, 0, 0, 0)"
      }, 
      "inputs": [[620, 0, 0]]
    }, 
    {
      "op": "null", 
      "name": "learned_222", 
      "attrs": {"__shape__": "(40, 160, 3, 3)"}, 
      "inputs": []
    }, 
    {
      "op": "null", 
      "name": "learned_223", 
      "attrs": {"__shape__": "(40,)"}, 
      "inputs": []
    }, 
    {
      "op": "Convolution", 
      "name": "convolution112", 
      "attrs": {
        "dilate": "(1, 1)", 
        "kernel": "(3, 3)", 
        "no_bias": "False", 
        "num_filter": "40", 
        "num_group": "1", 
        "stride": "(1, 1)"
      }, 
      "inputs": [[621, 0, 0], [622, 0, 0], [623, 0, 0]]
    }, 
    {
      "op": "Concat", 
      "name": "concat52", 
      "attrs": {
        "dim": "1", 
        "num_args": "2"
      }, 
      "inputs": [[614, 0, 0], [624, 0, 0]]
    }, 
    {
      "op": "Pad", 
      "name": "pad167", 
      "attrs": {
        "mode": "constant", 
        "pad_width": "(0, 0, 0, 0, 0, 0, 0, 0)"
      }, 
      "inputs": [[625, 0, 0]]
    }, 
    {
      "op": "null", 
      "name": "learned_224", 
      "attrs": {"__shape__": "(160, 360, 1, 1)"}, 
      "inputs": []
    }, 
    {
      "op": "null", 
      "name": "learned_225", 
      "attrs": {"__shape__": "(160,)"}, 
      "inputs": []
    }, 
    {
      "op": "Convolution", 
      "name": "convolution113", 
      "attrs": {
        "dilate": "(1, 1)", 
        "kernel": "(1, 1)", 
        "no_bias": "False", 
        "num_filter": "160", 
        "num_group": "1", 
        "stride": "(1, 1)"
      }, 
      "inputs": [[626, 0, 0], [627, 0, 0], [628, 0, 0]]
    }, 
    {
      "op": "relu", 
      "name": "relu53", 
      "inputs": [[629, 0, 0]]
    }, 
    {
      "op": "Pad", 
      "name": "pad168", 
      "attrs": {
        "mode": "reflect", 
        "pad_width": "(0, 0, 0, 0, 1, 1, 1, 1)"
      }, 
      "inputs": [[630, 0, 0]]
    }, 
    {
      "op": "Pad", 
      "name": "pad169", 
      "attrs": {
        "mode": "constant", 
        "pad_width": "(0, 0, 0, 0, 0, 0, 0, 0)"
      }, 
      "inputs": [[631, 0, 0]]
    }, 
    {
      "op": "null", 
      "name": "learned_226", 
      "attrs": {"__shape__": "(40, 160, 3, 3)"}, 
      "inputs": []
    }, 
    {
      "op": "null", 
      "name": "learned_227", 
      "attrs": {"__shape__": "(40,)"}, 
      "inputs": []
    }, 
    {
      "op": "Convolution", 
      "name": "convolution114", 
      "attrs": {
        "dilate": "(1, 1)", 
        "kernel": "(3, 3)", 
        "no_bias": "False", 
        "num_filter": "40", 
        "num_group": "1", 
        "stride": "(1, 1)"
      }, 
      "inputs": [[632, 0, 0], [633, 0, 0], [634, 0, 0]]
    }, 
    {
      "op": "Concat", 
      "name": "concat53", 
      "attrs": {
        "dim": "1", 
        "num_args": "2"
      }, 
      "inputs": [[625, 0, 0], [635, 0, 0]]
    }, 
    {
      "op": "Pad", 
      "name": "pad170", 
      "attrs": {
        "mode": "constant", 
        "pad_width": "(0, 0, 0, 0, 0, 0, 0, 0)"
      }, 
      "inputs": [[636, 0, 0]]
    }, 
    {
      "op": "null", 
      "name": "learned_228", 
      "attrs": {"__shape__": "(160, 400, 1, 1)"}, 
      "inputs": []
    }, 
    {
      "op": "null", 
      "name": "learned_229", 
      "attrs": {"__shape__": "(160,)"}, 
      "inputs": []
    }, 
    {
      "op": "Convolution", 
      "name": "convolution115", 
      "attrs": {
        "dilate": "(1, 1)", 
        "kernel": "(1, 1)", 
        "no_bias": "False", 
        "num_filter": "160", 
        "num_group": "1", 
        "stride": "(1, 1)"
      }, 
      "inputs": [[637, 0, 0], [638, 0, 0], [639, 0, 0]]
    }, 
    {
      "op": "relu", 
      "name": "relu54", 
      "inputs": [[640, 0, 0]]
    }, 
    {
      "op": "Pad", 
      "name": "pad171", 
      "attrs": {
        "mode": "reflect", 
        "pad_width": "(0, 0, 0, 0, 1, 1, 1, 1)"
      }, 
      "inputs": [[641, 0, 0]]
    }, 
    {
      "op": "Pad", 
      "name": "pad172", 
      "attrs": {
        "mode": "constant", 
        "pad_width": "(0, 0, 0, 0, 0, 0, 0, 0)"
      }, 
      "inputs": [[642, 0, 0]]
    }, 
    {
      "op": "null", 
      "name": "learned_230", 
      "attrs": {"__shape__": "(40, 160, 3, 3)"}, 
      "inputs": []
    }, 
    {
      "op": "null", 
      "name": "learned_231", 
      "attrs": {"__shape__": "(40,)"}, 
      "inputs": []
    }, 
    {
      "op": "Convolution", 
      "name": "convolution116", 
      "attrs": {
        "dilate": "(1, 1)", 
        "kernel": "(3, 3)", 
        "no_bias": "False", 
        "num_filter": "40", 
        "num_group": "1", 
        "stride": "(1, 1)"
      }, 
      "inputs": [[643, 0, 0], [644, 0, 0], [645, 0, 0]]
    }, 
    {
      "op": "Concat", 
      "name": "concat54", 
      "attrs": {
        "dim": "1", 
        "num_args": "2"
      }, 
      "inputs": [[636, 0, 0], [646, 0, 0]]
    }, 
    {
      "op": "Pad", 
      "name": "pad173", 
      "attrs": {
        "mode": "constant", 
        "pad_width": "(0, 0, 0, 0, 0, 0, 0, 0)"
      }, 
      "inputs": [[647, 0, 0]]
    }, 
    {
      "op": "null", 
      "name": "learned_232", 
      "attrs": {"__shape__": "(160, 440, 1, 1)"}, 
      "inputs": []
    }, 
    {
      "op": "null", 
      "name": "learned_233", 
      "attrs": {"__shape__": "(160,)"}, 
      "inputs": []
    }, 
    {
      "op": "Convolution", 
      "name": "convolution117", 
      "attrs": {
        "dilate": "(1, 1)", 
        "kernel": "(1, 1)", 
        "no_bias": "False", 
        "num_filter": "160", 
        "num_group": "1", 
        "stride": "(1, 1)"
      }, 
      "inputs": [[648, 0, 0], [649, 0, 0], [650, 0, 0]]
    }, 
    {
      "op": "relu", 
      "name": "relu55", 
      "inputs": [[651, 0, 0]]
    }, 
    {
      "op": "Pad", 
      "name": "pad174", 
      "attrs": {
        "mode": "reflect", 
        "pad_width": "(0, 0, 0, 0, 1, 1, 1, 1)"
      }, 
      "inputs": [[652, 0, 0]]
    }, 
    {
      "op": "Pad", 
      "name": "pad175", 
      "attrs": {
        "mode": "constant", 
        "pad_width": "(0, 0, 0, 0, 0, 0, 0, 0)"
      }, 
      "inputs": [[653, 0, 0]]
    }, 
    {
      "op": "null", 
      "name": "learned_234", 
      "attrs": {"__shape__": "(40, 160, 3, 3)"}, 
      "inputs": []
    }, 
    {
      "op": "null", 
      "name": "learned_235", 
      "attrs": {"__shape__": "(40,)"}, 
      "inputs": []
    }, 
    {
      "op": "Convolution", 
      "name": "convolution118", 
      "attrs": {
        "dilate": "(1, 1)", 
        "kernel": "(3, 3)", 
        "no_bias": "False", 
        "num_filter": "40", 
        "num_group": "1", 
        "stride": "(1, 1)"
      }, 
      "inputs": [[654, 0, 0], [655, 0, 0], [656, 0, 0]]
    }, 
    {
      "op": "Concat", 
      "name": "concat55", 
      "attrs": {
        "dim": "1", 
        "num_args": "2"
      }, 
      "inputs": [[647, 0, 0], [657, 0, 0]]
    }, 
    {
      "op": "Pad", 
      "name": "pad176", 
      "attrs": {
        "mode": "constant", 
        "pad_width": "(0, 0, 0, 0, 0, 0, 0, 0)"
      }, 
      "inputs": [[658, 0, 0]]
    }, 
    {
      "op": "null", 
      "name": "learned_236", 
      "attrs": {"__shape__": "(160, 480, 1, 1)"}, 
      "inputs": []
    }, 
    {
      "op": "Convolution", 
      "name": "convolution119", 
      "attrs": {
        "dilate": "(1, 1)", 
        "kernel": "(1, 1)", 
        "no_bias": "True", 
        "num_filter": "160", 
        "num_group": "1", 
        "stride": "(1, 1)"
      }, 
      "inputs": [[659, 0, 0], [660, 0, 0]]
    }, 
    {
      "op": "_mul_scalar", 
      "name": "_mulscalar6", 
      "attrs": {"scalar": "0.2"}, 
      "inputs": [[661, 0, 0]]
    }, 
    {
      "op": "broadcast_add", 
      "name": "broadcast_add6", 
      "inputs": [[662, 0, 0], [570, 0, 0]]
    }, 
    {
      "op": "Pad", 
      "name": "pad177", 
      "attrs": {
        "mode": "constant", 
        "pad_width": "(0, 0, 0, 0, 0, 0, 0, 0)"
      }, 
      "inputs": [[663, 0, 0]]
    }, 
    {
      "op": "null", 
      "name": "learned_237", 
      "attrs": {"__shape__": "(160, 160, 1, 1)"}, 
      "inputs": []
    }, 
    {
      "op": "null", 
      "name": "learned_238", 
      "attrs": {"__shape__": "(160,)"}, 
      "inputs": []
    }, 
    {
      "op": "Convolution", 
      "name": "convolution120", 
      "attrs": {
        "dilate": "(1, 1)", 
        "kernel": "(1, 1)", 
        "no_bias": "False", 
        "num_filter": "160", 
        "num_group": "1", 
        "stride": "(1, 1)"
      }, 
      "inputs": [[664, 0, 0], [665, 0, 0], [666, 0, 0]]
    }, 
    {
      "op": "relu", 
      "name": "relu56", 
      "inputs": [[667, 0, 0]]
    }, 
    {
      "op": "Pad", 
      "name": "pad178", 
      "attrs": {
        "mode": "reflect", 
        "pad_width": "(0, 0, 0, 0, 1, 1, 1, 1)"
      }, 
      "inputs": [[668, 0, 0]]
    }, 
    {
      "op": "Pad", 
      "name": "pad179", 
      "attrs": {
        "mode": "constant", 
        "pad_width": "(0, 0, 0, 0, 0, 0, 0, 0)"
      }, 
      "inputs": [[669, 0, 0]]
    }, 
    {
      "op": "null", 
      "name": "learned_239", 
      "attrs": {"__shape__": "(40, 160, 3, 3)"}, 
      "inputs": []
    }, 
    {
      "op": "null", 
      "name": "learned_240", 
      "attrs": {"__shape__": "(40,)"}, 
      "inputs": []
    }, 
    {
      "op": "Convolution", 
      "name": "convolution121", 
      "attrs": {
        "dilate": "(1, 1)", 
        "kernel": "(3, 3)", 
        "no_bias": "False", 
        "num_filter": "40", 
        "num_group": "1", 
        "stride": "(1, 1)"
      }, 
      "inputs": [[670, 0, 0], [671, 0, 0], [672, 0, 0]]
    }, 
    {
      "op": "Concat", 
      "name": "concat56", 
      "attrs": {
        "dim": "1", 
        "num_args": "2"
      }, 
      "inputs": [[663, 0, 0], [673, 0, 0]]
    }, 
    {
      "op": "Pad", 
      "name": "pad180", 
      "attrs": {
        "mode": "constant", 
        "pad_width": "(0, 0, 0, 0, 0, 0, 0, 0)"
      }, 
      "inputs": [[674, 0, 0]]
    }, 
    {
      "op": "null", 
      "name": "learned_241", 
      "attrs": {"__shape__": "(160, 200, 1, 1)"}, 
      "inputs": []
    }, 
    {
      "op": "null", 
      "name": "learned_242", 
      "attrs": {"__shape__": "(160,)"}, 
      "inputs": []
    }, 
    {
      "op": "Convolution", 
      "name": "convolution122", 
      "attrs": {
        "dilate": "(1, 1)", 
        "kernel": "(1, 1)", 
        "no_bias": "False", 
        "num_filter": "160", 
        "num_group": "1", 
        "stride": "(1, 1)"
      }, 
      "inputs": [[675, 0, 0], [676, 0, 0], [677, 0, 0]]
    }, 
    {
      "op": "relu", 
      "name": "relu57", 
      "inputs": [[678, 0, 0]]
    }, 
    {
      "op": "Pad", 
      "name": "pad181", 
      "attrs": {
        "mode": "reflect", 
        "pad_width": "(0, 0, 0, 0, 1, 1, 1, 1)"
      }, 
      "inputs": [[679, 0, 0]]
    }, 
    {
      "op": "Pad", 
      "name": "pad182", 
      "attrs": {
        "mode": "constant", 
        "pad_width": "(0, 0, 0, 0, 0, 0, 0, 0)"
      }, 
      "inputs": [[680, 0, 0]]
    }, 
    {
      "op": "null", 
      "name": "learned_243", 
      "attrs": {"__shape__": "(40, 160, 3, 3)"}, 
      "inputs": []
    }, 
    {
      "op": "null", 
      "name": "learned_244", 
      "attrs": {"__shape__": "(40,)"}, 
      "inputs": []
    }, 
    {
      "op": "Convolution", 
      "name": "convolution123", 
      "attrs": {
        "dilate": "(1, 1)", 
        "kernel": "(3, 3)", 
        "no_bias": "False", 
        "num_filter": "40", 
        "num_group": "1", 
        "stride": "(1, 1)"
      }, 
      "inputs": [[681, 0, 0], [682, 0, 0], [683, 0, 0]]
    }, 
    {
      "op": "Concat", 
      "name": "concat57", 
      "attrs": {
        "dim": "1", 
        "num_args": "2"
      }, 
      "inputs": [[674, 0, 0], [684, 0, 0]]
    }, 
    {
      "op": "Pad", 
      "name": "pad183", 
      "attrs": {
        "mode": "constant", 
        "pad_width": "(0, 0, 0, 0, 0, 0, 0, 0)"
      }, 
      "inputs": [[685, 0, 0]]
    }, 
    {
      "op": "null", 
      "name": "learned_245", 
      "attrs": {"__shape__": "(160, 240, 1, 1)"}, 
      "inputs": []
    }, 
    {
      "op": "null", 
      "name": "learned_246", 
      "attrs": {"__shape__": "(160,)"}, 
      "inputs": []
    }, 
    {
      "op": "Convolution", 
      "name": "convolution124", 
      "attrs": {
        "dilate": "(1, 1)", 
        "kernel": "(1, 1)", 
        "no_bias": "False", 
        "num_filter": "160", 
        "num_group": "1", 
        "stride": "(1, 1)"
      }, 
      "inputs": [[686, 0, 0], [687, 0, 0], [688, 0, 0]]
    }, 
    {
      "op": "relu", 
      "name": "relu58", 
      "inputs": [[689, 0, 0]]
    }, 
    {
      "op": "Pad", 
      "name": "pad184", 
      "attrs": {
        "mode": "reflect", 
        "pad_width": "(0, 0, 0, 0, 1, 1, 1, 1)"
      }, 
      "inputs": [[690, 0, 0]]
    }, 
    {
      "op": "Pad", 
      "name": "pad185", 
      "attrs": {
        "mode": "constant", 
        "pad_width": "(0, 0, 0, 0, 0, 0, 0, 0)"
      }, 
      "inputs": [[691, 0, 0]]
    }, 
    {
      "op": "null", 
      "name": "learned_247", 
      "attrs": {"__shape__": "(40, 160, 3, 3)"}, 
      "inputs": []
    }, 
    {
      "op": "null", 
      "name": "learned_248", 
      "attrs": {"__shape__": "(40,)"}, 
      "inputs": []
    }, 
    {
      "op": "Convolution", 
      "name": "convolution125", 
      "attrs": {
        "dilate": "(1, 1)", 
        "kernel": "(3, 3)", 
        "no_bias": "False", 
        "num_filter": "40", 
        "num_group": "1", 
        "stride": "(1, 1)"
      }, 
      "inputs": [[692, 0, 0], [693, 0, 0], [694, 0, 0]]
    }, 
    {
      "op": "Concat", 
      "name": "concat58", 
      "attrs": {
        "dim": "1", 
        "num_args": "2"
      }, 
      "inputs": [[685, 0, 0], [695, 0, 0]]
    }, 
    {
      "op": "Pad", 
      "name": "pad186", 
      "attrs": {
        "mode": "constant", 
        "pad_width": "(0, 0, 0, 0, 0, 0, 0, 0)"
      }, 
      "inputs": [[696, 0, 0]]
    }, 
    {
      "op": "null", 
      "name": "learned_249", 
      "attrs": {"__shape__": "(160, 280, 1, 1)"}, 
      "inputs": []
    }, 
    {
      "op": "null", 
      "name": "learned_250", 
      "attrs": {"__shape__": "(160,)"}, 
      "inputs": []
    }, 
    {
      "op": "Convolution", 
      "name": "convolution126", 
      "attrs": {
        "dilate": "(1, 1)", 
        "kernel": "(1, 1)", 
        "no_bias": "False", 
        "num_filter": "160", 
        "num_group": "1", 
        "stride": "(1, 1)"
      }, 
      "inputs": [[697, 0, 0], [698, 0, 0], [699, 0, 0]]
    }, 
    {
      "op": "relu", 
      "name": "relu59", 
      "inputs": [[700, 0, 0]]
    }, 
    {
      "op": "Pad", 
      "name": "pad187", 
      "attrs": {
        "mode": "reflect", 
        "pad_width": "(0, 0, 0, 0, 1, 1, 1, 1)"
      }, 
      "inputs": [[701, 0, 0]]
    }, 
    {
      "op": "Pad", 
      "name": "pad188", 
      "attrs": {
        "mode": "constant", 
        "pad_width": "(0, 0, 0, 0, 0, 0, 0, 0)"
      }, 
      "inputs": [[702, 0, 0]]
    }, 
    {
      "op": "null", 
      "name": "learned_251", 
      "attrs": {"__shape__": "(40, 160, 3, 3)"}, 
      "inputs": []
    }, 
    {
      "op": "null", 
      "name": "learned_252", 
      "attrs": {"__shape__": "(40,)"}, 
      "inputs": []
    }, 
    {
      "op": "Convolution", 
      "name": "convolution127", 
      "attrs": {
        "dilate": "(1, 1)", 
        "kernel": "(3, 3)", 
        "no_bias": "False", 
        "num_filter": "40", 
        "num_group": "1", 
        "stride": "(1, 1)"
      }, 
      "inputs": [[703, 0, 0], [704, 0, 0], [705, 0, 0]]
    }, 
    {
      "op": "Concat", 
      "name": "concat59", 
      "attrs": {
        "dim": "1", 
        "num_args": "2"
      }, 
      "inputs": [[696, 0, 0], [706, 0, 0]]
    }, 
    {
      "op": "Pad", 
      "name": "pad189", 
      "attrs": {
        "mode": "constant", 
        "pad_width": "(0, 0, 0, 0, 0, 0, 0, 0)"
      }, 
      "inputs": [[707, 0, 0]]
    }, 
    {
      "op": "null", 
      "name": "learned_253", 
      "attrs": {"__shape__": "(160, 320, 1, 1)"}, 
      "inputs": []
    }, 
    {
      "op": "null", 
      "name": "learned_254", 
      "attrs": {"__shape__": "(160,)"}, 
      "inputs": []
    }, 
    {
      "op": "Convolution", 
      "name": "convolution128", 
      "attrs": {
        "dilate": "(1, 1)", 
        "kernel": "(1, 1)", 
        "no_bias": "False", 
        "num_filter": "160", 
        "num_group": "1", 
        "stride": "(1, 1)"
      }, 
      "inputs": [[708, 0, 0], [709, 0, 0], [710, 0, 0]]
    }, 
    {
      "op": "relu", 
      "name": "relu60", 
      "inputs": [[711, 0, 0]]
    }, 
    {
      "op": "Pad", 
      "name": "pad190", 
      "attrs": {
        "mode": "reflect", 
        "pad_width": "(0, 0, 0, 0, 1, 1, 1, 1)"
      }, 
      "inputs": [[712, 0, 0]]
    }, 
    {
      "op": "Pad", 
      "name": "pad191", 
      "attrs": {
        "mode": "constant", 
        "pad_width": "(0, 0, 0, 0, 0, 0, 0, 0)"
      }, 
      "inputs": [[713, 0, 0]]
    }, 
    {
      "op": "null", 
      "name": "learned_255", 
      "attrs": {"__shape__": "(40, 160, 3, 3)"}, 
      "inputs": []
    }, 
    {
      "op": "null", 
      "name": "learned_256", 
      "attrs": {"__shape__": "(40,)"}, 
      "inputs": []
    }, 
    {
      "op": "Convolution", 
      "name": "convolution129", 
      "attrs": {
        "dilate": "(1, 1)", 
        "kernel": "(3, 3)", 
        "no_bias": "False", 
        "num_filter": "40", 
        "num_group": "1", 
        "stride": "(1, 1)"
      }, 
      "inputs": [[714, 0, 0], [715, 0, 0], [716, 0, 0]]
    }, 
    {
      "op": "Concat", 
      "name": "concat60", 
      "attrs": {
        "dim": "1", 
        "num_args": "2"
      }, 
      "inputs": [[707, 0, 0], [717, 0, 0]]
    }, 
    {
      "op": "Pad", 
      "name": "pad192", 
      "attrs": {
        "mode": "constant", 
        "pad_width": "(0, 0, 0, 0, 0, 0, 0, 0)"
      }, 
      "inputs": [[718, 0, 0]]
    }, 
    {
      "op": "null", 
      "name": "learned_257", 
      "attrs": {"__shape__": "(160, 360, 1, 1)"}, 
      "inputs": []
    }, 
    {
      "op": "null", 
      "name": "learned_258", 
      "attrs": {"__shape__": "(160,)"}, 
      "inputs": []
    }, 
    {
      "op": "Convolution", 
      "name": "convolution130", 
      "attrs": {
        "dilate": "(1, 1)", 
        "kernel": "(1, 1)", 
        "no_bias": "False", 
        "num_filter": "160", 
        "num_group": "1", 
        "stride": "(1, 1)"
      }, 
      "inputs": [[719, 0, 0], [720, 0, 0], [721, 0, 0]]
    }, 
    {
      "op": "relu", 
      "name": "relu61", 
      "inputs": [[722, 0, 0]]
    }, 
    {
      "op": "Pad", 
      "name": "pad193", 
      "attrs": {
        "mode": "reflect", 
        "pad_width": "(0, 0, 0, 0, 1, 1, 1, 1)"
      }, 
      "inputs": [[723, 0, 0]]
    }, 
    {
      "op": "Pad", 
      "name": "pad194", 
      "attrs": {
        "mode": "constant", 
        "pad_width": "(0, 0, 0, 0, 0, 0, 0, 0)"
      }, 
      "inputs": [[724, 0, 0]]
    }, 
    {
      "op": "null", 
      "name": "learned_259", 
      "attrs": {"__shape__": "(40, 160, 3, 3)"}, 
      "inputs": []
    }, 
    {
      "op": "null", 
      "name": "learned_260", 
      "attrs": {"__shape__": "(40,)"}, 
      "inputs": []
    }, 
    {
      "op": "Convolution", 
      "name": "convolution131", 
      "attrs": {
        "dilate": "(1, 1)", 
        "kernel": "(3, 3)", 
        "no_bias": "False", 
        "num_filter": "40", 
        "num_group": "1", 
        "stride": "(1, 1)"
      }, 
      "inputs": [[725, 0, 0], [726, 0, 0], [727, 0, 0]]
    }, 
    {
      "op": "Concat", 
      "name": "concat61", 
      "attrs": {
        "dim": "1", 
        "num_args": "2"
      }, 
      "inputs": [[718, 0, 0], [728, 0, 0]]
    }, 
    {
      "op": "Pad", 
      "name": "pad195", 
      "attrs": {
        "mode": "constant", 
        "pad_width": "(0, 0, 0, 0, 0, 0, 0, 0)"
      }, 
      "inputs": [[729, 0, 0]]
    }, 
    {
      "op": "null", 
      "name": "learned_261", 
      "attrs": {"__shape__": "(160, 400, 1, 1)"}, 
      "inputs": []
    }, 
    {
      "op": "null", 
      "name": "learned_262", 
      "attrs": {"__shape__": "(160,)"}, 
      "inputs": []
    }, 
    {
      "op": "Convolution", 
      "name": "convolution132", 
      "attrs": {
        "dilate": "(1, 1)", 
        "kernel": "(1, 1)", 
        "no_bias": "False", 
        "num_filter": "160", 
        "num_group": "1", 
        "stride": "(1, 1)"
      }, 
      "inputs": [[730, 0, 0], [731, 0, 0], [732, 0, 0]]
    }, 
    {
      "op": "relu", 
      "name": "relu62", 
      "inputs": [[733, 0, 0]]
    }, 
    {
      "op": "Pad", 
      "name": "pad196", 
      "attrs": {
        "mode": "reflect", 
        "pad_width": "(0, 0, 0, 0, 1, 1, 1, 1)"
      }, 
      "inputs": [[734, 0, 0]]
    }, 
    {
      "op": "Pad", 
      "name": "pad197", 
      "attrs": {
        "mode": "constant", 
        "pad_width": "(0, 0, 0, 0, 0, 0, 0, 0)"
      }, 
      "inputs": [[735, 0, 0]]
    }, 
    {
      "op": "null", 
      "name": "learned_263", 
      "attrs": {"__shape__": "(40, 160, 3, 3)"}, 
      "inputs": []
    }, 
    {
      "op": "null", 
      "name": "learned_264", 
      "attrs": {"__shape__": "(40,)"}, 
      "inputs": []
    }, 
    {
      "op": "Convolution", 
      "name": "convolution133", 
      "attrs": {
        "dilate": "(1, 1)", 
        "kernel": "(3, 3)", 
        "no_bias": "False", 
        "num_filter": "40", 
        "num_group": "1", 
        "stride": "(1, 1)"
      }, 
      "inputs": [[736, 0, 0], [737, 0, 0], [738, 0, 0]]
    }, 
    {
      "op": "Concat", 
      "name": "concat62", 
      "attrs": {
        "dim": "1", 
        "num_args": "2"
      }, 
      "inputs": [[729, 0, 0], [739, 0, 0]]
    }, 
    {
      "op": "Pad", 
      "name": "pad198", 
      "attrs": {
        "mode": "constant", 
        "pad_width": "(0, 0, 0, 0, 0, 0, 0, 0)"
      }, 
      "inputs": [[740, 0, 0]]
    }, 
    {
      "op": "null", 
      "name": "learned_265", 
      "attrs": {"__shape__": "(160, 440, 1, 1)"}, 
      "inputs": []
    }, 
    {
      "op": "null", 
      "name": "learned_266", 
      "attrs": {"__shape__": "(160,)"}, 
      "inputs": []
    }, 
    {
      "op": "Convolution", 
      "name": "convolution134", 
      "attrs": {
        "dilate": "(1, 1)", 
        "kernel": "(1, 1)", 
        "no_bias": "False", 
        "num_filter": "160", 
        "num_group": "1", 
        "stride": "(1, 1)"
      }, 
      "inputs": [[741, 0, 0], [742, 0, 0], [743, 0, 0]]
    }, 
    {
      "op": "relu", 
      "name": "relu63", 
      "inputs": [[744, 0, 0]]
    }, 
    {
      "op": "Pad", 
      "name": "pad199", 
      "attrs": {
        "mode": "reflect", 
        "pad_width": "(0, 0, 0, 0, 1, 1, 1, 1)"
      }, 
      "inputs": [[745, 0, 0]]
    }, 
    {
      "op": "Pad", 
      "name": "pad200", 
      "attrs": {
        "mode": "constant", 
        "pad_width": "(0, 0, 0, 0, 0, 0, 0, 0)"
      }, 
      "inputs": [[746, 0, 0]]
    }, 
    {
      "op": "null", 
      "name": "learned_267", 
      "attrs": {"__shape__": "(40, 160, 3, 3)"}, 
      "inputs": []
    }, 
    {
      "op": "null", 
      "name": "learned_268", 
      "attrs": {"__shape__": "(40,)"}, 
      "inputs": []
    }, 
    {
      "op": "Convolution", 
      "name": "convolution135", 
      "attrs": {
        "dilate": "(1, 1)", 
        "kernel": "(3, 3)", 
        "no_bias": "False", 
        "num_filter": "40", 
        "num_group": "1", 
        "stride": "(1, 1)"
      }, 
      "inputs": [[747, 0, 0], [748, 0, 0], [749, 0, 0]]
    }, 
    {
      "op": "Concat", 
      "name": "concat63", 
      "attrs": {
        "dim": "1", 
        "num_args": "2"
      }, 
      "inputs": [[740, 0, 0], [750, 0, 0]]
    }, 
    {
      "op": "Pad", 
      "name": "pad201", 
      "attrs": {
        "mode": "constant", 
        "pad_width": "(0, 0, 0, 0, 0, 0, 0, 0)"
      }, 
      "inputs": [[751, 0, 0]]
    }, 
    {
      "op": "null", 
      "name": "learned_269", 
      "attrs": {"__shape__": "(160, 480, 1, 1)"}, 
      "inputs": []
    }, 
    {
      "op": "Convolution", 
      "name": "convolution136", 
      "attrs": {
        "dilate": "(1, 1)", 
        "kernel": "(1, 1)", 
        "no_bias": "True", 
        "num_filter": "160", 
        "num_group": "1", 
        "stride": "(1, 1)"
      }, 
      "inputs": [[752, 0, 0], [753, 0, 0]]
    }, 
    {
      "op": "_mul_scalar", 
      "name": "_mulscalar7", 
      "attrs": {"scalar": "0.2"}, 
      "inputs": [[754, 0, 0]]
    }, 
    {
      "op": "broadcast_add", 
      "name": "broadcast_add7", 
      "inputs": [[755, 0, 0], [663, 0, 0]]
    }, 
    {
      "op": "Pad", 
      "name": "pad202", 
      "attrs": {
        "mode": "constant", 
        "pad_width": "(0, 0, 0, 0, 0, 0, 0, 0)"
      }, 
      "inputs": [[756, 0, 0]]
    }, 
    {
      "op": "null", 
      "name": "learned_270", 
      "attrs": {"__shape__": "(160, 160, 1, 1)"}, 
      "inputs": []
    }, 
    {
      "op": "null", 
      "name": "learned_271", 
      "attrs": {"__shape__": "(160,)"}, 
      "inputs": []
    }, 
    {
      "op": "Convolution", 
      "name": "convolution137", 
      "attrs": {
        "dilate": "(1, 1)", 
        "kernel": "(1, 1)", 
        "no_bias": "False", 
        "num_filter": "160", 
        "num_group": "1", 
        "stride": "(1, 1)"
      }, 
      "inputs": [[757, 0, 0], [758, 0, 0], [759, 0, 0]]
    }, 
    {
      "op": "relu", 
      "name": "relu64", 
      "inputs": [[760, 0, 0]]
    }, 
    {
      "op": "Pad", 
      "name": "pad203", 
      "attrs": {
        "mode": "reflect", 
        "pad_width": "(0, 0, 0, 0, 1, 1, 1, 1)"
      }, 
      "inputs": [[761, 0, 0]]
    }, 
    {
      "op": "Pad", 
      "name": "pad204", 
      "attrs": {
        "mode": "constant", 
        "pad_width": "(0, 0, 0, 0, 0, 0, 0, 0)"
      }, 
      "inputs": [[762, 0, 0]]
    }, 
    {
      "op": "null", 
      "name": "learned_272", 
      "attrs": {"__shape__": "(40, 160, 3, 3)"}, 
      "inputs": []
    }, 
    {
      "op": "null", 
      "name": "learned_273", 
      "attrs": {"__shape__": "(40,)"}, 
      "inputs": []
    }, 
    {
      "op": "Convolution", 
      "name": "convolution138", 
      "attrs": {
        "dilate": "(1, 1)", 
        "kernel": "(3, 3)", 
        "no_bias": "False", 
        "num_filter": "40", 
        "num_group": "1", 
        "stride": "(1, 1)"
      }, 
      "inputs": [[763, 0, 0], [764, 0, 0], [765, 0, 0]]
    }, 
    {
      "op": "Concat", 
      "name": "concat64", 
      "attrs": {
        "dim": "1", 
        "num_args": "2"
      }, 
      "inputs": [[756, 0, 0], [766, 0, 0]]
    }, 
    {
      "op": "Pad", 
      "name": "pad205", 
      "attrs": {
        "mode": "constant", 
        "pad_width": "(0, 0, 0, 0, 0, 0, 0, 0)"
      }, 
      "inputs": [[767, 0, 0]]
    }, 
    {
      "op": "null", 
      "name": "learned_274", 
      "attrs": {"__shape__": "(160, 200, 1, 1)"}, 
      "inputs": []
    }, 
    {
      "op": "null", 
      "name": "learned_275", 
      "attrs": {"__shape__": "(160,)"}, 
      "inputs": []
    }, 
    {
      "op": "Convolution", 
      "name": "convolution139", 
      "attrs": {
        "dilate": "(1, 1)", 
        "kernel": "(1, 1)", 
        "no_bias": "False", 
        "num_filter": "160", 
        "num_group": "1", 
        "stride": "(1, 1)"
      }, 
      "inputs": [[768, 0, 0], [769, 0, 0], [770, 0, 0]]
    }, 
    {
      "op": "relu", 
      "name": "relu65", 
      "inputs": [[771, 0, 0]]
    }, 
    {
      "op": "Pad", 
      "name": "pad206", 
      "attrs": {
        "mode": "reflect", 
        "pad_width": "(0, 0, 0, 0, 1, 1, 1, 1)"
      }, 
      "inputs": [[772, 0, 0]]
    }, 
    {
      "op": "Pad", 
      "name": "pad207", 
      "attrs": {
        "mode": "constant", 
        "pad_width": "(0, 0, 0, 0, 0, 0, 0, 0)"
      }, 
      "inputs": [[773, 0, 0]]
    }, 
    {
      "op": "null", 
      "name": "learned_276", 
      "attrs": {"__shape__": "(40, 160, 3, 3)"}, 
      "inputs": []
    }, 
    {
      "op": "null", 
      "name": "learned_277", 
      "attrs": {"__shape__": "(40,)"}, 
      "inputs": []
    }, 
    {
      "op": "Convolution", 
      "name": "convolution140", 
      "attrs": {
        "dilate": "(1, 1)", 
        "kernel": "(3, 3)", 
        "no_bias": "False", 
        "num_filter": "40", 
        "num_group": "1", 
        "stride": "(1, 1)"
      }, 
      "inputs": [[774, 0, 0], [775, 0, 0], [776, 0, 0]]
    }, 
    {
      "op": "Concat", 
      "name": "concat65", 
      "attrs": {
        "dim": "1", 
        "num_args": "2"
      }, 
      "inputs": [[767, 0, 0], [777, 0, 0]]
    }, 
    {
      "op": "Pad", 
      "name": "pad208", 
      "attrs": {
        "mode": "constant", 
        "pad_width": "(0, 0, 0, 0, 0, 0, 0, 0)"
      }, 
      "inputs": [[778, 0, 0]]
    }, 
    {
      "op": "null", 
      "name": "learned_278", 
      "attrs": {"__shape__": "(160, 240, 1, 1)"}, 
      "inputs": []
    }, 
    {
      "op": "null", 
      "name": "learned_279", 
      "attrs": {"__shape__": "(160,)"}, 
      "inputs": []
    }, 
    {
      "op": "Convolution", 
      "name": "convolution141", 
      "attrs": {
        "dilate": "(1, 1)", 
        "kernel": "(1, 1)", 
        "no_bias": "False", 
        "num_filter": "160", 
        "num_group": "1", 
        "stride": "(1, 1)"
      }, 
      "inputs": [[779, 0, 0], [780, 0, 0], [781, 0, 0]]
    }, 
    {
      "op": "relu", 
      "name": "relu66", 
      "inputs": [[782, 0, 0]]
    }, 
    {
      "op": "Pad", 
      "name": "pad209", 
      "attrs": {
        "mode": "reflect", 
        "pad_width": "(0, 0, 0, 0, 1, 1, 1, 1)"
      }, 
      "inputs": [[783, 0, 0]]
    }, 
    {
      "op": "Pad", 
      "name": "pad210", 
      "attrs": {
        "mode": "constant", 
        "pad_width": "(0, 0, 0, 0, 0, 0, 0, 0)"
      }, 
      "inputs": [[784, 0, 0]]
    }, 
    {
      "op": "null", 
      "name": "learned_280", 
      "attrs": {"__shape__": "(40, 160, 3, 3)"}, 
      "inputs": []
    }, 
    {
      "op": "null", 
      "name": "learned_281", 
      "attrs": {"__shape__": "(40,)"}, 
      "inputs": []
    }, 
    {
      "op": "Convolution", 
      "name": "convolution142", 
      "attrs": {
        "dilate": "(1, 1)", 
        "kernel": "(3, 3)", 
        "no_bias": "False", 
        "num_filter": "40", 
        "num_group": "1", 
        "stride": "(1, 1)"
      }, 
      "inputs": [[785, 0, 0], [786, 0, 0], [787, 0, 0]]
    }, 
    {
      "op": "Concat", 
      "name": "concat66", 
      "attrs": {
        "dim": "1", 
        "num_args": "2"
      }, 
      "inputs": [[778, 0, 0], [788, 0, 0]]
    }, 
    {
      "op": "Pad", 
      "name": "pad211", 
      "attrs": {
        "mode": "constant", 
        "pad_width": "(0, 0, 0, 0, 0, 0, 0, 0)"
      }, 
      "inputs": [[789, 0, 0]]
    }, 
    {
      "op": "null", 
      "name": "learned_282", 
      "attrs": {"__shape__": "(160, 280, 1, 1)"}, 
      "inputs": []
    }, 
    {
      "op": "null", 
      "name": "learned_283", 
      "attrs": {"__shape__": "(160,)"}, 
      "inputs": []
    }, 
    {
      "op": "Convolution", 
      "name": "convolution143", 
      "attrs": {
        "dilate": "(1, 1)", 
        "kernel": "(1, 1)", 
        "no_bias": "False", 
        "num_filter": "160", 
        "num_group": "1", 
        "stride": "(1, 1)"
      }, 
      "inputs": [[790, 0, 0], [791, 0, 0], [792, 0, 0]]
    }, 
    {
      "op": "relu", 
      "name": "relu67", 
      "inputs": [[793, 0, 0]]
    }, 
    {
      "op": "Pad", 
      "name": "pad212", 
      "attrs": {
        "mode": "reflect", 
        "pad_width": "(0, 0, 0, 0, 1, 1, 1, 1)"
      }, 
      "inputs": [[794, 0, 0]]
    }, 
    {
      "op": "Pad", 
      "name": "pad213", 
      "attrs": {
        "mode": "constant", 
        "pad_width": "(0, 0, 0, 0, 0, 0, 0, 0)"
      }, 
      "inputs": [[795, 0, 0]]
    }, 
    {
      "op": "null", 
      "name": "learned_284", 
      "attrs": {"__shape__": "(40, 160, 3, 3)"}, 
      "inputs": []
    }, 
    {
      "op": "null", 
      "name": "learned_285", 
      "attrs": {"__shape__": "(40,)"}, 
      "inputs": []
    }, 
    {
      "op": "Convolution", 
      "name": "convolution144", 
      "attrs": {
        "dilate": "(1, 1)", 
        "kernel": "(3, 3)", 
        "no_bias": "False", 
        "num_filter": "40", 
        "num_group": "1", 
        "stride": "(1, 1)"
      }, 
      "inputs": [[796, 0, 0], [797, 0, 0], [798, 0, 0]]
    }, 
    {
      "op": "Concat", 
      "name": "concat67", 
      "attrs": {
        "dim": "1", 
        "num_args": "2"
      }, 
      "inputs": [[789, 0, 0], [799, 0, 0]]
    }, 
    {
      "op": "Pad", 
      "name": "pad214", 
      "attrs": {
        "mode": "constant", 
        "pad_width": "(0, 0, 0, 0, 0, 0, 0, 0)"
      }, 
      "inputs": [[800, 0, 0]]
    }, 
    {
      "op": "null", 
      "name": "learned_286", 
      "attrs": {"__shape__": "(160, 320, 1, 1)"}, 
      "inputs": []
    }, 
    {
      "op": "null", 
      "name": "learned_287", 
      "attrs": {"__shape__": "(160,)"}, 
      "inputs": []
    }, 
    {
      "op": "Convolution", 
      "name": "convolution145", 
      "attrs": {
        "dilate": "(1, 1)", 
        "kernel": "(1, 1)", 
        "no_bias": "False", 
        "num_filter": "160", 
        "num_group": "1", 
        "stride": "(1, 1)"
      }, 
      "inputs": [[801, 0, 0], [802, 0, 0], [803, 0, 0]]
    }, 
    {
      "op": "relu", 
      "name": "relu68", 
      "inputs": [[804, 0, 0]]
    }, 
    {
      "op": "Pad", 
      "name": "pad215", 
      "attrs": {
        "mode": "reflect", 
        "pad_width": "(0, 0, 0, 0, 1, 1, 1, 1)"
      }, 
      "inputs": [[805, 0, 0]]
    }, 
    {
      "op": "Pad", 
      "name": "pad216", 
      "attrs": {
        "mode": "constant", 
        "pad_width": "(0, 0, 0, 0, 0, 0, 0, 0)"
      }, 
      "inputs": [[806, 0, 0]]
    }, 
    {
      "op": "null", 
      "name": "learned_288", 
      "attrs": {"__shape__": "(40, 160, 3, 3)"}, 
      "inputs": []
    }, 
    {
      "op": "null", 
      "name": "learned_289", 
      "attrs": {"__shape__": "(40,)"}, 
      "inputs": []
    }, 
    {
      "op": "Convolution", 
      "name": "convolution146", 
      "attrs": {
        "dilate": "(1, 1)", 
        "kernel": "(3, 3)", 
        "no_bias": "False", 
        "num_filter": "40", 
        "num_group": "1", 
        "stride": "(1, 1)"
      }, 
      "inputs": [[807, 0, 0], [808, 0, 0], [809, 0, 0]]
    }, 
    {
      "op": "Concat", 
      "name": "concat68", 
      "attrs": {
        "dim": "1", 
        "num_args": "2"
      }, 
      "inputs": [[800, 0, 0], [810, 0, 0]]
    }, 
    {
      "op": "Pad", 
      "name": "pad217", 
      "attrs": {
        "mode": "constant", 
        "pad_width": "(0, 0, 0, 0, 0, 0, 0, 0)"
      }, 
      "inputs": [[811, 0, 0]]
    }, 
    {
      "op": "null", 
      "name": "learned_290", 
      "attrs": {"__shape__": "(160, 360, 1, 1)"}, 
      "inputs": []
    }, 
    {
      "op": "null", 
      "name": "learned_291", 
      "attrs": {"__shape__": "(160,)"}, 
      "inputs": []
    }, 
    {
      "op": "Convolution", 
      "name": "convolution147", 
      "attrs": {
        "dilate": "(1, 1)", 
        "kernel": "(1, 1)", 
        "no_bias": "False", 
        "num_filter": "160", 
        "num_group": "1", 
        "stride": "(1, 1)"
      }, 
      "inputs": [[812, 0, 0], [813, 0, 0], [814, 0, 0]]
    }, 
    {
      "op": "relu", 
      "name": "relu69", 
      "inputs": [[815, 0, 0]]
    }, 
    {
      "op": "Pad", 
      "name": "pad218", 
      "attrs": {
        "mode": "reflect", 
        "pad_width": "(0, 0, 0, 0, 1, 1, 1, 1)"
      }, 
      "inputs": [[816, 0, 0]]
    }, 
    {
      "op": "Pad", 
      "name": "pad219", 
      "attrs": {
        "mode": "constant", 
        "pad_width": "(0, 0, 0, 0, 0, 0, 0, 0)"
      }, 
      "inputs": [[817, 0, 0]]
    }, 
    {
      "op": "null", 
      "name": "learned_292", 
…
      "attrs": {"__shape__": "(40, 160, 3, 3)"}, 
      "inputs": []
    }, 
    {
      "op": "null", 
      "name": "learned_395", 
      "attrs": {"__shape__": "(40,)"}, 
      "inputs": []
    }, 
    {
      "op": "Convolution", 
      "name": "convolution200", 
      "attrs": {
        "dilate": "(1, 1)", 
        "kernel": "(3, 3)", 
        "no_bias": "False", 
        "num_filter": "40", 
        "num_group": "1", 
        "stride": "(1, 1)"
      }, 
      "inputs": [[1104, 0, 0], [1105, 0, 0], [1106, 0, 0]]
    }, 
    {
      "op": "Concat", 
      "name": "concat92", 
      "attrs": {
        "dim": "1", 
        "num_args": "2"
      }, 
      "inputs": [[1097, 0, 0], [1107, 0, 0]]
    }, 
    {
      "op": "Pad", 
      "name": "pad297", 
      "attrs": {
        "mode": "constant", 
        "pad_width": "(0, 0, 0, 0, 0, 0, 0, 0)"
      }, 
      "inputs": [[1108, 0, 0]]
    }, 
    {
      "op": "null", 
      "name": "learned_396", 
      "attrs": {"__shape__": "(160, 360, 1, 1)"}, 
      "inputs": []
    }, 
    {
      "op": "null", 
      "name": "learned_397", 
      "attrs": {"__shape__": "(160,)"}, 
      "inputs": []
    }, 
    {
      "op": "Convolution", 
      "name": "convolution201", 
      "attrs": {
        "dilate": "(1, 1)", 
        "kernel": "(1, 1)", 
        "no_bias": "False", 
        "num_filter": "160", 
        "num_group": "1", 
        "stride": "(1, 1)"
      }, 
      "inputs": [[1109, 0, 0], [1110, 0, 0], [1111, 0, 0]]
    }, 
    {
      "op": "relu", 
      "name": "relu94", 
      "inputs": [[1112, 0, 0]]
    }, 
    {
      "op": "Pad", 
      "name": "pad298", 
      "attrs": {
        "mode": "reflect", 
        "pad_width": "(0, 0, 0, 0, 1, 1, 1, 1)"
      }, 
      "inputs": [[1113, 0, 0]]
    }, 
    {
      "op": "Pad", 
      "name": "pad299", 
      "attrs": {
        "mode": "constant", 
        "pad_width": "(0, 0, 0, 0, 0, 0, 0, 0)"
      }, 
      "inputs": [[1114, 0, 0]]
    }, 
    {
      "op": "null", 
      "name": "learned_398", 
      "attrs": {"__shape__": "(40, 160, 3, 3)"}, 
      "inputs": []
    }, 
    {
      "op": "null", 
      "name": "learned_399", 
      "attrs": {"__shape__": "(40,)"}, 
      "inputs": []
    }, 
    {
      "op": "Convolution", 
      "name": "convolution202", 
      "attrs": {
        "dilate": "(1, 1)", 
        "kernel": "(3, 3)", 
        "no_bias": "False", 
        "num_filter": "40", 
        "num_group": "1", 
        "stride": "(1, 1)"
      }, 
      "inputs": [[1115, 0, 0], [1116, 0, 0], [1117, 0, 0]]
    }, 
    {
      "op": "Concat", 
      "name": "concat93", 
      "attrs": {
        "dim": "1", 
        "num_args": "2"
      }, 
      "inputs": [[1108, 0, 0], [1118, 0, 0]]
    }, 
    {
      "op": "Pad", 
      "name": "pad300", 
      "attrs": {
        "mode": "constant", 
        "pad_width": "(0, 0, 0, 0, 0, 0, 0, 0)"
      }, 
      "inputs": [[1119, 0, 0]]
    }, 
    {
      "op": "null", 
      "name": "learned_400", 
      "attrs": {"__shape__": "(160, 400, 1, 1)"}, 
      "inputs": []
    }, 
    {
      "op": "null", 
      "name": "learned_401", 
      "attrs": {"__shape__": "(160,)"}, 
      "inputs": []
    }, 
    {
      "op": "Convolution", 
      "name": "convolution203", 
      "attrs": {
        "dilate": "(1, 1)", 
        "kernel": "(1, 1)", 
        "no_bias": "False", 
        "num_filter": "160", 
        "num_group": "1", 
        "stride": "(1, 1)"
      }, 
      "inputs": [[1120, 0, 0], [1121, 0, 0], [1122, 0, 0]]
    }, 
    {
      "op": "relu", 
      "name": "relu95", 
      "inputs": [[1123, 0, 0]]
    }, 
    {
      "op": "Pad", 
      "name": "pad301", 
      "attrs": {
        "mode": "reflect", 
        "pad_width": "(0, 0, 0, 0, 1, 1, 1, 1)"
      }, 
      "inputs": [[1124, 0, 0]]
    }, 
    {
      "op": "Pad", 
      "name": "pad302", 
      "attrs": {
        "mode": "constant", 
        "pad_width": "(0, 0, 0, 0, 0, 0, 0, 0)"
      }, 
      "inputs": [[1125, 0, 0]]
    }, 
    {
      "op": "null", 
      "name": "learned_402", 
      "attrs": {"__shape__": "(40, 160, 3, 3)"}, 
      "inputs": []
    }, 
    {
      "op": "null", 
      "name": "learned_403", 
      "attrs": {"__shape__": "(40,)"}, 
      "inputs": []
    }, 
    {
      "op": "Convolution", 
      "name": "convolution204", 
      "attrs": {
        "dilate": "(1, 1)", 
        "kernel": "(3, 3)", 
        "no_bias": "False", 
        "num_filter": "40", 
        "num_group": "1", 
        "stride": "(1, 1)"
      }, 
      "inputs": [[1126, 0, 0], [1127, 0, 0], [1128, 0, 0]]
    }, 
    {
      "op": "Concat", 
      "name": "concat94", 
      "attrs": {
        "dim": "1", 
        "num_args": "2"
      }, 
      "inputs": [[1119, 0, 0], [1129, 0, 0]]
    }, 
    {
      "op": "Pad", 
      "name": "pad303", 
      "attrs": {
        "mode": "constant", 
        "pad_width": "(0, 0, 0, 0, 0, 0, 0, 0)"
      }, 
      "inputs": [[1130, 0, 0]]
    }, 
    {
      "op": "null", 
      "name": "learned_404", 
      "attrs": {"__shape__": "(160, 440, 1, 1)"}, 
      "inputs": []
    }, 
    {
      "op": "null", 
      "name": "learned_405", 
      "attrs": {"__shape__": "(160,)"}, 
      "inputs": []
    }, 
    {
      "op": "Convolution", 
      "name": "convolution205", 
      "attrs": {
        "dilate": "(1, 1)", 
        "kernel": "(1, 1)", 
        "no_bias": "False", 
        "num_filter": "160", 
        "num_group": "1", 
        "stride": "(1, 1)"
      }, 
      "inputs": [[1131, 0, 0], [1132, 0, 0], [1133, 0, 0]]
    }, 
    {
      "op": "relu", 
      "name": "relu96", 
      "inputs": [[1134, 0, 0]]
    }, 
    {
      "op": "Pad", 
      "name": "pad304", 
      "attrs": {
        "mode": "reflect", 
        "pad_width": "(0, 0, 0, 0, 1, 1, 1, 1)"
      }, 
      "inputs": [[1135, 0, 0]]
    }, 
    {
      "op": "Pad", 
      "name": "pad305", 
      "attrs": {
        "mode": "constant", 
        "pad_width": "(0, 0, 0, 0, 0, 0, 0, 0)"
      }, 
      "inputs": [[1136, 0, 0]]
    }, 
    {
      "op": "null", 
      "name": "learned_406", 
      "attrs": {"__shape__": "(40, 160, 3, 3)"}, 
      "inputs": []
    }, 
    {
      "op": "null", 
      "name": "learned_407", 
      "attrs": {"__shape__": "(40,)"}, 
      "inputs": []
    }, 
    {
      "op": "Convolution", 
      "name": "convolution206", 
      "attrs": {
        "dilate": "(1, 1)", 
        "kernel": "(3, 3)", 
        "no_bias": "False", 
        "num_filter": "40", 
        "num_group": "1", 
        "stride": "(1, 1)"
      }, 
      "inputs": [[1137, 0, 0], [1138, 0, 0], [1139, 0, 0]]
    }, 
    {
      "op": "Concat", 
      "name": "concat95", 
      "attrs": {
        "dim": "1", 
        "num_args": "2"
      }, 
      "inputs": [[1130, 0, 0], [1140, 0, 0]]
    }, 
    {
      "op": "Pad", 
      "name": "pad306", 
      "attrs": {
        "mode": "constant", 
        "pad_width": "(0, 0, 0, 0, 0, 0, 0, 0)"
      }, 
      "inputs": [[1141, 0, 0]]
    }, 
    {
      "op": "null", 
      "name": "learned_408", 
      "attrs": {"__shape__": "(160, 480, 1, 1)"}, 
      "inputs": []
    }, 
    {
      "op": "Convolution", 
      "name": "convolution207", 
      "attrs": {
        "dilate": "(1, 1)", 
        "kernel": "(1, 1)", 
        "no_bias": "True", 
        "num_filter": "160", 
        "num_group": "1", 
        "stride": "(1, 1)"
      }, 
      "inputs": [[1142, 0, 0], [1143, 0, 0]]
    }, 
    {
      "op": "_mul_scalar", 
      "name": "_mulscalar11", 
      "attrs": {"scalar": "0.2"}, 
      "inputs": [[1144, 0, 0]]
    }, 
    {
      "op": "broadcast_add", 
      "name": "broadcast_add12", 
      "inputs": [[1145, 0, 0], [1053, 0, 0]]
    }, 
    {
      "op": "Pad", 
      "name": "pad307", 
      "attrs": {
        "mode": "reflect", 
        "pad_width": "(0, 0, 0, 0, 1, 1, 1, 1)"
      }, 
      "inputs": [[1146, 0, 0]]
    }, 
    {
      "op": "Pad", 
      "name": "pad308", 
      "attrs": {
        "mode": "constant", 
        "pad_width": "(0, 0, 0, 0, 0, 0, 0, 0)"
      }, 
      "inputs": [[1147, 0, 0]]
    }, 
    {
      "op": "null", 
      "name": "learned_409", 
      "attrs": {"__shape__": "(160, 160, 3, 3)"}, 
      "inputs": []
    }, 
    {
      "op": "null", 
      "name": "learned_410", 
      "attrs": {"__shape__": "(160,)"}, 
      "inputs": []
    }, 
    {
      "op": "Convolution", 
      "name": "convolution208", 
      "attrs": {
        "dilate": "(1, 1)", 
        "kernel": "(3, 3)", 
        "no_bias": "False", 
        "num_filter": "160", 
        "num_group": "1", 
        "stride": "(1, 1)"
      }, 
      "inputs": [[1148, 0, 0], [1149, 0, 0], [1150, 0, 0]]
    }, 
    {
      "op": "broadcast_add", 
      "name": "broadcast_add13", 
      "inputs": [[1151, 0, 0], [864, 0, 0]]
    }, 
    {
      "op": "Pad", 
      "name": "pad309", 
      "attrs": {
        "mode": "reflect", 
        "pad_width": "(0, 0, 0, 0, 1, 1, 1, 1)"
      }, 
      "inputs": [[1152, 0, 0]]
    }, 
    {
      "op": "null", 
      "name": "learned_411", 
      "attrs": {"__shape__": "(640, 160, 3, 3)"}, 
      "inputs": []
    }, 
    {
      "op": "null", 
      "name": "learned_412", 
      "attrs": {"__shape__": "(640,)"}, 
      "inputs": []
    }, 
    {
      "op": "Convolution", 
      "name": "convolution209", 
      "attrs": {
        "dilate": "(1, 1)", 
        "kernel": "(3, 3)", 
        "no_bias": "False", 
        "num_filter": "640", 
        "num_group": "1", 
        "stride": "(1, 1)"
      }, 
      "inputs": [[1153, 0, 0], [1154, 0, 0], [1155, 0, 0]]
    }, 
    {
      "op": "Reshape", 
      "name": "reshape3", 
      "attrs": {"shape": "(0, -4, -1, 4, 0, 0)"}, 
      "inputs": [[1156, 0, 0]]
    }, 
    {
      "op": "Reshape", 
      "name": "reshape4", 
      "attrs": {"shape": "(0, 0, -4, 2, 2, 0, 0)"}, 
      "inputs": [[1157, 0, 0]]
    }, 
    {
      "op": "transpose", 
      "name": "transpose1", 
      "attrs": {"axes": "(0, 1, 4, 2, 5, 3)"}, 
      "inputs": [[1158, 0, 0]]
    }, 
    {
      "op": "Reshape", 
      "name": "reshape5", 
      "attrs": {"shape": "(0, 0, -3, -3)"}, 
      "inputs": [[1159, 0, 0]]
    }, 
    {
      "op": "relu", 
      "name": "relu97", 
      "inputs": [[1160, 0, 0]]
    }, 
    {
      "op": "Pad", 
      "name": "pad311", 
      "attrs": {
        "mode": "constant", 
        "pad_width": "(0, 0, 0, 0, 0, 0, 0, 0)"
      }, 
      "inputs": [[1161, 0, 0]]
    }, 
    {
      "op": "null", 
      "name": "learned_415", 
      "attrs": {"__shape__": "(160, 160, 1, 1)"}, 
      "inputs": []
    }, 
    {
      "op": "Convolution", 
      "name": "convolution210", 
      "attrs": {
        "dilate": "(1, 1)", 
        "kernel": "(1, 1)", 
        "no_bias": "True", 
        "num_filter": "160", 
        "num_group": "1", 
        "stride": "(1, 1)"
      }, 
      "inputs": [[1162, 0, 0], [1163, 0, 0]]
    }, 
    {
      "op": "Pad", 
      "name": "pad312", 
      "attrs": {
        "mode": "constant", 
        "pad_width": "(0, 0, 0, 0, 0, 0, 0, 0)"
      }, 
      "inputs": [[1164, 0, 0]]
    }, 
    {
      "op": "null", 
      "name": "learned_416", 
      "attrs": {"__shape__": "(160, 160, 1, 1)"}, 
      "inputs": []
    }, 
    {
      "op": "null", 
      "name": "learned_417", 
      "attrs": {"__shape__": "(160,)"}, 
      "inputs": []
    }, 
    {
      "op": "Convolution", 
      "name": "convolution211", 
      "attrs": {
        "dilate": "(1, 1)", 
        "kernel": "(1, 1)", 
        "no_bias": "False", 
        "num_filter": "160", 
        "num_group": "1", 
        "stride": "(1, 1)"
      }, 
      "inputs": [[1165, 0, 0], [1166, 0, 0], [1167, 0, 0]]
    }, 
    {
      "op": "relu", 
      "name": "relu98", 
      "inputs": [[1168, 0, 0]]
    }, 
    {
      "op": "Pad", 
      "name": "pad313", 
      "attrs": {
        "mode": "reflect", 
        "pad_width": "(0, 0, 0, 0, 1, 1, 1, 1)"
      }, 
      "inputs": [[1169, 0, 0]]
    }, 
    {
      "op": "Pad", 
      "name": "pad314", 
      "attrs": {
        "mode": "constant", 
        "pad_width": "(0, 0, 0, 0, 0, 0, 0, 0)"
      }, 
      "inputs": [[1170, 0, 0]]
    }, 
    {
      "op": "null", 
      "name": "learned_418", 
      "attrs": {"__shape__": "(40, 160, 3, 3)"}, 
      "inputs": []
    }, 
    {
      "op": "null", 
      "name": "learned_419", 
      "attrs": {"__shape__": "(40,)"}, 
      "inputs": []
    }, 
    {
      "op": "Convolution", 
      "name": "convolution212", 
      "attrs": {
        "dilate": "(1, 1)", 
        "kernel": "(3, 3)", 
        "no_bias": "False", 
        "num_filter": "40", 
        "num_group": "1", 
        "stride": "(1, 1)"
      }, 
      "inputs": [[1171, 0, 0], [1172, 0, 0], [1173, 0, 0]]
    }, 
    {
      "op": "Concat", 
      "name": "concat96", 
      "attrs": {
        "dim": "1", 
        "num_args": "2"
      }, 
      "inputs": [[1164, 0, 0], [1174, 0, 0]]
    }, 
    {
      "op": "Pad", 
      "name": "pad315", 
      "attrs": {
        "mode": "constant", 
        "pad_width": "(0, 0, 0, 0, 0, 0, 0, 0)"
      }, 
      "inputs": [[1175, 0, 0]]
    }, 
    {
      "op": "null", 
      "name": "learned_420", 
      "attrs": {"__shape__": "(160, 200, 1, 1)"}, 
      "inputs": []
    }, 
    {
      "op": "null", 
      "name": "learned_421", 
      "attrs": {"__shape__": "(160,)"}, 
      "inputs": []
    }, 
    {
      "op": "Convolution", 
      "name": "convolution213", 
      "attrs": {
        "dilate": "(1, 1)", 
        "kernel": "(1, 1)", 
        "no_bias": "False", 
        "num_filter": "160", 
        "num_group": "1", 
        "stride": "(1, 1)"
      }, 
      "inputs": [[1176, 0, 0], [1177, 0, 0], [1178, 0, 0]]
    }, 
    {
      "op": "relu", 
      "name": "relu99", 
      "inputs": [[1179, 0, 0]]
    }, 
    {
      "op": "Pad", 
      "name": "pad316", 
      "attrs": {
        "mode": "reflect", 
        "pad_width": "(0, 0, 0, 0, 1, 1, 1, 1)"
      }, 
      "inputs": [[1180, 0, 0]]
    }, 
    {
      "op": "Pad", 
      "name": "pad317", 
      "attrs": {
        "mode": "constant", 
        "pad_width": "(0, 0, 0, 0, 0, 0, 0, 0)"
      }, 
      "inputs": [[1181, 0, 0]]
    }, 
    {
      "op": "null", 
      "name": "learned_422", 
      "attrs": {"__shape__": "(40, 160, 3, 3)"}, 
      "inputs": []
    }, 
    {
      "op": "null", 
      "name": "learned_423", 
      "attrs": {"__shape__": "(40,)"}, 
      "inputs": []
    }, 
    {
      "op": "Convolution", 
      "name": "convolution214", 
      "attrs": {
        "dilate": "(1, 1)", 
        "kernel": "(3, 3)", 
        "no_bias": "False", 
        "num_filter": "40", 
        "num_group": "1", 
        "stride": "(1, 1)"
      }, 
      "inputs": [[1182, 0, 0], [1183, 0, 0], [1184, 0, 0]]
    }, 
    {
      "op": "Concat", 
      "name": "concat97", 
      "attrs": {
        "dim": "1", 
        "num_args": "2"
      }, 
      "inputs": [[1175, 0, 0], [1185, 0, 0]]
    }, 
    {
      "op": "Pad", 
      "name": "pad318", 
      "attrs": {
        "mode": "constant", 
        "pad_width": "(0, 0, 0, 0, 0, 0, 0, 0)"
      }, 
      "inputs": [[1186, 0, 0]]
    }, 
    {
      "op": "null", 
      "name": "learned_424", 
      "attrs": {"__shape__": "(160, 240, 1, 1)"}, 
      "inputs": []
    }, 
    {
      "op": "null", 
      "name": "learned_425", 
      "attrs": {"__shape__": "(160,)"}, 
      "inputs": []
    }, 
    {
      "op": "Convolution", 
      "name": "convolution215", 
      "attrs": {
        "dilate": "(1, 1)", 
        "kernel": "(1, 1)", 
        "no_bias": "False", 
        "num_filter": "160", 
        "num_group": "1", 
        "stride": "(1, 1)"
      }, 
      "inputs": [[1187, 0, 0], [1188, 0, 0], [1189, 0, 0]]
    }, 
    {
      "op": "relu", 
      "name": "relu100", 
      "inputs": [[1190, 0, 0]]
    }, 
    {
      "op": "Pad", 
      "name": "pad319", 
      "attrs": {
        "mode": "reflect", 
        "pad_width": "(0, 0, 0, 0, 1, 1, 1, 1)"
      }, 
      "inputs": [[1191, 0, 0]]
    }, 
    {
      "op": "Pad", 
      "name": "pad320", 
      "attrs": {
        "mode": "constant", 
        "pad_width": "(0, 0, 0, 0, 0, 0, 0, 0)"
      }, 
      "inputs": [[1192, 0, 0]]
    }, 
    {
      "op": "null", 
      "name": "learned_426", 
      "attrs": {"__shape__": "(40, 160, 3, 3)"}, 
      "inputs": []
    }, 
    {
      "op": "null", 
      "name": "learned_427", 
      "attrs": {"__shape__": "(40,)"}, 
      "inputs": []
    }, 
    {
      "op": "Convolution", 
      "name": "convolution216", 
      "attrs": {
        "dilate": "(1, 1)", 
        "kernel": "(3, 3)", 
        "no_bias": "False", 
        "num_filter": "40", 
        "num_group": "1", 
        "stride": "(1, 1)"
      }, 
      "inputs": [[1193, 0, 0], [1194, 0, 0], [1195, 0, 0]]
    }, 
    {
      "op": "Concat", 
      "name": "concat98", 
      "attrs": {
        "dim": "1", 
        "num_args": "2"
      }, 
      "inputs": [[1186, 0, 0], [1196, 0, 0]]
    }, 
    {
      "op": "Pad", 
      "name": "pad321", 
      "attrs": {
        "mode": "constant", 
        "pad_width": "(0, 0, 0, 0, 0, 0, 0, 0)"
      }, 
      "inputs": [[1197, 0, 0]]
    }, 
    {
      "op": "null", 
      "name": "learned_428", 
      "attrs": {"__shape__": "(160, 280, 1, 1)"}, 
      "inputs": []
    }, 
    {
      "op": "null", 
      "name": "learned_429", 
      "attrs": {"__shape__": "(160,)"}, 
      "inputs": []
    }, 
    {
      "op": "Convolution", 
      "name": "convolution217", 
      "attrs": {
        "dilate": "(1, 1)", 
        "kernel": "(1, 1)", 
        "no_bias": "False", 
        "num_filter": "160", 
        "num_group": "1", 
        "stride": "(1, 1)"
      }, 
      "inputs": [[1198, 0, 0], [1199, 0, 0], [1200, 0, 0]]
    }, 
    {
      "op": "relu", 
      "name": "relu101", 
      "inputs": [[1201, 0, 0]]
    }, 
    {
      "op": "Pad", 
      "name": "pad322", 
      "attrs": {
        "mode": "reflect", 
        "pad_width": "(0, 0, 0, 0, 1, 1, 1, 1)"
      }, 
      "inputs": [[1202, 0, 0]]
    }, 
    {
      "op": "Pad", 
      "name": "pad323", 
      "attrs": {
        "mode": "constant", 
        "pad_width": "(0, 0, 0, 0, 0, 0, 0, 0)"
      }, 
      "inputs": [[1203, 0, 0]]
    }, 
    {
      "op": "null", 
      "name": "learned_430", 
      "attrs": {"__shape__": "(40, 160, 3, 3)"}, 
      "inputs": []
    }, 
    {
      "op": "null", 
      "name": "learned_431", 
      "attrs": {"__shape__": "(40,)"}, 
      "inputs": []
    }, 
    {
      "op": "Convolution", 
      "name": "convolution218", 
      "attrs": {
        "dilate": "(1, 1)", 
        "kernel": "(3, 3)", 
        "no_bias": "False", 
        "num_filter": "40", 
        "num_group": "1", 
        "stride": "(1, 1)"
      }, 
      "inputs": [[1204, 0, 0], [1205, 0, 0], [1206, 0, 0]]
    }, 
    {
      "op": "Concat", 
      "name": "concat99", 
      "attrs": {
        "dim": "1", 
        "num_args": "2"
      }, 
      "inputs": [[1197, 0, 0], [1207, 0, 0]]
    }, 
    {
      "op": "Pad", 
      "name": "pad324", 
      "attrs": {
        "mode": "constant", 
        "pad_width": "(0, 0, 0, 0, 0, 0, 0, 0)"
      }, 
      "inputs": [[1208, 0, 0]]
    }, 
    {
      "op": "null", 
      "name": "learned_432", 
      "attrs": {"__shape__": "(160, 320, 1, 1)"}, 
      "inputs": []
    }, 
    {
      "op": "null", 
      "name": "learned_433", 
      "attrs": {"__shape__": "(160,)"}, 
      "inputs": []
    }, 
    {
      "op": "Convolution", 
      "name": "convolution219", 
      "attrs": {
        "dilate": "(1, 1)", 
        "kernel": "(1, 1)", 
        "no_bias": "False", 
        "num_filter": "160", 
        "num_group": "1", 
        "stride": "(1, 1)"
      }, 
      "inputs": [[1209, 0, 0], [1210, 0, 0], [1211, 0, 0]]
    }, 
    {
      "op": "relu", 
      "name": "relu102", 
      "inputs": [[1212, 0, 0]]
    }, 
    {
      "op": "Pad", 
      "name": "pad325", 
      "attrs": {
        "mode": "reflect", 
        "pad_width": "(0, 0, 0, 0, 1, 1, 1, 1)"
      }, 
      "inputs": [[1213, 0, 0]]
    }, 
    {
      "op": "Pad", 
      "name": "pad326", 
      "attrs": {
        "mode": "constant", 
        "pad_width": "(0, 0, 0, 0, 0, 0, 0, 0)"
      }, 
      "inputs": [[1214, 0, 0]]
    }, 
    {
      "op": "null", 
      "name": "learned_434", 
      "attrs": {"__shape__": "(40, 160, 3, 3)"}, 
      "inputs": []
    }, 
    {
      "op": "null", 
      "name": "learned_435", 
      "attrs": {"__shape__": "(40,)"}, 
      "inputs": []
    }, 
    {
      "op": "Convolution", 
      "name": "convolution220", 
      "attrs": {
        "dilate": "(1, 1)", 
        "kernel": "(3, 3)", 
        "no_bias": "False", 
        "num_filter": "40", 
        "num_group": "1", 
        "stride": "(1, 1)"
      }, 
      "inputs": [[1215, 0, 0], [1216, 0, 0], [1217, 0, 0]]
    }, 
    {
      "op": "Concat", 
      "name": "concat100", 
      "attrs": {
        "dim": "1", 
        "num_args": "2"
      }, 
      "inputs": [[1208, 0, 0], [1218, 0, 0]]
    }, 
    {
      "op": "Pad", 
      "name": "pad327", 
      "attrs": {
        "mode": "constant", 
        "pad_width": "(0, 0, 0, 0, 0, 0, 0, 0)"
      }, 
      "inputs": [[1219, 0, 0]]
    }, 
    {
      "op": "null", 
      "name": "learned_436", 
      "attrs": {"__shape__": "(160, 360, 1, 1)"}, 
      "inputs": []
    }, 
    {
      "op": "null", 
      "name": "learned_437", 
      "attrs": {"__shape__": "(160,)"}, 
      "inputs": []
    }, 
    {
      "op": "Convolution", 
      "name": "convolution221", 
      "attrs": {
        "dilate": "(1, 1)", 
        "kernel": "(1, 1)", 
        "no_bias": "False", 
        "num_filter": "160", 
        "num_group": "1", 
        "stride": "(1, 1)"
      }, 
      "inputs": [[1220, 0, 0], [1221, 0, 0], [1222, 0, 0]]
    }, 
    {
      "op": "relu", 
      "name": "relu103", 
      "inputs": [[1223, 0, 0]]
    }, 
    {
      "op": "Pad", 
      "name": "pad328", 
      "attrs": {
        "mode": "reflect", 
        "pad_width": "(0, 0, 0, 0, 1, 1, 1, 1)"
      }, 
      "inputs": [[1224, 0, 0]]
    }, 
    {
      "op": "Pad", 
      "name": "pad329", 
      "attrs": {
        "mode": "constant", 
        "pad_width": "(0, 0, 0, 0, 0, 0, 0, 0)"
      }, 
      "inputs": [[1225, 0, 0]]
    }, 
    {
      "op": "null", 
      "name": "learned_438", 
      "attrs": {"__shape__": "(40, 160, 3, 3)"}, 
      "inputs": []
    }, 
    {
      "op": "null", 
      "name": "learned_439", 
      "attrs": {"__shape__": "(40,)"}, 
      "inputs": []
    }, 
    {
      "op": "Convolution", 
      "name": "convolution222", 
      "attrs": {
        "dilate": "(1, 1)", 
        "kernel": "(3, 3)", 
        "no_bias": "False", 
        "num_filter": "40", 
        "num_group": "1", 
        "stride": "(1, 1)"
      }, 
      "inputs": [[1226, 0, 0], [1227, 0, 0], [1228, 0, 0]]
    }, 
    {
      "op": "Concat", 
      "name": "concat101", 
      "attrs": {
        "dim": "1", 
        "num_args": "2"
      }, 
      "inputs": [[1219, 0, 0], [1229, 0, 0]]
    }, 
    {
      "op": "Pad", 
      "name": "pad330", 
      "attrs": {
        "mode": "constant", 
        "pad_width": "(0, 0, 0, 0, 0, 0, 0, 0)"
      }, 
      "inputs": [[1230, 0, 0]]
    }, 
    {
      "op": "null", 
      "name": "learned_440", 
      "attrs": {"__shape__": "(160, 400, 1, 1)"}, 
      "inputs": []
    }, 
    {
      "op": "null", 
      "name": "learned_441", 
      "attrs": {"__shape__": "(160,)"}, 
      "inputs": []
    }, 
    {
      "op": "Convolution", 
      "name": "convolution223", 
      "attrs": {
        "dilate": "(1, 1)", 
        "kernel": "(1, 1)", 
        "no_bias": "False", 
        "num_filter": "160", 
        "num_group": "1", 
        "stride": "(1, 1)"
      }, 
      "inputs": [[1231, 0, 0], [1232, 0, 0], [1233, 0, 0]]
    }, 
    {
      "op": "relu", 
      "name": "relu104", 
      "inputs": [[1234, 0, 0]]
    }, 
    {
      "op": "Pad", 
      "name": "pad331", 
      "attrs": {
        "mode": "reflect", 
        "pad_width": "(0, 0, 0, 0, 1, 1, 1, 1)"
      }, 
      "inputs": [[1235, 0, 0]]
    }, 
    {
      "op": "Pad", 
      "name": "pad332", 
      "attrs": {
        "mode": "constant", 
        "pad_width": "(0, 0, 0, 0, 0, 0, 0, 0)"
      }, 
      "inputs": [[1236, 0, 0]]
    }, 
    {
      "op": "null", 
      "name": "learned_442", 
      "attrs": {"__shape__": "(40, 160, 3, 3)"}, 
      "inputs": []
    }, 
    {
      "op": "null", 
      "name": "learned_443", 
      "attrs": {"__shape__": "(40,)"}, 
      "inputs": []
    }, 
    {
      "op": "Convolution", 
      "name": "convolution224", 
      "attrs": {
        "dilate": "(1, 1)", 
        "kernel": "(3, 3)", 
        "no_bias": "False", 
        "num_filter": "40", 
        "num_group": "1", 
        "stride": "(1, 1)"
      }, 
      "inputs": [[1237, 0, 0], [1238, 0, 0], [1239, 0, 0]]
    }, 
    {
      "op": "Concat", 
      "name": "concat102", 
      "attrs": {
        "dim": "1", 
        "num_args": "2"
      }, 
      "inputs": [[1230, 0, 0], [1240, 0, 0]]
    }, 
    {
      "op": "Pad", 
      "name": "pad333", 
      "attrs": {
        "mode": "constant", 
        "pad_width": "(0, 0, 0, 0, 0, 0, 0, 0)"
      }, 
      "inputs": [[1241, 0, 0]]
    }, 
    {
      "op": "null", 
      "name": "learned_444", 
      "attrs": {"__shape__": "(160, 440, 1, 1)"}, 
      "inputs": []
    }, 
    {
      "op": "null", 
      "name": "learned_445", 
      "attrs": {"__shape__": "(160,)"}, 
      "inputs": []
    }, 
    {
      "op": "Convolution", 
      "name": "convolution225", 
      "attrs": {
        "dilate": "(1, 1)", 
        "kernel": "(1, 1)", 
        "no_bias": "False", 
        "num_filter": "160", 
        "num_group": "1", 
        "stride": "(1, 1)"
      }, 
      "inputs": [[1242, 0, 0], [1243, 0, 0], [1244, 0, 0]]
    }, 
    {
      "op": "relu", 
      "name": "relu105", 
      "inputs": [[1245, 0, 0]]
    }, 
    {
      "op": "Pad", 
      "name": "pad334", 
      "attrs": {
        "mode": "reflect", 
        "pad_width": "(0, 0, 0, 0, 1, 1, 1, 1)"
      }, 
      "inputs": [[1246, 0, 0]]
    }, 
    {
      "op": "Pad", 
      "name": "pad335", 
      "attrs": {
        "mode": "constant", 
        "pad_width": "(0, 0, 0, 0, 0, 0, 0, 0)"
      }, 
      "inputs": [[1247, 0, 0]]
    }, 
    {
      "op": "null", 
      "name": "learned_446", 
      "attrs": {"__shape__": "(40, 160, 3, 3)"}, 
      "inputs": []
    }, 
    {
      "op": "null", 
      "name": "learned_447", 
      "attrs": {"__shape__": "(40,)"}, 
      "inputs": []
    }, 
    {
      "op": "Convolution", 
      "name": "convolution226", 
      "attrs": {
        "dilate": "(1, 1)", 
        "kernel": "(3, 3)", 
        "no_bias": "False", 
        "num_filter": "40", 
        "num_group": "1", 
        "stride": "(1, 1)"
      }, 
      "inputs": [[1248, 0, 0], [1249, 0, 0], [1250, 0, 0]]
    }, 
    {
      "op": "Concat", 
      "name": "concat103", 
      "attrs": {
        "dim": "1", 
        "num_args": "2"
      }, 
      "inputs": [[1241, 0, 0], [1251, 0, 0]]
    }, 
    {
      "op": "Pad", 
      "name": "pad336", 
      "attrs": {
        "mode": "constant", 
        "pad_width": "(0, 0, 0, 0, 0, 0, 0, 0)"
      }, 
      "inputs": [[1252, 0, 0]]
    }, 
    {
      "op": "null", 
      "name": "learned_448", 
      "attrs": {"__shape__": "(160, 480, 1, 1)"}, 
      "inputs": []
    }, 
    {
      "op": "Convolution", 
      "name": "convolution227", 
      "attrs": {
        "dilate": "(1, 1)", 
        "kernel": "(1, 1)", 
        "no_bias": "True", 
        "num_filter": "160", 
        "num_group": "1", 
        "stride": "(1, 1)"
      }, 
      "inputs": [[1253, 0, 0], [1254, 0, 0]]
    }, 
    {
      "op": "_mul_scalar", 
      "name": "_mulscalar12", 
      "attrs": {"scalar": "0.2"}, 
      "inputs": [[1255, 0, 0]]
    }, 
    {
      "op": "broadcast_add", 
      "name": "broadcast_add14", 
      "inputs": [[1256, 0, 0], [1164, 0, 0]]
    }, 
    {
      "op": "Pad", 
      "name": "pad337", 
      "attrs": {
        "mode": "reflect", 
        "pad_width": "(0, 0, 0, 0, 1, 1, 1, 1)"
      }, 
      "inputs": [[1257, 0, 0]]
    }, 
    {
      "op": "Pad", 
      "name": "pad338", 
      "attrs": {
        "mode": "constant", 
        "pad_width": "(0, 0, 0, 0, 0, 0, 0, 0)"
      }, 
      "inputs": [[1258, 0, 0]]
    }, 
    {
      "op": "null", 
      "name": "learned_449", 
      "attrs": {"__shape__": "(160, 160, 3, 3)"}, 
      "inputs": []
    }, 
    {
      "op": "null", 
      "name": "learned_450", 
      "attrs": {"__shape__": "(160,)"}, 
      "inputs": []
    }, 
    {
      "op": "Convolution", 
      "name": "convolution228", 
      "attrs": {
        "dilate": "(1, 1)", 
        "kernel": "(3, 3)", 
        "no_bias": "False", 
        "num_filter": "160", 
        "num_group": "1", 
        "stride": "(1, 1)"
      }, 
      "inputs": [[1259, 0, 0], [1260, 0, 0], [1261, 0, 0]]
    }, 
    {
      "op": "broadcast_add", 
      "name": "broadcast_add15", 
      "inputs": [[1262, 0, 0], [1161, 0, 0]]
    }, 
    {
      "op": "Pad", 
      "name": "pad339", 
      "attrs": {
        "mode": "reflect", 
        "pad_width": "(0, 0, 0, 0, 1, 1, 1, 1)"
      }, 
      "inputs": [[1263, 0, 0]]
    }, 
    {
      "op": "null", 
      "name": "learned_451", 
      "attrs": {"__shape__": "(640, 160, 3, 3)"}, 
      "inputs": []
    }, 
    {
      "op": "null", 
      "name": "learned_452", 
      "attrs": {"__shape__": "(640,)"}, 
      "inputs": []
    }, 
    {
      "op": "Convolution", 
      "name": "convolution229", 
      "attrs": {
        "dilate": "(1, 1)", 
        "kernel": "(3, 3)", 
        "no_bias": "False", 
        "num_filter": "640", 
        "num_group": "1", 
        "stride": "(1, 1)"
      }, 
      "inputs": [[1264, 0, 0], [1265, 0, 0], [1266, 0, 0]]
    }, 
    {
      "op": "Reshape", 
      "name": "reshape6", 
      "attrs": {"shape": "(0, -4, -1, 4, 0, 0)"}, 
      "inputs": [[1267, 0, 0]]
    }, 
    {
      "op": "Reshape", 
      "name": "reshape7", 
      "attrs": {"shape": "(0, 0, -4, 2, 2, 0, 0)"}, 
      "inputs": [[1268, 0, 0]]
    }, 
    {
      "op": "transpose", 
      "name": "transpose2", 
      "attrs": {"axes": "(0, 1, 4, 2, 5, 3)"}, 
      "inputs": [[1269, 0, 0]]
    }, 
    {
      "op": "Reshape", 
      "name": "reshape8", 
      "attrs": {"shape": "(0, 0, -3, -3)"}, 
      "inputs": [[1270, 0, 0]]
    }, 
    {
      "op": "relu", 
      "name": "relu106", 
      "inputs": [[1271, 0, 0]]
    }, 
    {
      "op": "Pad", 
      "name": "pad341", 
      "attrs": {
        "mode": "reflect", 
        "pad_width": "(0, 0, 0, 0, 1, 1, 1, 1)"
      }, 
      "inputs": [[1272, 0, 0]]
    }, 
    {
      "op": "Pad", 
      "name": "pad342", 
      "attrs": {
        "mode": "constant", 
        "pad_width": "(0, 0, 0, 0, 0, 0, 0, 0)"
      }, 
      "inputs": [[1273, 0, 0]]
    }, 
    {
      "op": "null", 
      "name": "learned_453", 
      "attrs": {"__shape__": "(3, 160, 3, 3)"}, 
      "inputs": []
    }, 
    {
      "op": "null", 
      "name": "learned_454", 
      "attrs": {"__shape__": "(3,)"}, 
      "inputs": []
    }, 
    {
      "op": "Convolution", 
      "name": "convolution230", 
      "attrs": {
        "dilate": "(1, 1)", 
        "kernel": "(3, 3)", 
        "no_bias": "False", 
        "num_filter": "3", 
        "num_group": "1", 
        "stride": "(1, 1)"
      }, 
      "inputs": [[1274, 0, 0], [1275, 0, 0], [1276, 0, 0]]
    }, 
    {
      "op": "broadcast_add", 
      "name": "restore_low_frequency", 
      "inputs": [[7, 0, 0], [1277, 0, 0]]
    }, 
    {
      "op": "null", 
      "name": "inv_dynamic_range_multiplier", 
      "attrs": {"__shape__": "(1, 1, 1, 1)"}, 
      "inputs": []
    }, 
    {
      "op": "broadcast_mul", 
      "name": "restore_dynamic_range", 
      "inputs": [[1278, 0, 0], [1279, 0, 0]]
    }, 
    {
      "op": "null", 
      "name": "DIV2K_mean", 
      "attrs": {"__shape__": "(1, 3, 1, 1)"}, 
      "inputs": []
    }, 
    {
      "op": "broadcast_add", 
      "name": "output", 
      "inputs": [[1280, 0, 0], [1281, 0, 0]]
    }
  ], 
  "arg_nodes": [
    0, 
    1, 
    3, 
    6, 
    10, 
    11, 
    14, 
    15, 
    20, 
    21, 
    25, 
    26, 
    31, 
    32, 
    36, 
    37, 
    42, 
    43, 
    47, 
    48, 
    53, 
    54, 
    58, 
    59, 
    64, 
    65, 
    69, 
    70, 
    75, 
    76, 
    80, 
    81, 
    86, 
    87, 
    91, 
    92, 
    97, 
    98, 
    102, 
    107, 
    108, 
    113, 
    114, 
    118, 
    119, 
    124, 
    125, 
    129, 
    130, 
    135, 
    136, 
    140, 
    141, 
    146, 
    147, 
    151, 
    152, 
    157, 
    158, 
    162, 
    163, 
    168, 
    169, 
    173, 
    174, 
    179, 
    180, 
    184, 
    185, 
    190, 
    191, 
    195, 
    200, 
    201, 
    206, 
    207, 
    211, 
    212, 
    217, 
    218, 
    222, 
    223, 
    228, 
    229, 
    233, 
    234, 
    239, 
    240, 
    244, 
    245, 
    250, 
    251, 
    255, 
    256, 
    261, 
    262, 
    266, 
    267, 
    272, 
    273, 
    277, 
    278, 
    283, 
    284, 
    288, 
    293, 
    294, 
    299, 
    300, 
    304, 
    305, 
    310, 
    311, 
    315, 
    316, 
    321, 
    322, 
    326, 
    327, 
    332, 
    333, 
    337, 
    338, 
    343, 
    344, 
    348, 
    349, 
    354, 
    355, 
    359, 
    360, 
    365, 
    366, 
    370, 
    371, 
    376, 
    377, 
    381, 
    386, 
    387, 
    392, 
    393, 
    397, 
    398, 
    403, 
    404, 
    408, 
    409, 
    414, 
    415, 
    419, 
    420, 
    425, 
    426, 
    430, 
    431, 
    436, 
    437, 
    441, 
    442, 
    447, 
    448, 
    452, 
    453, 
    458, 
    459, 
    463, 
    464, 
    469, 
    470, 
    474, 
    479, 
    480, 
    485, 
    486, 
    490, 
    491, 
    496, 
    497, 
    501, 
    502, 
    507, 
    508, 
    512, 
    513, 
    518, 
    519, 
    523, 
    524, 
    529, 
    530, 
    534, 
    535, 
    540, 
    541, 
    545, 
    546, 
    551, 
    552, 
    556, 
    557, 
    562, 
    563, 
    567, 
    572, 
    573, 
    578, 
    579, 
    583, 
    584, 
    589, 
    590, 
    594, 
    595, 
    600, 
    601, 
    605, 
    606, 
    611, 
    612, 
    616, 
    617, 
    622, 
    623, 
    627, 
    628, 
    633, 
    634, 
    638, 
    639, 
    644, 
    645, 
    649, 
    650, 
    655, 
    656, 
    660, 
    665, 
    666, 
    671, 
    672, 
    676, 
    677, 
    682, 
    683, 
    687, 
    688, 
    693, 
    694, 
    698, 
    699, 
    704, 
    705, 
    709, 
    710, 
    715, 
    716, 
    720, 
    721, 
    726, 
    727, 
    731, 
    732, 
    737, 
    738, 
    742, 
    743, 
    748, 
    749, 
    753, 
    758, 
    759, 
    764, 
    765, 
    769, 
    770, 
    775, 
    776, 
    780, 
    781, 
    786, 
    787, 
    791, 
    792, 
    797, 
    798, 
    802, 
    803, 
    808, 
    809, 
    813, 
    814, 
    819, 
    820, 
    824, 
    825, 
    830, 
    831, 
    835, 
    836, 
    841, 
    842, 
    846, 
    852, 
    853, 
    857, 
    858, 
    866, 
    869, 
    870, 
    875, 
    876, 
    880, 
    881, 
    886, 
    887, 
    891, 
    892, 
    897, 
    898, 
    902, 
    903, 
    908, 
    909, 
    913, 
    914, 
    919, 
    920, 
    924, 
    925, 
    930, 
    931, 
    935, 
    936, 
    941, 
    942, 
    946, 
    947, 
    952, 
    953, 
    957, 
    962, 
    963, 
    968, 
    969, 
    973, 
    974, 
    979, 
    980, 
    984, 
    985, 
    990, 
    991, 
    995, 
    996, 
    1001, 
    1002, 
    1006, 
    1007, 
    1012, 
    1013, 
    1017, 
    1018, 
    1023, 
    1024, 
    1028, 
    1029, 
    1034, 
    1035, 
    1039, 
    1040, 
    1045, 
    1046, 
    1050, 
    1055, 
    1056, 
    1061, 
    1062, 
    1066, 
    1067, 
    1072, 
    1073, 
    1077, 
    1078, 
    1083, 
    1084, 
    1088, 
    1089, 
    1094, 
    1095, 
    1099, 
    1100, 
    1105, 
    1106, 
    1110, 
    1111, 
    1116, 
    1117, 
    1121, 
    1122, 
    1127, 
    1128, 
    1132, 
    1133, 
    1138, 
    1139, 
    1143, 
    1149, 
    1150, 
    1154, 
    1155, 
    1163, 
    1166, 
    1167, 
    1172, 
    1173, 
    1177, 
    1178, 
    1183, 
    1184, 
    1188, 
    1189, 
    1194, 
    1195, 
    1199, 
    1200, 
    1205, 
    1206, 
    1210, 
    1211, 
    1216, 
    1217, 
    1221, 
    1222, 
    1227, 
    1228, 
    1232, 
    1233, 
    1238, 
    1239, 
    1243, 
    1244, 
    1249, 
    1250, 
    1254, 
    1260, 
    1261, 
    1265, 
    1266, 
    1275, 
    1276, 
    1279, 
    1281
  ], 
  "node_row_ptr": [
    0, 
    1, 
    2, 
    3, 
    4, 
    5, 
    6, 
    7, 
    8, 
    9, 
    10, 
    11, 
    12, 
    13, 
    14, 
    15, 
    16, 
    17, 
    18, 
    19, 
    20, 
    21, 
    22, 
    23, 
    24, 
    25, 
    26, 
    27, 
    28, 
    29, 
    30, 
    31, 
    32, 
    33, 
    34, 
    35, 
    36, 
    37, 
    38, 
    39, 
    40, 
    41, 
    42, 
    43, 
    44, 
    45, 
    46, 
    47, 
    48, 
    49, 
    50, 
    51, 
    52, 
    53, 
    54, 
    55, 
    56, 
    57, 
    58, 
    59, 
    60, 
    61, 
    62, 
    63, 
    64, 
    65, 
    66, 
    67, 
    68, 
    69, 
    70, 
    71, 
    72, 
    73, 
    74, 
    75, 
    76, 
    77, 
    78, 
    79, 
    80, 
    81, 
    82, 
    83, 
    84, 
    85, 
    86, 
    87, 
    88, 
    89, 
    90, 
    91, 
    92, 
    93, 
    94, 
    95, 
    96, 
    97, 
    98, 
    99, 
    100, 
    101, 
    102, 
    103, 
    104, 
    105, 
    106, 
    107, 
    108, 
    109, 
    110, 
    111, 
    112, 
    113, 
    114, 
    115, 
    116, 
    117, 
    118, 
    119, 
    120, 
    121, 
    122, 
    123, 
    124, 
    125, 
    126, 
    127, 
    128, 
    129, 
    130, 
    131, 
    132, 
    133, 
    134, 
    135, 
    136, 
    137, 
    138, 
    139, 
    140, 
    141, 
    142, 
    143, 
    144, 
    145, 
    146, 
    147, 
    148, 
    149, 
    150, 
    151, 
    152, 
    153, 
    154, 
    155, 
    156, 
    157, 
    158, 
    159, 
    160, 
    161, 
    162, 
    163, 
    164, 
    165, 
    166, 
    167, 
    168, 
    169, 
    170, 
    171, 
    172, 
    173, 
    174, 
    175, 
    176, 
    177, 
    178, 
    179, 
    180, 
    181, 
    182, 
    183, 
    184, 
    185, 
    186, 
    187, 
    188, 
    189, 
    190, 
    191, 
    192, 
    193, 
    194, 
    195, 
    196, 
    197, 
    198, 
    199, 
    200, 
    201, 
    202, 
    203, 
    204, 
    205, 
    206, 
    207, 
    208, 
    209, 
    210, 
    211, 
    212, 
    213, 
    214, 
    215, 
    216, 
    217, 
    218, 
    219, 
    220, 
    221, 
    222, 
    223, 
    224, 
    225, 
    226, 
    227, 
    228, 
    229, 
    230, 
    231, 
    232, 
    233, 
    234, 
    235, 
    236, 
    237, 
    238, 
    239, 
    240, 
    241, 
    242, 
    243, 
    244, 
    245, 
    246, 
    247, 
    248, 
    249, 
    250, 
    251, 
    252, 
    253, 
    254, 
    255, 
    256, 
    257, 
    258, 
    259, 
    260, 
    261, 
    262, 
    263, 
    264, 
    265, 
    266, 
    267, 
    268, 
    269, 
    270, 
    271, 
    272, 
    273, 
    274, 
    275, 
    276, 
    277, 
    278, 
    279, 
    280, 
    281, 
    282, 
    283, 
    284, 
    285, 
    286, 
    287, 
    288, 
    289, 
    290, 
    291, 
    292, 
    293, 
    294, 
    295, 
    296, 
    297, 
    298, 
    299, 
    300, 
    301, 
    302, 
    303, 
    304, 
    305, 
    306, 
    307, 
    308, 
    309, 
    310, 
    311, 
    312, 
    313, 
    314, 
    315, 
    316, 
    317, 
    318, 
    319, 
    320, 
    321, 
    322, 
    323, 
    324, 
    325, 
    326, 
    327, 
    328, 
    329, 
    330, 
    331, 
    332, 
    333, 
    334, 
    335, 
    336, 
    337, 
    338, 
    339, 
    340, 
    341, 
    342, 
    343, 
    344, 
    345, 
    346, 
    347, 
    348, 
    349, 
    350, 
    351, 
    352, 
    353, 
    354, 
    355, 
    356, 
    357, 
    358, 
    359, 
    360, 
    361, 
    362, 
    363, 
    364, 
    365, 
    366, 
    367, 
    368, 
    369, 
    370, 
    371, 
    372, 
    373, 
    374, 
    375, 
    376, 
    377, 
    378, 
    379, 
    380, 
    381, 
    382, 
    383, 
    384, 
    385, 
    386, 
    387, 
    388, 
    389, 
    390, 
    391, 
    392, 
    393, 
    394, 
    395, 
    396, 
    397, 
    398, 
    399, 
    400, 
    401, 
    402, 
    403, 
    404, 
    405, 
    406, 
    407, 
    408, 
    409, 
    410, 
    411, 
    412, 
    413, 
    414, 
    415, 
    416, 
    417, 
    418, 
    419, 
    420, 
    421, 
    422, 
    423, 
    424, 
    425, 
    426, 
    427, 
    428, 
    429, 
    430, 
    431, 
    432, 
    433, 
    434, 
    435, 
    436, 
    437, 
    438, 
    439, 
    440, 
    441, 
    442, 
    443, 
    444, 
    445, 
    446, 
    447, 
    448, 
    449, 
    450, 
    451, 
    452, 
    453, 
    454, 
    455, 
    456, 
    457, 
    458, 
    459, 
    460, 
    461, 
    462, 
    463, 
    464, 
    465, 
    466, 
    467, 
    468, 
    469, 
    470, 
    471, 
    472, 
    473, 
    474, 
    475, 
    476, 
    477, 
    478, 
    479, 
    480, 
    481, 
    482, 
    483, 
    484, 
    485, 
    486, 
    487, 
    488, 
    489, 
    490, 
    491, 
    492, 
    493, 
    494, 
    495, 
    496, 
    497, 
    498, 
    499, 
    500, 
    501, 
    502, 
    503, 
    504, 
    505, 
    506, 
    507, 
    508, 
    509, 
    510, 
    511, 
    512, 
    513, 
    514, 
    515, 
    516, 
    517, 
    518, 
    519, 
    520, 
    521, 
    522, 
    523, 
    524, 
    525, 
    526, 
    527, 
    528, 
    529, 
    530, 
    531, 
    532, 
    533, 
    534, 
    535, 
    536, 
    537, 
    538, 
    539, 
    540, 
    541, 
    542, 
    543, 
    544, 
    545, 
    546, 
    547, 
    548, 
    549, 
    550, 
    551, 
    552, 
    553, 
    554, 
    555, 
    556, 
    557, 
    558, 
    559, 
    560, 
    561, 
    562, 
    563, 
    564, 
    565, 
    566, 
    567, 
    568, 
    569, 
    570, 
    571, 
    572, 
    573, 
    574, 
    575, 
    576, 
    577, 
    578, 
    579, 
    580, 
    581, 
    582, 
    583, 
    584, 
    585, 
    586, 
    587, 
    588, 
    589, 
    590, 
    591, 
    592, 
    593, 
    594, 
    595, 
    596, 
    597, 
    598, 
    599, 
    600, 
    601, 
    602, 
    603, 
    604, 
    605, 
    606, 
    607, 
    608, 
    609, 
    610, 
    611, 
    612, 
    613, 
    614, 
    615, 
    616, 
    617, 
    618, 
    619, 
    620, 
    621, 
    622, 
    623, 
    624, 
    625, 
    626, 
    627, 
    628, 
    629, 
    630, 
    631, 
    632, 
    633, 
    634, 
    635, 
    636, 
    637, 
    638, 
    639, 
    640, 
    641, 
    642, 
    643, 
    644, 
    645, 
    646, 
    647, 
    648, 
    649, 
    650, 
    651, 
    652, 
    653, 
    654, 
    655, 
    656, 
    657, 
    658, 
    659, 
    660, 
    661, 
    662, 
    663, 
    664, 
    665, 
    666, 
    667, 
    668, 
    669, 
    670, 
    671, 
    672, 
    673, 
    674, 
    675, 
    676, 
    677, 
    678, 
    679, 
    680, 
    681, 
    682, 
    683, 
    684, 
    685, 
    686, 
    687, 
    688, 
    689, 
    690, 
    691, 
    692, 
    693, 
    694, 
    695, 
    696, 
    697, 
    698, 
    699, 
    700, 
    701, 
    702, 
    703, 
    704, 
    705, 
    706, 
    707, 
    708, 
    709, 
    710, 
    711, 
    712, 
    713, 
    714, 
    715, 
    716, 
    717, 
    718, 
    719, 
    720, 
    721, 
    722, 
    723, 
    724, 
    725, 
    726, 
    727, 
    728, 
    729, 
    730, 
    731, 
    732, 
    733, 
    734, 
    735, 
    736, 
    737, 
    738, 
    739, 
    740, 
    741, 
    742, 
    743, 
    744, 
    745, 
    746, 
    747, 
    748, 
    749, 
    750, 
    751, 
    752, 
    753, 
    754, 
    755, 
    756, 
    757, 
    758, 
    759, 
    760, 
    761, 
    762, 
    763, 
    764, 
    765, 
    766, 
    767, 
    768, 
    769, 
    770, 
    771, 
    772, 
    773, 
    774, 
    775, 
    776, 
    777, 
    778, 
    779, 
    780, 
    781, 
    782, 
    783, 
    784, 
    785, 
    786, 
    787, 
    788, 
    789, 
    790, 
    791, 
    792, 
    793, 
    794, 
    795, 
    796, 
    797, 
    798, 
    799, 
    800, 
    801, 
    802, 
    803, 
    804, 
    805, 
    806, 
    807, 
    808, 
    809, 
    810, 
    811, 
    812, 
    813, 
    814, 
    815, 
    816, 
    817, 
    818, 
    819, 
    820, 
    821, 
    822, 
    823, 
    824, 
    825, 
    826, 
    827, 
    828, 
    829, 
    830, 
    831, 
    832, 
    833, 
    834, 
    835, 
    836, 
    837, 
    838, 
    839, 
    840, 
    841, 
    842, 
    843, 
    844, 
    845, 
    846, 
    847, 
    848, 
    849, 
    850, 
    851, 
    852, 
    853, 
    854, 
    855, 
    856, 
    857, 
    858, 
    859, 
    860, 
    861, 
    862, 
    863, 
    864, 
    865, 
    866, 
    867, 
    868, 
    869, 
    870, 
    871, 
    872, 
    873, 
    874, 
    875, 
    876, 
    877, 
    878, 
    879, 
    880, 
    881, 
    882, 
    883, 
    884, 
    885, 
    886, 
    887, 
    888, 
    889, 
    890, 
    891, 
    892, 
    893, 
    894, 
    895, 
    896, 
    897, 
    898, 
    899, 
    900, 
    901, 
    902, 
    903, 
    904, 
    905, 
    906, 
    907, 
    908, 
    909, 
    910, 
    911, 
    912, 
    913, 
    914, 
    915, 
    916, 
    917, 
    918, 
    919, 
    920, 
    921, 
    922, 
    923, 
    924, 
    925, 
    926, 
    927, 
    928, 
    929, 
    930, 
    931, 
    932, 
    933, 
    934, 
    935, 
    936, 
    937, 
    938, 
    939, 
    940, 
    941, 
    942, 
    943, 
    944, 
    945, 
    946, 
    947, 
    948, 
    949, 
    950, 
    951, 
    952, 
    953, 
    954, 
    955, 
    956, 
    957, 
    958, 
    959, 
    960, 
    961, 
    962, 
    963, 
    964, 
    965, 
    966, 
    967, 
    968, 
    969, 
    970, 
    971, 
    972, 
    973, 
    974, 
    975, 
    976, 
    977, 
    978, 
    979, 
    980, 
    981, 
    982, 
    983, 
    984, 
    985, 
    986, 
    987, 
    988, 
    989, 
    990, 
    991, 
    992, 
    993, 
    994, 
    995, 
    996, 
    997, 
    998, 
    999, 
    1000, 
    1001, 
    1002, 
    1003, 
    1004, 
    1005, 
    1006, 
    1007, 
    1008, 
    1009, 
    1010, 
    1011, 
    1012, 
    1013, 
    1014, 
    1015, 
    1016, 
    1017, 
    1018, 
    1019, 
    1020, 
    1021, 
    1022, 
    1023, 
    1024, 
    1025, 
    1026, 
    1027, 
    1028, 
    1029, 
    1030, 
    1031, 
    1032, 
    1033, 
    1034, 
    1035, 
    1036, 
    1037, 
    1038, 
    1039, 
    1040, 
    1041, 
    1042, 
    1043, 
    1044, 
    1045, 
    1046, 
    1047, 
    1048, 
    1049, 
    1050, 
    1051, 
    1052, 
    1053, 
    1054, 
    1055, 
    1056, 
    1057, 
    1058, 
    1059, 
    1060, 
    1061, 
    1062, 
    1063, 
    1064, 
    1065, 
    1066, 
    1067, 
    1068, 
    1069, 
    1070, 
    1071, 
    1072, 
    1073, 
    1074, 
    1075, 
    1076, 
    1077, 
    1078, 
    1079, 
    1080, 
    1081, 
    1082, 
    1083, 
    1084, 
    1085, 
    1086, 
    1087, 
    1088, 
    1089, 
    1090, 
    1091, 
    1092, 
    1093, 
    1094, 
    1095, 
    1096, 
    1097, 
    1098, 
    1099, 
    1100, 
    1101, 
    1102, 
    1103, 
    1104, 
    1105, 
    1106, 
    1107, 
    1108, 
    1109, 
    1110, 
    1111, 
    1112, 
    1113, 
    1114, 
    1115, 
    1116, 
    1117, 
    1118, 
    1119, 
    1120, 
    1121, 
    1122, 
    1123, 
    1124, 
    1125, 
    1126, 
    1127, 
    1128, 
    1129, 
    1130, 
    1131, 
    1132, 
    1133, 
    1134, 
    1135, 
    1136, 
    1137, 
    1138, 
    1139, 
    1140, 
    1141, 
    1142, 
    1143, 
    1144, 
    1145, 
    1146, 
    1147, 
    1148, 
    1149, 
    1150, 
    1151, 
    1152, 
    1153, 
    1154, 
    1155, 
    1156, 
    1157, 
    1158, 
    1159, 
    1160, 
    1161, 
    1162, 
    1163, 
    1164, 
    1165, 
    1166, 
    1167, 
    1168, 
    1169, 
    1170, 
    1171, 
    1172, 
    1173, 
    1174, 
    1175, 
    1176, 
    1177, 
    1178, 
    1179, 
    1180, 
    1181, 
    1182, 
    1183, 
    1184, 
    1185, 
    1186, 
    1187, 
    1188, 
    1189, 
    1190, 
    1191, 
    1192, 
    1193, 
    1194, 
    1195, 
    1196, 
    1197, 
    1198, 
    1199, 
    1200, 
    1201, 
    1202, 
    1203, 
    1204, 
    1205, 
    1206, 
    1207, 
    1208, 
    1209, 
    1210, 
    1211, 
    1212, 
    1213, 
    1214, 
    1215, 
    1216, 
    1217, 
    1218, 
    1219, 
    1220, 
    1221, 
    1222, 
    1223, 
    1224, 
    1225, 
    1226, 
    1227, 
    1228, 
    1229, 
    1230, 
    1231, 
    1232, 
    1233, 
    1234, 
    1235, 
    1236, 
    1237, 
    1238, 
    1239, 
    1240, 
    1241, 
    1242, 
    1243, 
    1244, 
    1245, 
    1246, 
    1247, 
    1248, 
    1249, 
    1250, 
    1251, 
    1252, 
    1253, 
    1254, 
    1255, 
    1256, 
    1257, 
    1258, 
    1259, 
    1260, 
    1261, 
    1262, 
    1263, 
    1264, 
    1265, 
    1266, 
    1267, 
    1268, 
    1269, 
    1270, 
    1271, 
    1272, 
    1273, 
    1274, 
    1275, 
    1276, 
    1277, 
    1278, 
    1279, 
    1280, 
    1281, 
    1282, 
    1283
  ], 
  "heads": [[1282, 0, 0]], 
  "attrs": {"mxnet_version": ["int", 10300]}
}