{
  "nodes": [
    {
      "op": "null", 
      "name": "data", 
      "inputs": []
    }, 
    {
      "op": "null", 
      "name": "bn_conv1_gamma", 
      "attrs": {
        "eps": "0.0001", 
        "fix_gamma": "False", 
        "use_global_stats": "False"
      }, 
      "inputs": []
    }, 
    {
      "op": "null", 
      "name": "bn_conv1_beta", 
      "attrs": {
        "eps": "0.0001", 
        "fix_gamma": "False", 
        "use_global_stats": "False"
      }, 
      "inputs": []
    }, 
    {
      "op": "null", 
      "name": "bn_conv1_moving_mean", 
      "attrs": {
        "__init__": "[\"zero\", {}]", 
        "eps": "0.0001", 
        "fix_gamma": "False", 
        "use_global_stats": "False"
      }, 
      "inputs": []
    }, 
    {
      "op": "null", 
      "name": "bn_conv1_moving_var", 
      "attrs": {
        "__init__": "[\"one\", {}]", 
        "eps": "0.0001", 
        "fix_gamma": "False", 
        "use_global_stats": "False"
      }, 
      "inputs": []
    }, 
    {
      "op": "BatchNorm", 
      "name": "bn_conv1", 
      "attrs": {
        "eps": "0.0001", 
        "fix_gamma": "False", 
        "use_global_stats": "False"
      }, 
      "inputs": [[0, 0, 0], [1, 0, 0], [2, 0, 0], [3, 0, 1], [4, 0, 1]]
    }, 
    {
      "op": "Activation", 
      "name": "relu1", 
      "attrs": {"act_type": "relu"}, 
      "inputs": [[5, 0, 0]]
    }, 
    {
      "op": "null", 
      "name": "conv1_weight", 
      "attrs": {
        "dilate": "(1, 1)", 
        "kernel": "(3, 3)", 
        "layout": "NCHW", 
        "no_bias": "False", 
        "num_filter": "64", 
        "num_group": "1", 
        "pad": "(1, 1)", 
        "stride": "(1, 1)"
      }, 
      "inputs": []
    }, 
    {
      "op": "null", 
      "name": "conv1_bias", 
      "attrs": {
        "dilate": "(1, 1)", 
        "kernel": "(3, 3)", 
        "layout": "NCHW", 
        "no_bias": "False", 
        "num_filter": "64", 
        "num_group": "1", 
        "pad": "(1, 1)", 
        "stride": "(1, 1)"
      }, 
      "inputs": []
    }, 
    {
      "op": "Convolution", 
      "name": "conv1", 
      "attrs": {
        "dilate": "(1, 1)", 
        "kernel": "(3, 3)", 
        "layout": "NCHW", 
        "no_bias": "False", 
        "num_filter": "64", 
        "num_group": "1", 
        "pad": "(1, 1)", 
        "stride": "(1, 1)"
      }, 
      "inputs": [[6, 0, 0], [7, 0, 0], [8, 0, 0]]
    }, 
    {
      "op": "null", 
      "name": "bn_conv01_01_a_gamma", 
      "attrs": {
        "eps": "0.0001", 
        "fix_gamma": "False", 
        "use_global_stats": "False"
      }, 
      "inputs": []
    }, 
    {
      "op": "null", 
      "name": "bn_conv01_01_a_beta", 
      "attrs": {
        "eps": "0.0001", 
        "fix_gamma": "False", 
        "use_global_stats": "False"
      }, 
      "inputs": []
    }, 
    {
      "op": "null", 
      "name": "bn_conv01_01_a_moving_mean", 
      "attrs": {
        "__init__": "[\"zero\", {}]", 
        "eps": "0.0001", 
        "fix_gamma": "False", 
        "use_global_stats": "False"
      }, 
      "inputs": []
    }, 
    {
      "op": "null", 
      "name": "bn_conv01_01_a_moving_var", 
      "attrs": {
        "__init__": "[\"one\", {}]", 
        "eps": "0.0001", 
        "fix_gamma": "False", 
        "use_global_stats": "False"
      }, 
      "inputs": []
    }, 
    {
      "op": "BatchNorm", 
      "name": "bn_conv01_01_a", 
      "attrs": {
        "eps": "0.0001", 
        "fix_gamma": "False", 
        "use_global_stats": "False"
      }, 
      "inputs": [[9, 0, 0], [10, 0, 0], [11, 0, 0], [12, 0, 1], [13, 0, 1]]
    }, 
    {
      "op": "Activation", 
      "name": "relu01_01_a", 
      "attrs": {"act_type": "relu"}, 
      "inputs": [[14, 0, 0]]
    }, 
    {
      "op": "null", 
      "name": "conv01_01_a_weight", 
      "attrs": {
        "dilate": "(1, 1)", 
        "kernel": "(3, 3)", 
        "layout": "NCHW", 
        "no_bias": "False", 
        "num_filter": "64", 
        "num_group": "1", 
        "pad": "(1, 1)", 
        "stride": "(1, 1)"
      }, 
      "inputs": []
    }, 
    {
      "op": "null", 
      "name": "conv01_01_a_bias", 
      "attrs": {
        "dilate": "(1, 1)", 
        "kernel": "(3, 3)", 
        "layout": "NCHW", 
        "no_bias": "False", 
        "num_filter": "64", 
        "num_group": "1", 
        "pad": "(1, 1)", 
        "stride": "(1, 1)"
      }, 
      "inputs": []
    }, 
    {
      "op": "Convolution", 
      "name": "conv01_01_a", 
      "attrs": {
        "dilate": "(1, 1)", 
        "kernel": "(3, 3)", 
        "layout": "NCHW", 
        "no_bias": "False", 
        "num_filter": "64", 
        "num_group": "1", 
        "pad": "(1, 1)", 
        "stride": "(1, 1)"
      }, 
      "inputs": [[15, 0, 0], [16, 0, 0], [17, 0, 0]]
    }, 
    {
      "op": "null", 
      "name": "bn_conv01_01_b_gamma", 
      "attrs": {
        "eps": "0.0001", 
        "fix_gamma": "False", 
        "use_global_stats": "False"
      }, 
      "inputs": []
    }, 
    {
      "op": "null", 
      "name": "bn_conv01_01_b_beta", 
      "attrs": {
        "eps": "0.0001", 
        "fix_gamma": "False", 
        "use_global_stats": "False"
      }, 
      "inputs": []
    }, 
    {
      "op": "null", 
      "name": "bn_conv01_01_b_moving_mean", 
      "attrs": {
        "__init__": "[\"zero\", {}]", 
        "eps": "0.0001", 
        "fix_gamma": "False", 
        "use_global_stats": "False"
      }, 
      "inputs": []
    }, 
    {
      "op": "null", 
      "name": "bn_conv01_01_b_moving_var", 
      "attrs": {
        "__init__": "[\"one\", {}]", 
        "eps": "0.0001", 
        "fix_gamma": "False", 
        "use_global_stats": "False"
      }, 
      "inputs": []
    }, 
    {
      "op": "BatchNorm", 
      "name": "bn_conv01_01_b", 
      "attrs": {
        "eps": "0.0001", 
        "fix_gamma": "False", 
        "use_global_stats": "False"
      }, 
      "inputs": [[18, 0, 0], [19, 0, 0], [20, 0, 0], [21, 0, 1], [22, 0, 1]]
    }, 
    {
      "op": "Activation", 
      "name": "relu01_01_b", 
      "attrs": {"act_type": "relu"}, 
      "inputs": [[23, 0, 0]]
    }, 
    {
      "op": "null", 
      "name": "conv01_01_b_weight", 
      "attrs": {
        "dilate": "(1, 1)", 
        "kernel": "(3, 3)", 
        "layout": "NCHW", 
        "no_bias": "False", 
        "num_filter": "64", 
        "num_group": "1", 
        "pad": "(1, 1)", 
        "stride": "(1, 1)"
      }, 
      "inputs": []
    }, 
    {
      "op": "null", 
      "name": "conv01_01_b_bias", 
      "attrs": {
        "dilate": "(1, 1)", 
        "kernel": "(3, 3)", 
        "layout": "NCHW", 
        "no_bias": "False", 
        "num_filter": "64", 
        "num_group": "1", 
        "pad": "(1, 1)", 
        "stride": "(1, 1)"
      }, 
      "inputs": []
    }, 
    {
      "op": "Convolution", 
      "name": "conv01_01_b", 
      "attrs": {
        "dilate": "(1, 1)", 
        "kernel": "(3, 3)", 
        "layout": "NCHW", 
        "no_bias": "False", 
        "num_filter": "64", 
        "num_group": "1", 
        "pad": "(1, 1)", 
        "stride": "(1, 1)"
      }, 
      "inputs": [[24, 0, 0], [25, 0, 0], [26, 0, 0]]
    }, 
    {
      "op": "broadcast_add", 
      "name": "eltwise01_01", 
      "inputs": [[9, 0, 0], [27, 0, 0]]
    }, 
    {
      "op": "null", 
      "name": "bn_conv01_02_a_gamma", 
      "attrs": {
        "eps": "0.0001", 
        "fix_gamma": "False", 
        "use_global_stats": "False"
      }, 
      "inputs": []
    }, 
    {
      "op": "null", 
      "name": "bn_conv01_02_a_beta", 
      "attrs": {
        "eps": "0.0001", 
        "fix_gamma": "False", 
        "use_global_stats": "False"
      }, 
      "inputs": []
    }, 
    {
      "op": "null", 
      "name": "bn_conv01_02_a_moving_mean", 
      "attrs": {
        "__init__": "[\"zero\", {}]", 
        "eps": "0.0001", 
        "fix_gamma": "False", 
        "use_global_stats": "False"
      }, 
      "inputs": []
    }, 
    {
      "op": "null", 
      "name": "bn_conv01_02_a_moving_var", 
      "attrs": {
        "__init__": "[\"one\", {}]", 
        "eps": "0.0001", 
        "fix_gamma": "False", 
        "use_global_stats": "False"
      }, 
      "inputs": []
    }, 
    {
      "op": "BatchNorm", 
      "name": "bn_conv01_02_a", 
      "attrs": {
        "eps": "0.0001", 
        "fix_gamma": "False", 
        "use_global_stats": "False"
      }, 
      "inputs": [[28, 0, 0], [29, 0, 0], [30, 0, 0], [31, 0, 1], [32, 0, 1]]
    }, 
    {
      "op": "Activation", 
      "name": "relu01_02_a", 
      "attrs": {"act_type": "relu"}, 
      "inputs": [[33, 0, 0]]
    }, 
    {
      "op": "null", 
      "name": "conv01_02_a_weight", 
      "attrs": {
        "dilate": "(1, 1)", 
        "kernel": "(3, 3)", 
        "layout": "NCHW", 
        "no_bias": "False", 
        "num_filter": "64", 
        "num_group": "1", 
        "pad": "(1, 1)", 
        "stride": "(1, 1)"
      }, 
      "inputs": []
    }, 
    {
      "op": "null", 
      "name": "conv01_02_a_bias", 
      "attrs": {
        "dilate": "(1, 1)", 
        "kernel": "(3, 3)", 
        "layout": "NCHW", 
        "no_bias": "False", 
        "num_filter": "64", 
        "num_group": "1", 
        "pad": "(1, 1)", 
        "stride": "(1, 1)"
      }, 
      "inputs": []
    }, 
    {
      "op": "Convolution", 
      "name": "conv01_02_a", 
      "attrs": {
        "dilate": "(1, 1)", 
        "kernel": "(3, 3)", 
        "layout": "NCHW", 
        "no_bias": "False", 
        "num_filter": "64", 
        "num_group": "1", 
        "pad": "(1, 1)", 
        "stride": "(1, 1)"
      }, 
      "inputs": [[34, 0, 0], [35, 0, 0], [36, 0, 0]]
    }, 
    {
      "op": "null", 
      "name": "bn_conv01_02_b_gamma", 
      "attrs": {
        "eps": "0.0001", 
        "fix_gamma": "False", 
        "use_global_stats": "False"
      }, 
      "inputs": []
    }, 
    {
      "op": "null", 
      "name": "bn_conv01_02_b_beta", 
      "attrs": {
        "eps": "0.0001", 
        "fix_gamma": "False", 
        "use_global_stats": "False"
      }, 
      "inputs": []
    }, 
    {
      "op": "null", 
      "name": "bn_conv01_02_b_moving_mean", 
      "attrs": {
        "__init__": "[\"zero\", {}]", 
        "eps": "0.0001", 
        "fix_gamma": "False", 
        "use_global_stats": "False"
      }, 
      "inputs": []
    }, 
    {
      "op": "null", 
      "name": "bn_conv01_02_b_moving_var", 
      "attrs": {
        "__init__": "[\"one\", {}]", 
        "eps": "0.0001", 
        "fix_gamma": "False", 
        "use_global_stats": "False"
      }, 
      "inputs": []
    }, 
    {
      "op": "BatchNorm", 
      "name": "bn_conv01_02_b", 
      "attrs": {
        "eps": "0.0001", 
        "fix_gamma": "False", 
        "use_global_stats": "False"
      }, 
      "inputs": [[37, 0, 0], [38, 0, 0], [39, 0, 0], [40, 0, 1], [41, 0, 1]]
    }, 
    {
      "op": "Activation", 
      "name": "relu01_02_b", 
      "attrs": {"act_type": "relu"}, 
      "inputs": [[42, 0, 0]]
    }, 
    {
      "op": "null", 
      "name": "conv01_02_b_weight", 
      "attrs": {
        "dilate": "(1, 1)", 
        "kernel": "(3, 3)", 
        "layout": "NCHW", 
        "no_bias": "False", 
        "num_filter": "64", 
        "num_group": "1", 
        "pad": "(1, 1)", 
        "stride": "(1, 1)"
      }, 
      "inputs": []
    }, 
    {
      "op": "null", 
      "name": "conv01_02_b_bias", 
      "attrs": {
        "dilate": "(1, 1)", 
        "kernel": "(3, 3)", 
        "layout": "NCHW", 
        "no_bias": "False", 
        "num_filter": "64", 
        "num_group": "1", 
        "pad": "(1, 1)", 
        "stride": "(1, 1)"
      }, 
      "inputs": []
    }, 
    {
      "op": "Convolution", 
      "name": "conv01_02_b", 
      "attrs": {
        "dilate": "(1, 1)", 
        "kernel": "(3, 3)", 
        "layout": "NCHW", 
        "no_bias": "False", 
        "num_filter": "64", 
        "num_group": "1", 
        "pad": "(1, 1)", 
        "stride": "(1, 1)"
      }, 
      "inputs": [[43, 0, 0], [44, 0, 0], [45, 0, 0]]
    }, 
    {
      "op": "broadcast_add", 
      "name": "eltwise01_02", 
      "inputs": [[28, 0, 0], [46, 0, 0]]
    }, 
    {
      "op": "null", 
      "name": "bn_conv01_03_a_gamma", 
      "attrs": {
        "eps": "0.0001", 
        "fix_gamma": "False", 
        "use_global_stats": "False"
      }, 
      "inputs": []
    }, 
    {
      "op": "null", 
      "name": "bn_conv01_03_a_beta", 
      "attrs": {
        "eps": "0.0001", 
        "fix_gamma": "False", 
        "use_global_stats": "False"
      }, 
      "inputs": []
    }, 
    {
      "op": "null", 
      "name": "bn_conv01_03_a_moving_mean", 
      "attrs": {
        "__init__": "[\"zero\", {}]", 
        "eps": "0.0001", 
        "fix_gamma": "False", 
        "use_global_stats": "False"
      }, 
      "inputs": []
    }, 
    {
      "op": "null", 
      "name": "bn_conv01_03_a_moving_var", 
      "attrs": {
        "__init__": "[\"one\", {}]", 
        "eps": "0.0001", 
        "fix_gamma": "False", 
        "use_global_stats": "False"
      }, 
      "inputs": []
    }, 
    {
      "op": "BatchNorm", 
      "name": "bn_conv01_03_a", 
      "attrs": {
        "eps": "0.0001", 
        "fix_gamma": "False", 
        "use_global_stats": "False"
      }, 
      "inputs": [[47, 0, 0], [48, 0, 0], [49, 0, 0], [50, 0, 1], [51, 0, 1]]
    }, 
    {
      "op": "Activation", 
      "name": "relu01_03_a", 
      "attrs": {"act_type": "relu"}, 
      "inputs": [[52, 0, 0]]
    }, 
    {
      "op": "null", 
      "name": "conv01_03_a_weight", 
      "attrs": {
        "dilate": "(1, 1)", 
        "kernel": "(3, 3)", 
        "layout": "NCHW", 
        "no_bias": "False", 
        "num_filter": "64", 
        "num_group": "1", 
        "pad": "(1, 1)", 
        "stride": "(1, 1)"
      }, 
      "inputs": []
    }, 
    {
      "op": "null", 
      "name": "conv01_03_a_bias", 
      "attrs": {
        "dilate": "(1, 1)", 
        "kernel": "(3, 3)", 
        "layout": "NCHW", 
        "no_bias": "False", 
        "num_filter": "64", 
        "num_group": "1", 
        "pad": "(1, 1)", 
        "stride": "(1, 1)"
      }, 
      "inputs": []
    }, 
    {
      "op": "Convolution", 
      "name": "conv01_03_a", 
      "attrs": {
        "dilate": "(1, 1)", 
        "kernel": "(3, 3)", 
        "layout": "NCHW", 
        "no_bias": "False", 
        "num_filter": "64", 
        "num_group": "1", 
        "pad": "(1, 1)", 
        "stride": "(1, 1)"
      }, 
      "inputs": [[53, 0, 0], [54, 0, 0], [55, 0, 0]]
    }, 
    {
      "op": "null", 
      "name": "bn_conv01_03_b_gamma", 
      "attrs": {
        "eps": "0.0001", 
        "fix_gamma": "False", 
        "use_global_stats": "False"
      }, 
      "inputs": []
    }, 
    {
      "op": "null", 
      "name": "bn_conv01_03_b_beta", 
      "attrs": {
        "eps": "0.0001", 
        "fix_gamma": "False", 
        "use_global_stats": "False"
      }, 
      "inputs": []
    }, 
    {
      "op": "null", 
      "name": "bn_conv01_03_b_moving_mean", 
      "attrs": {
        "__init__": "[\"zero\", {}]", 
        "eps": "0.0001", 
        "fix_gamma": "False", 
        "use_global_stats": "False"
      }, 
      "inputs": []
    }, 
    {
      "op": "null", 
      "name": "bn_conv01_03_b_moving_var", 
      "attrs": {
        "__init__": "[\"one\", {}]", 
        "eps": "0.0001", 
        "fix_gamma": "False", 
        "use_global_stats": "False"
      }, 
      "inputs": []
    }, 
    {
      "op": "BatchNorm", 
      "name": "bn_conv01_03_b", 
      "attrs": {
        "eps": "0.0001", 
        "fix_gamma": "False", 
        "use_global_stats": "False"
      }, 
      "inputs": [[56, 0, 0], [57, 0, 0], [58, 0, 0], [59, 0, 1], [60, 0, 1]]
    }, 
    {
      "op": "Activation", 
      "name": "relu01_03_b", 
      "attrs": {"act_type": "relu"}, 
      "inputs": [[61, 0, 0]]
    }, 
    {
      "op": "null", 
      "name": "conv01_03_b_weight", 
      "attrs": {
        "dilate": "(1, 1)", 
        "kernel": "(3, 3)", 
        "layout": "NCHW", 
        "no_bias": "False", 
        "num_filter": "64", 
        "num_group": "1", 
        "pad": "(1, 1)", 
        "stride": "(1, 1)"
      }, 
      "inputs": []
    }, 
    {
      "op": "null", 
      "name": "conv01_03_b_bias", 
      "attrs": {
        "dilate": "(1, 1)", 
        "kernel": "(3, 3)", 
        "layout": "NCHW", 
        "no_bias": "False", 
        "num_filter": "64", 
        "num_group": "1", 
        "pad": "(1, 1)", 
        "stride": "(1, 1)"
      }, 
      "inputs": []
    }, 
    {
      "op": "Convolution", 
      "name": "conv01_03_b", 
      "attrs": {
        "dilate": "(1, 1)", 
        "kernel": "(3, 3)", 
        "layout": "NCHW", 
        "no_bias": "False", 
        "num_filter": "64", 
        "num_group": "1", 
        "pad": "(1, 1)", 
        "stride": "(1, 1)"
      }, 
      "inputs": [[62, 0, 0], [63, 0, 0], [64, 0, 0]]
    }, 
    {
      "op": "broadcast_add", 
      "name": "eltwise01_03", 
      "inputs": [[47, 0, 0], [65, 0, 0]]
    }, 
    {
      "op": "null", 
      "name": "bn_conv01_04_a_gamma", 
      "attrs": {
        "eps": "0.0001", 
        "fix_gamma": "False", 
        "use_global_stats": "False"
      }, 
      "inputs": []
    }, 
    {
      "op": "null", 
      "name": "bn_conv01_04_a_beta", 
      "attrs": {
        "eps": "0.0001", 
        "fix_gamma": "False", 
        "use_global_stats": "False"
      }, 
      "inputs": []
    }, 
    {
      "op": "null", 
      "name": "bn_conv01_04_a_moving_mean", 
      "attrs": {
        "__init__": "[\"zero\", {}]", 
        "eps": "0.0001", 
        "fix_gamma": "False", 
        "use_global_stats": "False"
      }, 
      "inputs": []
    }, 
    {
      "op": "null", 
      "name": "bn_conv01_04_a_moving_var", 
      "attrs": {
        "__init__": "[\"one\", {}]", 
        "eps": "0.0001", 
        "fix_gamma": "False", 
        "use_global_stats": "False"
      }, 
      "inputs": []
    }, 
    {
      "op": "BatchNorm", 
      "name": "bn_conv01_04_a", 
      "attrs": {
        "eps": "0.0001", 
        "fix_gamma": "False", 
        "use_global_stats": "False"
      }, 
      "inputs": [[66, 0, 0], [67, 0, 0], [68, 0, 0], [69, 0, 1], [70, 0, 1]]
    }, 
    {
      "op": "Activation", 
      "name": "relu01_04_a", 
      "attrs": {"act_type": "relu"}, 
      "inputs": [[71, 0, 0]]
    }, 
    {
      "op": "null", 
      "name": "conv01_04_a_weight", 
      "attrs": {
        "dilate": "(1, 1)", 
        "kernel": "(3, 3)", 
        "layout": "NCHW", 
        "no_bias": "False", 
        "num_filter": "64", 
        "num_group": "1", 
        "pad": "(1, 1)", 
        "stride": "(1, 1)"
      }, 
      "inputs": []
    }, 
    {
      "op": "null", 
      "name": "conv01_04_a_bias", 
      "attrs": {
        "dilate": "(1, 1)", 
        "kernel": "(3, 3)", 
        "layout": "NCHW", 
        "no_bias": "False", 
        "num_filter": "64", 
        "num_group": "1", 
        "pad": "(1, 1)", 
        "stride": "(1, 1)"
      }, 
      "inputs": []
    }, 
    {
      "op": "Convolution", 
      "name": "conv01_04_a", 
      "attrs": {
        "dilate": "(1, 1)", 
        "kernel": "(3, 3)", 
        "layout": "NCHW", 
        "no_bias": "False", 
        "num_filter": "64", 
        "num_group": "1", 
        "pad": "(1, 1)", 
        "stride": "(1, 1)"
      }, 
      "inputs": [[72, 0, 0], [73, 0, 0], [74, 0, 0]]
    }, 
    {
      "op": "null", 
      "name": "bn_conv01_04_b_gamma", 
      "attrs": {
        "eps": "0.0001", 
        "fix_gamma": "False", 
        "use_global_stats": "False"
      }, 
      "inputs": []
    }, 
    {
      "op": "null", 
      "name": "bn_conv01_04_b_beta", 
      "attrs": {
        "eps": "0.0001", 
        "fix_gamma": "False", 
        "use_global_stats": "False"
      }, 
      "inputs": []
    }, 
    {
      "op": "null", 
      "name": "bn_conv01_04_b_moving_mean", 
      "attrs": {
        "__init__": "[\"zero\", {}]", 
        "eps": "0.0001", 
        "fix_gamma": "False", 
        "use_global_stats": "False"
      }, 
      "inputs": []
    }, 
    {
      "op": "null", 
      "name": "bn_conv01_04_b_moving_var", 
      "attrs": {
        "__init__": "[\"one\", {}]", 
        "eps": "0.0001", 
        "fix_gamma": "False", 
        "use_global_stats": "False"
      }, 
      "inputs": []
    }, 
    {
      "op": "BatchNorm", 
      "name": "bn_conv01_04_b", 
      "attrs": {
        "eps": "0.0001", 
        "fix_gamma": "False", 
        "use_global_stats": "False"
      }, 
      "inputs": [[75, 0, 0], [76, 0, 0], [77, 0, 0], [78, 0, 1], [79, 0, 1]]
    }, 
    {
      "op": "Activation", 
      "name": "relu01_04_b", 
      "attrs": {"act_type": "relu"}, 
      "inputs": [[80, 0, 0]]
    }, 
    {
      "op": "null", 
      "name": "conv01_04_b_weight", 
      "attrs": {
        "dilate": "(1, 1)", 
        "kernel": "(3, 3)", 
        "layout": "NCHW", 
        "no_bias": "False", 
        "num_filter": "64", 
        "num_group": "1", 
        "pad": "(1, 1)", 
        "stride": "(1, 1)"
      }, 
      "inputs": []
    }, 
    {
      "op": "null", 
      "name": "conv01_04_b_bias", 
      "attrs": {
        "dilate": "(1, 1)", 
        "kernel": "(3, 3)", 
        "layout": "NCHW", 
        "no_bias": "False", 
        "num_filter": "64", 
        "num_group": "1", 
        "pad": "(1, 1)", 
        "stride": "(1, 1)"
      }, 
      "inputs": []
    }, 
    {
      "op": "Convolution", 
      "name": "conv01_04_b", 
      "attrs": {
        "dilate": "(1, 1)", 
        "kernel": "(3, 3)", 
        "layout": "NCHW", 
        "no_bias": "False", 
        "num_filter": "64", 
        "num_group": "1", 
        "pad": "(1, 1)", 
        "stride": "(1, 1)"
      }, 
      "inputs": [[81, 0, 0], [82, 0, 0], [83, 0, 0]]
    }, 
    {
      "op": "broadcast_add", 
      "name": "eltwise01_04", 
      "inputs": [[66, 0, 0], [84, 0, 0]]
    }, 
    {
      "op": "null", 
      "name": "bn_conv01_05_a_gamma", 
      "attrs": {
        "eps": "0.0001", 
        "fix_gamma": "False", 
        "use_global_stats": "False"
      }, 
      "inputs": []
    }, 
    {
      "op": "null", 
      "name": "bn_conv01_05_a_beta", 
      "attrs": {
        "eps": "0.0001", 
        "fix_gamma": "False", 
        "use_global_stats": "False"
      }, 
      "inputs": []
    }, 
    {
      "op": "null", 
      "name": "bn_conv01_05_a_moving_mean", 
      "attrs": {
        "__init__": "[\"zero\", {}]", 
        "eps": "0.0001", 
        "fix_gamma": "False", 
        "use_global_stats": "False"
      }, 
      "inputs": []
    }, 
    {
      "op": "null", 
      "name": "bn_conv01_05_a_moving_var", 
      "attrs": {
        "__init__": "[\"one\", {}]", 
        "eps": "0.0001", 
        "fix_gamma": "False", 
        "use_global_stats": "False"
      }, 
      "inputs": []
    }, 
    {
      "op": "BatchNorm", 
      "name": "bn_conv01_05_a", 
      "attrs": {
        "eps": "0.0001", 
        "fix_gamma": "False", 
        "use_global_stats": "False"
      }, 
      "inputs": [[85, 0, 0], [86, 0, 0], [87, 0, 0], [88, 0, 1], [89, 0, 1]]
    }, 
    {
      "op": "Activation", 
      "name": "relu01_05_a", 
      "attrs": {"act_type": "relu"}, 
      "inputs": [[90, 0, 0]]
    }, 
    {
      "op": "null", 
      "name": "conv01_05_a_weight", 
      "attrs": {
        "dilate": "(1, 1)", 
        "kernel": "(3, 3)", 
        "layout": "NCHW", 
        "no_bias": "False", 
        "num_filter": "64", 
        "num_group": "1", 
        "pad": "(1, 1)", 
        "stride": "(1, 1)"
      }, 
      "inputs": []
    }, 
    {
      "op": "null", 
      "name": "conv01_05_a_bias", 
      "attrs": {
        "dilate": "(1, 1)", 
        "kernel": "(3, 3)", 
        "layout": "NCHW", 
        "no_bias": "False", 
        "num_filter": "64", 
        "num_group": "1", 
        "pad": "(1, 1)", 
        "stride": "(1, 1)"
      }, 
      "inputs": []
    }, 
    {
      "op": "Convolution", 
      "name": "conv01_05_a", 
      "attrs": {
        "dilate": "(1, 1)", 
        "kernel": "(3, 3)", 
        "layout": "NCHW", 
        "no_bias": "False", 
        "num_filter": "64", 
        "num_group": "1", 
        "pad": "(1, 1)", 
        "stride": "(1, 1)"
      }, 
      "inputs": [[91, 0, 0], [92, 0, 0], [93, 0, 0]]
    }, 
    {
      "op": "null", 
      "name": "bn_conv01_05_b_gamma", 
      "attrs": {
        "eps": "0.0001", 
        "fix_gamma": "False", 
        "use_global_stats": "False"
      }, 
      "inputs": []
    }, 
    {
      "op": "null", 
      "name": "bn_conv01_05_b_beta", 
      "attrs": {
        "eps": "0.0001", 
        "fix_gamma": "False", 
        "use_global_stats": "False"
      }, 
      "inputs": []
    }, 
    {
      "op": "null", 
      "name": "bn_conv01_05_b_moving_mean", 
      "attrs": {
        "__init__": "[\"zero\", {}]", 
        "eps": "0.0001", 
        "fix_gamma": "False", 
        "use_global_stats": "False"
      }, 
      "inputs": []
    }, 
    {
      "op": "null", 
      "name": "bn_conv01_05_b_moving_var", 
      "attrs": {
        "__init__": "[\"one\", {}]", 
        "eps": "0.0001", 
        "fix_gamma": "False", 
        "use_global_stats": "False"
      }, 
      "inputs": []
    }, 
    {
      "op": "BatchNorm", 
      "name": "bn_conv01_05_b", 
      "attrs": {
        "eps": "0.0001", 
        "fix_gamma": "False", 
        "use_global_stats": "False"
      }, 
      "inputs": [[94, 0, 0], [95, 0, 0], [96, 0, 0], [97, 0, 1], [98, 0, 1]]
    }, 
    {
      "op": "Activation", 
      "name": "relu01_05_b", 
      "attrs": {"act_type": "relu"}, 
      "inputs": [[99, 0, 0]]
    }, 
    {
      "op": "null", 
      "name": "conv01_05_b_weight", 
      "attrs": {
        "dilate": "(1, 1)", 
        "kernel": "(3, 3)", 
        "layout": "NCHW", 
        "no_bias": "False", 
        "num_filter": "64", 
        "num_group": "1", 
        "pad": "(1, 1)", 
        "stride": "(1, 1)"
      }, 
      "inputs": []
    }, 
    {
      "op": "null", 
      "name": "conv01_05_b_bias", 
      "attrs": {
        "dilate": "(1, 1)", 
        "kernel": "(3, 3)", 
        "layout": "NCHW", 
        "no_bias": "False", 
        "num_filter": "64", 
        "num_group": "1", 
        "pad": "(1, 1)", 
        "stride": "(1, 1)"
      }, 
      "inputs": []
    }, 
    {
      "op": "Convolution", 
      "name": "conv01_05_b", 
      "attrs": {
        "dilate": "(1, 1)", 
        "kernel": "(3, 3)", 
        "layout": "NCHW", 
        "no_bias": "False", 
        "num_filter": "64", 
        "num_group": "1", 
        "pad": "(1, 1)", 
        "stride": "(1, 1)"
      }, 
      "inputs": [[100, 0, 0], [101, 0, 0], [102, 0, 0]]
    }, 
    {
      "op": "broadcast_add", 
      "name": "eltwise01_05", 
      "inputs": [[85, 0, 0], [103, 0, 0]]
    }, 
    {
      "op": "null", 
      "name": "bn_conv01_06_a_gamma", 
      "attrs": {
        "eps": "0.0001", 
        "fix_gamma": "False", 
        "use_global_stats": "False"
      }, 
      "inputs": []
    }, 
    {
      "op": "null", 
      "name": "bn_conv01_06_a_beta", 
      "attrs": {
        "eps": "0.0001", 
        "fix_gamma": "False", 
        "use_global_stats": "False"
      }, 
      "inputs": []
    }, 
    {
      "op": "null", 
      "name": "bn_conv01_06_a_moving_mean", 
      "attrs": {
        "__init__": "[\"zero\", {}]", 
        "eps": "0.0001", 
        "fix_gamma": "False", 
        "use_global_stats": "False"
      }, 
      "inputs": []
    }, 
    {
      "op": "null", 
      "name": "bn_conv01_06_a_moving_var", 
      "attrs": {
        "__init__": "[\"one\", {}]", 
        "eps": "0.0001", 
        "fix_gamma": "False", 
        "use_global_stats": "False"
      }, 
      "inputs": []
    }, 
    {
      "op": "BatchNorm", 
      "name": "bn_conv01_06_a", 
      "attrs": {
        "eps": "0.0001", 
        "fix_gamma": "False", 
        "use_global_stats": "False"
      }, 
      "inputs": [[104, 0, 0], [105, 0, 0], [106, 0, 0], [107, 0, 1], [108, 0, 1]]
    }, 
    {
      "op": "Activation", 
      "name": "relu01_06_a", 
      "attrs": {"act_type": "relu"}, 
      "inputs": [[109, 0, 0]]
    }, 
    {
      "op": "null", 
      "name": "conv01_06_a_weight", 
      "attrs": {
        "dilate": "(1, 1)", 
        "kernel": "(3, 3)", 
        "layout": "NCHW", 
        "no_bias": "False", 
        "num_filter": "64", 
        "num_group": "1", 
        "pad": "(1, 1)", 
        "stride": "(1, 1)"
      }, 
      "inputs": []
    }, 
    {
      "op": "null", 
      "name": "conv01_06_a_bias", 
      "attrs": {
        "dilate": "(1, 1)", 
        "kernel": "(3, 3)", 
        "layout": "NCHW", 
        "no_bias": "False", 
        "num_filter": "64", 
        "num_group": "1", 
        "pad": "(1, 1)", 
        "stride": "(1, 1)"
      }, 
      "inputs": []
    }, 
    {
      "op": "Convolution", 
      "name": "conv01_06_a", 
      "attrs": {
        "dilate": "(1, 1)", 
        "kernel": "(3, 3)", 
        "layout": "NCHW", 
        "no_bias": "False", 
        "num_filter": "64", 
        "num_group": "1", 
        "pad": "(1, 1)", 
        "stride": "(1, 1)"
      }, 
      "inputs": [[110, 0, 0], [111, 0, 0], [112, 0, 0]]
    }, 
    {
      "op": "null", 
      "name": "bn_conv01_06_b_gamma", 
      "attrs": {
        "eps": "0.0001", 
        "fix_gamma": "False", 
        "use_global_stats": "False"
      }, 
      "inputs": []
    }, 
    {
      "op": "null", 
      "name": "bn_conv01_06_b_beta", 
      "attrs": {
        "eps": "0.0001", 
        "fix_gamma": "False", 
        "use_global_stats": "False"
      }, 
      "inputs": []
    }, 
    {
      "op": "null", 
      "name": "bn_conv01_06_b_moving_mean", 
      "attrs": {
        "__init__": "[\"zero\", {}]", 
        "eps": "0.0001", 
        "fix_gamma": "False", 
        "use_global_stats": "False"
      }, 
      "inputs": []
    }, 
    {
      "op": "null", 
      "name": "bn_conv01_06_b_moving_var", 
      "attrs": {
        "__init__": "[\"one\", {}]", 
        "eps": "0.0001", 
        "fix_gamma": "False", 
        "use_global_stats": "False"
      }, 
      "inputs": []
    }, 
    {
      "op": "BatchNorm", 
      "name": "bn_conv01_06_b", 
      "attrs": {
        "eps": "0.0001", 
        "fix_gamma": "False", 
        "use_global_stats": "False"
      }, 
      "inputs": [[113, 0, 0], [114, 0, 0], [115, 0, 0], [116, 0, 1], [117, 0, 1]]
    }, 
    {
      "op": "Activation", 
      "name": "relu01_06_b", 
      "attrs": {"act_type": "relu"}, 
      "inputs": [[118, 0, 0]]
    }, 
    {
      "op": "null", 
      "name": "conv01_06_b_weight", 
      "attrs": {
        "dilate": "(1, 1)", 
        "kernel": "(3, 3)", 
        "layout": "NCHW", 
        "no_bias": "False", 
        "num_filter": "64", 
        "num_group": "1", 
        "pad": "(1, 1)", 
        "stride": "(1, 1)"
      }, 
      "inputs": []
    }, 
    {
      "op": "null", 
      "name": "conv01_06_b_bias", 
      "attrs": {
        "dilate": "(1, 1)", 
        "kernel": "(3, 3)", 
        "layout": "NCHW", 
        "no_bias": "False", 
        "num_filter": "64", 
        "num_group": "1", 
        "pad": "(1, 1)", 
        "stride": "(1, 1)"
      }, 
      "inputs": []
    }, 
    {
      "op": "Convolution", 
      "name": "conv01_06_b", 
      "attrs": {
        "dilate": "(1, 1)", 
        "kernel": "(3, 3)", 
        "layout": "NCHW", 
        "no_bias": "False", 
        "num_filter": "64", 
        "num_group": "1", 
        "pad": "(1, 1)", 
        "stride": "(1, 1)"
      }, 
      "inputs": [[119, 0, 0], [120, 0, 0], [121, 0, 0]]
    }, 
    {
      "op": "broadcast_add", 
      "name": "eltwise01_06", 
      "inputs": [[104, 0, 0], [122, 0, 0]]
    }, 
    {
      "op": "Concat", 
      "name": "concat01", 
      "attrs": {"num_args": "7"}, 
      "inputs": [[9, 0, 0], [28, 0, 0], [47, 0, 0], [66, 0, 0], [85, 0, 0], [104, 0, 0], [123, 0, 0]]
    }, 
    {
      "op": "null", 
      "name": "bn_conv_transition_01_gamma", 
      "attrs": {
        "eps": "0.0001", 
        "fix_gamma": "False", 
        "use_global_stats": "False"
      }, 
      "inputs": []
    }, 
    {
      "op": "null", 
      "name": "bn_conv_transition_01_beta", 
      "attrs": {
        "eps": "0.0001", 
        "fix_gamma": "False", 
        "use_global_stats": "False"
      }, 
      "inputs": []
    }, 
    {
      "op": "null", 
      "name": "bn_conv_transition_01_moving_mean", 
      "attrs": {
        "__init__": "[\"zero\", {}]", 
        "eps": "0.0001", 
        "fix_gamma": "False", 
        "use_global_stats": "False"
      }, 
      "inputs": []
    }, 
    {
      "op": "null", 
      "name": "bn_conv_transition_01_moving_var", 
      "attrs": {
        "__init__": "[\"one\", {}]", 
        "eps": "0.0001", 
        "fix_gamma": "False", 
        "use_global_stats": "False"
      }, 
      "inputs": []
    }, 
    {
      "op": "BatchNorm", 
      "name": "bn_conv_transition_01", 
      "attrs": {
        "eps": "0.0001", 
        "fix_gamma": "False", 
        "use_global_stats": "False"
      }, 
      "inputs": [[124, 0, 0], [125, 0, 0], [126, 0, 0], [127, 0, 1], [128, 0, 1]]
    }, 
    {
      "op": "Activation", 
      "name": "relu_transition_01", 
      "attrs": {"act_type": "relu"}, 
      "inputs": [[129, 0, 0]]
    }, 
    {
      "op": "null", 
      "name": "conv_transition_01_weight", 
      "attrs": {
        "dilate": "(1, 1)", 
        "kernel": "(1, 1)", 
        "layout": "NCHW", 
        "no_bias": "False", 
        "num_filter": "64", 
        "num_group": "1", 
        "pad": "(0, 0)", 
        "stride": "(1, 1)"
      }, 
      "inputs": []
    }, 
    {
      "op": "null", 
      "name": "conv_transition_01_bias", 
      "attrs": {
        "dilate": "(1, 1)", 
        "kernel": "(1, 1)", 
        "layout": "NCHW", 
        "no_bias": "False", 
        "num_filter": "64", 
        "num_group": "1", 
        "pad": "(0, 0)", 
        "stride": "(1, 1)"
      }, 
      "inputs": []
    }, 
    {
      "op": "Convolution", 
      "name": "conv_transition_01", 
      "attrs": {
        "dilate": "(1, 1)", 
        "kernel": "(1, 1)", 
        "layout": "NCHW", 
        "no_bias": "False", 
        "num_filter": "64", 
        "num_group": "1", 
        "pad": "(0, 0)", 
        "stride": "(1, 1)"
      }, 
      "inputs": [[130, 0, 0], [131, 0, 0], [132, 0, 0]]
    }, 
    {
      "op": "null", 
      "name": "bn_conv_end_01_gamma", 
      "attrs": {
        "eps": "0.0001", 
        "fix_gamma": "False", 
        "use_global_stats": "False"
      }, 
      "inputs": []
    }, 
    {
      "op": "null", 
      "name": "bn_conv_end_01_beta", 
      "attrs": {
        "eps": "0.0001", 
        "fix_gamma": "False", 
        "use_global_stats": "False"
      }, 
      "inputs": []
    }, 
    {
      "op": "null", 
      "name": "bn_conv_end_01_moving_mean", 
      "attrs": {
        "__init__": "[\"zero\", {}]", 
        "eps": "0.0001", 
        "fix_gamma": "False", 
        "use_global_stats": "False"
      }, 
      "inputs": []
    }, 
    {
      "op": "null", 
      "name": "bn_conv_end_01_moving_var", 
      "attrs": {
        "__init__": "[\"one\", {}]", 
        "eps": "0.0001", 
        "fix_gamma": "False", 
        "use_global_stats": "False"
      }, 
      "inputs": []
    }, 
    {
      "op": "BatchNorm", 
      "name": "bn_conv_end_01", 
      "attrs": {
        "eps": "0.0001", 
        "fix_gamma": "False", 
        "use_global_stats": "False"
      }, 
      "inputs": [[133, 0, 0], [134, 0, 0], [135, 0, 0], [136, 0, 1], [137, 0, 1]]
    }, 
    {
      "op": "Activation", 
      "name": "relu_end_01", 
      "attrs": {"act_type": "relu"}, 
      "inputs": [[138, 0, 0]]
    }, 
    {
      "op": "null", 
      "name": "conv_end_01_weight", 
      "attrs": {
        "dilate": "(1, 1)", 
        "kernel": "(3, 3)", 
        "layout": "NCHW", 
        "no_bias": "False", 
        "num_filter": "1", 
        "num_group": "1", 
        "pad": "(1, 1)", 
        "stride": "(1, 1)"
      }, 
      "inputs": []
    }, 
    {
      "op": "null", 
      "name": "conv_end_01_bias", 
      "attrs": {
        "dilate": "(1, 1)", 
        "kernel": "(3, 3)", 
        "layout": "NCHW", 
        "no_bias": "False", 
        "num_filter": "1", 
        "num_group": "1", 
        "pad": "(1, 1)", 
        "stride": "(1, 1)"
      }, 
      "inputs": []
    }, 
    {
      "op": "Convolution", 
      "name": "conv_end_01", 
      "attrs": {
        "dilate": "(1, 1)", 
        "kernel": "(3, 3)", 
        "layout": "NCHW", 
        "no_bias": "False", 
        "num_filter": "1", 
        "num_group": "1", 
        "pad": "(1, 1)", 
        "stride": "(1, 1)"
      }, 
      "inputs": [[139, 0, 0], [140, 0, 0], [141, 0, 0]]
    }, 
    {
      "op": "broadcast_add", 
      "name": "HR_recovery_01", 
      "inputs": [[0, 0, 0], [142, 0, 0]]
    }, 
    {
      "op": "_mul_scalar", 
      "name": "_mulscalar0", 
      "attrs": {"scalar": "-0.003389734774827957"}, 
      "inputs": [[143, 0, 0]]
    }, 
    {
      "op": "null", 
      "name": "bn_conv02_01_a_gamma", 
      "attrs": {
        "eps": "0.0001", 
        "fix_gamma": "False", 
        "use_global_stats": "False"
      }, 
      "inputs": []
    }, 
    {
      "op": "null", 
      "name": "bn_conv02_01_a_beta", 
      "attrs": {
        "eps": "0.0001", 
        "fix_gamma": "False", 
        "use_global_stats": "False"
      }, 
      "inputs": []
    }, 
    {
      "op": "null", 
      "name": "bn_conv02_01_a_moving_mean", 
      "attrs": {
        "__init__": "[\"zero\", {}]", 
        "eps": "0.0001", 
        "fix_gamma": "False", 
        "use_global_stats": "False"
      }, 
      "inputs": []
    }, 
    {
      "op": "null", 
      "name": "bn_conv02_01_a_moving_var", 
      "attrs": {
        "__init__": "[\"one\", {}]", 
        "eps": "0.0001", 
        "fix_gamma": "False", 
        "use_global_stats": "False"
      }, 
      "inputs": []
    }, 
    {
      "op": "BatchNorm", 
      "name": "bn_conv02_01_a", 
      "attrs": {
        "eps": "0.0001", 
        "fix_gamma": "False", 
        "use_global_stats": "False"
      }, 
      "inputs": [[133, 0, 0], [145, 0, 0], [146, 0, 0], [147, 0, 1], [148, 0, 1]]
    }, 
    {
      "op": "Activation", 
      "name": "relu02_01_a", 
      "attrs": {"act_type": "relu"}, 
      "inputs": [[149, 0, 0]]
    }, 
    {
      "op": "null", 
      "name": "conv02_01_a_weight", 
      "attrs": {
        "dilate": "(1, 1)", 
        "kernel": "(3, 3)", 
        "layout": "NCHW", 
        "no_bias": "False", 
        "num_filter": "64", 
        "num_group": "1", 
        "pad": "(1, 1)", 
        "stride": "(1, 1)"
      }, 
      "inputs": []
    }, 
    {
      "op": "null", 
      "name": "conv02_01_a_bias", 
      "attrs": {
        "dilate": "(1, 1)", 
        "kernel": "(3, 3)", 
        "layout": "NCHW", 
        "no_bias": "False", 
        "num_filter": "64", 
        "num_group": "1", 
        "pad": "(1, 1)", 
        "stride": "(1, 1)"
      }, 
      "inputs": []
    }, 
    {
      "op": "Convolution", 
      "name": "conv02_01_a", 
      "attrs": {
        "dilate": "(1, 1)", 
        "kernel": "(3, 3)", 
        "layout": "NCHW", 
        "no_bias": "False", 
        "num_filter": "64", 
        "num_group": "1", 
        "pad": "(1, 1)", 
        "stride": "(1, 1)"
      }, 
      "inputs": [[150, 0, 0], [151, 0, 0], [152, 0, 0]]
    }, 
    {
      "op": "null", 
      "name": "bn_conv02_01_b_gamma", 
      "attrs": {
        "eps": "0.0001", 
        "fix_gamma": "False", 
        "use_global_stats": "False"
      }, 
      "inputs": []
    }, 
    {
      "op": "null", 
      "name": "bn_conv02_01_b_beta", 
      "attrs": {
        "eps": "0.0001", 
        "fix_gamma": "False", 
        "use_global_stats": "False"
      }, 
      "inputs": []
    }, 
    {
      "op": "null", 
      "name": "bn_conv02_01_b_moving_mean", 
      "attrs": {
        "__init__": "[\"zero\", {}]", 
        "eps": "0.0001", 
        "fix_gamma": "False", 
        "use_global_stats": "False"
      }, 
      "inputs": []
    }, 
    {
      "op": "null", 
      "name": "bn_conv02_01_b_moving_var", 
      "attrs": {
        "__init__": "[\"one\", {}]", 
        "eps": "0.0001", 
        "fix_gamma": "False", 
        "use_global_stats": "False"
      }, 
      "inputs": []
    }, 
    {
      "op": "BatchNorm", 
      "name": "bn_conv02_01_b", 
      "attrs": {
        "eps": "0.0001", 
        "fix_gamma": "False", 
        "use_global_stats": "False"
      }, 
      "inputs": [[153, 0, 0], [154, 0, 0], [155, 0, 0], [156, 0, 1], [157, 0, 1]]
    }, 
    {
      "op": "Activation", 
      "name": "relu02_01_b", 
      "attrs": {"act_type": "relu"}, 
      "inputs": [[158, 0, 0]]
    }, 
    {
      "op": "null", 
      "name": "conv02_01_b_weight", 
      "attrs": {
        "dilate": "(1, 1)", 
        "kernel": "(3, 3)", 
        "layout": "NCHW", 
        "no_bias": "False", 
        "num_filter": "64", 
        "num_group": "1", 
        "pad": "(1, 1)", 
        "stride": "(1, 1)"
      }, 
      "inputs": []
    }, 
    {
      "op": "null", 
      "name": "conv02_01_b_bias", 
      "attrs": {
        "dilate": "(1, 1)", 
        "kernel": "(3, 3)", 
        "layout": "NCHW", 
        "no_bias": "False", 
        "num_filter": "64", 
        "num_group": "1", 
        "pad": "(1, 1)", 
        "stride": "(1, 1)"
      }, 
      "inputs": []
    }, 
    {
      "op": "Convolution", 
      "name": "conv02_01_b", 
      "attrs": {
        "dilate": "(1, 1)", 
        "kernel": "(3, 3)", 
        "layout": "NCHW", 
        "no_bias": "False", 
        "num_filter": "64", 
        "num_group": "1", 
        "pad": "(1, 1)", 
        "stride": "(1, 1)"
      }, 
      "inputs": [[159, 0, 0], [160, 0, 0], [161, 0, 0]]
    }, 
    {
      "op": "broadcast_add", 
      "name": "eltwise02_01", 
      "inputs": [[133, 0, 0], [162, 0, 0]]
    }, 
    {
      "op": "null", 
      "name": "bn_conv02_02_a_gamma", 
      "attrs": {
        "eps": "0.0001", 
        "fix_gamma": "False", 
        "use_global_stats": "False"
      }, 
      "inputs": []
    }, 
    {
      "op": "null", 
      "name": "bn_conv02_02_a_beta", 
      "attrs": {
        "eps": "0.0001", 
        "fix_gamma": "False", 
        "use_global_stats": "False"
      }, 
      "inputs": []
    }, 
    {
      "op": "null", 
      "name": "bn_conv02_02_a_moving_mean", 
      "attrs": {
        "__init__": "[\"zero\", {}]", 
        "eps": "0.0001", 
        "fix_gamma": "False", 
        "use_global_stats": "False"
      }, 
      "inputs": []
    }, 
    {
      "op": "null", 
      "name": "bn_conv02_02_a_moving_var", 
      "attrs": {
        "__init__": "[\"one\", {}]", 
        "eps": "0.0001", 
        "fix_gamma": "False", 
        "use_global_stats": "False"
      }, 
      "inputs": []
    }, 
    {
      "op": "BatchNorm", 
      "name": "bn_conv02_02_a", 
      "attrs": {
        "eps": "0.0001", 
        "fix_gamma": "False", 
        "use_global_stats": "False"
      }, 
      "inputs": [[163, 0, 0], [164, 0, 0], [165, 0, 0], [166, 0, 1], [167, 0, 1]]
    }, 
    {
      "op": "Activation", 
      "name": "relu02_02_a", 
      "attrs": {"act_type": "relu"}, 
      "inputs": [[168, 0, 0]]
    }, 
    {
      "op": "null", 
      "name": "conv02_02_a_weight", 
      "attrs": {
        "dilate": "(1, 1)", 
        "kernel": "(3, 3)", 
        "layout": "NCHW", 
        "no_bias": "False", 
        "num_filter": "64", 
        "num_group": "1", 
        "pad": "(1, 1)", 
        "stride": "(1, 1)"
      }, 
      "inputs": []
    }, 
    {
      "op": "null", 
      "name": "conv02_02_a_bias", 
      "attrs": {
        "dilate": "(1, 1)", 
        "kernel": "(3, 3)", 
        "layout": "NCHW", 
        "no_bias": "False", 
        "num_filter": "64", 
        "num_group": "1", 
        "pad": "(1, 1)", 
        "stride": "(1, 1)"
      }, 
      "inputs": []
    }, 
    {
      "op": "Convolution", 
      "name": "conv02_02_a", 
      "attrs": {
        "dilate": "(1, 1)", 
        "kernel": "(3, 3)", 
        "layout": "NCHW", 
        "no_bias": "False", 
        "num_filter": "64", 
        "num_group": "1", 
        "pad": "(1, 1)", 
        "stride": "(1, 1)"
      }, 
      "inputs": [[169, 0, 0], [170, 0, 0], [171, 0, 0]]
    }, 
    {
      "op": "null", 
      "name": "bn_conv02_02_b_gamma", 
      "attrs": {
        "eps": "0.0001", 
        "fix_gamma": "False", 
        "use_global_stats": "False"
      }, 
      "inputs": []
    }, 
    {
      "op": "null", 
      "name": "bn_conv02_02_b_beta", 
      "attrs": {
        "eps": "0.0001", 
        "fix_gamma": "False", 
        "use_global_stats": "False"
      }, 
      "inputs": []
    }, 
    {
      "op": "null", 
      "name": "bn_conv02_02_b_moving_mean", 
      "attrs": {
        "__init__": "[\"zero\", {}]", 
        "eps": "0.0001", 
        "fix_gamma": "False", 
        "use_global_stats": "False"
      }, 
      "inputs": []
    }, 
    {
      "op": "null", 
      "name": "bn_conv02_02_b_moving_var", 
      "attrs": {
        "__init__": "[\"one\", {}]", 
        "eps": "0.0001", 
        "fix_gamma": "False", 
        "use_global_stats": "False"
      }, 
      "inputs": []
    }, 
    {
      "op": "BatchNorm", 
      "name": "bn_conv02_02_b", 
      "attrs": {
        "eps": "0.0001", 
        "fix_gamma": "False", 
        "use_global_stats": "False"
      }, 
      "inputs": [[172, 0, 0], [173, 0, 0], [174, 0, 0], [175, 0, 1], [176, 0, 1]]
    }, 
    {
      "op": "Activation", 
      "name": "relu02_02_b", 
      "attrs": {"act_type": "relu"}, 
      "inputs": [[177, 0, 0]]
    }, 
    {
      "op": "null", 
      "name": "conv02_02_b_weight", 
      "attrs": {
        "dilate": "(1, 1)", 
        "kernel": "(3, 3)", 
        "layout": "NCHW", 
        "no_bias": "False", 
        "num_filter": "64", 
        "num_group": "1", 
        "pad": "(1, 1)", 
        "stride": "(1, 1)"
      }, 
      "inputs": []
    }, 
    {
      "op": "null", 
      "name": "conv02_02_b_bias", 
      "attrs": {
        "dilate": "(1, 1)", 
        "kernel": "(3, 3)", 
        "layout": "NCHW", 
        "no_bias": "False", 
        "num_filter": "64", 
        "num_group": "1", 
        "pad": "(1, 1)", 
        "stride": "(1, 1)"
      }, 
      "inputs": []
    }, 
    {
      "op": "Convolution", 
      "name": "conv02_02_b", 
      "attrs": {
        "dilate": "(1, 1)", 
        "kernel": "(3, 3)", 
        "layout": "NCHW", 
        "no_bias": "False", 
        "num_filter": "64", 
        "num_group": "1", 
        "pad": "(1, 1)", 
        "stride": "(1, 1)"
      }, 
      "inputs": [[178, 0, 0], [179, 0, 0], [180, 0, 0]]
    }, 
    {
      "op": "broadcast_add", 
      "name": "eltwise02_02", 
      "inputs": [[163, 0, 0], [181, 0, 0]]
    }, 
    {
      "op": "null", 
      "name": "bn_conv02_03_a_gamma", 
      "attrs": {
        "eps": "0.0001", 
        "fix_gamma": "False", 
        "use_global_stats": "False"
      }, 
      "inputs": []
    }, 
    {
      "op": "null", 
      "name": "bn_conv02_03_a_beta", 
      "attrs": {
        "eps": "0.0001", 
        "fix_gamma": "False", 
        "use_global_stats": "False"
      }, 
      "inputs": []
    }, 
    {
      "op": "null", 
      "name": "bn_conv02_03_a_moving_mean", 
      "attrs": {
        "__init__": "[\"zero\", {}]", 
        "eps": "0.0001", 
        "fix_gamma": "False", 
        "use_global_stats": "False"
      }, 
      "inputs": []
    }, 
    {
      "op": "null", 
      "name": "bn_conv02_03_a_moving_var", 
      "attrs": {
        "__init__": "[\"one\", {}]", 
        "eps": "0.0001", 
        "fix_gamma": "False", 
        "use_global_stats": "False"
      }, 
      "inputs": []
    }, 
    {
      "op": "BatchNorm", 
      "name": "bn_conv02_03_a", 
      "attrs": {
        "eps": "0.0001", 
        "fix_gamma": "False", 
        "use_global_stats": "False"
      }, 
      "inputs": [[182, 0, 0], [183, 0, 0], [184, 0, 0], [185, 0, 1], [186, 0, 1]]
    }, 
    {
      "op": "Activation", 
      "name": "relu02_03_a", 
      "attrs": {"act_type": "relu"}, 
      "inputs": [[187, 0, 0]]
    }, 
    {
      "op": "null", 
      "name": "conv02_03_a_weight", 
      "attrs": {
        "dilate": "(1, 1)", 
        "kernel": "(3, 3)", 
        "layout": "NCHW", 
        "no_bias": "False", 
        "num_filter": "64", 
        "num_group": "1", 
        "pad": "(1, 1)", 
        "stride": "(1, 1)"
      }, 
      "inputs": []
    }, 
    {
      "op": "null", 
      "name": "conv02_03_a_bias", 
      "attrs": {
        "dilate": "(1, 1)", 
        "kernel": "(3, 3)", 
        "layout": "NCHW", 
        "no_bias": "False", 
        "num_filter": "64", 
        "num_group": "1", 
        "pad": "(1, 1)", 
        "stride": "(1, 1)"
      }, 
      "inputs": []
    }, 
    {
      "op": "Convolution", 
      "name": "conv02_03_a", 
      "attrs": {
        "dilate": "(1, 1)", 
        "kernel": "(3, 3)", 
        "layout": "NCHW", 
        "no_bias": "False", 
        "num_filter": "64", 
        "num_group": "1", 
        "pad": "(1, 1)", 
        "stride": "(1, 1)"
      }, 
      "inputs": [[188, 0, 0], [189, 0, 0], [190, 0, 0]]
    }, 
    {
      "op": "null", 
      "name": "bn_conv02_03_b_gamma", 
      "attrs": {
        "eps": "0.0001", 
        "fix_gamma": "False", 
        "use_global_stats": "False"
      }, 
      "inputs": []
    }, 
    {
      "op": "null", 
      "name": "bn_conv02_03_b_beta", 
      "attrs": {
        "eps": "0.0001", 
        "fix_gamma": "False", 
        "use_global_stats": "False"
      }, 
      "inputs": []
    }, 
    {
      "op": "null", 
      "name": "bn_conv02_03_b_moving_mean", 
      "attrs": {
        "__init__": "[\"zero\", {}]", 
        "eps": "0.0001", 
        "fix_gamma": "False", 
        "use_global_stats": "False"
      }, 
      "inputs": []
    }, 
    {
      "op": "null", 
      "name": "bn_conv02_03_b_moving_var", 
      "attrs": {
        "__init__": "[\"one\", {}]", 
        "eps": "0.0001", 
        "fix_gamma": "False", 
        "use_global_stats": "False"
      }, 
      "inputs": []
    }, 
    {
      "op": "BatchNorm", 
      "name": "bn_conv02_03_b", 
      "attrs": {
        "eps": "0.0001", 
        "fix_gamma": "False", 
        "use_global_stats": "False"
      }, 
      "inputs": [[191, 0, 0], [192, 0, 0], [193, 0, 0], [194, 0, 1], [195, 0, 1]]
    }, 
    {
      "op": "Activation", 
      "name": "relu02_03_b", 
      "attrs": {"act_type": "relu"}, 
      "inputs": [[196, 0, 0]]
    }, 
    {
      "op": "null", 
      "name": "conv02_03_b_weight", 
      "attrs": {
        "dilate": "(1, 1)", 
        "kernel": "(3, 3)", 
        "layout": "NCHW", 
        "no_bias": "False", 
        "num_filter": "64", 
        "num_group": "1", 
        "pad": "(1, 1)", 
        "stride": "(1, 1)"
      }, 
      "inputs": []
    }, 
    {
      "op": "null", 
      "name": "conv02_03_b_bias", 
      "attrs": {
        "dilate": "(1, 1)", 
        "kernel": "(3, 3)", 
        "layout": "NCHW", 
        "no_bias": "False", 
        "num_filter": "64", 
        "num_group": "1", 
        "pad": "(1, 1)", 
        "stride": "(1, 1)"
      }, 
      "inputs": []
    }, 
    {
      "op": "Convolution", 
      "name": "conv02_03_b", 
      "attrs": {
        "dilate": "(1, 1)", 
        "kernel": "(3, 3)", 
        "layout": "NCHW", 
        "no_bias": "False", 
        "num_filter": "64", 
        "num_group": "1", 
        "pad": "(1, 1)", 
        "stride": "(1, 1)"
      }, 
      "inputs": [[197, 0, 0], [198, 0, 0], [199, 0, 0]]
    }, 
    {
      "op": "broadcast_add", 
      "name": "eltwise02_03", 
      "inputs": [[182, 0, 0], [200, 0, 0]]
    }, 
    {
      "op": "null", 
      "name": "bn_conv02_04_a_gamma", 
      "attrs": {
        "eps": "0.0001", 
        "fix_gamma": "False", 
        "use_global_stats": "False"
      }, 
      "inputs": []
    }, 
    {
      "op": "null", 
      "name": "bn_conv02_04_a_beta", 
      "attrs": {
        "eps": "0.0001", 
        "fix_gamma": "False", 
        "use_global_stats": "False"
      }, 
      "inputs": []
    }, 
    {
      "op": "null", 
      "name": "bn_conv02_04_a_moving_mean", 
      "attrs": {
        "__init__": "[\"zero\", {}]", 
        "eps": "0.0001", 
        "fix_gamma": "False", 
        "use_global_stats": "False"
      }, 
      "inputs": []
    }, 
    {
      "op": "null", 
      "name": "bn_conv02_04_a_moving_var", 
      "attrs": {
        "__init__": "[\"one\", {}]", 
        "eps": "0.0001", 
        "fix_gamma": "False", 
        "use_global_stats": "False"
      }, 
      "inputs": []
    }, 
    {
      "op": "BatchNorm", 
      "name": "bn_conv02_04_a", 
      "attrs": {
        "eps": "0.0001", 
        "fix_gamma": "False", 
        "use_global_stats": "False"
      }, 
      "inputs": [[201, 0, 0], [202, 0, 0], [203, 0, 0], [204, 0, 1], [205, 0, 1]]
    }, 
    {
      "op": "Activation", 
      "name": "relu02_04_a", 
      "attrs": {"act_type": "relu"}, 
      "inputs": [[206, 0, 0]]
    }, 
    {
      "op": "null", 
      "name": "conv02_04_a_weight", 
      "attrs": {
        "dilate": "(1, 1)", 
        "kernel": "(3, 3)", 
        "layout": "NCHW", 
        "no_bias": "False", 
        "num_filter": "64", 
        "num_group": "1", 
        "pad": "(1, 1)", 
        "stride": "(1, 1)"
      }, 
      "inputs": []
    }, 
    {
      "op": "null", 
      "name": "conv02_04_a_bias", 
      "attrs": {
        "dilate": "(1, 1)", 
        "kernel": "(3, 3)", 
        "layout": "NCHW", 
        "no_bias": "False", 
        "num_filter": "64", 
        "num_group": "1", 
        "pad": "(1, 1)", 
        "stride": "(1, 1)"
      }, 
      "inputs": []
    }, 
    {
      "op": "Convolution", 
      "name": "conv02_04_a", 
      "attrs": {
        "dilate": "(1, 1)", 
        "kernel": "(3, 3)", 
        "layout": "NCHW", 
        "no_bias": "False", 
        "num_filter": "64", 
        "num_group": "1", 
        "pad": "(1, 1)", 
        "stride": "(1, 1)"
      }, 
      "inputs": [[207, 0, 0], [208, 0, 0], [209, 0, 0]]
    }, 
    {
      "op": "null", 
      "name": "bn_conv02_04_b_gamma", 
      "attrs": {
        "eps": "0.0001", 
        "fix_gamma": "False", 
        "use_global_stats": "False"
      }, 
      "inputs": []
    }, 
    {
      "op": "null", 
      "name": "bn_conv02_04_b_beta", 
      "attrs": {
        "eps": "0.0001", 
        "fix_gamma": "False", 
        "use_global_stats": "False"
      }, 
      "inputs": []
    }, 
    {
      "op": "null", 
      "name": "bn_conv02_04_b_moving_mean", 
      "attrs": {
        "__init__": "[\"zero\", {}]", 
        "eps": "0.0001", 
        "fix_gamma": "False", 
        "use_global_stats": "False"
      }, 
      "inputs": []
    }, 
    {
      "op": "null", 
      "name": "bn_conv02_04_b_moving_var", 
      "attrs": {
        "__init__": "[\"one\", {}]", 
        "eps": "0.0001", 
        "fix_gamma": "False", 
        "use_global_stats": "False"
      }, 
      "inputs": []
    }, 
    {
      "op": "BatchNorm", 
      "name": "bn_conv02_04_b", 
      "attrs": {
        "eps": "0.0001", 
        "fix_gamma": "False", 
        "use_global_stats": "False"
      }, 
      "inputs": [[210, 0, 0], [211, 0, 0], [212, 0, 0], [213, 0, 1], [214, 0, 1]]
    }, 
    {
      "op": "Activation", 
      "name": "relu02_04_b", 
      "attrs": {"act_type": "relu"}, 
      "inputs": [[215, 0, 0]]
    }, 
    {
      "op": "null", 
      "name": "conv02_04_b_weight", 
      "attrs": {
        "dilate": "(1, 1)", 
        "kernel": "(3, 3)", 
        "layout": "NCHW", 
        "no_bias": "False", 
        "num_filter": "64", 
        "num_group": "1", 
        "pad": "(1, 1)", 
        "stride": "(1, 1)"
      }, 
      "inputs": []
    }, 
    {
      "op": "null", 
      "name": "conv02_04_b_bias", 
      "attrs": {
        "dilate": "(1, 1)", 
        "kernel": "(3, 3)", 
        "layout": "NCHW", 
        "no_bias": "False", 
        "num_filter": "64", 
        "num_group": "1", 
        "pad": "(1, 1)", 
        "stride": "(1, 1)"
      }, 
      "inputs": []
    }, 
    {
      "op": "Convolution", 
      "name": "conv02_04_b", 
      "attrs": {
        "dilate": "(1, 1)", 
        "kernel": "(3, 3)", 
        "layout": "NCHW", 
        "no_bias": "False", 
        "num_filter": "64", 
        "num_group": "1", 
        "pad": "(1, 1)", 
        "stride": "(1, 1)"
      }, 
      "inputs": [[216, 0, 0], [217, 0, 0], [218, 0, 0]]
    }, 
    {
      "op": "broadcast_add", 
      "name": "eltwise02_04", 
      "inputs": [[201, 0, 0], [219, 0, 0]]
    }, 
    {
      "op": "null", 
      "name": "bn_conv02_05_a_gamma", 
      "attrs": {
        "eps": "0.0001", 
        "fix_gamma": "False", 
        "use_global_stats": "False"
      }, 
      "inputs": []
    }, 
    {
      "op": "null", 
      "name": "bn_conv02_05_a_beta", 
      "attrs": {
        "eps": "0.0001", 
        "fix_gamma": "False", 
        "use_global_stats": "False"
      }, 
      "inputs": []
    }, 
    {
      "op": "null", 
      "name": "bn_conv02_05_a_moving_mean", 
      "attrs": {
        "__init__": "[\"zero\", {}]", 
        "eps": "0.0001", 
        "fix_gamma": "False", 
        "use_global_stats": "False"
      }, 
      "inputs": []
    }, 
    {
      "op": "null", 
      "name": "bn_conv02_05_a_moving_var", 
      "attrs": {
        "__init__": "[\"one\", {}]", 
        "eps": "0.0001", 
        "fix_gamma": "False", 
        "use_global_stats": "False"
      }, 
      "inputs": []
    }, 
    {
      "op": "BatchNorm", 
      "name": "bn_conv02_05_a", 
      "attrs": {
        "eps": "0.0001", 
        "fix_gamma": "False", 
        "use_global_stats": "False"
      }, 
      "inputs": [[220, 0, 0], [221, 0, 0], [222, 0, 0], [223, 0, 1], [224, 0, 1]]
    }, 
    {
      "op": "Activation", 
      "name": "relu02_05_a", 
      "attrs": {"act_type": "relu"}, 
      "inputs": [[225, 0, 0]]
    }, 
    {
      "op": "null", 
      "name": "conv02_05_a_weight", 
      "attrs": {
        "dilate": "(1, 1)", 
        "kernel": "(3, 3)", 
        "layout": "NCHW", 
        "no_bias": "False", 
        "num_filter": "64", 
        "num_group": "1", 
        "pad": "(1, 1)", 
        "stride": "(1, 1)"
      }, 
      "inputs": []
    }, 
    {
      "op": "null", 
      "name": "conv02_05_a_bias", 
      "attrs": {
        "dilate": "(1, 1)", 
        "kernel": "(3, 3)", 
        "layout": "NCHW", 
        "no_bias": "False", 
        "num_filter": "64", 
        "num_group": "1", 
        "pad": "(1, 1)", 
        "stride": "(1, 1)"
      }, 
      "inputs": []
    }, 
    {
      "op": "Convolution", 
      "name": "conv02_05_a", 
      "attrs": {
        "dilate": "(1, 1)", 
        "kernel": "(3, 3)", 
        "layout": "NCHW", 
        "no_bias": "False", 
        "num_filter": "64", 
        "num_group": "1", 
        "pad": "(1, 1)", 
        "stride": "(1, 1)"
      }, 
      "inputs": [[226, 0, 0], [227, 0, 0], [228, 0, 0]]
    }, 
    {
      "op": "null", 
      "name": "bn_conv02_05_b_gamma", 
      "attrs": {
        "eps": "0.0001", 
        "fix_gamma": "False", 
        "use_global_stats": "False"
      }, 
      "inputs": []
    }, 
    {
      "op": "null", 
      "name": "bn_conv02_05_b_beta", 
      "attrs": {
        "eps": "0.0001", 
        "fix_gamma": "False", 
        "use_global_stats": "False"
      }, 
      "inputs": []
    }, 
    {
      "op": "null", 
      "name": "bn_conv02_05_b_moving_mean", 
      "attrs": {
        "__init__": "[\"zero\", {}]", 
        "eps": "0.0001", 
        "fix_gamma": "False", 
        "use_global_stats": "False"
      }, 
      "inputs": []
    }, 
    {
      "op": "null", 
      "name": "bn_conv02_05_b_moving_var", 
      "attrs": {
        "__init__": "[\"one\", {}]", 
        "eps": "0.0001", 
        "fix_gamma": "False", 
        "use_global_stats": "False"
      }, 
      "inputs": []
    }, 
    {
      "op": "BatchNorm", 
      "name": "bn_conv02_05_b", 
      "attrs": {
        "eps": "0.0001", 
        "fix_gamma": "False", 
        "use_global_stats": "False"
      }, 
      "inputs": [[229, 0, 0], [230, 0, 0], [231, 0, 0], [232, 0, 1], [233, 0, 1]]
    }, 
    {
      "op": "Activation", 
      "name": "relu02_05_b", 
      "attrs": {"act_type": "relu"}, 
      "inputs": [[234, 0, 0]]
    }, 
    {
      "op": "null", 
      "name": "conv02_05_b_weight", 
      "attrs": {
        "dilate": "(1, 1)", 
        "kernel": "(3, 3)", 
        "layout": "NCHW", 
        "no_bias": "False", 
        "num_filter": "64", 
        "num_group": "1", 
        "pad": "(1, 1)", 
        "stride": "(1, 1)"
      }, 
      "inputs": []
    }, 
    {
      "op": "null", 
      "name": "conv02_05_b_bias", 
      "attrs": {
        "dilate": "(1, 1)", 
        "kernel": "(3, 3)", 
        "layout": "NCHW", 
        "no_bias": "False", 
        "num_filter": "64", 
        "num_group": "1", 
        "pad": "(1, 1)", 
        "stride": "(1, 1)"
      }, 
      "inputs": []
    }, 
    {
      "op": "Convolution", 
      "name": "conv02_05_b", 
      "attrs": {
        "dilate": "(1, 1)", 
        "kernel": "(3, 3)", 
        "layout": "NCHW", 
        "no_bias": "False", 
        "num_filter": "64", 
        "num_group": "1", 
        "pad": "(1, 1)", 
        "stride": "(1, 1)"
      }, 
      "inputs": [[235, 0, 0], [236, 0, 0], [237, 0, 0]]
    }, 
    {
      "op": "broadcast_add", 
      "name": "eltwise02_05", 
      "inputs": [[220, 0, 0], [238, 0, 0]]
    }, 
    {
      "op": "null", 
      "name": "bn_conv02_06_a_gamma", 
      "attrs": {
        "eps": "0.0001", 
        "fix_gamma": "False", 
        "use_global_stats": "False"
      }, 
      "inputs": []
    }, 
    {
      "op": "null", 
      "name": "bn_conv02_06_a_beta", 
      "attrs": {
        "eps": "0.0001", 
        "fix_gamma": "False", 
        "use_global_stats": "False"
      }, 
      "inputs": []
    }, 
    {
      "op": "null", 
      "name": "bn_conv02_06_a_moving_mean", 
      "attrs": {
        "__init__": "[\"zero\", {}]", 
        "eps": "0.0001", 
        "fix_gamma": "False", 
        "use_global_stats": "False"
      }, 
      "inputs": []
    }, 
    {
      "op": "null", 
      "name": "bn_conv02_06_a_moving_var", 
      "attrs": {
        "__init__": "[\"one\", {}]", 
        "eps": "0.0001", 
        "fix_gamma": "False", 
        "use_global_stats": "False"
      }, 
      "inputs": []
    }, 
    {
      "op": "BatchNorm", 
      "name": "bn_conv02_06_a", 
      "attrs": {
        "eps": "0.0001", 
        "fix_gamma": "False", 
        "use_global_stats": "False"
      }, 
      "inputs": [[239, 0, 0], [240, 0, 0], [241, 0, 0], [242, 0, 1], [243, 0, 1]]
    }, 
    {
      "op": "Activation", 
      "name": "relu02_06_a", 
      "attrs": {"act_type": "relu"}, 
      "inputs": [[244, 0, 0]]
    }, 
    {
      "op": "null", 
      "name": "conv02_06_a_weight", 
      "attrs": {
        "dilate": "(1, 1)", 
        "kernel": "(3, 3)", 
        "layout": "NCHW", 
        "no_bias": "False", 
        "num_filter": "64", 
        "num_group": "1", 
        "pad": "(1, 1)", 
        "stride": "(1, 1)"
      }, 
      "inputs": []
    }, 
    {
      "op": "null", 
      "name": "conv02_06_a_bias", 
      "attrs": {
        "dilate": "(1, 1)", 
        "kernel": "(3, 3)", 
        "layout": "NCHW", 
        "no_bias": "False", 
        "num_filter": "64", 
        "num_group": "1", 
        "pad": "(1, 1)", 
        "stride": "(1, 1)"
      }, 
      "inputs": []
    }, 
    {
      "op": "Convolution", 
      "name": "conv02_06_a", 
      "attrs": {
        "dilate": "(1, 1)", 
        "kernel": "(3, 3)", 
        "layout": "NCHW", 
        "no_bias": "False", 
        "num_filter": "64", 
        "num_group": "1", 
        "pad": "(1, 1)", 
        "stride": "(1, 1)"
      }, 
      "inputs": [[245, 0, 0], [246, 0, 0], [247, 0, 0]]
    }, 
    {
      "op": "null", 
      "name": "bn_conv02_06_b_gamma", 
      "attrs": {
        "eps": "0.0001", 
        "fix_gamma": "False", 
        "use_global_stats": "False"
      }, 
      "inputs": []
    }, 
    {
      "op": "null", 
      "name": "bn_conv02_06_b_beta", 
      "attrs": {
        "eps": "0.0001", 
        "fix_gamma": "False", 
        "use_global_stats": "False"
      }, 
      "inputs": []
    }, 
    {
      "op": "null", 
      "name": "bn_conv02_06_b_moving_mean", 
      "attrs": {
        "__init__": "[\"zero\", {}]", 
        "eps": "0.0001", 
        "fix_gamma": "False", 
        "use_global_stats": "False"
      }, 
      "inputs": []
    }, 
    {
      "op": "null", 
      "name": "bn_conv02_06_b_moving_var", 
      "attrs": {
        "__init__": "[\"one\", {}]", 
        "eps": "0.0001", 
        "fix_gamma": "False", 
        "use_global_stats": "False"
      }, 
      "inputs": []
    }, 
    {
      "op": "BatchNorm", 
      "name": "bn_conv02_06_b", 
      "attrs": {
        "eps": "0.0001", 
        "fix_gamma": "False", 
        "use_global_stats": "False"
      }, 
      "inputs": [[248, 0, 0], [249, 0, 0], [250, 0, 0], [251, 0, 1], [252, 0, 1]]
    }, 
    {
      "op": "Activation", 
      "name": "relu02_06_b", 
      "attrs": {"act_type": "relu"}, 
      "inputs": [[253, 0, 0]]
    }, 
    {
      "op": "null", 
      "name": "conv02_06_b_weight", 
      "attrs": {
        "dilate": "(1, 1)", 
        "kernel": "(3, 3)", 
        "layout": "NCHW", 
        "no_bias": "False", 
        "num_filter": "64", 
        "num_group": "1", 
        "pad": "(1, 1)", 
        "stride": "(1, 1)"
      }, 
      "inputs": []
    }, 
    {
      "op": "null", 
      "name": "conv02_06_b_bias", 
      "attrs": {
        "dilate": "(1, 1)", 
        "kernel": "(3, 3)", 
        "layout": "NCHW", 
        "no_bias": "False", 
        "num_filter": "64", 
        "num_group": "1", 
        "pad": "(1, 1)", 
        "stride": "(1, 1)"
      }, 
      "inputs": []
    }, 
    {
      "op": "Convolution", 
      "name": "conv02_06_b", 
      "attrs": {
        "dilate": "(1, 1)", 
        "kernel": "(3, 3)", 
        "layout": "NCHW", 
        "no_bias": "False", 
        "num_filter": "64", 
        "num_group": "1", 
        "pad": "(1, 1)", 
        "stride": "(1, 1)"
      }, 
      "inputs": [[254, 0, 0], [255, 0, 0], [256, 0, 0]]
    }, 
    {
      "op": "broadcast_add", 
      "name": "eltwise02_06", 
      "inputs": [[239, 0, 0], [257, 0, 0]]
    }, 
    {
      "op": "Concat", 
      "name": "concat02", 
      "attrs": {"num_args": "8"}, 
      "inputs": [[9, 0, 0], [133, 0, 0], [163, 0, 0], [182, 0, 0], [201, 0, 0], [220, 0, 0], [239, 0, 0], [258, 0, 0]]
    }, 
    {
      "op": "null", 
      "name": "bn_conv_transition_02_gamma", 
      "attrs": {
        "eps": "0.0001", 
        "fix_gamma": "False", 
        "use_global_stats": "False"
      }, 
      "inputs": []
    }, 
    {
      "op": "null", 
      "name": "bn_conv_transition_02_beta", 
      "attrs": {
        "eps": "0.0001", 
        "fix_gamma": "False", 
        "use_global_stats": "False"
      }, 
      "inputs": []
    }, 
    {
      "op": "null", 
      "name": "bn_conv_transition_02_moving_mean", 
      "attrs": {
        "__init__": "[\"zero\", {}]", 
        "eps": "0.0001", 
        "fix_gamma": "False", 
        "use_global_stats": "False"
      }, 
      "inputs": []
    }, 
    {
      "op": "null", 
      "name": "bn_conv_transition_02_moving_var", 
      "attrs": {
        "__init__": "[\"one\", {}]", 
        "eps": "0.0001", 
        "fix_gamma": "False", 
        "use_global_stats": "False"
      }, 
      "inputs": []
    }, 
    {
      "op": "BatchNorm", 
      "name": "bn_conv_transition_02", 
      "attrs": {
        "eps": "0.0001", 
        "fix_gamma": "False", 
        "use_global_stats": "False"
      }, 
      "inputs": [[259, 0, 0], [260, 0, 0], [261, 0, 0], [262, 0, 1], [263, 0, 1]]
    }, 
    {
      "op": "Activation", 
      "name": "relu_transition_02", 
      "attrs": {"act_type": "relu"}, 
      "inputs": [[264, 0, 0]]
    }, 
    {
      "op": "null", 
      "name": "conv_transition_02_weight", 
      "attrs": {
        "dilate": "(1, 1)", 
        "kernel": "(1, 1)", 
        "layout": "NCHW", 
        "no_bias": "False", 
        "num_filter": "64", 
        "num_group": "1", 
        "pad": "(0, 0)", 
        "stride": "(1, 1)"
      }, 
      "inputs": []
    }, 
    {
      "op": "null", 
      "name": "conv_transition_02_bias", 
      "attrs": {
        "dilate": "(1, 1)", 
        "kernel": "(1, 1)", 
        "layout": "NCHW", 
        "no_bias": "False", 
        "num_filter": "64", 
        "num_group": "1", 
        "pad": "(0, 0)", 
        "stride": "(1, 1)"
      }, 
      "inputs": []
    }, 
    {
      "op": "Convolution", 
      "name": "conv_transition_02", 
      "attrs": {
        "dilate": "(1, 1)", 
        "kernel": "(1, 1)", 
        "layout": "NCHW", 
        "no_bias": "False", 
        "num_filter": "64", 
        "num_group": "1", 
        "pad": "(0, 0)", 
        "stride": "(1, 1)"
      }, 
      "inputs": [[265, 0, 0], [266, 0, 0], [267, 0, 0]]
    }, 
    {
      "op": "null", 
      "name": "bn_conv_end_02_gamma", 
      "attrs": {
        "eps": "0.0001", 
        "fix_gamma": "False", 
        "use_global_stats": "False"
      }, 
      "inputs": []
    }, 
    {
      "op": "null", 
      "name": "bn_conv_end_02_beta", 
      "attrs": {
        "eps": "0.0001", 
        "fix_gamma": "False", 
        "use_global_stats": "False"
      }, 
      "inputs": []
    }, 
    {
      "op": "null", 
      "name": "bn_conv_end_02_moving_mean", 
      "attrs": {
        "__init__": "[\"zero\", {}]", 
        "eps": "0.0001", 
        "fix_gamma": "False", 
        "use_global_stats": "False"
      }, 
      "inputs": []
    }, 
    {
      "op": "null", 
      "name": "bn_conv_end_02_moving_var", 
      "attrs": {
        "__init__": "[\"one\", {}]", 
        "eps": "0.0001", 
        "fix_gamma": "False", 
        "use_global_stats": "False"
      }, 
      "inputs": []
    }, 
    {
      "op": "BatchNorm", 
      "name": "bn_conv_end_02", 
      "attrs": {
        "eps": "0.0001", 
        "fix_gamma": "False", 
        "use_global_stats": "False"
      }, 
      "inputs": [[268, 0, 0], [269, 0, 0], [270, 0, 0], [271, 0, 1], [272, 0, 1]]
    }, 
    {
      "op": "Activation", 
      "name": "relu_end_02", 
      "attrs": {"act_type": "relu"}, 
      "inputs": [[273, 0, 0]]
    }, 
    {
      "op": "null", 
      "name": "conv_end_02_weight", 
      "attrs": {
        "dilate": "(1, 1)", 
        "kernel": "(3, 3)", 
        "layout": "NCHW", 
        "no_bias": "False", 
        "num_filter": "1", 
        "num_group": "1", 
        "pad": "(1, 1)", 
        "stride": "(1, 1)"
      }, 
      "inputs": []
    }, 
    {
      "op": "null", 
      "name": "conv_end_02_bias", 
      "attrs": {
        "dilate": "(1, 1)", 
        "kernel": "(3, 3)", 
        "layout": "NCHW", 
        "no_bias": "False", 
        "num_filter": "1", 
        "num_group": "1", 
        "pad": "(1, 1)", 
        "stride": "(1, 1)"
      }, 
      "inputs": []
    }, 
    {
      "op": "Convolution", 
      "name": "conv_end_02", 
      "attrs": {
        "dilate": "(1, 1)", 
        "kernel": "(3, 3)", 
        "layout": "NCHW", 
        "no_bias": "False", 
        "num_filter": "1", 
        "num_group": "1", 
        "pad": "(1, 1)", 
        "stride": "(1, 1)"
      }, 
      "inputs": [[274, 0, 0], [275, 0, 0], [276, 0, 0]]
    }, 
    {
      "op": "broadcast_add", 
      "name": "HR_recovery_02", 
      "inputs": [[0, 0, 0], [277, 0, 0]]
    }, 
    {
      "op": "_mul_scalar", 
      "name": "_mulscalar1", 
      "attrs": {"scalar": "0.0028903386555612087"}, 
      "inputs": [[278, 0, 0]]
    }, 
    {
      "op": "null", 
      "name": "bn_conv03_01_a_gamma", 
      "attrs": {
        "eps": "0.0001", 
        "fix_gamma": "False", 
        "use_global_stats": "False"
      }, 
      "inputs": []
    }, 
    {
      "op": "null", 
      "name": "bn_conv03_01_a_beta", 
      "attrs": {
        "eps": "0.0001", 
        "fix_gamma": "False", 
        "use_global_stats": "False"
      }, 
      "inputs": []
    }, 
    {
      "op": "null", 
      "name": "bn_conv03_01_a_moving_mean", 
      "attrs": {
        "__init__": "[\"zero\", {}]", 
        "eps": "0.0001", 
        "fix_gamma": "False", 
        "use_global_stats": "False"
      }, 
      "inputs": []
    }, 
    {
      "op": "null", 
      "name": "bn_conv03_01_a_moving_var", 
      "attrs": {
        "__init__": "[\"one\", {}]", 
        "eps": "0.0001", 
        "fix_gamma": "False", 
        "use_global_stats": "False"
      }, 
      "inputs": []
    }, 
    {
      "op": "BatchNorm", 
      "name": "bn_conv03_01_a", 
      "attrs": {
        "eps": "0.0001", 
        "fix_gamma": "False", 
        "use_global_stats": "False"
      }, 
      "inputs": [[268, 0, 0], [280, 0, 0], [281, 0, 0], [282, 0, 1], [283, 0, 1]]
    }, 
    {
      "op": "Activation", 
      "name": "relu03_01_a", 
      "attrs": {"act_type": "relu"}, 
      "inputs": [[284, 0, 0]]
    }, 
    {
      "op": "null", 
      "name": "conv03_01_a_weight", 
      "attrs": {
        "dilate": "(1, 1)", 
        "kernel": "(3, 3)", 
        "layout": "NCHW", 
        "no_bias": "False", 
        "num_filter": "64", 
        "num_group": "1", 
        "pad": "(1, 1)", 
        "stride": "(1, 1)"
      }, 
      "inputs": []
    }, 
    {
      "op": "null", 
      "name": "conv03_01_a_bias", 
      "attrs": {
        "dilate": "(1, 1)", 
        "kernel": "(3, 3)", 
        "layout": "NCHW", 
        "no_bias": "False", 
        "num_filter": "64", 
        "num_group": "1", 
        "pad": "(1, 1)", 
        "stride": "(1, 1)"
      }, 
      "inputs": []
    }, 
    {
      "op": "Convolution", 
      "name": "conv03_01_a", 
      "attrs": {
        "dilate": "(1, 1)", 
        "kernel": "(3, 3)", 
        "layout": "NCHW", 
        "no_bias": "False", 
        "num_filter": "64", 
        "num_group": "1", 
        "pad": "(1, 1)", 
        "stride": "(1, 1)"
      }, 
      "inputs": [[285, 0, 0], [286, 0, 0], [287, 0, 0]]
    }, 
    {
      "op": "null", 
      "name": "bn_conv03_01_b_gamma", 
      "attrs": {
        "eps": "0.0001", 
        "fix_gamma": "False", 
        "use_global_stats": "False"
      }, 
      "inputs": []
    }, 
    {
      "op": "null", 
      "name": "bn_conv03_01_b_beta", 
      "attrs": {
        "eps": "0.0001", 
        "fix_gamma": "False", 
        "use_global_stats": "False"
      }, 
      "inputs": []
    }, 
    {
      "op": "null", 
      "name": "bn_conv03_01_b_moving_mean", 
      "attrs": {
        "__init__": "[\"zero\", {}]", 
        "eps": "0.0001", 
        "fix_gamma": "False", 
        "use_global_stats": "False"
      }, 
      "inputs": []
    }, 
    {
      "op": "null", 
      "name": "bn_conv03_01_b_moving_var", 
      "attrs": {
        "__init__": "[\"one\", {}]", 
        "eps": "0.0001", 
        "fix_gamma": "False", 
        "use_global_stats": "False"
      }, 
      "inputs": []
    }, 
    {
      "op": "BatchNorm", 
      "name": "bn_conv03_01_b", 
      "attrs": {
        "eps": "0.0001", 
        "fix_gamma": "False", 
        "use_global_stats": "False"
      }, 
      "inputs": [[288, 0, 0], [289, 0, 0], [290, 0, 0], [291, 0, 1], [292, 0, 1]]
    }, 
    {
      "op": "Activation", 
      "name": "relu03_01_b", 
      "attrs": {"act_type": "relu"}, 
      "inputs": [[293, 0, 0]]
    }, 
    {
      "op": "null", 
      "name": "conv03_01_b_weight", 
      "attrs": {
        "dilate": "(1, 1)", 
        "kernel": "(3, 3)", 
        "layout": "NCHW", 
        "no_bias": "False", 
        "num_filter": "64", 
        "num_group": "1", 
        "pad": "(1, 1)", 
        "stride": "(1, 1)"
      }, 
      "inputs": []
    }, 
    {
      "op": "null", 
      "name": "conv03_01_b_bias", 
      "attrs": {
        "dilate": "(1, 1)", 
        "kernel": "(3, 3)", 
        "layout": "NCHW", 
        "no_bias": "False", 
        "num_filter": "64", 
        "num_group": "1", 
        "pad": "(1, 1)", 
        "stride": "(1, 1)"
      }, 
      "inputs": []
    }, 
    {
      "op": "Convolution", 
      "name": "conv03_01_b", 
      "attrs": {
        "dilate": "(1, 1)", 
        "kernel": "(3, 3)", 
        "layout": "NCHW", 
        "no_bias": "False", 
        "num_filter": "64", 
        "num_group": "1", 
        "pad": "(1, 1)", 
        "stride": "(1, 1)"
      }, 
      "inputs": [[294, 0, 0], [295, 0, 0], [296, 0, 0]]
    }, 
    {
      "op": "broadcast_add", 
      "name": "eltwise03_01", 
      "inputs": [[268, 0, 0], [297, 0, 0]]
    }, 
    {
      "op": "null", 
      "name": "bn_conv03_02_a_gamma", 
      "attrs": {
        "eps": "0.0001", 
        "fix_gamma": "False", 
        "use_global_stats": "False"
      }, 
      "inputs": []
    }, 
    {
      "op": "null", 
      "name": "bn_conv03_02_a_beta", 
      "attrs": {
        "eps": "0.0001", 
        "fix_gamma": "False", 
        "use_global_stats": "False"
      }, 
      "inputs": []
    }, 
    {
      "op": "null", 
      "name": "bn_conv03_02_a_moving_mean", 
      "attrs": {
        "__init__": "[\"zero\", {}]", 
        "eps": "0.0001", 
        "fix_gamma": "False", 
        "use_global_stats": "False"
      }, 
      "inputs": []
    }, 
    {
      "op": "null", 
      "name": "bn_conv03_02_a_moving_var", 
      "attrs": {
        "__init__": "[\"one\", {}]", 
        "eps": "0.0001", 
        "fix_gamma": "False", 
        "use_global_stats": "False"
      }, 
      "inputs": []
    }, 
    {
      "op": "BatchNorm", 
      "name": "bn_conv03_02_a", 
      "attrs": {
        "eps": "0.0001", 
        "fix_gamma": "False", 
        "use_global_stats": "False"
      }, 
      "inputs": [[298, 0, 0], [299, 0, 0], [300, 0, 0], [301, 0, 1], [302, 0, 1]]
    }, 
    {
      "op": "Activation", 
      "name": "relu03_02_a", 
      "attrs": {"act_type": "relu"}, 
      "inputs": [[303, 0, 0]]
    }, 
    {
      "op": "null", 
      "name": "conv03_02_a_weight", 
      "attrs": {
        "dilate": "(1, 1)", 
        "kernel": "(3, 3)", 
        "layout": "NCHW", 
        "no_bias": "False", 
        "num_filter": "64", 
        "num_group": "1", 
        "pad": "(1, 1)", 
        "stride": "(1, 1)"
      }, 
      "inputs": []
    }, 
    {
      "op": "null", 
      "name": "conv03_02_a_bias", 
      "attrs": {
        "dilate": "(1, 1)", 
        "kernel": "(3, 3)", 
        "layout": "NCHW", 
        "no_bias": "False", 
        "num_filter": "64", 
        "num_group": "1", 
        "pad": "(1, 1)", 
        "stride": "(1, 1)"
      }, 
      "inputs": []
    }, 
    {
      "op": "Convolution", 
      "name": "conv03_02_a", 
      "attrs": {
        "dilate": "(1, 1)", 
        "kernel": "(3, 3)", 
        "layout": "NCHW", 
        "no_bias": "False", 
        "num_filter": "64", 
        "num_group": "1", 
        "pad": "(1, 1)", 
        "stride": "(1, 1)"
      }, 
      "inputs": [[304, 0, 0], [305, 0, 0], [306, 0, 0]]
    }, 
    {
      "op": "null", 
      "name": "bn_conv03_02_b_gamma", 
      "attrs": {
        "eps": "0.0001", 
        "fix_gamma": "False", 
        "use_global_stats": "False"
      }, 
      "inputs": []
    }, 
    {
      "op": "null", 
      "name": "bn_conv03_02_b_beta", 
      "attrs": {
        "eps": "0.0001", 
        "fix_gamma": "False", 
        "use_global_stats": "False"
      }, 
      "inputs": []
    }, 
    {
      "op": "null", 
      "name": "bn_conv03_02_b_moving_mean", 
      "attrs": {
        "__init__": "[\"zero\", {}]", 
        "eps": "0.0001", 
        "fix_gamma": "False", 
        "use_global_stats": "False"
      }, 
      "inputs": []
    }, 
    {
      "op": "null", 
      "name": "bn_conv03_02_b_moving_var", 
      "attrs": {
        "__init__": "[\"one\", {}]", 
        "eps": "0.0001", 
        "fix_gamma": "False", 
        "use_global_stats": "False"
      }, 
      "inputs": []
    }, 
    {
      "op": "BatchNorm", 
      "name": "bn_conv03_02_b", 
      "attrs": {
        "eps": "0.0001", 
        "fix_gamma": "False", 
        "use_global_stats": "False"
      }, 
      "inputs": [[307, 0, 0], [308, 0, 0], [309, 0, 0], [310, 0, 1], [311, 0, 1]]
    }, 
    {
      "op": "Activation", 
      "name": "relu03_02_b", 
      "attrs": {"act_type": "relu"}, 
      "inputs": [[312, 0, 0]]
    }, 
    {
      "op": "null", 
      "name": "conv03_02_b_weight", 
      "attrs": {
        "dilate": "(1, 1)", 
        "kernel": "(3, 3)", 
        "layout": "NCHW", 
        "no_bias": "False", 
        "num_filter": "64", 
        "num_group": "1", 
        "pad": "(1, 1)", 
        "stride": "(1, 1)"
      }, 
      "inputs": []
    }, 
    {
      "op": "null", 
      "name": "conv03_02_b_bias", 
      "attrs": {
        "dilate": "(1, 1)", 
        "kernel": "(3, 3)", 
        "layout": "NCHW", 
        "no_bias": "False", 
        "num_filter": "64", 
        "num_group": "1", 
        "pad": "(1, 1)", 
        "stride": "(1, 1)"
      }, 
      "inputs": []
    }, 
    {
      "op": "Convolution", 
      "name": "conv03_02_b", 
      "attrs": {
        "dilate": "(1, 1)", 
        "kernel": "(3, 3)", 
        "layout": "NCHW", 
        "no_bias": "False", 
        "num_filter": "64", 
        "num_group": "1", 
        "pad": "(1, 1)", 
        "stride": "(1, 1)"
      }, 
      "inputs": [[313, 0, 0], [314, 0, 0], [315, 0, 0]]
    }, 
    {
      "op": "broadcast_add", 
      "name": "eltwise03_02", 
      "inputs": [[298, 0, 0], [316, 0, 0]]
    }, 
    {
      "op": "null", 
      "name": "bn_conv03_03_a_gamma", 
      "attrs": {
        "eps": "0.0001", 
        "fix_gamma": "False", 
        "use_global_stats": "False"
      }, 
      "inputs": []
    }, 
    {
      "op": "null", 
      "name": "bn_conv03_03_a_beta", 
      "attrs": {
        "eps": "0.0001", 
        "fix_gamma": "False", 
        "use_global_stats": "False"
      }, 
      "inputs": []
    }, 
    {
      "op": "null", 
      "name": "bn_conv03_03_a_moving_mean", 
      "attrs": {
        "__init__": "[\"zero\", {}]", 
        "eps": "0.0001", 
        "fix_gamma": "False", 
        "use_global_stats": "False"
      }, 
      "inputs": []
    }, 
    {
      "op": "null", 
      "name": "bn_conv03_03_a_moving_var", 
      "attrs": {
        "__init__": "[\"one\", {}]", 
        "eps": "0.0001", 
        "fix_gamma": "False", 
        "use_global_stats": "False"
      }, 
      "inputs": []
    }, 
    {
      "op": "BatchNorm", 
      "name": "bn_conv03_03_a", 
      "attrs": {
        "eps": "0.0001", 
        "fix_gamma": "False", 
        "use_global_stats": "False"
      }, 
      "inputs": [[317, 0, 0], [318, 0, 0], [319, 0, 0], [320, 0, 1], [321, 0, 1]]
    }, 
    {
      "op": "Activation", 
      "name": "relu03_03_a", 
      "attrs": {"act_type": "relu"}, 
      "inputs": [[322, 0, 0]]
    }, 
    {
      "op": "null", 
      "name": "conv03_03_a_weight", 
      "attrs": {
        "dilate": "(1, 1)", 
        "kernel": "(3, 3)", 
        "layout": "NCHW", 
        "no_bias": "False", 
        "num_filter": "64", 
        "num_group": "1", 
        "pad": "(1, 1)", 
        "stride": "(1, 1)"
      }, 
      "inputs": []
    }, 
    {
      "op": "null", 
      "name": "conv03_03_a_bias", 
      "attrs": {
        "dilate": "(1, 1)", 
        "kernel": "(3, 3)", 
        "layout": "NCHW", 
        "no_bias": "False", 
        "num_filter": "64", 
        "num_group": "1", 
        "pad": "(1, 1)", 
        "stride": "(1, 1)"
      }, 
      "inputs": []
    }, 
    {
      "op": "Convolution", 
      "name": "conv03_03_a", 
      "attrs": {
        "dilate": "(1, 1)", 
        "kernel": "(3, 3)", 
        "layout": "NCHW", 
        "no_bias": "False", 
        "num_filter": "64", 
        "num_group": "1", 
        "pad": "(1, 1)", 
        "stride": "(1, 1)"
      }, 
      "inputs": [[323, 0, 0], [324, 0, 0], [325, 0, 0]]
    }, 
    {
      "op": "null", 
      "name": "bn_conv03_03_b_gamma", 
      "attrs": {
        "eps": "0.0001", 
        "fix_gamma": "False", 
        "use_global_stats": "False"
      }, 
      "inputs": []
    }, 
    {
      "op": "null", 
      "name": "bn_conv03_03_b_beta", 
      "attrs": {
        "eps": "0.0001", 
        "fix_gamma": "False", 
        "use_global_stats": "False"
      }, 
      "inputs": []
    }, 
    {
      "op": "null", 
      "name": "bn_conv03_03_b_moving_mean", 
      "attrs": {
        "__init__": "[\"zero\", {}]", 
        "eps": "0.0001", 
        "fix_gamma": "False", 
        "use_global_stats": "False"
      }, 
      "inputs": []
    }, 
    {
      "op": "null", 
      "name": "bn_conv03_03_b_moving_var", 
      "attrs": {
        "__init__": "[\"one\", {}]", 
        "eps": "0.0001", 
        "fix_gamma": "False", 
        "use_global_stats": "False"
      }, 
      "inputs": []
    }, 
    {
      "op": "BatchNorm", 
      "name": "bn_conv03_03_b", 
      "attrs": {
        "eps": "0.0001", 
        "fix_gamma": "False", 
        "use_global_stats": "False"
      }, 
      "inputs": [[326, 0, 0], [327, 0, 0], [328, 0, 0], [329, 0, 1], [330, 0, 1]]
    }, 
    {
      "op": "Activation", 
      "name": "relu03_03_b", 
      "attrs": {"act_type": "relu"}, 
      "inputs": [[331, 0, 0]]
    }, 
    {
      "op": "null", 
      "name": "conv03_03_b_weight", 
      "attrs": {
        "dilate": "(1, 1)", 
        "kernel": "(3, 3)", 
        "layout": "NCHW", 
        "no_bias": "False", 
        "num_filter": "64", 
        "num_group": "1", 
        "pad": "(1, 1)", 
        "stride": "(1, 1)"
      }, 
      "inputs": []
    }, 
    {
      "op": "null", 
      "name": "conv03_03_b_bias", 
      "attrs": {
        "dilate": "(1, 1)", 
        "kernel": "(3, 3)", 
        "layout": "NCHW", 
        "no_bias": "False", 
        "num_filter": "64", 
        "num_group": "1", 
        "pad": "(1, 1)", 
        "stride": "(1, 1)"
      }, 
      "inputs": []
    }, 
    {
      "op": "Convolution", 
      "name": "conv03_03_b", 
      "attrs": {
        "dilate": "(1, 1)", 
        "kernel": "(3, 3)", 
        "layout": "NCHW", 
        "no_bias": "False", 
        "num_filter": "64", 
        "num_group": "1", 
        "pad": "(1, 1)", 
        "stride": "(1, 1)"
      }, 
      "inputs": [[332, 0, 0], [333, 0, 0], [334, 0, 0]]
    }, 
    {
      "op": "broadcast_add", 
      "name": "eltwise03_03", 
      "inputs": [[317, 0, 0], [335, 0, 0]]
    }, 
    {
      "op": "null", 
      "name": "bn_conv03_04_a_gamma", 
      "attrs": {
        "eps": "0.0001", 
        "fix_gamma": "False", 
        "use_global_stats": "False"
      }, 
      "inputs": []
    }, 
    {
      "op": "null", 
      "name": "bn_conv03_04_a_beta", 
      "attrs": {
        "eps": "0.0001", 
        "fix_gamma": "False", 
        "use_global_stats": "False"
      }, 
      "inputs": []
    }, 
    {
      "op": "null", 
      "name": "bn_conv03_04_a_moving_mean", 
      "attrs": {
        "__init__": "[\"zero\", {}]", 
        "eps": "0.0001", 
        "fix_gamma": "False", 
        "use_global_stats": "False"
      }, 
      "inputs": []
    }, 
    {
      "op": "null", 
      "name": "bn_conv03_04_a_moving_var", 
      "attrs": {
        "__init__": "[\"one\", {}]", 
        "eps": "0.0001", 
        "fix_gamma": "False", 
        "use_global_stats": "False"
      }, 
      "inputs": []
    }, 
    {
      "op": "BatchNorm", 
      "name": "bn_conv03_04_a", 
      "attrs": {
        "eps": "0.0001", 
        "fix_gamma": "False", 
        "use_global_stats": "False"
      }, 
      "inputs": [[336, 0, 0], [337, 0, 0], [338, 0, 0], [339, 0, 1], [340, 0, 1]]
    }, 
    {
      "op": "Activation", 
      "name": "relu03_04_a", 
      "attrs": {"act_type": "relu"}, 
      "inputs": [[341, 0, 0]]
    }, 
    {
      "op": "null", 
      "name": "conv03_04_a_weight", 
      "attrs": {
        "dilate": "(1, 1)", 
        "kernel": "(3, 3)", 
        "layout": "NCHW", 
        "no_bias": "False", 
        "num_filter": "64", 
        "num_group": "1", 
        "pad": "(1, 1)", 
        "stride": "(1, 1)"
      }, 
      "inputs": []
    }, 
    {
      "op": "null", 
      "name": "conv03_04_a_bias", 
      "attrs": {
        "dilate": "(1, 1)", 
        "kernel": "(3, 3)", 
        "layout": "NCHW", 
        "no_bias": "False", 
        "num_filter": "64", 
        "num_group": "1", 
        "pad": "(1, 1)", 
        "stride": "(1, 1)"
      }, 
      "inputs": []
    }, 
    {
      "op": "Convolution", 
      "name": "conv03_04_a", 
      "attrs": {
        "dilate": "(1, 1)", 
        "kernel": "(3, 3)", 
        "layout": "NCHW", 
        "no_bias": "False", 
        "num_filter": "64", 
        "num_group": "1", 
        "pad": "(1, 1)", 
        "stride": "(1, 1)"
      }, 
      "inputs": [[342, 0, 0], [343, 0, 0], [344, 0, 0]]
    }, 
    {
      "op": "null", 
      "name": "bn_conv03_04_b_gamma", 
      "attrs": {
        "eps": "0.0001", 
        "fix_gamma": "False", 
        "use_global_stats": "False"
      }, 
      "inputs": []
    }, 
    {
      "op": "null", 
      "name": "bn_conv03_04_b_beta", 
      "attrs": {
        "eps": "0.0001", 
        "fix_gamma": "False", 
        "use_global_stats": "False"
      }, 
      "inputs": []
    }, 
    {
      "op": "null", 
      "name": "bn_conv03_04_b_moving_mean", 
      "attrs": {
        "__init__": "[\"zero\", {}]", 
        "eps": "0.0001", 
        "fix_gamma": "False", 
        "use_global_stats": "False"
      }, 
      "inputs": []
    }, 
    {
      "op": "null", 
      "name": "bn_conv03_04_b_moving_var", 
      "attrs": {
        "__init__": "[\"one\", {}]", 
        "eps": "0.0001", 
        "fix_gamma": "False", 
        "use_global_stats": "False"
      }, 
      "inputs": []
    }, 
    {
      "op": "BatchNorm", 
      "name": "bn_conv03_04_b", 
      "attrs": {
        "eps": "0.0001", 
        "fix_gamma": "False", 
        "use_global_stats": "False"
      }, 
      "inputs": [[345, 0, 0], [346, 0, 0], [347, 0, 0], [348, 0, 1], [349, 0, 1]]
    }, 
    {
      "op": "Activation", 
      "name": "relu03_04_b", 
      "attrs": {"act_type": "relu"}, 
      "inputs": [[350, 0, 0]]
    }, 
    {
      "op": "null", 
      "name": "conv03_04_b_weight", 
      "attrs": {
        "dilate": "(1, 1)", 
        "kernel": "(3, 3)", 
        "layout": "NCHW", 
        "no_bias": "False", 
        "num_filter": "64", 
        "num_group": "1", 
        "pad": "(1, 1)", 
        "stride": "(1, 1)"
      }, 
      "inputs": []
    }, 
    {
      "op": "null", 
      "name": "conv03_04_b_bias", 
      "attrs": {
        "dilate": "(1, 1)", 
        "kernel": "(3, 3)", 
        "layout": "NCHW", 
        "no_bias": "False", 
        "num_filter": "64", 
        "num_group": "1", 
        "pad": "(1, 1)", 
        "stride": "(1, 1)"
      }, 
      "inputs": []
    }, 
    {
      "op": "Convolution", 
      "name": "conv03_04_b", 
      "attrs": {
        "dilate": "(1, 1)", 
        "kernel": "(3, 3)", 
        "layout": "NCHW", 
        "no_bias": "False", 
        "num_filter": "64", 
        "num_group": "1", 
        "pad": "(1, 1)", 
        "stride": "(1, 1)"
      }, 
      "inputs": [[351, 0, 0], [352, 0, 0], [353, 0, 0]]
    }, 
    {
      "op": "broadcast_add", 
      "name": "eltwise03_04", 
      "inputs": [[336, 0, 0], [354, 0, 0]]
    }, 
    {
      "op": "null", 
      "name": "bn_conv03_05_a_gamma", 
      "attrs": {
        "eps": "0.0001", 
        "fix_gamma": "False", 
        "use_global_stats": "False"
      }, 
      "inputs": []
    }, 
    {
      "op": "null", 
      "name": "bn_conv03_05_a_beta", 
      "attrs": {
        "eps": "0.0001", 
        "fix_gamma": "False", 
        "use_global_stats": "False"
      }, 
      "inputs": []
    }, 
    {
      "op": "null", 
      "name": "bn_conv03_05_a_moving_mean", 
      "attrs": {
        "__init__": "[\"zero\", {}]", 
        "eps": "0.0001", 
        "fix_gamma": "False", 
        "use_global_stats": "False"
      }, 
      "inputs": []
    }, 
    {
      "op": "null", 
      "name": "bn_conv03_05_a_moving_var", 
      "attrs": {
        "__init__": "[\"one\", {}]", 
        "eps": "0.0001", 
        "fix_gamma": "False", 
        "use_global_stats": "False"
      }, 
      "inputs": []
    }, 
    {
      "op": "BatchNorm", 
      "name": "bn_conv03_05_a", 
      "attrs": {
        "eps": "0.0001", 
        "fix_gamma": "False", 
        "use_global_stats": "False"
      }, 
      "inputs": [[355, 0, 0], [356, 0, 0], [357, 0, 0], [358, 0, 1], [359, 0, 1]]
    }, 
    {
      "op": "Activation", 
      "name": "relu03_05_a", 
      "attrs": {"act_type": "relu"}, 
      "inputs": [[360, 0, 0]]
    }, 
    {
      "op": "null", 
      "name": "conv03_05_a_weight", 
      "attrs": {
        "dilate": "(1, 1)", 
        "kernel": "(3, 3)", 
        "layout": "NCHW", 
        "no_bias": "False", 
        "num_filter": "64", 
        "num_group": "1", 
        "pad": "(1, 1)", 
        "stride": "(1, 1)"
      }, 
      "inputs": []
    }, 
    {
      "op": "null", 
      "name": "conv03_05_a_bias", 
      "attrs": {
        "dilate": "(1, 1)", 
        "kernel": "(3, 3)", 
        "layout": "NCHW", 
        "no_bias": "False", 
        "num_filter": "64", 
        "num_group": "1", 
        "pad": "(1, 1)", 
        "stride": "(1, 1)"
      }, 
      "inputs": []
    }, 
    {
      "op": "Convolution", 
      "name": "conv03_05_a", 
      "attrs": {
        "dilate": "(1, 1)", 
        "kernel": "(3, 3)", 
        "layout": "NCHW", 
        "no_bias": "False", 
        "num_filter": "64", 
        "num_group": "1", 
        "pad": "(1, 1)", 
        "stride": "(1, 1)"
      }, 
      "inputs": [[361, 0, 0], [362, 0, 0], [363, 0, 0]]
    }, 
    {
      "op": "null", 
      "name": "bn_conv03_05_b_gamma", 
      "attrs": {
        "eps": "0.0001", 
        "fix_gamma": "False", 
        "use_global_stats": "False"
      }, 
      "inputs": []
    }, 
    {
      "op": "null", 
      "name": "bn_conv03_05_b_beta", 
      "attrs": {
        "eps": "0.0001", 
        "fix_gamma": "False", 
        "use_global_stats": "False"
      }, 
      "inputs": []
    }, 
    {
      "op": "null", 
      "name": "bn_conv03_05_b_moving_mean", 
      "attrs": {
        "__init__": "[\"zero\", {}]", 
        "eps": "0.0001", 
        "fix_gamma": "False", 
        "use_global_stats": "False"
      }, 
      "inputs": []
    }, 
    {
      "op": "null", 
      "name": "bn_conv03_05_b_moving_var", 
      "attrs": {
        "__init__": "[\"one\", {}]", 
        "eps": "0.0001", 
        "fix_gamma": "False", 
        "use_global_stats": "False"
      }, 
      "inputs": []
    }, 
    {
      "op": "BatchNorm", 
      "name": "bn_conv03_05_b", 
      "attrs": {
        "eps": "0.0001", 
        "fix_gamma": "False", 
        "use_global_stats": "False"
      }, 
      "inputs": [[364, 0, 0], [365, 0, 0], [366, 0, 0], [367, 0, 1], [368, 0, 1]]
    }, 
    {
      "op": "Activation", 
      "name": "relu03_05_b", 
      "attrs": {"act_type": "relu"}, 
      "inputs": [[369, 0, 0]]
    }, 
    {
      "op": "null", 
      "name": "conv03_05_b_weight", 
      "attrs": {
        "dilate": "(1, 1)", 
        "kernel": "(3, 3)", 
        "layout": "NCHW", 
        "no_bias": "False", 
        "num_filter": "64", 
        "num_group": "1", 
        "pad": "(1, 1)", 
        "stride": "(1, 1)"
      }, 
      "inputs": []
    }, 
    {
      "op": "null", 
      "name": "conv03_05_b_bias", 
      "attrs": {
        "dilate": "(1, 1)", 
        "kernel": "(3, 3)", 
        "layout": "NCHW", 
        "no_bias": "False", 
        "num_filter": "64", 
        "num_group": "1", 
        "pad": "(1, 1)", 
        "stride": "(1, 1)"
      }, 
      "inputs": []
    }, 
    {
      "op": "Convolution", 
      "name": "conv03_05_b", 
      "attrs": {
        "dilate": "(1, 1)", 
        "kernel": "(3, 3)", 
        "layout": "NCHW", 
        "no_bias": "False", 
        "num_filter": "64", 
        "num_group": "1", 
        "pad": "(1, 1)", 
        "stride": "(1, 1)"
      }, 
      "inputs": [[370, 0, 0], [371, 0, 0], [372, 0, 0]]
    }, 
    {
      "op": "broadcast_add", 
      "name": "eltwise03_05", 
      "inputs": [[355, 0, 0], [373, 0, 0]]
    }, 
    {
      "op": "null", 
      "name": "bn_conv03_06_a_gamma", 
      "attrs": {
        "eps": "0.0001", 
        "fix_gamma": "False", 
        "use_global_stats": "False"
      }, 
      "inputs": []
    }, 
    {
      "op": "null", 
      "name": "bn_conv03_06_a_beta", 
      "attrs": {
        "eps": "0.0001", 
        "fix_gamma": "False", 
        "use_global_stats": "False"
      }, 
      "inputs": []
    }, 
    {
      "op": "null", 
      "name": "bn_conv03_06_a_moving_mean", 
      "attrs": {
        "__init__": "[\"zero\", {}]", 
        "eps": "0.0001", 
        "fix_gamma": "False", 
        "use_global_stats": "False"
      }, 
      "inputs": []
    }, 
    {
      "op": "null", 
      "name": "bn_conv03_06_a_moving_var", 
      "attrs": {
        "__init__": "[\"one\", {}]", 
        "eps": "0.0001", 
        "fix_gamma": "False", 
        "use_global_stats": "False"
      }, 
      "inputs": []
    }, 
    {
      "op": "BatchNorm", 
      "name": "bn_conv03_06_a", 
      "attrs": {
        "eps": "0.0001", 
        "fix_gamma": "False", 
        "use_global_stats": "False"
      }, 
      "inputs": [[374, 0, 0], [375, 0, 0], [376, 0, 0], [377, 0, 1], [378, 0, 1]]
    }, 
    {
      "op": "Activation", 
      "name": "relu03_06_a", 
      "attrs": {"act_type": "relu"}, 
      "inputs": [[379, 0, 0]]
    }, 
    {
      "op": "null", 
      "name": "conv03_06_a_weight", 
      "attrs": {
        "dilate": "(1, 1)", 
        "kernel": "(3, 3)", 
        "layout": "NCHW", 
        "no_bias": "False", 
        "num_filter": "64", 
        "num_group": "1", 
        "pad": "(1, 1)", 
        "stride": "(1, 1)"
      }, 
      "inputs": []
    }, 
    {
      "op": "null", 
      "name": "conv03_06_a_bias", 
      "attrs": {
        "dilate": "(1, 1)", 
        "kernel": "(3, 3)", 
        "layout": "NCHW", 
        "no_bias": "False", 
        "num_filter": "64", 
        "num_group": "1", 
        "pad": "(1, 1)", 
        "stride": "(1, 1)"
      }, 
      "inputs": []
    }, 
    {
      "op": "Convolution", 
      "name": "conv03_06_a", 
      "attrs": {
        "dilate": "(1, 1)", 
        "kernel": "(3, 3)", 
        "layout": "NCHW", 
        "no_bias": "False", 
        "num_filter": "64", 
        "num_group": "1", 
        "pad": "(1, 1)", 
        "stride": "(1, 1)"
      }, 
      "inputs": [[380, 0, 0], [381, 0, 0], [382, 0, 0]]
    }, 
    {
      "op": "null", 
      "name": "bn_conv03_06_b_gamma", 
      "attrs": {
        "eps": "0.0001", 
        "fix_gamma": "False", 
        "use_global_stats": "False"
      }, 
      "inputs": []
    }, 
    {
      "op": "null", 
      "name": "bn_conv03_06_b_beta", 
      "attrs": {
        "eps": "0.0001", 
        "fix_gamma": "False", 
        "use_global_stats": "False"
      }, 
      "inputs": []
    }, 
    {
      "op": "null", 
      "name": "bn_conv03_06_b_moving_mean", 
      "attrs": {
        "__init__": "[\"zero\", {}]", 
        "eps": "0.0001", 
        "fix_gamma": "False", 
        "use_global_stats": "False"
      }, 
      "inputs": []
    }, 
    {
      "op": "null", 
      "name": "bn_conv03_06_b_moving_var", 
      "attrs": {
        "__init__": "[\"one\", {}]", 
        "eps": "0.0001", 
        "fix_gamma": "False", 
        "use_global_stats": "False"
      }, 
      "inputs": []
    }, 
    {
      "op": "BatchNorm", 
      "name": "bn_conv03_06_b", 
      "attrs": {
        "eps": "0.0001", 
        "fix_gamma": "False", 
        "use_global_stats": "False"
      }, 
      "inputs": [[383, 0, 0], [384, 0, 0], [385, 0, 0], [386, 0, 1], [387, 0, 1]]
    }, 
    {
      "op": "Activation", 
      "name": "relu03_06_b", 
      "attrs": {"act_type": "relu"}, 
      "inputs": [[388, 0, 0]]
    }, 
    {
      "op": "null", 
      "name": "conv03_06_b_weight", 
      "attrs": {
        "dilate": "(1, 1)", 
        "kernel": "(3, 3)", 
        "layout": "NCHW", 
        "no_bias": "False", 
        "num_filter": "64", 
        "num_group": "1", 
        "pad": "(1, 1)", 
        "stride": "(1, 1)"
      }, 
      "inputs": []
    }, 
    {
      "op": "null", 
      "name": "conv03_06_b_bias", 
      "attrs": {
        "dilate": "(1, 1)", 
        "kernel": "(3, 3)", 
        "layout": "NCHW", 
        "no_bias": "False", 
        "num_filter": "64", 
        "num_group": "1", 
        "pad": "(1, 1)", 
        "stride": "(1, 1)"
      }, 
      "inputs": []
    }, 
    {
      "op": "Convolution", 
      "name": "conv03_06_b", 
      "attrs": {
        "dilate": "(1, 1)", 
        "kernel": "(3, 3)", 
        "layout": "NCHW", 
        "no_bias": "False", 
        "num_filter": "64", 
        "num_group": "1", 
        "pad": "(1, 1)", 
        "stride": "(1, 1)"
      }, 
      "inputs": [[389, 0, 0], [390, 0, 0], [391, 0, 0]]
    }, 
    {
      "op": "broadcast_add", 
      "name": "eltwise03_06", 
      "inputs": [[374, 0, 0], [392, 0, 0]]
    }, 
    {
      "op": "Concat", 
      "name": "concat03", 
      "attrs": {"num_args": "9"}, 
      "inputs": [[9, 0, 0], [133, 0, 0], [268, 0, 0], [298, 0, 0], [317, 0, 0], [336, 0, 0], [355, 0, 0], [374, 0, 0], [393, 0, 0]]
    }, 
    {
      "op": "null", 
      "name": "bn_conv_transition_03_gamma", 
      "attrs": {
        "eps": "0.0001", 
        "fix_gamma": "False", 
        "use_global_stats": "False"
      }, 
      "inputs": []
    }, 
    {
      "op": "null", 
      "name": "bn_conv_transition_03_beta", 
      "attrs": {
        "eps": "0.0001", 
        "fix_gamma": "False", 
        "use_global_stats": "False"
      }, 
      "inputs": []
    }, 
    {
      "op": "null", 
      "name": "bn_conv_transition_03_moving_mean", 
      "attrs": {
        "__init__": "[\"zero\", {}]", 
        "eps": "0.0001", 
        "fix_gamma": "False", 
        "use_global_stats": "False"
      }, 
      "inputs": []
    }, 
    {
      "op": "null", 
      "name": "bn_conv_transition_03_moving_var", 
      "attrs": {
        "__init__": "[\"one\", {}]", 
        "eps": "0.0001", 
        "fix_gamma": "False", 
        "use_global_stats": "False"
      }, 
      "inputs": []
    }, 
    {
      "op": "BatchNorm", 
      "name": "bn_conv_transition_03", 
      "attrs": {
        "eps": "0.0001", 
        "fix_gamma": "False", 
        "use_global_stats": "False"
      }, 
      "inputs": [[394, 0, 0], [395, 0, 0], [396, 0, 0], [397, 0, 1], [398, 0, 1]]
    }, 
    {
      "op": "Activation", 
      "name": "relu_transition_03", 
      "attrs": {"act_type": "relu"}, 
      "inputs": [[399, 0, 0]]
    }, 
    {
      "op": "null", 
      "name": "conv_transition_03_weight", 
      "attrs": {
        "dilate": "(1, 1)", 
        "kernel": "(1, 1)", 
        "layout": "NCHW", 
        "no_bias": "False", 
        "num_filter": "64", 
        "num_group": "1", 
        "pad": "(0, 0)", 
        "stride": "(1, 1)"
      }, 
      "inputs": []
    }, 
    {
      "op": "null", 
      "name": "conv_transition_03_bias", 
      "attrs": {
        "dilate": "(1, 1)", 
        "kernel": "(1, 1)", 
        "layout": "NCHW", 
        "no_bias": "False", 
        "num_filter": "64", 
        "num_group": "1", 
        "pad": "(0, 0)", 
        "stride": "(1, 1)"
      }, 
      "inputs": []
    }, 
    {
      "op": "Convolution", 
      "name": "conv_transition_03", 
      "attrs": {
        "dilate": "(1, 1)", 
        "kernel": "(1, 1)", 
        "layout": "NCHW", 
        "no_bias": "False", 
        "num_filter": "64", 
        "num_group": "1", 
        "pad": "(0, 0)", 
        "stride": "(1, 1)"
      }, 
      "inputs": [[400, 0, 0], [401, 0, 0], [402, 0, 0]]
    }, 
    {
      "op": "null", 
      "name": "bn_conv_end_03_gamma", 
      "attrs": {
        "eps": "0.0001", 
        "fix_gamma": "False", 
        "use_global_stats": "False"
      }, 
      "inputs": []
    }, 
    {
      "op": "null", 
      "name": "bn_conv_end_03_beta", 
      "attrs": {
        "eps": "0.0001", 
        "fix_gamma": "False", 
        "use_global_stats": "False"
      }, 
      "inputs": []
    }, 
    {
      "op": "null", 
      "name": "bn_conv_end_03_moving_mean", 
      "attrs": {
        "__init__": "[\"zero\", {}]", 
        "eps": "0.0001", 
        "fix_gamma": "False", 
        "use_global_stats": "False"
      }, 
      "inputs": []
    }, 
    {
      "op": "null", 
      "name": "bn_conv_end_03_moving_var", 
      "attrs": {
        "__init__": "[\"one\", {}]", 
        "eps": "0.0001", 
        "fix_gamma": "False", 
        "use_global_stats": "False"
      }, 
      "inputs": []
    }, 
    {
      "op": "BatchNorm", 
      "name": "bn_conv_end_03", 
      "attrs": {
        "eps": "0.0001", 
        "fix_gamma": "False", 
        "use_global_stats": "False"
      }, 
      "inputs": [[403, 0, 0], [404, 0, 0], [405, 0, 0], [406, 0, 1], [407, 0, 1]]
    }, 
    {
      "op": "Activation", 
      "name": "relu_end_03", 
      "attrs": {"act_type": "relu"}, 
      "inputs": [[408, 0, 0]]
    }, 
    {
      "op": "null", 
      "name": "conv_end_03_weight", 
      "attrs": {
        "dilate": "(1, 1)", 
        "kernel": "(3, 3)", 
        "layout": "NCHW", 
        "no_bias": "False", 
        "num_filter": "1", 
        "num_group": "1", 
        "pad": "(1, 1)", 
        "stride": "(1, 1)"
      }, 
      "inputs": []
    }, 
    {
      "op": "null", 
      "name": "conv_end_03_bias", 
      "attrs": {
        "dilate": "(1, 1)", 
        "kernel": "(3, 3)", 
        "layout": "NCHW", 
        "no_bias": "False", 
        "num_filter": "1", 
        "num_group": "1", 
        "pad": "(1, 1)", 
        "stride": "(1, 1)"
      }, 
      "inputs": []
    }, 
    {
      "op": "Convolution", 
      "name": "conv_end_03", 
      "attrs": {
        "dilate": "(1, 1)", 
        "kernel": "(3, 3)", 
        "layout": "NCHW", 
        "no_bias": "False", 
        "num_filter": "1", 
        "num_group": "1", 
        "pad": "(1, 1)", 
        "stride": "(1, 1)"
      }, 
      "inputs": [[409, 0, 0], [410, 0, 0], [411, 0, 0]]
    }, 
    {
      "op": "broadcast_add", 
      "name": "HR_recovery_03", 
      "inputs": [[0, 0, 0], [412, 0, 0]]
    }, 
    {
      "op": "_mul_scalar", 
      "name": "_mulscalar2", 
      "attrs": {"scalar": "0.011060499586164951"}, 
      "inputs": [[413, 0, 0]]
    }, 
    {
      "op": "null", 
      "name": "bn_conv04_01_a_gamma", 
      "attrs": {
        "eps": "0.0001", 
        "fix_gamma": "False", 
        "use_global_stats": "False"
      }, 
      "inputs": []
    }, 
    {
      "op": "null", 
      "name": "bn_conv04_01_a_beta", 
      "attrs": {
        "eps": "0.0001", 
        "fix_gamma": "False", 
        "use_global_stats": "False"
      }, 
      "inputs": []
    }, 
    {
      "op": "null", 
      "name": "bn_conv04_01_a_moving_mean", 
      "attrs": {
        "__init__": "[\"zero\", {}]", 
        "eps": "0.0001", 
        "fix_gamma": "False", 
        "use_global_stats": "False"
      }, 
      "inputs": []
    }, 
    {
      "op": "null", 
      "name": "bn_conv04_01_a_moving_var", 
      "attrs": {
        "__init__": "[\"one\", {}]", 
        "eps": "0.0001", 
        "fix_gamma": "False", 
        "use_global_stats": "False"
      }, 
      "inputs": []
    }, 
    {
      "op": "BatchNorm", 
      "name": "bn_conv04_01_a", 
      "attrs": {
        "eps": "0.0001", 
        "fix_gamma": "False", 
        "use_global_stats": "False"
      }, 
      "inputs": [[403, 0, 0], [415, 0, 0], [416, 0, 0], [417, 0, 1], [418, 0, 1]]
    }, 
    {
      "op": "Activation", 
      "name": "relu04_01_a", 
      "attrs": {"act_type": "relu"}, 
      "inputs": [[419, 0, 0]]
    }, 
    {
      "op": "null", 
      "name": "conv04_01_a_weight", 
      "attrs": {
        "dilate": "(1, 1)", 
        "kernel": "(3, 3)", 
        "layout": "NCHW", 
        "no_bias": "False", 
        "num_filter": "64", 
        "num_group": "1", 
        "pad": "(1, 1)", 
        "stride": "(1, 1)"
      }, 
      "inputs": []
    }, 
    {
      "op": "null", 
      "name": "conv04_01_a_bias", 
      "attrs": {
        "dilate": "(1, 1)", 
        "kernel": "(3, 3)", 
        "layout": "NCHW", 
        "no_bias": "False", 
        "num_filter": "64", 
        "num_group": "1", 
        "pad": "(1, 1)", 
        "stride": "(1, 1)"
      }, 
      "inputs": []
    }, 
    {
      "op": "Convolution", 
      "name": "conv04_01_a", 
      "attrs": {
        "dilate": "(1, 1)", 
        "kernel": "(3, 3)", 
        "layout": "NCHW", 
        "no_bias": "False", 
        "num_filter": "64", 
        "num_group": "1", 
        "pad": "(1, 1)", 
        "stride": "(1, 1)"
      }, 
      "inputs": [[420, 0, 0], [421, 0, 0], [422, 0, 0]]
    }, 
    {
      "op": "null", 
      "name": "bn_conv04_01_b_gamma", 
      "attrs": {
        "eps": "0.0001", 
        "fix_gamma": "False", 
        "use_global_stats": "False"
      }, 
      "inputs": []
    }, 
    {
      "op": "null", 
      "name": "bn_conv04_01_b_beta", 
      "attrs": {
        "eps": "0.0001", 
        "fix_gamma": "False", 
        "use_global_stats": "False"
      }, 
      "inputs": []
    }, 
    {
      "op": "null", 
      "name": "bn_conv04_01_b_moving_mean", 
      "attrs": {
        "__init__": "[\"zero\", {}]", 
        "eps": "0.0001", 
        "fix_gamma": "False", 
        "use_global_stats": "False"
      }, 
      "inputs": []
    }, 
    {
      "op": "null", 
      "name": "bn_conv04_01_b_moving_var", 
      "attrs": {
        "__init__": "[\"one\", {}]", 
        "eps": "0.0001", 
        "fix_gamma": "False", 
        "use_global_stats": "False"
      }, 
      "inputs": []
    }, 
    {
      "op": "BatchNorm", 
      "name": "bn_conv04_01_b", 
      "attrs": {
        "eps": "0.0001", 
        "fix_gamma": "False", 
        "use_global_stats": "False"
      }, 
      "inputs": [[423, 0, 0], [424, 0, 0], [425, 0, 0], [426, 0, 1], [427, 0, 1]]
    }, 
    {
      "op": "Activation", 
      "name": "relu04_01_b", 
      "attrs": {"act_type": "relu"}, 
      "inputs": [[428, 0, 0]]
    }, 
    {
      "op": "null", 
      "name": "conv04_01_b_weight", 
      "attrs": {
        "dilate": "(1, 1)", 
        "kernel": "(3, 3)", 
        "layout": "NCHW", 
        "no_bias": "False", 
        "num_filter": "64", 
        "num_group": "1", 
        "pad": "(1, 1)", 
        "stride": "(1, 1)"
      }, 
      "inputs": []
    }, 
    {
      "op": "null", 
      "name": "conv04_01_b_bias", 
      "attrs": {
        "dilate": "(1, 1)", 
        "kernel": "(3, 3)", 
        "layout": "NCHW", 
        "no_bias": "False", 
        "num_filter": "64", 
        "num_group": "1", 
        "pad": "(1, 1)", 
        "stride": "(1, 1)"
      }, 
      "inputs": []
    }, 
    {
      "op": "Convolution", 
      "name": "conv04_01_b", 
      "attrs": {
        "dilate": "(1, 1)", 
        "kernel": "(3, 3)", 
        "layout": "NCHW", 
        "no_bias": "False", 
        "num_filter": "64", 
        "num_group": "1", 
        "pad": "(1, 1)", 
        "stride": "(1, 1)"
      }, 
      "inputs": [[429, 0, 0], [430, 0, 0], [431, 0, 0]]
    }, 
    {
      "op": "broadcast_add", 
      "name": "eltwise04_01", 
      "inputs": [[403, 0, 0], [432, 0, 0]]
    }, 
    {
      "op": "null", 
      "name": "bn_conv04_02_a_gamma", 
      "attrs": {
        "eps": "0.0001", 
        "fix_gamma": "False", 
        "use_global_stats": "False"
      }, 
      "inputs": []
    }, 
    {
      "op": "null", 
      "name": "bn_conv04_02_a_beta", 
      "attrs": {
        "eps": "0.0001", 
        "fix_gamma": "False", 
        "use_global_stats": "False"
      }, 
      "inputs": []
    }, 
    {
      "op": "null", 
      "name": "bn_conv04_02_a_moving_mean", 
      "attrs": {
        "__init__": "[\"zero\", {}]", 
        "eps": "0.0001", 
        "fix_gamma": "False", 
        "use_global_stats": "False"
      }, 
      "inputs": []
    }, 
    {
      "op": "null", 
      "name": "bn_conv04_02_a_moving_var", 
      "attrs": {
        "__init__": "[\"one\", {}]", 
        "eps": "0.0001", 
        "fix_gamma": "False", 
        "use_global_stats": "False"
      }, 
      "inputs": []
    }, 
    {
      "op": "BatchNorm", 
      "name": "bn_conv04_02_a", 
      "attrs": {
        "eps": "0.0001", 
        "fix_gamma": "False", 
        "use_global_stats": "False"
      }, 
      "inputs": [[433, 0, 0], [434, 0, 0], [435, 0, 0], [436, 0, 1], [437, 0, 1]]
    }, 
    {
      "op": "Activation", 
      "name": "relu04_02_a", 
      "attrs": {"act_type": "relu"}, 
      "inputs": [[438, 0, 0]]
    }, 
    {
      "op": "null", 
      "name": "conv04_02_a_weight", 
      "attrs": {
        "dilate": "(1, 1)", 
        "kernel": "(3, 3)", 
        "layout": "NCHW", 
        "no_bias": "False", 
        "num_filter": "64", 
        "num_group": "1", 
        "pad": "(1, 1)", 
        "stride": "(1, 1)"
      }, 
      "inputs": []
    }, 
    {
      "op": "null", 
      "name": "conv04_02_a_bias", 
      "attrs": {
        "dilate": "(1, 1)", 
        "kernel": "(3, 3)", 
        "layout": "NCHW", 
        "no_bias": "False", 
        "num_filter": "64", 
        "num_group": "1", 
        "pad": "(1, 1)", 
        "stride": "(1, 1)"
      }, 
      "inputs": []
    }, 
    {
      "op": "Convolution", 
      "name": "conv04_02_a", 
      "attrs": {
        "dilate": "(1, 1)", 
        "kernel": "(3, 3)", 
        "layout": "NCHW", 
        "no_bias": "False", 
        "num_filter": "64", 
        "num_group": "1", 
        "pad": "(1, 1)", 
        "stride": "(1, 1)"
      }, 
      "inputs": [[439, 0, 0], [440, 0, 0], [441, 0, 0]]
    }, 
    {
      "op": "null", 
      "name": "bn_conv04_02_b_gamma", 
      "attrs": {
        "eps": "0.0001", 
        "fix_gamma": "False", 
        "use_global_stats": "False"
      }, 
      "inputs": []
    }, 
    {
      "op": "null", 
      "name": "bn_conv04_02_b_beta", 
      "attrs": {
        "eps": "0.0001", 
        "fix_gamma": "False", 
        "use_global_stats": "False"
      }, 
      "inputs": []
    }, 
    {
      "op": "null", 
      "name": "bn_conv04_02_b_moving_mean", 
      "attrs": {
        "__init__": "[\"zero\", {}]", 
        "eps": "0.0001", 
        "fix_gamma": "False", 
        "use_global_stats": "False"
      }, 
      "inputs": []
    }, 
    {
      "op": "null", 
      "name": "bn_conv04_02_b_moving_var", 
      "attrs": {
        "__init__": "[\"one\", {}]", 
        "eps": "0.0001", 
        "fix_gamma": "False", 
        "use_global_stats": "False"
      }, 
      "inputs": []
    }, 
    {
      "op": "BatchNorm", 
      "name": "bn_conv04_02_b", 
      "attrs": {
        "eps": "0.0001", 
        "fix_gamma": "False", 
        "use_global_stats": "False"
      }, 
      "inputs": [[442, 0, 0], [443, 0, 0], [444, 0, 0], [445, 0, 1], [446, 0, 1]]
    }, 
    {
      "op": "Activation", 
      "name": "relu04_02_b", 
      "attrs": {"act_type": "relu"}, 
      "inputs": [[447, 0, 0]]
    }, 
    {
      "op": "null", 
      "name": "conv04_02_b_weight", 
      "attrs": {
        "dilate": "(1, 1)", 
        "kernel": "(3, 3)", 
        "layout": "NCHW", 
        "no_bias": "False", 
        "num_filter": "64", 
        "num_group": "1", 
        "pad": "(1, 1)", 
        "stride": "(1, 1)"
      }, 
      "inputs": []
    }, 
    {
      "op": "null", 
      "name": "conv04_02_b_bias", 
      "attrs": {
        "dilate": "(1, 1)", 
        "kernel": "(3, 3)", 
        "layout": "NCHW", 
        "no_bias": "False", 
        "num_filter": "64", 
        "num_group": "1", 
        "pad": "(1, 1)", 
        "stride": "(1, 1)"
      }, 
      "inputs": []
    }, 
    {
      "op": "Convolution", 
      "name": "conv04_02_b", 
      "attrs": {
        "dilate": "(1, 1)", 
        "kernel": "(3, 3)", 
        "layout": "NCHW", 
        "no_bias": "False", 
        "num_filter": "64", 
        "num_group": "1", 
        "pad": "(1, 1)", 
        "stride": "(1, 1)"
      }, 
      "inputs": [[448, 0, 0], [449, 0, 0], [450, 0, 0]]
    }, 
    {
      "op": "broadcast_add", 
      "name": "eltwise04_02", 
      "inputs": [[433, 0, 0], [451, 0, 0]]
    }, 
    {
      "op": "null", 
      "name": "bn_conv04_03_a_gamma", 
      "attrs": {
        "eps": "0.0001", 
        "fix_gamma": "False", 
        "use_global_stats": "False"
      }, 
      "inputs": []
    }, 
    {
      "op": "null", 
      "name": "bn_conv04_03_a_beta", 
      "attrs": {
        "eps": "0.0001", 
        "fix_gamma": "False", 
        "use_global_stats": "False"
      }, 
      "inputs": []
    }, 
    {
      "op": "null", 
      "name": "bn_conv04_03_a_moving_mean", 
      "attrs": {
        "__init__": "[\"zero\", {}]", 
        "eps": "0.0001", 
        "fix_gamma": "False", 
        "use_global_stats": "False"
      }, 
      "inputs": []
    }, 
    {
      "op": "null", 
      "name": "bn_conv04_03_a_moving_var", 
      "attrs": {
        "__init__": "[\"one\", {}]", 
        "eps": "0.0001", 
        "fix_gamma": "False", 
        "use_global_stats": "False"
      }, 
      "inputs": []
    }, 
    {
      "op": "BatchNorm", 
      "name": "bn_conv04_03_a", 
      "attrs": {
        "eps": "0.0001", 
        "fix_gamma": "False", 
        "use_global_stats": "False"
      }, 
      "inputs": [[452, 0, 0], [453, 0, 0], [454, 0, 0], [455, 0, 1], [456, 0, 1]]
    }, 
    {
      "op": "Activation", 
      "name": "relu04_03_a", 
      "attrs": {"act_type": "relu"}, 
      "inputs": [[457, 0, 0]]
    }, 
    {
      "op": "null", 
      "name": "conv04_03_a_weight", 
      "attrs": {
        "dilate": "(1, 1)", 
        "kernel": "(3, 3)", 
        "layout": "NCHW", 
        "no_bias": "False", 
        "num_filter": "64", 
        "num_group": "1", 
        "pad": "(1, 1)", 
        "stride": "(1, 1)"
      }, 
      "inputs": []
    }, 
    {
      "op": "null", 
      "name": "conv04_03_a_bias", 
      "attrs": {
        "dilate": "(1, 1)", 
        "kernel": "(3, 3)", 
        "layout": "NCHW", 
        "no_bias": "False", 
        "num_filter": "64", 
        "num_group": "1", 
        "pad": "(1, 1)", 
        "stride": "(1, 1)"
      }, 
      "inputs": []
    }, 
    {
      "op": "Convolution", 
      "name": "conv04_03_a", 
      "attrs": {
        "dilate": "(1, 1)", 
        "kernel": "(3, 3)", 
        "layout": "NCHW", 
        "no_bias": "False", 
        "num_filter": "64", 
        "num_group": "1", 
        "pad": "(1, 1)", 
        "stride": "(1, 1)"
      }, 
      "inputs": [[458, 0, 0], [459, 0, 0], [460, 0, 0]]
    }, 
    {
      "op": "null", 
      "name": "bn_conv04_03_b_gamma", 
      "attrs": {
        "eps": "0.0001", 
        "fix_gamma": "False", 
        "use_global_stats": "False"
      }, 
      "inputs": []
    }, 
    {
      "op": "null", 
      "name": "bn_conv04_03_b_beta", 
      "attrs": {
        "eps": "0.0001", 
        "fix_gamma": "False", 
        "use_global_stats": "False"
      }, 
      "inputs": []
    }, 
    {
      "op": "null", 
      "name": "bn_conv04_03_b_moving_mean", 
      "attrs": {
        "__init__": "[\"zero\", {}]", 
        "eps": "0.0001", 
        "fix_gamma": "False", 
        "use_global_stats": "False"
      }, 
      "inputs": []
    }, 
    {
      "op": "null", 
      "name": "bn_conv04_03_b_moving_var", 
      "attrs": {
        "__init__": "[\"one\", {}]", 
        "eps": "0.0001", 
        "fix_gamma": "False", 
        "use_global_stats": "False"
      }, 
      "inputs": []
    }, 
    {
      "op": "BatchNorm", 
      "name": "bn_conv04_03_b", 
      "attrs": {
        "eps": "0.0001", 
        "fix_gamma": "False", 
        "use_global_stats": "False"
      }, 
      "inputs": [[461, 0, 0], [462, 0, 0], [463, 0, 0], [464, 0, 1], [465, 0, 1]]
    }, 
    {
      "op": "Activation", 
      "name": "relu04_03_b", 
      "attrs": {"act_type": "relu"}, 
      "inputs": [[466, 0, 0]]
    }, 
    {
      "op": "null", 
      "name": "conv04_03_b_weight", 
      "attrs": {
        "dilate": "(1, 1)", 
        "kernel": "(3, 3)", 
        "layout": "NCHW", 
        "no_bias": "False", 
        "num_filter": "64", 
        "num_group": "1", 
        "pad": "(1, 1)", 
        "stride": "(1, 1)"
      }, 
      "inputs": []
    }, 
    {
      "op": "null", 
      "name": "conv04_03_b_bias", 
      "attrs": {
        "dilate": "(1, 1)", 
        "kernel": "(3, 3)", 
        "layout": "NCHW", 
        "no_bias": "False", 
        "num_filter": "64", 
        "num_group": "1", 
        "pad": "(1, 1)", 
        "stride": "(1, 1)"
      }, 
      "inputs": []
    }, 
    {
      "op": "Convolution", 
      "name": "conv04_03_b", 
      "attrs": {
        "dilate": "(1, 1)", 
        "kernel": "(3, 3)", 
        "layout": "NCHW", 
        "no_bias": "False", 
        "num_filter": "64", 
        "num_group": "1", 
        "pad": "(1, 1)", 
        "stride": "(1, 1)"
      }, 
      "inputs": [[467, 0, 0], [468, 0, 0], [469, 0, 0]]
    }, 
    {
      "op": "broadcast_add", 
      "name": "eltwise04_03", 
      "inputs": [[452, 0, 0], [470, 0, 0]]
    }, 
    {
      "op": "null", 
      "name": "bn_conv04_04_a_gamma", 
      "attrs": {
        "eps": "0.0001", 
        "fix_gamma": "False", 
        "use_global_stats": "False"
      }, 
      "inputs": []
    }, 
    {
      "op": "null", 
      "name": "bn_conv04_04_a_beta", 
      "attrs": {
        "eps": "0.0001", 
        "fix_gamma": "False", 
        "use_global_stats": "False"
      }, 
      "inputs": []
    }, 
    {
      "op": "null", 
      "name": "bn_conv04_04_a_moving_mean", 
      "attrs": {
        "__init__": "[\"zero\", {}]", 
        "eps": "0.0001", 
        "fix_gamma": "False", 
        "use_global_stats": "False"
      }, 
      "inputs": []
    }, 
    {
      "op": "null", 
      "name": "bn_conv04_04_a_moving_var", 
      "attrs": {
        "__init__": "[\"one\", {}]", 
        "eps": "0.0001", 
        "fix_gamma": "False", 
        "use_global_stats": "False"
      }, 
      "inputs": []
    }, 
    {
      "op": "BatchNorm", 
      "name": "bn_conv04_04_a", 
      "attrs": {
        "eps": "0.0001", 
        "fix_gamma": "False", 
        "use_global_stats": "False"
      }, 
      "inputs": [[471, 0, 0], [472, 0, 0], [473, 0, 0], [474, 0, 1], [475, 0, 1]]
    }, 
    {
      "op": "Activation", 
      "name": "relu04_04_a", 
      "attrs": {"act_type": "relu"}, 
      "inputs": [[476, 0, 0]]
    }, 
    {
      "op": "null", 
      "name": "conv04_04_a_weight", 
      "attrs": {
        "dilate": "(1, 1)", 
        "kernel": "(3, 3)", 
        "layout": "NCHW", 
        "no_bias": "False", 
        "num_filter": "64", 
        "num_group": "1", 
        "pad": "(1, 1)", 
        "stride": "(1, 1)"
      }, 
      "inputs": []
    }, 
    {
      "op": "null", 
      "name": "conv04_04_a_bias", 
      "attrs": {
        "dilate": "(1, 1)", 
        "kernel": "(3, 3)", 
        "layout": "NCHW", 
        "no_bias": "False", 
        "num_filter": "64", 
        "num_group": "1", 
        "pad": "(1, 1)", 
        "stride": "(1, 1)"
      }, 
      "inputs": []
    }, 
    {
      "op": "Convolution", 
      "name": "conv04_04_a", 
      "attrs": {
        "dilate": "(1, 1)", 
        "kernel": "(3, 3)", 
        "layout": "NCHW", 
        "no_bias": "False", 
        "num_filter": "64", 
        "num_group": "1", 
        "pad": "(1, 1)", 
        "stride": "(1, 1)"
      }, 
      "inputs": [[477, 0, 0], [478, 0, 0], [479, 0, 0]]
    }, 
    {
      "op": "null", 
      "name": "bn_conv04_04_b_gamma", 
      "attrs": {
        "eps": "0.0001", 
        "fix_gamma": "False", 
        "use_global_stats": "False"
      }, 
      "inputs": []
    }, 
    {
      "op": "null", 
      "name": "bn_conv04_04_b_beta", 
      "attrs": {
        "eps": "0.0001", 
        "fix_gamma": "False", 
        "use_global_stats": "False"
      }, 
      "inputs": []
    }, 
    {
      "op": "null", 
      "name": "bn_conv04_04_b_moving_mean", 
      "attrs": {
        "__init__": "[\"zero\", {}]", 
        "eps": "0.0001", 
        "fix_gamma": "False", 
        "use_global_stats": "False"
      }, 
      "inputs": []
    }, 
    {
      "op": "null", 
      "name": "bn_conv04_04_b_moving_var", 
      "attrs": {
        "__init__": "[\"one\", {}]", 
        "eps": "0.0001", 
        "fix_gamma": "False", 
        "use_global_stats": "False"
      }, 
      "inputs": []
    }, 
    {
      "op": "BatchNorm", 
      "name": "bn_conv04_04_b", 
      "attrs": {
        "eps": "0.0001", 
        "fix_gamma": "False", 
        "use_global_stats": "False"
      }, 
      "inputs": [[480, 0, 0], [481, 0, 0], [482, 0, 0], [483, 0, 1], [484, 0, 1]]
    }, 
    {
      "op": "Activation", 
      "name": "relu04_04_b", 
      "attrs": {"act_type": "relu"}, 
      "inputs": [[485, 0, 0]]
    }, 
    {
      "op": "null", 
      "name": "conv04_04_b_weight", 
      "attrs": {
        "dilate": "(1, 1)", 
        "kernel": "(3, 3)", 
        "layout": "NCHW", 
        "no_bias": "False", 
        "num_filter": "64", 
        "num_group": "1", 
        "pad": "(1, 1)", 
        "stride": "(1, 1)"
      }, 
      "inputs": []
    }, 
    {
      "op": "null", 
      "name": "conv04_04_b_bias", 
      "attrs": {
        "dilate": "(1, 1)", 
        "kernel": "(3, 3)", 
        "layout": "NCHW", 
        "no_bias": "False", 
        "num_filter": "64", 
        "num_group": "1", 
        "pad": "(1, 1)", 
        "stride": "(1, 1)"
      }, 
      "inputs": []
    }, 
    {
      "op": "Convolution", 
      "name": "conv04_04_b", 
      "attrs": {
        "dilate": "(1, 1)", 
        "kernel": "(3, 3)", 
        "layout": "NCHW", 
        "no_bias": "False", 
        "num_filter": "64", 
        "num_group": "1", 
        "pad": "(1, 1)", 
        "stride": "(1, 1)"
      }, 
      "inputs": [[486, 0, 0], [487, 0, 0], [488, 0, 0]]
    }, 
    {
      "op": "broadcast_add", 
      "name": "eltwise04_04", 
      "inputs": [[471, 0, 0], [489, 0, 0]]
    }, 
    {
      "op": "null", 
      "name": "bn_conv04_05_a_gamma", 
      "attrs": {
        "eps": "0.0001", 
        "fix_gamma": "False", 
        "use_global_stats": "False"
      }, 
      "inputs": []
    }, 
    {
      "op": "null", 
      "name": "bn_conv04_05_a_beta", 
      "attrs": {
        "eps": "0.0001", 
        "fix_gamma": "False", 
        "use_global_stats": "False"
      }, 
      "inputs": []
    }, 
    {
      "op": "null", 
      "name": "bn_conv04_05_a_moving_mean", 
      "attrs": {
        "__init__": "[\"zero\", {}]", 
        "eps": "0.0001", 
        "fix_gamma": "False", 
        "use_global_stats": "False"
      }, 
      "inputs": []
    }, 
    {
      "op": "null", 
      "name": "bn_conv04_05_a_moving_var", 
      "attrs": {
        "__init__": "[\"one\", {}]", 
        "eps": "0.0001", 
        "fix_gamma": "False", 
        "use_global_stats": "False"
      }, 
      "inputs": []
    }, 
    {
      "op": "BatchNorm", 
      "name": "bn_conv04_05_a", 
      "attrs": {
        "eps": "0.0001", 
        "fix_gamma": "False", 
        "use_global_stats": "False"
      }, 
      "inputs": [[490, 0, 0], [491, 0, 0], [492, 0, 0], [493, 0, 1], [494, 0, 1]]
    }, 
    {
      "op": "Activation", 
      "name": "relu04_05_a", 
      "attrs": {"act_type": "relu"}, 
      "inputs": [[495, 0, 0]]
    }, 
    {
      "op": "null", 
      "name": "conv04_05_a_weight", 
      "attrs": {
        "dilate": "(1, 1)", 
        "kernel": "(3, 3)", 
        "layout": "NCHW", 
        "no_bias": "False", 
        "num_filter": "64", 
        "num_group": "1", 
        "pad": "(1, 1)", 
        "stride": "(1, 1)"
      }, 
      "inputs": []
    }, 
    {
      "op": "null", 
      "name": "conv04_05_a_bias", 
      "attrs": {
        "dilate": "(1, 1)", 
        "kernel": "(3, 3)", 
        "layout": "NCHW", 
        "no_bias": "False", 
        "num_filter": "64", 
        "num_group": "1", 
        "pad": "(1, 1)", 
        "stride": "(1, 1)"
      }, 
      "inputs": []
    }, 
    {
      "op": "Convolution", 
      "name": "conv04_05_a", 
      "attrs": {
        "dilate": "(1, 1)", 
        "kernel": "(3, 3)", 
        "layout": "NCHW", 
        "no_bias": "False", 
        "num_filter": "64", 
        "num_group": "1", 
        "pad": "(1, 1)", 
        "stride": "(1, 1)"
      }, 
      "inputs": [[496, 0, 0], [497, 0, 0], [498, 0, 0]]
    }, 
    {
      "op": "null", 
      "name": "bn_conv04_05_b_gamma", 
      "attrs": {
        "eps": "0.0001", 
        "fix_gamma": "False", 
        "use_global_stats": "False"
      }, 
      "inputs": []
    }, 
    {
      "op": "null", 
      "name": "bn_conv04_05_b_beta", 
      "attrs": {
        "eps": "0.0001", 
        "fix_gamma": "False", 
        "use_global_stats": "False"
      }, 
      "inputs": []
    }, 
    {
      "op": "null", 
      "name": "bn_conv04_05_b_moving_mean", 
      "attrs": {
        "__init__": "[\"zero\", {}]", 
        "eps": "0.0001", 
        "fix_gamma": "False", 
        "use_global_stats": "False"
      }, 
      "inputs": []
    }, 
    {
      "op": "null", 
      "name": "bn_conv04_05_b_moving_var", 
      "attrs": {
        "__init__": "[\"one\", {}]", 
        "eps": "0.0001", 
        "fix_gamma": "False", 
        "use_global_stats": "False"
      }, 
      "inputs": []
    }, 
    {
      "op": "BatchNorm", 
      "name": "bn_conv04_05_b", 
      "attrs": {
        "eps": "0.0001", 
        "fix_gamma": "False", 
        "use_global_stats": "False"
      }, 
      "inputs": [[499, 0, 0], [500, 0, 0], [501, 0, 0], [502, 0, 1], [503, 0, 1]]
    }, 
    {
      "op": "Activation", 
      "name": "relu04_05_b", 
      "attrs": {"act_type": "relu"}, 
      "inputs": [[504, 0, 0]]
    }, 
    {
      "op": "null", 
      "name": "conv04_05_b_weight", 
      "attrs": {
        "dilate": "(1, 1)", 
        "kernel": "(3, 3)", 
        "layout": "NCHW", 
        "no_bias": "False", 
        "num_filter": "64", 
        "num_group": "1", 
        "pad": "(1, 1)", 
        "stride": "(1, 1)"
      }, 
      "inputs": []
    }, 
    {
      "op": "null", 
      "name": "conv04_05_b_bias", 
      "attrs": {
        "dilate": "(1, 1)", 
        "kernel": "(3, 3)", 
        "layout": "NCHW", 
        "no_bias": "False", 
        "num_filter": "64", 
        "num_group": "1", 
        "pad": "(1, 1)", 
        "stride": "(1, 1)"
      }, 
      "inputs": []
    }, 
    {
      "op": "Convolution", 
      "name": "conv04_05_b", 
      "attrs": {
        "dilate": "(1, 1)", 
        "kernel": "(3, 3)", 
        "layout": "NCHW", 
        "no_bias": "False", 
        "num_filter": "64", 
        "num_group": "1", 
        "pad": "(1, 1)", 
        "stride": "(1, 1)"
      }, 
      "inputs": [[505, 0, 0], [506, 0, 0], [507, 0, 0]]
    }, 
    {
      "op": "broadcast_add", 
      "name": "eltwise04_05", 
      "inputs": [[490, 0, 0], [508, 0, 0]]
    }, 
    {
      "op": "null", 
      "name": "bn_conv04_06_a_gamma", 
      "attrs": {
        "eps": "0.0001", 
        "fix_gamma": "False", 
        "use_global_stats": "False"
      }, 
      "inputs": []
    }, 
    {
      "op": "null", 
      "name": "bn_conv04_06_a_beta", 
      "attrs": {
        "eps": "0.0001", 
        "fix_gamma": "False", 
        "use_global_stats": "False"
      }, 
      "inputs": []
    }, 
    {
      "op": "null", 
      "name": "bn_conv04_06_a_moving_mean", 
      "attrs": {
        "__init__": "[\"zero\", {}]", 
        "eps": "0.0001", 
        "fix_gamma": "False", 
        "use_global_stats": "False"
      }, 
      "inputs": []
    }, 
    {
      "op": "null", 
      "name": "bn_conv04_06_a_moving_var", 
      "attrs": {
        "__init__": "[\"one\", {}]", 
        "eps": "0.0001", 
        "fix_gamma": "False", 
        "use_global_stats": "False"
      }, 
      "inputs": []
    }, 
    {
      "op": "BatchNorm", 
      "name": "bn_conv04_06_a", 
      "attrs": {
        "eps": "0.0001", 
        "fix_gamma": "False", 
        "use_global_stats": "False"
      }, 
      "inputs": [[509, 0, 0], [510, 0, 0], [511, 0, 0], [512, 0, 1], [513, 0, 1]]
    }, 
    {
      "op": "Activation", 
      "name": "relu04_06_a", 
      "attrs": {"act_type": "relu"}, 
      "inputs": [[514, 0, 0]]
    }, 
    {
      "op": "null", 
      "name": "conv04_06_a_weight", 
      "attrs": {
        "dilate": "(1, 1)", 
        "kernel": "(3, 3)", 
        "layout": "NCHW", 
        "no_bias": "False", 
        "num_filter": "64", 
        "num_group": "1", 
        "pad": "(1, 1)", 
        "stride": "(1, 1)"
      }, 
      "inputs": []
    }, 
    {
      "op": "null", 
      "name": "conv04_06_a_bias", 
      "attrs": {
        "dilate": "(1, 1)", 
        "kernel": "(3, 3)", 
        "layout": "NCHW", 
        "no_bias": "False", 
        "num_filter": "64", 
        "num_group": "1", 
        "pad": "(1, 1)", 
        "stride": "(1, 1)"
      }, 
      "inputs": []
    }, 
    {
      "op": "Convolution", 
      "name": "conv04_06_a", 
      "attrs": {
        "dilate": "(1, 1)", 
        "kernel": "(3, 3)", 
        "layout": "NCHW", 
        "no_bias": "False", 
        "num_filter": "64", 
        "num_group": "1", 
        "pad": "(1, 1)", 
        "stride": "(1, 1)"
      }, 
      "inputs": [[515, 0, 0], [516, 0, 0], [517, 0, 0]]
    }, 
    {
      "op": "null", 
      "name": "bn_conv04_06_b_gamma", 
      "attrs": {
        "eps": "0.0001", 
        "fix_gamma": "False", 
        "use_global_stats": "False"
      }, 
      "inputs": []
    }, 
    {
      "op": "null", 
      "name": "bn_conv04_06_b_beta", 
      "attrs": {
        "eps": "0.0001", 
        "fix_gamma": "False", 
        "use_global_stats": "False"
      }, 
      "inputs": []
    }, 
    {
      "op": "null", 
      "name": "bn_conv04_06_b_moving_mean", 
      "attrs": {
        "__init__": "[\"zero\", {}]", 
        "eps": "0.0001", 
        "fix_gamma": "False", 
        "use_global_stats": "False"
      }, 
      "inputs": []
    }, 
    {
      "op": "null", 
      "name": "bn_conv04_06_b_moving_var", 
      "attrs": {
        "__init__": "[\"one\", {}]", 
        "eps": "0.0001", 
        "fix_gamma": "False", 
        "use_global_stats": "False"
      }, 
      "inputs": []
    }, 
    {
      "op": "BatchNorm", 
      "name": "bn_conv04_06_b", 
      "attrs": {
        "eps": "0.0001", 
        "fix_gamma": "False", 
        "use_global_stats": "False"
      }, 
      "inputs": [[518, 0, 0], [519, 0, 0], [520, 0, 0], [521, 0, 1], [522, 0, 1]]
    }, 
    {
      "op": "Activation", 
      "name": "relu04_06_b", 
      "attrs": {"act_type": "relu"}, 
      "inputs": [[523, 0, 0]]
    }, 
    {
      "op": "null", 
      "name": "conv04_06_b_weight", 
      "attrs": {
        "dilate": "(1, 1)", 
        "kernel": "(3, 3)", 
        "layout": "NCHW", 
        "no_bias": "False", 
        "num_filter": "64", 
        "num_group": "1", 
        "pad": "(1, 1)", 
        "stride": "(1, 1)"
      }, 
      "inputs": []
    }, 
    {
      "op": "null", 
      "name": "conv04_06_b_bias", 
      "attrs": {
        "dilate": "(1, 1)", 
        "kernel": "(3, 3)", 
        "layout": "NCHW", 
        "no_bias": "False", 
        "num_filter": "64", 
        "num_group": "1", 
        "pad": "(1, 1)", 
        "stride": "(1, 1)"
      }, 
      "inputs": []
    }, 
    {
      "op": "Convolution", 
      "name": "conv04_06_b", 
      "attrs": {
        "dilate": "(1, 1)", 
        "kernel": "(3, 3)", 
        "layout": "NCHW", 
        "no_bias": "False", 
        "num_filter": "64", 
        "num_group": "1", 
        "pad": "(1, 1)", 
        "stride": "(1, 1)"
      }, 
      "inputs": [[524, 0, 0], [525, 0, 0], [526, 0, 0]]
    }, 
    {
      "op": "broadcast_add", 
      "name": "eltwise04_06", 
      "inputs": [[509, 0, 0], [527, 0, 0]]
    }, 
    {
      "op": "Concat", 
      "name": "concat04", 
      "attrs": {"num_args": "10"}, 
      "inputs": [[9, 0, 0], [133, 0, 0], [268, 0, 0], [403, 0, 0], [433, 0, 0], [452, 0, 0], [471, 0, 0], [490, 0, 0], [509, 0, 0], [528, 0, 0]]
    }, 
    {
      "op": "null", 
      "name": "bn_conv_transition_04_gamma", 
      "attrs": {
        "eps": "0.0001", 
        "fix_gamma": "False", 
        "use_global_stats": "False"
      }, 
      "inputs": []
    }, 
    {
      "op": "null", 
      "name": "bn_conv_transition_04_beta", 
      "attrs": {
        "eps": "0.0001", 
        "fix_gamma": "False", 
        "use_global_stats": "False"
      }, 
      "inputs": []
    }, 
    {
      "op": "null", 
      "name": "bn_conv_transition_04_moving_mean", 
      "attrs": {
        "__init__": "[\"zero\", {}]", 
        "eps": "0.0001", 
        "fix_gamma": "False", 
        "use_global_stats": "False"
      }, 
      "inputs": []
    }, 
    {
      "op": "null", 
      "name": "bn_conv_transition_04_moving_var", 
      "attrs": {
        "__init__": "[\"one\", {}]", 
        "eps": "0.0001", 
        "fix_gamma": "False", 
        "use_global_stats": "False"
      }, 
      "inputs": []
    }, 
    {
      "op": "BatchNorm", 
      "name": "bn_conv_transition_04", 
      "attrs": {
        "eps": "0.0001", 
        "fix_gamma": "False", 
        "use_global_stats": "False"
      }, 
      "inputs": [[529, 0, 0], [530, 0, 0], [531, 0, 0], [532, 0, 1], [533, 0, 1]]
    }, 
    {
      "op": "Activation", 
      "name": "relu_transition_04", 
      "attrs": {"act_type": "relu"}, 
      "inputs": [[534, 0, 0]]
    }, 
    {
      "op": "null", 
      "name": "conv_transition_04_weight", 
      "attrs": {
        "dilate": "(1, 1)", 
        "kernel": "(1, 1)", 
        "layout": "NCHW", 
        "no_bias": "False", 
        "num_filter": "64", 
        "num_group": "1", 
        "pad": "(0, 0)", 
        "stride": "(1, 1)"
      }, 
      "inputs": []
    }, 
    {
      "op": "null", 
      "name": "conv_transition_04_bias", 
      "attrs": {
        "dilate": "(1, 1)", 
        "kernel": "(1, 1)", 
        "layout": "NCHW", 
        "no_bias": "False", 
        "num_filter": "64", 
        "num_group": "1", 
        "pad": "(0, 0)", 
        "stride": "(1, 1)"
      }, 
      "inputs": []
    }, 
    {
      "op": "Convolution", 
      "name": "conv_transition_04", 
      "attrs": {
        "dilate": "(1, 1)", 
        "kernel": "(1, 1)", 
        "layout": "NCHW", 
        "no_bias": "False", 
        "num_filter": "64", 
        "num_group": "1", 
        "pad": "(0, 0)", 
        "stride": "(1, 1)"
      }, 
      "inputs": [[535, 0, 0], [536, 0, 0], [537, 0, 0]]
    }, 
    {
      "op": "null", 
      "name": "bn_conv_end_04_gamma", 
      "attrs": {
        "eps": "0.0001", 
        "fix_gamma": "False", 
        "use_global_stats": "False"
      }, 
      "inputs": []
    }, 
    {
      "op": "null", 
      "name": "bn_conv_end_04_beta", 
      "attrs": {
        "eps": "0.0001", 
        "fix_gamma": "False", 
        "use_global_stats": "False"
      }, 
      "inputs": []
    }, 
    {
      "op": "null", 
      "name": "bn_conv_end_04_moving_mean", 
      "attrs": {
        "__init__": "[\"zero\", {}]", 
        "eps": "0.0001", 
        "fix_gamma": "False", 
        "use_global_stats": "False"
      }, 
      "inputs": []
    }, 
    {
      "op": "null", 
      "name": "bn_conv_end_04_moving_var", 
      "attrs": {
        "__init__": "[\"one\", {}]", 
        "eps": "0.0001", 
        "fix_gamma": "False", 
        "use_global_stats": "False"
      }, 
      "inputs": []
    }, 
    {
      "op": "BatchNorm", 
      "name": "bn_conv_end_04", 
      "attrs": {
        "eps": "0.0001", 
        "fix_gamma": "False", 
        "use_global_stats": "False"
      }, 
      "inputs": [[538, 0, 0], [539, 0, 0], [540, 0, 0], [541, 0, 1], [542, 0, 1]]
    }, 
    {
      "op": "Activation", 
      "name": "relu_end_04", 
      "attrs": {"act_type": "relu"}, 
      "inputs": [[543, 0, 0]]
    }, 
    {
      "op": "null", 
      "name": "conv_end_04_weight", 
      "attrs": {
        "dilate": "(1, 1)", 
        "kernel": "(3, 3)", 
        "layout": "NCHW", 
        "no_bias": "False", 
        "num_filter": "1", 
        "num_group": "1", 
        "pad": "(1, 1)", 
        "stride": "(1, 1)"
      }, 
      "inputs": []
    }, 
    {
      "op": "null", 
      "name": "conv_end_04_bias", 
      "attrs": {
        "dilate": "(1, 1)", 
        "kernel": "(3, 3)", 
        "layout": "NCHW", 
        "no_bias": "False", 
        "num_filter": "1", 
        "num_group": "1", 
        "pad": "(1, 1)", 
        "stride": "(1, 1)"
      }, 
      "inputs": []
    }, 
    {
      "op": "Convolution", 
      "name": "conv_end_04", 
      "attrs": {
        "dilate": "(1, 1)", 
        "kernel": "(3, 3)", 
        "layout": "NCHW", 
        "no_bias": "False", 
        "num_filter": "1", 
        "num_group": "1", 
        "pad": "(1, 1)", 
        "stride": "(1, 1)"
      }, 
      "inputs": [[544, 0, 0], [545, 0, 0], [546, 0, 0]]
    }, 
    {
      "op": "broadcast_add", 
      "name": "HR_recovery_04", 
      "inputs": [[0, 0, 0], [547, 0, 0]]
    }, 
    {
      "op": "_mul_scalar", 
      "name": "_mulscalar3", 
      "attrs": {"scalar": "0.10380589962005615"}, 
      "inputs": [[548, 0, 0]]
    }, 
    {
      "op": "null", 
      "name": "bn_conv05_01_a_gamma", 
      "attrs": {
        "eps": "0.0001", 
        "fix_gamma": "False", 
        "use_global_stats": "False"
      }, 
      "inputs": []
    }, 
    {
      "op": "null", 
      "name": "bn_conv05_01_a_beta", 
      "attrs": {
        "eps": "0.0001", 
        "fix_gamma": "False", 
        "use_global_stats": "False"
      }, 
      "inputs": []
    }, 
    {
      "op": "null", 
      "name": "bn_conv05_01_a_moving_mean", 
      "attrs": {
        "__init__": "[\"zero\", {}]", 
        "eps": "0.0001", 
        "fix_gamma": "False", 
        "use_global_stats": "False"
      }, 
      "inputs": []
    }, 
    {
      "op": "null", 
      "name": "bn_conv05_01_a_moving_var", 
      "attrs": {
        "__init__": "[\"one\", {}]", 
        "eps": "0.0001", 
        "fix_gamma": "False", 
        "use_global_stats": "False"
      }, 
      "inputs": []
    }, 
    {
      "op": "BatchNorm", 
      "name": "bn_conv05_01_a", 
      "attrs": {
        "eps": "0.0001", 
        "fix_gamma": "False", 
        "use_global_stats": "False"
      }, 
      "inputs": [[538, 0, 0], [550, 0, 0], [551, 0, 0], [552, 0, 1], [553, 0, 1]]
    }, 
    {
      "op": "Activation", 
      "name": "relu05_01_a", 
      "attrs": {"act_type": "relu"}, 
      "inputs": [[554, 0, 0]]
    }, 
    {
      "op": "null", 
      "name": "conv05_01_a_weight", 
      "attrs": {
        "dilate": "(1, 1)", 
        "kernel": "(3, 3)", 
        "layout": "NCHW", 
        "no_bias": "False", 
        "num_filter": "64", 
        "num_group": "1", 
        "pad": "(1, 1)", 
        "stride": "(1, 1)"
      }, 
      "inputs": []
    }, 
    {
      "op": "null", 
      "name": "conv05_01_a_bias", 
      "attrs": {
        "dilate": "(1, 1)", 
        "kernel": "(3, 3)", 
        "layout": "NCHW", 
        "no_bias": "False", 
        "num_filter": "64", 
        "num_group": "1", 
        "pad": "(1, 1)", 
        "stride": "(1, 1)"
      }, 
      "inputs": []
    }, 
    {
      "op": "Convolution", 
      "name": "conv05_01_a", 
      "attrs": {
        "dilate": "(1, 1)", 
        "kernel": "(3, 3)", 
        "layout": "NCHW", 
        "no_bias": "False", 
        "num_filter": "64", 
        "num_group": "1", 
        "pad": "(1, 1)", 
        "stride": "(1, 1)"
      }, 
      "inputs": [[555, 0, 0], [556, 0, 0], [557, 0, 0]]
    }, 
    {
      "op": "null", 
      "name": "bn_conv05_01_b_gamma", 
      "attrs": {
        "eps": "0.0001", 
        "fix_gamma": "False", 
        "use_global_stats": "False"
      }, 
      "inputs": []
    }, 
    {
      "op": "null", 
      "name": "bn_conv05_01_b_beta", 
      "attrs": {
        "eps": "0.0001", 
        "fix_gamma": "False", 
        "use_global_stats": "False"
      }, 
      "inputs": []
    }, 
    {
      "op": "null", 
      "name": "bn_conv05_01_b_moving_mean", 
      "attrs": {
        "__init__": "[\"zero\", {}]", 
        "eps": "0.0001", 
        "fix_gamma": "False", 
        "use_global_stats": "False"
      }, 
      "inputs": []
    }, 
    {
      "op": "null", 
      "name": "bn_conv05_01_b_moving_var", 
      "attrs": {
        "__init__": "[\"one\", {}]", 
        "eps": "0.0001", 
        "fix_gamma": "False", 
        "use_global_stats": "False"
      }, 
      "inputs": []
    }, 
    {
      "op": "BatchNorm", 
      "name": "bn_conv05_01_b", 
      "attrs": {
        "eps": "0.0001", 
        "fix_gamma": "False", 
        "use_global_stats": "False"
      }, 
      "inputs": [[558, 0, 0], [559, 0, 0], [560, 0, 0], [561, 0, 1], [562, 0, 1]]
    }, 
    {
      "op": "Activation", 
      "name": "relu05_01_b", 
      "attrs": {"act_type": "relu"}, 
      "inputs": [[563, 0, 0]]
    }, 
    {
      "op": "null", 
      "name": "conv05_01_b_weight", 
      "attrs": {
        "dilate": "(1, 1)", 
        "kernel": "(3, 3)", 
        "layout": "NCHW", 
        "no_bias": "False", 
        "num_filter": "64", 
        "num_group": "1", 
        "pad": "(1, 1)", 
        "stride": "(1, 1)"
      }, 
      "inputs": []
    }, 
    {
      "op": "null", 
      "name": "conv05_01_b_bias", 
      "attrs": {
        "dilate": "(1, 1)", 
        "kernel": "(3, 3)", 
        "layout": "NCHW", 
        "no_bias": "False", 
        "num_filter": "64", 
        "num_group": "1", 
        "pad": "(1, 1)", 
        "stride": "(1, 1)"
      }, 
      "inputs": []
    }, 
    {
      "op": "Convolution", 
      "name": "conv05_01_b", 
      "attrs": {
        "dilate": "(1, 1)", 
        "kernel": "(3, 3)", 
        "layout": "NCHW", 
        "no_bias": "False", 
        "num_filter": "64", 
        "num_group": "1", 
        "pad": "(1, 1)", 
        "stride": "(1, 1)"
      }, 
      "inputs": [[564, 0, 0], [565, 0, 0], [566, 0, 0]]
    }, 
    {
      "op": "broadcast_add", 
      "name": "eltwise05_01", 
      "inputs": [[538, 0, 0], [567, 0, 0]]
    }, 
    {
      "op": "null", 
      "name": "bn_conv05_02_a_gamma", 
      "attrs": {
        "eps": "0.0001", 
        "fix_gamma": "False", 
        "use_global_stats": "False"
      }, 
      "inputs": []
    }, 
    {
      "op": "null", 
      "name": "bn_conv05_02_a_beta", 
      "attrs": {
        "eps": "0.0001", 
        "fix_gamma": "False", 
        "use_global_stats": "False"
      }, 
      "inputs": []
    }, 
    {
      "op": "null", 
      "name": "bn_conv05_02_a_moving_mean", 
      "attrs": {
        "__init__": "[\"zero\", {}]", 
        "eps": "0.0001", 
        "fix_gamma": "False", 
        "use_global_stats": "False"
      }, 
      "inputs": []
    }, 
    {
      "op": "null", 
      "name": "bn_conv05_02_a_moving_var", 
      "attrs": {
        "__init__": "[\"one\", {}]", 
        "eps": "0.0001", 
        "fix_gamma": "False", 
        "use_global_stats": "False"
      }, 
      "inputs": []
    }, 
    {
      "op": "BatchNorm", 
      "name": "bn_conv05_02_a", 
      "attrs": {
        "eps": "0.0001", 
        "fix_gamma": "False", 
        "use_global_stats": "False"
      }, 
      "inputs": [[568, 0, 0], [569, 0, 0], [570, 0, 0], [571, 0, 1], [572, 0, 1]]
    }, 
    {
      "op": "Activation", 
      "name": "relu05_02_a", 
      "attrs": {"act_type": "relu"}, 
      "inputs": [[573, 0, 0]]
    }, 
    {
      "op": "null", 
      "name": "conv05_02_a_weight", 
      "attrs": {
        "dilate": "(1, 1)", 
        "kernel": "(3, 3)", 
        "layout": "NCHW", 
        "no_bias": "False", 
        "num_filter": "64", 
        "num_group": "1", 
        "pad": "(1, 1)", 
        "stride": "(1, 1)"
      }, 
      "inputs": []
    }, 
    {
      "op": "null", 
      "name": "conv05_02_a_bias", 
      "attrs": {
        "dilate": "(1, 1)", 
        "kernel": "(3, 3)", 
        "layout": "NCHW", 
        "no_bias": "False", 
        "num_filter": "64", 
        "num_group": "1", 
        "pad": "(1, 1)", 
        "stride": "(1, 1)"
      }, 
      "inputs": []
    }, 
    {
      "op": "Convolution", 
      "name": "conv05_02_a", 
      "attrs": {
        "dilate": "(1, 1)", 
        "kernel": "(3, 3)", 
        "layout": "NCHW", 
        "no_bias": "False", 
        "num_filter": "64", 
        "num_group": "1", 
        "pad": "(1, 1)", 
        "stride": "(1, 1)"
      }, 
      "inputs": [[574, 0, 0], [575, 0, 0], [576, 0, 0]]
    }, 
    {
      "op": "null", 
      "name": "bn_conv05_02_b_gamma", 
      "attrs": {
        "eps": "0.0001", 
        "fix_gamma": "False", 
        "use_global_stats": "False"
      }, 
      "inputs": []
    }, 
    {
      "op": "null", 
…
      "inputs": [[678, 0, 0]]
    }, 
    {
      "op": "null", 
      "name": "conv_end_05_weight", 
      "attrs": {
        "dilate": "(1, 1)", 
        "kernel": "(3, 3)", 
        "layout": "NCHW", 
        "no_bias": "False", 
        "num_filter": "1", 
        "num_group": "1", 
        "pad": "(1, 1)", 
        "stride": "(1, 1)"
      }, 
      "inputs": []
    }, 
    {
      "op": "null", 
      "name": "conv_end_05_bias", 
      "attrs": {
        "dilate": "(1, 1)", 
        "kernel": "(3, 3)", 
        "layout": "NCHW", 
        "no_bias": "False", 
        "num_filter": "1", 
        "num_group": "1", 
        "pad": "(1, 1)", 
        "stride": "(1, 1)"
      }, 
      "inputs": []
    }, 
    {
      "op": "Convolution", 
      "name": "conv_end_05", 
      "attrs": {
        "dilate": "(1, 1)", 
        "kernel": "(3, 3)", 
        "layout": "NCHW", 
        "no_bias": "False", 
        "num_filter": "1", 
        "num_group": "1", 
        "pad": "(1, 1)", 
        "stride": "(1, 1)"
      }, 
      "inputs": [[679, 0, 0], [680, 0, 0], [681, 0, 0]]
    }, 
    {
      "op": "broadcast_add", 
      "name": "HR_recovery_05", 
      "inputs": [[0, 0, 0], [682, 0, 0]]
    }, 
    {
      "op": "_mul_scalar", 
      "name": "_mulscalar4", 
      "attrs": {"scalar": "0.36344873905181885"}, 
      "inputs": [[683, 0, 0]]
    }, 
    {
      "op": "null", 
      "name": "bn_conv06_01_a_gamma", 
      "attrs": {
        "eps": "0.0001", 
        "fix_gamma": "False", 
        "use_global_stats": "False"
      }, 
      "inputs": []
    }, 
    {
      "op": "null", 
      "name": "bn_conv06_01_a_beta", 
      "attrs": {
        "eps": "0.0001", 
        "fix_gamma": "False", 
        "use_global_stats": "False"
      }, 
      "inputs": []
    }, 
    {
      "op": "null", 
      "name": "bn_conv06_01_a_moving_mean", 
      "attrs": {
        "__init__": "[\"zero\", {}]", 
        "eps": "0.0001", 
        "fix_gamma": "False", 
        "use_global_stats": "False"
      }, 
      "inputs": []
    }, 
    {
      "op": "null", 
      "name": "bn_conv06_01_a_moving_var", 
      "attrs": {
        "__init__": "[\"one\", {}]", 
        "eps": "0.0001", 
        "fix_gamma": "False", 
        "use_global_stats": "False"
      }, 
      "inputs": []
    }, 
    {
      "op": "BatchNorm", 
      "name": "bn_conv06_01_a", 
      "attrs": {
        "eps": "0.0001", 
        "fix_gamma": "False", 
        "use_global_stats": "False"
      }, 
      "inputs": [[673, 0, 0], [685, 0, 0], [686, 0, 0], [687, 0, 1], [688, 0, 1]]
    }, 
    {
      "op": "Activation", 
      "name": "relu06_01_a", 
      "attrs": {"act_type": "relu"}, 
      "inputs": [[689, 0, 0]]
    }, 
    {
      "op": "null", 
      "name": "conv06_01_a_weight", 
      "attrs": {
        "dilate": "(1, 1)", 
        "kernel": "(3, 3)", 
        "layout": "NCHW", 
        "no_bias": "False", 
        "num_filter": "64", 
        "num_group": "1", 
        "pad": "(1, 1)", 
        "stride": "(1, 1)"
      }, 
      "inputs": []
    }, 
    {
      "op": "null", 
      "name": "conv06_01_a_bias", 
      "attrs": {
        "dilate": "(1, 1)", 
        "kernel": "(3, 3)", 
        "layout": "NCHW", 
        "no_bias": "False", 
        "num_filter": "64", 
        "num_group": "1", 
        "pad": "(1, 1)", 
        "stride": "(1, 1)"
      }, 
      "inputs": []
    }, 
    {
      "op": "Convolution", 
      "name": "conv06_01_a", 
      "attrs": {
        "dilate": "(1, 1)", 
        "kernel": "(3, 3)", 
        "layout": "NCHW", 
        "no_bias": "False", 
        "num_filter": "64", 
        "num_group": "1", 
        "pad": "(1, 1)", 
        "stride": "(1, 1)"
      }, 
      "inputs": [[690, 0, 0], [691, 0, 0], [692, 0, 0]]
    }, 
    {
      "op": "null", 
      "name": "bn_conv06_01_b_gamma", 
      "attrs": {
        "eps": "0.0001", 
        "fix_gamma": "False", 
        "use_global_stats": "False"
      }, 
      "inputs": []
    }, 
    {
      "op": "null", 
      "name": "bn_conv06_01_b_beta", 
      "attrs": {
        "eps": "0.0001", 
        "fix_gamma": "False", 
        "use_global_stats": "False"
      }, 
      "inputs": []
    }, 
    {
      "op": "null", 
      "name": "bn_conv06_01_b_moving_mean", 
      "attrs": {
        "__init__": "[\"zero\", {}]", 
        "eps": "0.0001", 
        "fix_gamma": "False", 
        "use_global_stats": "False"
      }, 
      "inputs": []
    }, 
    {
      "op": "null", 
      "name": "bn_conv06_01_b_moving_var", 
      "attrs": {
        "__init__": "[\"one\", {}]", 
        "eps": "0.0001", 
        "fix_gamma": "False", 
        "use_global_stats": "False"
      }, 
      "inputs": []
    }, 
    {
      "op": "BatchNorm", 
      "name": "bn_conv06_01_b", 
      "attrs": {
        "eps": "0.0001", 
        "fix_gamma": "False", 
        "use_global_stats": "False"
      }, 
      "inputs": [[693, 0, 0], [694, 0, 0], [695, 0, 0], [696, 0, 1], [697, 0, 1]]
    }, 
    {
      "op": "Activation", 
      "name": "relu06_01_b", 
      "attrs": {"act_type": "relu"}, 
      "inputs": [[698, 0, 0]]
    }, 
    {
      "op": "null", 
      "name": "conv06_01_b_weight", 
      "attrs": {
        "dilate": "(1, 1)", 
        "kernel": "(3, 3)", 
        "layout": "NCHW", 
        "no_bias": "False", 
        "num_filter": "64", 
        "num_group": "1", 
        "pad": "(1, 1)", 
        "stride": "(1, 1)"
      }, 
      "inputs": []
    }, 
    {
      "op": "null", 
      "name": "conv06_01_b_bias", 
      "attrs": {
        "dilate": "(1, 1)", 
        "kernel": "(3, 3)", 
        "layout": "NCHW", 
        "no_bias": "False", 
        "num_filter": "64", 
        "num_group": "1", 
        "pad": "(1, 1)", 
        "stride": "(1, 1)"
      }, 
      "inputs": []
    }, 
    {
      "op": "Convolution", 
      "name": "conv06_01_b", 
      "attrs": {
        "dilate": "(1, 1)", 
        "kernel": "(3, 3)", 
        "layout": "NCHW", 
        "no_bias": "False", 
        "num_filter": "64", 
        "num_group": "1", 
        "pad": "(1, 1)", 
        "stride": "(1, 1)"
      }, 
      "inputs": [[699, 0, 0], [700, 0, 0], [701, 0, 0]]
    }, 
    {
      "op": "broadcast_add", 
      "name": "eltwise06_01", 
      "inputs": [[673, 0, 0], [702, 0, 0]]
    }, 
    {
      "op": "null", 
      "name": "bn_conv06_02_a_gamma", 
      "attrs": {
        "eps": "0.0001", 
        "fix_gamma": "False", 
        "use_global_stats": "False"
      }, 
      "inputs": []
    }, 
    {
      "op": "null", 
      "name": "bn_conv06_02_a_beta", 
      "attrs": {
        "eps": "0.0001", 
        "fix_gamma": "False", 
        "use_global_stats": "False"
      }, 
      "inputs": []
    }, 
    {
      "op": "null", 
      "name": "bn_conv06_02_a_moving_mean", 
      "attrs": {
        "__init__": "[\"zero\", {}]", 
        "eps": "0.0001", 
        "fix_gamma": "False", 
        "use_global_stats": "False"
      }, 
      "inputs": []
    }, 
    {
      "op": "null", 
      "name": "bn_conv06_02_a_moving_var", 
      "attrs": {
        "__init__": "[\"one\", {}]", 
        "eps": "0.0001", 
        "fix_gamma": "False", 
        "use_global_stats": "False"
      }, 
      "inputs": []
    }, 
    {
      "op": "BatchNorm", 
      "name": "bn_conv06_02_a", 
      "attrs": {
        "eps": "0.0001", 
        "fix_gamma": "False", 
        "use_global_stats": "False"
      }, 
      "inputs": [[703, 0, 0], [704, 0, 0], [705, 0, 0], [706, 0, 1], [707, 0, 1]]
    }, 
    {
      "op": "Activation", 
      "name": "relu06_02_a", 
      "attrs": {"act_type": "relu"}, 
      "inputs": [[708, 0, 0]]
    }, 
    {
      "op": "null", 
      "name": "conv06_02_a_weight", 
      "attrs": {
        "dilate": "(1, 1)", 
        "kernel": "(3, 3)", 
        "layout": "NCHW", 
        "no_bias": "False", 
        "num_filter": "64", 
        "num_group": "1", 
        "pad": "(1, 1)", 
        "stride": "(1, 1)"
      }, 
      "inputs": []
    }, 
    {
      "op": "null", 
      "name": "conv06_02_a_bias", 
      "attrs": {
        "dilate": "(1, 1)", 
        "kernel": "(3, 3)", 
        "layout": "NCHW", 
        "no_bias": "False", 
        "num_filter": "64", 
        "num_group": "1", 
        "pad": "(1, 1)", 
        "stride": "(1, 1)"
      }, 
      "inputs": []
    }, 
    {
      "op": "Convolution", 
      "name": "conv06_02_a", 
      "attrs": {
        "dilate": "(1, 1)", 
        "kernel": "(3, 3)", 
        "layout": "NCHW", 
        "no_bias": "False", 
        "num_filter": "64", 
        "num_group": "1", 
        "pad": "(1, 1)", 
        "stride": "(1, 1)"
      }, 
      "inputs": [[709, 0, 0], [710, 0, 0], [711, 0, 0]]
    }, 
    {
      "op": "null", 
      "name": "bn_conv06_02_b_gamma", 
      "attrs": {
        "eps": "0.0001", 
        "fix_gamma": "False", 
        "use_global_stats": "False"
      }, 
      "inputs": []
    }, 
    {
      "op": "null", 
      "name": "bn_conv06_02_b_beta", 
      "attrs": {
        "eps": "0.0001", 
        "fix_gamma": "False", 
        "use_global_stats": "False"
      }, 
      "inputs": []
    }, 
    {
      "op": "null", 
      "name": "bn_conv06_02_b_moving_mean", 
      "attrs": {
        "__init__": "[\"zero\", {}]", 
        "eps": "0.0001", 
        "fix_gamma": "False", 
        "use_global_stats": "False"
      }, 
      "inputs": []
    }, 
    {
      "op": "null", 
      "name": "bn_conv06_02_b_moving_var", 
      "attrs": {
        "__init__": "[\"one\", {}]", 
        "eps": "0.0001", 
        "fix_gamma": "False", 
        "use_global_stats": "False"
      }, 
      "inputs": []
    }, 
    {
      "op": "BatchNorm", 
      "name": "bn_conv06_02_b", 
      "attrs": {
        "eps": "0.0001", 
        "fix_gamma": "False", 
        "use_global_stats": "False"
      }, 
      "inputs": [[712, 0, 0], [713, 0, 0], [714, 0, 0], [715, 0, 1], [716, 0, 1]]
    }, 
    {
      "op": "Activation", 
      "name": "relu06_02_b", 
      "attrs": {"act_type": "relu"}, 
      "inputs": [[717, 0, 0]]
    }, 
    {
      "op": "null", 
      "name": "conv06_02_b_weight", 
      "attrs": {
        "dilate": "(1, 1)", 
        "kernel": "(3, 3)", 
        "layout": "NCHW", 
        "no_bias": "False", 
        "num_filter": "64", 
        "num_group": "1", 
        "pad": "(1, 1)", 
        "stride": "(1, 1)"
      }, 
      "inputs": []
    }, 
    {
      "op": "null", 
      "name": "conv06_02_b_bias", 
      "attrs": {
        "dilate": "(1, 1)", 
        "kernel": "(3, 3)", 
        "layout": "NCHW", 
        "no_bias": "False", 
        "num_filter": "64", 
        "num_group": "1", 
        "pad": "(1, 1)", 
        "stride": "(1, 1)"
      }, 
      "inputs": []
    }, 
    {
      "op": "Convolution", 
      "name": "conv06_02_b", 
      "attrs": {
        "dilate": "(1, 1)", 
        "kernel": "(3, 3)", 
        "layout": "NCHW", 
        "no_bias": "False", 
        "num_filter": "64", 
        "num_group": "1", 
        "pad": "(1, 1)", 
        "stride": "(1, 1)"
      }, 
      "inputs": [[718, 0, 0], [719, 0, 0], [720, 0, 0]]
    }, 
    {
      "op": "broadcast_add", 
      "name": "eltwise06_02", 
      "inputs": [[703, 0, 0], [721, 0, 0]]
    }, 
    {
      "op": "null", 
      "name": "bn_conv06_03_a_gamma", 
      "attrs": {
        "eps": "0.0001", 
        "fix_gamma": "False", 
        "use_global_stats": "False"
      }, 
      "inputs": []
    }, 
    {
      "op": "null", 
      "name": "bn_conv06_03_a_beta", 
      "attrs": {
        "eps": "0.0001", 
        "fix_gamma": "False", 
        "use_global_stats": "False"
      }, 
      "inputs": []
    }, 
    {
      "op": "null", 
      "name": "bn_conv06_03_a_moving_mean", 
      "attrs": {
        "__init__": "[\"zero\", {}]", 
        "eps": "0.0001", 
        "fix_gamma": "False", 
        "use_global_stats": "False"
      }, 
      "inputs": []
    }, 
    {
      "op": "null", 
      "name": "bn_conv06_03_a_moving_var", 
      "attrs": {
        "__init__": "[\"one\", {}]", 
        "eps": "0.0001", 
        "fix_gamma": "False", 
        "use_global_stats": "False"
      }, 
      "inputs": []
    }, 
    {
      "op": "BatchNorm", 
      "name": "bn_conv06_03_a", 
      "attrs": {
        "eps": "0.0001", 
        "fix_gamma": "False", 
        "use_global_stats": "False"
      }, 
      "inputs": [[722, 0, 0], [723, 0, 0], [724, 0, 0], [725, 0, 1], [726, 0, 1]]
    }, 
    {
      "op": "Activation", 
      "name": "relu06_03_a", 
      "attrs": {"act_type": "relu"}, 
      "inputs": [[727, 0, 0]]
    }, 
    {
      "op": "null", 
      "name": "conv06_03_a_weight", 
      "attrs": {
        "dilate": "(1, 1)", 
        "kernel": "(3, 3)", 
        "layout": "NCHW", 
        "no_bias": "False", 
        "num_filter": "64", 
        "num_group": "1", 
        "pad": "(1, 1)", 
        "stride": "(1, 1)"
      }, 
      "inputs": []
    }, 
    {
      "op": "null", 
      "name": "conv06_03_a_bias", 
      "attrs": {
        "dilate": "(1, 1)", 
        "kernel": "(3, 3)", 
        "layout": "NCHW", 
        "no_bias": "False", 
        "num_filter": "64", 
        "num_group": "1", 
        "pad": "(1, 1)", 
        "stride": "(1, 1)"
      }, 
      "inputs": []
    }, 
    {
      "op": "Convolution", 
      "name": "conv06_03_a", 
      "attrs": {
        "dilate": "(1, 1)", 
        "kernel": "(3, 3)", 
        "layout": "NCHW", 
        "no_bias": "False", 
        "num_filter": "64", 
        "num_group": "1", 
        "pad": "(1, 1)", 
        "stride": "(1, 1)"
      }, 
      "inputs": [[728, 0, 0], [729, 0, 0], [730, 0, 0]]
    }, 
    {
      "op": "null", 
      "name": "bn_conv06_03_b_gamma", 
      "attrs": {
        "eps": "0.0001", 
        "fix_gamma": "False", 
        "use_global_stats": "False"
      }, 
      "inputs": []
    }, 
    {
      "op": "null", 
      "name": "bn_conv06_03_b_beta", 
      "attrs": {
        "eps": "0.0001", 
        "fix_gamma": "False", 
        "use_global_stats": "False"
      }, 
      "inputs": []
    }, 
    {
      "op": "null", 
      "name": "bn_conv06_03_b_moving_mean", 
      "attrs": {
        "__init__": "[\"zero\", {}]", 
        "eps": "0.0001", 
        "fix_gamma": "False", 
        "use_global_stats": "False"
      }, 
      "inputs": []
    }, 
    {
      "op": "null", 
      "name": "bn_conv06_03_b_moving_var", 
      "attrs": {
        "__init__": "[\"one\", {}]", 
        "eps": "0.0001", 
        "fix_gamma": "False", 
        "use_global_stats": "False"
      }, 
      "inputs": []
    }, 
    {
      "op": "BatchNorm", 
      "name": "bn_conv06_03_b", 
      "attrs": {
        "eps": "0.0001", 
        "fix_gamma": "False", 
        "use_global_stats": "False"
      }, 
      "inputs": [[731, 0, 0], [732, 0, 0], [733, 0, 0], [734, 0, 1], [735, 0, 1]]
    }, 
    {
      "op": "Activation", 
      "name": "relu06_03_b", 
      "attrs": {"act_type": "relu"}, 
      "inputs": [[736, 0, 0]]
    }, 
    {
      "op": "null", 
      "name": "conv06_03_b_weight", 
      "attrs": {
        "dilate": "(1, 1)", 
        "kernel": "(3, 3)", 
        "layout": "NCHW", 
        "no_bias": "False", 
        "num_filter": "64", 
        "num_group": "1", 
        "pad": "(1, 1)", 
        "stride": "(1, 1)"
      }, 
      "inputs": []
    }, 
    {
      "op": "null", 
      "name": "conv06_03_b_bias", 
      "attrs": {
        "dilate": "(1, 1)", 
        "kernel": "(3, 3)", 
        "layout": "NCHW", 
        "no_bias": "False", 
        "num_filter": "64", 
        "num_group": "1", 
        "pad": "(1, 1)", 
        "stride": "(1, 1)"
      }, 
      "inputs": []
    }, 
    {
      "op": "Convolution", 
      "name": "conv06_03_b", 
      "attrs": {
        "dilate": "(1, 1)", 
        "kernel": "(3, 3)", 
        "layout": "NCHW", 
        "no_bias": "False", 
        "num_filter": "64", 
        "num_group": "1", 
        "pad": "(1, 1)", 
        "stride": "(1, 1)"
      }, 
      "inputs": [[737, 0, 0], [738, 0, 0], [739, 0, 0]]
    }, 
    {
      "op": "broadcast_add", 
      "name": "eltwise06_03", 
      "inputs": [[722, 0, 0], [740, 0, 0]]
    }, 
    {
      "op": "null", 
      "name": "bn_conv06_04_a_gamma", 
      "attrs": {
        "eps": "0.0001", 
        "fix_gamma": "False", 
        "use_global_stats": "False"
      }, 
      "inputs": []
    }, 
    {
      "op": "null", 
      "name": "bn_conv06_04_a_beta", 
      "attrs": {
        "eps": "0.0001", 
        "fix_gamma": "False", 
        "use_global_stats": "False"
      }, 
      "inputs": []
    }, 
    {
      "op": "null", 
      "name": "bn_conv06_04_a_moving_mean", 
      "attrs": {
        "__init__": "[\"zero\", {}]", 
        "eps": "0.0001", 
        "fix_gamma": "False", 
        "use_global_stats": "False"
      }, 
      "inputs": []
    }, 
    {
      "op": "null", 
      "name": "bn_conv06_04_a_moving_var", 
      "attrs": {
        "__init__": "[\"one\", {}]", 
        "eps": "0.0001", 
        "fix_gamma": "False", 
        "use_global_stats": "False"
      }, 
      "inputs": []
    }, 
    {
      "op": "BatchNorm", 
      "name": "bn_conv06_04_a", 
      "attrs": {
        "eps": "0.0001", 
        "fix_gamma": "False", 
        "use_global_stats": "False"
      }, 
      "inputs": [[741, 0, 0], [742, 0, 0], [743, 0, 0], [744, 0, 1], [745, 0, 1]]
    }, 
    {
      "op": "Activation", 
      "name": "relu06_04_a", 
      "attrs": {"act_type": "relu"}, 
      "inputs": [[746, 0, 0]]
    }, 
    {
      "op": "null", 
      "name": "conv06_04_a_weight", 
      "attrs": {
        "dilate": "(1, 1)", 
        "kernel": "(3, 3)", 
        "layout": "NCHW", 
        "no_bias": "False", 
        "num_filter": "64", 
        "num_group": "1", 
        "pad": "(1, 1)", 
        "stride": "(1, 1)"
      }, 
      "inputs": []
    }, 
    {
      "op": "null", 
      "name": "conv06_04_a_bias", 
      "attrs": {
        "dilate": "(1, 1)", 
        "kernel": "(3, 3)", 
        "layout": "NCHW", 
        "no_bias": "False", 
        "num_filter": "64", 
        "num_group": "1", 
        "pad": "(1, 1)", 
        "stride": "(1, 1)"
      }, 
      "inputs": []
    }, 
    {
      "op": "Convolution", 
      "name": "conv06_04_a", 
      "attrs": {
        "dilate": "(1, 1)", 
        "kernel": "(3, 3)", 
        "layout": "NCHW", 
        "no_bias": "False", 
        "num_filter": "64", 
        "num_group": "1", 
        "pad": "(1, 1)", 
        "stride": "(1, 1)"
      }, 
      "inputs": [[747, 0, 0], [748, 0, 0], [749, 0, 0]]
    }, 
    {
      "op": "null", 
      "name": "bn_conv06_04_b_gamma", 
      "attrs": {
        "eps": "0.0001", 
        "fix_gamma": "False", 
        "use_global_stats": "False"
      }, 
      "inputs": []
    }, 
    {
      "op": "null", 
      "name": "bn_conv06_04_b_beta", 
      "attrs": {
        "eps": "0.0001", 
        "fix_gamma": "False", 
        "use_global_stats": "False"
      }, 
      "inputs": []
    }, 
    {
      "op": "null", 
      "name": "bn_conv06_04_b_moving_mean", 
      "attrs": {
        "__init__": "[\"zero\", {}]", 
        "eps": "0.0001", 
        "fix_gamma": "False", 
        "use_global_stats": "False"
      }, 
      "inputs": []
    }, 
    {
      "op": "null", 
      "name": "bn_conv06_04_b_moving_var", 
      "attrs": {
        "__init__": "[\"one\", {}]", 
        "eps": "0.0001", 
        "fix_gamma": "False", 
        "use_global_stats": "False"
      }, 
      "inputs": []
    }, 
    {
      "op": "BatchNorm", 
      "name": "bn_conv06_04_b", 
      "attrs": {
        "eps": "0.0001", 
        "fix_gamma": "False", 
        "use_global_stats": "False"
      }, 
      "inputs": [[750, 0, 0], [751, 0, 0], [752, 0, 0], [753, 0, 1], [754, 0, 1]]
    }, 
    {
      "op": "Activation", 
      "name": "relu06_04_b", 
      "attrs": {"act_type": "relu"}, 
      "inputs": [[755, 0, 0]]
    }, 
    {
      "op": "null", 
      "name": "conv06_04_b_weight", 
      "attrs": {
        "dilate": "(1, 1)", 
        "kernel": "(3, 3)", 
        "layout": "NCHW", 
        "no_bias": "False", 
        "num_filter": "64", 
        "num_group": "1", 
        "pad": "(1, 1)", 
        "stride": "(1, 1)"
      }, 
      "inputs": []
    }, 
    {
      "op": "null", 
      "name": "conv06_04_b_bias", 
      "attrs": {
        "dilate": "(1, 1)", 
        "kernel": "(3, 3)", 
        "layout": "NCHW", 
        "no_bias": "False", 
        "num_filter": "64", 
        "num_group": "1", 
        "pad": "(1, 1)", 
        "stride": "(1, 1)"
      }, 
      "inputs": []
    }, 
    {
      "op": "Convolution", 
      "name": "conv06_04_b", 
      "attrs": {
        "dilate": "(1, 1)", 
        "kernel": "(3, 3)", 
        "layout": "NCHW", 
        "no_bias": "False", 
        "num_filter": "64", 
        "num_group": "1", 
        "pad": "(1, 1)", 
        "stride": "(1, 1)"
      }, 
      "inputs": [[756, 0, 0], [757, 0, 0], [758, 0, 0]]
    }, 
    {
      "op": "broadcast_add", 
      "name": "eltwise06_04", 
      "inputs": [[741, 0, 0], [759, 0, 0]]
    }, 
    {
      "op": "null", 
      "name": "bn_conv06_05_a_gamma", 
      "attrs": {
        "eps": "0.0001", 
        "fix_gamma": "False", 
        "use_global_stats": "False"
      }, 
      "inputs": []
    }, 
    {
      "op": "null", 
      "name": "bn_conv06_05_a_beta", 
      "attrs": {
        "eps": "0.0001", 
        "fix_gamma": "False", 
        "use_global_stats": "False"
      }, 
      "inputs": []
    }, 
    {
      "op": "null", 
      "name": "bn_conv06_05_a_moving_mean", 
      "attrs": {
        "__init__": "[\"zero\", {}]", 
        "eps": "0.0001", 
        "fix_gamma": "False", 
        "use_global_stats": "False"
      }, 
      "inputs": []
    }, 
    {
      "op": "null", 
      "name": "bn_conv06_05_a_moving_var", 
      "attrs": {
        "__init__": "[\"one\", {}]", 
        "eps": "0.0001", 
        "fix_gamma": "False", 
        "use_global_stats": "False"
      }, 
      "inputs": []
    }, 
    {
      "op": "BatchNorm", 
      "name": "bn_conv06_05_a", 
      "attrs": {
        "eps": "0.0001", 
        "fix_gamma": "False", 
        "use_global_stats": "False"
      }, 
      "inputs": [[760, 0, 0], [761, 0, 0], [762, 0, 0], [763, 0, 1], [764, 0, 1]]
    }, 
    {
      "op": "Activation", 
      "name": "relu06_05_a", 
      "attrs": {"act_type": "relu"}, 
      "inputs": [[765, 0, 0]]
    }, 
    {
      "op": "null", 
      "name": "conv06_05_a_weight", 
      "attrs": {
        "dilate": "(1, 1)", 
        "kernel": "(3, 3)", 
        "layout": "NCHW", 
        "no_bias": "False", 
        "num_filter": "64", 
        "num_group": "1", 
        "pad": "(1, 1)", 
        "stride": "(1, 1)"
      }, 
      "inputs": []
    }, 
    {
      "op": "null", 
      "name": "conv06_05_a_bias", 
      "attrs": {
        "dilate": "(1, 1)", 
        "kernel": "(3, 3)", 
        "layout": "NCHW", 
        "no_bias": "False", 
        "num_filter": "64", 
        "num_group": "1", 
        "pad": "(1, 1)", 
        "stride": "(1, 1)"
      }, 
      "inputs": []
    }, 
    {
      "op": "Convolution", 
      "name": "conv06_05_a", 
      "attrs": {
        "dilate": "(1, 1)", 
        "kernel": "(3, 3)", 
        "layout": "NCHW", 
        "no_bias": "False", 
        "num_filter": "64", 
        "num_group": "1", 
        "pad": "(1, 1)", 
        "stride": "(1, 1)"
      }, 
      "inputs": [[766, 0, 0], [767, 0, 0], [768, 0, 0]]
    }, 
    {
      "op": "null", 
      "name": "bn_conv06_05_b_gamma", 
      "attrs": {
        "eps": "0.0001", 
        "fix_gamma": "False", 
        "use_global_stats": "False"
      }, 
      "inputs": []
    }, 
    {
      "op": "null", 
      "name": "bn_conv06_05_b_beta", 
      "attrs": {
        "eps": "0.0001", 
        "fix_gamma": "False", 
        "use_global_stats": "False"
      }, 
      "inputs": []
    }, 
    {
      "op": "null", 
      "name": "bn_conv06_05_b_moving_mean", 
      "attrs": {
        "__init__": "[\"zero\", {}]", 
        "eps": "0.0001", 
        "fix_gamma": "False", 
        "use_global_stats": "False"
      }, 
      "inputs": []
    }, 
    {
      "op": "null", 
      "name": "bn_conv06_05_b_moving_var", 
      "attrs": {
        "__init__": "[\"one\", {}]", 
        "eps": "0.0001", 
        "fix_gamma": "False", 
        "use_global_stats": "False"
      }, 
      "inputs": []
    }, 
    {
      "op": "BatchNorm", 
      "name": "bn_conv06_05_b", 
      "attrs": {
        "eps": "0.0001", 
        "fix_gamma": "False", 
        "use_global_stats": "False"
      }, 
      "inputs": [[769, 0, 0], [770, 0, 0], [771, 0, 0], [772, 0, 1], [773, 0, 1]]
    }, 
    {
      "op": "Activation", 
      "name": "relu06_05_b", 
      "attrs": {"act_type": "relu"}, 
      "inputs": [[774, 0, 0]]
    }, 
    {
      "op": "null", 
      "name": "conv06_05_b_weight", 
      "attrs": {
        "dilate": "(1, 1)", 
        "kernel": "(3, 3)", 
        "layout": "NCHW", 
        "no_bias": "False", 
        "num_filter": "64", 
        "num_group": "1", 
        "pad": "(1, 1)", 
        "stride": "(1, 1)"
      }, 
      "inputs": []
    }, 
    {
      "op": "null", 
      "name": "conv06_05_b_bias", 
      "attrs": {
        "dilate": "(1, 1)", 
        "kernel": "(3, 3)", 
        "layout": "NCHW", 
        "no_bias": "False", 
        "num_filter": "64", 
        "num_group": "1", 
        "pad": "(1, 1)", 
        "stride": "(1, 1)"
      }, 
      "inputs": []
    }, 
    {
      "op": "Convolution", 
      "name": "conv06_05_b", 
      "attrs": {
        "dilate": "(1, 1)", 
        "kernel": "(3, 3)", 
        "layout": "NCHW", 
        "no_bias": "False", 
        "num_filter": "64", 
        "num_group": "1", 
        "pad": "(1, 1)", 
        "stride": "(1, 1)"
      }, 
      "inputs": [[775, 0, 0], [776, 0, 0], [777, 0, 0]]
    }, 
    {
      "op": "broadcast_add", 
      "name": "eltwise06_05", 
      "inputs": [[760, 0, 0], [778, 0, 0]]
    }, 
    {
      "op": "null", 
      "name": "bn_conv06_06_a_gamma", 
      "attrs": {
        "eps": "0.0001", 
        "fix_gamma": "False", 
        "use_global_stats": "False"
      }, 
      "inputs": []
    }, 
    {
      "op": "null", 
      "name": "bn_conv06_06_a_beta", 
      "attrs": {
        "eps": "0.0001", 
        "fix_gamma": "False", 
        "use_global_stats": "False"
      }, 
      "inputs": []
    }, 
    {
      "op": "null", 
      "name": "bn_conv06_06_a_moving_mean", 
      "attrs": {
        "__init__": "[\"zero\", {}]", 
        "eps": "0.0001", 
        "fix_gamma": "False", 
        "use_global_stats": "False"
      }, 
      "inputs": []
    }, 
    {
      "op": "null", 
      "name": "bn_conv06_06_a_moving_var", 
      "attrs": {
        "__init__": "[\"one\", {}]", 
        "eps": "0.0001", 
        "fix_gamma": "False", 
        "use_global_stats": "False"
      }, 
      "inputs": []
    }, 
    {
      "op": "BatchNorm", 
      "name": "bn_conv06_06_a", 
      "attrs": {
        "eps": "0.0001", 
        "fix_gamma": "False", 
        "use_global_stats": "False"
      }, 
      "inputs": [[779, 0, 0], [780, 0, 0], [781, 0, 0], [782, 0, 1], [783, 0, 1]]
    }, 
    {
      "op": "Activation", 
      "name": "relu06_06_a", 
      "attrs": {"act_type": "relu"}, 
      "inputs": [[784, 0, 0]]
    }, 
    {
      "op": "null", 
      "name": "conv06_06_a_weight", 
      "attrs": {
        "dilate": "(1, 1)", 
        "kernel": "(3, 3)", 
        "layout": "NCHW", 
        "no_bias": "False", 
        "num_filter": "64", 
        "num_group": "1", 
        "pad": "(1, 1)", 
        "stride": "(1, 1)"
      }, 
      "inputs": []
    }, 
    {
      "op": "null", 
      "name": "conv06_06_a_bias", 
      "attrs": {
        "dilate": "(1, 1)", 
        "kernel": "(3, 3)", 
        "layout": "NCHW", 
        "no_bias": "False", 
        "num_filter": "64", 
        "num_group": "1", 
        "pad": "(1, 1)", 
        "stride": "(1, 1)"
      }, 
      "inputs": []
    }, 
    {
      "op": "Convolution", 
      "name": "conv06_06_a", 
      "attrs": {
        "dilate": "(1, 1)", 
        "kernel": "(3, 3)", 
        "layout": "NCHW", 
        "no_bias": "False", 
        "num_filter": "64", 
        "num_group": "1", 
        "pad": "(1, 1)", 
        "stride": "(1, 1)"
      }, 
      "inputs": [[785, 0, 0], [786, 0, 0], [787, 0, 0]]
    }, 
    {
      "op": "null", 
      "name": "bn_conv06_06_b_gamma", 
      "attrs": {
        "eps": "0.0001", 
        "fix_gamma": "False", 
        "use_global_stats": "False"
      }, 
      "inputs": []
    }, 
    {
      "op": "null", 
      "name": "bn_conv06_06_b_beta", 
      "attrs": {
        "eps": "0.0001", 
        "fix_gamma": "False", 
        "use_global_stats": "False"
      }, 
      "inputs": []
    }, 
    {
      "op": "null", 
      "name": "bn_conv06_06_b_moving_mean", 
      "attrs": {
        "__init__": "[\"zero\", {}]", 
        "eps": "0.0001", 
        "fix_gamma": "False", 
        "use_global_stats": "False"
      }, 
      "inputs": []
    }, 
    {
      "op": "null", 
      "name": "bn_conv06_06_b_moving_var", 
      "attrs": {
        "__init__": "[\"one\", {}]", 
        "eps": "0.0001", 
        "fix_gamma": "False", 
        "use_global_stats": "False"
      }, 
      "inputs": []
    }, 
    {
      "op": "BatchNorm", 
      "name": "bn_conv06_06_b", 
      "attrs": {
        "eps": "0.0001", 
        "fix_gamma": "False", 
        "use_global_stats": "False"
      }, 
      "inputs": [[788, 0, 0], [789, 0, 0], [790, 0, 0], [791, 0, 1], [792, 0, 1]]
    }, 
    {
      "op": "Activation", 
      "name": "relu06_06_b", 
      "attrs": {"act_type": "relu"}, 
      "inputs": [[793, 0, 0]]
    }, 
    {
      "op": "null", 
      "name": "conv06_06_b_weight", 
      "attrs": {
        "dilate": "(1, 1)", 
        "kernel": "(3, 3)", 
        "layout": "NCHW", 
        "no_bias": "False", 
        "num_filter": "64", 
        "num_group": "1", 
        "pad": "(1, 1)", 
        "stride": "(1, 1)"
      }, 
      "inputs": []
    }, 
    {
      "op": "null", 
      "name": "conv06_06_b_bias", 
      "attrs": {
        "dilate": "(1, 1)", 
        "kernel": "(3, 3)", 
        "layout": "NCHW", 
        "no_bias": "False", 
        "num_filter": "64", 
        "num_group": "1", 
        "pad": "(1, 1)", 
        "stride": "(1, 1)"
      }, 
      "inputs": []
    }, 
    {
      "op": "Convolution", 
      "name": "conv06_06_b", 
      "attrs": {
        "dilate": "(1, 1)", 
        "kernel": "(3, 3)", 
        "layout": "NCHW", 
        "no_bias": "False", 
        "num_filter": "64", 
        "num_group": "1", 
        "pad": "(1, 1)", 
        "stride": "(1, 1)"
      }, 
      "inputs": [[794, 0, 0], [795, 0, 0], [796, 0, 0]]
    }, 
    {
      "op": "broadcast_add", 
      "name": "eltwise06_06", 
      "inputs": [[779, 0, 0], [797, 0, 0]]
    }, 
    {
      "op": "Concat", 
      "name": "concat06", 
      "attrs": {"num_args": "12"}, 
      "inputs": [
        [9, 0, 0], 
        [133, 0, 0], 
        [268, 0, 0], 
        [403, 0, 0], 
        [538, 0, 0], 
        [673, 0, 0], 
        [703, 0, 0], 
        [722, 0, 0], 
        [741, 0, 0], 
        [760, 0, 0], 
        [779, 0, 0], 
        [798, 0, 0]
      ]
    }, 
    {
      "op": "null", 
      "name": "bn_conv_transition_06_gamma", 
      "attrs": {
        "eps": "0.0001", 
        "fix_gamma": "False", 
        "use_global_stats": "False"
      }, 
      "inputs": []
    }, 
    {
      "op": "null", 
      "name": "bn_conv_transition_06_beta", 
      "attrs": {
        "eps": "0.0001", 
        "fix_gamma": "False", 
        "use_global_stats": "False"
      }, 
      "inputs": []
    }, 
    {
      "op": "null", 
      "name": "bn_conv_transition_06_moving_mean", 
      "attrs": {
        "__init__": "[\"zero\", {}]", 
        "eps": "0.0001", 
        "fix_gamma": "False", 
        "use_global_stats": "False"
      }, 
      "inputs": []
    }, 
    {
      "op": "null", 
      "name": "bn_conv_transition_06_moving_var", 
      "attrs": {
        "__init__": "[\"one\", {}]", 
        "eps": "0.0001", 
        "fix_gamma": "False", 
        "use_global_stats": "False"
      }, 
      "inputs": []
    }, 
    {
      "op": "BatchNorm", 
      "name": "bn_conv_transition_06", 
      "attrs": {
        "eps": "0.0001", 
        "fix_gamma": "False", 
        "use_global_stats": "False"
      }, 
      "inputs": [[799, 0, 0], [800, 0, 0], [801, 0, 0], [802, 0, 1], [803, 0, 1]]
    }, 
    {
      "op": "Activation", 
      "name": "relu_transition_06", 
      "attrs": {"act_type": "relu"}, 
      "inputs": [[804, 0, 0]]
    }, 
    {
      "op": "null", 
      "name": "conv_transition_06_weight", 
      "attrs": {
        "dilate": "(1, 1)", 
        "kernel": "(1, 1)", 
        "layout": "NCHW", 
        "no_bias": "False", 
        "num_filter": "64", 
        "num_group": "1", 
        "pad": "(0, 0)", 
        "stride": "(1, 1)"
      }, 
      "inputs": []
    }, 
    {
      "op": "null", 
      "name": "conv_transition_06_bias", 
      "attrs": {
        "dilate": "(1, 1)", 
        "kernel": "(1, 1)", 
        "layout": "NCHW", 
        "no_bias": "False", 
        "num_filter": "64", 
        "num_group": "1", 
        "pad": "(0, 0)", 
        "stride": "(1, 1)"
      }, 
      "inputs": []
    }, 
    {
      "op": "Convolution", 
      "name": "conv_transition_06", 
      "attrs": {
        "dilate": "(1, 1)", 
        "kernel": "(1, 1)", 
        "layout": "NCHW", 
        "no_bias": "False", 
        "num_filter": "64", 
        "num_group": "1", 
        "pad": "(0, 0)", 
        "stride": "(1, 1)"
      }, 
      "inputs": [[805, 0, 0], [806, 0, 0], [807, 0, 0]]
    }, 
    {
      "op": "null", 
      "name": "bn_conv_end_06_gamma", 
      "attrs": {
        "eps": "0.0001", 
        "fix_gamma": "False", 
        "use_global_stats": "False"
      }, 
      "inputs": []
    }, 
    {
      "op": "null", 
      "name": "bn_conv_end_06_beta", 
      "attrs": {
        "eps": "0.0001", 
        "fix_gamma": "False", 
        "use_global_stats": "False"
      }, 
      "inputs": []
    }, 
    {
      "op": "null", 
      "name": "bn_conv_end_06_moving_mean", 
      "attrs": {
        "__init__": "[\"zero\", {}]", 
        "eps": "0.0001", 
        "fix_gamma": "False", 
        "use_global_stats": "False"
      }, 
      "inputs": []
    }, 
    {
      "op": "null", 
      "name": "bn_conv_end_06_moving_var", 
      "attrs": {
        "__init__": "[\"one\", {}]", 
        "eps": "0.0001", 
        "fix_gamma": "False", 
        "use_global_stats": "False"
      }, 
      "inputs": []
    }, 
    {
      "op": "BatchNorm", 
      "name": "bn_conv_end_06", 
      "attrs": {
        "eps": "0.0001", 
        "fix_gamma": "False", 
        "use_global_stats": "False"
      }, 
      "inputs": [[808, 0, 0], [809, 0, 0], [810, 0, 0], [811, 0, 1], [812, 0, 1]]
    }, 
    {
      "op": "Activation", 
      "name": "relu_end_06", 
      "attrs": {"act_type": "relu"}, 
      "inputs": [[813, 0, 0]]
    }, 
    {
      "op": "null", 
      "name": "conv_end_06_weight", 
      "attrs": {
        "dilate": "(1, 1)", 
        "kernel": "(3, 3)", 
        "layout": "NCHW", 
        "no_bias": "False", 
        "num_filter": "1", 
        "num_group": "1", 
        "pad": "(1, 1)", 
        "stride": "(1, 1)"
      }, 
      "inputs": []
    }, 
    {
      "op": "null", 
      "name": "conv_end_06_bias", 
      "attrs": {
        "dilate": "(1, 1)", 
        "kernel": "(3, 3)", 
        "layout": "NCHW", 
        "no_bias": "False", 
        "num_filter": "1", 
        "num_group": "1", 
        "pad": "(1, 1)", 
        "stride": "(1, 1)"
      }, 
      "inputs": []
    }, 
    {
      "op": "Convolution", 
      "name": "conv_end_06", 
      "attrs": {
        "dilate": "(1, 1)", 
        "kernel": "(3, 3)", 
        "layout": "NCHW", 
        "no_bias": "False", 
        "num_filter": "1", 
        "num_group": "1", 
        "pad": "(1, 1)", 
        "stride": "(1, 1)"
      }, 
      "inputs": [[814, 0, 0], [815, 0, 0], [816, 0, 0]]
    }, 
    {
      "op": "broadcast_add", 
      "name": "HR_recovery_06", 
      "inputs": [[0, 0, 0], [817, 0, 0]]
    }, 
    {
      "op": "_mul_scalar", 
      "name": "_mulscalar5", 
      "attrs": {"scalar": "0.522635281085968"}, 
      "inputs": [[818, 0, 0]]
    }, 
    {
      "op": "add_n", 
      "name": "HR_recovery", 
      "attrs": {"num_args": "6"}, 
      "inputs": [[144, 0, 0], [279, 0, 0], [414, 0, 0], [549, 0, 0], [684, 0, 0], [819, 0, 0]]
    }
  ], 
  "arg_nodes": [
    0, 
    1, 
    2, 
    3, 
    4, 
    7, 
    8, 
    10, 
    11, 
    12, 
    13, 
    16, 
    17, 
    19, 
    20, 
    21, 
    22, 
    25, 
    26, 
    29, 
    30, 
    31, 
    32, 
    35, 
    36, 
    38, 
    39, 
    40, 
    41, 
    44, 
    45, 
    48, 
    49, 
    50, 
    51, 
    54, 
    55, 
    57, 
    58, 
    59, 
    60, 
    63, 
    64, 
    67, 
    68, 
    69, 
    70, 
    73, 
    74, 
    76, 
    77, 
    78, 
    79, 
    82, 
    83, 
    86, 
    87, 
    88, 
    89, 
    92, 
    93, 
    95, 
    96, 
    97, 
    98, 
    101, 
    102, 
    105, 
    106, 
    107, 
    108, 
    111, 
    112, 
    114, 
    115, 
    116, 
    117, 
    120, 
    121, 
    125, 
    126, 
    127, 
    128, 
    131, 
    132, 
    134, 
    135, 
    136, 
    137, 
    140, 
    141, 
    145, 
    146, 
    147, 
    148, 
    151, 
    152, 
    154, 
    155, 
    156, 
    157, 
    160, 
    161, 
    164, 
    165, 
    166, 
    167, 
    170, 
    171, 
    173, 
    174, 
    175, 
    176, 
    179, 
    180, 
    183, 
    184, 
    185, 
    186, 
    189, 
    190, 
    192, 
    193, 
    194, 
    195, 
    198, 
    199, 
    202, 
    203, 
    204, 
    205, 
    208, 
    209, 
    211, 
    212, 
    213, 
    214, 
    217, 
    218, 
    221, 
    222, 
    223, 
    224, 
    227, 
    228, 
    230, 
    231, 
    232, 
    233, 
    236, 
    237, 
    240, 
    241, 
    242, 
    243, 
    246, 
    247, 
    249, 
    250, 
    251, 
    252, 
    255, 
    256, 
    260, 
    261, 
    262, 
    263, 
    266, 
    267, 
    269, 
    270, 
    271, 
    272, 
    275, 
    276, 
    280, 
    281, 
    282, 
    283, 
    286, 
    287, 
    289, 
    290, 
    291, 
    292, 
    295, 
    296, 
    299, 
    300, 
    301, 
    302, 
    305, 
    306, 
    308, 
    309, 
    310, 
    311, 
    314, 
    315, 
    318, 
    319, 
    320, 
    321, 
    324, 
    325, 
    327, 
    328, 
    329, 
    330, 
    333, 
    334, 
    337, 
    338, 
    339, 
    340, 
    343, 
    344, 
    346, 
    347, 
    348, 
    349, 
    352, 
    353, 
    356, 
    357, 
    358, 
    359, 
    362, 
    363, 
    365, 
    366, 
    367, 
    368, 
    371, 
    372, 
    375, 
    376, 
    377, 
    378, 
    381, 
    382, 
    384, 
    385, 
    386, 
    387, 
    390, 
    391, 
    395, 
    396, 
    397, 
    398, 
    401, 
    402, 
    404, 
    405, 
    406, 
    407, 
    410, 
    411, 
    415, 
    416, 
    417, 
    418, 
    421, 
    422, 
    424, 
    425, 
    426, 
    427, 
    430, 
    431, 
    434, 
    435, 
    436, 
    437, 
    440, 
    441, 
    443, 
    444, 
    445, 
    446, 
    449, 
    450, 
    453, 
    454, 
    455, 
    456, 
    459, 
    460, 
    462, 
    463, 
    464, 
    465, 
    468, 
    469, 
    472, 
    473, 
    474, 
    475, 
    478, 
    479, 
    481, 
    482, 
    483, 
    484, 
    487, 
    488, 
    491, 
    492, 
    493, 
    494, 
    497, 
    498, 
    500, 
    501, 
    502, 
    503, 
    506, 
    507, 
    510, 
    511, 
    512, 
    513, 
    516, 
    517, 
    519, 
    520, 
    521, 
    522, 
    525, 
    526, 
    530, 
    531, 
    532, 
    533, 
    536, 
    537, 
    539, 
    540, 
    541, 
    542, 
    545, 
    546, 
    550, 
    551, 
    552, 
    553, 
    556, 
    557, 
    559, 
    560, 
    561, 
    562, 
    565, 
    566, 
    569, 
    570, 
    571, 
    572, 
    575, 
    576, 
    578, 
    579, 
    580, 
    581, 
    584, 
    585, 
    588, 
    589, 
    590, 
    591, 
    594, 
    595, 
    597, 
    598, 
    599, 
    600, 
    603, 
    604, 
    607, 
    608, 
    609, 
    610, 
    613, 
    614, 
    616, 
    617, 
    618, 
    619, 
    622, 
    623, 
    626, 
    627, 
    628, 
    629, 
    632, 
    633, 
    635, 
    636, 
    637, 
    638, 
    641, 
    642, 
    645, 
    646, 
    647, 
    648, 
    651, 
    652, 
    654, 
    655, 
    656, 
    657, 
    660, 
    661, 
    665, 
    666, 
    667, 
    668, 
    671, 
    672, 
    674, 
    675, 
    676, 
    677, 
    680, 
    681, 
    685, 
    686, 
    687, 
    688, 
    691, 
    692, 
    694, 
    695, 
    696, 
    697, 
    700, 
    701, 
    704, 
    705, 
    706, 
    707, 
    710, 
    711, 
    713, 
    714, 
    715, 
    716, 
    719, 
    720, 
    723, 
    724, 
    725, 
    726, 
    729, 
    730, 
    732, 
    733, 
    734, 
    735, 
    738, 
    739, 
    742, 
    743, 
    744, 
    745, 
    748, 
    749, 
    751, 
    752, 
    753, 
    754, 
    757, 
    758, 
    761, 
    762, 
    763, 
    764, 
    767, 
    768, 
    770, 
    771, 
    772, 
    773, 
    776, 
    777, 
    780, 
    781, 
    782, 
    783, 
    786, 
    787, 
    789, 
    790, 
    791, 
    792, 
    795, 
    796, 
    800, 
    801, 
    802, 
    803, 
    806, 
    807, 
    809, 
    810, 
    811, 
    812, 
    815, 
    816
  ], 
  "node_row_ptr": [
    0, 
    1, 
    2, 
    3, 
    4, 
    5, 
    8, 
    9, 
    10, 
    11, 
    12, 
    13, 
    14, 
    15, 
    16, 
    19, 
    20, 
    21, 
    22, 
    23, 
    24, 
    25, 
    26, 
    27, 
    30, 
    31, 
    32, 
    33, 
    34, 
    35, 
    36, 
    37, 
    38, 
    39, 
    42, 
    43, 
    44, 
    45, 
    46, 
    47, 
    48, 
    49, 
    50, 
    53, 
    54, 
    55, 
    56, 
    57, 
    58, 
    59, 
    60, 
    61, 
    62, 
    65, 
    66, 
    67, 
    68, 
    69, 
    70, 
    71, 
    72, 
    73, 
    76, 
    77, 
    78, 
    79, 
    80, 
    81, 
    82, 
    83, 
    84, 
    85, 
    88, 
    89, 
    90, 
    91, 
    92, 
    93, 
    94, 
    95, 
    96, 
    99, 
    100, 
    101, 
    102, 
    103, 
    104, 
    105, 
    106, 
    107, 
    108, 
    111, 
    112, 
    113, 
    114, 
    115, 
    116, 
    117, 
    118, 
    119, 
    122, 
    123, 
    124, 
    125, 
    126, 
    127, 
    128, 
    129, 
    130, 
    131, 
    134, 
    135, 
    136, 
    137, 
    138, 
    139, 
    140, 
    141, 
    142, 
    145, 
    146, 
    147, 
    148, 
    149, 
    150, 
    151, 
    152, 
    153, 
    154, 
    155, 
    158, 
    159, 
    160, 
    161, 
    162, 
    163, 
    164, 
    165, 
    166, 
    169, 
    170, 
    171, 
    172, 
    173, 
    174, 
    175, 
    176, 
    177, 
    178, 
    179, 
    182, 
    183, 
    184, 
    185, 
    186, 
    187, 
    188, 
    189, 
    190, 
    193, 
    194, 
    195, 
    196, 
    197, 
    198, 
    199, 
    200, 
    201, 
    202, 
    205, 
    206, 
    207, 
    208, 
    209, 
    210, 
    211, 
    212, 
    213, 
    216, 
    217, 
    218, 
    219, 
    220, 
    221, 
    222, 
    223, 
    224, 
    225, 
    228, 
    229, 
    230, 
    231, 
    232, 
    233, 
    234, 
    235, 
    236, 
    239, 
    240, 
    241, 
    242, 
    243, 
    244, 
    245, 
    246, 
    247, 
    248, 
    251, 
    252, 
    253, 
    254, 
    255, 
    256, 
    257, 
    258, 
    259, 
    262, 
    263, 
    264, 
    265, 
    266, 
    267, 
    268, 
    269, 
    270, 
    271, 
    274, 
    275, 
    276, 
    277, 
    278, 
    279, 
    280, 
    281, 
    282, 
    285, 
    286, 
    287, 
    288, 
    289, 
    290, 
    291, 
    292, 
    293, 
    294, 
    297, 
    298, 
    299, 
    300, 
    301, 
    302, 
    303, 
    304, 
    305, 
    308, 
    309, 
    310, 
    311, 
    312, 
    313, 
    314, 
    315, 
    316, 
    317, 
    318, 
    321, 
    322, 
    323, 
    324, 
    325, 
    326, 
    327, 
    328, 
    329, 
    332, 
    333, 
    334, 
    335, 
    336, 
    337, 
    338, 
    339, 
    340, 
    341, 
    342, 
    345, 
    346, 
    347, 
    348, 
    349, 
    350, 
    351, 
    352, 
    353, 
    356, 
    357, 
    358, 
    359, 
    360, 
    361, 
    362, 
    363, 
    364, 
    365, 
    368, 
    369, 
    370, 
    371, 
    372, 
    373, 
    374, 
    375, 
    376, 
    379, 
    380, 
    381, 
    382, 
    383, 
    384, 
    385, 
    386, 
    387, 
    388, 
    391, 
    392, 
    393, 
    394, 
    395, 
    396, 
    397, 
    398, 
    399, 
    402, 
    403, 
    404, 
    405, 
    406, 
    407, 
    408, 
    409, 
    410, 
    411, 
    414, 
    415, 
    416, 
    417, 
    418, 
    419, 
    420, 
    421, 
    422, 
    425, 
    426, 
    427, 
    428, 
    429, 
    430, 
    431, 
    432, 
    433, 
    434, 
    437, 
    438, 
    439, 
    440, 
    441, 
    442, 
    443, 
    444, 
    445, 
    448, 
    449, 
    450, 
    451, 
    452, 
    453, 
    454, 
    455, 
    456, 
    457, 
    460, 
    461, 
    462, 
    463, 
    464, 
    465, 
    466, 
    467, 
    468, 
    471, 
    472, 
    473, 
    474, 
    475, 
    476, 
    477, 
    478, 
    479, 
    480, 
    481, 
    484, 
    485, 
    486, 
    487, 
    488, 
    489, 
    490, 
    491, 
    492, 
    495, 
    496, 
    497, 
    498, 
    499, 
    500, 
    501, 
    502, 
    503, 
    504, 
    505, 
    508, 
    509, 
    510, 
    511, 
    512, 
    513, 
    514, 
    515, 
    516, 
    519, 
    520, 
    521, 
    522, 
    523, 
    524, 
    525, 
    526, 
    527, 
    528, 
    531, 
    532, 
    533, 
    534, 
    535, 
    536, 
    537, 
    538, 
    539, 
    542, 
    543, 
    544, 
    545, 
    546, 
    547, 
    548, 
    549, 
    550, 
    551, 
    554, 
    555, 
    556, 
    557, 
    558, 
    559, 
    560, 
    561, 
    562, 
    565, 
    566, 
    567, 
    568, 
    569, 
    570, 
    571, 
    572, 
    573, 
    574, 
    577, 
    578, 
    579, 
    580, 
    581, 
    582, 
    583, 
    584, 
    585, 
    588, 
    589, 
    590, 
    591, 
    592, 
    593, 
    594, 
    595, 
    596, 
    597, 
    600, 
    601, 
    602, 
    603, 
    604, 
    605, 
    606, 
    607, 
    608, 
    611, 
    612, 
    613, 
    614, 
    615, 
    616, 
    617, 
    618, 
    619, 
    620, 
    623, 
    624, 
    625, 
    626, 
    627, 
    628, 
    629, 
    630, 
    631, 
    634, 
    635, 
    636, 
    637, 
    638, 
    639, 
    640, 
    641, 
    642, 
    643, 
    644, 
    647, 
    648, 
    649, 
    650, 
    651, 
    652, 
    653, 
    654, 
    655, 
    658, 
    659, 
    660, 
    661, 
    662, 
    663, 
    664, 
    665, 
    666, 
    667, 
    668, 
    671, 
    672, 
    673, 
    674, 
    675, 
    676, 
    677, 
    678, 
    679, 
    682, 
    683, 
    684, 
    685, 
    686, 
    687, 
    688, 
    689, 
    690, 
    691, 
    694, 
    695, 
    696, 
    697, 
    698, 
    699, 
    700, 
    701, 
    702, 
    705, 
    706, 
    707, 
    708, 
    709, 
    710, 
    711, 
    712, 
    713, 
    714, 
    717, 
    718, 
    719, 
    720, 
    721, 
    722, 
    723, 
    724, 
    725, 
    728, 
    729, 
    730, 
    731, 
    732, 
    733, 
    734, 
    735, 
    736, 
    737, 
    740, 
    741, 
    742, 
    743, 
    744, 
    745, 
    746, 
    747, 
    748, 
    751, 
    752, 
    753, 
    754, 
    755, 
    756, 
    757, 
    758, 
    759, 
    760, 
    763, 
    764, 
    765, 
    766, 
    767, 
    768, 
    769, 
    770, 
    771, 
    774, 
    775, 
    776, 
    777, 
    778, 
    779, 
    780, 
    781, 
    782, 
    783, 
    786, 
    787, 
    788, 
    789, 
    790, 
    791, 
    792, 
    793, 
    794, 
    797, 
    798, 
    799, 
    800, 
    801, 
    802, 
    803, 
    804, 
    805, 
    806, 
    807, 
    810, 
    811, 
    812, 
    813, 
    814, 
    815, 
    816, 
    817, 
    818, 
    821, 
    822, 
    823, 
    824, 
    825, 
    826, 
    827, 
    828, 
    829, 
    830, 
    831, 
    834, 
    835, 
    836, 
    837, 
    838, 
    839, 
    840, 
    841, 
    842, 
    845, 
    846, 
    847, 
    848, 
    849, 
    850, 
    851, 
    852, 
    853, 
    854, 
    857, 
    858, 
    859, 
    860, 
    861, 
    862, 
    863, 
    864, 
    865, 
    868, 
    869, 
    870, 
    871, 
    872, 
    873, 
    874, 
    875, 
    876, 
    877, 
    880, 
    881, 
    882, 
    883, 
    884, 
    885, 
    886, 
    887, 
    888, 
    891, 
    892, 
    893, 
    894, 
    895, 
    896, 
    897, 
    898, 
    899, 
    900, 
    903, 
    904, 
    905, 
    906, 
    907, 
    908, 
    909, 
    910, 
    911, 
    914, 
    915, 
    916, 
    917, 
    918, 
    919, 
    920, 
    921, 
    922, 
    923, 
    926, 
    927, 
    928, 
    929, 
    930, 
    931, 
    932, 
    933, 
    934, 
    937, 
    938, 
    939, 
    940, 
    941, 
    942, 
    943, 
    944, 
    945, 
    946, 
    949, 
    950, 
    951, 
    952, 
    953, 
    954, 
    955, 
    956, 
    957, 
    960, 
    961, 
    962, 
    963, 
    964, 
    965, 
    966, 
    967, 
    968, 
    969, 
    970, 
    973, 
    974, 
    975, 
    976, 
    977, 
    978, 
    979, 
    980, 
    981, 
    984, 
    985, 
    986, 
    987, 
    988, 
    989, 
    990, 
    991
  ], 
  "heads": [[820, 0, 0]], 
  "attrs": {"mxnet_version": ["int", 10300]}
}