{
  "nodes": [
    {
      "op": "null", 
      "name": "data", 
      "inputs": []
    }, 
    {
      "op": "null", 
      "name": "sub_mean.weight", 
      "attrs": {"__shape__": "(3, 3, 1, 1)"}, 
      "inputs": []
    }, 
    {
      "op": "null", 
      "name": "sub_mean.bias", 
      "attrs": {"__shape__": "(3,)"}, 
      "inputs": []
    }, 
    {
      "op": "Convolution", 
      "name": "convolution0", 
      "attrs": {
        "dilate": "(1, 1)", 
        "kernel": "(1, 1)", 
        "layout": "NCHW", 
        "no_bias": "False", 
        "num_filter": "3", 
        "num_group": "1", 
        "pad": "(0, 0)", 
        "stride": "(1, 1)"
      }, 
      "inputs": [[0, 0, 0], [1, 0, 0], [2, 0, 0]]
    }, 
    {
      "op": "null", 
      "name": "embed.weight", 
      "attrs": {"__shape__": "(256, 3, 3, 3)"}, 
      "inputs": []
    }, 
    {
      "op": "null", 
      "name": "embed.bias", 
      "attrs": {"__shape__": "(256,)"}, 
      "inputs": []
    }, 
    {
      "op": "Convolution", 
      "name": "convolution1", 
      "attrs": {
        "dilate": "(1, 1)", 
        "kernel": "(3, 3)", 
        "layout": "NCHW", 
        "no_bias": "False", 
        "num_filter": "256", 
        "num_group": "1", 
        "pad": "(1, 1)", 
        "stride": "(1, 1)"
      }, 
      "inputs": [[3, 0, 0], [4, 0, 0], [5, 0, 0]]
    }, 
    {
      "op": "null", 
      "name": "body.0.body.0.weight", 
      "attrs": {"__shape__": "(256, 256, 3, 3)"}, 
      "inputs": []
    }, 
    {
      "op": "null", 
      "name": "body.0.body.0.bias", 
      "attrs": {"__shape__": "(256,)"}, 
      "inputs": []
    }, 
    {
      "op": "Convolution", 
      "name": "convolution2", 
      "attrs": {
        "dilate": "(1, 1)", 
        "kernel": "(3, 3)", 
        "layout": "NCHW", 
        "no_bias": "False", 
        "num_filter": "256", 
        "num_group": "1", 
        "pad": "(1, 1)", 
        "stride": "(1, 1)"
      }, 
      "inputs": [[6, 0, 0], [7, 0, 0], [8, 0, 0]]
    }, 
    {
      "op": "relu", 
      "name": "relu0", 
      "inputs": [[9, 0, 0]]
    }, 
    {
      "op": "null", 
      "name": "body.0.body.2.weight", 
      "attrs": {"__shape__": "(256, 256, 3, 3)"}, 
      "inputs": []
    }, 
    {
      "op": "null", 
      "name": "body.0.body.2.bias", 
      "attrs": {"__shape__": "(256,)"}, 
      "inputs": []
    }, 
    {
      "op": "Convolution", 
      "name": "convolution3", 
      "attrs": {
        "dilate": "(1, 1)", 
        "kernel": "(3, 3)", 
        "layout": "NCHW", 
        "no_bias": "False", 
        "num_filter": "256", 
        "num_group": "1", 
        "pad": "(1, 1)", 
        "stride": "(1, 1)"
      }, 
      "inputs": [[10, 0, 0], [11, 0, 0], [12, 0, 0]]
    }, 
    {
      "op": "_mul_scalar", 
      "name": "_mulscalar0", 
      "attrs": {"scalar": "0.1"}, 
      "inputs": [[13, 0, 0]]
    }, 
    {
      "op": "broadcast_add", 
      "name": "broadcast_add0", 
      "inputs": [[14, 0, 0], [6, 0, 0]]
    }, 
    {
      "op": "null", 
      "name": "body.1.body.0.weight", 
      "attrs": {"__shape__": "(256, 256, 3, 3)"}, 
      "inputs": []
    }, 
    {
      "op": "null", 
      "name": "body.1.body.0.bias", 
      "attrs": {"__shape__": "(256,)"}, 
      "inputs": []
    }, 
    {
      "op": "Convolution", 
      "name": "convolution4", 
      "attrs": {
        "dilate": "(1, 1)", 
        "kernel": "(3, 3)", 
        "layout": "NCHW", 
        "no_bias": "False", 
        "num_filter": "256", 
        "num_group": "1", 
        "pad": "(1, 1)", 
        "stride": "(1, 1)"
      }, 
      "inputs": [[15, 0, 0], [16, 0, 0], [17, 0, 0]]
    }, 
    {
      "op": "relu", 
      "name": "relu1", 
      "inputs": [[18, 0, 0]]
    }, 
    {
      "op": "null", 
      "name": "body.1.body.2.weight", 
      "attrs": {"__shape__": "(256, 256, 3, 3)"}, 
      "inputs": []
    }, 
    {
      "op": "null", 
      "name": "body.1.body.2.bias", 
      "attrs": {"__shape__": "(256,)"}, 
      "inputs": []
    }, 
    {
      "op": "Convolution", 
      "name": "convolution5", 
      "attrs": {
        "dilate": "(1, 1)", 
        "kernel": "(3, 3)", 
        "layout": "NCHW", 
        "no_bias": "False", 
        "num_filter": "256", 
        "num_group": "1", 
        "pad": "(1, 1)", 
        "stride": "(1, 1)"
      }, 
      "inputs": [[19, 0, 0], [20, 0, 0], [21, 0, 0]]
    }, 
    {
      "op": "_mul_scalar", 
      "name": "_mulscalar1", 
      "attrs": {"scalar": "0.1"}, 
      "inputs": [[22, 0, 0]]
    }, 
    {
      "op": "broadcast_add", 
      "name": "broadcast_add1", 
      "inputs": [[23, 0, 0], [15, 0, 0]]
    }, 
    {
      "op": "null", 
      "name": "body.2.body.0.weight", 
      "attrs": {"__shape__": "(256, 256, 3, 3)"}, 
      "inputs": []
    }, 
    {
      "op": "null", 
      "name": "body.2.body.0.bias", 
      "attrs": {"__shape__": "(256,)"}, 
      "inputs": []
    }, 
    {
      "op": "Convolution", 
      "name": "convolution6", 
      "attrs": {
        "dilate": "(1, 1)", 
        "kernel": "(3, 3)", 
        "layout": "NCHW", 
        "no_bias": "False", 
        "num_filter": "256", 
        "num_group": "1", 
        "pad": "(1, 1)", 
        "stride": "(1, 1)"
      }, 
      "inputs": [[24, 0, 0], [25, 0, 0], [26, 0, 0]]
    }, 
    {
      "op": "relu", 
      "name": "relu2", 
      "inputs": [[27, 0, 0]]
    }, 
    {
      "op": "null", 
      "name": "body.2.body.2.weight", 
      "attrs": {"__shape__": "(256, 256, 3, 3)"}, 
      "inputs": []
    }, 
    {
      "op": "null", 
      "name": "body.2.body.2.bias", 
      "attrs": {"__shape__": "(256,)"}, 
      "inputs": []
    }, 
    {
      "op": "Convolution", 
      "name": "convolution7", 
      "attrs": {
        "dilate": "(1, 1)", 
        "kernel": "(3, 3)", 
        "layout": "NCHW", 
        "no_bias": "False", 
        "num_filter": "256", 
        "num_group": "1", 
        "pad": "(1, 1)", 
        "stride": "(1, 1)"
      }, 
      "inputs": [[28, 0, 0], [29, 0, 0], [30, 0, 0]]
    }, 
    {
      "op": "_mul_scalar", 
      "name": "_mulscalar2", 
      "attrs": {"scalar": "0.1"}, 
      "inputs": [[31, 0, 0]]
    }, 
    {
      "op": "broadcast_add", 
      "name": "broadcast_add2", 
      "inputs": [[32, 0, 0], [24, 0, 0]]
    }, 
    {
      "op": "null", 
      "name": "body.3.body.0.weight", 
      "attrs": {"__shape__": "(256, 256, 3, 3)"}, 
      "inputs": []
    }, 
    {
      "op": "null", 
      "name": "body.3.body.0.bias", 
      "attrs": {"__shape__": "(256,)"}, 
      "inputs": []
    }, 
    {
      "op": "Convolution", 
      "name": "convolution8", 
      "attrs": {
        "dilate": "(1, 1)", 
        "kernel": "(3, 3)", 
        "layout": "NCHW", 
        "no_bias": "False", 
        "num_filter": "256", 
        "num_group": "1", 
        "pad": "(1, 1)", 
        "stride": "(1, 1)"
      }, 
      "inputs": [[33, 0, 0], [34, 0, 0], [35, 0, 0]]
    }, 
    {
      "op": "relu", 
      "name": "relu3", 
      "inputs": [[36, 0, 0]]
    }, 
    {
      "op": "null", 
      "name": "body.3.body.2.weight", 
      "attrs": {"__shape__": "(256, 256, 3, 3)"}, 
      "inputs": []
    }, 
    {
      "op": "null", 
      "name": "body.3.body.2.bias", 
      "attrs": {"__shape__": "(256,)"}, 
      "inputs": []
    }, 
    {
      "op": "Convolution", 
      "name": "convolution9", 
      "attrs": {
        "dilate": "(1, 1)", 
        "kernel": "(3, 3)", 
        "layout": "NCHW", 
        "no_bias": "False", 
        "num_filter": "256", 
        "num_group": "1", 
        "pad": "(1, 1)", 
        "stride": "(1, 1)"
      }, 
      "inputs": [[37, 0, 0], [38, 0, 0], [39, 0, 0]]
    }, 
    {
      "op": "_mul_scalar", 
      "name": "_mulscalar3", 
      "attrs": {"scalar": "0.1"}, 
      "inputs": [[40, 0, 0]]
    }, 
    {
      "op": "broadcast_add", 
      "name": "broadcast_add3", 
      "inputs": [[41, 0, 0], [33, 0, 0]]
    }, 
    {
      "op": "null", 
      "name": "body.4.body.0.weight", 
      "attrs": {"__shape__": "(256, 256, 3, 3)"}, 
      "inputs": []
    }, 
    {
      "op": "null", 
      "name": "body.4.body.0.bias", 
      "attrs": {"__shape__": "(256,)"}, 
      "inputs": []
    }, 
    {
      "op": "Convolution", 
      "name": "convolution10", 
      "attrs": {
        "dilate": "(1, 1)", 
        "kernel": "(3, 3)", 
        "layout": "NCHW", 
        "no_bias": "False", 
        "num_filter": "256", 
        "num_group": "1", 
        "pad": "(1, 1)", 
        "stride": "(1, 1)"
      }, 
      "inputs": [[42, 0, 0], [43, 0, 0], [44, 0, 0]]
    }, 
    {
      "op": "relu", 
      "name": "relu4", 
      "inputs": [[45, 0, 0]]
    }, 
    {
      "op": "null", 
      "name": "body.4.body.2.weight", 
      "attrs": {"__shape__": "(256, 256, 3, 3)"}, 
      "inputs": []
    }, 
    {
      "op": "null", 
      "name": "body.4.body.2.bias", 
      "attrs": {"__shape__": "(256,)"}, 
      "inputs": []
    }, 
    {
      "op": "Convolution", 
      "name": "convolution11", 
      "attrs": {
        "dilate": "(1, 1)", 
        "kernel": "(3, 3)", 
        "layout": "NCHW", 
        "no_bias": "False", 
        "num_filter": "256", 
        "num_group": "1", 
        "pad": "(1, 1)", 
        "stride": "(1, 1)"
      }, 
      "inputs": [[46, 0, 0], [47, 0, 0], [48, 0, 0]]
    }, 
    {
      "op": "_mul_scalar", 
      "name": "_mulscalar4", 
      "attrs": {"scalar": "0.1"}, 
      "inputs": [[49, 0, 0]]
    }, 
    {
      "op": "broadcast_add", 
      "name": "broadcast_add4", 
      "inputs": [[50, 0, 0], [42, 0, 0]]
    }, 
    {
      "op": "null", 
      "name": "body.5.body.0.weight", 
      "attrs": {"__shape__": "(256, 256, 3, 3)"}, 
      "inputs": []
    }, 
    {
      "op": "null", 
      "name": "body.5.body.0.bias", 
      "attrs": {"__shape__": "(256,)"}, 
      "inputs": []
    }, 
    {
      "op": "Convolution", 
      "name": "convolution12", 
      "attrs": {
        "dilate": "(1, 1)", 
        "kernel": "(3, 3)", 
        "layout": "NCHW", 
        "no_bias": "False", 
        "num_filter": "256", 
        "num_group": "1", 
        "pad": "(1, 1)", 
        "stride": "(1, 1)"
      }, 
      "inputs": [[51, 0, 0], [52, 0, 0], [53, 0, 0]]
    }, 
    {
      "op": "relu", 
      "name": "relu5", 
      "inputs": [[54, 0, 0]]
    }, 
    {
      "op": "null", 
      "name": "body.5.body.2.weight", 
      "attrs": {"__shape__": "(256, 256, 3, 3)"}, 
      "inputs": []
    }, 
    {
      "op": "null", 
      "name": "body.5.body.2.bias", 
      "attrs": {"__shape__": "(256,)"}, 
      "inputs": []
    }, 
    {
      "op": "Convolution", 
      "name": "convolution13", 
      "attrs": {
        "dilate": "(1, 1)", 
        "kernel": "(3, 3)", 
        "layout": "NCHW", 
        "no_bias": "False", 
        "num_filter": "256", 
        "num_group": "1", 
        "pad": "(1, 1)", 
        "stride": "(1, 1)"
      }, 
      "inputs": [[55, 0, 0], [56, 0, 0], [57, 0, 0]]
    }, 
    {
      "op": "_mul_scalar", 
      "name": "_mulscalar5", 
      "attrs": {"scalar": "0.1"}, 
      "inputs": [[58, 0, 0]]
    }, 
    {
      "op": "broadcast_add", 
      "name": "broadcast_add5", 
      "inputs": [[59, 0, 0], [51, 0, 0]]
    }, 
    {
      "op": "null", 
      "name": "body.6.body.0.weight", 
      "attrs": {"__shape__": "(256, 256, 3, 3)"}, 
      "inputs": []
    }, 
    {
      "op": "null", 
      "name": "body.6.body.0.bias", 
      "attrs": {"__shape__": "(256,)"}, 
      "inputs": []
    }, 
    {
      "op": "Convolution", 
      "name": "convolution14", 
      "attrs": {
        "dilate": "(1, 1)", 
        "kernel": "(3, 3)", 
        "layout": "NCHW", 
        "no_bias": "False", 
        "num_filter": "256", 
        "num_group": "1", 
        "pad": "(1, 1)", 
        "stride": "(1, 1)"
      }, 
      "inputs": [[60, 0, 0], [61, 0, 0], [62, 0, 0]]
    }, 
    {
      "op": "relu", 
      "name": "relu6", 
      "inputs": [[63, 0, 0]]
    }, 
    {
      "op": "null", 
      "name": "body.6.body.2.weight", 
      "attrs": {"__shape__": "(256, 256, 3, 3)"}, 
      "inputs": []
    }, 
    {
      "op": "null", 
      "name": "body.6.body.2.bias", 
      "attrs": {"__shape__": "(256,)"}, 
      "inputs": []
    }, 
    {
      "op": "Convolution", 
      "name": "convolution15", 
      "attrs": {
        "dilate": "(1, 1)", 
        "kernel": "(3, 3)", 
        "layout": "NCHW", 
        "no_bias": "False", 
        "num_filter": "256", 
        "num_group": "1", 
        "pad": "(1, 1)", 
        "stride": "(1, 1)"
      }, 
      "inputs": [[64, 0, 0], [65, 0, 0], [66, 0, 0]]
    }, 
    {
      "op": "_mul_scalar", 
      "name": "_mulscalar6", 
      "attrs": {"scalar": "0.1"}, 
      "inputs": [[67, 0, 0]]
    }, 
    {
      "op": "broadcast_add", 
      "name": "broadcast_add6", 
      "inputs": [[68, 0, 0], [60, 0, 0]]
    }, 
    {
      "op": "null", 
      "name": "body.7.body.0.weight", 
      "attrs": {"__shape__": "(256, 256, 3, 3)"}, 
      "inputs": []
    }, 
    {
      "op": "null", 
      "name": "body.7.body.0.bias", 
      "attrs": {"__shape__": "(256,)"}, 
      "inputs": []
    }, 
    {
      "op": "Convolution", 
      "name": "convolution16", 
      "attrs": {
        "dilate": "(1, 1)", 
        "kernel": "(3, 3)", 
        "layout": "NCHW", 
        "no_bias": "False", 
        "num_filter": "256", 
        "num_group": "1", 
        "pad": "(1, 1)", 
        "stride": "(1, 1)"
      }, 
      "inputs": [[69, 0, 0], [70, 0, 0], [71, 0, 0]]
    }, 
    {
      "op": "relu", 
      "name": "relu7", 
      "inputs": [[72, 0, 0]]
    }, 
    {
      "op": "null", 
      "name": "body.7.body.2.weight", 
      "attrs": {"__shape__": "(256, 256, 3, 3)"}, 
      "inputs": []
    }, 
    {
      "op": "null", 
      "name": "body.7.body.2.bias", 
      "attrs": {"__shape__": "(256,)"}, 
      "inputs": []
    }, 
    {
      "op": "Convolution", 
      "name": "convolution17", 
      "attrs": {
        "dilate": "(1, 1)", 
        "kernel": "(3, 3)", 
        "layout": "NCHW", 
        "no_bias": "False", 
        "num_filter": "256", 
        "num_group": "1", 
        "pad": "(1, 1)", 
        "stride": "(1, 1)"
      }, 
      "inputs": [[73, 0, 0], [74, 0, 0], [75, 0, 0]]
    }, 
    {
      "op": "_mul_scalar", 
      "name": "_mulscalar7", 
      "attrs": {"scalar": "0.1"}, 
      "inputs": [[76, 0, 0]]
    }, 
    {
      "op": "broadcast_add", 
      "name": "broadcast_add7", 
      "inputs": [[77, 0, 0], [69, 0, 0]]
    }, 
    {
      "op": "null", 
      "name": "body.8.body.0.weight", 
      "attrs": {"__shape__": "(256, 256, 3, 3)"}, 
      "inputs": []
    }, 
    {
      "op": "null", 
      "name": "body.8.body.0.bias", 
      "attrs": {"__shape__": "(256,)"}, 
      "inputs": []
    }, 
    {
      "op": "Convolution", 
      "name": "convolution18", 
      "attrs": {
        "dilate": "(1, 1)", 
        "kernel": "(3, 3)", 
        "layout": "NCHW", 
        "no_bias": "False", 
        "num_filter": "256", 
        "num_group": "1", 
        "pad": "(1, 1)", 
        "stride": "(1, 1)"
      }, 
      "inputs": [[78, 0, 0], [79, 0, 0], [80, 0, 0]]
    }, 
    {
      "op": "relu", 
      "name": "relu8", 
      "inputs": [[81, 0, 0]]
    }, 
    {
      "op": "null", 
      "name": "body.8.body.2.weight", 
      "attrs": {"__shape__": "(256, 256, 3, 3)"}, 
      "inputs": []
    }, 
    {
      "op": "null", 
      "name": "body.8.body.2.bias", 
      "attrs": {"__shape__": "(256,)"}, 
      "inputs": []
    }, 
    {
      "op": "Convolution", 
      "name": "convolution19", 
      "attrs": {
        "dilate": "(1, 1)", 
        "kernel": "(3, 3)", 
        "layout": "NCHW", 
        "no_bias": "False", 
        "num_filter": "256", 
        "num_group": "1", 
        "pad": "(1, 1)", 
        "stride": "(1, 1)"
      }, 
      "inputs": [[82, 0, 0], [83, 0, 0], [84, 0, 0]]
    }, 
    {
      "op": "_mul_scalar", 
      "name": "_mulscalar8", 
      "attrs": {"scalar": "0.1"},  
      "inputs": [[85, 0, 0]]
    }, 
    {
      "op": "broadcast_add", 
      "name": "broadcast_add8", 
      "inputs": [[86, 0, 0], [78, 0, 0]]
    }, 
    {
      "op": "null", 
      "name": "body.9.body.0.weight", 
      "attrs": {"__shape__": "(256, 256, 3, 3)"}, 
      "inputs": []
    }, 
    {
      "op": "null", 
      "name": "body.9.body.0.bias", 
      "attrs": {"__shape__": "(256,)"}, 
      "inputs": []
    }, 
    {
      "op": "Convolution", 
      "name": "convolution20", 
      "attrs": {
        "dilate": "(1, 1)", 
        "kernel": "(3, 3)", 
        "layout": "NCHW", 
        "no_bias": "False", 
        "num_filter": "256", 
        "num_group": "1", 
        "pad": "(1, 1)", 
        "stride": "(1, 1)"
      }, 
      "inputs": [[87, 0, 0], [88, 0, 0], [89, 0, 0]]
    }, 
    {
      "op": "relu", 
      "name": "relu9", 
      "inputs": [[90, 0, 0]]
    }, 
    {
      "op": "null", 
      "name": "body.9.body.2.weight", 
      "attrs": {"__shape__": "(256, 256, 3, 3)"}, 
      "inputs": []
    }, 
    {
      "op": "null", 
      "name": "body.9.body.2.bias", 
      "attrs": {"__shape__": "(256,)"}, 
      "inputs": []
    }, 
    {
      "op": "Convolution", 
      "name": "convolution21", 
      "attrs": {
        "dilate": "(1, 1)", 
        "kernel": "(3, 3)", 
        "layout": "NCHW", 
        "no_bias": "False", 
        "num_filter": "256", 
        "num_group": "1", 
        "pad": "(1, 1)", 
        "stride": "(1, 1)"
      }, 
      "inputs": [[91, 0, 0], [92, 0, 0], [93, 0, 0]]
    }, 
    {
      "op": "_mul_scalar", 
      "name": "_mulscalar9", 
      "attrs": {"scalar": "0.1"}, 
      "inputs": [[94, 0, 0]]
    }, 
    {
      "op": "broadcast_add", 
      "name": "broadcast_add9", 
      "inputs": [[95, 0, 0], [87, 0, 0]]
    }, 
    {
      "op": "null", 
      "name": "body.10.body.0.weight", 
      "attrs": {"__shape__": "(256, 256, 3, 3)"}, 
      "inputs": []
    }, 
    {
      "op": "null", 
      "name": "body.10.body.0.bias", 
      "attrs": {"__shape__": "(256,)"}, 
      "inputs": []
    }, 
    {
      "op": "Convolution", 
      "name": "convolution22", 
      "attrs": {
        "dilate": "(1, 1)", 
        "kernel": "(3, 3)", 
        "layout": "NCHW", 
        "no_bias": "False", 
        "num_filter": "256", 
        "num_group": "1", 
        "pad": "(1, 1)", 
        "stride": "(1, 1)"
      }, 
      "inputs": [[96, 0, 0], [97, 0, 0], [98, 0, 0]]
    }, 
    {
      "op": "relu", 
      "name": "relu10", 
      "inputs": [[99, 0, 0]]
    }, 
    {
      "op": "null", 
      "name": "body.10.body.2.weight", 
      "attrs": {"__shape__": "(256, 256, 3, 3)"}, 
      "inputs": []
    }, 
    {
      "op": "null", 
      "name": "body.10.body.2.bias", 
      "attrs": {"__shape__": "(256,)"}, 
      "inputs": []
    }, 
    {
      "op": "Convolution", 
      "name": "convolution23", 
      "attrs": {
        "dilate": "(1, 1)", 
        "kernel": "(3, 3)", 
        "layout": "NCHW", 
        "no_bias": "False", 
        "num_filter": "256", 
        "num_group": "1", 
        "pad": "(1, 1)", 
        "stride": "(1, 1)"
      }, 
      "inputs": [[100, 0, 0], [101, 0, 0], [102, 0, 0]]
    }, 
    {
      "op": "_mul_scalar", 
      "name": "_mulscalar10", 
      "attrs": {"scalar": "0.1"}, 
      "inputs": [[103, 0, 0]]
    }, 
    {
      "op": "broadcast_add", 
      "name": "broadcast_add10", 
      "inputs": [[104, 0, 0], [96, 0, 0]]
    }, 
    {
      "op": "null", 
      "name": "body.11.body.0.weight", 
      "attrs": {"__shape__": "(256, 256, 3, 3)"}, 
      "inputs": []
    }, 
    {
      "op": "null", 
      "name": "body.11.body.0.bias", 
      "attrs": {"__shape__": "(256,)"}, 
      "inputs": []
    }, 
    {
      "op": "Convolution", 
      "name": "convolution24", 
      "attrs": {
        "dilate": "(1, 1)", 
        "kernel": "(3, 3)", 
        "layout": "NCHW", 
        "no_bias": "False", 
        "num_filter": "256", 
        "num_group": "1", 
        "pad": "(1, 1)", 
        "stride": "(1, 1)"
      }, 
      "inputs": [[105, 0, 0], [106, 0, 0], [107, 0, 0]]
    }, 
    {
      "op": "relu", 
      "name": "relu11", 
      "inputs": [[108, 0, 0]]
    }, 
    {
      "op": "null", 
      "name": "body.11.body.2.weight", 
      "attrs": {"__shape__": "(256, 256, 3, 3)"}, 
      "inputs": []
    }, 
    {
      "op": "null", 
      "name": "body.11.body.2.bias", 
      "attrs": {"__shape__": "(256,)"}, 
      "inputs": []
    }, 
    {
      "op": "Convolution", 
      "name": "convolution25", 
      "attrs": {
        "dilate": "(1, 1)", 
        "kernel": "(3, 3)", 
        "layout": "NCHW", 
        "no_bias": "False", 
        "num_filter": "256", 
        "num_group": "1", 
        "pad": "(1, 1)", 
        "stride": "(1, 1)"
      }, 
      "inputs": [[109, 0, 0], [110, 0, 0], [111, 0, 0]]
    }, 
    {
      "op": "_mul_scalar", 
      "name": "_mulscalar11", 
      "attrs": {"scalar": "0.1"}, 
      "inputs": [[112, 0, 0]]
    }, 
    {
      "op": "broadcast_add", 
      "name": "broadcast_add11", 
      "inputs": [[113, 0, 0], [105, 0, 0]]
    }, 
    {
      "op": "null", 
      "name": "body.12.body.0.weight", 
      "attrs": {"__shape__": "(256, 256, 3, 3)"}, 
      "inputs": []
    }, 
    {
      "op": "null", 
      "name": "body.12.body.0.bias", 
      "attrs": {"__shape__": "(256,)"}, 
      "inputs": []
    }, 
    {
      "op": "Convolution", 
      "name": "convolution26", 
      "attrs": {
        "dilate": "(1, 1)", 
        "kernel": "(3, 3)", 
        "layout": "NCHW", 
        "no_bias": "False", 
        "num_filter": "256", 
        "num_group": "1", 
        "pad": "(1, 1)", 
        "stride": "(1, 1)"
      }, 
      "inputs": [[114, 0, 0], [115, 0, 0], [116, 0, 0]]
    }, 
    {
      "op": "relu", 
      "name": "relu12", 
      "inputs": [[117, 0, 0]]
    }, 
    {
      "op": "null", 
      "name": "body.12.body.2.weight", 
      "attrs": {"__shape__": "(256, 256, 3, 3)"}, 
      "inputs": []
    }, 
    {
      "op": "null", 
      "name": "body.12.body.2.bias", 
      "attrs": {"__shape__": "(256,)"}, 
      "inputs": []
    }, 
    {
      "op": "Convolution", 
      "name": "convolution27", 
      "attrs": {
        "dilate": "(1, 1)", 
        "kernel": "(3, 3)", 
        "layout": "NCHW", 
        "no_bias": "False", 
        "num_filter": "256", 
        "num_group": "1", 
        "pad": "(1, 1)", 
        "stride": "(1, 1)"
      }, 
      "inputs": [[118, 0, 0], [119, 0, 0], [120, 0, 0]]
    }, 
    {
      "op": "_mul_scalar", 
      "name": "_mulscalar12", 
      "attrs": {"scalar": "0.1"}, 
      "inputs": [[121, 0, 0]]
    }, 
    {
      "op": "broadcast_add", 
      "name": "broadcast_add12", 
      "inputs": [[122, 0, 0], [114, 0, 0]]
    }, 
    {
      "op": "null", 
      "name": "body.13.body.0.weight", 
      "attrs": {"__shape__": "(256, 256, 3, 3)"}, 
      "inputs": []
    }, 
    {
      "op": "null", 
      "name": "body.13.body.0.bias", 
      "attrs": {"__shape__": "(256,)"}, 
      "inputs": []
    }, 
    {
      "op": "Convolution", 
      "name": "convolution28", 
      "attrs": {
        "dilate": "(1, 1)", 
        "kernel": "(3, 3)", 
        "layout": "NCHW", 
        "no_bias": "False", 
        "num_filter": "256", 
        "num_group": "1", 
        "pad": "(1, 1)", 
        "stride": "(1, 1)"
      }, 
      "inputs": [[123, 0, 0], [124, 0, 0], [125, 0, 0]]
    }, 
    {
      "op": "relu", 
      "name": "relu13", 
      "inputs": [[126, 0, 0]]
    }, 
    {
      "op": "null", 
      "name": "body.13.body.2.weight", 
      "attrs": {"__shape__": "(256, 256, 3, 3)"}, 
      "inputs": []
    }, 
    {
      "op": "null", 
      "name": "body.13.body.2.bias", 
      "attrs": {"__shape__": "(256,)"}, 
      "inputs": []
    }, 
    {
      "op": "Convolution", 
      "name": "convolution29", 
      "attrs": {
        "dilate": "(1, 1)", 
        "kernel": "(3, 3)", 
        "layout": "NCHW", 
        "no_bias": "False", 
        "num_filter": "256", 
        "num_group": "1", 
        "pad": "(1, 1)", 
        "stride": "(1, 1)"
      }, 
      "inputs": [[127, 0, 0], [128, 0, 0], [129, 0, 0]]
    }, 
    {
      "op": "_mul_scalar", 
      "name": "_mulscalar13", 
      "attrs": {"scalar": "0.1"}, 
      "inputs": [[130, 0, 0]]
    }, 
    {
      "op": "broadcast_add", 
      "name": "broadcast_add13", 
      "inputs": [[131, 0, 0], [123, 0, 0]]
    }, 
    {
      "op": "null", 
      "name": "body.14.body.0.weight", 
      "attrs": {"__shape__": "(256, 256, 3, 3)"}, 
      "inputs": []
    }, 
    {
      "op": "null", 
      "name": "body.14.body.0.bias", 
      "attrs": {"__shape__": "(256,)"}, 
      "inputs": []
    }, 
    {
      "op": "Convolution", 
      "name": "convolution30", 
      "attrs": {
        "dilate": "(1, 1)", 
        "kernel": "(3, 3)", 
        "layout": "NCHW", 
        "no_bias": "False", 
        "num_filter": "256", 
        "num_group": "1", 
        "pad": "(1, 1)", 
        "stride": "(1, 1)"
      }, 
      "inputs": [[132, 0, 0], [133, 0, 0], [134, 0, 0]]
    }, 
    {
      "op": "relu", 
      "name": "relu14", 
      "inputs": [[135, 0, 0]]
    }, 
    {
      "op": "null", 
      "name": "body.14.body.2.weight", 
      "attrs": {"__shape__": "(256, 256, 3, 3)"}, 
      "inputs": []
    }, 
    {
      "op": "null", 
      "name": "body.14.body.2.bias", 
      "attrs": {"__shape__": "(256,)"}, 
      "inputs": []
    }, 
    {
      "op": "Convolution", 
      "name": "convolution31", 
      "attrs": {
        "dilate": "(1, 1)", 
        "kernel": "(3, 3)", 
        "layout": "NCHW", 
        "no_bias": "False", 
        "num_filter": "256", 
        "num_group": "1", 
        "pad": "(1, 1)", 
        "stride": "(1, 1)"
      }, 
      "inputs": [[136, 0, 0], [137, 0, 0], [138, 0, 0]]
    }, 
    {
      "op": "_mul_scalar", 
      "name": "_mulscalar14", 
      "attrs": {"scalar": "0.1"}, 
      "inputs": [[139, 0, 0]]
    }, 
    {
      "op": "broadcast_add", 
      "name": "broadcast_add14", 
      "inputs": [[140, 0, 0], [132, 0, 0]]
    }, 
    {
      "op": "null", 
      "name": "body.15.body.0.weight", 
      "attrs": {"__shape__": "(256, 256, 3, 3)"}, 
      "inputs": []
    }, 
    {
      "op": "null", 
      "name": "body.15.body.0.bias", 
      "attrs": {"__shape__": "(256,)"}, 
      "inputs": []
    }, 
    {
      "op": "Convolution", 
      "name": "convolution32", 
      "attrs": {
        "dilate": "(1, 1)", 
        "kernel": "(3, 3)", 
        "layout": "NCHW", 
        "no_bias": "False", 
        "num_filter": "256", 
        "num_group": "1", 
        "pad": "(1, 1)", 
        "stride": "(1, 1)"
      }, 
      "inputs": [[141, 0, 0], [142, 0, 0], [143, 0, 0]]
    }, 
    {
      "op": "relu", 
      "name": "relu15", 
      "inputs": [[144, 0, 0]]
    }, 
    {
      "op": "null", 
      "name": "body.15.body.2.weight", 
      "attrs": {"__shape__": "(256, 256, 3, 3)"}, 
      "inputs": []
    }, 
    {
      "op": "null", 
      "name": "body.15.body.2.bias", 
      "attrs": {"__shape__": "(256,)"}, 
      "inputs": []
    }, 
    {
      "op": "Convolution", 
      "name": "convolution33", 
      "attrs": {
        "dilate": "(1, 1)", 
        "kernel": "(3, 3)", 
        "layout": "NCHW", 
        "no_bias": "False", 
        "num_filter": "256", 
        "num_group": "1", 
        "pad": "(1, 1)", 
        "stride": "(1, 1)"
      }, 
      "inputs": [[145, 0, 0], [146, 0, 0], [147, 0, 0]]
    }, 
    {
      "op": "_mul_scalar", 
      "name": "_mulscalar15", 
      "attrs": {"scalar": "0.1"}, 
      "inputs": [[148, 0, 0]]
    }, 
    {
      "op": "broadcast_add", 
      "name": "broadcast_add15", 
      "inputs": [[149, 0, 0], [141, 0, 0]]
    }, 
    {
      "op": "null", 
      "name": "body.16.body.0.weight", 
      "attrs": {"__shape__": "(256, 256, 3, 3)"}, 
      "inputs": []
    }, 
    {
      "op": "null", 
      "name": "body.16.body.0.bias", 
      "attrs": {"__shape__": "(256,)"}, 
      "inputs": []
    }, 
    {
      "op": "Convolution", 
      "name": "convolution34", 
      "attrs": {
        "dilate": "(1, 1)", 
        "kernel": "(3, 3)", 
        "layout": "NCHW", 
        "no_bias": "False", 
        "num_filter": "256", 
        "num_group": "1", 
        "pad": "(1, 1)", 
        "stride": "(1, 1)"
      }, 
      "inputs": [[150, 0, 0], [151, 0, 0], [152, 0, 0]]
    }, 
    {
      "op": "relu", 
      "name": "relu16", 
      "inputs": [[153, 0, 0]]
    }, 
    {
      "op": "null", 
      "name": "body.16.body.2.weight", 
      "attrs": {"__shape__": "(256, 256, 3, 3)"}, 
      "inputs": []
    }, 
    {
      "op": "null", 
      "name": "body.16.body.2.bias", 
      "attrs": {"__shape__": "(256,)"}, 
      "inputs": []
    }, 
    {
      "op": "Convolution", 
      "name": "convolution35", 
      "attrs": {
        "dilate": "(1, 1)", 
        "kernel": "(3, 3)", 
        "layout": "NCHW", 
        "no_bias": "False", 
        "num_filter": "256", 
        "num_group": "1", 
        "pad": "(1, 1)", 
        "stride": "(1, 1)"
      }, 
      "inputs": [[154, 0, 0], [155, 0, 0], [156, 0, 0]]
    }, 
    {
      "op": "_mul_scalar", 
      "name": "_mulscalar16", 
      "attrs": {"scalar": "0.1"}, 
      "inputs": [[157, 0, 0]]
    }, 
    {
      "op": "broadcast_add", 
      "name": "broadcast_add16", 
      "inputs": [[158, 0, 0], [150, 0, 0]]
    }, 
    {
      "op": "null", 
      "name": "body.17.body.0.weight", 
      "attrs": {"__shape__": "(256, 256, 3, 3)"}, 
      "inputs": []
    }, 
    {
      "op": "null", 
      "name": "body.17.body.0.bias", 
      "attrs": {"__shape__": "(256,)"}, 
      "inputs": []
    }, 
    {
      "op": "Convolution", 
      "name": "convolution36", 
      "attrs": {
        "dilate": "(1, 1)", 
        "kernel": "(3, 3)", 
        "layout": "NCHW", 
        "no_bias": "False", 
        "num_filter": "256", 
        "num_group": "1", 
        "pad": "(1, 1)", 
        "stride": "(1, 1)"
      }, 
      "inputs": [[159, 0, 0], [160, 0, 0], [161, 0, 0]]
    }, 
    {
      "op": "relu", 
      "name": "relu17", 
      "inputs": [[162, 0, 0]]
    }, 
    {
      "op": "null", 
      "name": "body.17.body.2.weight", 
      "attrs": {"__shape__": "(256, 256, 3, 3)"}, 
      "inputs": []
    }, 
    {
      "op": "null", 
      "name": "body.17.body.2.bias", 
      "attrs": {"__shape__": "(256,)"}, 
      "inputs": []
    }, 
    {
      "op": "Convolution", 
      "name": "convolution37", 
      "attrs": {
        "dilate": "(1, 1)", 
        "kernel": "(3, 3)", 
        "layout": "NCHW", 
        "no_bias": "False", 
        "num_filter": "256", 
        "num_group": "1", 
        "pad": "(1, 1)", 
        "stride": "(1, 1)"
      }, 
      "inputs": [[163, 0, 0], [164, 0, 0], [165, 0, 0]]
    }, 
    {
      "op": "_mul_scalar", 
      "name": "_mulscalar17", 
      "attrs": {"scalar": "0.1"}, 
      "inputs": [[166, 0, 0]]
    }, 
    {
      "op": "broadcast_add", 
      "name": "broadcast_add17", 
      "inputs": [[167, 0, 0], [159, 0, 0]]
    }, 
    {
      "op": "null", 
      "name": "body.18.body.0.weight", 
      "attrs": {"__shape__": "(256, 256, 3, 3)"}, 
      "inputs": []
    }, 
    {
      "op": "null", 
      "name": "body.18.body.0.bias", 
      "attrs": {"__shape__": "(256,)"}, 
      "inputs": []
    }, 
    {
      "op": "Convolution", 
      "name": "convolution38", 
      "attrs": {
        "dilate": "(1, 1)", 
        "kernel": "(3, 3)", 
        "layout": "NCHW", 
        "no_bias": "False", 
        "num_filter": "256", 
        "num_group": "1", 
        "pad": "(1, 1)", 
        "stride": "(1, 1)"
      }, 
      "inputs": [[168, 0, 0], [169, 0, 0], [170, 0, 0]]
    }, 
    {
      "op": "relu", 
      "name": "relu18", 
      "inputs": [[171, 0, 0]]
    }, 
    {
      "op": "null", 
      "name": "body.18.body.2.weight", 
      "attrs": {"__shape__": "(256, 256, 3, 3)"}, 
      "inputs": []
    }, 
    {
      "op": "null", 
      "name": "body.18.body.2.bias", 
      "attrs": {"__shape__": "(256,)"}, 
      "inputs": []
    }, 
    {
      "op": "Convolution", 
      "name": "convolution39", 
      "attrs": {
        "dilate": "(1, 1)", 
        "kernel": "(3, 3)", 
        "layout": "NCHW", 
        "no_bias": "False", 
        "num_filter": "256", 
        "num_group": "1", 
        "pad": "(1, 1)", 
        "stride": "(1, 1)"
      }, 
      "inputs": [[172, 0, 0], [173, 0, 0], [174, 0, 0]]
    }, 
    {
      "op": "_mul_scalar", 
      "name": "_mulscalar18", 
      "attrs": {"scalar": "0.1"}, 
      "inputs": [[175, 0, 0]]
    }, 
    {
      "op": "broadcast_add", 
      "name": "broadcast_add18", 
      "inputs": [[176, 0, 0], [168, 0, 0]]
    }, 
    {
      "op": "null", 
      "name": "body.19.body.0.weight", 
      "attrs": {"__shape__": "(256, 256, 3, 3)"}, 
      "inputs": []
    }, 
    {
      "op": "null", 
      "name": "body.19.body.0.bias", 
      "attrs": {"__shape__": "(256,)"}, 
      "inputs": []
    }, 
    {
      "op": "Convolution", 
      "name": "convolution40", 
      "attrs": {
        "dilate": "(1, 1)", 
        "kernel": "(3, 3)", 
        "layout": "NCHW", 
        "no_bias": "False", 
        "num_filter": "256", 
        "num_group": "1", 
        "pad": "(1, 1)", 
        "stride": "(1, 1)"
      }, 
      "inputs": [[177, 0, 0], [178, 0, 0], [179, 0, 0]]
    }, 
    {
      "op": "relu", 
      "name": "relu19", 
      "inputs": [[180, 0, 0]]
    }, 
    {
      "op": "null", 
      "name": "body.19.body.2.weight", 
      "attrs": {"__shape__": "(256, 256, 3, 3)"}, 
      "inputs": []
    }, 
    {
      "op": "null", 
      "name": "body.19.body.2.bias", 
      "attrs": {"__shape__": "(256,)"}, 
      "inputs": []
    }, 
    {
      "op": "Convolution", 
      "name": "convolution41", 
      "attrs": {
        "dilate": "(1, 1)", 
        "kernel": "(3, 3)", 
        "layout": "NCHW", 
        "no_bias": "False", 
        "num_filter": "256", 
        "num_group": "1", 
        "pad": "(1, 1)", 
        "stride": "(1, 1)"
      }, 
      "inputs": [[181, 0, 0], [182, 0, 0], [183, 0, 0]]
    }, 
    {
      "op": "_mul_scalar", 
      "name": "_mulscalar19", 
      "attrs": {"scalar": "0.1"}, 
      "inputs": [[184, 0, 0]]
    }, 
    {
      "op": "broadcast_add", 
      "name": "broadcast_add19", 
      "inputs": [[185, 0, 0], [177, 0, 0]]
    }, 
    {
      "op": "null", 
      "name": "body.20.body.0.weight", 
      "attrs": {"__shape__": "(256, 256, 3, 3)"}, 
      "inputs": []
    }, 
    {
      "op": "null", 
      "name": "body.20.body.0.bias", 
      "attrs": {"__shape__": "(256,)"}, 
      "inputs": []
    }, 
    {
      "op": "Convolution", 
      "name": "convolution42", 
      "attrs": {
        "dilate": "(1, 1)", 
        "kernel": "(3, 3)", 
        "layout": "NCHW", 
        "no_bias": "False", 
        "num_filter": "256", 
        "num_group": "1", 
        "pad": "(1, 1)", 
        "stride": "(1, 1)"
      }, 
      "inputs": [[186, 0, 0], [187, 0, 0], [188, 0, 0]]
    }, 
    {
      "op": "relu", 
      "name": "relu20", 
      "inputs": [[189, 0, 0]]
    }, 
    {
      "op": "null", 
      "name": "body.20.body.2.weight", 
      "attrs": {"__shape__": "(256, 256, 3, 3)"}, 
      "inputs": []
    }, 
    {
      "op": "null", 
      "name": "body.20.body.2.bias", 
      "attrs": {"__shape__": "(256,)"}, 
      "inputs": []
    }, 
    {
      "op": "Convolution", 
      "name": "convolution43", 
      "attrs": {
        "dilate": "(1, 1)", 
        "kernel": "(3, 3)", 
        "layout": "NCHW", 
        "no_bias": "False", 
        "num_filter": "256", 
        "num_group": "1", 
        "pad": "(1, 1)", 
        "stride": "(1, 1)"
      }, 
      "inputs": [[190, 0, 0], [191, 0, 0], [192, 0, 0]]
    }, 
    {
      "op": "_mul_scalar", 
      "name": "_mulscalar20", 
      "attrs": {"scalar": "0.1"}, 
      "inputs": [[193, 0, 0]]
    }, 
    {
      "op": "broadcast_add", 
      "name": "broadcast_add20", 
      "inputs": [[194, 0, 0], [186, 0, 0]]
    }, 
    {
      "op": "null", 
      "name": "body.21.body.0.weight", 
      "attrs": {"__shape__": "(256, 256, 3, 3)"}, 
      "inputs": []
    }, 
    {
      "op": "null", 
      "name": "body.21.body.0.bias", 
      "attrs": {"__shape__": "(256,)"}, 
      "inputs": []
    }, 
    {
      "op": "Convolution", 
      "name": "convolution44", 
      "attrs": {
        "dilate": "(1, 1)", 
        "kernel": "(3, 3)", 
        "layout": "NCHW", 
        "no_bias": "False", 
        "num_filter": "256", 
        "num_group": "1", 
        "pad": "(1, 1)", 
        "stride": "(1, 1)"
      }, 
      "inputs": [[195, 0, 0], [196, 0, 0], [197, 0, 0]]
    }, 
    {
      "op": "relu", 
      "name": "relu21", 
      "inputs": [[198, 0, 0]]
    }, 
    {
      "op": "null", 
      "name": "body.21.body.2.weight", 
      "attrs": {"__shape__": "(256, 256, 3, 3)"}, 
      "inputs": []
    }, 
    {
      "op": "null", 
      "name": "body.21.body.2.bias", 
      "attrs": {"__shape__": "(256,)"}, 
      "inputs": []
    }, 
    {
      "op": "Convolution", 
      "name": "convolution45", 
      "attrs": {
        "dilate": "(1, 1)", 
        "kernel": "(3, 3)", 
        "layout": "NCHW", 
        "no_bias": "False", 
        "num_filter": "256", 
        "num_group": "1", 
        "pad": "(1, 1)", 
        "stride": "(1, 1)"
      }, 
      "inputs": [[199, 0, 0], [200, 0, 0], [201, 0, 0]]
    }, 
    {
      "op": "_mul_scalar", 
      "name": "_mulscalar21", 
      "attrs": {"scalar": "0.1"}, 
      "inputs": [[202, 0, 0]]
    }, 
    {
      "op": "broadcast_add", 
      "name": "broadcast_add21", 
      "inputs": [[203, 0, 0], [195, 0, 0]]
    }, 
    {
      "op": "null", 
      "name": "body.22.body.0.weight", 
      "attrs": {"__shape__": "(256, 256, 3, 3)"}, 
      "inputs": []
    }, 
    {
      "op": "null", 
      "name": "body.22.body.0.bias", 
      "attrs": {"__shape__": "(256,)"}, 
      "inputs": []
    }, 
    {
      "op": "Convolution", 
      "name": "convolution46", 
      "attrs": {
        "dilate": "(1, 1)", 
        "kernel": "(3, 3)", 
        "layout": "NCHW", 
        "no_bias": "False", 
        "num_filter": "256", 
        "num_group": "1", 
        "pad": "(1, 1)", 
        "stride": "(1, 1)"
      }, 
      "inputs": [[204, 0, 0], [205, 0, 0], [206, 0, 0]]
    }, 
    {
      "op": "relu", 
      "name": "relu22", 
      "inputs": [[207, 0, 0]]
    }, 
    {
      "op": "null", 
      "name": "body.22.body.2.weight", 
      "attrs": {"__shape__": "(256, 256, 3, 3)"}, 
      "inputs": []
    }, 
    {
      "op": "null", 
      "name": "body.22.body.2.bias", 
      "attrs": {"__shape__": "(256,)"}, 
      "inputs": []
    }, 
    {
      "op": "Convolution", 
      "name": "convolution47", 
      "attrs": {
        "dilate": "(1, 1)", 
        "kernel": "(3, 3)", 
        "layout": "NCHW", 
        "no_bias": "False", 
        "num_filter": "256", 
        "num_group": "1", 
        "pad": "(1, 1)", 
        "stride": "(1, 1)"
      }, 
      "inputs": [[208, 0, 0], [209, 0, 0], [210, 0, 0]]
    }, 
    {
      "op": "_mul_scalar", 
      "name": "_mulscalar22", 
      "attrs": {"scalar": "0.1"}, 
      "inputs": [[211, 0, 0]]
    }, 
    {
      "op": "broadcast_add", 
      "name": "broadcast_add22", 
      "inputs": [[212, 0, 0], [204, 0, 0]]
    }, 
    {
      "op": "null", 
      "name": "body.23.body.0.weight", 
      "attrs": {"__shape__": "(256, 256, 3, 3)"}, 
      "inputs": []
    }, 
    {
      "op": "null", 
      "name": "body.23.body.0.bias", 
      "attrs": {"__shape__": "(256,)"}, 
      "inputs": []
    }, 
    {
      "op": "Convolution", 
      "name": "convolution48", 
      "attrs": {
        "dilate": "(1, 1)", 
        "kernel": "(3, 3)", 
        "layout": "NCHW", 
        "no_bias": "False", 
        "num_filter": "256", 
        "num_group": "1", 
        "pad": "(1, 1)", 
        "stride": "(1, 1)"
      }, 
      "inputs": [[213, 0, 0], [214, 0, 0], [215, 0, 0]]
    }, 
    {
      "op": "relu", 
      "name": "relu23", 
      "inputs": [[216, 0, 0]]
    }, 
    {
      "op": "null", 
      "name": "body.23.body.2.weight", 
      "attrs": {"__shape__": "(256, 256, 3, 3)"}, 
      "inputs": []
    }, 
    {
      "op": "null", 
      "name": "body.23.body.2.bias", 
      "attrs": {"__shape__": "(256,)"}, 
      "inputs": []
    }, 
    {
      "op": "Convolution", 
      "name": "convolution49", 
      "attrs": {
        "dilate": "(1, 1)", 
        "kernel": "(3, 3)", 
        "layout": "NCHW", 
        "no_bias": "False", 
        "num_filter": "256", 
        "num_group": "1", 
        "pad": "(1, 1)", 
        "stride": "(1, 1)"
      }, 
      "inputs": [[217, 0, 0], [218, 0, 0], [219, 0, 0]]
    }, 
    {
      "op": "_mul_scalar", 
      "name": "_mulscalar23", 
      "attrs": {"scalar": "0.1"}, 
      "inputs": [[220, 0, 0]]
    }, 
    {
      "op": "broadcast_add", 
      "name": "broadcast_add23", 
      "inputs": [[221, 0, 0], [213, 0, 0]]
    }, 
    {
      "op": "null", 
      "name": "body.24.body.0.weight", 
      "attrs": {"__shape__": "(256, 256, 3, 3)"}, 
      "inputs": []
    }, 
    {
      "op": "null", 
      "name": "body.24.body.0.bias", 
      "attrs": {"__shape__": "(256,)"}, 
      "inputs": []
    }, 
    {
      "op": "Convolution", 
      "name": "convolution50", 
      "attrs": {
        "dilate": "(1, 1)", 
        "kernel": "(3, 3)", 
        "layout": "NCHW", 
        "no_bias": "False", 
        "num_filter": "256", 
        "num_group": "1", 
        "pad": "(1, 1)", 
        "stride": "(1, 1)"
      }, 
      "inputs": [[222, 0, 0], [223, 0, 0], [224, 0, 0]]
    }, 
    {
      "op": "relu", 
      "name": "relu24", 
      "inputs": [[225, 0, 0]]
    }, 
    {
      "op": "null", 
      "name": "body.24.body.2.weight", 
      "attrs": {"__shape__": "(256, 256, 3, 3)"}, 
      "inputs": []
    }, 
    {
      "op": "null", 
      "name": "body.24.body.2.bias", 
      "attrs": {"__shape__": "(256,)"}, 
      "inputs": []
    }, 
    {
      "op": "Convolution", 
      "name": "convolution51", 
      "attrs": {
        "dilate": "(1, 1)", 
        "kernel": "(3, 3)", 
        "layout": "NCHW", 
        "no_bias": "False", 
        "num_filter": "256", 
        "num_group": "1", 
        "pad": "(1, 1)", 
        "stride": "(1, 1)"
      }, 
      "inputs": [[226, 0, 0], [227, 0, 0], [228, 0, 0]]
    }, 
    {
      "op": "_mul_scalar", 
      "name": "_mulscalar24", 
      "attrs": {"scalar": "0.1"},  
      "inputs": [[229, 0, 0]]
    }, 
    {
      "op": "broadcast_add", 
      "name": "broadcast_add24", 
      "inputs": [[230, 0, 0], [222, 0, 0]]
    }, 
    {
      "op": "null", 
      "name": "body.25.body.0.weight", 
      "attrs": {"__shape__": "(256, 256, 3, 3)"}, 
      "inputs": []
    }, 
    {
      "op": "null", 
      "name": "body.25.body.0.bias", 
      "attrs": {"__shape__": "(256,)"}, 
      "inputs": []
    }, 
    {
      "op": "Convolution", 
      "name": "convolution52", 
      "attrs": {
        "dilate": "(1, 1)", 
        "kernel": "(3, 3)", 
        "layout": "NCHW", 
        "no_bias": "False", 
        "num_filter": "256", 
        "num_group": "1", 
        "pad": "(1, 1)", 
        "stride": "(1, 1)"
      }, 
      "inputs": [[231, 0, 0], [232, 0, 0], [233, 0, 0]]
    }, 
    {
      "op": "relu", 
      "name": "relu25", 
      "inputs": [[234, 0, 0]]
    }, 
    {
      "op": "null", 
      "name": "body.25.body.2.weight", 
      "attrs": {"__shape__": "(256, 256, 3, 3)"}, 
      "inputs": []
    }, 
    {
      "op": "null", 
      "name": "body.25.body.2.bias", 
      "attrs": {"__shape__": "(256,)"}, 
      "inputs": []
    }, 
    {
      "op": "Convolution", 
      "name": "convolution53", 
      "attrs": {
        "dilate": "(1, 1)", 
        "kernel": "(3, 3)", 
        "layout": "NCHW", 
        "no_bias": "False", 
        "num_filter": "256", 
        "num_group": "1", 
        "pad": "(1, 1)", 
        "stride": "(1, 1)"
      }, 
      "inputs": [[235, 0, 0], [236, 0, 0], [237, 0, 0]]
    }, 
    {
      "op": "_mul_scalar", 
      "name": "_mulscalar25", 
      "attrs": {"scalar": "0.1"}, 
      "inputs": [[238, 0, 0]]
    }, 
    {
      "op": "broadcast_add", 
      "name": "broadcast_add25", 
      "inputs": [[239, 0, 0], [231, 0, 0]]
    }, 
    {
      "op": "null", 
      "name": "body.26.body.0.weight", 
      "attrs": {"__shape__": "(256, 256, 3, 3)"}, 
      "inputs": []
    }, 
    {
      "op": "null", 
      "name": "body.26.body.0.bias", 
      "attrs": {"__shape__": "(256,)"}, 
      "inputs": []
    }, 
    {
      "op": "Convolution", 
      "name": "convolution54", 
      "attrs": {
        "dilate": "(1, 1)", 
        "kernel": "(3, 3)", 
        "layout": "NCHW", 
        "no_bias": "False", 
        "num_filter": "256", 
        "num_group": "1", 
        "pad": "(1, 1)", 
        "stride": "(1, 1)"
      }, 
      "inputs": [[240, 0, 0], [241, 0, 0], [242, 0, 0]]
    }, 
    {
      "op": "relu", 
      "name": "relu26", 
      "inputs": [[243, 0, 0]]
    }, 
    {
      "op": "null", 
      "name": "body.26.body.2.weight", 
      "attrs": {"__shape__": "(256, 256, 3, 3)"}, 
      "inputs": []
    }, 
    {
      "op": "null", 
      "name": "body.26.body.2.bias", 
      "attrs": {"__shape__": "(256,)"}, 
      "inputs": []
    }, 
    {
      "op": "Convolution", 
      "name": "convolution55", 
      "attrs": {
        "dilate": "(1, 1)", 
        "kernel": "(3, 3)", 
        "layout": "NCHW", 
        "no_bias": "False", 
        "num_filter": "256", 
        "num_group": "1", 
        "pad": "(1, 1)", 
        "stride": "(1, 1)"
      }, 
      "inputs": [[244, 0, 0], [245, 0, 0], [246, 0, 0]]
    }, 
    {
      "op": "_mul_scalar", 
      "name": "_mulscalar26", 
      "attrs": {"scalar": "0.1"}, 
      "inputs": [[247, 0, 0]]
    }, 
    {
      "op": "broadcast_add", 
      "name": "broadcast_add26", 
      "inputs": [[248, 0, 0], [240, 0, 0]]
    }, 
    {
      "op": "null", 
      "name": "body.27.body.0.weight", 
      "attrs": {"__shape__": "(256, 256, 3, 3)"}, 
      "inputs": []
    }, 
    {
      "op": "null", 
      "name": "body.27.body.0.bias", 
      "attrs": {"__shape__": "(256,)"}, 
      "inputs": []
    }, 
    {
      "op": "Convolution", 
      "name": "convolution56", 
      "attrs": {
        "dilate": "(1, 1)", 
        "kernel": "(3, 3)", 
        "layout": "NCHW", 
        "no_bias": "False", 
        "num_filter": "256", 
        "num_group": "1", 
        "pad": "(1, 1)", 
        "stride": "(1, 1)"
      }, 
      "inputs": [[249, 0, 0], [250, 0, 0], [251, 0, 0]]
    }, 
    {
      "op": "relu", 
      "name": "relu27", 
      "inputs": [[252, 0, 0]]
    }, 
    {
      "op": "null", 
      "name": "body.27.body.2.weight", 
      "attrs": {"__shape__": "(256, 256, 3, 3)"}, 
      "inputs": []
    }, 
    {
      "op": "null", 
      "name": "body.27.body.2.bias", 
      "attrs": {"__shape__": "(256,)"}, 
      "inputs": []
    }, 
    {
      "op": "Convolution", 
      "name": "convolution57", 
      "attrs": {
        "dilate": "(1, 1)", 
        "kernel": "(3, 3)", 
        "layout": "NCHW", 
        "no_bias": "False", 
        "num_filter": "256", 
        "num_group": "1", 
        "pad": "(1, 1)", 
        "stride": "(1, 1)"
      }, 
      "inputs": [[253, 0, 0], [254, 0, 0], [255, 0, 0]]
    }, 
    {
      "op": "_mul_scalar", 
      "name": "_mulscalar27", 
      "attrs": {"scalar": "0.1"}, 
      "inputs": [[256, 0, 0]]
    }, 
    {
      "op": "broadcast_add", 
      "name": "broadcast_add27", 
      "inputs": [[257, 0, 0], [249, 0, 0]]
    }, 
    {
      "op": "null", 
      "name": "body.28.body.0.weight", 
      "attrs": {"__shape__": "(256, 256, 3, 3)"}, 
      "inputs": []
    }, 
    {
      "op": "null", 
      "name": "body.28.body.0.bias", 
      "attrs": {"__shape__": "(256,)"}, 
      "inputs": []
    }, 
    {
      "op": "Convolution", 
      "name": "convolution58", 
      "attrs": {
        "dilate": "(1, 1)", 
        "kernel": "(3, 3)", 
        "layout": "NCHW", 
        "no_bias": "False", 
        "num_filter": "256", 
        "num_group": "1", 
        "pad": "(1, 1)", 
        "stride": "(1, 1)"
      }, 
      "inputs": [[258, 0, 0], [259, 0, 0], [260, 0, 0]]
    }, 
    {
      "op": "relu", 
      "name": "relu28", 
      "inputs": [[261, 0, 0]]
    }, 
    {
      "op": "null", 
      "name": "body.28.body.2.weight", 
      "attrs": {"__shape__": "(256, 256, 3, 3)"}, 
      "inputs": []
    }, 
    {
      "op": "null", 
      "name": "body.28.body.2.bias", 
      "attrs": {"__shape__": "(256,)"}, 
      "inputs": []
    }, 
    {
      "op": "Convolution", 
      "name": "convolution59", 
      "attrs": {
        "dilate": "(1, 1)", 
        "kernel": "(3, 3)", 
        "layout": "NCHW", 
        "no_bias": "False", 
        "num_filter": "256", 
        "num_group": "1", 
        "pad": "(1, 1)", 
        "stride": "(1, 1)"
      }, 
      "inputs": [[262, 0, 0], [263, 0, 0], [264, 0, 0]]
    }, 
    {
      "op": "_mul_scalar", 
      "name": "_mulscalar28", 
      "attrs": {"scalar": "0.1"}, 
      "inputs": [[265, 0, 0]]
    }, 
    {
      "op": "broadcast_add", 
      "name": "broadcast_add28", 
      "inputs": [[266, 0, 0], [258, 0, 0]]
    }, 
    {
      "op": "null", 
      "name": "body.29.body.0.weight", 
      "attrs": {"__shape__": "(256, 256, 3, 3)"}, 
      "inputs": []
    }, 
    {
      "op": "null", 
      "name": "body.29.body.0.bias", 
      "attrs": {"__shape__": "(256,)"}, 
      "inputs": []
    }, 
    {
      "op": "Convolution", 
      "name": "convolution60", 
      "attrs": {
        "dilate": "(1, 1)", 
        "kernel": "(3, 3)", 
        "layout": "NCHW", 
        "no_bias": "False", 
        "num_filter": "256", 
        "num_group": "1", 
        "pad": "(1, 1)", 
        "stride": "(1, 1)"
      }, 
      "inputs": [[267, 0, 0], [268, 0, 0], [269, 0, 0]]
    }, 
    {
      "op": "relu", 
      "name": "relu29", 
      "inputs": [[270, 0, 0]]
    }, 
    {
      "op": "null", 
      "name": "body.29.body.2.weight", 
      "attrs": {"__shape__": "(256, 256, 3, 3)"}, 
      "inputs": []
    }, 
    {
      "op": "null", 
      "name": "body.29.body.2.bias", 
      "attrs": {"__shape__": "(256,)"}, 
      "inputs": []
    }, 
    {
      "op": "Convolution", 
      "name": "convolution61", 
      "attrs": {
        "dilate": "(1, 1)", 
        "kernel": "(3, 3)", 
        "layout": "NCHW", 
        "no_bias": "False", 
        "num_filter": "256", 
        "num_group": "1", 
        "pad": "(1, 1)", 
        "stride": "(1, 1)"
      }, 
      "inputs": [[271, 0, 0], [272, 0, 0], [273, 0, 0]]
    }, 
    {
      "op": "_mul_scalar", 
      "name": "_mulscalar29", 
      "attrs": {"scalar": "0.1"}, 
      "inputs": [[274, 0, 0]]
    }, 
    {
      "op": "broadcast_add", 
      "name": "broadcast_add29", 
      "inputs": [[275, 0, 0], [267, 0, 0]]
    }, 
    {
      "op": "null", 
      "name": "body.30.body.0.weight", 
      "attrs": {"__shape__": "(256, 256, 3, 3)"}, 
      "inputs": []
    }, 
    {
      "op": "null", 
      "name": "body.30.body.0.bias", 
      "attrs": {"__shape__": "(256,)"}, 
      "inputs": []
    }, 
    {
      "op": "Convolution", 
      "name": "convolution62", 
      "attrs": {
        "dilate": "(1, 1)", 
        "kernel": "(3, 3)", 
        "layout": "NCHW", 
        "no_bias": "False", 
        "num_filter": "256", 
        "num_group": "1", 
        "pad": "(1, 1)", 
        "stride": "(1, 1)"
      }, 
      "inputs": [[276, 0, 0], [277, 0, 0], [278, 0, 0]]
    }, 
    {
      "op": "relu", 
      "name": "relu30", 
      "inputs": [[279, 0, 0]]
    }, 
    {
      "op": "null", 
      "name": "body.30.body.2.weight", 
      "attrs": {"__shape__": "(256, 256, 3, 3)"}, 
      "inputs": []
    }, 
    {
      "op": "null", 
      "name": "body.30.body.2.bias", 
      "attrs": {"__shape__": "(256,)"}, 
      "inputs": []
    }, 
    {
      "op": "Convolution", 
      "name": "convolution63", 
      "attrs": {
        "dilate": "(1, 1)", 
        "kernel": "(3, 3)", 
        "layout": "NCHW", 
        "no_bias": "False", 
        "num_filter": "256", 
        "num_group": "1", 
        "pad": "(1, 1)", 
        "stride": "(1, 1)"
      }, 
      "inputs": [[280, 0, 0], [281, 0, 0], [282, 0, 0]]
    }, 
    {
      "op": "_mul_scalar", 
      "name": "_mulscalar30", 
      "attrs": {"scalar": "0.1"}, 
      "inputs": [[283, 0, 0]]
    }, 
    {
      "op": "broadcast_add", 
      "name": "broadcast_add30", 
      "inputs": [[284, 0, 0], [276, 0, 0]]
    }, 
    {
      "op": "null", 
      "name": "body.31.body.0.weight", 
      "attrs": {"__shape__": "(256, 256, 3, 3)"}, 
      "inputs": []
    }, 
    {
      "op": "null", 
      "name": "body.31.body.0.bias", 
      "attrs": {"__shape__": "(256,)"}, 
      "inputs": []
    }, 
    {
      "op": "Convolution", 
      "name": "convolution64", 
      "attrs": {
        "dilate": "(1, 1)", 
        "kernel": "(3, 3)", 
        "layout": "NCHW", 
        "no_bias": "False", 
        "num_filter": "256", 
        "num_group": "1", 
        "pad": "(1, 1)", 
        "stride": "(1, 1)"
      }, 
      "inputs": [[285, 0, 0], [286, 0, 0], [287, 0, 0]]
    }, 
    {
      "op": "relu", 
      "name": "relu31", 
      "inputs": [[288, 0, 0]]
    }, 
    {
      "op": "null", 
      "name": "body.31.body.2.weight", 
      "attrs": {"__shape__": "(256, 256, 3, 3)"}, 
      "inputs": []
    }, 
    {
      "op": "null", 
      "name": "body.31.body.2.bias", 
      "attrs": {"__shape__": "(256,)"}, 
      "inputs": []
    }, 
    {
      "op": "Convolution", 
      "name": "convolution65", 
      "attrs": {
        "dilate": "(1, 1)", 
        "kernel": "(3, 3)", 
        "layout": "NCHW", 
        "no_bias": "False", 
        "num_filter": "256", 
        "num_group": "1", 
        "pad": "(1, 1)", 
        "stride": "(1, 1)"
      }, 
      "inputs": [[289, 0, 0], [290, 0, 0], [291, 0, 0]]
    }, 
    {
      "op": "_mul_scalar", 
      "name": "_mulscalar31", 
      "attrs": {"scalar": "0.1"}, 
      "inputs": [[292, 0, 0]]
    }, 
    {
      "op": "broadcast_add", 
      "name": "broadcast_add31", 
      "inputs": [[293, 0, 0], [285, 0, 0]]
    }, 
    {
      "op": "null", 
      "name": "body.32.weight", 
      "attrs": {"__shape__": "(256, 256, 3, 3)"}, 
      "inputs": []
    }, 
    {
      "op": "null", 
      "name": "body.32.bias", 
      "attrs": {"__shape__": "(256,)"}, 
      "inputs": []
    }, 
    {
      "op": "Convolution", 
      "name": "convolution66", 
      "attrs": {
        "dilate": "(1, 1)", 
        "kernel": "(3, 3)", 
        "layout": "NCHW", 
        "no_bias": "False", 
        "num_filter": "256", 
        "num_group": "1", 
        "pad": "(1, 1)", 
        "stride": "(1, 1)"
      }, 
      "inputs": [[294, 0, 0], [295, 0, 0], [296, 0, 0]]
    }, 
    {
      "op": "broadcast_add", 
      "name": "broadcast_add32", 
      "inputs": [[297, 0, 0], [6, 0, 0]]
    }, 
    {
      "op": "null", 
      "name": "upsample.0.weight", 
      "attrs": {"__shape__": "(1024, 256, 3, 3)"}, 
      "inputs": []
    }, 
    {
      "op": "null", 
      "name": "upsample.0.bias", 
      "attrs": {"__shape__": "(1024,)"}, 
      "inputs": []
    }, 
    {
      "op": "Convolution", 
      "name": "convolution67", 
      "attrs": {
        "dilate": "(1, 1)", 
        "kernel": "(3, 3)", 
        "layout": "NCHW", 
        "no_bias": "False", 
        "num_filter": "1024", 
        "num_group": "1", 
        "pad": "(1, 1)", 
        "stride": "(1, 1)"
      }, 
      "inputs": [[298, 0, 0], [299, 0, 0], [300, 0, 0]]
    }, 
    {
      "op": "Reshape", 
      "name": "reshape0", 
      "attrs": {"shape": "(0, -4, -1, 4, 0, 0)"}, 
      "inputs": [[301, 0, 0]]
    }, 
    {
      "op": "Reshape", 
      "name": "reshape1", 
      "attrs": {"shape": "(0, 0, -4, 2, 2, 0, 0)"}, 
      "inputs": [[302, 0, 0]]
    }, 
    {
      "op": "transpose", 
      "name": "transpose0", 
      "attrs": {"axes": "(0, 1, 4, 2, 5, 3)"}, 
      "inputs": [[303, 0, 0]]
    }, 
    {
      "op": "Reshape", 
      "name": "reshape2", 
      "attrs": {"shape": "(0, 0, -3, -3)"}, 
      "inputs": [[304, 0, 0]]
    }, 
    {
      "op": "null", 
      "name": "upsample.2.weight", 
      "attrs": {"__shape__": "(1024, 256, 3, 3)"}, 
      "inputs": []
    }, 
    {
      "op": "null", 
      "name": "upsample.2.bias", 
      "attrs": {"__shape__": "(1024,)"}, 
      "inputs": []
    }, 
    {
      "op": "Convolution", 
      "name": "convolution68", 
      "attrs": {
        "dilate": "(1, 1)", 
        "kernel": "(3, 3)", 
        "layout": "NCHW", 
        "no_bias": "False", 
        "num_filter": "1024", 
        "num_group": "1", 
        "pad": "(1, 1)", 
        "stride": "(1, 1)"
      }, 
      "inputs": [[305, 0, 0], [306, 0, 0], [307, 0, 0]]
    }, 
    {
      "op": "Reshape", 
      "name": "reshape3", 
      "attrs": {"shape": "(0, -4, -1, 4, 0, 0)"}, 
      "inputs": [[308, 0, 0]]
    }, 
    {
      "op": "Reshape", 
      "name": "reshape4", 
      "attrs": {"shape": "(0, 0, -4, 2, 2, 0, 0)"}, 
      "inputs": [[309, 0, 0]]
    }, 
    {
      "op": "transpose", 
      "name": "transpose1", 
      "attrs": {"axes": "(0, 1, 4, 2, 5, 3)"}, 
      "inputs": [[310, 0, 0]]
    }, 
    {
      "op": "Reshape", 
      "name": "reshape5", 
      "attrs": {"shape": "(0, 0, -3, -3)"}, 
      "inputs": [[311, 0, 0]]
    }, 
    {
      "op": "null", 
      "name": "upsample.4.weight", 
      "attrs": {"__shape__": "(3, 256, 3, 3)"}, 
      "inputs": []
    }, 
    {
      "op": "null", 
      "name": "upsample.4.bias", 
      "attrs": {"__shape__": "(3,)"}, 
      "inputs": []
    }, 
    {
      "op": "Convolution", 
      "name": "convolution69", 
      "attrs": {
        "dilate": "(1, 1)", 
        "kernel": "(3, 3)", 
        "layout": "NCHW", 
        "no_bias": "False", 
        "num_filter": "3", 
        "num_group": "1", 
        "pad": "(1, 1)", 
        "stride": "(1, 1)"
      }, 
      "inputs": [[312, 0, 0], [313, 0, 0], [314, 0, 0]]
    }, 
    {
      "op": "null", 
      "name": "add_mean.weight", 
      "attrs": {"__shape__": "(3, 3, 1, 1)"}, 
      "inputs": []
    }, 
    {
      "op": "null", 
      "name": "add_mean.bias", 
      "attrs": {"__shape__": "(3,)"}, 
      "inputs": []
    }, 
    {
      "op": "Convolution", 
      "name": "convolution70", 
      "attrs": {
        "dilate": "(1, 1)", 
        "kernel": "(1, 1)", 
        "layout": "NCHW", 
        "no_bias": "False", 
        "num_filter": "3", 
        "num_group": "1", 
        "pad": "(0, 0)", 
        "stride": "(1, 1)"
      }, 
      "inputs": [[315, 0, 0], [316, 0, 0], [317, 0, 0]]
    }
  ], 
  "arg_nodes": [
    0, 
    1, 
    2, 
    4, 
    5, 
    7, 
    8, 
    11, 
    12, 
    16, 
    17, 
    20, 
    21, 
    25, 
    26, 
    29, 
    30, 
    34, 
    35, 
    38, 
    39, 
    43, 
    44, 
    47, 
    48, 
    52, 
    53, 
    56, 
    57, 
    61, 
    62, 
    65, 
    66, 
    70, 
    71, 
    74, 
    75, 
    79, 
    80, 
    83, 
    84, 
    88, 
    89, 
    92, 
    93, 
    97, 
    98, 
    101, 
    102, 
    106, 
    107, 
    110, 
    111, 
    115, 
    116, 
    119, 
    120, 
    124, 
    125, 
    128, 
    129, 
    133, 
    134, 
    137, 
    138, 
    142, 
    143, 
    146, 
    147, 
    151, 
    152, 
    155, 
    156, 
    160, 
    161, 
    164, 
    165, 
    169, 
    170, 
    173, 
    174, 
    178, 
    179, 
    182, 
    183, 
    187, 
    188, 
    191, 
    192, 
    196, 
    197, 
    200, 
    201, 
    205, 
    206, 
    209, 
    210, 
    214, 
    215, 
    218, 
    219, 
    223, 
    224, 
    227, 
    228, 
    232, 
    233, 
    236, 
    237, 
    241, 
    242, 
    245, 
    246, 
    250, 
    251, 
    254, 
    255, 
    259, 
    260, 
    263, 
    264, 
    268, 
    269, 
    272, 
    273, 
    277, 
    278, 
    281, 
    282, 
    286, 
    287, 
    290, 
    291, 
    295, 
    296, 
    299, 
    300, 
    306, 
    307, 
    313, 
    314, 
    316, 
    317
  ], 
  "node_row_ptr": [
    0, 
    1, 
    2, 
    3, 
    4, 
    5, 
    6, 
    7, 
    8, 
    9, 
    10, 
    11, 
    12, 
    13, 
    14, 
    15, 
    16, 
    17, 
    18, 
    19, 
    20, 
    21, 
    22, 
    23, 
    24, 
    25, 
    26, 
    27, 
    28, 
    29, 
    30, 
    31, 
    32, 
    33, 
    34, 
    35, 
    36, 
    37, 
    38, 
    39, 
    40, 
    41, 
    42, 
    43, 
    44, 
    45, 
    46, 
    47, 
    48, 
    49, 
    50, 
    51, 
    52, 
    53, 
    54, 
    55, 
    56, 
    57, 
    58, 
    59, 
    60, 
    61, 
    62, 
    63, 
    64, 
    65, 
    66, 
    67, 
    68, 
    69, 
    70, 
    71, 
    72, 
    73, 
    74, 
    75, 
    76, 
    77, 
    78, 
    79, 
    80, 
    81, 
    82, 
    83, 
    84, 
    85, 
    86, 
    87, 
    88, 
    89, 
    90, 
    91, 
    92, 
    93, 
    94, 
    95, 
    96, 
    97, 
    98, 
    99, 
    100, 
    101, 
    102, 
    103, 
    104, 
    105, 
    106, 
    107, 
    108, 
    109, 
    110, 
    111, 
    112, 
    113, 
    114, 
    115, 
    116, 
    117, 
    118, 
    119, 
    120, 
    121, 
    122, 
    123, 
    124, 
    125, 
    126, 
    127, 
    128, 
    129, 
    130, 
    131, 
    132, 
    133, 
    134, 
    135, 
    136, 
    137, 
    138, 
    139, 
    140, 
    141, 
    142, 
    143, 
    144, 
    145, 
    146, 
    147, 
    148, 
    149, 
    150, 
    151, 
    152, 
    153, 
    154, 
    155, 
    156, 
    157, 
    158, 
    159, 
    160, 
    161, 
    162, 
    163, 
    164, 
    165, 
    166, 
    167, 
    168, 
    169, 
    170, 
    171, 
    172, 
    173, 
    174, 
    175, 
    176, 
    177, 
    178, 
    179, 
    180, 
    181, 
    182, 
    183, 
    184, 
    185, 
    186, 
    187, 
    188, 
    189, 
    190, 
    191, 
    192, 
    193, 
    194, 
    195, 
    196, 
    197, 
    198, 
    199, 
    200, 
    201, 
    202, 
    203, 
    204, 
    205, 
    206, 
    207, 
    208, 
    209, 
    210, 
    211, 
    212, 
    213, 
    214, 
    215, 
    216, 
    217, 
    218, 
    219, 
    220, 
    221, 
    222, 
    223, 
    224, 
    225, 
    226, 
    227, 
    228, 
    229, 
    230, 
    231, 
    232, 
    233, 
    234, 
    235, 
    236, 
    237, 
    238, 
    239, 
    240, 
    241, 
    242, 
    243, 
    244, 
    245, 
    246, 
    247, 
    248, 
    249, 
    250, 
    251, 
    252, 
    253, 
    254, 
    255, 
    256, 
    257, 
    258, 
    259, 
    260, 
    261, 
    262, 
    263, 
    264, 
    265, 
    266, 
    267, 
    268, 
    269, 
    270, 
    271, 
    272, 
    273, 
    274, 
    275, 
    276, 
    277, 
    278, 
    279, 
    280, 
    281, 
    282, 
    283, 
    284, 
    285, 
    286, 
    287, 
    288, 
    289, 
    290, 
    291, 
    292, 
    293, 
    294, 
    295, 
    296, 
    297, 
    298, 
    299, 
    300, 
    301, 
    302, 
    303, 
    304, 
    305, 
    306, 
    307, 
    308, 
    309, 
    310, 
    311, 
    312, 
    313, 
    314, 
    315, 
    316, 
    317, 
    318, 
    319
  ], 
  "heads": [[318, 0, 0]], 
  "attrs": {"mxnet_version": ["int", 10300]}
}