{
  "nodes": [
    {
      "op": "null", 
      "name": "data", 
      "inputs": []
    }, 
    {
      "op": "UpSampling", 
      "name": "upsampling0", 
      "attrs": {
        "num_args": "1", 
        "sample_type": "nearest", 
        "scale": "4"
      }, 
      "inputs": [[0, 0, 0]]
    }, 
    {
      "op": "Pad", 
      "name": "pad0", 
      "attrs": {
        "mode": "constant", 
        "pad_width": "(0, 0, 0, 0, 1, 1, 1, 1)"
      }, 
      "inputs": [[0, 0, 0]]
    }, 
    {
      "op": "null", 
      "name": "learned_0", 
      "attrs": {"__shape__": "(64, 3, 3, 3)"}, 
      "inputs": []
    }, 
    {
      "op": "null", 
      "name": "learned_1", 
      "attrs": {"__shape__": "(64,)"}, 
      "inputs": []
    }, 
    {
      "op": "Convolution", 
      "name": "convolution0", 
      "attrs": {
        "dilate": "(1, 1)", 
        "kernel": "(3, 3)", 
        "no_bias": "False", 
        "num_filter": "64", 
        "num_group": "1", 
        "stride": "(1, 1)"
      }, 
      "inputs": [[2, 0, 0], [3, 0, 0], [4, 0, 0]]
    }, 
    {
      "op": "relu", 
      "name": "relu0", 
      "inputs": [[5, 0, 0]]
    }, 
    {
      "op": "relu", 
      "name": "relu1", 
      "inputs": [[6, 0, 0]]
    }, 
    {
      "op": "Pad", 
      "name": "pad1", 
      "attrs": {
        "mode": "constant", 
        "pad_width": "(0, 0, 0, 0, 1, 1, 1, 1)"
      }, 
      "inputs": [[7, 0, 0]]
    }, 
    {
      "op": "null", 
      "name": "learned_2", 
      "attrs": {"__shape__": "(64, 64, 3, 3)"}, 
      "inputs": []
    }, 
    {
      "op": "null", 
      "name": "learned_3", 
      "attrs": {"__shape__": "(64,)"}, 
      "inputs": []
    }, 
    {
      "op": "Convolution", 
      "name": "convolution1", 
      "attrs": {
        "dilate": "(1, 1)", 
        "kernel": "(3, 3)", 
        "no_bias": "False", 
        "num_filter": "64", 
        "num_group": "1", 
        "stride": "(1, 1)"
      }, 
      "inputs": [[8, 0, 0], [9, 0, 0], [10, 0, 0]]
    }, 
    {
      "op": "relu", 
      "name": "relu2", 
      "inputs": [[11, 0, 0]]
    }, 
    {
      "op": "Pad", 
      "name": "pad2", 
      "attrs": {
        "mode": "constant", 
        "pad_width": "(0, 0, 0, 0, 1, 1, 1, 1)"
      }, 
      "inputs": [[12, 0, 0]]
    }, 
    {
      "op": "null", 
      "name": "learned_4", 
      "attrs": {"__shape__": "(64, 64, 3, 3)"}, 
      "inputs": []
    }, 
    {
      "op": "null", 
      "name": "learned_5", 
      "attrs": {"__shape__": "(64,)"}, 
      "inputs": []
    }, 
    {
      "op": "Convolution", 
      "name": "convolution2", 
      "attrs": {
        "dilate": "(1, 1)", 
        "kernel": "(3, 3)", 
        "no_bias": "False", 
        "num_filter": "64", 
        "num_group": "1", 
        "stride": "(1, 1)"
      }, 
      "inputs": [[13, 0, 0], [14, 0, 0], [15, 0, 0]]
    }, 
    {
      "op": "broadcast_add", 
      "name": "broadcast_add0", 
      "inputs": [[16, 0, 0], [7, 0, 0]]
    }, 
    {
      "op": "Concat", 
      "name": "concat0", 
      "attrs": {
        "dim": "1", 
        "num_args": "2"
      }, 
      "inputs": [[7, 0, 0], [17, 0, 0]]
    }, 
    {
      "op": "Pad", 
      "name": "pad3", 
      "attrs": {
        "mode": "constant", 
        "pad_width": "(0, 0, 0, 0, 0, 0, 0, 0)"
      }, 
      "inputs": [[18, 0, 0]]
    }, 
    {
      "op": "null", 
      "name": "learned_18", 
      "attrs": {"__shape__": "(64, 128, 1, 1)"}, 
      "inputs": []
    }, 
    {
      "op": "null", 
      "name": "learned_19", 
      "attrs": {"__shape__": "(64,)"}, 
      "inputs": []
    }, 
    {
      "op": "Convolution", 
      "name": "convolution3", 
      "attrs": {
        "dilate": "(1, 1)", 
        "kernel": "(1, 1)", 
        "no_bias": "False", 
        "num_filter": "64", 
        "num_group": "1", 
        "stride": "(1, 1)"
      }, 
      "inputs": [[19, 0, 0], [20, 0, 0], [21, 0, 0]]
    }, 
    {
      "op": "relu", 
      "name": "relu3", 
      "inputs": [[22, 0, 0]]
    }, 
    {
      "op": "relu", 
      "name": "relu4", 
      "inputs": [[23, 0, 0]]
    }, 
    {
      "op": "Pad", 
      "name": "pad4", 
      "attrs": {
        "mode": "constant", 
        "pad_width": "(0, 0, 0, 0, 1, 1, 1, 1)"
      }, 
      "inputs": [[24, 0, 0]]
    }, 
    {
      "op": "null", 
      "name": "learned_6", 
      "attrs": {"__shape__": "(64, 64, 3, 3)"}, 
      "inputs": []
    }, 
    {
      "op": "null", 
      "name": "learned_7", 
      "attrs": {"__shape__": "(64,)"}, 
      "inputs": []
    }, 
    {
      "op": "Convolution", 
      "name": "convolution4", 
      "attrs": {
        "dilate": "(1, 1)", 
        "kernel": "(3, 3)", 
        "no_bias": "False", 
        "num_filter": "64", 
        "num_group": "1", 
        "stride": "(1, 1)"
      }, 
      "inputs": [[25, 0, 0], [26, 0, 0], [27, 0, 0]]
    }, 
    {
      "op": "relu", 
      "name": "relu5", 
      "inputs": [[28, 0, 0]]
    }, 
    {
      "op": "Pad", 
      "name": "pad5", 
      "attrs": {
        "mode": "constant", 
        "pad_width": "(0, 0, 0, 0, 1, 1, 1, 1)"
      }, 
      "inputs": [[29, 0, 0]]
    }, 
    {
      "op": "null", 
      "name": "learned_8", 
      "attrs": {"__shape__": "(64, 64, 3, 3)"}, 
      "inputs": []
    }, 
    {
      "op": "null", 
      "name": "learned_9", 
      "attrs": {"__shape__": "(64,)"}, 
      "inputs": []
    }, 
    {
      "op": "Convolution", 
      "name": "convolution5", 
      "attrs": {
        "dilate": "(1, 1)", 
        "kernel": "(3, 3)", 
        "no_bias": "False", 
        "num_filter": "64", 
        "num_group": "1", 
        "stride": "(1, 1)"
      }, 
      "inputs": [[30, 0, 0], [31, 0, 0], [32, 0, 0]]
    }, 
    {
      "op": "broadcast_add", 
      "name": "broadcast_add1", 
      "inputs": [[33, 0, 0], [24, 0, 0]]
    }, 
    {
      "op": "Concat", 
      "name": "concat1", 
      "attrs": {
        "dim": "1", 
        "num_args": "2"
      }, 
      "inputs": [[18, 0, 0], [34, 0, 0]]
    }, 
    {
      "op": "Pad", 
      "name": "pad6", 
      "attrs": {
        "mode": "constant", 
        "pad_width": "(0, 0, 0, 0, 0, 0, 0, 0)"
      }, 
      "inputs": [[35, 0, 0]]
    }, 
    {
      "op": "null", 
      "name": "learned_20", 
      "attrs": {"__shape__": "(64, 192, 1, 1)"}, 
      "inputs": []
    }, 
    {
      "op": "null", 
      "name": "learned_21", 
      "attrs": {"__shape__": "(64,)"}, 
      "inputs": []
    }, 
    {
      "op": "Convolution", 
      "name": "convolution6", 
      "attrs": {
        "dilate": "(1, 1)", 
        "kernel": "(1, 1)", 
        "no_bias": "False", 
        "num_filter": "64", 
        "num_group": "1", 
        "stride": "(1, 1)"
      }, 
      "inputs": [[36, 0, 0], [37, 0, 0], [38, 0, 0]]
    }, 
    {
      "op": "relu", 
      "name": "relu6", 
      "inputs": [[39, 0, 0]]
    }, 
    {
      "op": "relu", 
      "name": "relu7", 
      "inputs": [[40, 0, 0]]
    }, 
    {
      "op": "Pad", 
      "name": "pad7", 
      "attrs": {
        "mode": "constant", 
        "pad_width": "(0, 0, 0, 0, 1, 1, 1, 1)"
      }, 
      "inputs": [[41, 0, 0]]
    }, 
    {
      "op": "null", 
      "name": "learned_10", 
      "attrs": {"__shape__": "(64, 64, 3, 3)"}, 
      "inputs": []
    }, 
    {
      "op": "null", 
      "name": "learned_11", 
      "attrs": {"__shape__": "(64,)"}, 
      "inputs": []
    }, 
    {
      "op": "Convolution", 
      "name": "convolution7", 
      "attrs": {
        "dilate": "(1, 1)", 
        "kernel": "(3, 3)", 
        "no_bias": "False", 
        "num_filter": "64", 
        "num_group": "1", 
        "stride": "(1, 1)"
      }, 
      "inputs": [[42, 0, 0], [43, 0, 0], [44, 0, 0]]
    }, 
    {
      "op": "relu", 
      "name": "relu8", 
      "inputs": [[45, 0, 0]]
    }, 
    {
      "op": "Pad", 
      "name": "pad8", 
      "attrs": {
        "mode": "constant", 
        "pad_width": "(0, 0, 0, 0, 1, 1, 1, 1)"
      }, 
      "inputs": [[46, 0, 0]]
    }, 
    {
      "op": "null", 
      "name": "learned_12", 
      "attrs": {"__shape__": "(64, 64, 3, 3)"}, 
      "inputs": []
    }, 
    {
      "op": "null", 
      "name": "learned_13", 
      "attrs": {"__shape__": "(64,)"}, 
      "inputs": []
    }, 
    {
      "op": "Convolution", 
      "name": "convolution8", 
      "attrs": {
        "dilate": "(1, 1)", 
        "kernel": "(3, 3)", 
        "no_bias": "False", 
        "num_filter": "64", 
        "num_group": "1", 
        "stride": "(1, 1)"
      }, 
      "inputs": [[47, 0, 0], [48, 0, 0], [49, 0, 0]]
    }, 
    {
      "op": "broadcast_add", 
      "name": "broadcast_add2", 
      "inputs": [[50, 0, 0], [41, 0, 0]]
    }, 
    {
      "op": "Concat", 
      "name": "concat2", 
      "attrs": {
        "dim": "1", 
        "num_args": "2"
      }, 
      "inputs": [[35, 0, 0], [51, 0, 0]]
    }, 
    {
      "op": "Pad", 
      "name": "pad9", 
      "attrs": {
        "mode": "constant", 
        "pad_width": "(0, 0, 0, 0, 0, 0, 0, 0)"
      }, 
      "inputs": [[52, 0, 0]]
    }, 
    {
      "op": "null", 
      "name": "learned_22", 
      "attrs": {"__shape__": "(64, 256, 1, 1)"}, 
      "inputs": []
    }, 
    {
      "op": "null", 
      "name": "learned_23", 
      "attrs": {"__shape__": "(64,)"}, 
      "inputs": []
    }, 
    {
      "op": "Convolution", 
      "name": "convolution9", 
      "attrs": {
        "dilate": "(1, 1)", 
        "kernel": "(1, 1)", 
        "no_bias": "False", 
        "num_filter": "64", 
        "num_group": "1", 
        "stride": "(1, 1)"
      }, 
      "inputs": [[53, 0, 0], [54, 0, 0], [55, 0, 0]]
    }, 
    {
      "op": "relu", 
      "name": "relu9", 
      "inputs": [[56, 0, 0]]
    }, 
    {
      "op": "relu", 
      "name": "relu10", 
      "inputs": [[57, 0, 0]]
    }, 
    {
      "op": "Pad", 
      "name": "pad10", 
      "attrs": {
        "mode": "constant", 
        "pad_width": "(0, 0, 0, 0, 1, 1, 1, 1)"
      }, 
      "inputs": [[58, 0, 0]]
    }, 
    {
      "op": "null", 
      "name": "learned_14", 
      "attrs": {"__shape__": "(64, 64, 3, 3)"}, 
      "inputs": []
    }, 
    {
      "op": "null", 
      "name": "learned_15", 
      "attrs": {"__shape__": "(64,)"}, 
      "inputs": []
    }, 
    {
      "op": "Convolution", 
      "name": "convolution10", 
      "attrs": {
        "dilate": "(1, 1)", 
        "kernel": "(3, 3)", 
        "no_bias": "False", 
        "num_filter": "64", 
        "num_group": "1", 
        "stride": "(1, 1)"
      }, 
      "inputs": [[59, 0, 0], [60, 0, 0], [61, 0, 0]]
    }, 
    {
      "op": "relu", 
      "name": "relu11", 
      "inputs": [[62, 0, 0]]
    }, 
    {
      "op": "Pad", 
      "name": "pad11", 
      "attrs": {
        "mode": "constant", 
        "pad_width": "(0, 0, 0, 0, 1, 1, 1, 1)"
      }, 
      "inputs": [[63, 0, 0]]
    }, 
    {
      "op": "null", 
      "name": "learned_16", 
      "attrs": {"__shape__": "(64, 64, 3, 3)"}, 
      "inputs": []
    }, 
    {
      "op": "null", 
      "name": "learned_17", 
      "attrs": {"__shape__": "(64,)"}, 
      "inputs": []
    }, 
    {
      "op": "Convolution", 
      "name": "convolution11", 
      "attrs": {
        "dilate": "(1, 1)", 
        "kernel": "(3, 3)", 
        "no_bias": "False", 
        "num_filter": "64", 
        "num_group": "1", 
        "stride": "(1, 1)"
      }, 
      "inputs": [[64, 0, 0], [65, 0, 0], [66, 0, 0]]
    }, 
    {
      "op": "broadcast_add", 
      "name": "broadcast_add3", 
      "inputs": [[67, 0, 0], [58, 0, 0]]
    }, 
    {
      "op": "Concat", 
      "name": "concat3", 
      "attrs": {
        "dim": "1", 
        "num_args": "2"
      }, 
      "inputs": [[52, 0, 0], [68, 0, 0]]
    }, 
    {
      "op": "Pad", 
      "name": "pad12", 
      "attrs": {
        "mode": "constant", 
        "pad_width": "(0, 0, 0, 0, 0, 0, 0, 0)"
      }, 
      "inputs": [[69, 0, 0]]
    }, 
    {
      "op": "null", 
      "name": "learned_24", 
      "attrs": {"__shape__": "(64, 320, 1, 1)"}, 
      "inputs": []
    }, 
    {
      "op": "null", 
      "name": "learned_25", 
      "attrs": {"__shape__": "(64,)"}, 
      "inputs": []
    }, 
    {
      "op": "Convolution", 
      "name": "convolution12", 
      "attrs": {
        "dilate": "(1, 1)", 
        "kernel": "(1, 1)", 
        "no_bias": "False", 
        "num_filter": "64", 
        "num_group": "1", 
        "stride": "(1, 1)"
      }, 
      "inputs": [[70, 0, 0], [71, 0, 0], [72, 0, 0]]
    }, 
    {
      "op": "relu", 
      "name": "relu12", 
      "inputs": [[73, 0, 0]]
    }, 
    {
      "op": "Concat", 
      "name": "concat4", 
      "attrs": {
        "dim": "1", 
        "num_args": "2"
      }, 
      "inputs": [[7, 0, 0], [74, 0, 0]]
    }, 
    {
      "op": "Pad", 
      "name": "pad13", 
      "attrs": {
        "mode": "constant", 
        "pad_width": "(0, 0, 0, 0, 0, 0, 0, 0)"
      }, 
      "inputs": [[75, 0, 0]]
    }, 
    {
      "op": "null", 
      "name": "learned_194", 
      "attrs": {"__shape__": "(64, 128, 1, 1)"}, 
      "inputs": []
    }, 
    {
      "op": "null", 
      "name": "learned_195", 
      "attrs": {"__shape__": "(64,)"}, 
      "inputs": []
    }, 
    {
      "op": "Convolution", 
      "name": "convolution13", 
      "attrs": {
        "dilate": "(1, 1)", 
        "kernel": "(1, 1)", 
        "no_bias": "False", 
        "num_filter": "64", 
        "num_group": "1", 
        "stride": "(1, 1)"
      }, 
      "inputs": [[76, 0, 0], [77, 0, 0], [78, 0, 0]]
    }, 
    {
      "op": "relu", 
      "name": "relu13", 
      "inputs": [[79, 0, 0]]
    }, 
    {
      "op": "relu", 
      "name": "relu14", 
      "inputs": [[80, 0, 0]]
    }, 
    {
      "op": "Pad", 
      "name": "pad14", 
      "attrs": {
        "mode": "constant", 
        "pad_width": "(0, 0, 0, 0, 1, 1, 1, 1)"
      }, 
      "inputs": [[81, 0, 0]]
    }, 
    {
      "op": "null", 
      "name": "learned_26", 
      "attrs": {"__shape__": "(64, 64, 3, 3)"}, 
      "inputs": []
    }, 
    {
      "op": "null", 
      "name": "learned_27", 
      "attrs": {"__shape__": "(64,)"}, 
      "inputs": []
    }, 
    {
      "op": "Convolution", 
      "name": "convolution14", 
      "attrs": {
        "dilate": "(1, 1)", 
        "kernel": "(3, 3)", 
        "no_bias": "False", 
        "num_filter": "64", 
        "num_group": "1", 
        "stride": "(1, 1)"
      }, 
      "inputs": [[82, 0, 0], [83, 0, 0], [84, 0, 0]]
    }, 
    {
      "op": "relu", 
      "name": "relu15", 
      "inputs": [[85, 0, 0]]
    }, 
    {
      "op": "Pad", 
      "name": "pad15", 
      "attrs": {
        "mode": "constant", 
        "pad_width": "(0, 0, 0, 0, 1, 1, 1, 1)"
      }, 
      "inputs": [[86, 0, 0]]
    }, 
    {
      "op": "null", 
      "name": "learned_28", 
      "attrs": {"__shape__": "(64, 64, 3, 3)"}, 
      "inputs": []
    }, 
    {
      "op": "null", 
      "name": "learned_29", 
      "attrs": {"__shape__": "(64,)"}, 
      "inputs": []
    }, 
    {
      "op": "Convolution", 
      "name": "convolution15", 
      "attrs": {
        "dilate": "(1, 1)", 
        "kernel": "(3, 3)", 
        "no_bias": "False", 
        "num_filter": "64", 
        "num_group": "1", 
        "stride": "(1, 1)"
      }, 
      "inputs": [[87, 0, 0], [88, 0, 0], [89, 0, 0]]
    }, 
    {
      "op": "broadcast_add", 
      "name": "broadcast_add4", 
      "inputs": [[90, 0, 0], [81, 0, 0]]
    }, 
    {
      "op": "Concat", 
      "name": "concat5", 
      "attrs": {
        "dim": "1", 
        "num_args": "2"
      }, 
      "inputs": [[81, 0, 0], [91, 0, 0]]
    }, 
    {
      "op": "Pad", 
      "name": "pad16", 
      "attrs": {
        "mode": "constant", 
        "pad_width": "(0, 0, 0, 0, 0, 0, 0, 0)"
      }, 
      "inputs": [[92, 0, 0]]
    }, 
    {
      "op": "null", 
      "name": "learned_42", 
      "attrs": {"__shape__": "(64, 128, 1, 1)"}, 
      "inputs": []
    }, 
    {
      "op": "null", 
      "name": "learned_43", 
      "attrs": {"__shape__": "(64,)"}, 
      "inputs": []
    }, 
    {
      "op": "Convolution", 
      "name": "convolution16", 
      "attrs": {
        "dilate": "(1, 1)", 
        "kernel": "(1, 1)", 
        "no_bias": "False", 
        "num_filter": "64", 
        "num_group": "1", 
        "stride": "(1, 1)"
      }, 
      "inputs": [[93, 0, 0], [94, 0, 0], [95, 0, 0]]
    }, 
    {
      "op": "relu", 
      "name": "relu16", 
      "inputs": [[96, 0, 0]]
    }, 
    {
      "op": "relu", 
      "name": "relu17", 
      "inputs": [[97, 0, 0]]
    }, 
    {
      "op": "Pad", 
      "name": "pad17", 
      "attrs": {
        "mode": "constant", 
        "pad_width": "(0, 0, 0, 0, 1, 1, 1, 1)"
      }, 
      "inputs": [[98, 0, 0]]
    }, 
    {
      "op": "null", 
      "name": "learned_30", 
      "attrs": {"__shape__": "(64, 64, 3, 3)"}, 
      "inputs": []
    }, 
    {
      "op": "null", 
      "name": "learned_31", 
      "attrs": {"__shape__": "(64,)"}, 
      "inputs": []
    }, 
    {
      "op": "Convolution", 
      "name": "convolution17", 
      "attrs": {
        "dilate": "(1, 1)", 
        "kernel": "(3, 3)", 
        "no_bias": "False", 
        "num_filter": "64", 
        "num_group": "1", 
        "stride": "(1, 1)"
      }, 
      "inputs": [[99, 0, 0], [100, 0, 0], [101, 0, 0]]
    }, 
    {
      "op": "relu", 
      "name": "relu18", 
      "inputs": [[102, 0, 0]]
    }, 
    {
      "op": "Pad", 
      "name": "pad18", 
      "attrs": {
        "mode": "constant", 
        "pad_width": "(0, 0, 0, 0, 1, 1, 1, 1)"
      }, 
      "inputs": [[103, 0, 0]]
    }, 
    {
      "op": "null", 
      "name": "learned_32", 
      "attrs": {"__shape__": "(64, 64, 3, 3)"}, 
      "inputs": []
    }, 
    {
      "op": "null", 
      "name": "learned_33", 
      "attrs": {"__shape__": "(64,)"}, 
      "inputs": []
    }, 
    {
      "op": "Convolution", 
      "name": "convolution18", 
      "attrs": {
        "dilate": "(1, 1)", 
        "kernel": "(3, 3)", 
        "no_bias": "False", 
        "num_filter": "64", 
        "num_group": "1", 
        "stride": "(1, 1)"
      }, 
      "inputs": [[104, 0, 0], [105, 0, 0], [106, 0, 0]]
    }, 
    {
      "op": "broadcast_add", 
      "name": "broadcast_add5", 
      "inputs": [[107, 0, 0], [98, 0, 0]]
    }, 
    {
      "op": "Concat", 
      "name": "concat6", 
      "attrs": {
        "dim": "1", 
        "num_args": "2"
      }, 
      "inputs": [[92, 0, 0], [108, 0, 0]]
    }, 
    {
      "op": "Pad", 
      "name": "pad19", 
      "attrs": {
        "mode": "constant", 
        "pad_width": "(0, 0, 0, 0, 0, 0, 0, 0)"
      }, 
      "inputs": [[109, 0, 0]]
    }, 
    {
      "op": "null", 
      "name": "learned_44", 
      "attrs": {"__shape__": "(64, 192, 1, 1)"}, 
      "inputs": []
    }, 
    {
      "op": "null", 
      "name": "learned_45", 
      "attrs": {"__shape__": "(64,)"}, 
      "inputs": []
    }, 
    {
      "op": "Convolution", 
      "name": "convolution19", 
      "attrs": {
        "dilate": "(1, 1)", 
        "kernel": "(1, 1)", 
        "no_bias": "False", 
        "num_filter": "64", 
        "num_group": "1", 
        "stride": "(1, 1)"
      }, 
      "inputs": [[110, 0, 0], [111, 0, 0], [112, 0, 0]]
    }, 
    {
      "op": "relu", 
      "name": "relu19", 
      "inputs": [[113, 0, 0]]
    }, 
    {
      "op": "relu", 
      "name": "relu20", 
      "inputs": [[114, 0, 0]]
    }, 
    {
      "op": "Pad", 
      "name": "pad20", 
      "attrs": {
        "mode": "constant", 
        "pad_width": "(0, 0, 0, 0, 1, 1, 1, 1)"
      }, 
      "inputs": [[115, 0, 0]]
    }, 
    {
      "op": "null", 
      "name": "learned_34", 
      "attrs": {"__shape__": "(64, 64, 3, 3)"}, 
      "inputs": []
    }, 
    {
      "op": "null", 
      "name": "learned_35", 
      "attrs": {"__shape__": "(64,)"}, 
      "inputs": []
    }, 
    {
      "op": "Convolution", 
      "name": "convolution20", 
      "attrs": {
        "dilate": "(1, 1)", 
        "kernel": "(3, 3)", 
        "no_bias": "False", 
        "num_filter": "64", 
        "num_group": "1", 
        "stride": "(1, 1)"
      }, 
      "inputs": [[116, 0, 0], [117, 0, 0], [118, 0, 0]]
    }, 
    {
      "op": "relu", 
      "name": "relu21", 
      "inputs": [[119, 0, 0]]
    }, 
    {
      "op": "Pad", 
      "name": "pad21", 
      "attrs": {
        "mode": "constant", 
        "pad_width": "(0, 0, 0, 0, 1, 1, 1, 1)"
      }, 
      "inputs": [[120, 0, 0]]
    }, 
    {
      "op": "null", 
      "name": "learned_36", 
      "attrs": {"__shape__": "(64, 64, 3, 3)"}, 
      "inputs": []
    }, 
    {
      "op": "null", 
      "name": "learned_37", 
      "attrs": {"__shape__": "(64,)"}, 
      "inputs": []
    }, 
    {
      "op": "Convolution", 
      "name": "convolution21", 
      "attrs": {
        "dilate": "(1, 1)", 
        "kernel": "(3, 3)", 
        "no_bias": "False", 
        "num_filter": "64", 
        "num_group": "1", 
        "stride": "(1, 1)"
      }, 
      "inputs": [[121, 0, 0], [122, 0, 0], [123, 0, 0]]
    }, 
    {
      "op": "broadcast_add", 
      "name": "broadcast_add6", 
      "inputs": [[124, 0, 0], [115, 0, 0]]
    }, 
    {
      "op": "Concat", 
      "name": "concat7", 
      "attrs": {
        "dim": "1", 
        "num_args": "2"
      }, 
      "inputs": [[109, 0, 0], [125, 0, 0]]
    }, 
    {
      "op": "Pad", 
      "name": "pad22", 
      "attrs": {
        "mode": "constant", 
        "pad_width": "(0, 0, 0, 0, 0, 0, 0, 0)"
      }, 
      "inputs": [[126, 0, 0]]
    }, 
    {
      "op": "null", 
      "name": "learned_46", 
      "attrs": {"__shape__": "(64, 256, 1, 1)"}, 
      "inputs": []
    }, 
    {
      "op": "null", 
      "name": "learned_47", 
      "attrs": {"__shape__": "(64,)"}, 
      "inputs": []
    }, 
    {
      "op": "Convolution", 
      "name": "convolution22", 
      "attrs": {
        "dilate": "(1, 1)", 
        "kernel": "(1, 1)", 
        "no_bias": "False", 
        "num_filter": "64", 
        "num_group": "1", 
        "stride": "(1, 1)"
      }, 
      "inputs": [[127, 0, 0], [128, 0, 0], [129, 0, 0]]
    }, 
    {
      "op": "relu", 
      "name": "relu22", 
      "inputs": [[130, 0, 0]]
    }, 
    {
      "op": "relu", 
      "name": "relu23", 
      "inputs": [[131, 0, 0]]
    }, 
    {
      "op": "Pad", 
      "name": "pad23", 
      "attrs": {
        "mode": "constant", 
        "pad_width": "(0, 0, 0, 0, 1, 1, 1, 1)"
      }, 
      "inputs": [[132, 0, 0]]
    }, 
    {
      "op": "null", 
      "name": "learned_38", 
      "attrs": {"__shape__": "(64, 64, 3, 3)"}, 
      "inputs": []
    }, 
    {
      "op": "null", 
      "name": "learned_39", 
      "attrs": {"__shape__": "(64,)"}, 
      "inputs": []
    }, 
    {
      "op": "Convolution", 
      "name": "convolution23", 
      "attrs": {
        "dilate": "(1, 1)", 
        "kernel": "(3, 3)", 
        "no_bias": "False", 
        "num_filter": "64", 
        "num_group": "1", 
        "stride": "(1, 1)"
      }, 
      "inputs": [[133, 0, 0], [134, 0, 0], [135, 0, 0]]
    }, 
    {
      "op": "relu", 
      "name": "relu24", 
      "inputs": [[136, 0, 0]]
    }, 
    {
      "op": "Pad", 
      "name": "pad24", 
      "attrs": {
        "mode": "constant", 
        "pad_width": "(0, 0, 0, 0, 1, 1, 1, 1)"
      }, 
      "inputs": [[137, 0, 0]]
    }, 
    {
      "op": "null", 
      "name": "learned_40", 
      "attrs": {"__shape__": "(64, 64, 3, 3)"}, 
      "inputs": []
    }, 
    {
      "op": "null", 
      "name": "learned_41", 
      "attrs": {"__shape__": "(64,)"}, 
      "inputs": []
    }, 
    {
      "op": "Convolution", 
      "name": "convolution24", 
      "attrs": {
        "dilate": "(1, 1)", 
        "kernel": "(3, 3)", 
        "no_bias": "False", 
        "num_filter": "64", 
        "num_group": "1", 
        "stride": "(1, 1)"
      }, 
      "inputs": [[138, 0, 0], [139, 0, 0], [140, 0, 0]]
    }, 
    {
      "op": "broadcast_add", 
      "name": "broadcast_add7", 
      "inputs": [[141, 0, 0], [132, 0, 0]]
    }, 
    {
      "op": "Concat", 
      "name": "concat8", 
      "attrs": {
        "dim": "1", 
        "num_args": "2"
      }, 
      "inputs": [[126, 0, 0], [142, 0, 0]]
    }, 
    {
      "op": "Pad", 
      "name": "pad25", 
      "attrs": {
        "mode": "constant", 
        "pad_width": "(0, 0, 0, 0, 0, 0, 0, 0)"
      }, 
      "inputs": [[143, 0, 0]]
    }, 
    {
      "op": "null", 
      "name": "learned_48", 
      "attrs": {"__shape__": "(64, 320, 1, 1)"}, 
      "inputs": []
    }, 
    {
      "op": "null", 
      "name": "learned_49", 
      "attrs": {"__shape__": "(64,)"}, 
      "inputs": []
    }, 
    {
      "op": "Convolution", 
      "name": "convolution25", 
      "attrs": {
        "dilate": "(1, 1)", 
        "kernel": "(1, 1)", 
        "no_bias": "False", 
        "num_filter": "64", 
        "num_group": "1", 
        "stride": "(1, 1)"
      }, 
      "inputs": [[144, 0, 0], [145, 0, 0], [146, 0, 0]]
    }, 
    {
      "op": "relu", 
      "name": "relu25", 
      "inputs": [[147, 0, 0]]
    }, 
    {
      "op": "Concat", 
      "name": "concat9", 
      "attrs": {
        "dim": "1", 
        "num_args": "2"
      }, 
      "inputs": [[75, 0, 0], [148, 0, 0]]
    }, 
    {
      "op": "Pad", 
      "name": "pad26", 
      "attrs": {
        "mode": "constant", 
        "pad_width": "(0, 0, 0, 0, 0, 0, 0, 0)"
      }, 
      "inputs": [[149, 0, 0]]
    }, 
    {
      "op": "null", 
      "name": "learned_196", 
      "attrs": {"__shape__": "(64, 192, 1, 1)"}, 
      "inputs": []
    }, 
    {
      "op": "null", 
      "name": "learned_197", 
      "attrs": {"__shape__": "(64,)"}, 
      "inputs": []
    }, 
    {
      "op": "Convolution", 
      "name": "convolution26", 
      "attrs": {
        "dilate": "(1, 1)", 
        "kernel": "(1, 1)", 
        "no_bias": "False", 
        "num_filter": "64", 
        "num_group": "1", 
        "stride": "(1, 1)"
      }, 
      "inputs": [[150, 0, 0], [151, 0, 0], [152, 0, 0]]
    }, 
    {
      "op": "relu", 
      "name": "relu26", 
      "inputs": [[153, 0, 0]]
    }, 
    {
      "op": "relu", 
      "name": "relu27", 
      "inputs": [[154, 0, 0]]
    }, 
    {
      "op": "Pad", 
      "name": "pad27", 
      "attrs": {
        "mode": "constant", 
        "pad_width": "(0, 0, 0, 0, 1, 1, 1, 1)"
      }, 
      "inputs": [[155, 0, 0]]
    }, 
    {
      "op": "null", 
      "name": "learned_50", 
      "attrs": {"__shape__": "(64, 64, 3, 3)"}, 
      "inputs": []
    }, 
    {
      "op": "null", 
      "name": "learned_51", 
      "attrs": {"__shape__": "(64,)"}, 
      "inputs": []
    }, 
    {
      "op": "Convolution", 
      "name": "convolution27", 
      "attrs": {
        "dilate": "(1, 1)", 
        "kernel": "(3, 3)", 
        "no_bias": "False", 
        "num_filter": "64", 
        "num_group": "1", 
        "stride": "(1, 1)"
      }, 
      "inputs": [[156, 0, 0], [157, 0, 0], [158, 0, 0]]
    }, 
    {
      "op": "relu", 
      "name": "relu28", 
      "inputs": [[159, 0, 0]]
    }, 
    {
      "op": "Pad", 
      "name": "pad28", 
      "attrs": {
        "mode": "constant", 
        "pad_width": "(0, 0, 0, 0, 1, 1, 1, 1)"
      }, 
      "inputs": [[160, 0, 0]]
    }, 
    {
      "op": "null", 
      "name": "learned_52", 
      "attrs": {"__shape__": "(64, 64, 3, 3)"}, 
      "inputs": []
    }, 
    {
      "op": "null", 
      "name": "learned_53", 
      "attrs": {"__shape__": "(64,)"}, 
      "inputs": []
    }, 
    {
      "op": "Convolution", 
      "name": "convolution28", 
      "attrs": {
        "dilate": "(1, 1)", 
        "kernel": "(3, 3)", 
        "no_bias": "False", 
        "num_filter": "64", 
        "num_group": "1", 
        "stride": "(1, 1)"
      }, 
      "inputs": [[161, 0, 0], [162, 0, 0], [163, 0, 0]]
    }, 
    {
      "op": "broadcast_add", 
      "name": "broadcast_add8", 
      "inputs": [[164, 0, 0], [155, 0, 0]]
    }, 
    {
      "op": "Concat", 
      "name": "concat10", 
      "attrs": {
        "dim": "1", 
        "num_args": "2"
      }, 
      "inputs": [[155, 0, 0], [165, 0, 0]]
    }, 
    {
      "op": "Pad", 
      "name": "pad29", 
      "attrs": {
        "mode": "constant", 
        "pad_width": "(0, 0, 0, 0, 0, 0, 0, 0)"
      }, 
      "inputs": [[166, 0, 0]]
    }, 
    {
      "op": "null", 
      "name": "learned_66", 
      "attrs": {"__shape__": "(64, 128, 1, 1)"}, 
      "inputs": []
    }, 
    {
      "op": "null", 
      "name": "learned_67", 
      "attrs": {"__shape__": "(64,)"}, 
      "inputs": []
    }, 
    {
      "op": "Convolution", 
      "name": "convolution29", 
      "attrs": {
        "dilate": "(1, 1)", 
        "kernel": "(1, 1)", 
        "no_bias": "False", 
        "num_filter": "64", 
        "num_group": "1", 
        "stride": "(1, 1)"
      }, 
      "inputs": [[167, 0, 0], [168, 0, 0], [169, 0, 0]]
    }, 
    {
      "op": "relu", 
      "name": "relu29", 
      "inputs": [[170, 0, 0]]
    }, 
    {
      "op": "relu", 
      "name": "relu30", 
      "inputs": [[171, 0, 0]]
    }, 
    {
      "op": "Pad", 
      "name": "pad30", 
      "attrs": {
        "mode": "constant", 
        "pad_width": "(0, 0, 0, 0, 1, 1, 1, 1)"
      }, 
      "inputs": [[172, 0, 0]]
    }, 
    {
      "op": "null", 
      "name": "learned_54", 
      "attrs": {"__shape__": "(64, 64, 3, 3)"}, 
      "inputs": []
    }, 
    {
      "op": "null", 
      "name": "learned_55", 
      "attrs": {"__shape__": "(64,)"}, 
      "inputs": []
    }, 
    {
      "op": "Convolution", 
      "name": "convolution30", 
      "attrs": {
        "dilate": "(1, 1)", 
        "kernel": "(3, 3)", 
        "no_bias": "False", 
        "num_filter": "64", 
        "num_group": "1", 
        "stride": "(1, 1)"
      }, 
      "inputs": [[173, 0, 0], [174, 0, 0], [175, 0, 0]]
    }, 
    {
      "op": "relu", 
      "name": "relu31", 
      "inputs": [[176, 0, 0]]
    }, 
    {
      "op": "Pad", 
      "name": "pad31", 
      "attrs": {
        "mode": "constant", 
        "pad_width": "(0, 0, 0, 0, 1, 1, 1, 1)"
      }, 
      "inputs": [[177, 0, 0]]
    }, 
    {
      "op": "null", 
      "name": "learned_56", 
      "attrs": {"__shape__": "(64, 64, 3, 3)"}, 
      "inputs": []
    }, 
    {
      "op": "null", 
      "name": "learned_57", 
      "attrs": {"__shape__": "(64,)"}, 
      "inputs": []
    }, 
    {
      "op": "Convolution", 
      "name": "convolution31", 
      "attrs": {
        "dilate": "(1, 1)", 
        "kernel": "(3, 3)", 
        "no_bias": "False", 
        "num_filter": "64", 
        "num_group": "1", 
        "stride": "(1, 1)"
      }, 
      "inputs": [[178, 0, 0], [179, 0, 0], [180, 0, 0]]
    }, 
    {
      "op": "broadcast_add", 
      "name": "broadcast_add9", 
      "inputs": [[181, 0, 0], [172, 0, 0]]
    }, 
    {
      "op": "Concat", 
      "name": "concat11", 
      "attrs": {
        "dim": "1", 
        "num_args": "2"
      }, 
      "inputs": [[166, 0, 0], [182, 0, 0]]
    }, 
    {
      "op": "Pad", 
      "name": "pad32", 
      "attrs": {
        "mode": "constant", 
        "pad_width": "(0, 0, 0, 0, 0, 0, 0, 0)"
      }, 
      "inputs": [[183, 0, 0]]
    }, 
    {
      "op": "null", 
      "name": "learned_68", 
      "attrs": {"__shape__": "(64, 192, 1, 1)"}, 
      "inputs": []
    }, 
    {
      "op": "null", 
      "name": "learned_69", 
      "attrs": {"__shape__": "(64,)"}, 
      "inputs": []
    }, 
    {
      "op": "Convolution", 
      "name": "convolution32", 
      "attrs": {
        "dilate": "(1, 1)", 
        "kernel": "(1, 1)", 
        "no_bias": "False", 
        "num_filter": "64", 
        "num_group": "1", 
        "stride": "(1, 1)"
      }, 
      "inputs": [[184, 0, 0], [185, 0, 0], [186, 0, 0]]
    }, 
    {
      "op": "relu", 
      "name": "relu32", 
      "inputs": [[187, 0, 0]]
    }, 
    {
      "op": "relu", 
      "name": "relu33", 
      "inputs": [[188, 0, 0]]
    }, 
    {
      "op": "Pad", 
      "name": "pad33", 
      "attrs": {
        "mode": "constant", 
        "pad_width": "(0, 0, 0, 0, 1, 1, 1, 1)"
      }, 
      "inputs": [[189, 0, 0]]
    }, 
    {
      "op": "null", 
      "name": "learned_58", 
      "attrs": {"__shape__": "(64, 64, 3, 3)"}, 
      "inputs": []
    }, 
    {
      "op": "null", 
      "name": "learned_59", 
      "attrs": {"__shape__": "(64,)"}, 
      "inputs": []
    }, 
    {
      "op": "Convolution", 
      "name": "convolution33", 
      "attrs": {
        "dilate": "(1, 1)", 
        "kernel": "(3, 3)", 
        "no_bias": "False", 
        "num_filter": "64", 
        "num_group": "1", 
        "stride": "(1, 1)"
      }, 
      "inputs": [[190, 0, 0], [191, 0, 0], [192, 0, 0]]
    }, 
    {
      "op": "relu", 
      "name": "relu34", 
      "inputs": [[193, 0, 0]]
    }, 
    {
      "op": "Pad", 
      "name": "pad34", 
      "attrs": {
        "mode": "constant", 
        "pad_width": "(0, 0, 0, 0, 1, 1, 1, 1)"
      }, 
      "inputs": [[194, 0, 0]]
    }, 
    {
      "op": "null", 
      "name": "learned_60", 
      "attrs": {"__shape__": "(64, 64, 3, 3)"}, 
      "inputs": []
    }, 
    {
      "op": "null", 
      "name": "learned_61", 
      "attrs": {"__shape__": "(64,)"}, 
      "inputs": []
    }, 
    {
      "op": "Convolution", 
      "name": "convolution34", 
      "attrs": {
        "dilate": "(1, 1)", 
        "kernel": "(3, 3)", 
        "no_bias": "False", 
        "num_filter": "64", 
        "num_group": "1", 
        "stride": "(1, 1)"
      }, 
      "inputs": [[195, 0, 0], [196, 0, 0], [197, 0, 0]]
    }, 
    {
      "op": "broadcast_add", 
      "name": "broadcast_add10", 
      "inputs": [[198, 0, 0], [189, 0, 0]]
    }, 
    {
      "op": "Concat", 
      "name": "concat12", 
      "attrs": {
        "dim": "1", 
        "num_args": "2"
      }, 
      "inputs": [[183, 0, 0], [199, 0, 0]]
    }, 
    {
      "op": "Pad", 
      "name": "pad35", 
      "attrs": {
        "mode": "constant", 
        "pad_width": "(0, 0, 0, 0, 0, 0, 0, 0)"
      }, 
      "inputs": [[200, 0, 0]]
    }, 
    {
      "op": "null", 
      "name": "learned_70", 
      "attrs": {"__shape__": "(64, 256, 1, 1)"}, 
      "inputs": []
    }, 
    {
      "op": "null", 
      "name": "learned_71", 
      "attrs": {"__shape__": "(64,)"}, 
      "inputs": []
    }, 
    {
      "op": "Convolution", 
      "name": "convolution35", 
      "attrs": {
        "dilate": "(1, 1)", 
        "kernel": "(1, 1)", 
        "no_bias": "False", 
        "num_filter": "64", 
        "num_group": "1", 
        "stride": "(1, 1)"
      }, 
      "inputs": [[201, 0, 0], [202, 0, 0], [203, 0, 0]]
    }, 
    {
      "op": "relu", 
      "name": "relu35", 
      "inputs": [[204, 0, 0]]
    }, 
    {
      "op": "relu", 
      "name": "relu36", 
      "inputs": [[205, 0, 0]]
    }, 
    {
      "op": "Pad", 
      "name": "pad36", 
      "attrs": {
        "mode": "constant", 
        "pad_width": "(0, 0, 0, 0, 1, 1, 1, 1)"
      }, 
      "inputs": [[206, 0, 0]]
    }, 
    {
      "op": "null", 
      "name": "learned_62", 
      "attrs": {"__shape__": "(64, 64, 3, 3)"}, 
      "inputs": []
    }, 
    {
      "op": "null", 
      "name": "learned_63", 
      "attrs": {"__shape__": "(64,)"}, 
      "inputs": []
    }, 
    {
      "op": "Convolution", 
      "name": "convolution36", 
      "attrs": {
        "dilate": "(1, 1)", 
        "kernel": "(3, 3)", 
        "no_bias": "False", 
        "num_filter": "64", 
        "num_group": "1", 
        "stride": "(1, 1)"
      }, 
      "inputs": [[207, 0, 0], [208, 0, 0], [209, 0, 0]]
    }, 
    {
      "op": "relu", 
      "name": "relu37", 
      "inputs": [[210, 0, 0]]
    }, 
    {
      "op": "Pad", 
      "name": "pad37", 
      "attrs": {
        "mode": "constant", 
        "pad_width": "(0, 0, 0, 0, 1, 1, 1, 1)"
      }, 
      "inputs": [[211, 0, 0]]
    }, 
    {
      "op": "null", 
      "name": "learned_64", 
      "attrs": {"__shape__": "(64, 64, 3, 3)"}, 
      "inputs": []
    }, 
    {
      "op": "null", 
      "name": "learned_65", 
      "attrs": {"__shape__": "(64,)"}, 
      "inputs": []
    }, 
    {
      "op": "Convolution", 
      "name": "convolution37", 
      "attrs": {
        "dilate": "(1, 1)", 
        "kernel": "(3, 3)", 
        "no_bias": "False", 
        "num_filter": "64", 
        "num_group": "1", 
        "stride": "(1, 1)"
      }, 
      "inputs": [[212, 0, 0], [213, 0, 0], [214, 0, 0]]
    }, 
    {
      "op": "broadcast_add", 
      "name": "broadcast_add11", 
      "inputs": [[215, 0, 0], [206, 0, 0]]
    }, 
    {
      "op": "Concat", 
      "name": "concat13", 
      "attrs": {
        "dim": "1", 
        "num_args": "2"
      }, 
      "inputs": [[200, 0, 0], [216, 0, 0]]
    }, 
    {
      "op": "Pad", 
      "name": "pad38", 
      "attrs": {
        "mode": "constant", 
        "pad_width": "(0, 0, 0, 0, 0, 0, 0, 0)"
      }, 
      "inputs": [[217, 0, 0]]
    }, 
    {
      "op": "null", 
      "name": "learned_72", 
      "attrs": {"__shape__": "(64, 320, 1, 1)"}, 
      "inputs": []
    }, 
    {
      "op": "null", 
      "name": "learned_73", 
      "attrs": {"__shape__": "(64,)"}, 
      "inputs": []
    }, 
    {
      "op": "Convolution", 
      "name": "convolution38", 
      "attrs": {
        "dilate": "(1, 1)", 
        "kernel": "(1, 1)", 
        "no_bias": "False", 
        "num_filter": "64", 
        "num_group": "1", 
        "stride": "(1, 1)"
      }, 
      "inputs": [[218, 0, 0], [219, 0, 0], [220, 0, 0]]
    }, 
    {
      "op": "relu", 
      "name": "relu38", 
      "inputs": [[221, 0, 0]]
    }, 
    {
      "op": "Concat", 
      "name": "concat14", 
      "attrs": {
        "dim": "1", 
        "num_args": "2"
      }, 
      "inputs": [[149, 0, 0], [222, 0, 0]]
    }, 
    {
      "op": "Pad", 
      "name": "pad39", 
      "attrs": {
        "mode": "constant", 
        "pad_width": "(0, 0, 0, 0, 0, 0, 0, 0)"
      }, 
      "inputs": [[223, 0, 0]]
    }, 
    {
      "op": "null", 
      "name": "learned_198", 
      "attrs": {"__shape__": "(64, 256, 1, 1)"}, 
      "inputs": []
    }, 
    {
      "op": "null", 
      "name": "learned_199", 
      "attrs": {"__shape__": "(64,)"}, 
      "inputs": []
    }, 
    {
      "op": "Convolution", 
      "name": "convolution39", 
      "attrs": {
        "dilate": "(1, 1)", 
        "kernel": "(1, 1)", 
        "no_bias": "False", 
        "num_filter": "64", 
        "num_group": "1", 
        "stride": "(1, 1)"
      }, 
      "inputs": [[224, 0, 0], [225, 0, 0], [226, 0, 0]]
    }, 
    {
      "op": "relu", 
      "name": "relu39", 
      "inputs": [[227, 0, 0]]
    }, 
    {
      "op": "relu", 
      "name": "relu40", 
      "inputs": [[228, 0, 0]]
    }, 
    {
      "op": "Pad", 
      "name": "pad40", 
      "attrs": {
        "mode": "constant", 
        "pad_width": "(0, 0, 0, 0, 1, 1, 1, 1)"
      }, 
      "inputs": [[229, 0, 0]]
    }, 
    {
      "op": "null", 
      "name": "learned_74", 
      "attrs": {"__shape__": "(64, 64, 3, 3)"}, 
      "inputs": []
    }, 
    {
      "op": "null", 
      "name": "learned_75", 
      "attrs": {"__shape__": "(64,)"}, 
      "inputs": []
    }, 
    {
      "op": "Convolution", 
      "name": "convolution40", 
      "attrs": {
        "dilate": "(1, 1)", 
        "kernel": "(3, 3)", 
        "no_bias": "False", 
        "num_filter": "64", 
        "num_group": "1", 
        "stride": "(1, 1)"
      }, 
      "inputs": [[230, 0, 0], [231, 0, 0], [232, 0, 0]]
    }, 
    {
      "op": "relu", 
      "name": "relu41", 
      "inputs": [[233, 0, 0]]
    }, 
    {
      "op": "Pad", 
      "name": "pad41", 
      "attrs": {
        "mode": "constant", 
        "pad_width": "(0, 0, 0, 0, 1, 1, 1, 1)"
      }, 
      "inputs": [[234, 0, 0]]
    }, 
    {
      "op": "null", 
      "name": "learned_76", 
      "attrs": {"__shape__": "(64, 64, 3, 3)"}, 
      "inputs": []
    }, 
    {
      "op": "null", 
      "name": "learned_77", 
      "attrs": {"__shape__": "(64,)"}, 
      "inputs": []
    }, 
    {
      "op": "Convolution", 
      "name": "convolution41", 
      "attrs": {
        "dilate": "(1, 1)", 
        "kernel": "(3, 3)", 
        "no_bias": "False", 
        "num_filter": "64", 
        "num_group": "1", 
        "stride": "(1, 1)"
      }, 
      "inputs": [[235, 0, 0], [236, 0, 0], [237, 0, 0]]
    }, 
    {
      "op": "broadcast_add", 
      "name": "broadcast_add12", 
      "inputs": [[238, 0, 0], [229, 0, 0]]
    }, 
    {
      "op": "Concat", 
      "name": "concat15", 
      "attrs": {
        "dim": "1", 
        "num_args": "2"
      }, 
      "inputs": [[229, 0, 0], [239, 0, 0]]
    }, 
    {
      "op": "Pad", 
      "name": "pad42", 
      "attrs": {
        "mode": "constant", 
        "pad_width": "(0, 0, 0, 0, 0, 0, 0, 0)"
      }, 
      "inputs": [[240, 0, 0]]
    }, 
    {
      "op": "null", 
      "name": "learned_90", 
      "attrs": {"__shape__": "(64, 128, 1, 1)"}, 
      "inputs": []
    }, 
    {
      "op": "null", 
      "name": "learned_91", 
      "attrs": {"__shape__": "(64,)"}, 
      "inputs": []
    }, 
    {
      "op": "Convolution", 
      "name": "convolution42", 
      "attrs": {
        "dilate": "(1, 1)", 
        "kernel": "(1, 1)", 
        "no_bias": "False", 
        "num_filter": "64", 
        "num_group": "1", 
        "stride": "(1, 1)"
      }, 
      "inputs": [[241, 0, 0], [242, 0, 0], [243, 0, 0]]
    }, 
    {
      "op": "relu", 
      "name": "relu42", 
      "inputs": [[244, 0, 0]]
    }, 
    {
      "op": "relu", 
      "name": "relu43", 
      "inputs": [[245, 0, 0]]
    }, 
    {
      "op": "Pad", 
      "name": "pad43", 
      "attrs": {
        "mode": "constant", 
        "pad_width": "(0, 0, 0, 0, 1, 1, 1, 1)"
      }, 
      "inputs": [[246, 0, 0]]
    }, 
    {
      "op": "null", 
      "name": "learned_78", 
      "attrs": {"__shape__": "(64, 64, 3, 3)"}, 
      "inputs": []
    }, 
    {
      "op": "null", 
      "name": "learned_79", 
      "attrs": {"__shape__": "(64,)"}, 
      "inputs": []
    }, 
    {
      "op": "Convolution", 
      "name": "convolution43", 
      "attrs": {
        "dilate": "(1, 1)", 
        "kernel": "(3, 3)", 
        "no_bias": "False", 
        "num_filter": "64", 
        "num_group": "1", 
        "stride": "(1, 1)"
      }, 
      "inputs": [[247, 0, 0], [248, 0, 0], [249, 0, 0]]
    }, 
    {
      "op": "relu", 
      "name": "relu44", 
      "inputs": [[250, 0, 0]]
    }, 
    {
      "op": "Pad", 
      "name": "pad44", 
      "attrs": {
        "mode": "constant", 
        "pad_width": "(0, 0, 0, 0, 1, 1, 1, 1)"
      }, 
      "inputs": [[251, 0, 0]]
    }, 
    {
      "op": "null", 
      "name": "learned_80", 
      "attrs": {"__shape__": "(64, 64, 3, 3)"}, 
      "inputs": []
    }, 
    {
      "op": "null", 
      "name": "learned_81", 
      "attrs": {"__shape__": "(64,)"}, 
      "inputs": []
    }, 
    {
      "op": "Convolution", 
      "name": "convolution44", 
      "attrs": {
        "dilate": "(1, 1)", 
        "kernel": "(3, 3)", 
        "no_bias": "False", 
        "num_filter": "64", 
        "num_group": "1", 
        "stride": "(1, 1)"
      }, 
      "inputs": [[252, 0, 0], [253, 0, 0], [254, 0, 0]]
    }, 
    {
      "op": "broadcast_add", 
      "name": "broadcast_add13", 
      "inputs": [[255, 0, 0], [246, 0, 0]]
    }, 
    {
      "op": "Concat", 
      "name": "concat16", 
      "attrs": {
        "dim": "1", 
        "num_args": "2"
      }, 
      "inputs": [[240, 0, 0], [256, 0, 0]]
    }, 
    {
      "op": "Pad", 
      "name": "pad45", 
      "attrs": {
        "mode": "constant", 
        "pad_width": "(0, 0, 0, 0, 0, 0, 0, 0)"
      }, 
      "inputs": [[257, 0, 0]]
    }, 
    {
      "op": "null", 
      "name": "learned_92", 
      "attrs": {"__shape__": "(64, 192, 1, 1)"}, 
      "inputs": []
    }, 
    {
      "op": "null", 
      "name": "learned_93", 
      "attrs": {"__shape__": "(64,)"}, 
      "inputs": []
    }, 
    {
      "op": "Convolution", 
      "name": "convolution45", 
      "attrs": {
        "dilate": "(1, 1)", 
        "kernel": "(1, 1)", 
        "no_bias": "False", 
        "num_filter": "64", 
        "num_group": "1", 
        "stride": "(1, 1)"
      }, 
      "inputs": [[258, 0, 0], [259, 0, 0], [260, 0, 0]]
    }, 
    {
      "op": "relu", 
      "name": "relu45", 
      "inputs": [[261, 0, 0]]
    }, 
    {
      "op": "relu", 
      "name": "relu46", 
      "inputs": [[262, 0, 0]]
    }, 
    {
      "op": "Pad", 
      "name": "pad46", 
      "attrs": {
        "mode": "constant", 
        "pad_width": "(0, 0, 0, 0, 1, 1, 1, 1)"
      }, 
      "inputs": [[263, 0, 0]]
    }, 
    {
      "op": "null", 
      "name": "learned_82", 
      "attrs": {"__shape__": "(64, 64, 3, 3)"}, 
      "inputs": []
    }, 
    {
      "op": "null", 
      "name": "learned_83", 
      "attrs": {"__shape__": "(64,)"}, 
      "inputs": []
    }, 
    {
      "op": "Convolution", 
      "name": "convolution46", 
      "attrs": {
        "dilate": "(1, 1)", 
        "kernel": "(3, 3)", 
        "no_bias": "False", 
        "num_filter": "64", 
        "num_group": "1", 
        "stride": "(1, 1)"
      }, 
      "inputs": [[264, 0, 0], [265, 0, 0], [266, 0, 0]]
    }, 
    {
      "op": "relu", 
      "name": "relu47", 
      "inputs": [[267, 0, 0]]
    }, 
    {
      "op": "Pad", 
      "name": "pad47", 
      "attrs": {
        "mode": "constant", 
        "pad_width": "(0, 0, 0, 0, 1, 1, 1, 1)"
      }, 
      "inputs": [[268, 0, 0]]
    }, 
    {
      "op": "null", 
      "name": "learned_84", 
      "attrs": {"__shape__": "(64, 64, 3, 3)"}, 
      "inputs": []
    }, 
    {
      "op": "null", 
      "name": "learned_85", 
      "attrs": {"__shape__": "(64,)"}, 
      "inputs": []
    }, 
    {
      "op": "Convolution", 
      "name": "convolution47", 
      "attrs": {
        "dilate": "(1, 1)", 
        "kernel": "(3, 3)", 
        "no_bias": "False", 
        "num_filter": "64", 
        "num_group": "1", 
        "stride": "(1, 1)"
      }, 
      "inputs": [[269, 0, 0], [270, 0, 0], [271, 0, 0]]
    }, 
    {
      "op": "broadcast_add", 
      "name": "broadcast_add14", 
      "inputs": [[272, 0, 0], [263, 0, 0]]
    }, 
    {
      "op": "Concat", 
      "name": "concat17", 
      "attrs": {
        "dim": "1", 
        "num_args": "2"
      }, 
      "inputs": [[257, 0, 0], [273, 0, 0]]
    }, 
    {
      "op": "Pad", 
      "name": "pad48", 
      "attrs": {
        "mode": "constant", 
        "pad_width": "(0, 0, 0, 0, 0, 0, 0, 0)"
      }, 
      "inputs": [[274, 0, 0]]
    }, 
    {
      "op": "null", 
      "name": "learned_94", 
      "attrs": {"__shape__": "(64, 256, 1, 1)"}, 
      "inputs": []
    }, 
    {
      "op": "null", 
      "name": "learned_95", 
      "attrs": {"__shape__": "(64,)"}, 
      "inputs": []
    }, 
    {
      "op": "Convolution", 
      "name": "convolution48", 
      "attrs": {
        "dilate": "(1, 1)", 
        "kernel": "(1, 1)", 
        "no_bias": "False", 
        "num_filter": "64", 
        "num_group": "1", 
        "stride": "(1, 1)"
      }, 
      "inputs": [[275, 0, 0], [276, 0, 0], [277, 0, 0]]
    }, 
    {
      "op": "relu", 
      "name": "relu48", 
      "inputs": [[278, 0, 0]]
    }, 
    {
      "op": "relu", 
      "name": "relu49", 
      "inputs": [[279, 0, 0]]
    }, 
    {
      "op": "Pad", 
      "name": "pad49", 
      "attrs": {
        "mode": "constant", 
        "pad_width": "(0, 0, 0, 0, 1, 1, 1, 1)"
      }, 
      "inputs": [[280, 0, 0]]
    }, 
    {
      "op": "null", 
      "name": "learned_86", 
      "attrs": {"__shape__": "(64, 64, 3, 3)"}, 
      "inputs": []
    }, 
    {
      "op": "null", 
      "name": "learned_87", 
      "attrs": {"__shape__": "(64,)"}, 
      "inputs": []
    }, 
    {
      "op": "Convolution", 
      "name": "convolution49", 
      "attrs": {
        "dilate": "(1, 1)", 
        "kernel": "(3, 3)", 
        "no_bias": "False", 
        "num_filter": "64", 
        "num_group": "1", 
        "stride": "(1, 1)"
      }, 
      "inputs": [[281, 0, 0], [282, 0, 0], [283, 0, 0]]
    }, 
    {
      "op": "relu", 
      "name": "relu50", 
      "inputs": [[284, 0, 0]]
    }, 
    {
      "op": "Pad", 
      "name": "pad50", 
      "attrs": {
        "mode": "constant", 
        "pad_width": "(0, 0, 0, 0, 1, 1, 1, 1)"
      }, 
      "inputs": [[285, 0, 0]]
    }, 
    {
      "op": "null", 
      "name": "learned_88", 
      "attrs": {"__shape__": "(64, 64, 3, 3)"}, 
      "inputs": []
    }, 
    {
      "op": "null", 
      "name": "learned_89", 
      "attrs": {"__shape__": "(64,)"}, 
      "inputs": []
    }, 
    {
      "op": "Convolution", 
      "name": "convolution50", 
      "attrs": {
        "dilate": "(1, 1)", 
        "kernel": "(3, 3)", 
        "no_bias": "False", 
        "num_filter": "64", 
        "num_group": "1", 
        "stride": "(1, 1)"
      }, 
      "inputs": [[286, 0, 0], [287, 0, 0], [288, 0, 0]]
    }, 
    {
      "op": "broadcast_add", 
      "name": "broadcast_add15", 
      "inputs": [[289, 0, 0], [280, 0, 0]]
    }, 
    {
      "op": "Concat", 
      "name": "concat18", 
      "attrs": {
        "dim": "1", 
        "num_args": "2"
      }, 
      "inputs": [[274, 0, 0], [290, 0, 0]]
    }, 
    {
      "op": "Pad", 
      "name": "pad51", 
      "attrs": {
        "mode": "constant", 
        "pad_width": "(0, 0, 0, 0, 0, 0, 0, 0)"
      }, 
      "inputs": [[291, 0, 0]]
    }, 
    {
      "op": "null", 
      "name": "learned_96", 
      "attrs": {"__shape__": "(64, 320, 1, 1)"}, 
      "inputs": []
    }, 
    {
      "op": "null", 
      "name": "learned_97", 
      "attrs": {"__shape__": "(64,)"}, 
      "inputs": []
    }, 
    {
      "op": "Convolution", 
      "name": "convolution51", 
      "attrs": {
        "dilate": "(1, 1)", 
        "kernel": "(1, 1)", 
        "no_bias": "False", 
        "num_filter": "64", 
        "num_group": "1", 
        "stride": "(1, 1)"
      }, 
      "inputs": [[292, 0, 0], [293, 0, 0], [294, 0, 0]]
    }, 
    {
      "op": "relu", 
      "name": "relu51", 
      "inputs": [[295, 0, 0]]
    }, 
    {
      "op": "Concat", 
      "name": "concat19", 
      "attrs": {
        "dim": "1", 
        "num_args": "2"
      }, 
      "inputs": [[223, 0, 0], [296, 0, 0]]
    }, 
    {
      "op": "Pad", 
      "name": "pad52", 
      "attrs": {
        "mode": "constant", 
        "pad_width": "(0, 0, 0, 0, 0, 0, 0, 0)"
      }, 
      "inputs": [[297, 0, 0]]
    }, 
    {
      "op": "null", 
      "name": "learned_200", 
      "attrs": {"__shape__": "(64, 320, 1, 1)"}, 
      "inputs": []
    }, 
    {
      "op": "null", 
      "name": "learned_201", 
      "attrs": {"__shape__": "(64,)"}, 
      "inputs": []
    }, 
    {
      "op": "Convolution", 
      "name": "convolution52", 
      "attrs": {
        "dilate": "(1, 1)", 
        "kernel": "(1, 1)", 
        "no_bias": "False", 
        "num_filter": "64", 
        "num_group": "1", 
        "stride": "(1, 1)"
      }, 
      "inputs": [[298, 0, 0], [299, 0, 0], [300, 0, 0]]
    }, 
    {
      "op": "relu", 
      "name": "relu52", 
      "inputs": [[301, 0, 0]]
    }, 
    {
      "op": "relu", 
      "name": "relu53", 
      "inputs": [[302, 0, 0]]
    }, 
    {
      "op": "Pad", 
      "name": "pad53", 
      "attrs": {
        "mode": "constant", 
        "pad_width": "(0, 0, 0, 0, 1, 1, 1, 1)"
      }, 
      "inputs": [[303, 0, 0]]
    }, 
    {
      "op": "null", 
      "name": "learned_98", 
      "attrs": {"__shape__": "(64, 64, 3, 3)"}, 
      "inputs": []
    }, 
    {
      "op": "null", 
      "name": "learned_99", 
      "attrs": {"__shape__": "(64,)"}, 
      "inputs": []
    }, 
    {
      "op": "Convolution", 
      "name": "convolution53", 
      "attrs": {
        "dilate": "(1, 1)", 
        "kernel": "(3, 3)", 
        "no_bias": "False", 
        "num_filter": "64", 
        "num_group": "1", 
        "stride": "(1, 1)"
      }, 
      "inputs": [[304, 0, 0], [305, 0, 0], [306, 0, 0]]
    }, 
    {
      "op": "relu", 
      "name": "relu54", 
      "inputs": [[307, 0, 0]]
    }, 
    {
      "op": "Pad", 
      "name": "pad54", 
      "attrs": {
        "mode": "constant", 
        "pad_width": "(0, 0, 0, 0, 1, 1, 1, 1)"
      }, 
      "inputs": [[308, 0, 0]]
    }, 
    {
      "op": "null", 
      "name": "learned_100", 
      "attrs": {"__shape__": "(64, 64, 3, 3)"}, 
      "inputs": []
    }, 
    {
      "op": "null", 
      "name": "learned_101", 
      "attrs": {"__shape__": "(64,)"}, 
      "inputs": []
    }, 
    {
      "op": "Convolution", 
      "name": "convolution54", 
      "attrs": {
        "dilate": "(1, 1)", 
        "kernel": "(3, 3)", 
        "no_bias": "False", 
        "num_filter": "64", 
        "num_group": "1", 
        "stride": "(1, 1)"
      }, 
      "inputs": [[309, 0, 0], [310, 0, 0], [311, 0, 0]]
    }, 
    {
      "op": "broadcast_add", 
      "name": "broadcast_add16", 
      "inputs": [[312, 0, 0], [303, 0, 0]]
    }, 
    {
      "op": "Concat", 
      "name": "concat20", 
      "attrs": {
        "dim": "1", 
        "num_args": "2"
      }, 
      "inputs": [[303, 0, 0], [313, 0, 0]]
    }, 
    {
      "op": "Pad", 
      "name": "pad55", 
      "attrs": {
        "mode": "constant", 
        "pad_width": "(0, 0, 0, 0, 0, 0, 0, 0)"
      }, 
      "inputs": [[314, 0, 0]]
    }, 
    {
      "op": "null", 
      "name": "learned_114", 
      "attrs": {"__shape__": "(64, 128, 1, 1)"}, 
      "inputs": []
    }, 
    {
      "op": "null", 
      "name": "learned_115", 
      "attrs": {"__shape__": "(64,)"}, 
      "inputs": []
    }, 
    {
      "op": "Convolution", 
      "name": "convolution55", 
      "attrs": {
        "dilate": "(1, 1)", 
        "kernel": "(1, 1)", 
        "no_bias": "False", 
        "num_filter": "64", 
        "num_group": "1", 
        "stride": "(1, 1)"
      }, 
      "inputs": [[315, 0, 0], [316, 0, 0], [317, 0, 0]]
    }, 
    {
      "op": "relu", 
      "name": "relu55", 
      "inputs": [[318, 0, 0]]
    }, 
    {
      "op": "relu", 
      "name": "relu56", 
      "inputs": [[319, 0, 0]]
    }, 
    {
      "op": "Pad", 
      "name": "pad56", 
      "attrs": {
        "mode": "constant", 
        "pad_width": "(0, 0, 0, 0, 1, 1, 1, 1)"
      }, 
      "inputs": [[320, 0, 0]]
    }, 
    {
      "op": "null", 
      "name": "learned_102", 
      "attrs": {"__shape__": "(64, 64, 3, 3)"}, 
      "inputs": []
    }, 
    {
      "op": "null", 
      "name": "learned_103", 
      "attrs": {"__shape__": "(64,)"}, 
      "inputs": []
    }, 
    {
      "op": "Convolution", 
      "name": "convolution56", 
      "attrs": {
        "dilate": "(1, 1)", 
        "kernel": "(3, 3)", 
        "no_bias": "False", 
        "num_filter": "64", 
        "num_group": "1", 
        "stride": "(1, 1)"
      }, 
      "inputs": [[321, 0, 0], [322, 0, 0], [323, 0, 0]]
    }, 
    {
      "op": "relu", 
      "name": "relu57", 
      "inputs": [[324, 0, 0]]
    }, 
    {
      "op": "Pad", 
      "name": "pad57", 
      "attrs": {
        "mode": "constant", 
        "pad_width": "(0, 0, 0, 0, 1, 1, 1, 1)"
      }, 
      "inputs": [[325, 0, 0]]
    }, 
    {
      "op": "null", 
      "name": "learned_104", 
      "attrs": {"__shape__": "(64, 64, 3, 3)"}, 
      "inputs": []
    }, 
    {
      "op": "null", 
      "name": "learned_105", 
      "attrs": {"__shape__": "(64,)"}, 
      "inputs": []
    }, 
    {
      "op": "Convolution", 
      "name": "convolution57", 
      "attrs": {
        "dilate": "(1, 1)", 
        "kernel": "(3, 3)", 
        "no_bias": "False", 
        "num_filter": "64", 
        "num_group": "1", 
        "stride": "(1, 1)"
      }, 
      "inputs": [[326, 0, 0], [327, 0, 0], [328, 0, 0]]
    }, 
    {
      "op": "broadcast_add", 
      "name": "broadcast_add17", 
      "inputs": [[329, 0, 0], [320, 0, 0]]
    }, 
    {
      "op": "Concat", 
      "name": "concat21", 
      "attrs": {
        "dim": "1", 
        "num_args": "2"
      }, 
      "inputs": [[314, 0, 0], [330, 0, 0]]
    }, 
    {
      "op": "Pad", 
      "name": "pad58", 
      "attrs": {
        "mode": "constant", 
        "pad_width": "(0, 0, 0, 0, 0, 0, 0, 0)"
      }, 
      "inputs": [[331, 0, 0]]
    }, 
    {
      "op": "null", 
      "name": "learned_116", 
      "attrs": {"__shape__": "(64, 192, 1, 1)"}, 
      "inputs": []
    }, 
    {
      "op": "null", 
      "name": "learned_117", 
      "attrs": {"__shape__": "(64,)"}, 
      "inputs": []
    }, 
    {
      "op": "Convolution", 
      "name": "convolution58", 
      "attrs": {
        "dilate": "(1, 1)", 
        "kernel": "(1, 1)", 
        "no_bias": "False", 
        "num_filter": "64", 
        "num_group": "1", 
        "stride": "(1, 1)"
      }, 
      "inputs": [[332, 0, 0], [333, 0, 0], [334, 0, 0]]
    }, 
    {
      "op": "relu", 
      "name": "relu58", 
      "inputs": [[335, 0, 0]]
    }, 
    {
      "op": "relu", 
      "name": "relu59", 
      "inputs": [[336, 0, 0]]
    }, 
    {
      "op": "Pad", 
      "name": "pad59", 
      "attrs": {
        "mode": "constant", 
        "pad_width": "(0, 0, 0, 0, 1, 1, 1, 1)"
      }, 
      "inputs": [[337, 0, 0]]
    }, 
    {
      "op": "null", 
      "name": "learned_106", 
      "attrs": {"__shape__": "(64, 64, 3, 3)"}, 
      "inputs": []
    }, 
    {
      "op": "null", 
      "name": "learned_107", 
      "attrs": {"__shape__": "(64,)"}, 
      "inputs": []
    }, 
    {
      "op": "Convolution", 
      "name": "convolution59", 
      "attrs": {
        "dilate": "(1, 1)", 
        "kernel": "(3, 3)", 
        "no_bias": "False", 
        "num_filter": "64", 
        "num_group": "1", 
        "stride": "(1, 1)"
      }, 
      "inputs": [[338, 0, 0], [339, 0, 0], [340, 0, 0]]
    }, 
    {
      "op": "relu", 
      "name": "relu60", 
      "inputs": [[341, 0, 0]]
    }, 
    {
      "op": "Pad", 
      "name": "pad60", 
      "attrs": {
        "mode": "constant", 
        "pad_width": "(0, 0, 0, 0, 1, 1, 1, 1)"
      }, 
      "inputs": [[342, 0, 0]]
    }, 
    {
      "op": "null", 
      "name": "learned_108", 
      "attrs": {"__shape__": "(64, 64, 3, 3)"}, 
      "inputs": []
    }, 
    {
      "op": "null", 
      "name": "learned_109", 
      "attrs": {"__shape__": "(64,)"}, 
      "inputs": []
    }, 
    {
      "op": "Convolution", 
      "name": "convolution60", 
      "attrs": {
        "dilate": "(1, 1)", 
        "kernel": "(3, 3)", 
        "no_bias": "False", 
        "num_filter": "64", 
        "num_group": "1", 
        "stride": "(1, 1)"
      }, 
      "inputs": [[343, 0, 0], [344, 0, 0], [345, 0, 0]]
    }, 
    {
      "op": "broadcast_add", 
      "name": "broadcast_add18", 
      "inputs": [[346, 0, 0], [337, 0, 0]]
    }, 
    {
      "op": "Concat", 
      "name": "concat22", 
      "attrs": {
        "dim": "1", 
        "num_args": "2"
      }, 
      "inputs": [[331, 0, 0], [347, 0, 0]]
    }, 
    {
      "op": "Pad", 
      "name": "pad61", 
      "attrs": {
        "mode": "constant", 
        "pad_width": "(0, 0, 0, 0, 0, 0, 0, 0)"
      }, 
      "inputs": [[348, 0, 0]]
    }, 
    {
      "op": "null", 
      "name": "learned_118", 
      "attrs": {"__shape__": "(64, 256, 1, 1)"}, 
      "inputs": []
    }, 
    {
      "op": "null", 
      "name": "learned_119", 
      "attrs": {"__shape__": "(64,)"}, 
      "inputs": []
    }, 
    {
      "op": "Convolution", 
      "name": "convolution61", 
      "attrs": {
        "dilate": "(1, 1)", 
        "kernel": "(1, 1)", 
        "no_bias": "False", 
        "num_filter": "64", 
        "num_group": "1", 
        "stride": "(1, 1)"
      }, 
      "inputs": [[349, 0, 0], [350, 0, 0], [351, 0, 0]]
    }, 
    {
      "op": "relu", 
      "name": "relu61", 
      "inputs": [[352, 0, 0]]
    }, 
    {
      "op": "relu", 
      "name": "relu62", 
      "inputs": [[353, 0, 0]]
    }, 
    {
      "op": "Pad", 
      "name": "pad62", 
      "attrs": {
        "mode": "constant", 
        "pad_width": "(0, 0, 0, 0, 1, 1, 1, 1)"
      }, 
      "inputs": [[354, 0, 0]]
    }, 
    {
      "op": "null", 
      "name": "learned_110", 
      "attrs": {"__shape__": "(64, 64, 3, 3)"}, 
      "inputs": []
    }, 
    {
      "op": "null", 
      "name": "learned_111", 
      "attrs": {"__shape__": "(64,)"}, 
      "inputs": []
    }, 
    {
      "op": "Convolution", 
      "name": "convolution62", 
      "attrs": {
        "dilate": "(1, 1)", 
        "kernel": "(3, 3)", 
        "no_bias": "False", 
        "num_filter": "64", 
        "num_group": "1", 
        "stride": "(1, 1)"
      }, 
      "inputs": [[355, 0, 0], [356, 0, 0], [357, 0, 0]]
    }, 
    {
      "op": "relu", 
      "name": "relu63", 
      "inputs": [[358, 0, 0]]
    }, 
    {
      "op": "Pad", 
      "name": "pad63", 
      "attrs": {
        "mode": "constant", 
        "pad_width": "(0, 0, 0, 0, 1, 1, 1, 1)"
      }, 
      "inputs": [[359, 0, 0]]
    }, 
    {
      "op": "null", 
      "name": "learned_112", 
      "attrs": {"__shape__": "(64, 64, 3, 3)"}, 
      "inputs": []
    }, 
    {
      "op": "null", 
      "name": "learned_113", 
      "attrs": {"__shape__": "(64,)"}, 
      "inputs": []
    }, 
    {
      "op": "Convolution", 
      "name": "convolution63", 
      "attrs": {
        "dilate": "(1, 1)", 
        "kernel": "(3, 3)", 
        "no_bias": "False", 
        "num_filter": "64", 
        "num_group": "1", 
        "stride": "(1, 1)"
      }, 
      "inputs": [[360, 0, 0], [361, 0, 0], [362, 0, 0]]
    }, 
    {
      "op": "broadcast_add", 
      "name": "broadcast_add19", 
      "inputs": [[363, 0, 0], [354, 0, 0]]
    }, 
    {
      "op": "Concat", 
      "name": "concat23", 
      "attrs": {
        "dim": "1", 
        "num_args": "2"
      }, 
      "inputs": [[348, 0, 0], [364, 0, 0]]
    }, 
    {
      "op": "Pad", 
      "name": "pad64", 
      "attrs": {
        "mode": "constant", 
        "pad_width": "(0, 0, 0, 0, 0, 0, 0, 0)"
      }, 
      "inputs": [[365, 0, 0]]
    }, 
    {
      "op": "null", 
      "name": "learned_120", 
      "attrs": {"__shape__": "(64, 320, 1, 1)"}, 
      "inputs": []
    }, 
    {
      "op": "null", 
      "name": "learned_121", 
      "attrs": {"__shape__": "(64,)"}, 
      "inputs": []
    }, 
    {
      "op": "Convolution", 
      "name": "convolution64", 
      "attrs": {
        "dilate": "(1, 1)", 
        "kernel": "(1, 1)", 
        "no_bias": "False", 
        "num_filter": "64", 
        "num_group": "1", 
        "stride": "(1, 1)"
      }, 
      "inputs": [[366, 0, 0], [367, 0, 0], [368, 0, 0]]
    }, 
    {
      "op": "relu", 
      "name": "relu64", 
      "inputs": [[369, 0, 0]]
    }, 
    {
      "op": "Concat", 
      "name": "concat24", 
      "attrs": {
        "dim": "1", 
        "num_args": "2"
      }, 
      "inputs": [[297, 0, 0], [370, 0, 0]]
    }, 
    {
      "op": "Pad", 
      "name": "pad65", 
      "attrs": {
        "mode": "constant", 
        "pad_width": "(0, 0, 0, 0, 0, 0, 0, 0)"
      }, 
      "inputs": [[371, 0, 0]]
    }, 
    {
      "op": "null", 
      "name": "learned_202", 
      "attrs": {"__shape__": "(64, 384, 1, 1)"}, 
      "inputs": []
    }, 
    {
      "op": "null", 
      "name": "learned_203", 
      "attrs": {"__shape__": "(64,)"}, 
      "inputs": []
    }, 
    {
      "op": "Convolution", 
      "name": "convolution65", 
      "attrs": {
        "dilate": "(1, 1)", 
        "kernel": "(1, 1)", 
        "no_bias": "False", 
        "num_filter": "64", 
        "num_group": "1", 
        "stride": "(1, 1)"
      }, 
      "inputs": [[372, 0, 0], [373, 0, 0], [374, 0, 0]]
    }, 
    {
      "op": "relu", 
      "name": "relu65", 
      "inputs": [[375, 0, 0]]
    }, 
    {
      "op": "relu", 
      "name": "relu66", 
      "inputs": [[376, 0, 0]]
    }, 
    {
      "op": "Pad", 
      "name": "pad66", 
      "attrs": {
        "mode": "constant", 
        "pad_width": "(0, 0, 0, 0, 1, 1, 1, 1)"
      }, 
      "inputs": [[377, 0, 0]]
    }, 
    {
      "op": "null", 
      "name": "learned_122", 
      "attrs": {"__shape__": "(64, 64, 3, 3)"}, 
      "inputs": []
    }, 
    {
      "op": "null", 
      "name": "learned_123", 
      "attrs": {"__shape__": "(64,)"}, 
      "inputs": []
    }, 
    {
      "op": "Convolution", 
      "name": "convolution66", 
      "attrs": {
        "dilate": "(1, 1)", 
        "kernel": "(3, 3)", 
        "no_bias": "False", 
        "num_filter": "64", 
        "num_group": "1", 
        "stride": "(1, 1)"
      }, 
      "inputs": [[378, 0, 0], [379, 0, 0], [380, 0, 0]]
    }, 
    {
      "op": "relu", 
      "name": "relu67", 
      "inputs": [[381, 0, 0]]
    }, 
    {
      "op": "Pad", 
      "name": "pad67", 
      "attrs": {
        "mode": "constant", 
        "pad_width": "(0, 0, 0, 0, 1, 1, 1, 1)"
      }, 
      "inputs": [[382, 0, 0]]
    }, 
    {
      "op": "null", 
      "name": "learned_124", 
      "attrs": {"__shape__": "(64, 64, 3, 3)"}, 
      "inputs": []
    }, 
    {
      "op": "null", 
      "name": "learned_125", 
      "attrs": {"__shape__": "(64,)"}, 
      "inputs": []
    }, 
    {
      "op": "Convolution", 
      "name": "convolution67", 
      "attrs": {
        "dilate": "(1, 1)", 
        "kernel": "(3, 3)", 
        "no_bias": "False", 
        "num_filter": "64", 
        "num_group": "1", 
        "stride": "(1, 1)"
      }, 
      "inputs": [[383, 0, 0], [384, 0, 0], [385, 0, 0]]
    }, 
    {
      "op": "broadcast_add", 
      "name": "broadcast_add20", 
      "inputs": [[386, 0, 0], [377, 0, 0]]
    }, 
    {
      "op": "Concat", 
      "name": "concat25", 
      "attrs": {
        "dim": "1", 
        "num_args": "2"
      }, 
      "inputs": [[377, 0, 0], [387, 0, 0]]
    }, 
    {
      "op": "Pad", 
      "name": "pad68", 
      "attrs": {
        "mode": "constant", 
        "pad_width": "(0, 0, 0, 0, 0, 0, 0, 0)"
      }, 
      "inputs": [[388, 0, 0]]
    }, 
    {
      "op": "null", 
      "name": "learned_138", 
      "attrs": {"__shape__": "(64, 128, 1, 1)"}, 
      "inputs": []
    }, 
    {
      "op": "null", 
      "name": "learned_139", 
      "attrs": {"__shape__": "(64,)"}, 
      "inputs": []
    }, 
    {
      "op": "Convolution", 
      "name": "convolution68", 
      "attrs": {
        "dilate": "(1, 1)", 
        "kernel": "(1, 1)", 
        "no_bias": "False", 
        "num_filter": "64", 
        "num_group": "1", 
        "stride": "(1, 1)"
      }, 
      "inputs": [[389, 0, 0], [390, 0, 0], [391, 0, 0]]
    }, 
    {
      "op": "relu", 
      "name": "relu68", 
      "inputs": [[392, 0, 0]]
    }, 
    {
      "op": "relu", 
      "name": "relu69", 
      "inputs": [[393, 0, 0]]
    }, 
    {
      "op": "Pad", 
      "name": "pad69", 
      "attrs": {
        "mode": "constant", 
        "pad_width": "(0, 0, 0, 0, 1, 1, 1, 1)"
      }, 
      "inputs": [[394, 0, 0]]
    }, 
    {
      "op": "null", 
      "name": "learned_126", 
      "attrs": {"__shape__": "(64, 64, 3, 3)"}, 
      "inputs": []
    }, 
    {
      "op": "null", 
      "name": "learned_127", 
      "attrs": {"__shape__": "(64,)"}, 
      "inputs": []
    }, 
    {
      "op": "Convolution", 
      "name": "convolution69", 
      "attrs": {
        "dilate": "(1, 1)", 
        "kernel": "(3, 3)", 
        "no_bias": "False", 
        "num_filter": "64", 
        "num_group": "1", 
        "stride": "(1, 1)"
      }, 
      "inputs": [[395, 0, 0], [396, 0, 0], [397, 0, 0]]
    }, 
    {
      "op": "relu", 
      "name": "relu70", 
      "inputs": [[398, 0, 0]]
    }, 
    {
      "op": "Pad", 
      "name": "pad70", 
      "attrs": {
        "mode": "constant", 
        "pad_width": "(0, 0, 0, 0, 1, 1, 1, 1)"
      }, 
      "inputs": [[399, 0, 0]]
    }, 
    {
      "op": "null", 
      "name": "learned_128", 
      "attrs": {"__shape__": "(64, 64, 3, 3)"}, 
      "inputs": []
    }, 
    {
      "op": "null", 
      "name": "learned_129", 
      "attrs": {"__shape__": "(64,)"}, 
      "inputs": []
    }, 
    {
      "op": "Convolution", 
      "name": "convolution70", 
      "attrs": {
        "dilate": "(1, 1)", 
        "kernel": "(3, 3)", 
        "no_bias": "False", 
        "num_filter": "64", 
        "num_group": "1", 
        "stride": "(1, 1)"
      }, 
      "inputs": [[400, 0, 0], [401, 0, 0], [402, 0, 0]]
    }, 
    {
      "op": "broadcast_add", 
      "name": "broadcast_add21", 
      "inputs": [[403, 0, 0], [394, 0, 0]]
    }, 
    {
      "op": "Concat", 
      "name": "concat26", 
      "attrs": {
        "dim": "1", 
        "num_args": "2"
      }, 
      "inputs": [[388, 0, 0], [404, 0, 0]]
    }, 
    {
      "op": "Pad", 
      "name": "pad71", 
      "attrs": {
        "mode": "constant", 
        "pad_width": "(0, 0, 0, 0, 0, 0, 0, 0)"
      }, 
      "inputs": [[405, 0, 0]]
    }, 
    {
      "op": "null", 
      "name": "learned_140", 
      "attrs": {"__shape__": "(64, 192, 1, 1)"}, 
      "inputs": []
    }, 
    {
      "op": "null", 
      "name": "learned_141", 
      "attrs": {"__shape__": "(64,)"}, 
      "inputs": []
    }, 
    {
      "op": "Convolution", 
      "name": "convolution71", 
      "attrs": {
        "dilate": "(1, 1)", 
        "kernel": "(1, 1)", 
        "no_bias": "False", 
        "num_filter": "64", 
        "num_group": "1", 
        "stride": "(1, 1)"
      }, 
      "inputs": [[406, 0, 0], [407, 0, 0], [408, 0, 0]]
    }, 
    {
      "op": "relu", 
      "name": "relu71", 
      "inputs": [[409, 0, 0]]
    }, 
    {
      "op": "relu", 
      "name": "relu72", 
      "inputs": [[410, 0, 0]]
    }, 
    {
      "op": "Pad", 
      "name": "pad72", 
      "attrs": {
        "mode": "constant", 
        "pad_width": "(0, 0, 0, 0, 1, 1, 1, 1)"
      }, 
      "inputs": [[411, 0, 0]]
    }, 
    {
      "op": "null", 
      "name": "learned_130", 
      "attrs": {"__shape__": "(64, 64, 3, 3)"}, 
      "inputs": []
    }, 
    {
      "op": "null", 
      "name": "learned_131", 
      "attrs": {"__shape__": "(64,)"}, 
      "inputs": []
    }, 
    {
      "op": "Convolution", 
      "name": "convolution72", 
      "attrs": {
        "dilate": "(1, 1)", 
        "kernel": "(3, 3)", 
        "no_bias": "False", 
        "num_filter": "64", 
        "num_group": "1", 
        "stride": "(1, 1)"
      }, 
      "inputs": [[412, 0, 0], [413, 0, 0], [414, 0, 0]]
    }, 
    {
      "op": "relu", 
      "name": "relu73", 
      "inputs": [[415, 0, 0]]
    }, 
    {
      "op": "Pad", 
      "name": "pad73", 
      "attrs": {
        "mode": "constant", 
        "pad_width": "(0, 0, 0, 0, 1, 1, 1, 1)"
      }, 
      "inputs": [[416, 0, 0]]
    }, 
    {
      "op": "null", 
      "name": "learned_132", 
      "attrs": {"__shape__": "(64, 64, 3, 3)"}, 
      "inputs": []
    }, 
    {
      "op": "null", 
      "name": "learned_133", 
      "attrs": {"__shape__": "(64,)"}, 
      "inputs": []
    }, 
    {
      "op": "Convolution", 
      "name": "convolution73", 
      "attrs": {
        "dilate": "(1, 1)", 
        "kernel": "(3, 3)", 
        "no_bias": "False", 
        "num_filter": "64", 
        "num_group": "1", 
        "stride": "(1, 1)"
      }, 
      "inputs": [[417, 0, 0], [418, 0, 0], [419, 0, 0]]
    }, 
    {
      "op": "broadcast_add", 
      "name": "broadcast_add22", 
      "inputs": [[420, 0, 0], [411, 0, 0]]
    }, 
    {
      "op": "Concat", 
      "name": "concat27", 
      "attrs": {
        "dim": "1", 
        "num_args": "2"
      }, 
      "inputs": [[405, 0, 0], [421, 0, 0]]
    }, 
    {
      "op": "Pad", 
      "name": "pad74", 
      "attrs": {
        "mode": "constant", 
        "pad_width": "(0, 0, 0, 0, 0, 0, 0, 0)"
      }, 
      "inputs": [[422, 0, 0]]
    }, 
    {
      "op": "null", 
      "name": "learned_142", 
      "attrs": {"__shape__": "(64, 256, 1, 1)"}, 
      "inputs": []
    }, 
    {
      "op": "null", 
      "name": "learned_143", 
      "attrs": {"__shape__": "(64,)"}, 
      "inputs": []
    }, 
    {
      "op": "Convolution", 
      "name": "convolution74", 
      "attrs": {
        "dilate": "(1, 1)", 
        "kernel": "(1, 1)", 
        "no_bias": "False", 
        "num_filter": "64", 
        "num_group": "1", 
        "stride": "(1, 1)"
      }, 
      "inputs": [[423, 0, 0], [424, 0, 0], [425, 0, 0]]
    }, 
    {
      "op": "relu", 
      "name": "relu74", 
      "inputs": [[426, 0, 0]]
    }, 
    {
      "op": "relu", 
      "name": "relu75", 
      "inputs": [[427, 0, 0]]
    }, 
    {
      "op": "Pad", 
      "name": "pad75", 
      "attrs": {
        "mode": "constant", 
        "pad_width": "(0, 0, 0, 0, 1, 1, 1, 1)"
      }, 
      "inputs": [[428, 0, 0]]
    }, 
    {
      "op": "null", 
      "name": "learned_134", 
      "attrs": {"__shape__": "(64, 64, 3, 3)"}, 
      "inputs": []
    }, 
    {
      "op": "null", 
      "name": "learned_135", 
      "attrs": {"__shape__": "(64,)"}, 
      "inputs": []
    }, 
    {
      "op": "Convolution", 
      "name": "convolution75", 
      "attrs": {
        "dilate": "(1, 1)", 
        "kernel": "(3, 3)", 
        "no_bias": "False", 
        "num_filter": "64", 
        "num_group": "1", 
        "stride": "(1, 1)"
      }, 
      "inputs": [[429, 0, 0], [430, 0, 0], [431, 0, 0]]
    }, 
    {
      "op": "relu", 
      "name": "relu76", 
      "inputs": [[432, 0, 0]]
    }, 
    {
      "op": "Pad", 
      "name": "pad76", 
      "attrs": {
        "mode": "constant", 
        "pad_width": "(0, 0, 0, 0, 1, 1, 1, 1)"
      }, 
      "inputs": [[433, 0, 0]]
    }, 
    {
      "op": "null", 
      "name": "learned_136", 
      "attrs": {"__shape__": "(64, 64, 3, 3)"}, 
      "inputs": []
    }, 
    {
      "op": "null", 
      "name": "learned_137", 
      "attrs": {"__shape__": "(64,)"}, 
      "inputs": []
    }, 
    {
      "op": "Convolution", 
      "name": "convolution76", 
      "attrs": {
        "dilate": "(1, 1)", 
        "kernel": "(3, 3)", 
        "no_bias": "False", 
        "num_filter": "64", 
        "num_group": "1", 
        "stride": "(1, 1)"
      }, 
      "inputs": [[434, 0, 0], [435, 0, 0], [436, 0, 0]]
    }, 
    {
      "op": "broadcast_add", 
      "name": "broadcast_add23", 
      "inputs": [[437, 0, 0], [428, 0, 0]]
    }, 
    {
      "op": "Concat", 
      "name": "concat28", 
      "attrs": {
        "dim": "1", 
        "num_args": "2"
      }, 
      "inputs": [[422, 0, 0], [438, 0, 0]]
    }, 
    {
      "op": "Pad", 
      "name": "pad77", 
      "attrs": {
        "mode": "constant", 
        "pad_width": "(0, 0, 0, 0, 0, 0, 0, 0)"
      }, 
      "inputs": [[439, 0, 0]]
    }, 
    {
      "op": "null", 
      "name": "learned_144", 
      "attrs": {"__shape__": "(64, 320, 1, 1)"}, 
      "inputs": []
    }, 
    {
      "op": "null", 
      "name": "learned_145", 
      "attrs": {"__shape__": "(64,)"}, 
      "inputs": []
    }, 
    {
      "op": "Convolution", 
      "name": "convolution77", 
      "attrs": {
        "dilate": "(1, 1)", 
        "kernel": "(1, 1)", 
        "no_bias": "False", 
        "num_filter": "64", 
        "num_group": "1", 
        "stride": "(1, 1)"
      }, 
      "inputs": [[440, 0, 0], [441, 0, 0], [442, 0, 0]]
    }, 
    {
      "op": "relu", 
      "name": "relu77", 
      "inputs": [[443, 0, 0]]
    }, 
    {
      "op": "Concat", 
      "name": "concat29", 
      "attrs": {
        "dim": "1", 
        "num_args": "2"
      }, 
      "inputs": [[371, 0, 0], [444, 0, 0]]
    }, 
    {
      "op": "Pad", 
      "name": "pad78", 
      "attrs": {
        "mode": "constant", 
        "pad_width": "(0, 0, 0, 0, 0, 0, 0, 0)"
      }, 
      "inputs": [[445, 0, 0]]
    }, 
    {
      "op": "null", 
      "name": "learned_204", 
      "attrs": {"__shape__": "(64, 448, 1, 1)"}, 
      "inputs": []
    }, 
    {
      "op": "null", 
      "name": "learned_205", 
      "attrs": {"__shape__": "(64,)"}, 
      "inputs": []
    }, 
    {
      "op": "Convolution", 
      "name": "convolution78", 
      "attrs": {
        "dilate": "(1, 1)", 
        "kernel": "(1, 1)", 
        "no_bias": "False", 
        "num_filter": "64", 
        "num_group": "1", 
        "stride": "(1, 1)"
      }, 
      "inputs": [[446, 0, 0], [447, 0, 0], [448, 0, 0]]
    }, 
    {
      "op": "relu", 
      "name": "relu78", 
      "inputs": [[449, 0, 0]]
    }, 
    {
      "op": "relu", 
      "name": "relu79", 
      "inputs": [[450, 0, 0]]
    }, 
    {
      "op": "Pad", 
      "name": "pad79", 
      "attrs": {
        "mode": "constant", 
        "pad_width": "(0, 0, 0, 0, 1, 1, 1, 1)"
      }, 
      "inputs": [[451, 0, 0]]
    }, 
    {
      "op": "null", 
      "name": "learned_146", 
      "attrs": {"__shape__": "(64, 64, 3, 3)"}, 
      "inputs": []
    }, 
    {
      "op": "null", 
      "name": "learned_147", 
      "attrs": {"__shape__": "(64,)"}, 
      "inputs": []
    }, 
    {
      "op": "Convolution", 
      "name": "convolution79", 
      "attrs": {
        "dilate": "(1, 1)", 
        "kernel": "(3, 3)", 
        "no_bias": "False", 
        "num_filter": "64", 
        "num_group": "1", 
        "stride": "(1, 1)"
      }, 
      "inputs": [[452, 0, 0], [453, 0, 0], [454, 0, 0]]
    }, 
    {
      "op": "relu", 
      "name": "relu80", 
      "inputs": [[455, 0, 0]]
    }, 
    {
      "op": "Pad", 
      "name": "pad80", 
      "attrs": {
        "mode": "constant", 
        "pad_width": "(0, 0, 0, 0, 1, 1, 1, 1)"
      }, 
      "inputs": [[456, 0, 0]]
    }, 
    {
      "op": "null", 
      "name": "learned_148", 
      "attrs": {"__shape__": "(64, 64, 3, 3)"}, 
      "inputs": []
    }, 
    {
      "op": "null", 
      "name": "learned_149", 
      "attrs": {"__shape__": "(64,)"}, 
      "inputs": []
    }, 
    {
      "op": "Convolution", 
      "name": "convolution80", 
      "attrs": {
        "dilate": "(1, 1)", 
        "kernel": "(3, 3)", 
        "no_bias": "False", 
        "num_filter": "64", 
        "num_group": "1", 
        "stride": "(1, 1)"
      }, 
      "inputs": [[457, 0, 0], [458, 0, 0], [459, 0, 0]]
    }, 
    {
      "op": "broadcast_add", 
      "name": "broadcast_add24", 
      "inputs": [[460, 0, 0], [451, 0, 0]]
    }, 
    {
      "op": "Concat", 
      "name": "concat30", 
      "attrs": {
        "dim": "1", 
        "num_args": "2"
      }, 
      "inputs": [[451, 0, 0], [461, 0, 0]]
    }, 
    {
      "op": "Pad", 
      "name": "pad81", 
      "attrs": {
        "mode": "constant", 
        "pad_width": "(0, 0, 0, 0, 0, 0, 0, 0)"
      }, 
      "inputs": [[462, 0, 0]]
    }, 
    {
      "op": "null", 
      "name": "learned_162", 
      "attrs": {"__shape__": "(64, 128, 1, 1)"}, 
      "inputs": []
    }, 
    {
      "op": "null", 
      "name": "learned_163", 
      "attrs": {"__shape__": "(64,)"}, 
      "inputs": []
    }, 
    {
      "op": "Convolution", 
      "name": "convolution81", 
      "attrs": {
        "dilate": "(1, 1)", 
        "kernel": "(1, 1)", 
        "no_bias": "False", 
        "num_filter": "64", 
        "num_group": "1", 
        "stride": "(1, 1)"
      }, 
      "inputs": [[463, 0, 0], [464, 0, 0], [465, 0, 0]]
    }, 
    {
      "op": "relu", 
      "name": "relu81", 
      "inputs": [[466, 0, 0]]
    }, 
    {
      "op": "relu", 
      "name": "relu82", 
      "inputs": [[467, 0, 0]]
    }, 
    {
      "op": "Pad", 
      "name": "pad82", 
      "attrs": {
        "mode": "constant", 
        "pad_width": "(0, 0, 0, 0, 1, 1, 1, 1)"
      }, 
      "inputs": [[468, 0, 0]]
    }, 
    {
      "op": "null", 
      "name": "learned_150", 
      "attrs": {"__shape__": "(64, 64, 3, 3)"}, 
      "inputs": []
    }, 
    {
      "op": "null", 
      "name": "learned_151", 
      "attrs": {"__shape__": "(64,)"}, 
      "inputs": []
    }, 
    {
      "op": "Convolution", 
      "name": "convolution82", 
      "attrs": {
        "dilate": "(1, 1)", 
        "kernel": "(3, 3)", 
        "no_bias": "False", 
        "num_filter": "64", 
        "num_group": "1", 
        "stride": "(1, 1)"
      }, 
      "inputs": [[469, 0, 0], [470, 0, 0], [471, 0, 0]]
    }, 
    {
      "op": "relu", 
      "name": "relu83", 
      "inputs": [[472, 0, 0]]
    }, 
    {
      "op": "Pad", 
      "name": "pad83", 
      "attrs": {
        "mode": "constant", 
        "pad_width": "(0, 0, 0, 0, 1, 1, 1, 1)"
      }, 
      "inputs": [[473, 0, 0]]
    }, 
    {
      "op": "null", 
      "name": "learned_152", 
      "attrs": {"__shape__": "(64, 64, 3, 3)"}, 
      "inputs": []
    }, 
    {
      "op": "null", 
      "name": "learned_153", 
      "attrs": {"__shape__": "(64,)"}, 
      "inputs": []
    }, 
    {
      "op": "Convolution", 
      "name": "convolution83", 
      "attrs": {
        "dilate": "(1, 1)", 
        "kernel": "(3, 3)", 
        "no_bias": "False", 
        "num_filter": "64", 
        "num_group": "1", 
        "stride": "(1, 1)"
      }, 
      "inputs": [[474, 0, 0], [475, 0, 0], [476, 0, 0]]
    }, 
    {
      "op": "broadcast_add", 
      "name": "broadcast_add25", 
      "inputs": [[477, 0, 0], [468, 0, 0]]
    }, 
    {
      "op": "Concat", 
      "name": "concat31", 
      "attrs": {
        "dim": "1", 
        "num_args": "2"
      }, 
      "inputs": [[462, 0, 0], [478, 0, 0]]
    }, 
    {
      "op": "Pad", 
      "name": "pad84", 
      "attrs": {
        "mode": "constant", 
        "pad_width": "(0, 0, 0, 0, 0, 0, 0, 0)"
      }, 
      "inputs": [[479, 0, 0]]
    }, 
    {
      "op": "null", 
      "name": "learned_164", 
      "attrs": {"__shape__": "(64, 192, 1, 1)"}, 
      "inputs": []
    }, 
    {
      "op": "null", 
      "name": "learned_165", 
      "attrs": {"__shape__": "(64,)"}, 
      "inputs": []
    }, 
    {
      "op": "Convolution", 
      "name": "convolution84", 
      "attrs": {
        "dilate": "(1, 1)", 
        "kernel": "(1, 1)", 
        "no_bias": "False", 
        "num_filter": "64", 
        "num_group": "1", 
        "stride": "(1, 1)"
      }, 
      "inputs": [[480, 0, 0], [481, 0, 0], [482, 0, 0]]
    }, 
    {
      "op": "relu", 
      "name": "relu84", 
      "inputs": [[483, 0, 0]]
    }, 
    {
      "op": "relu", 
      "name": "relu85", 
      "inputs": [[484, 0, 0]]
    }, 
    {
      "op": "Pad", 
      "name": "pad85", 
      "attrs": {
        "mode": "constant", 
        "pad_width": "(0, 0, 0, 0, 1, 1, 1, 1)"
      }, 
      "inputs": [[485, 0, 0]]
    }, 
    {
      "op": "null", 
      "name": "learned_154", 
      "attrs": {"__shape__": "(64, 64, 3, 3)"}, 
      "inputs": []
    }, 
    {
      "op": "null", 
      "name": "learned_155", 
      "attrs": {"__shape__": "(64,)"}, 
      "inputs": []
    }, 
    {
      "op": "Convolution", 
      "name": "convolution85", 
      "attrs": {
        "dilate": "(1, 1)", 
        "kernel": "(3, 3)", 
        "no_bias": "False", 
        "num_filter": "64", 
        "num_group": "1", 
        "stride": "(1, 1)"
      }, 
      "inputs": [[486, 0, 0], [487, 0, 0], [488, 0, 0]]
    }, 
    {
      "op": "relu", 
      "name": "relu86", 
      "inputs": [[489, 0, 0]]
    }, 
    {
      "op": "Pad", 
      "name": "pad86", 
      "attrs": {
        "mode": "constant", 
        "pad_width": "(0, 0, 0, 0, 1, 1, 1, 1)"
      }, 
      "inputs": [[490, 0, 0]]
    }, 
    {
      "op": "null", 
      "name": "learned_156", 
      "attrs": {"__shape__": "(64, 64, 3, 3)"}, 
      "inputs": []
    }, 
    {
      "op": "null", 
      "name": "learned_157", 
      "attrs": {"__shape__": "(64,)"}, 
      "inputs": []
    }, 
    {
      "op": "Convolution", 
      "name": "convolution86", 
      "attrs": {
        "dilate": "(1, 1)", 
        "kernel": "(3, 3)", 
        "no_bias": "False", 
        "num_filter": "64", 
        "num_group": "1", 
        "stride": "(1, 1)"
      }, 
      "inputs": [[491, 0, 0], [492, 0, 0], [493, 0, 0]]
    }, 
    {
      "op": "broadcast_add", 
      "name": "broadcast_add26", 
      "inputs": [[494, 0, 0], [485, 0, 0]]
    }, 
    {
      "op": "Concat", 
      "name": "concat32", 
      "attrs": {
        "dim": "1", 
        "num_args": "2"
      }, 
      "inputs": [[479, 0, 0], [495, 0, 0]]
    }, 
    {
      "op": "Pad", 
      "name": "pad87", 
      "attrs": {
        "mode": "constant", 
        "pad_width": "(0, 0, 0, 0, 0, 0, 0, 0)"
      }, 
      "inputs": [[496, 0, 0]]
    }, 
    {
      "op": "null", 
      "name": "learned_166", 
      "attrs": {"__shape__": "(64, 256, 1, 1)"}, 
      "inputs": []
    }, 
    {
      "op": "null", 
      "name": "learned_167", 
      "attrs": {"__shape__": "(64,)"}, 
      "inputs": []
    }, 
    {
      "op": "Convolution", 
      "name": "convolution87", 
      "attrs": {
        "dilate": "(1, 1)", 
        "kernel": "(1, 1)", 
        "no_bias": "False", 
        "num_filter": "64", 
        "num_group": "1", 
        "stride": "(1, 1)"
      }, 
      "inputs": [[497, 0, 0], [498, 0, 0], [499, 0, 0]]
    }, 
    {
      "op": "relu", 
      "name": "relu87", 
      "inputs": [[500, 0, 0]]
    }, 
    {
      "op": "relu", 
      "name": "relu88", 
      "inputs": [[501, 0, 0]]
    }, 
    {
      "op": "Pad", 
      "name": "pad88", 
      "attrs": {
        "mode": "constant", 
        "pad_width": "(0, 0, 0, 0, 1, 1, 1, 1)"
      }, 
      "inputs": [[502, 0, 0]]
    }, 
    {
      "op": "null", 
      "name": "learned_158", 
      "attrs": {"__shape__": "(64, 64, 3, 3)"}, 
      "inputs": []
    }, 
    {
      "op": "null", 
      "name": "learned_159", 
      "attrs": {"__shape__": "(64,)"}, 
      "inputs": []
    }, 
    {
      "op": "Convolution", 
      "name": "convolution88", 
      "attrs": {
        "dilate": "(1, 1)", 
        "kernel": "(3, 3)", 
        "no_bias": "False", 
        "num_filter": "64", 
        "num_group": "1", 
        "stride": "(1, 1)"
      }, 
      "inputs": [[503, 0, 0], [504, 0, 0], [505, 0, 0]]
    }, 
    {
      "op": "relu", 
      "name": "relu89", 
      "inputs": [[506, 0, 0]]
    }, 
    {
      "op": "Pad", 
      "name": "pad89", 
      "attrs": {
        "mode": "constant", 
        "pad_width": "(0, 0, 0, 0, 1, 1, 1, 1)"
      }, 
      "inputs": [[507, 0, 0]]
    }, 
    {
      "op": "null", 
      "name": "learned_160", 
      "attrs": {"__shape__": "(64, 64, 3, 3)"}, 
      "inputs": []
    }, 
    {
      "op": "null", 
      "name": "learned_161", 
      "attrs": {"__shape__": "(64,)"}, 
      "inputs": []
    }, 
    {
      "op": "Convolution", 
      "name": "convolution89", 
      "attrs": {
        "dilate": "(1, 1)", 
        "kernel": "(3, 3)", 
        "no_bias": "False", 
        "num_filter": "64", 
        "num_group": "1", 
        "stride": "(1, 1)"
      }, 
      "inputs": [[508, 0, 0], [509, 0, 0], [510, 0, 0]]
    }, 
    {
      "op": "broadcast_add", 
      "name": "broadcast_add27", 
      "inputs": [[511, 0, 0], [502, 0, 0]]
    }, 
    {
      "op": "Concat", 
      "name": "concat33", 
      "attrs": {
        "dim": "1", 
        "num_args": "2"
      }, 
      "inputs": [[496, 0, 0], [512, 0, 0]]
    }, 
    {
      "op": "Pad", 
      "name": "pad90", 
      "attrs": {
        "mode": "constant", 
        "pad_width": "(0, 0, 0, 0, 0, 0, 0, 0)"
      }, 
      "inputs": [[513, 0, 0]]
    }, 
    {
      "op": "null", 
      "name": "learned_168", 
      "attrs": {"__shape__": "(64, 320, 1, 1)"}, 
      "inputs": []
    }, 
    {
      "op": "null", 
      "name": "learned_169", 
      "attrs": {"__shape__": "(64,)"}, 
      "inputs": []
    }, 
    {
      "op": "Convolution", 
      "name": "convolution90", 
      "attrs": {
        "dilate": "(1, 1)", 
        "kernel": "(1, 1)", 
        "no_bias": "False", 
        "num_filter": "64", 
        "num_group": "1", 
        "stride": "(1, 1)"
      }, 
      "inputs": [[514, 0, 0], [515, 0, 0], [516, 0, 0]]
    }, 
    {
      "op": "relu", 
      "name": "relu90", 
      "inputs": [[517, 0, 0]]
    }, 
    {
      "op": "Concat", 
      "name": "concat34", 
      "attrs": {
        "dim": "1", 
        "num_args": "2"
      }, 
      "inputs": [[445, 0, 0], [518, 0, 0]]
    }, 
    {
      "op": "Pad", 
      "name": "pad91", 
      "attrs": {
        "mode": "constant", 
        "pad_width": "(0, 0, 0, 0, 0, 0, 0, 0)"
      }, 
      "inputs": [[519, 0, 0]]
    }, 
    {
      "op": "null", 
      "name": "learned_206", 
      "attrs": {"__shape__": "(64, 512, 1, 1)"}, 
      "inputs": []
    }, 
    {
      "op": "null", 
      "name": "learned_207", 
      "attrs": {"__shape__": "(64,)"}, 
      "inputs": []
    }, 
    {
      "op": "Convolution", 
      "name": "convolution91", 
      "attrs": {
        "dilate": "(1, 1)", 
        "kernel": "(1, 1)", 
        "no_bias": "False", 
        "num_filter": "64", 
        "num_group": "1", 
        "stride": "(1, 1)"
      }, 
      "inputs": [[520, 0, 0], [521, 0, 0], [522, 0, 0]]
    }, 
    {
      "op": "relu", 
      "name": "relu91", 
      "inputs": [[523, 0, 0]]
    }, 
    {
      "op": "relu", 
      "name": "relu92", 
      "inputs": [[524, 0, 0]]
    }, 
    {
      "op": "Pad", 
      "name": "pad92", 
      "attrs": {
        "mode": "constant", 
        "pad_width": "(0, 0, 0, 0, 1, 1, 1, 1)"
      }, 
      "inputs": [[525, 0, 0]]
    }, 
    {
      "op": "null", 
      "name": "learned_170", 
      "attrs": {"__shape__": "(64, 64, 3, 3)"}, 
      "inputs": []
    }, 
    {
      "op": "null", 
      "name": "learned_171", 
      "attrs": {"__shape__": "(64,)"}, 
      "inputs": []
    }, 
    {
      "op": "Convolution", 
      "name": "convolution92", 
      "attrs": {
        "dilate": "(1, 1)", 
        "kernel": "(3, 3)", 
        "no_bias": "False", 
        "num_filter": "64", 
        "num_group": "1", 
        "stride": "(1, 1)"
      }, 
      "inputs": [[526, 0, 0], [527, 0, 0], [528, 0, 0]]
    }, 
    {
      "op": "relu", 
      "name": "relu93", 
      "inputs": [[529, 0, 0]]
    }, 
    {
      "op": "Pad", 
      "name": "pad93", 
      "attrs": {
        "mode": "constant", 
        "pad_width": "(0, 0, 0, 0, 1, 1, 1, 1)"
      }, 
      "inputs": [[530, 0, 0]]
    }, 
    {
      "op": "null", 
      "name": "learned_172", 
      "attrs": {"__shape__": "(64, 64, 3, 3)"}, 
      "inputs": []
    }, 
    {
      "op": "null", 
      "name": "learned_173", 
      "attrs": {"__shape__": "(64,)"}, 
      "inputs": []
    }, 
    {
      "op": "Convolution", 
      "name": "convolution93", 
      "attrs": {
        "dilate": "(1, 1)", 
        "kernel": "(3, 3)", 
        "no_bias": "False", 
        "num_filter": "64", 
        "num_group": "1", 
        "stride": "(1, 1)"
      }, 
      "inputs": [[531, 0, 0], [532, 0, 0], [533, 0, 0]]
    }, 
    {
      "op": "broadcast_add", 
      "name": "broadcast_add28", 
      "inputs": [[534, 0, 0], [525, 0, 0]]
    }, 
    {
      "op": "Concat", 
      "name": "concat35", 
      "attrs": {
        "dim": "1", 
        "num_args": "2"
      }, 
      "inputs": [[525, 0, 0], [535, 0, 0]]
    }, 
    {
      "op": "Pad", 
      "name": "pad94", 
      "attrs": {
        "mode": "constant", 
        "pad_width": "(0, 0, 0, 0, 0, 0, 0, 0)"
      }, 
      "inputs": [[536, 0, 0]]
    }, 
    {
      "op": "null", 
      "name": "learned_186", 
      "attrs": {"__shape__": "(64, 128, 1, 1)"}, 
      "inputs": []
    }, 
    {
      "op": "null", 
      "name": "learned_187", 
      "attrs": {"__shape__": "(64,)"}, 
      "inputs": []
    }, 
    {
      "op": "Convolution", 
      "name": "convolution94", 
      "attrs": {
        "dilate": "(1, 1)", 
        "kernel": "(1, 1)", 
        "no_bias": "False", 
        "num_filter": "64", 
        "num_group": "1", 
        "stride": "(1, 1)"
      }, 
      "inputs": [[537, 0, 0], [538, 0, 0], [539, 0, 0]]
    }, 
    {
      "op": "relu", 
      "name": "relu94", 
      "inputs": [[540, 0, 0]]
    }, 
    {
      "op": "relu", 
      "name": "relu95", 
      "inputs": [[541, 0, 0]]
    }, 
    {
      "op": "Pad", 
      "name": "pad95", 
      "attrs": {
        "mode": "constant", 
        "pad_width": "(0, 0, 0, 0, 1, 1, 1, 1)"
      }, 
      "inputs": [[542, 0, 0]]
    }, 
    {
      "op": "null", 
      "name": "learned_174", 
      "attrs": {"__shape__": "(64, 64, 3, 3)"}, 
      "inputs": []
    }, 
    {
      "op": "null", 
      "name": "learned_175", 
      "attrs": {"__shape__": "(64,)"}, 
      "inputs": []
    }, 
    {
      "op": "Convolution", 
      "name": "convolution95", 
      "attrs": {
        "dilate": "(1, 1)", 
        "kernel": "(3, 3)", 
        "no_bias": "False", 
        "num_filter": "64", 
        "num_group": "1", 
        "stride": "(1, 1)"
      }, 
      "inputs": [[543, 0, 0], [544, 0, 0], [545, 0, 0]]
    }, 
    {
      "op": "relu", 
      "name": "relu96", 
      "inputs": [[546, 0, 0]]
    }, 
    {
      "op": "Pad", 
      "name": "pad96", 
      "attrs": {
        "mode": "constant", 
        "pad_width": "(0, 0, 0, 0, 1, 1, 1, 1)"
      }, 
      "inputs": [[547, 0, 0]]
    }, 
    {
      "op": "null", 
      "name": "learned_176", 
      "attrs": {"__shape__": "(64, 64, 3, 3)"}, 
      "inputs": []
    }, 
    {
      "op": "null", 
      "name": "learned_177", 
      "attrs": {"__shape__": "(64,)"}, 
      "inputs": []
    }, 
    {
      "op": "Convolution", 
      "name": "convolution96", 
      "attrs": {
        "dilate": "(1, 1)", 
        "kernel": "(3, 3)", 
        "no_bias": "False", 
        "num_filter": "64", 
        "num_group": "1", 
        "stride": "(1, 1)"
      }, 
      "inputs": [[548, 0, 0], [549, 0, 0], [550, 0, 0]]
    }, 
    {
      "op": "broadcast_add", 
      "name": "broadcast_add29", 
      "inputs": [[551, 0, 0], [542, 0, 0]]
    }, 
    {
      "op": "Concat", 
      "name": "concat36", 
      "attrs": {
        "dim": "1", 
        "num_args": "2"
      }, 
      "inputs": [[536, 0, 0], [552, 0, 0]]
    }, 
    {
      "op": "Pad", 
      "name": "pad97", 
      "attrs": {
        "mode": "constant", 
        "pad_width": "(0, 0, 0, 0, 0, 0, 0, 0)"
      }, 
      "inputs": [[553, 0, 0]]
    }, 
    {
      "op": "null", 
      "name": "learned_188", 
      "attrs": {"__shape__": "(64, 192, 1, 1)"}, 
      "inputs": []
    }, 
    {
      "op": "null", 
      "name": "learned_189", 
      "attrs": {"__shape__": "(64,)"}, 
      "inputs": []
    }, 
    {
      "op": "Convolution", 
      "name": "convolution97", 
      "attrs": {
        "dilate": "(1, 1)", 
        "kernel": "(1, 1)", 
        "no_bias": "False", 
        "num_filter": "64", 
        "num_group": "1", 
        "stride": "(1, 1)"
      }, 
      "inputs": [[554, 0, 0], [555, 0, 0], [556, 0, 0]]
    }, 
    {
      "op": "relu", 
      "name": "relu97", 
      "inputs": [[557, 0, 0]]
    }, 
    {
      "op": "relu", 
      "name": "relu98", 
      "inputs": [[558, 0, 0]]
    }, 
    {
      "op": "Pad", 
      "name": "pad98", 
      "attrs": {
        "mode": "constant", 
        "pad_width": "(0, 0, 0, 0, 1, 1, 1, 1)"
      }, 
      "inputs": [[559, 0, 0]]
    }, 
    {
      "op": "null", 
      "name": "learned_178", 
      "attrs": {"__shape__": "(64, 64, 3, 3)"}, 
      "inputs": []
    }, 
    {
      "op": "null", 
      "name": "learned_179", 
      "attrs": {"__shape__": "(64,)"}, 
      "inputs": []
    }, 
    {
      "op": "Convolution", 
      "name": "convolution98", 
      "attrs": {
        "dilate": "(1, 1)", 
        "kernel": "(3, 3)", 
        "no_bias": "False", 
        "num_filter": "64", 
        "num_group": "1", 
        "stride": "(1, 1)"
      }, 
      "inputs": [[560, 0, 0], [561, 0, 0], [562, 0, 0]]
    }, 
    {
      "op": "relu", 
      "name": "relu99", 
      "inputs": [[563, 0, 0]]
    }, 
    {
      "op": "Pad", 
      "name": "pad99", 
      "attrs": {
        "mode": "constant", 
        "pad_width": "(0, 0, 0, 0, 1, 1, 1, 1)"
      }, 
      "inputs": [[564, 0, 0]]
    }, 
    {
      "op": "null", 
      "name": "learned_180", 
      "attrs": {"__shape__": "(64, 64, 3, 3)"}, 
      "inputs": []
    }, 
    {
      "op": "null", 
      "name": "learned_181", 
      "attrs": {"__shape__": "(64,)"}, 
      "inputs": []
    }, 
    {
      "op": "Convolution", 
      "name": "convolution99", 
      "attrs": {
        "dilate": "(1, 1)", 
        "kernel": "(3, 3)", 
        "no_bias": "False", 
        "num_filter": "64", 
        "num_group": "1", 
        "stride": "(1, 1)"
      }, 
      "inputs": [[565, 0, 0], [566, 0, 0], [567, 0, 0]]
    }, 
    {
      "op": "broadcast_add", 
      "name": "broadcast_add30", 
      "inputs": [[568, 0, 0], [559, 0, 0]]
    }, 
    {
      "op": "Concat", 
      "name": "concat37", 
      "attrs": {
        "dim": "1", 
        "num_args": "2"
      }, 
      "inputs": [[553, 0, 0], [569, 0, 0]]
    }, 
    {
      "op": "Pad", 
      "name": "pad100", 
      "attrs": {
        "mode": "constant", 
        "pad_width": "(0, 0, 0, 0, 0, 0, 0, 0)"
      }, 
      "inputs": [[570, 0, 0]]
    }, 
    {
      "op": "null", 
      "name": "learned_190", 
      "attrs": {"__shape__": "(64, 256, 1, 1)"}, 
      "inputs": []
    }, 
    {
      "op": "null", 
      "name": "learned_191", 
      "attrs": {"__shape__": "(64,)"}, 
      "inputs": []
    }, 
    {
      "op": "Convolution", 
      "name": "convolution100", 
      "attrs": {
        "dilate": "(1, 1)", 
        "kernel": "(1, 1)", 
        "no_bias": "False", 
        "num_filter": "64", 
        "num_group": "1", 
        "stride": "(1, 1)"
      }, 
      "inputs": [[571, 0, 0], [572, 0, 0], [573, 0, 0]]
    }, 
    {
      "op": "relu", 
      "name": "relu100", 
      "inputs": [[574, 0, 0]]
    }, 
    {
      "op": "relu", 
      "name": "relu101", 
      "inputs": [[575, 0, 0]]
    }, 
    {
      "op": "Pad", 
      "name": "pad101", 
      "attrs": {
        "mode": "constant", 
        "pad_width": "(0, 0, 0, 0, 1, 1, 1, 1)"
      }, 
      "inputs": [[576, 0, 0]]
    }, 
    {
      "op": "null", 
      "name": "learned_182", 
      "attrs": {"__shape__": "(64, 64, 3, 3)"}, 
      "inputs": []
    }, 
    {
      "op": "null", 
      "name": "learned_183", 
      "attrs": {"__shape__": "(64,)"}, 
      "inputs": []
    }, 
    {
      "op": "Convolution", 
      "name": "convolution101", 
      "attrs": {
        "dilate": "(1, 1)", 
        "kernel": "(3, 3)", 
        "no_bias": "False", 
        "num_filter": "64", 
        "num_group": "1", 
        "stride": "(1, 1)"
      }, 
      "inputs": [[577, 0, 0], [578, 0, 0], [579, 0, 0]]
    }, 
    {
      "op": "relu", 
      "name": "relu102", 
      "inputs": [[580, 0, 0]]
    }, 
    {
      "op": "Pad", 
      "name": "pad102", 
      "attrs": {
        "mode": "constant", 
        "pad_width": "(0, 0, 0, 0, 1, 1, 1, 1)"
      }, 
      "inputs": [[581, 0, 0]]
    }, 
    {
      "op": "null", 
      "name": "learned_184", 
      "attrs": {"__shape__": "(64, 64, 3, 3)"}, 
      "inputs": []
    }, 
    {
      "op": "null", 
      "name": "learned_185", 
      "attrs": {"__shape__": "(64,)"}, 
      "inputs": []
    }, 
    {
      "op": "Convolution", 
      "name": "convolution102", 
      "attrs": {
        "dilate": "(1, 1)", 
        "kernel": "(3, 3)", 
        "no_bias": "False", 
        "num_filter": "64", 
        "num_group": "1", 
        "stride": "(1, 1)"
      }, 
      "inputs": [[582, 0, 0], [583, 0, 0], [584, 0, 0]]
    }, 
    {
      "op": "broadcast_add", 
      "name": "broadcast_add31", 
      "inputs": [[585, 0, 0], [576, 0, 0]]
    }, 
    {
      "op": "Concat", 
      "name": "concat38", 
      "attrs": {
        "dim": "1", 
        "num_args": "2"
      }, 
      "inputs": [[570, 0, 0], [586, 0, 0]]
    }, 
    {
      "op": "Pad", 
      "name": "pad103", 
      "attrs": {
        "mode": "constant", 
        "pad_width": "(0, 0, 0, 0, 0, 0, 0, 0)"
      }, 
      "inputs": [[587, 0, 0]]
    }, 
    {
      "op": "null", 
      "name": "learned_192", 
      "attrs": {"__shape__": "(64, 320, 1, 1)"}, 
      "inputs": []
    }, 
    {
      "op": "null", 
      "name": "learned_193", 
      "attrs": {"__shape__": "(64,)"}, 
      "inputs": []
    }, 
    {
      "op": "Convolution", 
      "name": "convolution103", 
      "attrs": {
        "dilate": "(1, 1)", 
        "kernel": "(1, 1)", 
        "no_bias": "False", 
        "num_filter": "64", 
        "num_group": "1", 
        "stride": "(1, 1)"
      }, 
      "inputs": [[588, 0, 0], [589, 0, 0], [590, 0, 0]]
    }, 
    {
      "op": "relu", 
      "name": "relu103", 
      "inputs": [[591, 0, 0]]
    }, 
    {
      "op": "Concat", 
      "name": "concat39", 
      "attrs": {
        "dim": "1", 
        "num_args": "2"
      }, 
      "inputs": [[519, 0, 0], [592, 0, 0]]
    }, 
    {
      "op": "Pad", 
      "name": "pad104", 
      "attrs": {
        "mode": "constant", 
        "pad_width": "(0, 0, 0, 0, 0, 0, 0, 0)"
      }, 
      "inputs": [[593, 0, 0]]
    }, 
    {
      "op": "null", 
      "name": "learned_208", 
      "attrs": {"__shape__": "(64, 576, 1, 1)"}, 
      "inputs": []
    }, 
    {
      "op": "null", 
      "name": "learned_209", 
      "attrs": {"__shape__": "(64,)"}, 
      "inputs": []
    }, 
    {
      "op": "Convolution", 
      "name": "convolution104", 
      "attrs": {
        "dilate": "(1, 1)", 
        "kernel": "(1, 1)", 
        "no_bias": "False", 
        "num_filter": "64", 
        "num_group": "1", 
        "stride": "(1, 1)"
      }, 
      "inputs": [[594, 0, 0], [595, 0, 0], [596, 0, 0]]
    }, 
    {
      "op": "relu", 
      "name": "relu104", 
      "inputs": [[597, 0, 0]]
    }, 
    {
      "op": "relu", 
      "name": "relu105", 
      "inputs": [[598, 0, 0]]
    }, 
    {
      "op": "Pad", 
      "name": "pad105", 
      "attrs": {
        "mode": "constant", 
        "pad_width": "(0, 0, 0, 0, 1, 1, 1, 1)"
      }, 
      "inputs": [[599, 0, 0]]
    }, 
    {
      "op": "null", 
      "name": "learned_210", 
      "attrs": {"__shape__": "(64, 64, 3, 3)"}, 
      "inputs": []
    }, 
    {
      "op": "null", 
      "name": "learned_211", 
      "attrs": {"__shape__": "(64,)"}, 
      "inputs": []
    }, 
    {
      "op": "Convolution", 
      "name": "convolution105", 
      "attrs": {
        "dilate": "(1, 1)", 
        "kernel": "(3, 3)", 
        "no_bias": "False", 
        "num_filter": "64", 
        "num_group": "1", 
        "stride": "(1, 1)"
      }, 
      "inputs": [[600, 0, 0], [601, 0, 0], [602, 0, 0]]
    }, 
    {
      "op": "relu", 
      "name": "relu106", 
      "inputs": [[603, 0, 0]]
    }, 
    {
      "op": "Pad", 
      "name": "pad106", 
      "attrs": {
        "mode": "constant", 
        "pad_width": "(0, 0, 0, 0, 1, 1, 1, 1)"
      }, 
      "inputs": [[604, 0, 0]]
    }, 
    {
      "op": "null", 
      "name": "learned_212", 
      "attrs": {"__shape__": "(64, 64, 3, 3)"}, 
      "inputs": []
    }, 
    {
      "op": "null", 
      "name": "learned_213", 
      "attrs": {"__shape__": "(64,)"}, 
      "inputs": []
    }, 
    {
      "op": "Convolution", 
      "name": "convolution106", 
      "attrs": {
        "dilate": "(1, 1)", 
        "kernel": "(3, 3)", 
        "no_bias": "False", 
        "num_filter": "64", 
        "num_group": "1", 
        "stride": "(1, 1)"
      }, 
      "inputs": [[605, 0, 0], [606, 0, 0], [607, 0, 0]]
    }, 
    {
      "op": "broadcast_add", 
      "name": "broadcast_add32", 
      "inputs": [[608, 0, 0], [599, 0, 0]]
    }, 
    {
      "op": "Concat", 
      "name": "concat40", 
      "attrs": {
        "dim": "1", 
        "num_args": "2"
      }, 
      "inputs": [[599, 0, 0], [609, 0, 0]]
    }, 
    {
      "op": "Pad", 
      "name": "pad107", 
      "attrs": {
        "mode": "constant", 
        "pad_width": "(0, 0, 0, 0, 0, 0, 0, 0)"
      }, 
      "inputs": [[610, 0, 0]]
    }, 
    {
      "op": "null", 
      "name": "learned_226", 
      "attrs": {"__shape__": "(64, 128, 1, 1)"}, 
      "inputs": []
    }, 
    {
      "op": "null", 
      "name": "learned_227", 
      "attrs": {"__shape__": "(64,)"}, 
      "inputs": []
    }, 
    {
      "op": "Convolution", 
      "name": "convolution107", 
      "attrs": {
        "dilate": "(1, 1)", 
        "kernel": "(1, 1)", 
        "no_bias": "False", 
        "num_filter": "64", 
        "num_group": "1", 
        "stride": "(1, 1)"
      }, 
      "inputs": [[611, 0, 0], [612, 0, 0], [613, 0, 0]]
    }, 
    {
      "op": "relu", 
      "name": "relu107", 
      "inputs": [[614, 0, 0]]
    }, 
    {
      "op": "relu", 
      "name": "relu108", 
      "inputs": [[615, 0, 0]]
    }, 
    {
      "op": "Pad", 
      "name": "pad108", 
      "attrs": {
        "mode": "constant", 
        "pad_width": "(0, 0, 0, 0, 1, 1, 1, 1)"
      }, 
      "inputs": [[616, 0, 0]]
    }, 
    {
      "op": "null", 
      "name": "learned_214", 
      "attrs": {"__shape__": "(64, 64, 3, 3)"}, 
      "inputs": []
    }, 
    {
      "op": "null", 
      "name": "learned_215", 
      "attrs": {"__shape__": "(64,)"}, 
      "inputs": []
    }, 
    {
      "op": "Convolution", 
      "name": "convolution108", 
      "attrs": {
        "dilate": "(1, 1)", 
        "kernel": "(3, 3)", 
        "no_bias": "False", 
        "num_filter": "64", 
        "num_group": "1", 
        "stride": "(1, 1)"
      }, 
      "inputs": [[617, 0, 0], [618, 0, 0], [619, 0, 0]]
    }, 
    {
      "op": "relu", 
      "name": "relu109", 
      "inputs": [[620, 0, 0]]
    }, 
    {
      "op": "Pad", 
      "name": "pad109", 
      "attrs": {
        "mode": "constant", 
        "pad_width": "(0, 0, 0, 0, 1, 1, 1, 1)"
      }, 
      "inputs": [[621, 0, 0]]
    }, 
    {
      "op": "null", 
      "name": "learned_216", 
      "attrs": {"__shape__": "(64, 64, 3, 3)"}, 
      "inputs": []
    }, 
    {
      "op": "null", 
      "name": "learned_217", 
      "attrs": {"__shape__": "(64,)"}, 
      "inputs": []
    }, 
    {
      "op": "Convolution", 
      "name": "convolution109", 
      "attrs": {
        "dilate": "(1, 1)", 
        "kernel": "(3, 3)", 
        "no_bias": "False", 
        "num_filter": "64", 
        "num_group": "1", 
        "stride": "(1, 1)"
      }, 
      "inputs": [[622, 0, 0], [623, 0, 0], [624, 0, 0]]
    }, 
    {
      "op": "broadcast_add", 
      "name": "broadcast_add33", 
      "inputs": [[625, 0, 0], [616, 0, 0]]
    }, 
    {
      "op": "Concat", 
      "name": "concat41", 
      "attrs": {
        "dim": "1", 
        "num_args": "2"
      }, 
      "inputs": [[610, 0, 0], [626, 0, 0]]
    }, 
    {
      "op": "Pad", 
      "name": "pad110", 
      "attrs": {
        "mode": "constant", 
        "pad_width": "(0, 0, 0, 0, 0, 0, 0, 0)"
      }, 
      "inputs": [[627, 0, 0]]
    }, 
    {
      "op": "null", 
      "name": "learned_228", 
      "attrs": {"__shape__": "(64, 192, 1, 1)"}, 
      "inputs": []
    }, 
    {
      "op": "null", 
      "name": "learned_229", 
      "attrs": {"__shape__": "(64,)"}, 
      "inputs": []
    }, 
    {
      "op": "Convolution", 
      "name": "convolution110", 
      "attrs": {
        "dilate": "(1, 1)", 
        "kernel": "(1, 1)", 
        "no_bias": "False", 
        "num_filter": "64", 
        "num_group": "1", 
        "stride": "(1, 1)"
      }, 
      "inputs": [[628, 0, 0], [629, 0, 0], [630, 0, 0]]
    }, 
    {
      "op": "relu", 
      "name": "relu110", 
      "inputs": [[631, 0, 0]]
    }, 
    {
      "op": "relu", 
      "name": "relu111", 
      "inputs": [[632, 0, 0]]
    }, 
    {
      "op": "Pad", 
      "name": "pad111", 
      "attrs": {
        "mode": "constant", 
        "pad_width": "(0, 0, 0, 0, 1, 1, 1, 1)"
      }, 
      "inputs": [[633, 0, 0]]
    }, 
    {
      "op": "null", 
      "name": "learned_218", 
      "attrs": {"__shape__": "(64, 64, 3, 3)"}, 
      "inputs": []
    }, 
    {
      "op": "null", 
      "name": "learned_219", 
      "attrs": {"__shape__": "(64,)"}, 
      "inputs": []
    }, 
    {
      "op": "Convolution", 
      "name": "convolution111", 
      "attrs": {
        "dilate": "(1, 1)", 
        "kernel": "(3, 3)", 
        "no_bias": "False", 
        "num_filter": "64", 
        "num_group": "1", 
        "stride": "(1, 1)"
      }, 
      "inputs": [[634, 0, 0], [635, 0, 0], [636, 0, 0]]
    }, 
    {
      "op": "relu", 
      "name": "relu112", 
      "inputs": [[637, 0, 0]]
    }, 
    {
      "op": "Pad", 
      "name": "pad112", 
      "attrs": {
        "mode": "constant", 
        "pad_width": "(0, 0, 0, 0, 1, 1, 1, 1)"
      }, 
      "inputs": [[638, 0, 0]]
    }, 
    {
      "op": "null", 
      "name": "learned_220", 
      "attrs": {"__shape__": "(64, 64, 3, 3)"}, 
      "inputs": []
    }, 
    {
      "op": "null", 
      "name": "learned_221", 
      "attrs": {"__shape__": "(64,)"}, 
      "inputs": []
    }, 
    {
      "op": "Convolution", 
      "name": "convolution112", 
      "attrs": {
        "dilate": "(1, 1)", 
        "kernel": "(3, 3)", 
        "no_bias": "False", 
        "num_filter": "64", 
        "num_group": "1", 
        "stride": "(1, 1)"
      }, 
      "inputs": [[639, 0, 0], [640, 0, 0], [641, 0, 0]]
    }, 
    {
      "op": "broadcast_add", 
      "name": "broadcast_add34", 
      "inputs": [[642, 0, 0], [633, 0, 0]]
    }, 
    {
      "op": "Concat", 
      "name": "concat42", 
      "attrs": {
        "dim": "1", 
        "num_args": "2"
      }, 
      "inputs": [[627, 0, 0], [643, 0, 0]]
    }, 
    {
      "op": "Pad", 
      "name": "pad113", 
      "attrs": {
        "mode": "constant", 
        "pad_width": "(0, 0, 0, 0, 0, 0, 0, 0)"
      }, 
      "inputs": [[644, 0, 0]]
    }, 
    {
      "op": "null", 
      "name": "learned_230", 
      "attrs": {"__shape__": "(64, 256, 1, 1)"}, 
      "inputs": []
    }, 
    {
      "op": "null", 
      "name": "learned_231", 
      "attrs": {"__shape__": "(64,)"}, 
      "inputs": []
    }, 
    {
      "op": "Convolution", 
      "name": "convolution113", 
      "attrs": {
        "dilate": "(1, 1)", 
        "kernel": "(1, 1)", 
        "no_bias": "False", 
        "num_filter": "64", 
        "num_group": "1", 
        "stride": "(1, 1)"
      }, 
      "inputs": [[645, 0, 0], [646, 0, 0], [647, 0, 0]]
    }, 
    {
      "op": "relu", 
      "name": "relu113", 
      "inputs": [[648, 0, 0]]
    }, 
    {
      "op": "relu", 
      "name": "relu114", 
      "inputs": [[649, 0, 0]]
    }, 
    {
      "op": "Pad", 
      "name": "pad114", 
      "attrs": {
        "mode": "constant", 
        "pad_width": "(0, 0, 0, 0, 1, 1, 1, 1)"
      }, 
      "inputs": [[650, 0, 0]]
    }, 
    {
      "op": "null", 
      "name": "learned_222", 
      "attrs": {"__shape__": "(64, 64, 3, 3)"}, 
      "inputs": []
    }, 
    {
      "op": "null", 
      "name": "learned_223", 
      "attrs": {"__shape__": "(64,)"}, 
      "inputs": []
    }, 
    {
      "op": "Convolution", 
      "name": "convolution114", 
      "attrs": {
        "dilate": "(1, 1)", 
        "kernel": "(3, 3)", 
        "no_bias": "False", 
        "num_filter": "64", 
        "num_group": "1", 
        "stride": "(1, 1)"
      }, 
      "inputs": [[651, 0, 0], [652, 0, 0], [653, 0, 0]]
    }, 
    {
      "op": "relu", 
      "name": "relu115", 
      "inputs": [[654, 0, 0]]
    }, 
    {
      "op": "Pad", 
      "name": "pad115", 
      "attrs": {
        "mode": "constant", 
        "pad_width": "(0, 0, 0, 0, 1, 1, 1, 1)"
      }, 
      "inputs": [[655, 0, 0]]
    }, 
    {
      "op": "null", 
      "name": "learned_224", 
      "attrs": {"__shape__": "(64, 64, 3, 3)"}, 
      "inputs": []
    }, 
    {
      "op": "null", 
      "name": "learned_225", 
      "attrs": {"__shape__": "(64,)"}, 
      "inputs": []
    }, 
    {
      "op": "Convolution", 
      "name": "convolution115", 
      "attrs": {
        "dilate": "(1, 1)", 
        "kernel": "(3, 3)", 
        "no_bias": "False", 
        "num_filter": "64", 
        "num_group": "1", 
        "stride": "(1, 1)"
      }, 
      "inputs": [[656, 0, 0], [657, 0, 0], [658, 0, 0]]
    }, 
    {
      "op": "broadcast_add", 
      "name": "broadcast_add35", 
      "inputs": [[659, 0, 0], [650, 0, 0]]
    }, 
    {
      "op": "Concat", 
      "name": "concat43", 
      "attrs": {
        "dim": "1", 
        "num_args": "2"
      }, 
      "inputs": [[644, 0, 0], [660, 0, 0]]
    }, 
    {
      "op": "Pad", 
      "name": "pad116", 
      "attrs": {
        "mode": "constant", 
        "pad_width": "(0, 0, 0, 0, 0, 0, 0, 0)"
      }, 
      "inputs": [[661, 0, 0]]
    }, 
    {
      "op": "null", 
      "name": "learned_232", 
      "attrs": {"__shape__": "(64, 320, 1, 1)"}, 
      "inputs": []
    }, 
    {
      "op": "null", 
      "name": "learned_233", 
      "attrs": {"__shape__": "(64,)"}, 
      "inputs": []
    }, 
    {
      "op": "Convolution", 
      "name": "convolution116", 
      "attrs": {
        "dilate": "(1, 1)", 
        "kernel": "(1, 1)", 
        "no_bias": "False", 
        "num_filter": "64", 
        "num_group": "1", 
        "stride": "(1, 1)"
      }, 
      "inputs": [[662, 0, 0], [663, 0, 0], [664, 0, 0]]
    }, 
    {
      "op": "relu", 
      "name": "relu116", 
      "inputs": [[665, 0, 0]]
    }, 
    {
      "op": "Concat", 
      "name": "concat44", 
      "attrs": {
        "dim": "1", 
        "num_args": "2"
      }, 
      "inputs": [[599, 0, 0], [666, 0, 0]]
    }, 
    {
      "op": "Pad", 
      "name": "pad117", 
      "attrs": {
        "mode": "constant", 
        "pad_width": "(0, 0, 0, 0, 0, 0, 0, 0)"
      }, 
      "inputs": [[667, 0, 0]]
    }, 
    {
      "op": "null", 
      "name": "learned_402", 
      "attrs": {"__shape__": "(64, 128, 1, 1)"}, 
      "inputs": []
    }, 
    {
      "op": "null", 
      "name": "learned_403", 
      "attrs": {"__shape__": "(64,)"}, 
      "inputs": []
    }, 
    {
      "op": "Convolution", 
      "name": "convolution117", 
      "attrs": {
        "dilate": "(1, 1)", 
        "kernel": "(1, 1)", 
        "no_bias": "False", 
        "num_filter": "64", 
        "num_group": "1", 
        "stride": "(1, 1)"
      }, 
      "inputs": [[668, 0, 0], [669, 0, 0], [670, 0, 0]]
    }, 
    {
      "op": "relu", 
      "name": "relu117", 
      "inputs": [[671, 0, 0]]
    }, 
    {
      "op": "relu", 
      "name": "relu118", 
      "inputs": [[672, 0, 0]]
    }, 
    {
      "op": "Pad", 
      "name": "pad118", 
      "attrs": {
        "mode": "constant", 
        "pad_width": "(0, 0, 0, 0, 1, 1, 1, 1)"
      }, 
      "inputs": [[673, 0, 0]]
    }, 
    {
      "op": "null", 
      "name": "learned_234", 
      "attrs": {"__shape__": "(64, 64, 3, 3)"}, 
      "inputs": []
    }, 
    {
      "op": "null", 
      "name": "learned_235", 
      "attrs": {"__shape__": "(64,)"}, 
      "inputs": []
    }, 
    {
      "op": "Convolution", 
      "name": "convolution118", 
      "attrs": {
        "dilate": "(1, 1)", 
        "kernel": "(3, 3)", 
        "no_bias": "False", 
        "num_filter": "64", 
        "num_group": "1", 
        "stride": "(1, 1)"
      }, 
      "inputs": [[674, 0, 0], [675, 0, 0], [676, 0, 0]]
    }, 
    {
      "op": "relu", 
      "name": "relu119", 
      "inputs": [[677, 0, 0]]
    }, 
    {
      "op": "Pad", 
      "name": "pad119", 
      "attrs": {
        "mode": "constant", 
        "pad_width": "(0, 0, 0, 0, 1, 1, 1, 1)"
      }, 
      "inputs": [[678, 0, 0]]
    }, 
    {
      "op": "null", 
      "name": "learned_236", 
      "attrs": {"__shape__": "(64, 64, 3, 3)"}, 
      "inputs": []
    }, 
    {
      "op": "null", 
      "name": "learned_237", 
      "attrs": {"__shape__": "(64,)"}, 
      "inputs": []
    }, 
    {
      "op": "Convolution", 
      "name": "convolution119", 
      "attrs": {
        "dilate": "(1, 1)", 
        "kernel": "(3, 3)", 
        "no_bias": "False", 
        "num_filter": "64", 
        "num_group": "1", 
        "stride": "(1, 1)"
      }, 
      "inputs": [[679, 0, 0], [680, 0, 0], [681, 0, 0]]
    }, 
    {
      "op": "broadcast_add", 
      "name": "broadcast_add36", 
      "inputs": [[682, 0, 0], [673, 0, 0]]
    }, 
    {
      "op": "Concat", 
      "name": "concat45", 
      "attrs": {
        "dim": "1", 
        "num_args": "2"
      }, 
      "inputs": [[673, 0, 0], [683, 0, 0]]
    }, 
    {
      "op": "Pad", 
      "name": "pad120", 
      "attrs": {
        "mode": "constant", 
        "pad_width": "(0, 0, 0, 0, 0, 0, 0, 0)"
      }, 
      "inputs": [[684, 0, 0]]
    }, 
    {
      "op": "null", 
      "name": "learned_250", 
      "attrs": {"__shape__": "(64, 128, 1, 1)"}, 
      "inputs": []
    }, 
    {
      "op": "null", 
      "name": "learned_251", 
      "attrs": {"__shape__": "(64,)"}, 
      "inputs": []
    }, 
    {
      "op": "Convolution", 
      "name": "convolution120", 
      "attrs": {
        "dilate": "(1, 1)", 
        "kernel": "(1, 1)", 
        "no_bias": "False", 
        "num_filter": "64", 
        "num_group": "1", 
        "stride": "(1, 1)"
      }, 
      "inputs": [[685, 0, 0], [686, 0, 0], [687, 0, 0]]
    }, 
    {
      "op": "relu", 
      "name": "relu120", 
      "inputs": [[688, 0, 0]]
    }, 
    {
      "op": "relu", 
      "name": "relu121", 
      "inputs": [[689, 0, 0]]
    }, 
    {
      "op": "Pad", 
      "name": "pad121", 
      "attrs": {
        "mode": "constant", 
        "pad_width": "(0, 0, 0, 0, 1, 1, 1, 1)"
      }, 
      "inputs": [[690, 0, 0]]
    }, 
    {
      "op": "null", 
      "name": "learned_238", 
      "attrs": {"__shape__": "(64, 64, 3, 3)"}, 
      "inputs": []
    }, 
    {
      "op": "null", 
      "name": "learned_239", 
      "attrs": {"__shape__": "(64,)"}, 
      "inputs": []
    }, 
    {
      "op": "Convolution", 
      "name": "convolution121", 
      "attrs": {
        "dilate": "(1, 1)", 
        "kernel": "(3, 3)", 
        "no_bias": "False", 
        "num_filter": "64", 
        "num_group": "1", 
        "stride": "(1, 1)"
      }, 
      "inputs": [[691, 0, 0], [692, 0, 0], [693, 0, 0]]
    }, 
    {
      "op": "relu", 
      "name": "relu122", 
      "inputs": [[694, 0, 0]]
    }, 
    {
      "op": "Pad", 
      "name": "pad122", 
      "attrs": {
        "mode": "constant", 
        "pad_width": "(0, 0, 0, 0, 1, 1, 1, 1)"
      }, 
      "inputs": [[695, 0, 0]]
    }, 
    {
      "op": "null", 
      "name": "learned_240", 
      "attrs": {"__shape__": "(64, 64, 3, 3)"}, 
      "inputs": []
    }, 
    {
      "op": "null", 
      "name": "learned_241", 
      "attrs": {"__shape__": "(64,)"}, 
      "inputs": []
    }, 
    {
      "op": "Convolution", 
      "name": "convolution122", 
      "attrs": {
        "dilate": "(1, 1)", 
        "kernel": "(3, 3)", 
        "no_bias": "False", 
        "num_filter": "64", 
        "num_group": "1", 
        "stride": "(1, 1)"
      }, 
      "inputs": [[696, 0, 0], [697, 0, 0], [698, 0, 0]]
    }, 
    {
      "op": "broadcast_add", 
      "name": "broadcast_add37", 
      "inputs": [[699, 0, 0], [690, 0, 0]]
    }, 
    {
      "op": "Concat", 
      "name": "concat46", 
      "attrs": {
        "dim": "1", 
        "num_args": "2"
      }, 
      "inputs": [[684, 0, 0], [700, 0, 0]]
    }, 
    {
      "op": "Pad", 
      "name": "pad123", 
      "attrs": {
        "mode": "constant", 
        "pad_width": "(0, 0, 0, 0, 0, 0, 0, 0)"
      }, 
      "inputs": [[701, 0, 0]]
    }, 
    {
      "op": "null", 
      "name": "learned_252", 
      "attrs": {"__shape__": "(64, 192, 1, 1)"}, 
      "inputs": []
    }, 
    {
      "op": "null", 
      "name": "learned_253", 
      "attrs": {"__shape__": "(64,)"}, 
      "inputs": []
    }, 
    {
      "op": "Convolution", 
      "name": "convolution123", 
      "attrs": {
        "dilate": "(1, 1)", 
        "kernel": "(1, 1)", 
        "no_bias": "False", 
        "num_filter": "64", 
        "num_group": "1", 
        "stride": "(1, 1)"
      }, 
      "inputs": [[702, 0, 0], [703, 0, 0], [704, 0, 0]]
    }, 
    {
      "op": "relu", 
      "name": "relu123", 
      "inputs": [[705, 0, 0]]
    }, 
    {
      "op": "relu", 
      "name": "relu124", 
      "inputs": [[706, 0, 0]]
    }, 
    {
      "op": "Pad", 
      "name": "pad124", 
      "attrs": {
        "mode": "constant", 
        "pad_width": "(0, 0, 0, 0, 1, 1, 1, 1)"
      }, 
      "inputs": [[707, 0, 0]]
    }, 
    {
      "op": "null", 
      "name": "learned_242", 
      "attrs": {"__shape__": "(64, 64, 3, 3)"}, 
      "inputs": []
    }, 
    {
      "op": "null", 
      "name": "learned_243", 
      "attrs": {"__shape__": "(64,)"}, 
      "inputs": []
    }, 
    {
      "op": "Convolution", 
      "name": "convolution124", 
      "attrs": {
        "dilate": "(1, 1)", 
        "kernel": "(3, 3)", 
        "no_bias": "False", 
        "num_filter": "64", 
        "num_group": "1", 
        "stride": "(1, 1)"
      }, 
      "inputs": [[708, 0, 0], [709, 0, 0], [710, 0, 0]]
    }, 
    {
      "op": "relu", 
      "name": "relu125", 
      "inputs": [[711, 0, 0]]
    }, 
    {
      "op": "Pad", 
      "name": "pad125", 
      "attrs": {
        "mode": "constant", 
        "pad_width": "(0, 0, 0, 0, 1, 1, 1, 1)"
      }, 
      "inputs": [[712, 0, 0]]
    }, 
    {
      "op": "null", 
      "name": "learned_244", 
      "attrs": {"__shape__": "(64, 64, 3, 3)"}, 
      "inputs": []
    }, 
    {
      "op": "null", 
      "name": "learned_245", 
      "attrs": {"__shape__": "(64,)"}, 
      "inputs": []
    }, 
    {
      "op": "Convolution", 
      "name": "convolution125", 
      "attrs": {
        "dilate": "(1, 1)", 
        "kernel": "(3, 3)", 
        "no_bias": "False", 
        "num_filter": "64", 
        "num_group": "1", 
        "stride": "(1, 1)"
      }, 
      "inputs": [[713, 0, 0], [714, 0, 0], [715, 0, 0]]
    }, 
    {
      "op": "broadcast_add", 
      "name": "broadcast_add38", 
      "inputs": [[716, 0, 0], [707, 0, 0]]
    }, 
    {
      "op": "Concat", 
      "name": "concat47", 
      "attrs": {
        "dim": "1", 
        "num_args": "2"
      }, 
      "inputs": [[701, 0, 0], [717, 0, 0]]
    }, 
    {
      "op": "Pad", 
      "name": "pad126", 
      "attrs": {
        "mode": "constant", 
        "pad_width": "(0, 0, 0, 0, 0, 0, 0, 0)"
      }, 
      "inputs": [[718, 0, 0]]
    }, 
    {
      "op": "null", 
      "name": "learned_254", 
      "attrs": {"__shape__": "(64, 256, 1, 1)"}, 
      "inputs": []
    }, 
    {
      "op": "null", 
      "name": "learned_255", 
      "attrs": {"__shape__": "(64,)"}, 
      "inputs": []
    }, 
    {
      "op": "Convolution", 
      "name": "convolution126", 
      "attrs": {
        "dilate": "(1, 1)", 
        "kernel": "(1, 1)", 
        "no_bias": "False", 
        "num_filter": "64", 
        "num_group": "1", 
        "stride": "(1, 1)"
      }, 
      "inputs": [[719, 0, 0], [720, 0, 0], [721, 0, 0]]
    }, 
    {
      "op": "relu", 
      "name": "relu126", 
      "inputs": [[722, 0, 0]]
    }, 
    {
      "op": "relu", 
      "name": "relu127", 
      "inputs": [[723, 0, 0]]
    }, 
    {
      "op": "Pad", 
      "name": "pad127", 
      "attrs": {
        "mode": "constant", 
        "pad_width": "(0, 0, 0, 0, 1, 1, 1, 1)"
      }, 
      "inputs": [[724, 0, 0]]
    }, 
    {
      "op": "null", 
      "name": "learned_246", 
      "attrs": {"__shape__": "(64, 64, 3, 3)"}, 
      "inputs": []
    }, 
    {
      "op": "null", 
      "name": "learned_247", 
      "attrs": {"__shape__": "(64,)"}, 
      "inputs": []
    }, 
    {
      "op": "Convolution", 
      "name": "convolution127", 
      "attrs": {
        "dilate": "(1, 1)", 
        "kernel": "(3, 3)", 
        "no_bias": "False", 
        "num_filter": "64", 
        "num_group": "1", 
        "stride": "(1, 1)"
      }, 
      "inputs": [[725, 0, 0], [726, 0, 0], [727, 0, 0]]
    }, 
    {
      "op": "relu", 
      "name": "relu128", 
      "inputs": [[728, 0, 0]]
    }, 
    {
      "op": "Pad", 
      "name": "pad128", 
      "attrs": {
        "mode": "constant", 
        "pad_width": "(0, 0, 0, 0, 1, 1, 1, 1)"
      }, 
      "inputs": [[729, 0, 0]]
    }, 
    {
      "op": "null", 
      "name": "learned_248", 
      "attrs": {"__shape__": "(64, 64, 3, 3)"}, 
      "inputs": []
    }, 
    {
      "op": "null", 
      "name": "learned_249", 
      "attrs": {"__shape__": "(64,)"}, 
      "inputs": []
    }, 
    {
      "op": "Convolution", 
      "name": "convolution128", 
      "attrs": {
        "dilate": "(1, 1)", 
        "kernel": "(3, 3)", 
        "no_bias": "False", 
        "num_filter": "64", 
        "num_group": "1", 
        "stride": "(1, 1)"
      }, 
      "inputs": [[730, 0, 0], [731, 0, 0], [732, 0, 0]]
    }, 
    {
      "op": "broadcast_add", 
      "name": "broadcast_add39", 
      "inputs": [[733, 0, 0], [724, 0, 0]]
    }, 
    {
      "op": "Concat", 
      "name": "concat48", 
      "attrs": {
        "dim": "1", 
        "num_args": "2"
      }, 
      "inputs": [[718, 0, 0], [734, 0, 0]]
    }, 
    {
      "op": "Pad", 
      "name": "pad129", 
      "attrs": {
        "mode": "constant", 
        "pad_width": "(0, 0, 0, 0, 0, 0, 0, 0)"
      }, 
      "inputs": [[735, 0, 0]]
    }, 
    {
      "op": "null", 
      "name": "learned_256", 
      "attrs": {"__shape__": "(64, 320, 1, 1)"}, 
      "inputs": []
    }, 
    {
      "op": "null", 
      "name": "learned_257", 
      "attrs": {"__shape__": "(64,)"}, 
      "inputs": []
    }, 
    {
      "op": "Convolution", 
      "name": "convolution129", 
      "attrs": {
        "dilate": "(1, 1)", 
        "kernel": "(1, 1)", 
        "no_bias": "False", 
        "num_filter": "64", 
        "num_group": "1", 
        "stride": "(1, 1)"
      }, 
      "inputs": [[736, 0, 0], [737, 0, 0], [738, 0, 0]]
    }, 
    {
      "op": "relu", 
      "name": "relu129", 
      "inputs": [[739, 0, 0]]
    }, 
    {
      "op": "Concat", 
      "name": "concat49", 
      "attrs": {
        "dim": "1", 
        "num_args": "2"
      }, 
      "inputs": [[667, 0, 0], [740, 0, 0]]
    }, 
    {
      "op": "Pad", 
      "name": "pad130", 
      "attrs": {
        "mode": "constant", 
        "pad_width": "(0, 0, 0, 0, 0, 0, 0, 0)"
      }, 
      "inputs": [[741, 0, 0]]
    }, 
    {
      "op": "null", 
      "name": "learned_404", 
      "attrs": {"__shape__": "(64, 192, 1, 1)"}, 
      "inputs": []
    }, 
    {
      "op": "null", 
      "name": "learned_405", 
      "attrs": {"__shape__": "(64,)"}, 
      "inputs": []
    }, 
    {
      "op": "Convolution", 
      "name": "convolution130", 
      "attrs": {
        "dilate": "(1, 1)", 
        "kernel": "(1, 1)", 
        "no_bias": "False", 
        "num_filter": "64", 
        "num_group": "1", 
        "stride": "(1, 1)"
      }, 
      "inputs": [[742, 0, 0], [743, 0, 0], [744, 0, 0]]
    }, 
    {
      "op": "relu", 
      "name": "relu130", 
      "inputs": [[745, 0, 0]]
    }, 
    {
      "op": "relu", 
      "name": "relu131", 
      "inputs": [[746, 0, 0]]
    }, 
    {
      "op": "Pad", 
      "name": "pad131", 
      "attrs": {
        "mode": "constant", 
        "pad_width": "(0, 0, 0, 0, 1, 1, 1, 1)"
      }, 
      "inputs": [[747, 0, 0]]
    }, 
    {
      "op": "null", 
      "name": "learned_258", 
      "attrs": {"__shape__": "(64, 64, 3, 3)"}, 
      "inputs": []
    }, 
    {
      "op": "null", 
      "name": "learned_259", 
      "attrs": {"__shape__": "(64,)"}, 
      "inputs": []
    }, 
    {
      "op": "Convolution", 
      "name": "convolution131", 
      "attrs": {
        "dilate": "(1, 1)", 
        "kernel": "(3, 3)", 
        "no_bias": "False", 
        "num_filter": "64", 
        "num_group": "1", 
        "stride": "(1, 1)"
      }, 
      "inputs": [[748, 0, 0], [749, 0, 0], [750, 0, 0]]
    }, 
    {
      "op": "relu", 
      "name": "relu132", 
      "inputs": [[751, 0, 0]]
    }, 
    {
      "op": "Pad", 
      "name": "pad132", 
      "attrs": {
        "mode": "constant", 
        "pad_width": "(0, 0, 0, 0, 1, 1, 1, 1)"
      }, 
      "inputs": [[752, 0, 0]]
    }, 
    {
      "op": "null", 
      "name": "learned_260", 
      "attrs": {"__shape__": "(64, 64, 3, 3)"}, 
      "inputs": []
    }, 
    {
      "op": "null", 
      "name": "learned_261", 
      "attrs": {"__shape__": "(64,)"}, 
      "inputs": []
    }, 
    {
      "op": "Convolution", 
      "name": "convolution132", 
      "attrs": {
        "dilate": "(1, 1)", 
        "kernel": "(3, 3)", 
        "no_bias": "False", 
        "num_filter": "64", 
        "num_group": "1", 
        "stride": "(1, 1)"
      }, 
      "inputs": [[753, 0, 0], [754, 0, 0], [755, 0, 0]]
    }, 
    {
      "op": "broadcast_add", 
      "name": "broadcast_add40", 
      "inputs": [[756, 0, 0], [747, 0, 0]]
    }, 
    {
      "op": "Concat", 
      "name": "concat50", 
      "attrs": {
        "dim": "1", 
        "num_args": "2"
      }, 
      "inputs": [[747, 0, 0], [757, 0, 0]]
    }, 
    {
      "op": "Pad", 
      "name": "pad133", 
      "attrs": {
        "mode": "constant", 
        "pad_width": "(0, 0, 0, 0, 0, 0, 0, 0)"
      }, 
      "inputs": [[758, 0, 0]]
    }, 
    {
      "op": "null", 
      "name": "learned_274", 
      "attrs": {"__shape__": "(64, 128, 1, 1)"}, 
      "inputs": []
    }, 
    {
      "op": "null", 
      "name": "learned_275", 
      "attrs": {"__shape__": "(64,)"}, 
      "inputs": []
    }, 
    {
      "op": "Convolution", 
      "name": "convolution133", 
      "attrs": {
        "dilate": "(1, 1)", 
        "kernel": "(1, 1)", 
        "no_bias": "False", 
        "num_filter": "64", 
        "num_group": "1", 
        "stride": "(1, 1)"
      }, 
      "inputs": [[759, 0, 0], [760, 0, 0], [761, 0, 0]]
    }, 
    {
      "op": "relu", 
      "name": "relu133", 
      "inputs": [[762, 0, 0]]
    }, 
    {
      "op": "relu", 
      "name": "relu134", 
      "inputs": [[763, 0, 0]]
    }, 
    {
      "op": "Pad", 
      "name": "pad134", 
      "attrs": {
        "mode": "constant", 
        "pad_width": "(0, 0, 0, 0, 1, 1, 1, 1)"
      }, 
      "inputs": [[764, 0, 0]]
    }, 
    {
      "op": "null", 
      "name": "learned_262", 
      "attrs": {"__shape__": "(64, 64, 3, 3)"}, 
      "inputs": []
    }, 
    {
      "op": "null", 
      "name": "learned_263", 
      "attrs": {"__shape__": "(64,)"}, 
      "inputs": []
    }, 
    {
      "op": "Convolution", 
      "name": "convolution134", 
      "attrs": {
        "dilate": "(1, 1)", 
        "kernel": "(3, 3)", 
        "no_bias": "False", 
        "num_filter": "64", 
        "num_group": "1", 
        "stride": "(1, 1)"
      }, 
      "inputs": [[765, 0, 0], [766, 0, 0], [767, 0, 0]]
    }, 
    {
      "op": "relu", 
      "name": "relu135", 
      "inputs": [[768, 0, 0]]
    }, 
    {
      "op": "Pad", 
      "name": "pad135", 
      "attrs": {
        "mode": "constant", 
        "pad_width": "(0, 0, 0, 0, 1, 1, 1, 1)"
      }, 
      "inputs": [[769, 0, 0]]
    }, 
    {
      "op": "null", 
      "name": "learned_264", 
      "attrs": {"__shape__": "(64, 64, 3, 3)"}, 
      "inputs": []
    }, 
    {
      "op": "null", 
      "name": "learned_265", 
      "attrs": {"__shape__": "(64,)"}, 
      "inputs": []
    }, 
    {
      "op": "Convolution", 
      "name": "convolution135", 
      "attrs": {
        "dilate": "(1, 1)", 
        "kernel": "(3, 3)", 
        "no_bias": "False", 
        "num_filter": "64", 
        "num_group": "1", 
        "stride": "(1, 1)"
      }, 
      "inputs": [[770, 0, 0], [771, 0, 0], [772, 0, 0]]
    }, 
    {
      "op": "broadcast_add", 
      "name": "broadcast_add41", 
      "inputs": [[773, 0, 0], [764, 0, 0]]
    }, 
    {
      "op": "Concat", 
      "name": "concat51", 
      "attrs": {
        "dim": "1", 
        "num_args": "2"
      }, 
      "inputs": [[758, 0, 0], [774, 0, 0]]
    }, 
    {
      "op": "Pad", 
      "name": "pad136", 
      "attrs": {
        "mode": "constant", 
        "pad_width": "(0, 0, 0, 0, 0, 0, 0, 0)"
      }, 
      "inputs": [[775, 0, 0]]
    }, 
    {
      "op": "null", 
      "name": "learned_276", 
      "attrs": {"__shape__": "(64, 192, 1, 1)"}, 
      "inputs": []
    }, 
    {
      "op": "null", 
      "name": "learned_277", 
      "attrs": {"__shape__": "(64,)"}, 
      "inputs": []
    }, 
    {
      "op": "Convolution", 
      "name": "convolution136", 
      "attrs": {
        "dilate": "(1, 1)", 
        "kernel": "(1, 1)", 
        "no_bias": "False", 
        "num_filter": "64", 
        "num_group": "1", 
        "stride": "(1, 1)"
      }, 
      "inputs": [[776, 0, 0], [777, 0, 0], [778, 0, 0]]
    }, 
    {
      "op": "relu", 
      "name": "relu136", 
      "inputs": [[779, 0, 0]]
    }, 
    {
      "op": "relu", 
      "name": "relu137", 
      "inputs": [[780, 0, 0]]
    }, 
    {
      "op": "Pad", 
      "name": "pad137", 
      "attrs": {
        "mode": "constant", 
        "pad_width": "(0, 0, 0, 0, 1, 1, 1, 1)"
      }, 
      "inputs": [[781, 0, 0]]
    }, 
    {
      "op": "null", 
      "name": "learned_266", 
      "attrs": {"__shape__": "(64, 64, 3, 3)"}, 
      "inputs": []
    }, 
    {
      "op": "null", 
      "name": "learned_267", 
      "attrs": {"__shape__": "(64,)"}, 
      "inputs": []
    }, 
    {
      "op": "Convolution", 
      "name": "convolution137", 
      "attrs": {
        "dilate": "(1, 1)", 
        "kernel": "(3, 3)", 
        "no_bias": "False", 
        "num_filter": "64", 
        "num_group": "1", 
        "stride": "(1, 1)"
      }, 
      "inputs": [[782, 0, 0], [783, 0, 0], [784, 0, 0]]
    }, 
    {
      "op": "relu", 
      "name": "relu138", 
      "inputs": [[785, 0, 0]]
    }, 
    {
      "op": "Pad", 
      "name": "pad138", 
      "attrs": {
        "mode": "constant", 
        "pad_width": "(0, 0, 0, 0, 1, 1, 1, 1)"
      }, 
      "inputs": [[786, 0, 0]]
    }, 
    {
      "op": "null", 
      "name": "learned_268", 
      "attrs": {"__shape__": "(64, 64, 3, 3)"}, 
      "inputs": []
    }, 
    {
      "op": "null", 
      "name": "learned_269", 
      "attrs": {"__shape__": "(64,)"}, 
      "inputs": []
    }, 
    {
      "op": "Convolution", 
      "name": "convolution138", 
      "attrs": {
        "dilate": "(1, 1)", 
        "kernel": "(3, 3)", 
        "no_bias": "False", 
        "num_filter": "64", 
        "num_group": "1", 
        "stride": "(1, 1)"
      }, 
      "inputs": [[787, 0, 0], [788, 0, 0], [789, 0, 0]]
    }, 
    {
      "op": "broadcast_add", 
      "name": "broadcast_add42", 
      "inputs": [[790, 0, 0], [781, 0, 0]]
    }, 
    {
      "op": "Concat", 
      "name": "concat52", 
      "attrs": {
        "dim": "1", 
        "num_args": "2"
      }, 
      "inputs": [[775, 0, 0], [791, 0, 0]]
    }, 
    {
      "op": "Pad", 
      "name": "pad139", 
      "attrs": {
        "mode": "constant", 
        "pad_width": "(0, 0, 0, 0, 0, 0, 0, 0)"
      }, 
      "inputs": [[792, 0, 0]]
    }, 
    {
      "op": "null", 
      "name": "learned_278", 
      "attrs": {"__shape__": "(64, 256, 1, 1)"}, 
      "inputs": []
    }, 
    {
      "op": "null", 
      "name": "learned_279", 
      "attrs": {"__shape__": "(64,)"}, 
      "inputs": []
    }, 
    {
      "op": "Convolution", 
      "name": "convolution139", 
      "attrs": {
        "dilate": "(1, 1)", 
        "kernel": "(1, 1)", 
        "no_bias": "False", 
        "num_filter": "64", 
        "num_group": "1", 
        "stride": "(1, 1)"
      }, 
      "inputs": [[793, 0, 0], [794, 0, 0], [795, 0, 0]]
    }, 
    {
      "op": "relu", 
      "name": "relu139", 
      "inputs": [[796, 0, 0]]
    }, 
    {
      "op": "relu", 
      "name": "relu140", 
      "inputs": [[797, 0, 0]]
    }, 
    {
      "op": "Pad", 
      "name": "pad140", 
      "attrs": {
        "mode": "constant", 
        "pad_width": "(0, 0, 0, 0, 1, 1, 1, 1)"
      }, 
      "inputs": [[798, 0, 0]]
    }, 
    {
      "op": "null", 
      "name": "learned_270", 
      "attrs": {"__shape__": "(64, 64, 3, 3)"}, 
      "inputs": []
    }, 
    {
      "op": "null", 
      "name": "learned_271", 
      "attrs": {"__shape__": "(64,)"}, 
      "inputs": []
    }, 
    {
      "op": "Convolution", 
      "name": "convolution140", 
      "attrs": {
        "dilate": "(1, 1)", 
        "kernel": "(3, 3)", 
        "no_bias": "False", 
        "num_filter": "64", 
        "num_group": "1", 
        "stride": "(1, 1)"
      }, 
      "inputs": [[799, 0, 0], [800, 0, 0], [801, 0, 0]]
    }, 
    {
      "op": "relu", 
      "name": "relu141", 
      "inputs": [[802, 0, 0]]
    }, 
    {
      "op": "Pad", 
      "name": "pad141", 
      "attrs": {
        "mode": "constant", 
        "pad_width": "(0, 0, 0, 0, 1, 1, 1, 1)"
      }, 
      "inputs": [[803, 0, 0]]
    }, 
    {
      "op": "null", 
      "name": "learned_272", 
      "attrs": {"__shape__": "(64, 64, 3, 3)"}, 
      "inputs": []
    }, 
    {
      "op": "null", 
      "name": "learned_273", 
      "attrs": {"__shape__": "(64,)"}, 
      "inputs": []
    }, 
    {
      "op": "Convolution", 
      "name": "convolution141", 
      "attrs": {
        "dilate": "(1, 1)", 
        "kernel": "(3, 3)", 
        "no_bias": "False", 
        "num_filter": "64", 
        "num_group": "1", 
        "stride": "(1, 1)"
      }, 
      "inputs": [[804, 0, 0], [805, 0, 0], [806, 0, 0]]
    }, 
    {
      "op": "broadcast_add", 
      "name": "broadcast_add43", 
      "inputs": [[807, 0, 0], [798, 0, 0]]
    }, 
    {
      "op": "Concat", 
      "name": "concat53", 
      "attrs": {
        "dim": "1", 
        "num_args": "2"
      }, 
      "inputs": [[792, 0, 0], [808, 0, 0]]
    }, 
    {
      "op": "Pad", 
      "name": "pad142", 
      "attrs": {
        "mode": "constant", 
        "pad_width": "(0, 0, 0, 0, 0, 0, 0, 0)"
      }, 
      "inputs": [[809, 0, 0]]
    }, 
    {
      "op": "null", 
      "name": "learned_280", 
      "attrs": {"__shape__": "(64, 320, 1, 1)"}, 
      "inputs": []
    }, 
    {
      "op": "null", 
      "name": "learned_281", 
      "attrs": {"__shape__": "(64,)"}, 
      "inputs": []
    }, 
    {
      "op": "Convolution", 
      "name": "convolution142", 
      "attrs": {
        "dilate": "(1, 1)", 
        "kernel": "(1, 1)", 
        "no_bias": "False", 
        "num_filter": "64", 
        "num_group": "1", 
        "stride": "(1, 1)"
      }, 
      "inputs": [[810, 0, 0], [811, 0, 0], [812, 0, 0]]
    }, 
    {
      "op": "relu", 
      "name": "relu142", 
      "inputs": [[813, 0, 0]]
    }, 
    {
      "op": "Concat", 
      "name": "concat54", 
      "attrs": {
        "dim": "1", 
        "num_args": "2"
      }, 
      "inputs": [[741, 0, 0], [814, 0, 0]]
    }, 
    {
      "op": "Pad", 
      "name": "pad143", 
      "attrs": {
        "mode": "constant", 
        "pad_width": "(0, 0, 0, 0, 0, 0, 0, 0)"
      }, 
      "inputs": [[815, 0, 0]]
    }, 
    {
      "op": "null", 
      "name": "learned_406", 
      "attrs": {"__shape__": "(64, 256, 1, 1)"}, 
      "inputs": []
    }, 
    {
      "op": "null", 
      "name": "learned_407", 
      "attrs": {"__shape__": "(64,)"}, 
      "inputs": []
    }, 
    {
      "op": "Convolution", 
      "name": "convolution143", 
      "attrs": {
        "dilate": "(1, 1)", 
        "kernel": "(1, 1)", 
        "no_bias": "False", 
        "num_filter": "64", 
        "num_group": "1", 
        "stride": "(1, 1)"
      }, 
      "inputs": [[816, 0, 0], [817, 0, 0], [818, 0, 0]]
    }, 
    {
      "op": "relu", 
      "name": "relu143", 
      "inputs": [[819, 0, 0]]
    }, 
    {
      "op": "relu", 
      "name": "relu144", 
      "inputs": [[820, 0, 0]]
    }, 
    {
      "op": "Pad", 
      "name": "pad144", 
      "attrs": {
        "mode": "constant", 
        "pad_width": "(0, 0, 0, 0, 1, 1, 1, 1)"
      }, 
      "inputs": [[821, 0, 0]]
    }, 
    {
      "op": "null", 
      "name": "learned_282", 
      "attrs": {"__shape__": "(64, 64, 3, 3)"}, 
      "inputs": []
    }, 
    {
      "op": "null", 
      "name": "learned_283", 
      "attrs": {"__shape__": "(64,)"}, 
      "inputs": []
    }, 
    {
      "op": "Convolution", 
      "name": "convolution144", 
      "attrs": {
        "dilate": "(1, 1)", 
        "kernel": "(3, 3)", 
        "no_bias": "False", 
        "num_filter": "64", 
        "num_group": "1", 
        "stride": "(1, 1)"
      }, 
      "inputs": [[822, 0, 0], [823, 0, 0], [824, 0, 0]]
    }, 
    {
      "op": "relu", 
      "name": "relu145", 
      "inputs": [[825, 0, 0]]
    }, 
    {
      "op": "Pad", 
      "name": "pad145", 
      "attrs": {
        "mode": "constant", 
        "pad_width": "(0, 0, 0, 0, 1, 1, 1, 1)"
      }, 
      "inputs": [[826, 0, 0]]
    }, 
    {
      "op": "null", 
      "name": "learned_284", 
      "attrs": {"__shape__": "(64, 64, 3, 3)"}, 
      "inputs": []
    }, 
    {
      "op": "null", 
      "name": "learned_285", 
      "attrs": {"__shape__": "(64,)"}, 
      "inputs": []
    }, 
    {
      "op": "Convolution", 
      "name": "convolution145", 
      "attrs": {
        "dilate": "(1, 1)", 
        "kernel": "(3, 3)", 
        "no_bias": "False", 
        "num_filter": "64", 
        "num_group": "1", 
        "stride": "(1, 1)"
      }, 
      "inputs": [[827, 0, 0], [828, 0, 0], [829, 0, 0]]
    }, 
    {
      "op": "broadcast_add", 
      "name": "broadcast_add44", 
      "inputs": [[830, 0, 0], [821, 0, 0]]
    }, 
    {
      "op": "Concat", 
      "name": "concat55", 
      "attrs": {
        "dim": "1", 
        "num_args": "2"
      }, 
      "inputs": [[821, 0, 0], [831, 0, 0]]
    }, 
    {
      "op": "Pad", 
      "name": "pad146", 
      "attrs": {
        "mode": "constant", 
        "pad_width": "(0, 0, 0, 0, 0, 0, 0, 0)"
      }, 
      "inputs": [[832, 0, 0]]
    }, 
    {
      "op": "null", 
      "name": "learned_298", 
      "attrs": {"__shape__": "(64, 128, 1, 1)"}, 
      "inputs": []
    }, 
    {
      "op": "null", 
      "name": "learned_299", 
      "attrs": {"__shape__": "(64,)"}, 
      "inputs": []
    }, 
    {
      "op": "Convolution", 
      "name": "convolution146", 
      "attrs": {
        "dilate": "(1, 1)", 
        "kernel": "(1, 1)", 
        "no_bias": "False", 
        "num_filter": "64", 
        "num_group": "1", 
        "stride": "(1, 1)"
      }, 
      "inputs": [[833, 0, 0], [834, 0, 0], [835, 0, 0]]
    }, 
    {
      "op": "relu", 
      "name": "relu146", 
      "inputs": [[836, 0, 0]]
    }, 
    {
      "op": "relu", 
      "name": "relu147", 
      "inputs": [[837, 0, 0]]
    }, 
    {
      "op": "Pad", 
      "name": "pad147", 
      "attrs": {
        "mode": "constant", 
        "pad_width": "(0, 0, 0, 0, 1, 1, 1, 1)"
      }, 
      "inputs": [[838, 0, 0]]
    }, 
    {
      "op": "null", 
      "name": "learned_286", 
      "attrs": {"__shape__": "(64, 64, 3, 3)"}, 
      "inputs": []
    }, 
    {
      "op": "null", 
      "name": "learned_287", 
      "attrs": {"__shape__": "(64,)"}, 
      "inputs": []
    }, 
    {
      "op": "Convolution", 
      "name": "convolution147", 
      "attrs": {
        "dilate": "(1, 1)", 
        "kernel": "(3, 3)", 
        "no_bias": "False", 
        "num_filter": "64", 
        "num_group": "1", 
        "stride": "(1, 1)"
      }, 
      "inputs": [[839, 0, 0], [840, 0, 0], [841, 0, 0]]
    }, 
    {
      "op": "relu", 
      "name": "relu148", 
      "inputs": [[842, 0, 0]]
    }, 
    {
      "op": "Pad", 
      "name": "pad148", 
      "attrs": {
        "mode": "constant", 
        "pad_width": "(0, 0, 0, 0, 1, 1, 1, 1)"
      }, 
      "inputs": [[843, 0, 0]]
    }, 
    {
      "op": "null", 
      "name": "learned_288", 
      "attrs": {"__shape__": "(64, 64, 3, 3)"}, 
      "inputs": []
    }, 
    {
      "op": "null", 
      "name": "learned_289", 
      "attrs": {"__shape__": "(64,)"}, 
      "inputs": []
    }, 
    {
      "op": "Convolution", 
      "name": "convolution148", 
      "attrs": {
        "dilate": "(1, 1)", 
        "kernel": "(3, 3)", 
        "no_bias": "False", 
        "num_filter": "64", 
        "num_group": "1", 
        "stride": "(1, 1)"
      }, 
      "inputs": [[844, 0, 0], [845, 0, 0], [846, 0, 0]]
    }, 
    {
      "op": "broadcast_add", 
      "name": "broadcast_add45", 
      "inputs": [[847, 0, 0], [838, 0, 0]]
    }, 
    {
      "op": "Concat", 
      "name": "concat56", 
      "attrs": {
        "dim": "1", 
        "num_args": "2"
      }, 
      "inputs": [[832, 0, 0], [848, 0, 0]]
    }, 
    {
      "op": "Pad", 
      "name": "pad149", 
      "attrs": {
        "mode": "constant", 
        "pad_width": "(0, 0, 0, 0, 0, 0, 0, 0)"
      }, 
      "inputs": [[849, 0, 0]]
    }, 
    {
      "op": "null", 
      "name": "learned_300", 
      "attrs": {"__shape__": "(64, 192, 1, 1)"}, 
      "inputs": []
    }, 
    {
      "op": "null", 
      "name": "learned_301", 
      "attrs": {"__shape__": "(64,)"}, 
      "inputs": []
    }, 
    {
      "op": "Convolution", 
      "name": "convolution149", 
      "attrs": {
        "dilate": "(1, 1)", 
        "kernel": "(1, 1)", 
        "no_bias": "False", 
        "num_filter": "64", 
        "num_group": "1", 
        "stride": "(1, 1)"
      }, 
      "inputs": [[850, 0, 0], [851, 0, 0], [852, 0, 0]]
    }, 
    {
      "op": "relu", 
      "name": "relu149", 
      "inputs": [[853, 0, 0]]
    }, 
    {
      "op": "relu", 
      "name": "relu150", 
      "inputs": [[854, 0, 0]]
    }, 
    {
      "op": "Pad", 
      "name": "pad150", 
      "attrs": {
        "mode": "constant", 
        "pad_width": "(0, 0, 0, 0, 1, 1, 1, 1)"
      }, 
      "inputs": [[855, 0, 0]]
    }, 
    {
      "op": "null", 
      "name": "learned_290", 
      "attrs": {"__shape__": "(64, 64, 3, 3)"}, 
      "inputs": []
    }, 
    {
      "op": "null", 
      "name": "learned_291", 
      "attrs": {"__shape__": "(64,)"}, 
      "inputs": []
    }, 
    {
      "op": "Convolution", 
      "name": "convolution150", 
      "attrs": {
        "dilate": "(1, 1)", 
        "kernel": "(3, 3)", 
        "no_bias": "False", 
        "num_filter": "64", 
        "num_group": "1", 
        "stride": "(1, 1)"
      }, 
      "inputs": [[856, 0, 0], [857, 0, 0], [858, 0, 0]]
    }, 
    {
      "op": "relu", 
      "name": "relu151", 
      "inputs": [[859, 0, 0]]
    }, 
    {
      "op": "Pad", 
      "name": "pad151", 
      "attrs": {
        "mode": "constant", 
        "pad_width": "(0, 0, 0, 0, 1, 1, 1, 1)"
      }, 
      "inputs": [[860, 0, 0]]
    }, 
    {
      "op": "null", 
      "name": "learned_292", 
      "attrs": {"__shape__": "(64, 64, 3, 3)"}, 
      "inputs": []
    }, 
    {
      "op": "null", 
      "name": "learned_293", 
      "attrs": {"__shape__": "(64,)"}, 
      "inputs": []
    }, 
    {
      "op": "Convolution", 
      "name": "convolution151", 
      "attrs": {
        "dilate": "(1, 1)", 
        "kernel": "(3, 3)", 
        "no_bias": "False", 
        "num_filter": "64", 
        "num_group": "1", 
        "stride": "(1, 1)"
      }, 
      "inputs": [[861, 0, 0], [862, 0, 0], [863, 0, 0]]
    }, 
    {
      "op": "broadcast_add", 
      "name": "broadcast_add46", 
      "inputs": [[864, 0, 0], [855, 0, 0]]
    }, 
    {
      "op": "Concat", 
      "name": "concat57", 
      "attrs": {
        "dim": "1", 
        "num_args": "2"
      }, 
      "inputs": [[849, 0, 0], [865, 0, 0]]
    }, 
    {
      "op": "Pad", 
      "name": "pad152", 
      "attrs": {
        "mode": "constant", 
        "pad_width": "(0, 0, 0, 0, 0, 0, 0, 0)"
      }, 
      "inputs": [[866, 0, 0]]
    }, 
    {
      "op": "null", 
      "name": "learned_302", 
      "attrs": {"__shape__": "(64, 256, 1, 1)"}, 
      "inputs": []
    }, 
    {
      "op": "null", 
      "name": "learned_303", 
      "attrs": {"__shape__": "(64,)"}, 
      "inputs": []
    }, 
    {
      "op": "Convolution", 
      "name": "convolution152", 
      "attrs": {
        "dilate": "(1, 1)", 
        "kernel": "(1, 1)", 
        "no_bias": "False", 
        "num_filter": "64", 
        "num_group": "1", 
        "stride": "(1, 1)"
      }, 
      "inputs": [[867, 0, 0], [868, 0, 0], [869, 0, 0]]
    }, 
    {
      "op": "relu", 
      "name": "relu152", 
      "inputs": [[870, 0, 0]]
    }, 
    {
      "op": "relu", 
      "name": "relu153", 
      "inputs": [[871, 0, 0]]
    }, 
    {
      "op": "Pad", 
      "name": "pad153", 
      "attrs": {
        "mode": "constant", 
        "pad_width": "(0, 0, 0, 0, 1, 1, 1, 1)"
      }, 
      "inputs": [[872, 0, 0]]
    }, 
    {
      "op": "null", 
      "name": "learned_294", 
      "attrs": {"__shape__": "(64, 64, 3, 3)"}, 
      "inputs": []
    }, 
    {
      "op": "null", 
      "name": "learned_295", 
      "attrs": {"__shape__": "(64,)"}, 
      "inputs": []
    }, 
    {
      "op": "Convolution", 
      "name": "convolution153", 
      "attrs": {
        "dilate": "(1, 1)", 
        "kernel": "(3, 3)", 
        "no_bias": "False", 
        "num_filter": "64", 
        "num_group": "1", 
        "stride": "(1, 1)"
      }, 
      "inputs": [[873, 0, 0], [874, 0, 0], [875, 0, 0]]
    }, 
    {
      "op": "relu", 
      "name": "relu154", 
      "inputs": [[876, 0, 0]]
    }, 
    {
      "op": "Pad", 
      "name": "pad154", 
      "attrs": {
        "mode": "constant", 
        "pad_width": "(0, 0, 0, 0, 1, 1, 1, 1)"
      }, 
      "inputs": [[877, 0, 0]]
    }, 
    {
      "op": "null", 
…
        "pad_width": "(0, 0, 0, 0, 1, 1, 1, 1)"
      }, 
      "inputs": [[1660, 0, 0]]
    }, 
    {
      "op": "null", 
      "name": "learned_568", 
      "attrs": {"__shape__": "(64, 64, 3, 3)"}, 
      "inputs": []
    }, 
    {
      "op": "null", 
      "name": "learned_569", 
      "attrs": {"__shape__": "(64,)"}, 
      "inputs": []
    }, 
    {
      "op": "Convolution", 
      "name": "convolution291", 
      "attrs": {
        "dilate": "(1, 1)", 
        "kernel": "(3, 3)", 
        "no_bias": "False", 
        "num_filter": "64", 
        "num_group": "1", 
        "stride": "(1, 1)"
      }, 
      "inputs": [[1661, 0, 0], [1662, 0, 0], [1663, 0, 0]]
    }, 
    {
      "op": "relu", 
      "name": "relu292", 
      "inputs": [[1664, 0, 0]]
    }, 
    {
      "op": "Pad", 
      "name": "pad292", 
      "attrs": {
        "mode": "constant", 
        "pad_width": "(0, 0, 0, 0, 1, 1, 1, 1)"
      }, 
      "inputs": [[1665, 0, 0]]
    }, 
    {
      "op": "null", 
      "name": "learned_570", 
      "attrs": {"__shape__": "(64, 64, 3, 3)"}, 
      "inputs": []
    }, 
    {
      "op": "null", 
      "name": "learned_571", 
      "attrs": {"__shape__": "(64,)"}, 
      "inputs": []
    }, 
    {
      "op": "Convolution", 
      "name": "convolution292", 
      "attrs": {
        "dilate": "(1, 1)", 
        "kernel": "(3, 3)", 
        "no_bias": "False", 
        "num_filter": "64", 
        "num_group": "1", 
        "stride": "(1, 1)"
      }, 
      "inputs": [[1666, 0, 0], [1667, 0, 0], [1668, 0, 0]]
    }, 
    {
      "op": "broadcast_add", 
      "name": "broadcast_add89", 
      "inputs": [[1669, 0, 0], [1660, 0, 0]]
    }, 
    {
      "op": "Concat", 
      "name": "concat111", 
      "attrs": {
        "dim": "1", 
        "num_args": "2"
      }, 
      "inputs": [[1654, 0, 0], [1670, 0, 0]]
    }, 
    {
      "op": "Pad", 
      "name": "pad293", 
      "attrs": {
        "mode": "constant", 
        "pad_width": "(0, 0, 0, 0, 0, 0, 0, 0)"
      }, 
      "inputs": [[1671, 0, 0]]
    }, 
    {
      "op": "null", 
      "name": "learned_582", 
      "attrs": {"__shape__": "(64, 192, 1, 1)"}, 
      "inputs": []
    }, 
    {
      "op": "null", 
      "name": "learned_583", 
      "attrs": {"__shape__": "(64,)"}, 
      "inputs": []
    }, 
    {
      "op": "Convolution", 
      "name": "convolution293", 
      "attrs": {
        "dilate": "(1, 1)", 
        "kernel": "(1, 1)", 
        "no_bias": "False", 
        "num_filter": "64", 
        "num_group": "1", 
        "stride": "(1, 1)"
      }, 
      "inputs": [[1672, 0, 0], [1673, 0, 0], [1674, 0, 0]]
    }, 
    {
      "op": "relu", 
      "name": "relu293", 
      "inputs": [[1675, 0, 0]]
    }, 
    {
      "op": "relu", 
      "name": "relu294", 
      "inputs": [[1676, 0, 0]]
    }, 
    {
      "op": "Pad", 
      "name": "pad294", 
      "attrs": {
        "mode": "constant", 
        "pad_width": "(0, 0, 0, 0, 1, 1, 1, 1)"
      }, 
      "inputs": [[1677, 0, 0]]
    }, 
    {
      "op": "null", 
      "name": "learned_572", 
      "attrs": {"__shape__": "(64, 64, 3, 3)"}, 
      "inputs": []
    }, 
    {
      "op": "null", 
      "name": "learned_573", 
      "attrs": {"__shape__": "(64,)"}, 
      "inputs": []
    }, 
    {
      "op": "Convolution", 
      "name": "convolution294", 
      "attrs": {
        "dilate": "(1, 1)", 
        "kernel": "(3, 3)", 
        "no_bias": "False", 
        "num_filter": "64", 
        "num_group": "1", 
        "stride": "(1, 1)"
      }, 
      "inputs": [[1678, 0, 0], [1679, 0, 0], [1680, 0, 0]]
    }, 
    {
      "op": "relu", 
      "name": "relu295", 
      "inputs": [[1681, 0, 0]]
    }, 
    {
      "op": "Pad", 
      "name": "pad295", 
      "attrs": {
        "mode": "constant", 
        "pad_width": "(0, 0, 0, 0, 1, 1, 1, 1)"
      }, 
      "inputs": [[1682, 0, 0]]
    }, 
    {
      "op": "null", 
      "name": "learned_574", 
      "attrs": {"__shape__": "(64, 64, 3, 3)"}, 
      "inputs": []
    }, 
    {
      "op": "null", 
      "name": "learned_575", 
      "attrs": {"__shape__": "(64,)"}, 
      "inputs": []
    }, 
    {
      "op": "Convolution", 
      "name": "convolution295", 
      "attrs": {
        "dilate": "(1, 1)", 
        "kernel": "(3, 3)", 
        "no_bias": "False", 
        "num_filter": "64", 
        "num_group": "1", 
        "stride": "(1, 1)"
      }, 
      "inputs": [[1683, 0, 0], [1684, 0, 0], [1685, 0, 0]]
    }, 
    {
      "op": "broadcast_add", 
      "name": "broadcast_add90", 
      "inputs": [[1686, 0, 0], [1677, 0, 0]]
    }, 
    {
      "op": "Concat", 
      "name": "concat112", 
      "attrs": {
        "dim": "1", 
        "num_args": "2"
      }, 
      "inputs": [[1671, 0, 0], [1687, 0, 0]]
    }, 
    {
      "op": "Pad", 
      "name": "pad296", 
      "attrs": {
        "mode": "constant", 
        "pad_width": "(0, 0, 0, 0, 0, 0, 0, 0)"
      }, 
      "inputs": [[1688, 0, 0]]
    }, 
    {
      "op": "null", 
      "name": "learned_584", 
      "attrs": {"__shape__": "(64, 256, 1, 1)"}, 
      "inputs": []
    }, 
    {
      "op": "null", 
      "name": "learned_585", 
      "attrs": {"__shape__": "(64,)"}, 
      "inputs": []
    }, 
    {
      "op": "Convolution", 
      "name": "convolution296", 
      "attrs": {
        "dilate": "(1, 1)", 
        "kernel": "(1, 1)", 
        "no_bias": "False", 
        "num_filter": "64", 
        "num_group": "1", 
        "stride": "(1, 1)"
      }, 
      "inputs": [[1689, 0, 0], [1690, 0, 0], [1691, 0, 0]]
    }, 
    {
      "op": "relu", 
      "name": "relu296", 
      "inputs": [[1692, 0, 0]]
    }, 
    {
      "op": "relu", 
      "name": "relu297", 
      "inputs": [[1693, 0, 0]]
    }, 
    {
      "op": "Pad", 
      "name": "pad297", 
      "attrs": {
        "mode": "constant", 
        "pad_width": "(0, 0, 0, 0, 1, 1, 1, 1)"
      }, 
      "inputs": [[1694, 0, 0]]
    }, 
    {
      "op": "null", 
      "name": "learned_576", 
      "attrs": {"__shape__": "(64, 64, 3, 3)"}, 
      "inputs": []
    }, 
    {
      "op": "null", 
      "name": "learned_577", 
      "attrs": {"__shape__": "(64,)"}, 
      "inputs": []
    }, 
    {
      "op": "Convolution", 
      "name": "convolution297", 
      "attrs": {
        "dilate": "(1, 1)", 
        "kernel": "(3, 3)", 
        "no_bias": "False", 
        "num_filter": "64", 
        "num_group": "1", 
        "stride": "(1, 1)"
      }, 
      "inputs": [[1695, 0, 0], [1696, 0, 0], [1697, 0, 0]]
    }, 
    {
      "op": "relu", 
      "name": "relu298", 
      "inputs": [[1698, 0, 0]]
    }, 
    {
      "op": "Pad", 
      "name": "pad298", 
      "attrs": {
        "mode": "constant", 
        "pad_width": "(0, 0, 0, 0, 1, 1, 1, 1)"
      }, 
      "inputs": [[1699, 0, 0]]
    }, 
    {
      "op": "null", 
      "name": "learned_578", 
      "attrs": {"__shape__": "(64, 64, 3, 3)"}, 
      "inputs": []
    }, 
    {
      "op": "null", 
      "name": "learned_579", 
      "attrs": {"__shape__": "(64,)"}, 
      "inputs": []
    }, 
    {
      "op": "Convolution", 
      "name": "convolution298", 
      "attrs": {
        "dilate": "(1, 1)", 
        "kernel": "(3, 3)", 
        "no_bias": "False", 
        "num_filter": "64", 
        "num_group": "1", 
        "stride": "(1, 1)"
      }, 
      "inputs": [[1700, 0, 0], [1701, 0, 0], [1702, 0, 0]]
    }, 
    {
      "op": "broadcast_add", 
      "name": "broadcast_add91", 
      "inputs": [[1703, 0, 0], [1694, 0, 0]]
    }, 
    {
      "op": "Concat", 
      "name": "concat113", 
      "attrs": {
        "dim": "1", 
        "num_args": "2"
      }, 
      "inputs": [[1688, 0, 0], [1704, 0, 0]]
    }, 
    {
      "op": "Pad", 
      "name": "pad299", 
      "attrs": {
        "mode": "constant", 
        "pad_width": "(0, 0, 0, 0, 0, 0, 0, 0)"
      }, 
      "inputs": [[1705, 0, 0]]
    }, 
    {
      "op": "null", 
      "name": "learned_586", 
      "attrs": {"__shape__": "(64, 320, 1, 1)"}, 
      "inputs": []
    }, 
    {
      "op": "null", 
      "name": "learned_587", 
      "attrs": {"__shape__": "(64,)"}, 
      "inputs": []
    }, 
    {
      "op": "Convolution", 
      "name": "convolution299", 
      "attrs": {
        "dilate": "(1, 1)", 
        "kernel": "(1, 1)", 
        "no_bias": "False", 
        "num_filter": "64", 
        "num_group": "1", 
        "stride": "(1, 1)"
      }, 
      "inputs": [[1706, 0, 0], [1707, 0, 0], [1708, 0, 0]]
    }, 
    {
      "op": "relu", 
      "name": "relu299", 
      "inputs": [[1709, 0, 0]]
    }, 
    {
      "op": "Concat", 
      "name": "concat114", 
      "attrs": {
        "dim": "1", 
        "num_args": "2"
      }, 
      "inputs": [[1637, 0, 0], [1710, 0, 0]]
    }, 
    {
      "op": "Pad", 
      "name": "pad300", 
      "attrs": {
        "mode": "constant", 
        "pad_width": "(0, 0, 0, 0, 0, 0, 0, 0)"
      }, 
      "inputs": [[1711, 0, 0]]
    }, 
    {
      "op": "null", 
      "name": "learned_624", 
      "attrs": {"__shape__": "(64, 512, 1, 1)"}, 
      "inputs": []
    }, 
    {
      "op": "null", 
      "name": "learned_625", 
      "attrs": {"__shape__": "(64,)"}, 
      "inputs": []
    }, 
    {
      "op": "Convolution", 
      "name": "convolution300", 
      "attrs": {
        "dilate": "(1, 1)", 
        "kernel": "(1, 1)", 
        "no_bias": "False", 
        "num_filter": "64", 
        "num_group": "1", 
        "stride": "(1, 1)"
      }, 
      "inputs": [[1712, 0, 0], [1713, 0, 0], [1714, 0, 0]]
    }, 
    {
      "op": "relu", 
      "name": "relu300", 
      "inputs": [[1715, 0, 0]]
    }, 
    {
      "op": "relu", 
      "name": "relu301", 
      "inputs": [[1716, 0, 0]]
    }, 
    {
      "op": "Pad", 
      "name": "pad301", 
      "attrs": {
        "mode": "constant", 
        "pad_width": "(0, 0, 0, 0, 1, 1, 1, 1)"
      }, 
      "inputs": [[1717, 0, 0]]
    }, 
    {
      "op": "null", 
      "name": "learned_588", 
      "attrs": {"__shape__": "(64, 64, 3, 3)"}, 
      "inputs": []
    }, 
    {
      "op": "null", 
      "name": "learned_589", 
      "attrs": {"__shape__": "(64,)"}, 
      "inputs": []
    }, 
    {
      "op": "Convolution", 
      "name": "convolution301", 
      "attrs": {
        "dilate": "(1, 1)", 
        "kernel": "(3, 3)", 
        "no_bias": "False", 
        "num_filter": "64", 
        "num_group": "1", 
        "stride": "(1, 1)"
      }, 
      "inputs": [[1718, 0, 0], [1719, 0, 0], [1720, 0, 0]]
    }, 
    {
      "op": "relu", 
      "name": "relu302", 
      "inputs": [[1721, 0, 0]]
    }, 
    {
      "op": "Pad", 
      "name": "pad302", 
      "attrs": {
        "mode": "constant", 
        "pad_width": "(0, 0, 0, 0, 1, 1, 1, 1)"
      }, 
      "inputs": [[1722, 0, 0]]
    }, 
    {
      "op": "null", 
      "name": "learned_590", 
      "attrs": {"__shape__": "(64, 64, 3, 3)"}, 
      "inputs": []
    }, 
    {
      "op": "null", 
      "name": "learned_591", 
      "attrs": {"__shape__": "(64,)"}, 
      "inputs": []
    }, 
    {
      "op": "Convolution", 
      "name": "convolution302", 
      "attrs": {
        "dilate": "(1, 1)", 
        "kernel": "(3, 3)", 
        "no_bias": "False", 
        "num_filter": "64", 
        "num_group": "1", 
        "stride": "(1, 1)"
      }, 
      "inputs": [[1723, 0, 0], [1724, 0, 0], [1725, 0, 0]]
    }, 
    {
      "op": "broadcast_add", 
      "name": "broadcast_add92", 
      "inputs": [[1726, 0, 0], [1717, 0, 0]]
    }, 
    {
      "op": "Concat", 
      "name": "concat115", 
      "attrs": {
        "dim": "1", 
        "num_args": "2"
      }, 
      "inputs": [[1717, 0, 0], [1727, 0, 0]]
    }, 
    {
      "op": "Pad", 
      "name": "pad303", 
      "attrs": {
        "mode": "constant", 
        "pad_width": "(0, 0, 0, 0, 0, 0, 0, 0)"
      }, 
      "inputs": [[1728, 0, 0]]
    }, 
    {
      "op": "null", 
      "name": "learned_604", 
      "attrs": {"__shape__": "(64, 128, 1, 1)"}, 
      "inputs": []
    }, 
    {
      "op": "null", 
      "name": "learned_605", 
      "attrs": {"__shape__": "(64,)"}, 
      "inputs": []
    }, 
    {
      "op": "Convolution", 
      "name": "convolution303", 
      "attrs": {
        "dilate": "(1, 1)", 
        "kernel": "(1, 1)", 
        "no_bias": "False", 
        "num_filter": "64", 
        "num_group": "1", 
        "stride": "(1, 1)"
      }, 
      "inputs": [[1729, 0, 0], [1730, 0, 0], [1731, 0, 0]]
    }, 
    {
      "op": "relu", 
      "name": "relu303", 
      "inputs": [[1732, 0, 0]]
    }, 
    {
      "op": "relu", 
      "name": "relu304", 
      "inputs": [[1733, 0, 0]]
    }, 
    {
      "op": "Pad", 
      "name": "pad304", 
      "attrs": {
        "mode": "constant", 
        "pad_width": "(0, 0, 0, 0, 1, 1, 1, 1)"
      }, 
      "inputs": [[1734, 0, 0]]
    }, 
    {
      "op": "null", 
      "name": "learned_592", 
      "attrs": {"__shape__": "(64, 64, 3, 3)"}, 
      "inputs": []
    }, 
    {
      "op": "null", 
      "name": "learned_593", 
      "attrs": {"__shape__": "(64,)"}, 
      "inputs": []
    }, 
    {
      "op": "Convolution", 
      "name": "convolution304", 
      "attrs": {
        "dilate": "(1, 1)", 
        "kernel": "(3, 3)", 
        "no_bias": "False", 
        "num_filter": "64", 
        "num_group": "1", 
        "stride": "(1, 1)"
      }, 
      "inputs": [[1735, 0, 0], [1736, 0, 0], [1737, 0, 0]]
    }, 
    {
      "op": "relu", 
      "name": "relu305", 
      "inputs": [[1738, 0, 0]]
    }, 
    {
      "op": "Pad", 
      "name": "pad305", 
      "attrs": {
        "mode": "constant", 
        "pad_width": "(0, 0, 0, 0, 1, 1, 1, 1)"
      }, 
      "inputs": [[1739, 0, 0]]
    }, 
    {
      "op": "null", 
      "name": "learned_594", 
      "attrs": {"__shape__": "(64, 64, 3, 3)"}, 
      "inputs": []
    }, 
    {
      "op": "null", 
      "name": "learned_595", 
      "attrs": {"__shape__": "(64,)"}, 
      "inputs": []
    }, 
    {
      "op": "Convolution", 
      "name": "convolution305", 
      "attrs": {
        "dilate": "(1, 1)", 
        "kernel": "(3, 3)", 
        "no_bias": "False", 
        "num_filter": "64", 
        "num_group": "1", 
        "stride": "(1, 1)"
      }, 
      "inputs": [[1740, 0, 0], [1741, 0, 0], [1742, 0, 0]]
    }, 
    {
      "op": "broadcast_add", 
      "name": "broadcast_add93", 
      "inputs": [[1743, 0, 0], [1734, 0, 0]]
    }, 
    {
      "op": "Concat", 
      "name": "concat116", 
      "attrs": {
        "dim": "1", 
        "num_args": "2"
      }, 
      "inputs": [[1728, 0, 0], [1744, 0, 0]]
    }, 
    {
      "op": "Pad", 
      "name": "pad306", 
      "attrs": {
        "mode": "constant", 
        "pad_width": "(0, 0, 0, 0, 0, 0, 0, 0)"
      }, 
      "inputs": [[1745, 0, 0]]
    }, 
    {
      "op": "null", 
      "name": "learned_606", 
      "attrs": {"__shape__": "(64, 192, 1, 1)"}, 
      "inputs": []
    }, 
    {
      "op": "null", 
      "name": "learned_607", 
      "attrs": {"__shape__": "(64,)"}, 
      "inputs": []
    }, 
    {
      "op": "Convolution", 
      "name": "convolution306", 
      "attrs": {
        "dilate": "(1, 1)", 
        "kernel": "(1, 1)", 
        "no_bias": "False", 
        "num_filter": "64", 
        "num_group": "1", 
        "stride": "(1, 1)"
      }, 
      "inputs": [[1746, 0, 0], [1747, 0, 0], [1748, 0, 0]]
    }, 
    {
      "op": "relu", 
      "name": "relu306", 
      "inputs": [[1749, 0, 0]]
    }, 
    {
      "op": "relu", 
      "name": "relu307", 
      "inputs": [[1750, 0, 0]]
    }, 
    {
      "op": "Pad", 
      "name": "pad307", 
      "attrs": {
        "mode": "constant", 
        "pad_width": "(0, 0, 0, 0, 1, 1, 1, 1)"
      }, 
      "inputs": [[1751, 0, 0]]
    }, 
    {
      "op": "null", 
      "name": "learned_596", 
      "attrs": {"__shape__": "(64, 64, 3, 3)"}, 
      "inputs": []
    }, 
    {
      "op": "null", 
      "name": "learned_597", 
      "attrs": {"__shape__": "(64,)"}, 
      "inputs": []
    }, 
    {
      "op": "Convolution", 
      "name": "convolution307", 
      "attrs": {
        "dilate": "(1, 1)", 
        "kernel": "(3, 3)", 
        "no_bias": "False", 
        "num_filter": "64", 
        "num_group": "1", 
        "stride": "(1, 1)"
      }, 
      "inputs": [[1752, 0, 0], [1753, 0, 0], [1754, 0, 0]]
    }, 
    {
      "op": "relu", 
      "name": "relu308", 
      "inputs": [[1755, 0, 0]]
    }, 
    {
      "op": "Pad", 
      "name": "pad308", 
      "attrs": {
        "mode": "constant", 
        "pad_width": "(0, 0, 0, 0, 1, 1, 1, 1)"
      }, 
      "inputs": [[1756, 0, 0]]
    }, 
    {
      "op": "null", 
      "name": "learned_598", 
      "attrs": {"__shape__": "(64, 64, 3, 3)"}, 
      "inputs": []
    }, 
    {
      "op": "null", 
      "name": "learned_599", 
      "attrs": {"__shape__": "(64,)"}, 
      "inputs": []
    }, 
    {
      "op": "Convolution", 
      "name": "convolution308", 
      "attrs": {
        "dilate": "(1, 1)", 
        "kernel": "(3, 3)", 
        "no_bias": "False", 
        "num_filter": "64", 
        "num_group": "1", 
        "stride": "(1, 1)"
      }, 
      "inputs": [[1757, 0, 0], [1758, 0, 0], [1759, 0, 0]]
    }, 
    {
      "op": "broadcast_add", 
      "name": "broadcast_add94", 
      "inputs": [[1760, 0, 0], [1751, 0, 0]]
    }, 
    {
      "op": "Concat", 
      "name": "concat117", 
      "attrs": {
        "dim": "1", 
        "num_args": "2"
      }, 
      "inputs": [[1745, 0, 0], [1761, 0, 0]]
    }, 
    {
      "op": "Pad", 
      "name": "pad309", 
      "attrs": {
        "mode": "constant", 
        "pad_width": "(0, 0, 0, 0, 0, 0, 0, 0)"
      }, 
      "inputs": [[1762, 0, 0]]
    }, 
    {
      "op": "null", 
      "name": "learned_608", 
      "attrs": {"__shape__": "(64, 256, 1, 1)"}, 
      "inputs": []
    }, 
    {
      "op": "null", 
      "name": "learned_609", 
      "attrs": {"__shape__": "(64,)"}, 
      "inputs": []
    }, 
    {
      "op": "Convolution", 
      "name": "convolution309", 
      "attrs": {
        "dilate": "(1, 1)", 
        "kernel": "(1, 1)", 
        "no_bias": "False", 
        "num_filter": "64", 
        "num_group": "1", 
        "stride": "(1, 1)"
      }, 
      "inputs": [[1763, 0, 0], [1764, 0, 0], [1765, 0, 0]]
    }, 
    {
      "op": "relu", 
      "name": "relu309", 
      "inputs": [[1766, 0, 0]]
    }, 
    {
      "op": "relu", 
      "name": "relu310", 
      "inputs": [[1767, 0, 0]]
    }, 
    {
      "op": "Pad", 
      "name": "pad310", 
      "attrs": {
        "mode": "constant", 
        "pad_width": "(0, 0, 0, 0, 1, 1, 1, 1)"
      }, 
      "inputs": [[1768, 0, 0]]
    }, 
    {
      "op": "null", 
      "name": "learned_600", 
      "attrs": {"__shape__": "(64, 64, 3, 3)"}, 
      "inputs": []
    }, 
    {
      "op": "null", 
      "name": "learned_601", 
      "attrs": {"__shape__": "(64,)"}, 
      "inputs": []
    }, 
    {
      "op": "Convolution", 
      "name": "convolution310", 
      "attrs": {
        "dilate": "(1, 1)", 
        "kernel": "(3, 3)", 
        "no_bias": "False", 
        "num_filter": "64", 
        "num_group": "1", 
        "stride": "(1, 1)"
      }, 
      "inputs": [[1769, 0, 0], [1770, 0, 0], [1771, 0, 0]]
    }, 
    {
      "op": "relu", 
      "name": "relu311", 
      "inputs": [[1772, 0, 0]]
    }, 
    {
      "op": "Pad", 
      "name": "pad311", 
      "attrs": {
        "mode": "constant", 
        "pad_width": "(0, 0, 0, 0, 1, 1, 1, 1)"
      }, 
      "inputs": [[1773, 0, 0]]
    }, 
    {
      "op": "null", 
      "name": "learned_602", 
      "attrs": {"__shape__": "(64, 64, 3, 3)"}, 
      "inputs": []
    }, 
    {
      "op": "null", 
      "name": "learned_603", 
      "attrs": {"__shape__": "(64,)"}, 
      "inputs": []
    }, 
    {
      "op": "Convolution", 
      "name": "convolution311", 
      "attrs": {
        "dilate": "(1, 1)", 
        "kernel": "(3, 3)", 
        "no_bias": "False", 
        "num_filter": "64", 
        "num_group": "1", 
        "stride": "(1, 1)"
      }, 
      "inputs": [[1774, 0, 0], [1775, 0, 0], [1776, 0, 0]]
    }, 
    {
      "op": "broadcast_add", 
      "name": "broadcast_add95", 
      "inputs": [[1777, 0, 0], [1768, 0, 0]]
    }, 
    {
      "op": "Concat", 
      "name": "concat118", 
      "attrs": {
        "dim": "1", 
        "num_args": "2"
      }, 
      "inputs": [[1762, 0, 0], [1778, 0, 0]]
    }, 
    {
      "op": "Pad", 
      "name": "pad312", 
      "attrs": {
        "mode": "constant", 
        "pad_width": "(0, 0, 0, 0, 0, 0, 0, 0)"
      }, 
      "inputs": [[1779, 0, 0]]
    }, 
    {
      "op": "null", 
      "name": "learned_610", 
      "attrs": {"__shape__": "(64, 320, 1, 1)"}, 
      "inputs": []
    }, 
    {
      "op": "null", 
      "name": "learned_611", 
      "attrs": {"__shape__": "(64,)"}, 
      "inputs": []
    }, 
    {
      "op": "Convolution", 
      "name": "convolution312", 
      "attrs": {
        "dilate": "(1, 1)", 
        "kernel": "(1, 1)", 
        "no_bias": "False", 
        "num_filter": "64", 
        "num_group": "1", 
        "stride": "(1, 1)"
      }, 
      "inputs": [[1780, 0, 0], [1781, 0, 0], [1782, 0, 0]]
    }, 
    {
      "op": "relu", 
      "name": "relu312", 
      "inputs": [[1783, 0, 0]]
    }, 
    {
      "op": "Concat", 
      "name": "concat119", 
      "attrs": {
        "dim": "1", 
        "num_args": "2"
      }, 
      "inputs": [[1711, 0, 0], [1784, 0, 0]]
    }, 
    {
      "op": "Pad", 
      "name": "pad313", 
      "attrs": {
        "mode": "constant", 
        "pad_width": "(0, 0, 0, 0, 0, 0, 0, 0)"
      }, 
      "inputs": [[1785, 0, 0]]
    }, 
    {
      "op": "null", 
      "name": "learned_626", 
      "attrs": {"__shape__": "(64, 576, 1, 1)"}, 
      "inputs": []
    }, 
    {
      "op": "null", 
      "name": "learned_627", 
      "attrs": {"__shape__": "(64,)"}, 
      "inputs": []
    }, 
    {
      "op": "Convolution", 
      "name": "convolution313", 
      "attrs": {
        "dilate": "(1, 1)", 
        "kernel": "(1, 1)", 
        "no_bias": "False", 
        "num_filter": "64", 
        "num_group": "1", 
        "stride": "(1, 1)"
      }, 
      "inputs": [[1786, 0, 0], [1787, 0, 0], [1788, 0, 0]]
    }, 
    {
      "op": "relu", 
      "name": "relu313", 
      "inputs": [[1789, 0, 0]]
    }, 
    {
      "op": "Pad", 
      "name": "pad314", 
      "attrs": {
        "mode": "constant", 
        "pad_width": "(0, 0, 0, 0, 1, 1, 1, 1)"
      }, 
      "inputs": [[1790, 0, 0]]
    }, 
    {
      "op": "null", 
      "name": "learned_628", 
      "attrs": {"__shape__": "(256, 64, 3, 3)"}, 
      "inputs": []
    }, 
    {
      "op": "null", 
      "name": "learned_629", 
      "attrs": {"__shape__": "(256,)"}, 
      "inputs": []
    }, 
    {
      "op": "Convolution", 
      "name": "convolution314", 
      "attrs": {
        "dilate": "(1, 1)", 
        "kernel": "(3, 3)", 
        "no_bias": "False", 
        "num_filter": "256", 
        "num_group": "1", 
        "stride": "(1, 1)"
      }, 
      "inputs": [[1791, 0, 0], [1792, 0, 0], [1793, 0, 0]]
    }, 
    {
      "op": "relu", 
      "name": "relu314", 
      "inputs": [[1794, 0, 0]]
    }, 
    {
      "op": "Reshape", 
      "name": "reshape3", 
      "attrs": {"shape": "(0, -4, -1, 4, 0, 0)"}, 
      "inputs": [[1795, 0, 0]]
    }, 
    {
      "op": "Reshape", 
      "name": "reshape4", 
      "attrs": {"shape": "(0, 0, -4, 2, 2, 0, 0)"}, 
      "inputs": [[1796, 0, 0]]
    }, 
    {
      "op": "transpose", 
      "name": "transpose1", 
      "attrs": {"axes": "(0, 1, 4, 2, 5, 3)"}, 
      "inputs": [[1797, 0, 0]]
    }, 
    {
      "op": "Reshape", 
      "name": "reshape5", 
      "attrs": {"shape": "(0, 0, -3, -3)"}, 
      "inputs": [[1798, 0, 0]]
    }, 
    {
      "op": "null", 
      "name": "learned_634", 
      "attrs": {"__shape__": "(3, 64, 3, 3)"}, 
      "inputs": []
    }, 
    {
      "op": "null", 
      "name": "learned_635", 
      "attrs": {"__shape__": "(3,)"}, 
      "inputs": []
    }, 
    {
      "op": "Convolution", 
      "name": "convolution315", 
      "attrs": {
        "dilate": "(1, 1)", 
        "kernel": "(3, 3)", 
        "no_bias": "False", 
        "num_filter": "3", 
        "num_group": "1", 
        "pad": "(1, 1)", 
        "stride": "(1, 1)"
      }, 
      "inputs": [[1799, 0, 0], [1800, 0, 0], [1801, 0, 0]]
    }, 
    {
      "op": "broadcast_add", 
      "name": "output", 
      "inputs": [[1, 0, 0], [1802, 0, 0]]
    }
  ], 
  "arg_nodes": [
    0, 
    3, 
    4, 
    9, 
    10, 
    14, 
    15, 
    20, 
    21, 
    26, 
    27, 
    31, 
    32, 
    37, 
    38, 
    43, 
    44, 
    48, 
    49, 
    54, 
    55, 
    60, 
    61, 
    65, 
    66, 
    71, 
    72, 
    77, 
    78, 
    83, 
    84, 
    88, 
    89, 
    94, 
    95, 
    100, 
    101, 
    105, 
    106, 
    111, 
    112, 
    117, 
    118, 
    122, 
    123, 
    128, 
    129, 
    134, 
    135, 
    139, 
    140, 
    145, 
    146, 
    151, 
    152, 
    157, 
    158, 
    162, 
    163, 
    168, 
    169, 
    174, 
    175, 
    179, 
    180, 
    185, 
    186, 
    191, 
    192, 
    196, 
    197, 
    202, 
    203, 
    208, 
    209, 
    213, 
    214, 
    219, 
    220, 
    225, 
    226, 
    231, 
    232, 
    236, 
    237, 
    242, 
    243, 
    248, 
    249, 
    253, 
    254, 
    259, 
    260, 
    265, 
    266, 
    270, 
    271, 
    276, 
    277, 
    282, 
    283, 
    287, 
    288, 
    293, 
    294, 
    299, 
    300, 
    305, 
    306, 
    310, 
    311, 
    316, 
    317, 
    322, 
    323, 
    327, 
    328, 
    333, 
    334, 
    339, 
    340, 
    344, 
    345, 
    350, 
    351, 
    356, 
    357, 
    361, 
    362, 
    367, 
    368, 
    373, 
    374, 
    379, 
    380, 
    384, 
    385, 
    390, 
    391, 
    396, 
    397, 
    401, 
    402, 
    407, 
    408, 
    413, 
    414, 
    418, 
    419, 
    424, 
    425, 
    430, 
    431, 
    435, 
    436, 
    441, 
    442, 
    447, 
    448, 
    453, 
    454, 
    458, 
    459, 
    464, 
    465, 
    470, 
    471, 
    475, 
    476, 
    481, 
    482, 
    487, 
    488, 
    492, 
    493, 
    498, 
    499, 
    504, 
    505, 
    509, 
    510, 
    515, 
    516, 
    521, 
    522, 
    527, 
    528, 
    532, 
    533, 
    538, 
    539, 
    544, 
    545, 
    549, 
    550, 
    555, 
    556, 
    561, 
    562, 
    566, 
    567, 
    572, 
    573, 
    578, 
    579, 
    583, 
    584, 
    589, 
    590, 
    595, 
    596, 
    601, 
    602, 
    606, 
    607, 
    612, 
    613, 
    618, 
    619, 
    623, 
    624, 
    629, 
    630, 
    635, 
    636, 
    640, 
    641, 
    646, 
    647, 
    652, 
    653, 
    657, 
    658, 
    663, 
    664, 
    669, 
    670, 
    675, 
    676, 
    680, 
    681, 
    686, 
    687, 
    692, 
    693, 
    697, 
    698, 
    703, 
    704, 
    709, 
    710, 
    714, 
    715, 
    720, 
    721, 
    726, 
    727, 
    731, 
    732, 
    737, 
    738, 
    743, 
    744, 
    749, 
    750, 
    754, 
    755, 
    760, 
    761, 
    766, 
    767, 
    771, 
    772, 
    777, 
    778, 
    783, 
    784, 
    788, 
    789, 
    794, 
    795, 
    800, 
    801, 
    805, 
    806, 
    811, 
    812, 
    817, 
    818, 
    823, 
    824, 
    828, 
    829, 
    834, 
    835, 
    840, 
    841, 
    845, 
    846, 
    851, 
    852, 
    857, 
    858, 
    862, 
    863, 
    868, 
    869, 
    874, 
    875, 
    879, 
    880, 
    885, 
    886, 
    891, 
    892, 
    897, 
    898, 
    902, 
    903, 
    908, 
    909, 
    914, 
    915, 
    919, 
    920, 
    925, 
    926, 
    931, 
    932, 
    936, 
    937, 
    942, 
    943, 
    948, 
    949, 
    953, 
    954, 
    959, 
    960, 
    965, 
    966, 
    971, 
    972, 
    976, 
    977, 
    982, 
    983, 
    988, 
    989, 
    993, 
    994, 
    999, 
    1000, 
    1005, 
    1006, 
    1010, 
    1011, 
    1016, 
    1017, 
    1022, 
    1023, 
    1027, 
    1028, 
    1033, 
    1034, 
    1039, 
    1040, 
    1045, 
    1046, 
    1050, 
    1051, 
    1056, 
    1057, 
    1062, 
    1063, 
    1067, 
    1068, 
    1073, 
    1074, 
    1079, 
    1080, 
    1084, 
    1085, 
    1090, 
    1091, 
    1096, 
    1097, 
    1101, 
    1102, 
    1107, 
    1108, 
    1113, 
    1114, 
    1119, 
    1120, 
    1124, 
    1125, 
    1130, 
    1131, 
    1136, 
    1137, 
    1141, 
    1142, 
    1147, 
    1148, 
    1153, 
    1154, 
    1158, 
    1159, 
    1164, 
    1165, 
    1170, 
    1171, 
    1175, 
    1176, 
    1181, 
    1182, 
    1187, 
    1188, 
    1192, 
    1193, 
    1201, 
    1202, 
    1206, 
    1207, 
    1212, 
    1213, 
    1218, 
    1219, 
    1223, 
    1224, 
    1229, 
    1230, 
    1235, 
    1236, 
    1240, 
    1241, 
    1246, 
    1247, 
    1252, 
    1253, 
    1257, 
    1258, 
    1263, 
    1264, 
    1269, 
    1270, 
    1275, 
    1276, 
    1280, 
    1281, 
    1286, 
    1287, 
    1292, 
    1293, 
    1297, 
    1298, 
    1303, 
    1304, 
    1309, 
    1310, 
    1314, 
    1315, 
    1320, 
    1321, 
    1326, 
    1327, 
    1331, 
    1332, 
    1337, 
    1338, 
    1343, 
    1344, 
    1349, 
    1350, 
    1354, 
    1355, 
    1360, 
    1361, 
    1366, 
    1367, 
    1371, 
    1372, 
    1377, 
    1378, 
    1383, 
    1384, 
    1388, 
    1389, 
    1394, 
    1395, 
    1400, 
    1401, 
    1405, 
    1406, 
    1411, 
    1412, 
    1417, 
    1418, 
    1423, 
    1424, 
    1428, 
    1429, 
    1434, 
    1435, 
    1440, 
    1441, 
    1445, 
    1446, 
    1451, 
    1452, 
    1457, 
    1458, 
    1462, 
    1463, 
    1468, 
    1469, 
    1474, 
    1475, 
    1479, 
    1480, 
    1485, 
    1486, 
    1491, 
    1492, 
    1497, 
    1498, 
    1502, 
    1503, 
    1508, 
    1509, 
    1514, 
    1515, 
    1519, 
    1520, 
    1525, 
    1526, 
    1531, 
    1532, 
    1536, 
    1537, 
    1542, 
    1543, 
    1548, 
    1549, 
    1553, 
    1554, 
    1559, 
    1560, 
    1565, 
    1566, 
    1571, 
    1572, 
    1576, 
    1577, 
    1582, 
    1583, 
    1588, 
    1589, 
    1593, 
    1594, 
    1599, 
    1600, 
    1605, 
    1606, 
    1610, 
    1611, 
    1616, 
    1617, 
    1622, 
    1623, 
    1627, 
    1628, 
    1633, 
    1634, 
    1639, 
    1640, 
    1645, 
    1646, 
    1650, 
    1651, 
    1656, 
    1657, 
    1662, 
    1663, 
    1667, 
    1668, 
    1673, 
    1674, 
    1679, 
    1680, 
    1684, 
    1685, 
    1690, 
    1691, 
    1696, 
    1697, 
    1701, 
    1702, 
    1707, 
    1708, 
    1713, 
    1714, 
    1719, 
    1720, 
    1724, 
    1725, 
    1730, 
    1731, 
    1736, 
    1737, 
    1741, 
    1742, 
    1747, 
    1748, 
    1753, 
    1754, 
    1758, 
    1759, 
    1764, 
    1765, 
    1770, 
    1771, 
    1775, 
    1776, 
    1781, 
    1782, 
    1787, 
    1788, 
    1792, 
    1793, 
    1800, 
    1801
  ], 
  "node_row_ptr": [
    0, 
    1, 
    2, 
    3, 
    4, 
    5, 
    6, 
    7, 
    8, 
    9, 
    10, 
    11, 
    12, 
    13, 
    14, 
    15, 
    16, 
    17, 
    18, 
    19, 
    20, 
    21, 
    22, 
    23, 
    24, 
    25, 
    26, 
    27, 
    28, 
    29, 
    30, 
    31, 
    32, 
    33, 
    34, 
    35, 
    36, 
    37, 
    38, 
    39, 
    40, 
    41, 
    42, 
    43, 
    44, 
    45, 
    46, 
    47, 
    48, 
    49, 
    50, 
    51, 
    52, 
    53, 
    54, 
    55, 
    56, 
    57, 
    58, 
    59, 
    60, 
    61, 
    62, 
    63, 
    64, 
    65, 
    66, 
    67, 
    68, 
    69, 
    70, 
    71, 
    72, 
    73, 
    74, 
    75, 
    76, 
    77, 
    78, 
    79, 
    80, 
    81, 
    82, 
    83, 
    84, 
    85, 
    86, 
    87, 
    88, 
    89, 
    90, 
    91, 
    92, 
    93, 
    94, 
    95, 
    96, 
    97, 
    98, 
    99, 
    100, 
    101, 
    102, 
    103, 
    104, 
    105, 
    106, 
    107, 
    108, 
    109, 
    110, 
    111, 
    112, 
    113, 
    114, 
    115, 
    116, 
    117, 
    118, 
    119, 
    120, 
    121, 
    122, 
    123, 
    124, 
    125, 
    126, 
    127, 
    128, 
    129, 
    130, 
    131, 
    132, 
    133, 
    134, 
    135, 
    136, 
    137, 
    138, 
    139, 
    140, 
    141, 
    142, 
    143, 
    144, 
    145, 
    146, 
    147, 
    148, 
    149, 
    150, 
    151, 
    152, 
    153, 
    154, 
    155, 
    156, 
    157, 
    158, 
    159, 
    160, 
    161, 
    162, 
    163, 
    164, 
    165, 
    166, 
    167, 
    168, 
    169, 
    170, 
    171, 
    172, 
    173, 
    174, 
    175, 
    176, 
    177, 
    178, 
    179, 
    180, 
    181, 
    182, 
    183, 
    184, 
    185, 
    186, 
    187, 
    188, 
    189, 
    190, 
    191, 
    192, 
    193, 
    194, 
    195, 
    196, 
    197, 
    198, 
    199, 
    200, 
    201, 
    202, 
    203, 
    204, 
    205, 
    206, 
    207, 
    208, 
    209, 
    210, 
    211, 
    212, 
    213, 
    214, 
    215, 
    216, 
    217, 
    218, 
    219, 
    220, 
    221, 
    222, 
    223, 
    224, 
    225, 
    226, 
    227, 
    228, 
    229, 
    230, 
    231, 
    232, 
    233, 
    234, 
    235, 
    236, 
    237, 
    238, 
    239, 
    240, 
    241, 
    242, 
    243, 
    244, 
    245, 
    246, 
    247, 
    248, 
    249, 
    250, 
    251, 
    252, 
    253, 
    254, 
    255, 
    256, 
    257, 
    258, 
    259, 
    260, 
    261, 
    262, 
    263, 
    264, 
    265, 
    266, 
    267, 
    268, 
    269, 
    270, 
    271, 
    272, 
    273, 
    274, 
    275, 
    276, 
    277, 
    278, 
    279, 
    280, 
    281, 
    282, 
    283, 
    284, 
    285, 
    286, 
    287, 
    288, 
    289, 
    290, 
    291, 
    292, 
    293, 
    294, 
    295, 
    296, 
    297, 
    298, 
    299, 
    300, 
    301, 
    302, 
    303, 
    304, 
    305, 
    306, 
    307, 
    308, 
    309, 
    310, 
    311, 
    312, 
    313, 
    314, 
    315, 
    316, 
    317, 
    318, 
    319, 
    320, 
    321, 
    322, 
    323, 
    324, 
    325, 
    326, 
    327, 
    328, 
    329, 
    330, 
    331, 
    332, 
    333, 
    334, 
    335, 
    336, 
    337, 
    338, 
    339, 
    340, 
    341, 
    342, 
    343, 
    344, 
    345, 
    346, 
    347, 
    348, 
    349, 
    350, 
    351, 
    352, 
    353, 
    354, 
    355, 
    356, 
    357, 
    358, 
    359, 
    360, 
    361, 
    362, 
    363, 
    364, 
    365, 
    366, 
    367, 
    368, 
    369, 
    370, 
    371, 
    372, 
    373, 
    374, 
    375, 
    376, 
    377, 
    378, 
    379, 
    380, 
    381, 
    382, 
    383, 
    384, 
    385, 
    386, 
    387, 
    388, 
    389, 
    390, 
    391, 
    392, 
    393, 
    394, 
    395, 
    396, 
    397, 
    398, 
    399, 
    400, 
    401, 
    402, 
    403, 
    404, 
    405, 
    406, 
    407, 
    408, 
    409, 
    410, 
    411, 
    412, 
    413, 
    414, 
    415, 
    416, 
    417, 
    418, 
    419, 
    420, 
    421, 
    422, 
    423, 
    424, 
    425, 
    426, 
    427, 
    428, 
    429, 
    430, 
    431, 
    432, 
    433, 
    434, 
    435, 
    436, 
    437, 
    438, 
    439, 
    440, 
    441, 
    442, 
    443, 
    444, 
    445, 
    446, 
    447, 
    448, 
    449, 
    450, 
    451, 
    452, 
    453, 
    454, 
    455, 
    456, 
    457, 
    458, 
    459, 
    460, 
    461, 
    462, 
    463, 
    464, 
    465, 
    466, 
    467, 
    468, 
    469, 
    470, 
    471, 
    472, 
    473, 
    474, 
    475, 
    476, 
    477, 
    478, 
    479, 
    480, 
    481, 
    482, 
    483, 
    484, 
    485, 
    486, 
    487, 
    488, 
    489, 
    490, 
    491, 
    492, 
    493, 
    494, 
    495, 
    496, 
    497, 
    498, 
    499, 
    500, 
    501, 
    502, 
    503, 
    504, 
    505, 
    506, 
    507, 
    508, 
    509, 
    510, 
    511, 
    512, 
    513, 
    514, 
    515, 
    516, 
    517, 
    518, 
    519, 
    520, 
    521, 
    522, 
    523, 
    524, 
    525, 
    526, 
    527, 
    528, 
    529, 
    530, 
    531, 
    532, 
    533, 
    534, 
    535, 
    536, 
    537, 
    538, 
    539, 
    540, 
    541, 
    542, 
    543, 
    544, 
    545, 
    546, 
    547, 
    548, 
    549, 
    550, 
    551, 
    552, 
    553, 
    554, 
    555, 
    556, 
    557, 
    558, 
    559, 
    560, 
    561, 
    562, 
    563, 
    564, 
    565, 
    566, 
    567, 
    568, 
    569, 
    570, 
    571, 
    572, 
    573, 
    574, 
    575, 
    576, 
    577, 
    578, 
    579, 
    580, 
    581, 
    582, 
    583, 
    584, 
    585, 
    586, 
    587, 
    588, 
    589, 
    590, 
    591, 
    592, 
    593, 
    594, 
    595, 
    596, 
    597, 
    598, 
    599, 
    600, 
    601, 
    602, 
    603, 
    604, 
    605, 
    606, 
    607, 
    608, 
    609, 
    610, 
    611, 
    612, 
    613, 
    614, 
    615, 
    616, 
    617, 
    618, 
    619, 
    620, 
    621, 
    622, 
    623, 
    624, 
    625, 
    626, 
    627, 
    628, 
    629, 
    630, 
    631, 
    632, 
    633, 
    634, 
    635, 
    636, 
    637, 
    638, 
    639, 
    640, 
    641, 
    642, 
    643, 
    644, 
    645, 
    646, 
    647, 
    648, 
    649, 
    650, 
    651, 
    652, 
    653, 
    654, 
    655, 
    656, 
    657, 
    658, 
    659, 
    660, 
    661, 
    662, 
    663, 
    664, 
    665, 
    666, 
    667, 
    668, 
    669, 
    670, 
    671, 
    672, 
    673, 
    674, 
    675, 
    676, 
    677, 
    678, 
    679, 
    680, 
    681, 
    682, 
    683, 
    684, 
    685, 
    686, 
    687, 
    688, 
    689, 
    690, 
    691, 
    692, 
    693, 
    694, 
    695, 
    696, 
    697, 
    698, 
    699, 
    700, 
    701, 
    702, 
    703, 
    704, 
    705, 
    706, 
    707, 
    708, 
    709, 
    710, 
    711, 
    712, 
    713, 
    714, 
    715, 
    716, 
    717, 
    718, 
    719, 
    720, 
    721, 
    722, 
    723, 
    724, 
    725, 
    726, 
    727, 
    728, 
    729, 
    730, 
    731, 
    732, 
    733, 
    734, 
    735, 
    736, 
    737, 
    738, 
    739, 
    740, 
    741, 
    742, 
    743, 
    744, 
    745, 
    746, 
    747, 
    748, 
    749, 
    750, 
    751, 
    752, 
    753, 
    754, 
    755, 
    756, 
    757, 
    758, 
    759, 
    760, 
    761, 
    762, 
    763, 
    764, 
    765, 
    766, 
    767, 
    768, 
    769, 
    770, 
    771, 
    772, 
    773, 
    774, 
    775, 
    776, 
    777, 
    778, 
    779, 
    780, 
    781, 
    782, 
    783, 
    784, 
    785, 
    786, 
    787, 
    788, 
    789, 
    790, 
    791, 
    792, 
    793, 
    794, 
    795, 
    796, 
    797, 
    798, 
    799, 
    800, 
    801, 
    802, 
    803, 
    804, 
    805, 
    806, 
    807, 
    808, 
    809, 
    810, 
    811, 
    812, 
    813, 
    814, 
    815, 
    816, 
    817, 
    818, 
    819, 
    820, 
    821, 
    822, 
    823, 
    824, 
    825, 
    826, 
    827, 
    828, 
    829, 
    830, 
    831, 
    832, 
    833, 
    834, 
    835, 
    836, 
    837, 
    838, 
    839, 
    840, 
    841, 
    842, 
    843, 
    844, 
    845, 
    846, 
    847, 
    848, 
    849, 
    850, 
    851, 
    852, 
    853, 
    854, 
    855, 
    856, 
    857, 
    858, 
    859, 
    860, 
    861, 
    862, 
    863, 
    864, 
    865, 
    866, 
    867, 
    868, 
    869, 
    870, 
    871, 
    872, 
    873, 
    874, 
    875, 
    876, 
    877, 
    878, 
    879, 
    880, 
    881, 
    882, 
    883, 
    884, 
    885, 
    886, 
    887, 
    888, 
    889, 
    890, 
    891, 
    892, 
    893, 
    894, 
    895, 
    896, 
    897, 
    898, 
    899, 
    900, 
    901, 
    902, 
    903, 
    904, 
    905, 
    906, 
    907, 
    908, 
    909, 
    910, 
    911, 
    912, 
    913, 
    914, 
    915, 
    916, 
    917, 
    918, 
    919, 
    920, 
    921, 
    922, 
    923, 
    924, 
    925, 
    926, 
    927, 
    928, 
    929, 
    930, 
    931, 
    932, 
    933, 
    934, 
    935, 
    936, 
    937, 
    938, 
    939, 
    940, 
    941, 
    942, 
    943, 
    944, 
    945, 
    946, 
    947, 
    948, 
    949, 
    950, 
    951, 
    952, 
    953, 
    954, 
    955, 
    956, 
    957, 
    958, 
    959, 
    960, 
    961, 
    962, 
    963, 
    964, 
    965, 
    966, 
    967, 
    968, 
    969, 
    970, 
    971, 
    972, 
    973, 
    974, 
    975, 
    976, 
    977, 
    978, 
    979, 
    980, 
    981, 
    982, 
    983, 
    984, 
    985, 
    986, 
    987, 
    988, 
    989, 
    990, 
    991, 
    992, 
    993, 
    994, 
    995, 
    996, 
    997, 
    998, 
    999, 
    1000, 
    1001, 
    1002, 
    1003, 
    1004, 
    1005, 
    1006, 
    1007, 
    1008, 
    1009, 
    1010, 
    1011, 
    1012, 
    1013, 
    1014, 
    1015, 
    1016, 
    1017, 
    1018, 
    1019, 
    1020, 
    1021, 
    1022, 
    1023, 
    1024, 
    1025, 
    1026, 
    1027, 
    1028, 
    1029, 
    1030, 
    1031, 
    1032, 
    1033, 
    1034, 
    1035, 
    1036, 
    1037, 
    1038, 
    1039, 
    1040, 
    1041, 
    1042, 
    1043, 
    1044, 
    1045, 
    1046, 
    1047, 
    1048, 
    1049, 
    1050, 
    1051, 
    1052, 
    1053, 
    1054, 
    1055, 
    1056, 
    1057, 
    1058, 
    1059, 
    1060, 
    1061, 
    1062, 
    1063, 
    1064, 
    1065, 
    1066, 
    1067, 
    1068, 
    1069, 
    1070, 
    1071, 
    1072, 
    1073, 
    1074, 
    1075, 
    1076, 
    1077, 
    1078, 
    1079, 
    1080, 
    1081, 
    1082, 
    1083, 
    1084, 
    1085, 
    1086, 
    1087, 
    1088, 
    1089, 
    1090, 
    1091, 
    1092, 
    1093, 
    1094, 
    1095, 
    1096, 
    1097, 
    1098, 
    1099, 
    1100, 
    1101, 
    1102, 
    1103, 
    1104, 
    1105, 
    1106, 
    1107, 
    1108, 
    1109, 
    1110, 
    1111, 
    1112, 
    1113, 
    1114, 
    1115, 
    1116, 
    1117, 
    1118, 
    1119, 
    1120, 
    1121, 
    1122, 
    1123, 
    1124, 
    1125, 
    1126, 
    1127, 
    1128, 
    1129, 
    1130, 
    1131, 
    1132, 
    1133, 
    1134, 
    1135, 
    1136, 
    1137, 
    1138, 
    1139, 
    1140, 
    1141, 
    1142, 
    1143, 
    1144, 
    1145, 
    1146, 
    1147, 
    1148, 
    1149, 
    1150, 
    1151, 
    1152, 
    1153, 
    1154, 
    1155, 
    1156, 
    1157, 
    1158, 
    1159, 
    1160, 
    1161, 
    1162, 
    1163, 
    1164, 
    1165, 
    1166, 
    1167, 
    1168, 
    1169, 
    1170, 
    1171, 
    1172, 
    1173, 
    1174, 
    1175, 
    1176, 
    1177, 
    1178, 
    1179, 
    1180, 
    1181, 
    1182, 
    1183, 
    1184, 
    1185, 
    1186, 
    1187, 
    1188, 
    1189, 
    1190, 
    1191, 
    1192, 
    1193, 
    1194, 
    1195, 
    1196, 
    1197, 
    1198, 
    1199, 
    1200, 
    1201, 
    1202, 
    1203, 
    1204, 
    1205, 
    1206, 
    1207, 
    1208, 
    1209, 
    1210, 
    1211, 
    1212, 
    1213, 
    1214, 
    1215, 
    1216, 
    1217, 
    1218, 
    1219, 
    1220, 
    1221, 
    1222, 
    1223, 
    1224, 
    1225, 
    1226, 
    1227, 
    1228, 
    1229, 
    1230, 
    1231, 
    1232, 
    1233, 
    1234, 
    1235, 
    1236, 
    1237, 
    1238, 
    1239, 
    1240, 
    1241, 
    1242, 
    1243, 
    1244, 
    1245, 
    1246, 
    1247, 
    1248, 
    1249, 
    1250, 
    1251, 
    1252, 
    1253, 
    1254, 
    1255, 
    1256, 
    1257, 
    1258, 
    1259, 
    1260, 
    1261, 
    1262, 
    1263, 
    1264, 
    1265, 
    1266, 
    1267, 
    1268, 
    1269, 
    1270, 
    1271, 
    1272, 
    1273, 
    1274, 
    1275, 
    1276, 
    1277, 
    1278, 
    1279, 
    1280, 
    1281, 
    1282, 
    1283, 
    1284, 
    1285, 
    1286, 
    1287, 
    1288, 
    1289, 
    1290, 
    1291, 
    1292, 
    1293, 
    1294, 
    1295, 
    1296, 
    1297, 
    1298, 
    1299, 
    1300, 
    1301, 
    1302, 
    1303, 
    1304, 
    1305, 
    1306, 
    1307, 
    1308, 
    1309, 
    1310, 
    1311, 
    1312, 
    1313, 
    1314, 
    1315, 
    1316, 
    1317, 
    1318, 
    1319, 
    1320, 
    1321, 
    1322, 
    1323, 
    1324, 
    1325, 
    1326, 
    1327, 
    1328, 
    1329, 
    1330, 
    1331, 
    1332, 
    1333, 
    1334, 
    1335, 
    1336, 
    1337, 
    1338, 
    1339, 
    1340, 
    1341, 
    1342, 
    1343, 
    1344, 
    1345, 
    1346, 
    1347, 
    1348, 
    1349, 
    1350, 
    1351, 
    1352, 
    1353, 
    1354, 
    1355, 
    1356, 
    1357, 
    1358, 
    1359, 
    1360, 
    1361, 
    1362, 
    1363, 
    1364, 
    1365, 
    1366, 
    1367, 
    1368, 
    1369, 
    1370, 
    1371, 
    1372, 
    1373, 
    1374, 
    1375, 
    1376, 
    1377, 
    1378, 
    1379, 
    1380, 
    1381, 
    1382, 
    1383, 
    1384, 
    1385, 
    1386, 
    1387, 
    1388, 
    1389, 
    1390, 
    1391, 
    1392, 
    1393, 
    1394, 
    1395, 
    1396, 
    1397, 
    1398, 
    1399, 
    1400, 
    1401, 
    1402, 
    1403, 
    1404, 
    1405, 
    1406, 
    1407, 
    1408, 
    1409, 
    1410, 
    1411, 
    1412, 
    1413, 
    1414, 
    1415, 
    1416, 
    1417, 
    1418, 
    1419, 
    1420, 
    1421, 
    1422, 
    1423, 
    1424, 
    1425, 
    1426, 
    1427, 
    1428, 
    1429, 
    1430, 
    1431, 
    1432, 
    1433, 
    1434, 
    1435, 
    1436, 
    1437, 
    1438, 
    1439, 
    1440, 
    1441, 
    1442, 
    1443, 
    1444, 
    1445, 
    1446, 
    1447, 
    1448, 
    1449, 
    1450, 
    1451, 
    1452, 
    1453, 
    1454, 
    1455, 
    1456, 
    1457, 
    1458, 
    1459, 
    1460, 
    1461, 
    1462, 
    1463, 
    1464, 
    1465, 
    1466, 
    1467, 
    1468, 
    1469, 
    1470, 
    1471, 
    1472, 
    1473, 
    1474, 
    1475, 
    1476, 
    1477, 
    1478, 
    1479, 
    1480, 
    1481, 
    1482, 
    1483, 
    1484, 
    1485, 
    1486, 
    1487, 
    1488, 
    1489, 
    1490, 
    1491, 
    1492, 
    1493, 
    1494, 
    1495, 
    1496, 
    1497, 
    1498, 
    1499, 
    1500, 
    1501, 
    1502, 
    1503, 
    1504, 
    1505, 
    1506, 
    1507, 
    1508, 
    1509, 
    1510, 
    1511, 
    1512, 
    1513, 
    1514, 
    1515, 
    1516, 
    1517, 
    1518, 
    1519, 
    1520, 
    1521, 
    1522, 
    1523, 
    1524, 
    1525, 
    1526, 
    1527, 
    1528, 
    1529, 
    1530, 
    1531, 
    1532, 
    1533, 
    1534, 
    1535, 
    1536, 
    1537, 
    1538, 
    1539, 
    1540, 
    1541, 
    1542, 
    1543, 
    1544, 
    1545, 
    1546, 
    1547, 
    1548, 
    1549, 
    1550, 
    1551, 
    1552, 
    1553, 
    1554, 
    1555, 
    1556, 
    1557, 
    1558, 
    1559, 
    1560, 
    1561, 
    1562, 
    1563, 
    1564, 
    1565, 
    1566, 
    1567, 
    1568, 
    1569, 
    1570, 
    1571, 
    1572, 
    1573, 
    1574, 
    1575, 
    1576, 
    1577, 
    1578, 
    1579, 
    1580, 
    1581, 
    1582, 
    1583, 
    1584, 
    1585, 
    1586, 
    1587, 
    1588, 
    1589, 
    1590, 
    1591, 
    1592, 
    1593, 
    1594, 
    1595, 
    1596, 
    1597, 
    1598, 
    1599, 
    1600, 
    1601, 
    1602, 
    1603, 
    1604, 
    1605, 
    1606, 
    1607, 
    1608, 
    1609, 
    1610, 
    1611, 
    1612, 
    1613, 
    1614, 
    1615, 
    1616, 
    1617, 
    1618, 
    1619, 
    1620, 
    1621, 
    1622, 
    1623, 
    1624, 
    1625, 
    1626, 
    1627, 
    1628, 
    1629, 
    1630, 
    1631, 
    1632, 
    1633, 
    1634, 
    1635, 
    1636, 
    1637, 
    1638, 
    1639, 
    1640, 
    1641, 
    1642, 
    1643, 
    1644, 
    1645, 
    1646, 
    1647, 
    1648, 
    1649, 
    1650, 
    1651, 
    1652, 
    1653, 
    1654, 
    1655, 
    1656, 
    1657, 
    1658, 
    1659, 
    1660, 
    1661, 
    1662, 
    1663, 
    1664, 
    1665, 
    1666, 
    1667, 
    1668, 
    1669, 
    1670, 
    1671, 
    1672, 
    1673, 
    1674, 
    1675, 
    1676, 
    1677, 
    1678, 
    1679, 
    1680, 
    1681, 
    1682, 
    1683, 
    1684, 
    1685, 
    1686, 
    1687, 
    1688, 
    1689, 
    1690, 
    1691, 
    1692, 
    1693, 
    1694, 
    1695, 
    1696, 
    1697, 
    1698, 
    1699, 
    1700, 
    1701, 
    1702, 
    1703, 
    1704, 
    1705, 
    1706, 
    1707, 
    1708, 
    1709, 
    1710, 
    1711, 
    1712, 
    1713, 
    1714, 
    1715, 
    1716, 
    1717, 
    1718, 
    1719, 
    1720, 
    1721, 
    1722, 
    1723, 
    1724, 
    1725, 
    1726, 
    1727, 
    1728, 
    1729, 
    1730, 
    1731, 
    1732, 
    1733, 
    1734, 
    1735, 
    1736, 
    1737, 
    1738, 
    1739, 
    1740, 
    1741, 
    1742, 
    1743, 
    1744, 
    1745, 
    1746, 
    1747, 
    1748, 
    1749, 
    1750, 
    1751, 
    1752, 
    1753, 
    1754, 
    1755, 
    1756, 
    1757, 
    1758, 
    1759, 
    1760, 
    1761, 
    1762, 
    1763, 
    1764, 
    1765, 
    1766, 
    1767, 
    1768, 
    1769, 
    1770, 
    1771, 
    1772, 
    1773, 
    1774, 
    1775, 
    1776, 
    1777, 
    1778, 
    1779, 
    1780, 
    1781, 
    1782, 
    1783, 
    1784, 
    1785, 
    1786, 
    1787, 
    1788, 
    1789, 
    1790, 
    1791, 
    1792, 
    1793, 
    1794, 
    1795, 
    1796, 
    1797, 
    1798, 
    1799, 
    1800, 
    1801, 
    1802, 
    1803, 
    1804
  ], 
  "heads": [[1803, 0, 0]], 
  "attrs": {"mxnet_version": ["int", 10300]}
}